pbc_examples/saved_models/convection_beta-40.0_layers-50,50,50,50,1_L-2.0_WD-0_init-normal_batch_size256.pt (torch, 114093 bytes, 36 tensors)

x_u f4 [256, 1]
0	0x00000000	0.0
1	0x3cc90fdb	0.024543693
2	0x3d490fdb	0.049087387
3	0x3d96cbe4	0.07363108
4	0x3dc90fdb	0.09817477
5	0x3dfb53d1	0.12271846
6	0x3e16cbe4	0.14726216
7	0x3e2feddf	0.17180584
8	0x3e490fdb	0.19634955
9	0x3e6231d6	0.22089323
10	0x3e7b53d1	0.24543692
11	0x3e8a3ae6	0.2699806
12	0x3e96cbe4	0.2945243
13	0x3ea35ce2	0.319068
14	0x3eafeddf	0.3436117
15	0x3ebc7edd	0.3681554
16	0x3ec90fdb	0.3926991
17	0x3ed5a0d8	0.41724277
18	0x3ee231d6	0.44178647
19	0x3eeec2d4	0.46633017
20	0x3efb53d1	0.49087384
21	0x3f03f267	0.5154175
22	0x3f0a3ae6	0.5399612
23	0x3f108365	0.5645049
24	0x3f16cbe4	0.5890486
25	0x3f1d1463	0.6135923
26	0x3f235ce2	0.638136
27	0x3f29a560	0.6626797
28	0x3f2feddf	0.6872234
29	0x3f36365e	0.7117671
30	0x3f3c7edd	0.7363108
31	0x3f42c75c	0.7608545
32	0x3f490fdb	0.7853982
33	0x3f4f5859	0.8099418
34	0x3f55a0d8	0.83448553
35	0x3f5be957	0.85902923
36	0x3f6231d6	0.88357294
37	0x3f687a55	0.90811664
38	0x3f6ec2d4	0.93266034
39	0x3f750b52	0.957204
40	0x3f7b53d1	0.9817477
41	0x3f80ce28	1.0062914
42	0x3f83f267	1.030835
43	0x3f8716a7	1.0553788
44	0x3f8a3ae6	1.0799224
45	0x3f8d5f26	1.1044662
46	0x3f908365	1.1290098
47	0x3f93a7a5	1.1535536
48	0x3f96cbe4	1.1780972
49	0x3f99f023	1.2026409
50	0x3f9d1463	1.2271847
51	0x3fa038a2	1.2517283
52	0x3fa35ce2	1.276272
53	0x3fa68121	1.3008157
54	0x3fa9a560	1.3253593
55	0x3facc9a0	1.3499031
56	0x3fafeddf	1.3744467
57	0x3fb3121f	1.3989905
58	0x3fb6365e	1.4235342
59	0x3fb95a9e	1.4480779
60	0x3fbc7edd	1.4726216
61	0x3fbfa31c	1.4971652
62	0x3fc2c75c	1.521709
63	0x3fc5eb9b	1.5462526
64	0x3fc90fdb	1.5707964
65	0x3fcc341a	1.59534
66	0x3fcf5859	1.6198837
67	0x3fd27c99	1.6444274
68	0x3fd5a0d8	1.6689711
69	0x3fd8c518	1.6935148
70	0x3fdbe957	1.7180585
71	0x3fdf0d97	1.7426022
72	0x3fe231d6	1.7671459
73	0x3fe55615	1.7916895
74	0x3fe87a55	1.8162333
75	0x3feb9e94	1.8407769
76	0x3feec2d4	1.8653207
77	0x3ff1e713	1.8898643
78	0x3ff50b52	1.914408
79	0x3ff82f92	1.9389517
80	0x3ffb53d1	1.9634954
81	0x3ffe7811	1.9880391
82	0x4000ce28	2.0125828
83	0x40026048	2.0371265
84	0x4003f267	2.06167
85	0x40058487	2.0862138
86	0x400716a7	2.1107576
87	0x4008a8c7	2.1353014
88	0x400a3ae6	2.1598449
89	0x400bcd06	2.1843886
90	0x400d5f26	2.2089324
91	0x400ef145	2.233476
92	0x40108365	2.2580197
93	0x40121585	2.2825634
94	0x4013a7a5	2.3071072
95	0x401539c4	2.3316507
96	0x4016cbe4	2.3561945
97	0x40185e04	2.3807383
98	0x4019f023	2.4052818
99	0x401b8243	2.4298255
100	0x401d1463	2.4543693
101	0x401ea683	2.478913
102	0x402038a2	2.5034566
103	0x4021cac2	2.5280004
104	0x40235ce2	2.552544
105	0x4024ef01	2.5770876
106	0x40268121	2.6016314
107	0x40281341	2.6261752
108	0x4029a560	2.6507187
109	0x402b3780	2.6752625
110	0x402cc9a0	2.6998062
111	0x402e5bc0	2.72435
112	0x402feddf	2.7488935
113	0x40317fff	2.7734373
114	0x4033121f	2.797981
115	0x4034a43e	2.8225245
116	0x4036365e	2.8470683
117	0x4037c87e	2.871612
118	0x40395a9e	2.8961558
119	0x403aecbd	2.9206994
120	0x403c7edd	2.9452431
121	0x403e10fd	2.969787
122	0x403fa31c	2.9943304
123	0x4041353c	3.0188742
124	0x4042c75c	3.043418
125	0x4044597c	3.0679617
126	0x4045eb9b	3.0925052
127	0x40477dbb	3.117049
128	0x40490fdb	3.1415927
129	0x404aa1fa	3.1661363
130	0x404c341a	3.19068
131	0x404dc63a	3.2152238
132	0x404f5859	3.2397673
133	0x4050ea79	3.264311
134	0x40527c99	3.2888548
135	0x40540eb9	3.3133986
136	0x4055a0d8	3.3379421
137	0x405732f8	3.362486
138	0x4058c518	3.3870296
139	0x405a5737	3.4115732
140	0x405be957	3.436117
141	0x405d7b77	3.4606607
142	0x405f0d97	3.4852045
143	0x40609fb6	3.509748
144	0x406231d6	3.5342917
145	0x4063c3f6	3.5588355
146	0x40655615	3.583379
147	0x4066e835	3.6079228
148	0x40687a55	3.6324666
149	0x406a0c75	3.6570103
150	0x406b9e94	3.6815538
151	0x406d30b4	3.7060976
152	0x406ec2d4	3.7306414
153	0x407054f3	3.755185
154	0x4071e713	3.7797287
155	0x40737933	3.8042724
156	0x40750b52	3.828816
157	0x40769d72	3.8533597
158	0x40782f92	3.8779035
159	0x4079c1b2	3.9024472
160	0x407b53d1	3.9269907
161	0x407ce5f1	3.9515345
162	0x407e7811	3.9760783
163	0x40800518	4.000622
164	0x4080ce28	4.0251656
165	0x40819738	4.0497093
166	0x40826048	4.074253
167	0x40832958	4.098797
168	0x4083f267	4.12334
169	0x4084bb77	4.147884
170	0x40858487	4.1724277
171	0x40864d97	4.1969714
172	0x408716a7	4.221515
173	0x4087dfb7	4.246059
174	0x4088a8c7	4.2706027
175	0x408971d6	4.295146
176	0x408a3ae6	4.3196898
177	0x408b03f6	4.3442335
178	0x408bcd06	4.3687773
179	0x408c9616	4.393321
180	0x408d5f26	4.417865
181	0x408e2836	4.4424086
182	0x408ef145	4.466952
183	0x408fba55	4.4914956
184	0x40908365	4.5160394
185	0x40914c75	4.540583
186	0x40921585	4.565127
187	0x4092de95	4.5896707
188	0x4093a7a5	4.6142144
189	0x409470b4	4.6387577
190	0x409539c4	4.6633015
191	0x409602d4	4.687845
192	0x4096cbe4	4.712389
193	0x409794f4	4.7369328
194	0x40985e04	4.7614765
195	0x40992714	4.7860203
196	0x4099f023	4.8105636
197	0x409ab933	4.8351073
198	0x409b8243	4.859651
199	0x409c4b53	4.884195
200	0x409d1463	4.9087386
201	0x409ddd73	4.9332824
202	0x409ea683	4.957826
203	0x409f6f92	4.9823694
204	0x40a038a2	5.006913
205	0x40a101b2	5.031457
206	0x40a1cac2	5.0560007
207	0x40a293d2	5.0805445
208	0x40a35ce2	5.105088
209	0x40a425f1	5.1296315
210	0x40a4ef01	5.1541753
211	0x40a5b811	5.178719
212	0x40a68121	5.203263
213	0x40a74a31	5.2278066
214	0x40a81341	5.2523503
215	0x40a8dc51	5.276894
216	0x40a9a560	5.3014374
217	0x40aa6e70	5.325981
218	0x40ab3780	5.350525
219	0x40ac0090	5.3750687
220	0x40acc9a0	5.3996124
221	0x40ad92b0	5.424156
222	0x40ae5bc0	5.4487
223	0x40af24cf	5.473243
224	0x40afeddf	5.497787
225	0x40b0b6ef	5.5223308
226	0x40b17fff	5.5468745
227	0x40b2490f	5.5714183
228	0x40b3121f	5.595962
229	0x40b3db2f	5.620506
230	0x40b4a43e	5.645049
231	0x40b56d4e	5.669593
232	0x40b6365e	5.6941366
233	0x40b6ff6e	5.7186804
234	0x40b7c87e	5.743224
235	0x40b8918e	5.767768
236	0x40b95a9e	5.7923117
237	0x40ba23ad	5.816855
238	0x40baecbd	5.8413987
239	0x40bbb5cd	5.8659425
240	0x40bc7edd	5.8904862
241	0x40bd47ed	5.91503
242	0x40be10fd	5.939574
243	0x40beda0d	5.9641175
244	0x40bfa31c	5.988661
245	0x40c06c2c	6.0132046
246	0x40c1353c	6.0377483
247	0x40c1fe4c	6.062292
248	0x40c2c75c	6.086836
249	0x40c3906c	6.1113796
250	0x40c4597c	6.1359234
251	0x40c5228b	6.1604667
252	0x40c5eb9b	6.1850104
253	0x40c6b4ab	6.209554
254	0x40c77dbb	6.234098
255	0x40c846cb	6.2586417

t_u f4 [256, 1]
0	0x00000000	0.0
1	0x00000000	0.0
2	0x00000000	0.0
3	0x00000000	0.0
4	0x00000000	0.0
5	0x00000000	0.0
6	0x00000000	0.0
7	0x00000000	0.0
8	0x00000000	0.0
9	0x00000000	0.0
10	0x00000000	0.0
11	0x00000000	0.0
12	0x00000000	0.0
13	0x00000000	0.0
14	0x00000000	0.0
15	0x00000000	0.0
16	0x00000000	0.0
17	0x00000000	0.0
18	0x00000000	0.0
19	0x00000000	0.0
20	0x00000000	0.0
21	0x00000000	0.0
22	0x00000000	0.0
23	0x00000000	0.0
24	0x00000000	0.0
25	0x00000000	0.0
26	0x00000000	0.0
27	0x00000000	0.0
28	0x00000000	0.0
29	0x00000000	0.0
30	0x00000000	0.0
31	0x00000000	0.0
32	0x00000000	0.0
33	0x00000000	0.0
34	0x00000000	0.0
35	0x00000000	0.0
36	0x00000000	0.0
37	0x00000000	0.0
38	0x00000000	0.0
39	0x00000000	0.0
40	0x00000000	0.0
41	0x00000000	0.0
42	0x00000000	0.0
43	0x00000000	0.0
44	0x00000000	0.0
45	0x00000000	0.0
46	0x00000000	0.0
47	0x00000000	0.0
48	0x00000000	0.0
49	0x00000000	0.0
50	0x00000000	0.0
51	0x00000000	0.0
52	0x00000000	0.0
53	0x00000000	0.0
54	0x00000000	0.0
55	0x00000000	0.0
56	0x00000000	0.0
57	0x00000000	0.0
58	0x00000000	0.0
59	0x00000000	0.0
60	0x00000000	0.0
61	0x00000000	0.0
62	0x00000000	0.0
63	0x00000000	0.0
64	0x00000000	0.0
65	0x00000000	0.0
66	0x00000000	0.0
67	0x00000000	0.0
68	0x00000000	0.0
69	0x00000000	0.0
70	0x00000000	0.0
71	0x00000000	0.0
72	0x00000000	0.0
73	0x00000000	0.0
74	0x00000000	0.0
75	0x00000000	0.0
76	0x00000000	0.0
77	0x00000000	0.0
78	0x00000000	0.0
79	0x00000000	0.0
80	0x00000000	0.0
81	0x00000000	0.0
82	0x00000000	0.0
83	0x00000000	0.0
84	0x00000000	0.0
85	0x00000000	0.0
86	0x00000000	0.0
87	0x00000000	0.0
88	0x00000000	0.0
89	0x00000000	0.0
90	0x00000000	0.0
91	0x00000000	0.0
92	0x00000000	0.0
93	0x00000000	0.0
94	0x00000000	0.0
95	0x00000000	0.0
96	0x00000000	0.0
97	0x00000000	0.0
98	0x00000000	0.0
99	0x00000000	0.0
100	0x00000000	0.0
101	0x00000000	0.0
102	0x00000000	0.0
103	0x00000000	0.0
104	0x00000000	0.0
105	0x00000000	0.0
106	0x00000000	0.0
107	0x00000000	0.0
108	0x00000000	0.0
109	0x00000000	0.0
110	0x00000000	0.0
111	0x00000000	0.0
112	0x00000000	0.0
113	0x00000000	0.0
114	0x00000000	0.0
115	0x00000000	0.0
116	0x00000000	0.0
117	0x00000000	0.0
118	0x00000000	0.0
119	0x00000000	0.0
120	0x00000000	0.0
121	0x00000000	0.0
122	0x00000000	0.0
123	0x00000000	0.0
124	0x00000000	0.0
125	0x00000000	0.0
126	0x00000000	0.0
127	0x00000000	0.0
128	0x00000000	0.0
129	0x00000000	0.0
130	0x00000000	0.0
131	0x00000000	0.0
132	0x00000000	0.0
133	0x00000000	0.0
134	0x00000000	0.0
135	0x00000000	0.0
136	0x00000000	0.0
137	0x00000000	0.0
138	0x00000000	0.0
139	0x00000000	0.0
140	0x00000000	0.0
141	0x00000000	0.0
142	0x00000000	0.0
143	0x00000000	0.0
144	0x00000000	0.0
145	0x00000000	0.0
146	0x00000000	0.0
147	0x00000000	0.0
148	0x00000000	0.0
149	0x00000000	0.0
150	0x00000000	0.0
151	0x00000000	0.0
152	0x00000000	0.0
153	0x00000000	0.0
154	0x00000000	0.0
155	0x00000000	0.0
156	0x00000000	0.0
157	0x00000000	0.0
158	0x00000000	0.0
159	0x00000000	0.0
160	0x00000000	0.0
161	0x00000000	0.0
162	0x00000000	0.0
163	0x00000000	0.0
164	0x00000000	0.0
165	0x00000000	0.0
166	0x00000000	0.0
167	0x00000000	0.0
168	0x00000000	0.0
169	0x00000000	0.0
170	0x00000000	0.0
171	0x00000000	0.0
172	0x00000000	0.0
173	0x00000000	0.0
174	0x00000000	0.0
175	0x00000000	0.0
176	0x00000000	0.0
177	0x00000000	0.0
178	0x00000000	0.0
179	0x00000000	0.0
180	0x00000000	0.0
181	0x00000000	0.0
182	0x00000000	0.0
183	0x00000000	0.0
184	0x00000000	0.0
185	0x00000000	0.0
186	0x00000000	0.0
187	0x00000000	0.0
188	0x00000000	0.0
189	0x00000000	0.0
190	0x00000000	0.0
191	0x00000000	0.0
192	0x00000000	0.0
193	0x00000000	0.0
194	0x00000000	0.0
195	0x00000000	0.0
196	0x00000000	0.0
197	0x00000000	0.0
198	0x00000000	0.0
199	0x00000000	0.0
200	0x00000000	0.0
201	0x00000000	0.0
202	0x00000000	0.0
203	0x00000000	0.0
204	0x00000000	0.0
205	0x00000000	0.0
206	0x00000000	0.0
207	0x00000000	0.0
208	0x00000000	0.0
209	0x00000000	0.0
210	0x00000000	0.0
211	0x00000000	0.0
212	0x00000000	0.0
213	0x00000000	0.0
214	0x00000000	0.0
215	0x00000000	0.0
216	0x00000000	0.0
217	0x00000000	0.0
218	0x00000000	0.0
219	0x00000000	0.0
220	0x00000000	0.0
221	0x00000000	0.0
222	0x00000000	0.0
223	0x00000000	0.0
224	0x00000000	0.0
225	0x00000000	0.0
226	0x00000000	0.0
227	0x00000000	0.0
228	0x00000000	0.0
229	0x00000000	0.0
230	0x00000000	0.0
231	0x00000000	0.0
232	0x00000000	0.0
233	0x00000000	0.0
234	0x00000000	0.0
235	0x00000000	0.0
236	0x00000000	0.0
237	0x00000000	0.0
238	0x00000000	0.0
239	0x00000000	0.0
240	0x00000000	0.0
241	0x00000000	0.0
242	0x00000000	0.0
243	0x00000000	0.0
244	0x00000000	0.0
245	0x00000000	0.0
246	0x00000000	0.0
247	0x00000000	0.0
248	0x00000000	0.0
249	0x00000000	0.0
250	0x00000000	0.0
251	0x00000000	0.0
252	0x00000000	0.0
253	0x00000000	0.0
254	0x00000000	0.0
255	0x00000000	0.0

x_f f4 [100, 1]
0	0x4093a7a5	4.6142144
1	0x3fdf0d97	1.7426022
2	0x4055a0d8	3.3379421
3	0x409c4b53	4.884195
4	0x4044597c	3.0679617
5	0x40b0b6ef	5.5223308
6	0x40ba23ad	5.816855
7	0x40c5eb9b	6.1850104
8	0x40921585	4.565127
9	0x3f99f023	1.2026409
10	0x40992714	4.7860203
11	0x3f108365	0.5645049
12	0x3feb9e94	1.8407769
13	0x3dfb53d1	0.12271846
14	0x409f6f92	4.9823694
15	0x40c2c75c	6.086836
16	0x40b6ff6e	5.7186804
17	0x402cc9a0	2.6998062
18	0x4021cac2	2.5280004
19	0x40c3906c	6.1113796
20	0x402e5bc0	2.72435
21	0x40af24cf	5.473243
22	0x3f8716a7	1.0553788
23	0x40c1fe4c	6.062292
24	0x3ee231d6	0.44178647
25	0x3f36365e	0.7117671
26	0x40864d97	4.1969714
27	0x40c846cb	6.2586417
28	0x40c4597c	6.1359234
29	0x40914c75	4.540583
30	0x40c5eb9b	6.1850104
31	0x4088a8c7	4.2706027
32	0x40af24cf	5.473243
33	0x40268121	2.6016314
34	0x408d5f26	4.417865
35	0x409d1463	4.9087386
36	0x40c06c2c	6.0132046
37	0x3ebc7edd	0.3681554
38	0x3efb53d1	0.49087384
39	0x40a68121	5.203263
40	0x405d7b77	3.4606607
41	0x3ee231d6	0.44178647
42	0x3fcf5859	1.6198837
43	0x4084bb77	4.147884
44	0x3fe87a55	1.8162333
45	0x409ea683	4.957826
46	0x405f0d97	3.4852045
47	0x4058c518	3.3870296
48	0x3f750b52	0.957204
49	0x4013a7a5	2.3071072
50	0x3f29a560	0.6626797
51	0x40a74a31	5.2278066
52	0x3cc90fdb	0.024543693
53	0x40c1fe4c	6.062292
54	0x401539c4	2.3316507
55	0x3ffb53d1	1.9634954
56	0x401539c4	2.3316507
57	0x3f2feddf	0.6872234
58	0x3fcc341a	1.59534
59	0x405a5737	3.4115732
60	0x40b3121f	5.595962
61	0x40b95a9e	5.7923117
62	0x3f8d5f26	1.1044662
63	0x406b9e94	3.6815538
64	0x3f6231d6	0.88357294
65	0x3fdbe957	1.7180585
66	0x401b8243	2.4298255
67	0x4066e835	3.6079228
68	0x3fe55615	1.7916895
69	0x3fcf5859	1.6198837
70	0x408971d6	4.295146
71	0x3ffe7811	1.9880391
72	0x40108365	2.2580197
73	0x402e5bc0	2.72435
74	0x3f490fdb	0.7853982
75	0x4003f267	2.06167
76	0x409ea683	4.957826
77	0x40a425f1	5.1296315
78	0x401b8243	2.4298255
79	0x40914c75	4.540583
80	0x406a0c75	3.6570103
81	0x3f55a0d8	0.83448553
82	0x406d30b4	3.7060976
83	0x3fe55615	1.7916895
84	0x40c2c75c	6.086836
85	0x409f6f92	4.9823694
86	0x409c4b53	4.884195
87	0x3f80ce28	1.0062914
88	0x40afeddf	5.497787
89	0x40baecbd	5.8413987
90	0x40864d97	4.1969714
91	0x4096cbe4	4.712389
92	0x3f6231d6	0.88357294
93	0x3f6ec2d4	0.93266034
94	0x3f9d1463	1.2271847
95	0x40b7c87e	5.743224
96	0x40b2490f	5.5714183
97	0x40c1353c	6.0377483
98	0x405be957	3.436117
99	0x3facc9a0	1.3499031

t_f f4 [100, 1]
0	0x3ec48677	0.3838384
1	0x3f51745d	0.8181818
2	0x3f090cee	0.53535354
3	0x3f4c4867	0.7979798
4	0x3e10cede	0.14141414
5	0x3f350296	0.7070707
6	0x3f2fd6a0	0.68686867
7	0x3f471c72	0.7777778
8	0x3f0ba2e9	0.54545456
9	0x3c257eb5	0.01010101
10	0x3f0e38e4	0.5555556
11	0x3f49b26d	0.7878788
12	0x3ede6243	0.43434343
13	0x3ede6243	0.43434343
14	0x3f7ad40a	0.97979796
15	0x3f800000	1.0
16	0x3f2d40a5	0.67676765
17	0x3f0676f3	0.5252525
18	0x3e9b26ca	0.3030303
19	0x3f540a58	0.82828283
20	0x3f7ad40a	0.97979796
21	0x3f22e8ba	0.6363636
22	0x3eafd6a0	0.34343433
23	0x3ea57eb5	0.32323232
24	0x3ef3121a	0.47474748
25	0x3f6b5029	0.9191919
26	0x3f0e38e4	0.5555556
27	0x3f471c72	0.7777778
28	0x3eba2e8c	0.36363637
29	0x3e638e39	0.22222222
30	0x3e90cede	0.28282827
31	0x3f638e39	0.8888889
32	0x3f68ba2f	0.90909094
33	0x3e1b26ca	0.15151516
34	0x3f2052bf	0.6262626
35	0x3d257eb5	0.04040404
36	0x3e1b26ca	0.15151516
37	0x3f60f83e	0.8787879
38	0x3f15fad4	0.5858586
39	0x3e814afd	0.25252524
40	0x3f4c4867	0.7979798
41	0x3ec48677	0.3838384
42	0x3ed9364e	0.42424244
43	0x3c257eb5	0.01010101
44	0x3e783e10	0.24242425
45	0x3f662434	0.8989899
46	0x3eba2e8c	0.36363637
47	0x3f707c1f	0.93939394
48	0x3f41f07c	0.75757575
49	0x3ea052bf	0.3131313
50	0x3d257eb5	0.04040404
51	0x3eafd6a0	0.34343433
52	0x3ee8ba2f	0.45454547
53	0x3f75a815	0.959596
54	0x3f75a815	0.959596
55	0x3ee8ba2f	0.45454547
56	0x3ee8ba2f	0.45454547
57	0x3f4ede62	0.8080808
58	0x3f0676f3	0.5252525
59	0x3f10cede	0.56565654
60	0x3f60f83e	0.8787879
61	0x3f3cc486	0.7373737
62	0x3d257eb5	0.04040404
63	0x3ef3121a	0.47474748
64	0x3f1364d9	0.57575756
65	0x3f10cede	0.56565654
66	0x3f2d40a5	0.67676765
67	0x3f7d6a05	0.989899
68	0x3f2fd6a0	0.68686867
69	0x3e59364e	0.21212122
70	0x3d4ede62	0.05050505
71	0x3e90cede	0.28282827
72	0x3e814afd	0.25252524
73	0x3f4ede62	0.8080808
74	0x3c257eb5	0.01010101
75	0x3ed40a58	0.41414142
76	0x3f783e10	0.969697
77	0x3f7ad40a	0.97979796
78	0x3e95fad4	0.2929293
79	0x3f03e0f8	0.5151515
80	0x3f56a053	0.83838385
81	0x3f73121a	0.94949496
82	0x3ef3121a	0.47474748
83	0x3f1890cf	0.5959596
84	0x3ec9b26d	0.3939394
85	0x3f2fd6a0	0.68686867
86	0x3f59364e	0.8484849
87	0x3ca57eb5	0.02020202
88	0x3f6b5029	0.9191919
89	0x3ef83e10	0.4848485
90	0x3e0676f3	0.13131313
91	0x3f1b26ca	0.6060606
92	0x3e814afd	0.25252524
93	0x3f783e10	0.969697
94	0x3eafd6a0	0.34343433
95	0x3f56a053	0.83838385
96	0x3ef83e10	0.4848485
97	0x3f4c4867	0.7979798
98	0x3f379891	0.7171717
99	0x3e9b26ca	0.3030303

x_bc_lb f4 [100, 1]
0	0x00000000	0.0
1	0x00000000	0.0
2	0x00000000	0.0
3	0x00000000	0.0
4	0x00000000	0.0
5	0x00000000	0.0
6	0x00000000	0.0
7	0x00000000	0.0
8	0x00000000	0.0
9	0x00000000	0.0
10	0x00000000	0.0
11	0x00000000	0.0
12	0x00000000	0.0
13	0x00000000	0.0
14	0x00000000	0.0
15	0x00000000	0.0
16	0x00000000	0.0
17	0x00000000	0.0
18	0x00000000	0.0
19	0x00000000	0.0
20	0x00000000	0.0
21	0x00000000	0.0
22	0x00000000	0.0
23	0x00000000	0.0
24	0x00000000	0.0
25	0x00000000	0.0
26	0x00000000	0.0
27	0x00000000	0.0
28	0x00000000	0.0
29	0x00000000	0.0
30	0x00000000	0.0
31	0x00000000	0.0
32	0x00000000	0.0
33	0x00000000	0.0
34	0x00000000	0.0
35	0x00000000	0.0
36	0x00000000	0.0
37	0x00000000	0.0
38	0x00000000	0.0
39	0x00000000	0.0
40	0x00000000	0.0
41	0x00000000	0.0
42	0x00000000	0.0
43	0x00000000	0.0
44	0x00000000	0.0
45	0x00000000	0.0
46	0x00000000	0.0
47	0x00000000	0.0
48	0x00000000	0.0
49	0x00000000	0.0
50	0x00000000	0.0
51	0x00000000	0.0
52	0x00000000	0.0
53	0x00000000	0.0
54	0x00000000	0.0
55	0x00000000	0.0
56	0x00000000	0.0
57	0x00000000	0.0
58	0x00000000	0.0
59	0x00000000	0.0
60	0x00000000	0.0
61	0x00000000	0.0
62	0x00000000	0.0
63	0x00000000	0.0
64	0x00000000	0.0
65	0x00000000	0.0
66	0x00000000	0.0
67	0x00000000	0.0
68	0x00000000	0.0
69	0x00000000	0.0
70	0x00000000	0.0
71	0x00000000	0.0
72	0x00000000	0.0
73	0x00000000	0.0
74	0x00000000	0.0
75	0x00000000	0.0
76	0x00000000	0.0
77	0x00000000	0.0
78	0x00000000	0.0
79	0x00000000	0.0
80	0x00000000	0.0
81	0x00000000	0.0
82	0x00000000	0.0
83	0x00000000	0.0
84	0x00000000	0.0
85	0x00000000	0.0
86	0x00000000	0.0
87	0x00000000	0.0
88	0x00000000	0.0
89	0x00000000	0.0
90	0x00000000	0.0
91	0x00000000	0.0
92	0x00000000	0.0
93	0x00000000	0.0
94	0x00000000	0.0
95	0x00000000	0.0
96	0x00000000	0.0
97	0x00000000	0.0
98	0x00000000	0.0
99	0x00000000	0.0

t_bc_lb f4 [100, 1]
0	0x00000000	0.0
1	0x3c257eb5	0.01010101
2	0x3ca57eb5	0.02020202
3	0x3cf83e10	0.030303031
4	0x3d257eb5	0.04040404
5	0x3d4ede62	0.05050505
6	0x3d783e10	0.060606062
7	0x3d90cede	0.07070707
8	0x3da57eb5	0.08080808
9	0x3dba2e8c	0.09090909
10	0x3dcede62	0.1010101
11	0x3de38e39	0.11111111
12	0x3df83e10	0.121212125
13	0x3e0676f3	0.13131313
14	0x3e10cede	0.14141414
15	0x3e1b26ca	0.15151516
16	0x3e257eb5	0.16161616
17	0x3e2fd6a0	0.17171717
18	0x3e3a2e8c	0.18181819
19	0x3e448677	0.1919192
20	0x3e4ede62	0.2020202
21	0x3e59364e	0.21212122
22	0x3e638e39	0.22222222
23	0x3e6de624	0.23232323
24	0x3e783e10	0.24242425
25	0x3e814afd	0.25252524
26	0x3e8676f3	0.26262626
27	0x3e8ba2e9	0.27272728
28	0x3e90cede	0.28282827
29	0x3e95fad4	0.2929293
30	0x3e9b26ca	0.3030303
31	0x3ea052bf	0.3131313
32	0x3ea57eb5	0.32323232
33	0x3eaaaaab	0.33333334
34	0x3eafd6a0	0.34343433
35	0x3eb50296	0.35353535
36	0x3eba2e8c	0.36363637
37	0x3ebf5a81	0.37373737
38	0x3ec48677	0.3838384
39	0x3ec9b26d	0.3939394
40	0x3ecede62	0.4040404
41	0x3ed40a58	0.41414142
42	0x3ed9364e	0.42424244
43	0x3ede6243	0.43434343
44	0x3ee38e39	0.44444445
45	0x3ee8ba2f	0.45454547
46	0x3eede624	0.46464646
47	0x3ef3121a	0.47474748
48	0x3ef83e10	0.4848485
49	0x3efd6a05	0.4949495
50	0x3f014afd	0.5050505
51	0x3f03e0f8	0.5151515
52	0x3f0676f3	0.5252525
53	0x3f090cee	0.53535354
54	0x3f0ba2e9	0.54545456
55	0x3f0e38e4	0.5555556
56	0x3f10cede	0.56565654
57	0x3f1364d9	0.57575756
58	0x3f15fad4	0.5858586
59	0x3f1890cf	0.5959596
60	0x3f1b26ca	0.6060606
61	0x3f1dbcc5	0.61616164
62	0x3f2052bf	0.6262626
63	0x3f22e8ba	0.6363636
64	0x3f257eb5	0.64646465
65	0x3f2814b0	0.65656567
66	0x3f2aaaab	0.6666667
67	0x3f2d40a5	0.67676765
68	0x3f2fd6a0	0.68686867
69	0x3f326c9b	0.6969697
70	0x3f350296	0.7070707
71	0x3f379891	0.7171717
72	0x3f3a2e8c	0.72727275
73	0x3f3cc486	0.7373737
74	0x3f3f5a81	0.74747473
75	0x3f41f07c	0.75757575
76	0x3f448677	0.7676768
77	0x3f471c72	0.7777778
78	0x3f49b26d	0.7878788
79	0x3f4c4867	0.7979798
80	0x3f4ede62	0.8080808
81	0x3f51745d	0.8181818
82	0x3f540a58	0.82828283
83	0x3f56a053	0.83838385
84	0x3f59364e	0.8484849
85	0x3f5bcc48	0.85858583
86	0x3f5e6243	0.86868685
87	0x3f60f83e	0.8787879
88	0x3f638e39	0.8888889
89	0x3f662434	0.8989899
90	0x3f68ba2f	0.90909094
91	0x3f6b5029	0.9191919
92	0x3f6de624	0.9292929
93	0x3f707c1f	0.93939394
94	0x3f73121a	0.94949496
95	0x3f75a815	0.959596
96	0x3f783e10	0.969697
97	0x3f7ad40a	0.97979796
98	0x3f7d6a05	0.989899
99	0x3f800000	1.0

x_bc_ub f4 [100, 1]
0	0x40c90fdb	6.2831855
1	0x40c90fdb	6.2831855
2	0x40c90fdb	6.2831855
3	0x40c90fdb	6.2831855
4	0x40c90fdb	6.2831855
5	0x40c90fdb	6.2831855
6	0x40c90fdb	6.2831855
7	0x40c90fdb	6.2831855
8	0x40c90fdb	6.2831855
9	0x40c90fdb	6.2831855
10	0x40c90fdb	6.2831855
11	0x40c90fdb	6.2831855
12	0x40c90fdb	6.2831855
13	0x40c90fdb	6.2831855
14	0x40c90fdb	6.2831855
15	0x40c90fdb	6.2831855
16	0x40c90fdb	6.2831855
17	0x40c90fdb	6.2831855
18	0x40c90fdb	6.2831855
19	0x40c90fdb	6.2831855
20	0x40c90fdb	6.2831855
21	0x40c90fdb	6.2831855
22	0x40c90fdb	6.2831855
23	0x40c90fdb	6.2831855
24	0x40c90fdb	6.2831855
25	0x40c90fdb	6.2831855
26	0x40c90fdb	6.2831855
27	0x40c90fdb	6.2831855
28	0x40c90fdb	6.2831855
29	0x40c90fdb	6.2831855
30	0x40c90fdb	6.2831855
31	0x40c90fdb	6.2831855
32	0x40c90fdb	6.2831855
33	0x40c90fdb	6.2831855
34	0x40c90fdb	6.2831855
35	0x40c90fdb	6.2831855
36	0x40c90fdb	6.2831855
37	0x40c90fdb	6.2831855
38	0x40c90fdb	6.2831855
39	0x40c90fdb	6.2831855
40	0x40c90fdb	6.2831855
41	0x40c90fdb	6.2831855
42	0x40c90fdb	6.2831855
43	0x40c90fdb	6.2831855
44	0x40c90fdb	6.2831855
45	0x40c90fdb	6.2831855
46	0x40c90fdb	6.2831855
47	0x40c90fdb	6.2831855
48	0x40c90fdb	6.2831855
49	0x40c90fdb	6.2831855
50	0x40c90fdb	6.2831855
51	0x40c90fdb	6.2831855
52	0x40c90fdb	6.2831855
53	0x40c90fdb	6.2831855
54	0x40c90fdb	6.2831855
55	0x40c90fdb	6.2831855
56	0x40c90fdb	6.2831855
57	0x40c90fdb	6.2831855
58	0x40c90fdb	6.2831855
59	0x40c90fdb	6.2831855
60	0x40c90fdb	6.2831855
61	0x40c90fdb	6.2831855
62	0x40c90fdb	6.2831855
63	0x40c90fdb	6.2831855
64	0x40c90fdb	6.2831855
65	0x40c90fdb	6.2831855
66	0x40c90fdb	6.2831855
67	0x40c90fdb	6.2831855
68	0x40c90fdb	6.2831855
69	0x40c90fdb	6.2831855
70	0x40c90fdb	6.2831855
71	0x40c90fdb	6.2831855
72	0x40c90fdb	6.2831855
73	0x40c90fdb	6.2831855
74	0x40c90fdb	6.2831855
75	0x40c90fdb	6.2831855
76	0x40c90fdb	6.2831855
77	0x40c90fdb	6.2831855
78	0x40c90fdb	6.2831855
79	0x40c90fdb	6.2831855
80	0x40c90fdb	6.2831855
81	0x40c90fdb	6.2831855
82	0x40c90fdb	6.2831855
83	0x40c90fdb	6.2831855
84	0x40c90fdb	6.2831855
85	0x40c90fdb	6.2831855
86	0x40c90fdb	6.2831855
87	0x40c90fdb	6.2831855
88	0x40c90fdb	6.2831855
89	0x40c90fdb	6.2831855
90	0x40c90fdb	6.2831855
91	0x40c90fdb	6.2831855
92	0x40c90fdb	6.2831855
93	0x40c90fdb	6.2831855
94	0x40c90fdb	6.2831855
95	0x40c90fdb	6.2831855
96	0x40c90fdb	6.2831855
97	0x40c90fdb	6.2831855
98	0x40c90fdb	6.2831855
99	0x40c90fdb	6.2831855

t_bc_ub f4 [100, 1]
0	0x00000000	0.0
1	0x3c257eb5	0.01010101
2	0x3ca57eb5	0.02020202
3	0x3cf83e10	0.030303031
4	0x3d257eb5	0.04040404
5	0x3d4ede62	0.05050505
6	0x3d783e10	0.060606062
7	0x3d90cede	0.07070707
8	0x3da57eb5	0.08080808
9	0x3dba2e8c	0.09090909
10	0x3dcede62	0.1010101
11	0x3de38e39	0.11111111
12	0x3df83e10	0.121212125
13	0x3e0676f3	0.13131313
14	0x3e10cede	0.14141414
15	0x3e1b26ca	0.15151516
16	0x3e257eb5	0.16161616
17	0x3e2fd6a0	0.17171717
18	0x3e3a2e8c	0.18181819
19	0x3e448677	0.1919192
20	0x3e4ede62	0.2020202
21	0x3e59364e	0.21212122
22	0x3e638e39	0.22222222
23	0x3e6de624	0.23232323
24	0x3e783e10	0.24242425
25	0x3e814afd	0.25252524
26	0x3e8676f3	0.26262626
27	0x3e8ba2e9	0.27272728
28	0x3e90cede	0.28282827
29	0x3e95fad4	0.2929293
30	0x3e9b26ca	0.3030303
31	0x3ea052bf	0.3131313
32	0x3ea57eb5	0.32323232
33	0x3eaaaaab	0.33333334
34	0x3eafd6a0	0.34343433
35	0x3eb50296	0.35353535
36	0x3eba2e8c	0.36363637
37	0x3ebf5a81	0.37373737
38	0x3ec48677	0.3838384
39	0x3ec9b26d	0.3939394
40	0x3ecede62	0.4040404
41	0x3ed40a58	0.41414142
42	0x3ed9364e	0.42424244
43	0x3ede6243	0.43434343
44	0x3ee38e39	0.44444445
45	0x3ee8ba2f	0.45454547
46	0x3eede624	0.46464646
47	0x3ef3121a	0.47474748
48	0x3ef83e10	0.4848485
49	0x3efd6a05	0.4949495
50	0x3f014afd	0.5050505
51	0x3f03e0f8	0.5151515
52	0x3f0676f3	0.5252525
53	0x3f090cee	0.53535354
54	0x3f0ba2e9	0.54545456
55	0x3f0e38e4	0.5555556
56	0x3f10cede	0.56565654
57	0x3f1364d9	0.57575756
58	0x3f15fad4	0.5858586
59	0x3f1890cf	0.5959596
60	0x3f1b26ca	0.6060606
61	0x3f1dbcc5	0.61616164
62	0x3f2052bf	0.6262626
63	0x3f22e8ba	0.6363636
64	0x3f257eb5	0.64646465
65	0x3f2814b0	0.65656567
66	0x3f2aaaab	0.6666667
67	0x3f2d40a5	0.67676765
68	0x3f2fd6a0	0.68686867
69	0x3f326c9b	0.6969697
70	0x3f350296	0.7070707
71	0x3f379891	0.7171717
72	0x3f3a2e8c	0.72727275
73	0x3f3cc486	0.7373737
74	0x3f3f5a81	0.74747473
75	0x3f41f07c	0.75757575
76	0x3f448677	0.7676768
77	0x3f471c72	0.7777778
78	0x3f49b26d	0.7878788
79	0x3f4c4867	0.7979798
80	0x3f4ede62	0.8080808
81	0x3f51745d	0.8181818
82	0x3f540a58	0.82828283
83	0x3f56a053	0.83838385
84	0x3f59364e	0.8484849
85	0x3f5bcc48	0.85858583
86	0x3f5e6243	0.86868685
87	0x3f60f83e	0.8787879
88	0x3f638e39	0.8888889
89	0x3f662434	0.8989899
90	0x3f68ba2f	0.90909094
91	0x3f6b5029	0.9191919
92	0x3f6de624	0.9292929
93	0x3f707c1f	0.93939394
94	0x3f73121a	0.94949496
95	0x3f75a815	0.959596
96	0x3f783e10	0.969697
97	0x3f7ad40a	0.97979796
98	0x3f7d6a05	0.989899
99	0x3f800000	1.0

weight f4 [50, 2]
0	0x3dd5dedb	0.10442897
1	0xbd7195c7	-0.05898073
2	0x3c7706ad	0.015077275
3	0x3dba48ec	0.0909594
4	0x3ef605b9	0.4805124
5	0xbe2aa3d0	-0.16664052
6	0xbcfaf47c	-0.030634157
7	0x3dd10326	0.10205679
8	0xbd7921a4	-0.060823098
9	0x3c93c32a	0.018037397
10	0xbe342fd4	-0.1759637
11	0x3e020ea2	0.12700894
12	0x3d8f2620	0.06989694
13	0x3dc65076	0.096833155
14	0xbe590cfa	-0.21196356
15	0xbe79666f	-0.24355482
16	0x3e0b74c6	0.13618764
17	0x3ce02ab1	0.027364107
18	0x3df5f801	0.120101936
19	0xbe83a7de	-0.2571401
20	0xbed9967e	-0.4249763
21	0x3d206da4	0.03916706
22	0x3eb8f69f	0.36125657
23	0xbdae9ef2	-0.0852641
24	0xbe89cb85	-0.26913086
25	0xbecfcdcf	-0.40586707
26	0xbd599e7a	-0.05312965
27	0x3db0ced0	0.08633196
28	0x3d9e066d	0.07716069
29	0x3df62a2b	0.12019762
30	0xbdcd7331	-0.10031737
31	0x3c097a19	0.008390927
32	0xbdfda711	-0.12385381
33	0xbe64b579	-0.22334851
34	0xbea21447	-0.31656095
35	0x3de21334	0.11038819
36	0x3cb713fa	0.022348393
37	0x3e4355d7	0.19075714
38	0xbe94acab	-0.29037985
39	0x3e14acab	0.14518993
40	0x3e0cbf6f	0.13744901
41	0xbdca3472	-0.098732844
42	0x3da7ef1f	0.081999056
43	0xbdbf35ac	-0.09336409
44	0x3db72ea1	0.08944441
45	0xbcc430d3	-0.023949062
46	0xbb751a5a	-0.003739974
47	0xbe4d89d0	-0.20072103
48	0xbcdd5c11	-0.02702144
49	0x3dbc2f7a	0.09188743
50	0x3ec4b841	0.38421825
51	0xbe1e9284	-0.15485579
52	0xbdec5372	-0.115393534
53	0x3e7d9783	0.24764828
54	0xbd4d2271	-0.050081674
55	0x3e1087f6	0.14114365
56	0x3e994fc1	0.2994366
57	0xbd188de4	-0.037244692
58	0x3b330dcd	0.0027321458
59	0xbd9bfe50	-0.07616866
60	0xbc2660b7	-0.010154895
61	0x3e3e190b	0.1856424
62	0xbe85f88b	-0.26166186
63	0x3d41ffca	0.04736308
64	0x3e4c2027	0.1993414
65	0x3d0f1597	0.0349327
66	0xbea40a15	-0.32038942
67	0xbe4af436	-0.19819722
68	0x3d31c269	0.043398295
69	0xbe5e9386	-0.21735963
70	0xbec4fc7a	-0.38473874
71	0xbe0b631c	-0.13612026
72	0xbdde519e	-0.10855411
73	0xbe4cfd55	-0.20018514
74	0x3df69801	0.12040711
75	0x3c9defff	0.019279478
76	0xbcd1cac1	-0.025609376
77	0xbc4a824b	-0.012360166
78	0xbe2c8fce	-0.16851732
79	0xbd13f174	-0.03611894
80	0xbd69d922	-0.05709184
81	0x3baeb99f	0.0053321864
82	0x3dd32358	0.10309476
83	0x3da44960	0.08021808
84	0x3e0b7099	0.13617171
85	0xbe3a0724	-0.18166786
86	0x3ed935f6	0.4242398
87	0xbcbe312b	-0.023216804
88	0x3def4107	0.11682325
89	0x3e855d15	0.26047578
90	0xbddcff62	-0.10790898
91	0xbf025eb2	-0.50925744
92	0x3b859834	0.004076982
93	0xbe5425c3	-0.2071753
94	0x3e28bf8f	0.16479324
95	0xbeb3629b	-0.35036168
96	0xbe27c9be	-0.16385552
97	0xbe6b774a	-0.22994724
98	0x3e3d6088	0.18493855
99	0xbe12445a	-0.14283887

bias f4 [50]
0	0xbb145d18	-0.0022638496
1	0x3aafa17f	0.001339957
2	0xbb46bb23	-0.0030323945
3	0x3b21885e	0.0024647932
4	0xbadedac3	-0.0017002452
5	0x3a07fc12	0.0005187403
6	0xbab9f51c	-0.0014187428
7	0xbb628921	-0.0034566598
8	0x3b9bbdfc	0.0047528725
9	0x3b35925d	0.0027705648
10	0xbaeb5ce9	-0.0017956767
11	0x3b0e27ce	0.0021691206
12	0xbbd0f613	-0.0063769906
13	0xba07d5ce	-0.00051817007
14	0xbb379907	-0.0028014795
15	0xbb582271	-0.0032979513
16	0xbafe5cbd	-0.00194063
17	0xbab2b392	-0.0013633838
18	0x3b02cb55	0.001995762
19	0xbb4c76e0	-0.0031198785
20	0xbb0266af	-0.001989763
21	0x3b254981	0.0025220814
22	0xbab95782	-0.0014140459
23	0xbb402cbc	-0.0029323539
24	0xbb156883	-0.002279789
25	0x3b23b08c	0.0024977056
26	0xbae3ebbc	-0.001738898
27	0xbb13fcd8	-0.0022581127
28	0x3ac1bd5b	0.0014781164
29	0xbb2117c4	-0.0024580816
30	0x3b0af9c5	0.0021206003
31	0x3ad9aa6a	0.0016606573
32	0xbb9a91b4	-0.004717076
33	0xbb3cd9ba	-0.0028816299
34	0x3b0abe4c	0.0021170555
35	0xbb60a47b	-0.0034277725
36	0xba564c23	-0.00081747974
37	0x3ae4ff06	0.0017471022
38	0xbb16261e	-0.0022910903
39	0xbb1684d2	-0.002296735
40	0x3ad1adca	0.0015997228
41	0xbb630bd6	-0.0034644506
42	0xbb227c73	-0.0024793416
43	0x3b33ee13	0.0027455136
44	0xbbcf272a	-0.0063218074
45	0xbb0d6f5c	-0.0021581268
46	0x3bd7da40	0.0065872967
47	0xbb059944	-0.0020385543
48	0x3a6ccd7e	0.0009033306
49	0x3b158476	0.0022814549

weight f4 [50, 50]
0	0x3e28a8c3	0.16470627
1	0xbd943645	-0.072369136
2	0xbeb836bf	-0.35979268
3	0x3de1b196	0.110202
4	0xbd7d01b1	-0.06176919
5	0xbd45316c	-0.048142835
6	0xbe2592ae	-0.16169235
7	0x3dab3dcb	0.083613954
8	0x3ddcc250	0.1077925
9	0x3dd3526f	0.10318457
10	0x3de018bf	0.1094222
11	0xbe812fe5	-0.25231853
12	0xbe64067c	-0.22268099
13	0xbdd82a4b	-0.10554942
14	0x3e638a4c	0.22220725
15	0xbd884d47	-0.066553645
16	0xbe8852e7	-0.2662575
17	0xbcb5e258	-0.022202656
18	0x3e1628d2	0.14664009
19	0xbe3f469f	-0.18679284
20	0x3d1dbf33	0.03851242
21	0x3d81cb7d	0.063376404
22	0x3e1edbf7	0.15513597
23	0x3e212965	0.15738447
24	0x3e90f029	0.28308228
25	0x3d34d5a5	0.04414906
26	0x3ea0d4fa	0.31412488
27	0x3ccabb47	0.024747504
28	0x3e51f565	0.20503767
29	0xbe50b033	-0.20379715
30	0x3e3ffb24	0.18748146
31	0xbd842e9d	-0.06454203
32	0xbd07ce36	-0.033155642
33	0xbe632882	-0.22183421
34	0x3e10c932	0.1413925
35	0x3d14eaf9	0.0363569
36	0x3e540e35	0.20708545
37	0x3c549499	0.012974882
38	0xbd548fb7	-0.05189487
39	0x3da3a29c	0.0799
40	0x3d24b714	0.04021366
41	0xbe63ed72	-0.22258547
42	0xbde5c0aa	-0.112183884
43	0x3bb0d9c5	0.005397054
44	0xbbbb4b67	-0.005715776
45	0x3db7e5bd	0.08979366
46	0x3d30fa8f	0.0432077
47	0xbe204cb1	-0.15654255
48	0x3d9dce04	0.0770531
49	0xbdd89741	-0.105757244
50	0xbe0ee869	-0.13955845
51	0xbe02c64e	-0.1277096
52	0xbdaf5633	-0.08561363
53	0xbdb14e59	-0.08657522
54	0x3d6c64d6	0.057713352
55	0xbd051e07	-0.03249934
56	0x3db5ff43	0.08886578
57	0xbcc6a046	-0.024246346
58	0x3c764d33	0.015033054
59	0x3e347a5d	0.17624803
60	0xbe0afa69	-0.13572086
61	0xbeb04134	-0.34424746
62	0x3e60bfcc	0.21948165
63	0x3cd84752	0.026401196
64	0xbdd2befa	-0.10290332
65	0x3e0967b6	0.13418469
66	0x3c127c05	0.008940701
67	0x3e71b2c7	0.23603354
68	0xbe367179	-0.17816724
69	0x3cce249a	0.025163937
70	0x3cd886b8	0.026431426
71	0x3e1012f8	0.14069736
72	0xbe41b57c	-0.18916887
73	0x3e2d980f	0.16952537
74	0x3e2104d4	0.15724498
75	0x3cf70cfd	0.03015756
76	0xbdf125b9	-0.11774773
77	0xbccee544	-0.025255807
78	0xbc522f51	-0.012828664
79	0x3dc465e1	0.09589744
80	0xbcf9ad25	-0.03047807
81	0xbc43b9ae	-0.011946125
82	0xbaa3d086	-0.0012498058
83	0xbe844ab8	-0.25838256
84	0xbe54db55	-0.20786794
85	0xbe10b7bd	-0.1413259
86	0xbdd4b426	-0.10385923
87	0xbe0e4a8d	-0.13895626
88	0xbe956195	-0.29176012
89	0xbdef3ebf	-0.1168189
90	0x3d519d43	0.051175367
91	0xbced6249	-0.02897753
92	0xbe797cfc	-0.24364084
93	0xbd963317	-0.07333963
94	0xbda87752	-0.082258835
95	0xbdf0d1df	-0.1175878
96	0x3e4ea942	0.20181754
97	0xbe719e8d	-0.23595639
98	0x3ddb9ccd	0.10723267
99	0x3e662ca7	0.22477971
100	0xbddcb081	-0.10775853
101	0x3d39d65c	0.045370445
102	0xbda11c4f	-0.078667276
103	0x3d49cec5	0.049269456
104	0x3c172cc8	0.009226985
105	0x3d870443	0.0659261
106	0xbc6811c0	-0.014164388
107	0x3e5f6bec	0.21818513
108	0xbdb39ed8	-0.087705314
109	0x3d1ce52b	0.03830449
110	0xbe818c8c	-0.2530254
111	0xbda1b2e8	-0.07895452
112	0x3df9c667	0.12196045
113	0xbd2b9fc0	-0.041900396
114	0x3d8ee7e5	0.06977824
115	0x3d75d4f6	0.06001755
116	0xbdf17e29	-0.11791641
117	0x3de1dc38	0.110283315
118	0x3e30609d	0.17224355
119	0x3d40775d	0.046988834
120	0x3dad15ca	0.084514216
121	0xbca71646	-0.020396363
122	0x3c72f59e	0.0148290675
123	0xbd8a45d4	-0.067516
124	0x3ce7fa7f	0.028317688
125	0xbcce38b0	-0.025173515
126	0xbe10ac51	-0.14128233
127	0x3e44206f	0.19152997
128	0x3e8beaca	0.27327567
129	0xbd54da43	-0.051965963
130	0x3d157b19	0.03649435
131	0xbe2d3dbc	-0.16918081
132	0x3d237d86	0.03991463
133	0x3d752b8c	0.059855983
134	0x3d38d536	0.04512521
135	0x3dce2462	0.10065533
136	0x3ddb97d7	0.107223205
137	0xbcc02355	-0.023454348
138	0x3c990acc	0.018681906
139	0x3e556e64	0.20842892
140	0xbdc2ac8d	-0.09505568
141	0x3d4519e7	0.048120406
142	0xbd9bb310	-0.07602513
143	0xbbce60e5	-0.006298172
144	0x3d9cdfbd	0.07659862
145	0x3e1ae136	0.15124974
146	0x3cf6864b	0.030093333
147	0xbeb1a295	-0.34694353
148	0x3d093d93	0.033505987
149	0x3e18fa2a	0.1493918
150	0xbe5f27fa	-0.21792594
151	0xbb78e285	-0.0037976813
152	0x3e0484cb	0.12941281
153	0xbcf8c871	-0.030369015
154	0xbab48a5f	-0.0013774148
155	0x3deeefd2	0.11666836
156	0x3e9bef23	0.30455884
157	0x3cc8adef	0.024497
158	0xbdfb575d	-0.122725226
159	0x3d4ec13c	0.05047725
160	0xbdee7c57	-0.1164481
161	0xbbef5b53	-0.007304588
162	0x3de76037	0.112976484
163	0xbc5301d9	-0.0128788585
164	0x3be07242	0.006849558
165	0x3dd6f24b	0.104954325
166	0x3cecadd6	0.028891485
167	0xbcbbc524	-0.022921152
168	0xbe14adb6	-0.1451939
169	0x3df549af	0.11976945
170	0xbe308ccd	-0.17241211
171	0x3e3cc9a9	0.18436302
172	0xbc0c1cbf	-0.0085517755
173	0x3e7332e4	0.23749882
174	0x3e81f68e	0.2538342
175	0xbd84972f	-0.064741485
176	0x3d4a24a8	0.049351364
177	0x3ddc31d6	0.10751693
178	0x3df3471e	0.11878799
179	0x3e42e27b	0.19031708
180	0xbd3a363f	-0.04546189
181	0x3da16642	0.07880832
182	0xbe29264e	-0.16518518
183	0xbe4c6cb9	-0.1996335
184	0xbe459836	-0.19296345
185	0xbcf85d5d	-0.030317957
186	0xbe8612e0	-0.26186275
187	0xbc059b62	-0.008154722
188	0x3e66916b	0.2251641
189	0x3d45044a	0.048099793
190	0xbdd9672c	-0.106153816
191	0x3c583d7f	0.013198256
192	0xbe0ded1b	-0.1385998
193	0x3d636b34	0.05552216
194	0x3e21f8b2	0.15817526
195	0xbe30a20e	-0.17249319
196	0xbd29ba37	-0.041437354
197	0x3dd09fa4	0.10186699
198	0xbdf97a40	-0.121815205
199	0x3e16c28f	0.14722656
200	0x3d53d580	0.05171728
201	0xbd04eabc	-0.032450423
202	0x3d47ece3	0.048809897
203	0x3c5c47c7	0.013444847
204	0x3e802d2e	0.2503447
205	0xbe592238	-0.2120446
206	0x3e167cec	0.14696091
207	0x3e6da90d	0.23209019
208	0xbcbb9d70	-0.02290222
209	0xbe169bef	-0.14707921
210	0x3e829428	0.2550366
211	0xbe682324	-0.22669655
212	0x3b7ae6df	0.0038284583
213	0xbdb303f5	-0.08740989
214	0x3cf42f6a	0.029807765
215	0xbd64716f	-0.05577224
216	0xbe16b0a4	-0.1471582
217	0x3d90530f	0.07047092
218	0xbd8f3ebe	-0.06994389
219	0xbdafd529	-0.08585579
220	0xbd288451	-0.04114181
221	0x3da8de5b	0.08245536
222	0xbdd34f1a	-0.10317822
223	0xbe1d8603	-0.15383153
224	0x3df34dea	0.11880095
225	0x3d26e7a7	0.040748265
226	0xbde9f01a	-0.11422749
227	0x3e0bb630	0.13643718
228	0xbcb15296	-0.021645825
229	0x3e038bea	0.12846342
230	0xbcf5d885	-0.030010471
231	0xbe4c1f07	-0.19933711
232	0xbdf1d859	-0.11808843
233	0x3e1e6c9a	0.15471116
234	0xbe47222c	-0.1944663
235	0x3defe31b	0.11713239
236	0xbdb7d441	-0.08976031
237	0x3ce48d45	0.027899394
238	0x3da2928e	0.07938109
239	0x3b911bbb	0.0044283546
240	0xbddc8ce8	-0.10769063
241	0xbe797ef8	-0.24364841
242	0xbd247403	-0.0401497
243	0x3e038817	0.12844883
244	0xbe352aec	-0.17692155
245	0x3ddb0659	0.1069457
246	0x3cd3207b	0.025772324
247	0x3dc7c1f4	0.097537905
248	0x3dcb3994	0.099230915
249	0x3c7e4c10	0.015521064
250	0xbddef6de	-0.1088693
251	0xbe229bf7	-0.15879808
252	0xbe07d1a0	-0.1326356
253	0x3e29f9ca	0.16599193
254	0xbb211a39	-0.002458228
255	0xbd0fed65	-0.035138506

bias f4 [50]
0	0xbb981163	-0.0046407445
1	0xbb4a03a7	-0.003082493
2	0x3a52b9d9	0.0008038558
3	0xbb102027	-0.002199182
4	0xbab5d5c7	-0.0013872915
5	0xbb1091ee	-0.0022059637
6	0x3b02188a	0.0019851052
7	0xbb143fe0	-0.002262108
8	0x3b22903d	0.002480521
9	0xbb5c0cae	-0.0033576894
10	0x3b2443d8	0.0025064852
11	0xbb06ca37	-0.0020567307
12	0xbafe2e7d	-0.0019392517
13	0xbaee1f83	-0.001816735
14	0xbb48dd46	-0.0030649467
15	0x3b3c22a0	0.0028707162
16	0xbb1fb068	-0.002436662
17	0xbb12ca45	-0.0022398394
18	0xbb1402ff	-0.0022584794
19	0x3b5ee977	0.0034013668
20	0xbac97eee	-0.0015372911
21	0x3b1310a8	0.0022440348
22	0xbbaf3abd	-0.0053475783
23	0xbb5874a0	-0.0033028498
24	0x3b5d6cfa	0.003378688
25	0xba10c9da	-0.0005523242
26	0x3b01fdc2	0.001983509
27	0x3a8a7179	0.0010562382
28	0xbb145129	-0.0022631383
29	0xbb672c1a	-0.003527409
30	0x3b55ec9a	0.0032642246
31	0x3a6719a1	0.00088157697
32	0x3b2b0d54	0.0026100473
33	0xbb353302	-0.0027648811
34	0x3aef25a9	0.0018245477
35	0x3afa5e3b	0.0019101569
36	0x3be89437	0.0070977467
37	0x3b2ff232	0.002684724
38	0xbb057a5f	-0.0020367128
39	0x3b2ed56b	0.00266775
40	0x3c1a673c	0.009424027
41	0xbacc4532	-0.0015584587
42	0xbb15587d	-0.0022788339
43	0xbb176f12	-0.0023106975
44	0x3b2ec54c	0.002666789
45	0x3b523e42	0.0032080566
46	0x3b207a28	0.0024486873
47	0x3b01855f	0.0019763333
48	0x3b675f34	0.0035304548
49	0xba54107b	-0.0008089614

weight f4 [50, 50]
0	0xbeabc7fb	-0.3355101
1	0x3dc99fd2	0.098449364
2	0xbddbf147	-0.107393794
3	0xbda13276	-0.07870953
4	0xbdc3f38c	-0.09567937
5	0x3e9ad158	0.30237842
6	0x3df7413c	0.12072989
7	0x3d371c77	0.04470488
8	0xbe1797fc	-0.14804071
9	0xbe6e6603	-0.23281102
10	0x3ea3dc29	0.32003906
11	0xbe76b1a3	-0.240912
12	0xbb35ee4d	-0.0027760447
13	0x3e689314	0.22712356
14	0xbdbe6e54	-0.09298387
15	0x3eb59141	0.35462382
16	0xbdb41d5e	-0.08794664
17	0xbe8c8110	-0.27442217
18	0x3ccadccf	0.024763493
19	0x3e29484e	0.16531488
20	0x3dde248f	0.10846817
21	0xbdc00ff8	-0.09378046
22	0x3ce386dc	0.027774267
23	0xbd5e65be	-0.054296248
24	0x3c872a54	0.016499676
25	0x3e0f0762	0.1396766
26	0xbcf6481e	-0.030063685
27	0xbdf2a94b	-0.11848696
28	0x3e94f390	0.29092073
29	0x3ddac397	0.10681837
30	0x3c8ef66c	0.017451487
31	0xbd36a3b6	-0.04458972
32	0x3e87c3b9	0.26516512
33	0xbda6301a	-0.081146434
34	0xbddd8496	-0.108163044
35	0xbdabe7d7	-0.08393829
36	0xbd182cda	-0.03715215
37	0x3dcd3838	0.100204885
38	0x3e2327e9	0.15933193
39	0x3e94aaf3	0.29036674
40	0x3dedbd22	0.1160834
41	0x3dc00e21	0.09377695
42	0x3dfaff8e	0.122557744
43	0xbe09d8b1	-0.13461567
44	0x3d03c6db	0.032172065
45	0x3ed2b2e8	0.4115212
46	0xbdcc3b0f	-0.09972202
47	0xbe738b8f	-0.23783706
48	0xbeb798dd	-0.35858813
49	0x3d8d31f3	0.06894293
50	0xbe70f157	-0.23529564
51	0xbc53b429	-0.0129213715
52	0xbdfcb916	-0.1233999
53	0x3d790b33	0.060801696
54	0x3c02264c	0.007943701
55	0x3dcdab9c	0.100424975
56	0xbea7c599	-0.32767943
57	0x3e76da6a	0.24106756
58	0x3e0812c3	0.13288407
59	0x3da9bd2e	0.08288036
60	0x3e054519	0.1301464
61	0x3de8cb8d	0.11366949
62	0x3e1bc7e7	0.15212975
63	0x3e112a2a	0.1417624
64	0xbd8cac3a	-0.06868787
65	0x3df8bbab	0.1214517
66	0x3d263ccc	0.040585324
67	0xbba87926	-0.005141395
68	0x3e0bf497	0.13667522
69	0x3d708b58	0.05872664
70	0x3e887b55	0.26656595
71	0xbe31ffba	-0.17382708
72	0x3d1b22e4	0.03787507
73	0xbddd8e8a	-0.10818203
74	0x3d1e18d9	0.038597915
75	0xbd09d47e	-0.033649914
76	0xbe716fe4	-0.23577839
77	0xbd2e68fc	-0.04258059
78	0x3d7becde	0.06150519
79	0xbce6b09b	-0.028160384
80	0xbe113911	-0.14181925
81	0x3c5f8a84	0.013643865
82	0xbd72981c	-0.059227094
83	0x3de9a7f1	0.114089854
84	0x3e3e4057	0.18579231
85	0xbda4d063	-0.08047559
86	0x3d9e3246	0.07724433
87	0xbcefc4d4	-0.02926866
88	0xbd869ef0	-0.06573284
89	0xbd99732f	-0.07492673
90	0xbe85b5c9	-0.26115254
91	0xbdb4f9a6	-0.08836679
92	0x3e4899e9	0.19589962
93	0xbd8418ad	-0.06450019
94	0xbdb8e4a1	-0.090279825
95	0x3e5f1fab	0.21789424
96	0x3d0bc0a4	0.034119263
97	0xbe8d5828	-0.2760632
98	0xbcfc8642	-0.030825738
99	0x3d8b20ca	0.067933634
100	0x3d555c65	0.052090067
101	0x3e2b77ca	0.16744915
102	0xbd5bd343	-0.05366827
103	0x3d450c8e	0.048107676
104	0xbdb050f6	-0.08609192
105	0xbeb0ab85	-0.3450586
106	0xbd141cb5	-0.03616019
107	0x3b83a5f9	0.004017588
108	0x3c8332d3	0.016015446
109	0x3dd55f60	0.10418582
110	0x3e42dbea	0.19029203
111	0x3c858cce	0.016302492
112	0x3e548f14	0.20757705
113	0x3d54ebd5	0.05198272
114	0x3df852d6	0.12125175
115	0x3e19e16a	0.15027395
116	0x3cdf5046	0.027259957
117	0x3dcbb630	0.09946859
118	0x3d3a7bab	0.045528095
119	0x3de0b341	0.1097169
120	0x3de2e135	0.11078111
121	0x3e1234f2	0.1427801
122	0xbb23bf6f	-0.002498593
123	0x3e922bd8	0.28549075
124	0xbe38ae16	-0.18035159
125	0xbe1cb458	-0.1530317
126	0xbdb3fcb3	-0.08788433
127	0xbd8e1646	-0.06937842
128	0xbe7c8ba3	-0.24662642
129	0x3ddbaa99	0.10725898
130	0xbe24dc69	-0.16099705
131	0x3dae3dea	0.08507903
132	0x3cb6c481	0.022310497
133	0xbe0b90dd	-0.1362948
134	0xbe08cee0	-0.13360167
135	0xbcb26274	-0.021775462
136	0x3e59d6a7	0.2127329
137	0xbe5d2256	-0.2159513
138	0xbcd00dd0	-0.025397211
139	0xbde4e2a5	-0.111760415
140	0xbcb0e994	-0.021595754
141	0xbe4d031e	-0.2002072
142	0x3d0ee754	0.03488858
143	0xbe3dc324	-0.18531471
144	0xbabfd081	-0.0014634283
145	0xbe5b860c	-0.21437854
146	0x3e9794d6	0.2960574
147	0xbe3b17b1	-0.18270756
148	0x3e179513	0.14802961
149	0xbe1a916d	-0.15094538
150	0xbe9c5771	-0.30535462
151	0x3e4629b0	0.1935184
152	0x3dc69360	0.09696078
153	0x3e2ce149	0.16882814
154	0x3c95f516	0.018305343
155	0x3c8eec06	0.01744653
156	0x3d0c3fe1	0.034240607
157	0xbe0188f7	-0.12649904
158	0xbe0909c2	-0.13382629
159	0xbd23b6db	-0.039969306
160	0xbd491345	-0.049090642
161	0xbe025425	-0.12727411
162	0x3e0c5aa2	0.13706449
163	0xbde7c150	-0.11316168
164	0xbda147a8	-0.078749955
165	0x3dcea66e	0.10090338
166	0x3d41fd03	0.04736043
167	0x3e217f26	0.1577116
168	0xbdf92eb1	-0.12167109
169	0xbdb9b93c	-0.09068534
170	0xbdc398ef	-0.09550654
171	0x3d426bbd	0.04746603
172	0xbdcdcbf9	-0.1004867
173	0x3d856c1f	0.06514763
174	0xbde11f1c	-0.10992262
175	0xbdb8ad23	-0.09017398
176	0x3dbf4253	0.09338822
177	0xbda5d3d0	-0.08097041
178	0xbcb41e24	-0.021987028
179	0xbb4f3d9a	-0.003162241
180	0x3d1c9854	0.03823121
181	0xbe818d4d	-0.25303116
182	0x3d7e9df0	0.06216234
183	0x3e92d3c2	0.28677183
184	0xbe49f17f	-0.1972103
185	0x3d36660e	0.04453092
186	0xbe23eec5	-0.16009052
187	0x3d678d79	0.056531403
188	0x3cf82300	0.030290127
189	0x3e106841	0.1410227
190	0x3e5f6fe2	0.21820024
191	0xbd70eeec	-0.058821604
192	0xbd2ba2e8	-0.041903406
193	0xbeaed01c	-0.3414315
194	0x3d8348de	0.06410383
195	0xbe4329bc	-0.19058889
196	0x3e341bd4	0.1758874
197	0xbc9d377b	-0.019191494
198	0xbd0961f4	-0.03354068
199	0xbe543104	-0.20721823
200	0x3d26c701	0.04071713
201	0xbe14be43	-0.14525704
202	0xbe0af262	-0.13569024
203	0xbcc19bc7	-0.02363385
204	0xbe907e77	-0.28221485
205	0x3ddb8217	0.10718172
206	0xbde221f9	-0.11041636
207	0xbd8c74ab	-0.0685819
208	0x3cab196c	0.020886146
209	0x3ddbdc85	0.1073542
210	0xbe24f667	-0.1610962
211	0xbdade7bb	-0.08491465
212	0xbe4fca0a	-0.20291916
213	0x3dcb5468	0.099282086
214	0x3d938984	0.072039634
215	0xbcdc5b8f	-0.026899127
216	0x3d863353	0.06552758
217	0xbde21d0f	-0.11040699
218	0x3e11594b	0.14194219
219	0x3d1f279d	0.038856138
220	0x3e7f384e	0.24923822
221	0x3b48f733	0.003066492
222	0xbe6d59a7	-0.23178731
223	0x3e3184ec	0.17335862
224	0x3e3e7924	0.18600899
225	0xbdabb9f6	-0.083850786
226	0xbe752f06	-0.2394372
227	0x3e54dd84	0.20787627
228	0x3e52e642	0.20595649
229	0x3d45d208	0.048296005
230	0x3dbaead0	0.09126818
231	0x3d2be89a	0.041969873
232	0xbe311d31	-0.17296292
233	0xbe6304e7	-0.22169839
234	0xbc846ce9	-0.016165214
235	0x3d735fa2	0.059417374
236	0x3d52ee6d	0.05149691
237	0x3cfa16aa	0.030528385
238	0xbe0a93f8	-0.13533008
239	0xbde58b0a	-0.1120816
240	0xbd383100	-0.044968605
241	0xbc892b8e	-0.016744401
242	0xbe20e916	-0.15713915
243	0xbe03cd9b	-0.12871401
244	0x3ccbecb1	0.024893137
245	0x3da27405	0.07932285
246	0x3e22696f	0.15860532
247	0xbe585da2	-0.21129468
248	0x3b6dd871	0.003629234
249	0x3d2934c0	0.041310072
250	0x3e8ac393	0.27102336
251	0x3e33b4cc	0.17549437
252	0x3da971f8	0.08273691
253	0x3e0c4002	0.13696292
254	0xbe536770	-0.20644927
255	0xbdf9989d	-0.12187312

bias f4 [50]
0	0x3b6e734d	0.0036384643
1	0xbaef69c9	-0.0018265779
2	0xbb17703e	-0.0023107673
3	0x3b33ad7c	0.0027416637
4	0xbb151988	-0.0022750814
5	0xba97bffd	-0.0011577603
6	0xbb089be7	-0.0020844878
7	0x3a9b42ea	0.0011845503
8	0x3b3d3de9	0.0028876013
9	0xbb3590c2	-0.002770469
10	0x3b4c6c6a	0.003119255
11	0xbb107d5a	-0.0022047372
12	0x3b5b99b7	0.003350837
13	0x3b34c07f	0.0027580557
14	0x3ae8620a	0.0017729413
15	0xbb0bf1c3	-0.0021353818
16	0x3b3ef936	0.002914024
17	0xbaa2d889	-0.0012424152
18	0xbb1c2a9c	-0.0023829108
19	0x3b28880e	0.002571586
20	0x3b3c0d00	0.0028694272
21	0x3b349cd9	0.0027559309
22	0xbb56d18b	-0.0032778706
23	0xbb9710ce	-0.0046101576
24	0x3b118f12	0.002221052
25	0x3b1c3d26	0.0023840158
26	0x3b101174	0.002198306
27	0x3b270849	0.0025487116
28	0xbba17ecc	-0.0049284454
29	0x3b03bda7	0.0020102055
30	0xbb0d0611	-0.0021518508
31	0x3b627e58	0.003456017
32	0x3b121933	0.0022292852
33	0x3b1d1009	0.0023965857
34	0xbb18f26e	-0.0023337859
35	0x3a868114	0.0010261857
36	0x3b22a85d	0.002481959
37	0xbb24fcba	-0.002517505
38	0xbb14b5ad	-0.0022691295
39	0x3b0e90bd	0.0021753751
40	0x39d2912c	0.00040162483
41	0xbb01e0fa	-0.0019817934
42	0xbb0f39d0	-0.0021854527
43	0x3a1a6ffa	0.00058913196
44	0x3b1dc296	0.002407228
45	0xbb0f0638	-0.0021823775
46	0x3b315375	0.00270578
47	0xbb25acfc	-0.0025280109
48	0xbb2cff55	-0.0026397307
49	0x3af7387b	0.0018861437
