pbc_examples/saved_models/convection_beta-1.0_layers-50,50,50,50,1_L-10.0_WD-0_init-normal_seed0.pt (torch, 114029 bytes, 36 tensors)

x_u f4 [256, 1]
0	0x00000000	0.0
1	0x3cc90fdb	0.024543693
2	0x3d490fdb	0.049087387
3	0x3d96cbe4	0.07363108
4	0x3dc90fdb	0.09817477
5	0x3dfb53d1	0.12271846
6	0x3e16cbe4	0.14726216
7	0x3e2feddf	0.17180584
8	0x3e490fdb	0.19634955
9	0x3e6231d6	0.22089323
10	0x3e7b53d1	0.24543692
11	0x3e8a3ae6	0.2699806
12	0x3e96cbe4	0.2945243
13	0x3ea35ce2	0.319068
14	0x3eafeddf	0.3436117
15	0x3ebc7edd	0.3681554
16	0x3ec90fdb	0.3926991
17	0x3ed5a0d8	0.41724277
18	0x3ee231d6	0.44178647
19	0x3eeec2d4	0.46633017
20	0x3efb53d1	0.49087384
21	0x3f03f267	0.5154175
22	0x3f0a3ae6	0.5399612
23	0x3f108365	0.5645049
24	0x3f16cbe4	0.5890486
25	0x3f1d1463	0.6135923
26	0x3f235ce2	0.638136
27	0x3f29a560	0.6626797
28	0x3f2feddf	0.6872234
29	0x3f36365e	0.7117671
30	0x3f3c7edd	0.7363108
31	0x3f42c75c	0.7608545
32	0x3f490fdb	0.7853982
33	0x3f4f5859	0.8099418
34	0x3f55a0d8	0.83448553
35	0x3f5be957	0.85902923
36	0x3f6231d6	0.88357294
37	0x3f687a55	0.90811664
38	0x3f6ec2d4	0.93266034
39	0x3f750b52	0.957204
40	0x3f7b53d1	0.9817477
41	0x3f80ce28	1.0062914
42	0x3f83f267	1.030835
43	0x3f8716a7	1.0553788
44	0x3f8a3ae6	1.0799224
45	0x3f8d5f26	1.1044662
46	0x3f908365	1.1290098
47	0x3f93a7a5	1.1535536
48	0x3f96cbe4	1.1780972
49	0x3f99f023	1.2026409
50	0x3f9d1463	1.2271847
51	0x3fa038a2	1.2517283
52	0x3fa35ce2	1.276272
53	0x3fa68121	1.3008157
54	0x3fa9a560	1.3253593
55	0x3facc9a0	1.3499031
56	0x3fafeddf	1.3744467
57	0x3fb3121f	1.3989905
58	0x3fb6365e	1.4235342
59	0x3fb95a9e	1.4480779
60	0x3fbc7edd	1.4726216
61	0x3fbfa31c	1.4971652
62	0x3fc2c75c	1.521709
63	0x3fc5eb9b	1.5462526
64	0x3fc90fdb	1.5707964
65	0x3fcc341a	1.59534
66	0x3fcf5859	1.6198837
67	0x3fd27c99	1.6444274
68	0x3fd5a0d8	1.6689711
69	0x3fd8c518	1.6935148
70	0x3fdbe957	1.7180585
71	0x3fdf0d97	1.7426022
72	0x3fe231d6	1.7671459
73	0x3fe55615	1.7916895
74	0x3fe87a55	1.8162333
75	0x3feb9e94	1.8407769
76	0x3feec2d4	1.8653207
77	0x3ff1e713	1.8898643
78	0x3ff50b52	1.914408
79	0x3ff82f92	1.9389517
80	0x3ffb53d1	1.9634954
81	0x3ffe7811	1.9880391
82	0x4000ce28	2.0125828
83	0x40026048	2.0371265
84	0x4003f267	2.06167
85	0x40058487	2.0862138
86	0x400716a7	2.1107576
87	0x4008a8c7	2.1353014
88	0x400a3ae6	2.1598449
89	0x400bcd06	2.1843886
90	0x400d5f26	2.2089324
91	0x400ef145	2.233476
92	0x40108365	2.2580197
93	0x40121585	2.2825634
94	0x4013a7a5	2.3071072
95	0x401539c4	2.3316507
96	0x4016cbe4	2.3561945
97	0x40185e04	2.3807383
98	0x4019f023	2.4052818
99	0x401b8243	2.4298255
100	0x401d1463	2.4543693
101	0x401ea683	2.478913
102	0x402038a2	2.5034566
103	0x4021cac2	2.5280004
104	0x40235ce2	2.552544
105	0x4024ef01	2.5770876
106	0x40268121	2.6016314
107	0x40281341	2.6261752
108	0x4029a560	2.6507187
109	0x402b3780	2.6752625
110	0x402cc9a0	2.6998062
111	0x402e5bc0	2.72435
112	0x402feddf	2.7488935
113	0x40317fff	2.7734373
114	0x4033121f	2.797981
115	0x4034a43e	2.8225245
116	0x4036365e	2.8470683
117	0x4037c87e	2.871612
118	0x40395a9e	2.8961558
119	0x403aecbd	2.9206994
120	0x403c7edd	2.9452431
121	0x403e10fd	2.969787
122	0x403fa31c	2.9943304
123	0x4041353c	3.0188742
124	0x4042c75c	3.043418
125	0x4044597c	3.0679617
126	0x4045eb9b	3.0925052
127	0x40477dbb	3.117049
128	0x40490fdb	3.1415927
129	0x404aa1fa	3.1661363
130	0x404c341a	3.19068
131	0x404dc63a	3.2152238
132	0x404f5859	3.2397673
133	0x4050ea79	3.264311
134	0x40527c99	3.2888548
135	0x40540eb9	3.3133986
136	0x4055a0d8	3.3379421
137	0x405732f8	3.362486
138	0x4058c518	3.3870296
139	0x405a5737	3.4115732
140	0x405be957	3.436117
141	0x405d7b77	3.4606607
142	0x405f0d97	3.4852045
143	0x40609fb6	3.509748
144	0x406231d6	3.5342917
145	0x4063c3f6	3.5588355
146	0x40655615	3.583379
147	0x4066e835	3.6079228
148	0x40687a55	3.6324666
149	0x406a0c75	3.6570103
150	0x406b9e94	3.6815538
151	0x406d30b4	3.7060976
152	0x406ec2d4	3.7306414
153	0x407054f3	3.755185
154	0x4071e713	3.7797287
155	0x40737933	3.8042724
156	0x40750b52	3.828816
157	0x40769d72	3.8533597
158	0x40782f92	3.8779035
159	0x4079c1b2	3.9024472
160	0x407b53d1	3.9269907
161	0x407ce5f1	3.9515345
162	0x407e7811	3.9760783
163	0x40800518	4.000622
164	0x4080ce28	4.0251656
165	0x40819738	4.0497093
166	0x40826048	4.074253
167	0x40832958	4.098797
168	0x4083f267	4.12334
169	0x4084bb77	4.147884
170	0x40858487	4.1724277
171	0x40864d97	4.1969714
172	0x408716a7	4.221515
173	0x4087dfb7	4.246059
174	0x4088a8c7	4.2706027
175	0x408971d6	4.295146
176	0x408a3ae6	4.3196898
177	0x408b03f6	4.3442335
178	0x408bcd06	4.3687773
179	0x408c9616	4.393321
180	0x408d5f26	4.417865
181	0x408e2836	4.4424086
182	0x408ef145	4.466952
183	0x408fba55	4.4914956
184	0x40908365	4.5160394
185	0x40914c75	4.540583
186	0x40921585	4.565127
187	0x4092de95	4.5896707
188	0x4093a7a5	4.6142144
189	0x409470b4	4.6387577
190	0x409539c4	4.6633015
191	0x409602d4	4.687845
192	0x4096cbe4	4.712389
193	0x409794f4	4.7369328
194	0x40985e04	4.7614765
195	0x40992714	4.7860203
196	0x4099f023	4.8105636
197	0x409ab933	4.8351073
198	0x409b8243	4.859651
199	0x409c4b53	4.884195
200	0x409d1463	4.9087386
201	0x409ddd73	4.9332824
202	0x409ea683	4.957826
203	0x409f6f92	4.9823694
204	0x40a038a2	5.006913
205	0x40a101b2	5.031457
206	0x40a1cac2	5.0560007
207	0x40a293d2	5.0805445
208	0x40a35ce2	5.105088
209	0x40a425f1	5.1296315
210	0x40a4ef01	5.1541753
211	0x40a5b811	5.178719
212	0x40a68121	5.203263
213	0x40a74a31	5.2278066
214	0x40a81341	5.2523503
215	0x40a8dc51	5.276894
216	0x40a9a560	5.3014374
217	0x40aa6e70	5.325981
218	0x40ab3780	5.350525
219	0x40ac0090	5.3750687
220	0x40acc9a0	5.3996124
221	0x40ad92b0	5.424156
222	0x40ae5bc0	5.4487
223	0x40af24cf	5.473243
224	0x40afeddf	5.497787
225	0x40b0b6ef	5.5223308
226	0x40b17fff	5.5468745
227	0x40b2490f	5.5714183
228	0x40b3121f	5.595962
229	0x40b3db2f	5.620506
230	0x40b4a43e	5.645049
231	0x40b56d4e	5.669593
232	0x40b6365e	5.6941366
233	0x40b6ff6e	5.7186804
234	0x40b7c87e	5.743224
235	0x40b8918e	5.767768
236	0x40b95a9e	5.7923117
237	0x40ba23ad	5.816855
238	0x40baecbd	5.8413987
239	0x40bbb5cd	5.8659425
240	0x40bc7edd	5.8904862
241	0x40bd47ed	5.91503
242	0x40be10fd	5.939574
243	0x40beda0d	5.9641175
244	0x40bfa31c	5.988661
245	0x40c06c2c	6.0132046
246	0x40c1353c	6.0377483
247	0x40c1fe4c	6.062292
248	0x40c2c75c	6.086836
249	0x40c3906c	6.1113796
250	0x40c4597c	6.1359234
251	0x40c5228b	6.1604667
252	0x40c5eb9b	6.1850104
253	0x40c6b4ab	6.209554
254	0x40c77dbb	6.234098
255	0x40c846cb	6.2586417

t_u f4 [256, 1]
0	0x00000000	0.0
1	0x00000000	0.0
2	0x00000000	0.0
3	0x00000000	0.0
4	0x00000000	0.0
5	0x00000000	0.0
6	0x00000000	0.0
7	0x00000000	0.0
8	0x00000000	0.0
9	0x00000000	0.0
10	0x00000000	0.0
11	0x00000000	0.0
12	0x00000000	0.0
13	0x00000000	0.0
14	0x00000000	0.0
15	0x00000000	0.0
16	0x00000000	0.0
17	0x00000000	0.0
18	0x00000000	0.0
19	0x00000000	0.0
20	0x00000000	0.0
21	0x00000000	0.0
22	0x00000000	0.0
23	0x00000000	0.0
24	0x00000000	0.0
25	0x00000000	0.0
26	0x00000000	0.0
27	0x00000000	0.0
28	0x00000000	0.0
29	0x00000000	0.0
30	0x00000000	0.0
31	0x00000000	0.0
32	0x00000000	0.0
33	0x00000000	0.0
34	0x00000000	0.0
35	0x00000000	0.0
36	0x00000000	0.0
37	0x00000000	0.0
38	0x00000000	0.0
39	0x00000000	0.0
40	0x00000000	0.0
41	0x00000000	0.0
42	0x00000000	0.0
43	0x00000000	0.0
44	0x00000000	0.0
45	0x00000000	0.0
46	0x00000000	0.0
47	0x00000000	0.0
48	0x00000000	0.0
49	0x00000000	0.0
50	0x00000000	0.0
51	0x00000000	0.0
52	0x00000000	0.0
53	0x00000000	0.0
54	0x00000000	0.0
55	0x00000000	0.0
56	0x00000000	0.0
57	0x00000000	0.0
58	0x00000000	0.0
59	0x00000000	0.0
60	0x00000000	0.0
61	0x00000000	0.0
62	0x00000000	0.0
63	0x00000000	0.0
64	0x00000000	0.0
65	0x00000000	0.0
66	0x00000000	0.0
67	0x00000000	0.0
68	0x00000000	0.0
69	0x00000000	0.0
70	0x00000000	0.0
71	0x00000000	0.0
72	0x00000000	0.0
73	0x00000000	0.0
74	0x00000000	0.0
75	0x00000000	0.0
76	0x00000000	0.0
77	0x00000000	0.0
78	0x00000000	0.0
79	0x00000000	0.0
80	0x00000000	0.0
81	0x00000000	0.0
82	0x00000000	0.0
83	0x00000000	0.0
84	0x00000000	0.0
85	0x00000000	0.0
86	0x00000000	0.0
87	0x00000000	0.0
88	0x00000000	0.0
89	0x00000000	0.0
90	0x00000000	0.0
91	0x00000000	0.0
92	0x00000000	0.0
93	0x00000000	0.0
94	0x00000000	0.0
95	0x00000000	0.0
96	0x00000000	0.0
97	0x00000000	0.0
98	0x00000000	0.0
99	0x00000000	0.0
100	0x00000000	0.0
101	0x00000000	0.0
102	0x00000000	0.0
103	0x00000000	0.0
104	0x00000000	0.0
105	0x00000000	0.0
106	0x00000000	0.0
107	0x00000000	0.0
108	0x00000000	0.0
109	0x00000000	0.0
110	0x00000000	0.0
111	0x00000000	0.0
112	0x00000000	0.0
113	0x00000000	0.0
114	0x00000000	0.0
115	0x00000000	0.0
116	0x00000000	0.0
117	0x00000000	0.0
118	0x00000000	0.0
119	0x00000000	0.0
120	0x00000000	0.0
121	0x00000000	0.0
122	0x00000000	0.0
123	0x00000000	0.0
124	0x00000000	0.0
125	0x00000000	0.0
126	0x00000000	0.0
127	0x00000000	0.0
128	0x00000000	0.0
129	0x00000000	0.0
130	0x00000000	0.0
131	0x00000000	0.0
132	0x00000000	0.0
133	0x00000000	0.0
134	0x00000000	0.0
135	0x00000000	0.0
136	0x00000000	0.0
137	0x00000000	0.0
138	0x00000000	0.0
139	0x00000000	0.0
140	0x00000000	0.0
141	0x00000000	0.0
142	0x00000000	0.0
143	0x00000000	0.0
144	0x00000000	0.0
145	0x00000000	0.0
146	0x00000000	0.0
147	0x00000000	0.0
148	0x00000000	0.0
149	0x00000000	0.0
150	0x00000000	0.0
151	0x00000000	0.0
152	0x00000000	0.0
153	0x00000000	0.0
154	0x00000000	0.0
155	0x00000000	0.0
156	0x00000000	0.0
157	0x00000000	0.0
158	0x00000000	0.0
159	0x00000000	0.0
160	0x00000000	0.0
161	0x00000000	0.0
162	0x00000000	0.0
163	0x00000000	0.0
164	0x00000000	0.0
165	0x00000000	0.0
166	0x00000000	0.0
167	0x00000000	0.0
168	0x00000000	0.0
169	0x00000000	0.0
170	0x00000000	0.0
171	0x00000000	0.0
172	0x00000000	0.0
173	0x00000000	0.0
174	0x00000000	0.0
175	0x00000000	0.0
176	0x00000000	0.0
177	0x00000000	0.0
178	0x00000000	0.0
179	0x00000000	0.0
180	0x00000000	0.0
181	0x00000000	0.0
182	0x00000000	0.0
183	0x00000000	0.0
184	0x00000000	0.0
185	0x00000000	0.0
186	0x00000000	0.0
187	0x00000000	0.0
188	0x00000000	0.0
189	0x00000000	0.0
190	0x00000000	0.0
191	0x00000000	0.0
192	0x00000000	0.0
193	0x00000000	0.0
194	0x00000000	0.0
195	0x00000000	0.0
196	0x00000000	0.0
197	0x00000000	0.0
198	0x00000000	0.0
199	0x00000000	0.0
200	0x00000000	0.0
201	0x00000000	0.0
202	0x00000000	0.0
203	0x00000000	0.0
204	0x00000000	0.0
205	0x00000000	0.0
206	0x00000000	0.0
207	0x00000000	0.0
208	0x00000000	0.0
209	0x00000000	0.0
210	0x00000000	0.0
211	0x00000000	0.0
212	0x00000000	0.0
213	0x00000000	0.0
214	0x00000000	0.0
215	0x00000000	0.0
216	0x00000000	0.0
217	0x00000000	0.0
218	0x00000000	0.0
219	0x00000000	0.0
220	0x00000000	0.0
221	0x00000000	0.0
222	0x00000000	0.0
223	0x00000000	0.0
224	0x00000000	0.0
225	0x00000000	0.0
226	0x00000000	0.0
227	0x00000000	0.0
228	0x00000000	0.0
229	0x00000000	0.0
230	0x00000000	0.0
231	0x00000000	0.0
232	0x00000000	0.0
233	0x00000000	0.0
234	0x00000000	0.0
235	0x00000000	0.0
236	0x00000000	0.0
237	0x00000000	0.0
238	0x00000000	0.0
239	0x00000000	0.0
240	0x00000000	0.0
241	0x00000000	0.0
242	0x00000000	0.0
243	0x00000000	0.0
244	0x00000000	0.0
245	0x00000000	0.0
246	0x00000000	0.0
247	0x00000000	0.0
248	0x00000000	0.0
249	0x00000000	0.0
250	0x00000000	0.0
251	0x00000000	0.0
252	0x00000000	0.0
253	0x00000000	0.0
254	0x00000000	0.0
255	0x00000000	0.0

x_f f4 [100, 1]
0	0x4093a7a5	4.6142144
1	0x3fdf0d97	1.7426022
2	0x4055a0d8	3.3379421
3	0x409c4b53	4.884195
4	0x4044597c	3.0679617
5	0x40b0b6ef	5.5223308
6	0x40ba23ad	5.816855
7	0x40c5eb9b	6.1850104
8	0x40921585	4.565127
9	0x3f99f023	1.2026409
10	0x40992714	4.7860203
11	0x3f108365	0.5645049
12	0x3feb9e94	1.8407769
13	0x3dfb53d1	0.12271846
14	0x409f6f92	4.9823694
15	0x40c2c75c	6.086836
16	0x40b6ff6e	5.7186804
17	0x402cc9a0	2.6998062
18	0x4021cac2	2.5280004
19	0x40c3906c	6.1113796
20	0x402e5bc0	2.72435
21	0x40af24cf	5.473243
22	0x3f8716a7	1.0553788
23	0x40c1fe4c	6.062292
24	0x3ee231d6	0.44178647
25	0x3f36365e	0.7117671
26	0x40864d97	4.1969714
27	0x40c846cb	6.2586417
28	0x40c4597c	6.1359234
29	0x40914c75	4.540583
30	0x40c5eb9b	6.1850104
31	0x4088a8c7	4.2706027
32	0x40af24cf	5.473243
33	0x40268121	2.6016314
34	0x408d5f26	4.417865
35	0x409d1463	4.9087386
36	0x40c06c2c	6.0132046
37	0x3ebc7edd	0.3681554
38	0x3efb53d1	0.49087384
39	0x40a68121	5.203263
40	0x405d7b77	3.4606607
41	0x3ee231d6	0.44178647
42	0x3fcf5859	1.6198837
43	0x4084bb77	4.147884
44	0x3fe87a55	1.8162333
45	0x409ea683	4.957826
46	0x405f0d97	3.4852045
47	0x4058c518	3.3870296
48	0x3f750b52	0.957204
49	0x4013a7a5	2.3071072
50	0x3f29a560	0.6626797
51	0x40a74a31	5.2278066
52	0x3cc90fdb	0.024543693
53	0x40c1fe4c	6.062292
54	0x401539c4	2.3316507
55	0x3ffb53d1	1.9634954
56	0x401539c4	2.3316507
57	0x3f2feddf	0.6872234
58	0x3fcc341a	1.59534
59	0x405a5737	3.4115732
60	0x40b3121f	5.595962
61	0x40b95a9e	5.7923117
62	0x3f8d5f26	1.1044662
63	0x406b9e94	3.6815538
64	0x3f6231d6	0.88357294
65	0x3fdbe957	1.7180585
66	0x401b8243	2.4298255
67	0x4066e835	3.6079228
68	0x3fe55615	1.7916895
69	0x3fcf5859	1.6198837
70	0x408971d6	4.295146
71	0x3ffe7811	1.9880391
72	0x40108365	2.2580197
73	0x402e5bc0	2.72435
74	0x3f490fdb	0.7853982
75	0x4003f267	2.06167
76	0x409ea683	4.957826
77	0x40a425f1	5.1296315
78	0x401b8243	2.4298255
79	0x40914c75	4.540583
80	0x406a0c75	3.6570103
81	0x3f55a0d8	0.83448553
82	0x406d30b4	3.7060976
83	0x3fe55615	1.7916895
84	0x40c2c75c	6.086836
85	0x409f6f92	4.9823694
86	0x409c4b53	4.884195
87	0x3f80ce28	1.0062914
88	0x40afeddf	5.497787
89	0x40baecbd	5.8413987
90	0x40864d97	4.1969714
91	0x4096cbe4	4.712389
92	0x3f6231d6	0.88357294
93	0x3f6ec2d4	0.93266034
94	0x3f9d1463	1.2271847
95	0x40b7c87e	5.743224
96	0x40b2490f	5.5714183
97	0x40c1353c	6.0377483
98	0x405be957	3.436117
99	0x3facc9a0	1.3499031

t_f f4 [100, 1]
0	0x3ec48677	0.3838384
1	0x3f51745d	0.8181818
2	0x3f090cee	0.53535354
3	0x3f4c4867	0.7979798
4	0x3e10cede	0.14141414
5	0x3f350296	0.7070707
6	0x3f2fd6a0	0.68686867
7	0x3f471c72	0.7777778
8	0x3f0ba2e9	0.54545456
9	0x3c257eb5	0.01010101
10	0x3f0e38e4	0.5555556
11	0x3f49b26d	0.7878788
12	0x3ede6243	0.43434343
13	0x3ede6243	0.43434343
14	0x3f7ad40a	0.97979796
15	0x3f800000	1.0
16	0x3f2d40a5	0.67676765
17	0x3f0676f3	0.5252525
18	0x3e9b26ca	0.3030303
19	0x3f540a58	0.82828283
20	0x3f7ad40a	0.97979796
21	0x3f22e8ba	0.6363636
22	0x3eafd6a0	0.34343433
23	0x3ea57eb5	0.32323232
24	0x3ef3121a	0.47474748
25	0x3f6b5029	0.9191919
26	0x3f0e38e4	0.5555556
27	0x3f471c72	0.7777778
28	0x3eba2e8c	0.36363637
29	0x3e638e39	0.22222222
30	0x3e90cede	0.28282827
31	0x3f638e39	0.8888889
32	0x3f68ba2f	0.90909094
33	0x3e1b26ca	0.15151516
34	0x3f2052bf	0.6262626
35	0x3d257eb5	0.04040404
36	0x3e1b26ca	0.15151516
37	0x3f60f83e	0.8787879
38	0x3f15fad4	0.5858586
39	0x3e814afd	0.25252524
40	0x3f4c4867	0.7979798
41	0x3ec48677	0.3838384
42	0x3ed9364e	0.42424244
43	0x3c257eb5	0.01010101
44	0x3e783e10	0.24242425
45	0x3f662434	0.8989899
46	0x3eba2e8c	0.36363637
47	0x3f707c1f	0.93939394
48	0x3f41f07c	0.75757575
49	0x3ea052bf	0.3131313
50	0x3d257eb5	0.04040404
51	0x3eafd6a0	0.34343433
52	0x3ee8ba2f	0.45454547
53	0x3f75a815	0.959596
54	0x3f75a815	0.959596
55	0x3ee8ba2f	0.45454547
56	0x3ee8ba2f	0.45454547
57	0x3f4ede62	0.8080808
58	0x3f0676f3	0.5252525
59	0x3f10cede	0.56565654
60	0x3f60f83e	0.8787879
61	0x3f3cc486	0.7373737
62	0x3d257eb5	0.04040404
63	0x3ef3121a	0.47474748
64	0x3f1364d9	0.57575756
65	0x3f10cede	0.56565654
66	0x3f2d40a5	0.67676765
67	0x3f7d6a05	0.989899
68	0x3f2fd6a0	0.68686867
69	0x3e59364e	0.21212122
70	0x3d4ede62	0.05050505
71	0x3e90cede	0.28282827
72	0x3e814afd	0.25252524
73	0x3f4ede62	0.8080808
74	0x3c257eb5	0.01010101
75	0x3ed40a58	0.41414142
76	0x3f783e10	0.969697
77	0x3f7ad40a	0.97979796
78	0x3e95fad4	0.2929293
79	0x3f03e0f8	0.5151515
80	0x3f56a053	0.83838385
81	0x3f73121a	0.94949496
82	0x3ef3121a	0.47474748
83	0x3f1890cf	0.5959596
84	0x3ec9b26d	0.3939394
85	0x3f2fd6a0	0.68686867
86	0x3f59364e	0.8484849
87	0x3ca57eb5	0.02020202
88	0x3f6b5029	0.9191919
89	0x3ef83e10	0.4848485
90	0x3e0676f3	0.13131313
91	0x3f1b26ca	0.6060606
92	0x3e814afd	0.25252524
93	0x3f783e10	0.969697
94	0x3eafd6a0	0.34343433
95	0x3f56a053	0.83838385
96	0x3ef83e10	0.4848485
97	0x3f4c4867	0.7979798
98	0x3f379891	0.7171717
99	0x3e9b26ca	0.3030303

x_bc_lb f4 [100, 1]
0	0x00000000	0.0
1	0x00000000	0.0
2	0x00000000	0.0
3	0x00000000	0.0
4	0x00000000	0.0
5	0x00000000	0.0
6	0x00000000	0.0
7	0x00000000	0.0
8	0x00000000	0.0
9	0x00000000	0.0
10	0x00000000	0.0
11	0x00000000	0.0
12	0x00000000	0.0
13	0x00000000	0.0
14	0x00000000	0.0
15	0x00000000	0.0
16	0x00000000	0.0
17	0x00000000	0.0
18	0x00000000	0.0
19	0x00000000	0.0
20	0x00000000	0.0
21	0x00000000	0.0
22	0x00000000	0.0
23	0x00000000	0.0
24	0x00000000	0.0
25	0x00000000	0.0
26	0x00000000	0.0
27	0x00000000	0.0
28	0x00000000	0.0
29	0x00000000	0.0
30	0x00000000	0.0
31	0x00000000	0.0
32	0x00000000	0.0
33	0x00000000	0.0
34	0x00000000	0.0
35	0x00000000	0.0
36	0x00000000	0.0
37	0x00000000	0.0
38	0x00000000	0.0
39	0x00000000	0.0
40	0x00000000	0.0
41	0x00000000	0.0
42	0x00000000	0.0
43	0x00000000	0.0
44	0x00000000	0.0
45	0x00000000	0.0
46	0x00000000	0.0
47	0x00000000	0.0
48	0x00000000	0.0
49	0x00000000	0.0
50	0x00000000	0.0
51	0x00000000	0.0
52	0x00000000	0.0
53	0x00000000	0.0
54	0x00000000	0.0
55	0x00000000	0.0
56	0x00000000	0.0
57	0x00000000	0.0
58	0x00000000	0.0
59	0x00000000	0.0
60	0x00000000	0.0
61	0x00000000	0.0
62	0x00000000	0.0
63	0x00000000	0.0
64	0x00000000	0.0
65	0x00000000	0.0
66	0x00000000	0.0
67	0x00000000	0.0
68	0x00000000	0.0
69	0x00000000	0.0
70	0x00000000	0.0
71	0x00000000	0.0
72	0x00000000	0.0
73	0x00000000	0.0
74	0x00000000	0.0
75	0x00000000	0.0
76	0x00000000	0.0
77	0x00000000	0.0
78	0x00000000	0.0
79	0x00000000	0.0
80	0x00000000	0.0
81	0x00000000	0.0
82	0x00000000	0.0
83	0x00000000	0.0
84	0x00000000	0.0
85	0x00000000	0.0
86	0x00000000	0.0
87	0x00000000	0.0
88	0x00000000	0.0
89	0x00000000	0.0
90	0x00000000	0.0
91	0x00000000	0.0
92	0x00000000	0.0
93	0x00000000	0.0
94	0x00000000	0.0
95	0x00000000	0.0
96	0x00000000	0.0
97	0x00000000	0.0
98	0x00000000	0.0
99	0x00000000	0.0

t_bc_lb f4 [100, 1]
0	0x00000000	0.0
1	0x3c257eb5	0.01010101
2	0x3ca57eb5	0.02020202
3	0x3cf83e10	0.030303031
4	0x3d257eb5	0.04040404
5	0x3d4ede62	0.05050505
6	0x3d783e10	0.060606062
7	0x3d90cede	0.07070707
8	0x3da57eb5	0.08080808
9	0x3dba2e8c	0.09090909
10	0x3dcede62	0.1010101
11	0x3de38e39	0.11111111
12	0x3df83e10	0.121212125
13	0x3e0676f3	0.13131313
14	0x3e10cede	0.14141414
15	0x3e1b26ca	0.15151516
16	0x3e257eb5	0.16161616
17	0x3e2fd6a0	0.17171717
18	0x3e3a2e8c	0.18181819
19	0x3e448677	0.1919192
20	0x3e4ede62	0.2020202
21	0x3e59364e	0.21212122
22	0x3e638e39	0.22222222
23	0x3e6de624	0.23232323
24	0x3e783e10	0.24242425
25	0x3e814afd	0.25252524
26	0x3e8676f3	0.26262626
27	0x3e8ba2e9	0.27272728
28	0x3e90cede	0.28282827
29	0x3e95fad4	0.2929293
30	0x3e9b26ca	0.3030303
31	0x3ea052bf	0.3131313
32	0x3ea57eb5	0.32323232
33	0x3eaaaaab	0.33333334
34	0x3eafd6a0	0.34343433
35	0x3eb50296	0.35353535
36	0x3eba2e8c	0.36363637
37	0x3ebf5a81	0.37373737
38	0x3ec48677	0.3838384
39	0x3ec9b26d	0.3939394
40	0x3ecede62	0.4040404
41	0x3ed40a58	0.41414142
42	0x3ed9364e	0.42424244
43	0x3ede6243	0.43434343
44	0x3ee38e39	0.44444445
45	0x3ee8ba2f	0.45454547
46	0x3eede624	0.46464646
47	0x3ef3121a	0.47474748
48	0x3ef83e10	0.4848485
49	0x3efd6a05	0.4949495
50	0x3f014afd	0.5050505
51	0x3f03e0f8	0.5151515
52	0x3f0676f3	0.5252525
53	0x3f090cee	0.53535354
54	0x3f0ba2e9	0.54545456
55	0x3f0e38e4	0.5555556
56	0x3f10cede	0.56565654
57	0x3f1364d9	0.57575756
58	0x3f15fad4	0.5858586
59	0x3f1890cf	0.5959596
60	0x3f1b26ca	0.6060606
61	0x3f1dbcc5	0.61616164
62	0x3f2052bf	0.6262626
63	0x3f22e8ba	0.6363636
64	0x3f257eb5	0.64646465
65	0x3f2814b0	0.65656567
66	0x3f2aaaab	0.6666667
67	0x3f2d40a5	0.67676765
68	0x3f2fd6a0	0.68686867
69	0x3f326c9b	0.6969697
70	0x3f350296	0.7070707
71	0x3f379891	0.7171717
72	0x3f3a2e8c	0.72727275
73	0x3f3cc486	0.7373737
74	0x3f3f5a81	0.74747473
75	0x3f41f07c	0.75757575
76	0x3f448677	0.7676768
77	0x3f471c72	0.7777778
78	0x3f49b26d	0.7878788
79	0x3f4c4867	0.7979798
80	0x3f4ede62	0.8080808
81	0x3f51745d	0.8181818
82	0x3f540a58	0.82828283
83	0x3f56a053	0.83838385
84	0x3f59364e	0.8484849
85	0x3f5bcc48	0.85858583
86	0x3f5e6243	0.86868685
87	0x3f60f83e	0.8787879
88	0x3f638e39	0.8888889
89	0x3f662434	0.8989899
90	0x3f68ba2f	0.90909094
91	0x3f6b5029	0.9191919
92	0x3f6de624	0.9292929
93	0x3f707c1f	0.93939394
94	0x3f73121a	0.94949496
95	0x3f75a815	0.959596
96	0x3f783e10	0.969697
97	0x3f7ad40a	0.97979796
98	0x3f7d6a05	0.989899
99	0x3f800000	1.0

x_bc_ub f4 [100, 1]
0	0x40c90fdb	6.2831855
1	0x40c90fdb	6.2831855
2	0x40c90fdb	6.2831855
3	0x40c90fdb	6.2831855
4	0x40c90fdb	6.2831855
5	0x40c90fdb	6.2831855
6	0x40c90fdb	6.2831855
7	0x40c90fdb	6.2831855
8	0x40c90fdb	6.2831855
9	0x40c90fdb	6.2831855
10	0x40c90fdb	6.2831855
11	0x40c90fdb	6.2831855
12	0x40c90fdb	6.2831855
13	0x40c90fdb	6.2831855
14	0x40c90fdb	6.2831855
15	0x40c90fdb	6.2831855
16	0x40c90fdb	6.2831855
17	0x40c90fdb	6.2831855
18	0x40c90fdb	6.2831855
19	0x40c90fdb	6.2831855
20	0x40c90fdb	6.2831855
21	0x40c90fdb	6.2831855
22	0x40c90fdb	6.2831855
23	0x40c90fdb	6.2831855
24	0x40c90fdb	6.2831855
25	0x40c90fdb	6.2831855
26	0x40c90fdb	6.2831855
27	0x40c90fdb	6.2831855
28	0x40c90fdb	6.2831855
29	0x40c90fdb	6.2831855
30	0x40c90fdb	6.2831855
31	0x40c90fdb	6.2831855
32	0x40c90fdb	6.2831855
33	0x40c90fdb	6.2831855
34	0x40c90fdb	6.2831855
35	0x40c90fdb	6.2831855
36	0x40c90fdb	6.2831855
37	0x40c90fdb	6.2831855
38	0x40c90fdb	6.2831855
39	0x40c90fdb	6.2831855
40	0x40c90fdb	6.2831855
41	0x40c90fdb	6.2831855
42	0x40c90fdb	6.2831855
43	0x40c90fdb	6.2831855
44	0x40c90fdb	6.2831855
45	0x40c90fdb	6.2831855
46	0x40c90fdb	6.2831855
47	0x40c90fdb	6.2831855
48	0x40c90fdb	6.2831855
49	0x40c90fdb	6.2831855
50	0x40c90fdb	6.2831855
51	0x40c90fdb	6.2831855
52	0x40c90fdb	6.2831855
53	0x40c90fdb	6.2831855
54	0x40c90fdb	6.2831855
55	0x40c90fdb	6.2831855
56	0x40c90fdb	6.2831855
57	0x40c90fdb	6.2831855
58	0x40c90fdb	6.2831855
59	0x40c90fdb	6.2831855
60	0x40c90fdb	6.2831855
61	0x40c90fdb	6.2831855
62	0x40c90fdb	6.2831855
63	0x40c90fdb	6.2831855
64	0x40c90fdb	6.2831855
65	0x40c90fdb	6.2831855
66	0x40c90fdb	6.2831855
67	0x40c90fdb	6.2831855
68	0x40c90fdb	6.2831855
69	0x40c90fdb	6.2831855
70	0x40c90fdb	6.2831855
71	0x40c90fdb	6.2831855
72	0x40c90fdb	6.2831855
73	0x40c90fdb	6.2831855
74	0x40c90fdb	6.2831855
75	0x40c90fdb	6.2831855
76	0x40c90fdb	6.2831855
77	0x40c90fdb	6.2831855
78	0x40c90fdb	6.2831855
79	0x40c90fdb	6.2831855
80	0x40c90fdb	6.2831855
81	0x40c90fdb	6.2831855
82	0x40c90fdb	6.2831855
83	0x40c90fdb	6.2831855
84	0x40c90fdb	6.2831855
85	0x40c90fdb	6.2831855
86	0x40c90fdb	6.2831855
87	0x40c90fdb	6.2831855
88	0x40c90fdb	6.2831855
89	0x40c90fdb	6.2831855
90	0x40c90fdb	6.2831855
91	0x40c90fdb	6.2831855
92	0x40c90fdb	6.2831855
93	0x40c90fdb	6.2831855
94	0x40c90fdb	6.2831855
95	0x40c90fdb	6.2831855
96	0x40c90fdb	6.2831855
97	0x40c90fdb	6.2831855
98	0x40c90fdb	6.2831855
99	0x40c90fdb	6.2831855

t_bc_ub f4 [100, 1]
0	0x00000000	0.0
1	0x3c257eb5	0.01010101
2	0x3ca57eb5	0.02020202
3	0x3cf83e10	0.030303031
4	0x3d257eb5	0.04040404
5	0x3d4ede62	0.05050505
6	0x3d783e10	0.060606062
7	0x3d90cede	0.07070707
8	0x3da57eb5	0.08080808
9	0x3dba2e8c	0.09090909
10	0x3dcede62	0.1010101
11	0x3de38e39	0.11111111
12	0x3df83e10	0.121212125
13	0x3e0676f3	0.13131313
14	0x3e10cede	0.14141414
15	0x3e1b26ca	0.15151516
16	0x3e257eb5	0.16161616
17	0x3e2fd6a0	0.17171717
18	0x3e3a2e8c	0.18181819
19	0x3e448677	0.1919192
20	0x3e4ede62	0.2020202
21	0x3e59364e	0.21212122
22	0x3e638e39	0.22222222
23	0x3e6de624	0.23232323
24	0x3e783e10	0.24242425
25	0x3e814afd	0.25252524
26	0x3e8676f3	0.26262626
27	0x3e8ba2e9	0.27272728
28	0x3e90cede	0.28282827
29	0x3e95fad4	0.2929293
30	0x3e9b26ca	0.3030303
31	0x3ea052bf	0.3131313
32	0x3ea57eb5	0.32323232
33	0x3eaaaaab	0.33333334
34	0x3eafd6a0	0.34343433
35	0x3eb50296	0.35353535
36	0x3eba2e8c	0.36363637
37	0x3ebf5a81	0.37373737
38	0x3ec48677	0.3838384
39	0x3ec9b26d	0.3939394
40	0x3ecede62	0.4040404
41	0x3ed40a58	0.41414142
42	0x3ed9364e	0.42424244
43	0x3ede6243	0.43434343
44	0x3ee38e39	0.44444445
45	0x3ee8ba2f	0.45454547
46	0x3eede624	0.46464646
47	0x3ef3121a	0.47474748
48	0x3ef83e10	0.4848485
49	0x3efd6a05	0.4949495
50	0x3f014afd	0.5050505
51	0x3f03e0f8	0.5151515
52	0x3f0676f3	0.5252525
53	0x3f090cee	0.53535354
54	0x3f0ba2e9	0.54545456
55	0x3f0e38e4	0.5555556
56	0x3f10cede	0.56565654
57	0x3f1364d9	0.57575756
58	0x3f15fad4	0.5858586
59	0x3f1890cf	0.5959596
60	0x3f1b26ca	0.6060606
61	0x3f1dbcc5	0.61616164
62	0x3f2052bf	0.6262626
63	0x3f22e8ba	0.6363636
64	0x3f257eb5	0.64646465
65	0x3f2814b0	0.65656567
66	0x3f2aaaab	0.6666667
67	0x3f2d40a5	0.67676765
68	0x3f2fd6a0	0.68686867
69	0x3f326c9b	0.6969697
70	0x3f350296	0.7070707
71	0x3f379891	0.7171717
72	0x3f3a2e8c	0.72727275
73	0x3f3cc486	0.7373737
74	0x3f3f5a81	0.74747473
75	0x3f41f07c	0.75757575
76	0x3f448677	0.7676768
77	0x3f471c72	0.7777778
78	0x3f49b26d	0.7878788
79	0x3f4c4867	0.7979798
80	0x3f4ede62	0.8080808
81	0x3f51745d	0.8181818
82	0x3f540a58	0.82828283
83	0x3f56a053	0.83838385
84	0x3f59364e	0.8484849
85	0x3f5bcc48	0.85858583
86	0x3f5e6243	0.86868685
87	0x3f60f83e	0.8787879
88	0x3f638e39	0.8888889
89	0x3f662434	0.8989899
90	0x3f68ba2f	0.90909094
91	0x3f6b5029	0.9191919
92	0x3f6de624	0.9292929
93	0x3f707c1f	0.93939394
94	0x3f73121a	0.94949496
95	0x3f75a815	0.959596
96	0x3f783e10	0.969697
97	0x3f7ad40a	0.97979796
98	0x3f7d6a05	0.989899
99	0x3f800000	1.0

weight f4 [50, 2]
0	0x3e0dd710	0.13851571
1	0xbd411590	-0.047139704
2	0x3ccf6856	0.025318306
3	0x3db163d3	0.08661618
4	0x3f05d4b4	0.52277684
5	0xbe820db0	-0.25401068
6	0xbd862731	-0.06550444
7	0x3de60fb1	0.11233462
8	0xbd48a919	-0.04898939
9	0x3c8888c8	0.016666785
10	0xbe8910a3	-0.26770505
11	0x3e6d2380	0.23158073
12	0x3dd6e2f9	0.1049251
13	0x3d26e886	0.040749095
14	0xbe7c1563	-0.24617533
15	0xbe773403	-0.24140935
16	0x3e04606b	0.12927406
17	0x3d15ee69	0.03660432
18	0x3e0cba26	0.13742885
19	0xbe82c027	-0.25537226
20	0xbed95539	-0.42447832
21	0x3ca67163	0.020317739
22	0x3e82efc2	0.25573546
23	0xbe1d8181	-0.15381433
24	0xbe9086e7	-0.28227922
25	0xbeddf75a	-0.43352777
26	0xbd5afdd6	-0.053464733
27	0x3dc38d54	0.095484406
28	0x3d9005aa	0.0703233
29	0x3d9f22ad	0.07770286
30	0xbdeb7a82	-0.11497976
31	0xba9dd20d	-0.001204075
32	0xbe0771e8	-0.13227046
33	0xbe56e193	-0.20984487
34	0xbe9b04e4	-0.3027717
35	0x3e131a2c	0.14365453
36	0xbd532795	-0.05155142
37	0x3e49bd20	0.19701052
38	0xbeb27be3	-0.34860143
39	0x3e797e6f	0.24364637
40	0x3e0a8667	0.13527833
41	0xbdc645dd	-0.09681294
42	0x3dbe0e0c	0.09280023
43	0xbe137950	-0.14401746
44	0x3d9b314a	0.075777605
45	0x3c46188f	0.012090816
46	0x3d9919b7	0.07475608
47	0xbe6acc60	-0.22929525
48	0xbd5a0a1f	-0.05323231
49	0x3de6d191	0.1127044
50	0x3ed83967	0.42231295
51	0xbe6eec3c	-0.23332304
52	0xbe132ec6	-0.14373311
53	0x3e85020d	0.25978127
54	0xbda412e0	-0.080114126
55	0x3dea4567	0.11439019
56	0x3e8574c8	0.2606566
57	0xbda40f2a	-0.08010705
58	0x3d1f114e	0.038834862
59	0xbd9926b6	-0.07478087
60	0xbcf70143	-0.030151969
61	0x3e431877	0.19052301
62	0xbe825396	-0.25454396
63	0x3d69fbb4	0.05712481
64	0x3e1dee2b	0.15422885
65	0xbd47a6be	-0.048743002
66	0xbedbe45b	-0.4294766
67	0xbda8c077	-0.08239835
68	0x3d844161	0.064577825
69	0xbe6fb0be	-0.23407266
70	0xbed1ae59	-0.4095333
71	0xbc951720	-0.018199503
72	0xbdd7e09f	-0.1054089
73	0xbe4fcc73	-0.20292835
74	0x3df6a136	0.12042467
75	0x3cfe186e	0.031017508
76	0xbcc7d2dc	-0.024392538
77	0x3bc8da57	0.0061295438
78	0xbe30d128	-0.17267287
79	0xbd019fb1	-0.031646434
80	0xbd80a6c4	-0.06281808
81	0x3bbc2d33	0.005742693
82	0x3dfc6c0b	0.12325295
83	0x3d8631a0	0.06552434
84	0x3e1868af	0.14883684
85	0xbe4e8a98	-0.20170057
86	0x3f0640a5	0.5244239
87	0xbe0d9d98	-0.13829648
88	0x3e19d44d	0.15022393
89	0x3e5041b3	0.20337562
90	0xbdcae426	-0.09906797
91	0xbf04eff8	-0.51928663
92	0x3ce76ee5	0.02825112
93	0xbe701b65	-0.2344795
94	0x3e2b482d	0.16726752
95	0xbeac6548	-0.3367102
96	0xbe080e40	-0.13286686
97	0xbe482b8a	-0.19547859
98	0x3e315259	0.1731657
99	0xbe09b1c6	-0.13446721

bias f4 [50]
0	0xbd5cd51f	-0.053914186
1	0x3bae7d3d	0.005324988
2	0xbd60fae7	-0.05492678
3	0x3d77521b	0.060381036
4	0x3c05584b	0.008138726
5	0x3d4752c2	0.04866291
6	0xbe0fe93e	-0.14053819
7	0xbc581d63	-0.0131906
8	0xbc5c4cd8	-0.013446055
9	0xbd75acf7	-0.059979405
10	0xbbc510e2	-0.0060139755
11	0xbd6ad829	-0.057335053
12	0xbc81cf07	-0.015845789
13	0xbbb7b3fb	-0.005606172
14	0xbc9ff6bf	-0.019526837
15	0x3d288456	0.04114183
16	0xbc80b3b1	-0.015710684
17	0x3c8af96d	0.016964639
18	0x3d8725ce	0.065990075
19	0x3d1f5796	0.038901888
20	0xbd660b56	-0.056163155
21	0xbd4e8907	-0.05042365
22	0x3cacfb27	0.021115853
23	0xbd12129c	-0.03566228
24	0x3d84e0a2	0.06488158
25	0xbb92f577	-0.004484828
26	0x3da4be9d	0.08044169
27	0x3bd0fec8	0.0063780285
28	0xbd1d98b1	-0.038475696
29	0xbd994c59	-0.07485265
30	0x3d049076	0.03236433
31	0x3c98d9c3	0.018658524
32	0xbdd2080f	-0.10255443
33	0xbcf2d6df	-0.029643474
34	0xbc5c1b24	-0.013434205
35	0x3cb4b6e0	0.022059858
36	0xbd482d78	-0.048871487
37	0xbd3140c1	-0.043274645
38	0x3baae4d0	0.005215265
39	0x3c4b8bc5	0.01242346
40	0x3cf01744	0.029307969
41	0xbdb40749	-0.08790452
42	0xbd478863	-0.048714053
43	0x3cd0fd4b	0.025511404
44	0xbdbb1661	-0.09135128
45	0x3cf39700	0.029735088
46	0xbd231174	-0.039811566
47	0xbb8ad5d6	-0.004236917
48	0x3d651d9e	0.05593645
49	0xbd526a70	-0.051371038

weight f4 [50, 50]
0	0x3e13c292	0.14429691
1	0xbdad8f20	-0.084745646
2	0xbecb369c	-0.396901
3	0x3e18cd2f	0.14922021
4	0xbd28ab68	-0.04117909
5	0xbcf02654	-0.029315151
6	0xbe3ca27b	-0.18421356
7	0x3db99bfb	0.09062954
8	0x3db9822b	0.09058031
9	0x3da5940d	0.08084879
10	0x3e07abc6	0.1324912
11	0xbe8ea76f	-0.27862117
12	0xbe660e27	-0.22466336
13	0xbdaa9609	-0.08329398
14	0x3e520f90	0.20513749
15	0xbd3aa9d4	-0.045572117
16	0xbe811f5f	-0.25219247
17	0x3b4cafa6	0.0031232624
18	0x3e121115	0.14264329
19	0xbe1edcf4	-0.15513974
20	0x3c9d74c3	0.019220715
21	0x3d35b199	0.044358823
22	0x3e0bda51	0.136575
23	0x3e236896	0.15957865
24	0x3ea91e4a	0.3303092
25	0x3c45eccd	0.0120803835
26	0x3ead6ed4	0.33873618
27	0x3d6e906c	0.0582432
28	0x3e3c4106	0.1838418
29	0xbe627185	-0.22113617
30	0x3e4d4122	0.20044377
31	0xbd307594	-0.04308088
32	0xbd5cb7c3	-0.053886186
33	0xbe5989d6	-0.21243986
34	0x3dc588aa	0.09645207
35	0x3d5b5a9e	0.053553216
36	0x3e638bc6	0.22221288
37	0xbbaf8486	-0.005356374
38	0xbd06c56b	-0.032903116
39	0x3dc427f0	0.0957793
40	0x3d79deb8	0.061003417
41	0xbe783c0d	-0.24241658
42	0xbe079797	-0.1324142
43	0xbcaa6373	-0.020799374
44	0xbcaf7493	-0.021417892
45	0x3dd8ab4f	0.105795495
46	0x3d1d060d	0.03833585
47	0xbe372b4b	-0.17887609
48	0x3dbefb9a	0.09325333
49	0xbe00f624	-0.12593895
50	0xbe10f96b	-0.14157645
51	0xbe001f3a	-0.12511912
52	0xbdb04be9	-0.08608229
53	0xbd9758b4	-0.07389966
54	0x3d7050d3	0.05867083
55	0xbcf4d016	-0.02988438
56	0x3db208ed	0.08693109
57	0xbcc9a4ab	-0.024614653
58	0x3c685c03	0.014182094
59	0x3e2ef589	0.17085852
60	0xbe0aff28	-0.13573897
61	0xbeb1ad80	-0.34702682
62	0x3e5fb3e9	0.21845974
63	0x3cee9620	0.02912432
64	0xbdd2e1a0	-0.10296941
65	0x3e0ae876	0.1356524
66	0x3c0d147a	0.008610839
67	0x3e73a550	0.2379353
68	0xbe34029f	-0.17579125
69	0x3cdb4b7b	0.02676939
70	0x3cc55fe2	0.024093572
71	0x3e0cb4f6	0.13740906
72	0xbe41d554	-0.18929034
73	0x3e2b3638	0.16719902
74	0x3e31dc50	0.17369199
75	0x3cefb787	0.029262317
76	0xbde455c5	-0.11149172
77	0xbcafd260	-0.02146262
78	0xbc7238d2	-0.014784055
79	0x3db87e27	0.09008437
80	0xbccc7619	-0.024958657
81	0xbc2a0de6	-0.01037929
82	0xbb810e9e	-0.00393851
83	0xbe84fd9e	-0.25974745
84	0xbe6587af	-0.2241504
85	0xbe10d16f	-0.14142393
86	0xbdd5ef2c	-0.10446009
87	0xbe0f43f6	-0.13990769
88	0xbe94eea8	-0.2908833
89	0xbdece856	-0.11567752
90	0x3d54b417	0.05192956
91	0xbcf7ee3b	-0.030264964
92	0xbe7d8799	-0.24758758
93	0xbd9496ff	-0.07255363
94	0xbda94080	-0.082642555
95	0xbdf3085c	-0.11866829
96	0x3e493aa8	0.19651282
97	0xbe76e72a	-0.2411162
98	0x3ddcfaf1	0.10790051
99	0x3e6351bf	0.22199152
100	0xbdda82f6	-0.1066951
101	0x3d28e9e1	0.04123867
102	0xbd9807f0	-0.07423389
103	0x3d80a1db	0.062808715
104	0x3c25b262	0.010113331
105	0x3d63bf42	0.05560232
106	0xbc9a4f0d	-0.018836522
107	0x3e5d7b91	0.21629168
108	0xbdb1849f	-0.086678736
109	0x3d2f5801	0.042808536
110	0xbe83d6ed	-0.25749913
111	0xbd992385	-0.07477478
112	0x3df5346f	0.119728915
113	0xbd297ee0	-0.041380763
114	0x3d89cef9	0.0672893
115	0x3d75c295	0.06000002
116	0xbdee9bcf	-0.11650812
117	0x3dd459e1	0.103687055
118	0x3e3410db	0.17584555
119	0x3d1928f5	0.037392575
120	0x3db1c185	0.08679489
121	0xbcb0e1d2	-0.021592055
122	0x3c76ae0b	0.0150561435
123	0xbd9885a4	-0.07447365
124	0x3d2b77cf	0.041862305
125	0xbc93edaa	-0.018057663
126	0xbe165cf4	-0.14683896
127	0x3e43b470	0.191118
128	0x3e8e6828	0.2781384
129	0xbd808345	-0.06275038
130	0x3d0b1462	0.033954985
131	0xbe336f5b	-0.17522947
132	0x3d2f9598	0.042867273
133	0x3d5e6078	0.05429122
134	0x3d85b7ab	0.065291725
135	0x3dc52bd1	0.09627498
136	0x3dde9f7c	0.10870263
137	0xbcbf9aea	-0.023389298
138	0x3caef1ca	0.021355528
139	0x3e5305e4	0.20607716
140	0xbdbd0800	-0.092300415
141	0x3d410dbb	0.047132235
142	0xbd91f95d	-0.071276404
143	0xbab19ba2	-0.001355041
144	0x3d98321f	0.07431435
145	0x3e202c6e	0.15641949
146	0x3d050135	0.032471854
147	0xbeabb900	-0.3353958
148	0x3d0acb52	0.033885308
149	0x3e1e7e87	0.15477954
150	0xbe5db5ff	-0.21651457
151	0xbb404837	-0.0029339918
152	0x3e0d5793	0.13802938
153	0xbdab4f0d	-0.08364687
154	0xbbee3bfe	-0.007270335
155	0x3e068928	0.13138258
156	0x3ea0a8db	0.31378826
157	0x3cfc1054	0.030769505
158	0xbdfd66a1	-0.123730905
159	0x3d533790	0.05156666
160	0xbdebdd31	-0.11516798
161	0xbc3093b2	-0.010777401
162	0x3dfc2d35	0.1231331
163	0xbcc8b603	-0.024500852
164	0x3c3a4f23	0.011371407
165	0x3dd286bc	0.10279605
166	0x3cddf4b2	0.027094219
167	0xbc86b9fc	-0.016446106
168	0xbe2a0876	-0.1660479
169	0x3e010c3c	0.12602323
170	0xbe31ddc8	-0.17369759
171	0x3e449642	0.19197944
172	0xbbbd00f5	-0.0057679364
173	0x3e842402	0.25808722
174	0x3e53a31e	0.20667693
175	0xbd857ff9	-0.065185495
176	0x3d4c14fd	0.049824703
177	0x3db7278c	0.0894309
178	0x3de5b0df	0.11215376
179	0x3e6ca2e5	0.23109014
180	0xbd7c2068	-0.061554343
181	0x3db220e4	0.0869768
182	0xbe2e9d77	-0.17052256
183	0xbe43e7e1	-0.19131424
184	0xbe2108fe	-0.15726086
185	0xbcd248de	-0.025669511
186	0xbe874f78	-0.26427817
187	0xbbe82291	-0.0070841988
188	0x3e5efe43	0.2177668
189	0x3d555d60	0.052091002
190	0xbdeb3db8	-0.11486381
191	0x3c7d94c8	0.015477367
192	0xbe123c25	-0.14280756
193	0x3d6b2b44	0.05741431
194	0x3e249c5e	0.16075274
195	0xbe38b6b6	-0.18038449
196	0xbcf05469	-0.029337125
197	0x3db844b3	0.08997478
198	0xbdf794df	-0.12088942
199	0x3e0f3833	0.13986282
200	0x3d45da60	0.04830396
201	0xbd17d093	-0.037064146
202	0x3d862e08	0.065517485
203	0x3c885227	0.016640736
204	0x3e81407c	0.2524451
205	0xbe59235f	-0.21204899
206	0x3e1126d1	0.14174964
207	0x3e6f6cc8	0.2338134
208	0xbccbbf31	-0.02487144
209	0xbe194978	-0.14969432
210	0x3e7b8455	0.245622
211	0xbe618144	-0.22021967
212	0x3bc9c7d4	0.0061578546
213	0xbdb21aff	-0.08696555
214	0x3cddd165	0.027077386
215	0xbd583d95	-0.052793104
216	0xbe148a1c	-0.1450581
217	0x3d83ac00	0.06429291
218	0xbd97df7e	-0.074156746
219	0xbdc31923	-0.09526279
220	0xbd32af2c	-0.04362409
221	0x3da3265d	0.079663016
222	0xbdd686a6	-0.10474901
223	0xbe1a3639	-0.15059747
224	0x3e01203b	0.12609951
225	0x3d58ac87	0.05289891
226	0xbde21e29	-0.11040909
227	0x3e0b55c0	0.1360693
228	0xbc95a629	-0.018267708
229	0x3dff3fb4	0.12463322
230	0xbcf281ae	-0.029602852
231	0xbe4f4bcd	-0.2024376
232	0xbdf4a357	-0.11945217
233	0x3e1a95c3	0.15096192
234	0xbe3be1cd	-0.18347855
235	0x3de3ee23	0.11129405
236	0xbdb41bce	-0.08794366
237	0x3cd08902	0.025455955
238	0x3da800cb	0.08203276
239	0x3bc6e73a	0.006070045
240	0xbdd71fcf	-0.10504114
241	0xbe7d4b2f	-0.24735712
242	0xbd2dc0d4	-0.042420223
243	0x3e0ff2bf	0.14057444
244	0xbe38a536	-0.18031773
245	0x3ddde8ce	0.108354196
246	0x3ccd92e5	0.025094459
247	0x3dc9e5c6	0.09858279
248	0x3dd0578a	0.10172947
249	0x3c725cae	0.014792604
250	0xbde20923	-0.11036899
251	0xbe302f80	-0.1720562
252	0xbdf7b7e2	-0.1209562
253	0x3e077a5c	0.1323027
254	0xbabe22ea	-0.0014506255
255	0xbd1578d9	-0.036492202

bias f4 [50]
0	0x3ccb92de	0.024850305
1	0x3b0daeb3	0.0021619021
2	0x3aad49ff	0.0013220905
3	0xbcfb01e8	-0.030640557
4	0x3cdfaaf4	0.027303196
5	0xbbe2ff77	-0.0069274264
6	0x3d0153d1	0.031574074
7	0x3b9f3957	0.0048591304
8	0x3bd0d0a5	0.0063725286
9	0xbc3ffb17	-0.011717579
10	0x3cbb8a9a	0.022893239
11	0x3d23d14d	0.039994527
12	0xba72b45e	-0.0009258444
13	0x3c60f3b5	0.013729979
14	0xbd0c3f60	-0.034240127
15	0xbc260f2b	-0.010135452
16	0x3cd957bf	0.026531098
17	0xbb86ac22	-0.0041098753
18	0xb9fcb80f	-0.0004820232
19	0x3d106044	0.035248056
20	0x3c9254a1	0.01786262
21	0x3c96b97b	0.01839899
22	0xbdc1f1ba	-0.09469934
23	0xbc132fe3	-0.008983585
24	0x3ba7bb0d	0.0051187337
25	0x3d86885c	0.06568977
26	0xbc2eac51	-0.010661201
27	0xbd523c94	-0.051327303
28	0xbcd42ed3	-0.025901234
29	0x39b1810f	0.00033856227
30	0xbd860efe	-0.06545828
31	0x3cc8ccd4	0.024511732
32	0xbad70579	-0.0016404829
33	0xbbfc4aaf	-0.0076993327
34	0x3d0f4ec5	0.03498723
35	0x3d3327ca	0.043739118
36	0x3d7bc75e	0.06146943
37	0x3d4b911d	0.049698938
38	0x3c4eab55	0.012614091
39	0x3c28837d	0.0102852555
40	0x3c00a637	0.007852129
41	0xbd4b4897	-0.049629774
42	0x3cb45a81	0.022015812
43	0xbbdf50cb	-0.006815051
44	0xbca528c1	-0.020161035
45	0x3ca1c53b	0.019747367
46	0xbc9bff21	-0.019042553
47	0x3bc2c1eb	0.005943527
48	0x3cac1cac	0.021009766
49	0xbb4652ac	-0.0030261679

weight f4 [50, 50]
0	0xbe853a4a	-0.26021034
1	0x3e070947	0.13187133
2	0xbd885d49	-0.06658418
3	0xbdaccdaa	-0.08437665
4	0xbd9f3bd3	-0.077750824
5	0x3ea371c4	0.31922734
6	0x3e5e91ce	0.21735308
7	0x3ddd0f82	0.107939735
8	0xbe2c1ac8	-0.16807091
9	0xbe42264e	-0.18959925
10	0x3ebaea8b	0.36507067
11	0xbe4bff84	-0.1992169
12	0xbbfd7571	-0.0077349474
13	0x3eaff4c7	0.34366438
14	0xbd8ce5ad	-0.06879745
15	0x3eaec4b1	0.3413444
16	0xbd829099	-0.06375236
17	0xbe95185d	-0.2912015
18	0x3d68a907	0.056801822
19	0x3e21e8c3	0.15811448
20	0x3dee4f79	0.11636252
21	0xbd162af0	-0.036662042
22	0xbad5da9a	-0.0016315759
23	0xbdc8aee7	-0.09798985
24	0x3d142cba	0.036175467
25	0x3e257966	0.16159591
26	0xbd14963c	-0.036276087
27	0xbdf7faf2	-0.12108411
28	0x3e97f62c	0.29680002
29	0x3e17ba8a	0.14817253
30	0xbcb7529d	-0.02237826
31	0xbd35ce9b	-0.044386487
32	0x3e80a348	0.25124574
33	0xbde6e58e	-0.11274253
34	0xbd9460f5	-0.072450556
35	0xbd213f1e	-0.039366834
36	0xbc0e5930	-0.008688256
37	0x3e3e1a33	0.18564682
38	0x3d97132b	0.07376703
39	0x3eb0dbdf	0.34542748
40	0x3ddad86e	0.10685812
41	0x3cfa3609	0.030543344
42	0x3e231c19	0.15928687
43	0xbe378803	-0.17922978
44	0xbd9f1ab9	-0.07768769
45	0x3ef92cc2	0.4866696
46	0xbdb51da2	-0.08843543
47	0xbe866361	-0.26247695
48	0xbea86add	-0.3289403
49	0x3c3c8023	0.01150516
50	0xbe86e4c7	-0.26346418
51	0xbc20100f	-0.009769454
52	0xbded250e	-0.11579333
53	0x3d8d2213	0.06891265
54	0x3c3ea984	0.011637095
55	0x3dcc13fa	0.09964748
56	0xbe873877	-0.26410267
57	0x3e81d8d3	0.25360736
58	0x3e0d5132	0.13800505
59	0x3da852b3	0.082188986
60	0x3e0cf441	0.1376505
61	0x3de7319f	0.11288761
62	0x3e1996eb	0.14998977
63	0x3e263ce4	0.16234165
64	0xbd7368cc	-0.059426114
65	0x3dd8f956	0.10594432
66	0x3d4907cf	0.049079712
67	0xbc5b8bcc	-0.013400029
68	0x3e26dcb3	0.16295128
69	0x3d601da3	0.054715764
70	0x3e8ab5d6	0.27091855
71	0xbe192cf0	-0.14958549
72	0x3ce146fc	0.027499668
73	0xbe057877	-0.13034235
74	0x3d258186	0.040406726
75	0xbd1764c3	-0.03696133
76	0xbe6f985e	-0.23397967
77	0xbd04b82d	-0.032402206
78	0x3d55b896	0.052177988
79	0xbc930204	-0.017945297
80	0xbe28bed7	-0.1647905
81	0x3c502091	0.012703077
82	0xbd5d7fb6	-0.054076873
83	0x3debd666	0.11515503
84	0x3e4b34b6	0.19844326
85	0xbda41628	-0.080120385
86	0x3dc45b22	0.09587695
87	0xbc9108f0	-0.017704457
88	0xbdacbc25	-0.08434323
89	0xbda4cc13	-0.080467366
90	0xbe86c4d1	-0.26322034
91	0xbde884c9	-0.11353452
92	0x3e4ccd66	0.20000228
93	0xbdc45ce1	-0.09588028
94	0xbdff6384	-0.12470153
95	0x3e6e78c4	0.23288256
96	0x3d214683	0.039373886
97	0xbe90fbac	-0.2831701
98	0xbd274e96	-0.04084643
99	0x3d855296	0.06509893
100	0x3e13c083	0.14428906
101	0x3e513b7f	0.20432852
102	0xbd0b56eb	-0.03401844
103	0x3d8bc5ca	0.06824835
104	0xbda44df1	-0.08022679
105	0xbeab2bd1	-0.33431867
106	0x3b7e88f7	0.0038838962
107	0x3d3d697e	0.046243183
108	0xbc7e1d01	-0.015509845
109	0x3e11a000	0.14221191
110	0x3e433a55	0.1906522
111	0x3cdb150f	0.02674344
112	0x3e556408	0.2083894
113	0x3db66eff	0.089078896
114	0x3dec8969	0.115496464
115	0x3dcd5ad0	0.10027087
116	0x3d5fcad7	0.054636803
117	0x3e11a559	0.14223231
118	0x3e053f8a	0.1301252
119	0x3de7428c	0.1129199
120	0x3df50bc4	0.11965135
121	0x3e63d110	0.2224772
122	0xbd24fd37	-0.040280547
123	0x3e7d3373	0.24726658
124	0xbe3cc994	-0.18436271
125	0xbdf4d5e3	-0.11954858
126	0xbde56c97	-0.112023525
127	0xbdad7617	-0.084697895
128	0xbe7664cb	-0.24061887
129	0x3e18b3d0	0.14912343
130	0xbe617dd6	-0.22020659
131	0x3dc58bc3	0.09645798
132	0xbc7ca551	-0.015420274
133	0xbe0e0c4c	-0.13871878
134	0xbe4ade0a	-0.19811264
135	0xbb164422	-0.0022928794
136	0x3e80de18	0.25169444
137	0xbe1ea818	-0.1549381
138	0xbdaf0539	-0.08545918
139	0xbd76c7f6	-0.06024929
140	0xbc8ceeda	-0.017203737
141	0xbe18000c	-0.14843768
142	0x3d92604e	0.07147275
143	0xbe8bd28b	-0.2730907
144	0xbd53fef0	-0.0517568
145	0xbe4739dd	-0.19455667
146	0x3e869448	0.26285005
147	0xbe24b344	-0.1608401
148	0x3e54041b	0.20704691
149	0xbe363f68	-0.17797625
150	0xbe8bcc50	-0.27304316
151	0x3e3d1b6c	0.18467492
152	0x3daee2c2	0.08539344
153	0x3e2539fa	0.16135398
154	0x3c35c67e	0.0110946875
155	0x3c6da773	0.014505255
156	0xbc9046e4	-0.017611928
157	0xbe0d807d	-0.13818546
158	0xbe0ae093	-0.13562231
159	0xbd4fdd4e	-0.050748162
160	0xbd58b250	-0.052904427
161	0xbdfcee90	-0.1235019
162	0x3e0a8a82	0.13529399
163	0xbdef89f4	-0.11696234
164	0xbdb680a2	-0.089112535
165	0x3e021a48	0.12705338
166	0x3d0bf8b4	0.03417273
167	0x3e238c4d	0.15971489
168	0xbe2ef6c6	-0.17086324
169	0xbdbb39a8	-0.091418564
170	0xbdd72239	-0.10504574
171	0x3c81d3aa	0.015848
172	0xbdaa7ad7	-0.08324211
173	0x3d9f65c5	0.07783083
174	0xbddc2185	-0.10748581
175	0xbdb9ddd5	-0.09075514
176	0x3dc96aaf	0.098348014
177	0xbdb86e59	-0.09005422
178	0x3be638b7	0.007025804
179	0xbca478cb	-0.02007713
180	0x3d96fe9f	0.07372784
181	0xbe84d40f	-0.25943038
182	0x3d7adba0	0.061244607
183	0x3e8f7ebe	0.28026384
184	0xbe45e75c	-0.19326538
185	0x3d2e153a	0.042500712
186	0xbe3d7536	-0.18501744
187	0x3d2e4507	0.0425463
188	0x3d535bd0	0.05160123
189	0x3e18150a	0.14851776
190	0x3e659e99	0.22423781
191	0xbd3696b3	-0.04457731
192	0xbd57b91d	-0.052666772
193	0xbe89ed5d	-0.26938906
194	0x3dc7bfe4	0.09753397
195	0xbe4bc563	-0.19899516
196	0x3e346a23	0.17618613
197	0xbcae320e	-0.021264102
198	0xbced3b34	-0.028958894
199	0xbe4ed4a5	-0.20198305
200	0x3be2ae81	0.006917775
201	0xbde20508	-0.11036116
202	0xbdcdb51e	-0.10044311
203	0xbc518e3c	-0.012790259
204	0xbe82aa02	-0.2552033
205	0x3e00b2a7	0.1256815
206	0xbd5fcd8e	-0.05463939
207	0xbd27d108	-0.040970832
208	0x3c3dddd0	0.011588529
209	0x3e191fb5	0.14953502
210	0xbe28ea42	-0.16495612
211	0xbdb603bb	-0.0888743
212	0xbe3d1e53	-0.18468599
213	0x3da673b3	0.081275366
214	0x3da82234	0.08209649
215	0xbd9e9eb1	-0.07745112
216	0x3dcd48cf	0.10023653
217	0xbdc4ae50	-0.0960356
218	0x3e60d41c	0.21955913
219	0x3d5f0818	0.05445108
220	0x3e8f2754	0.27959692
221	0x3d726fd1	0.059188668
222	0xbe8e1e24	-0.2775737
223	0x3e1490f4	0.1450842
224	0x3e26e58b	0.16298501
225	0xbd9a6e04	-0.07540515
226	0xbe87037f	-0.26369855
227	0x3e5f7a74	0.21824056
228	0x3e18db0b	0.14927308
229	0x3dbc1fad	0.09185729
230	0x3cf92172	0.030411456
231	0x3d8df1f8	0.069309175
232	0xbe3a2e31	-0.18181683
233	0xbe43ca09	-0.19120039
234	0xbd437e99	-0.047728155
235	0x3d95e29d	0.07318614
236	0x3dcf8e55	0.101345696
237	0x3d81168d	0.06303129
238	0xbe3adfb9	-0.18249406
239	0xbe12b302	-0.14326099
240	0xbd912cf8	-0.07088655
241	0xbca0c416	-0.019624751
242	0xbdfc9d71	-0.12334717
243	0xbe530d46	-0.20610532
244	0xbc69be06	-0.0142664965
245	0x3da2ba8c	0.07945737
246	0x3e11a7a5	0.14224108
247	0xbe45b3a4	-0.19306809
248	0x3ad54426	0.001627092
249	0x3d463267	0.04838791
250	0x3e484b14	0.1955989
251	0x3e309952	0.17245987
252	0x3da3c6b2	0.079968825
253	0x3e0ff7f7	0.14059435
254	0xbe54187f	-0.2071247
255	0xbdfab657	-0.1224181

bias f4 [50]
0	0xbbfdf7a1	-0.007750467
1	0xbaa08859	-0.0012247666
2	0x3c43f08f	0.011959209
3	0x3cc309fe	0.023808476
4	0xbd6f7950	-0.058465302
5	0xbc76e8bd	-0.015070138
6	0xbc5c822a	-0.013458768
7	0xb90e2b12	-0.0001355822
8	0x3d278c06	0.04090502
9	0x3d08a1c1	0.033357386
10	0x3b33030c	0.0027315049
11	0xbd29fce5	-0.041500945
12	0x3c140fff	0.009037017
13	0x3d22c28e	0.039736323
14	0x3b68416b	0.0035439383
15	0x3b101ebc	0.0021990975
16	0xbd986f22	-0.07443072
17	0xbd16ef8c	-0.036849543
18	0x3ca651dc	0.020302705
19	0xbc8794f9	-0.016550528
20	0x3bb294a6	0.005449849
21	0xb998043c	-0.00028994854
22	0xbbd8e413	-0.0066189854
23	0xbb64e598	-0.0034926888
24	0x3cc144d4	0.02359239
25	0x3c4f6fa8	0.012660898
26	0xbbaf2719	-0.005345237
27	0x3cb6ebc8	0.022329226
28	0xbc2f5482	-0.010701301
29	0x3b7b92ba	0.0038387016
30	0xbbc5934e	-0.006029523
31	0xbcbc17e1	-0.022960605
32	0x3c259d32	0.010108279
33	0xbb77747e	-0.0037758644
34	0xbc31a2f7	-0.0108420765
35	0x3c0def35	0.008662988
36	0x3b7a937d	0.0038234883
37	0xbc275cd3	-0.010215002
38	0x3c3da179	0.011574143
39	0x3cd4e30d	0.025987172
40	0x3cbca091	0.023025783
41	0xbd1e5a9e	-0.038660638
42	0xbd0eae09	-0.03483394
43	0xbb5e7c71	-0.0033948685
44	0xbba8c8f3	-0.005150908
45	0xbc248741	-0.010042013
46	0xb7439d28	-1.16594965e-05
47	0xbcb1f92e	-0.021725263
48	0xbb82c6ab	-0.003990968
49	0x3b85f6cf	0.00408826
