pbc_examples/saved_models/convection_beta-1.0_layers-70,70,70,70,1_L-2.0_WD-0_init-normal_batch_size256.pt (torch, 201837 bytes, 36 tensors)

x_u f4 [256, 1]
0.0 0.024543693 0.049087387 0.07363108 0.09817477 0.12271846 0.14726216 0.17180584
0.19634955 0.22089323 0.24543692 0.2699806 0.2945243 0.319068 0.3436117 0.3681554
0.3926991 0.41724277 0.44178647 0.46633017 0.49087384 0.5154175 0.5399612 0.5645049
0.5890486 0.6135923 0.638136 0.6626797 0.6872234 0.7117671 0.7363108 0.7608545
0.7853982 0.8099418 0.83448553 0.85902923 0.88357294 0.90811664 0.93266034 0.957204
0.9817477 1.0062914 1.030835 1.0553788 1.0799224 1.1044662 1.1290098 1.1535536
1.1780972 1.2026409 1.2271847 1.2517283 1.276272 1.3008157 1.3253593 1.3499031
1.3744467 1.3989905 1.4235342 1.4480779 1.4726216 1.4971652 1.521709 1.5462526
1.5707964 1.59534 1.6198837 1.6444274 1.6689711 1.6935148 1.7180585 1.7426022
1.7671459 1.7916895 1.8162333 1.8407769 1.8653207 1.8898643 1.914408 1.9389517
1.9634954 1.9880391 2.0125828 2.0371265 2.06167 2.0862138 2.1107576 2.1353014
2.1598449 2.1843886 2.2089324 2.233476 2.2580197 2.2825634 2.3071072 2.3316507
2.3561945 2.3807383 2.4052818 2.4298255 2.4543693 2.478913 2.5034566 2.5280004
2.552544 2.5770876 2.6016314 2.6261752 2.6507187 2.6752625 2.6998062 2.72435
2.7488935 2.7734373 2.797981 2.8225245 2.8470683 2.871612 2.8961558 2.9206994
2.9452431 2.969787 2.9943304 3.0188742 3.043418 3.0679617 3.0925052 3.117049
3.1415927 3.1661363 3.19068 3.2152238 3.2397673 3.264311 3.2888548 3.3133986
3.3379421 3.362486 3.3870296 3.4115732 3.436117 3.4606607 3.4852045 3.509748
3.5342917 3.5588355 3.583379 3.6079228 3.6324666 3.6570103 3.6815538 3.7060976
3.7306414 3.755185 3.7797287 3.8042724 3.828816 3.8533597 3.8779035 3.9024472
3.9269907 3.9515345 3.9760783 4.000622 4.0251656 4.0497093 4.074253 4.098797
4.12334 4.147884 4.1724277 4.1969714 4.221515 4.246059 4.2706027 4.295146
4.3196898 4.3442335 4.3687773 4.393321 4.417865 4.4424086 4.466952 4.4914956
4.5160394 4.540583 4.565127 4.5896707 4.6142144 4.6387577 4.6633015 4.687845
4.712389 4.7369328 4.7614765 4.7860203 4.8105636 4.8351073 4.859651 4.884195
4.9087386 4.9332824 4.957826 4.9823694 5.006913 5.031457 5.0560007 5.0805445
5.105088 5.1296315 5.1541753 5.178719 5.203263 5.2278066 5.2523503 5.276894
5.3014374 5.325981 5.350525 5.3750687 5.3996124 5.424156 5.4487 5.473243
5.497787 5.5223308 5.5468745 5.5714183 5.595962 5.620506 5.645049 5.669593
5.6941366 5.7186804 5.743224 5.767768 5.7923117 5.816855 5.8413987 5.8659425
5.8904862 5.91503 5.939574 5.9641175 5.988661 6.0132046 6.0377483 6.062292
6.086836 6.1113796 6.1359234 6.1604667 6.1850104 6.209554 6.234098 6.2586417
00000000: 0000 0000 db0f c93c db0f 493d e4cb 963d
00000010: db0f c93d d153 fb3d e4cb 163e dfed 2f3e
00000020: db0f 493e d631 623e d153 7b3e e63a 8a3e
00000030: e4cb 963e e25c a33e dfed af3e dd7e bc3e
00000040: db0f c93e d8a0 d53e d631 e23e d4c2 ee3e
00000050: d153 fb3e 67f2 033f e63a 0a3f 6583 103f
00000060: e4cb 163f 6314 1d3f e25c 233f 60a5 293f
00000070: dfed 2f3f 5e36 363f dd7e 3c3f 5cc7 423f
00000080: db0f 493f 5958 4f3f d8a0 553f 57e9 5b3f
00000090: d631 623f 557a 683f d4c2 6e3f 520b 753f
000000a0: d153 7b3f 28ce 803f 67f2 833f a716 873f
000000b0: e63a 8a3f 265f 8d3f 6583 903f a5a7 933f
000000c0: e4cb 963f 23f0 993f 6314 9d3f a238 a03f
000000d0: e25c a33f 2181 a63f 60a5 a93f a0c9 ac3f
000000e0: dfed af3f 1f12 b33f 5e36 b63f 9e5a b93f
000000f0: dd7e bc3f 1ca3 bf3f 5cc7 c23f 9beb c53f
00000100: db0f c93f 1a34 cc3f 5958 cf3f 997c d23f
00000110: d8a0 d53f 18c5 d83f 57e9 db3f 970d df3f
00000120: d631 e23f 1556 e53f 557a e83f 949e eb3f
00000130: d4c2 ee3f 13e7 f13f 520b f53f 922f f83f
00000140: d153 fb3f 1178 fe3f 28ce 0040 4860 0240
00000150: 67f2 0340 8784 0540 a716 0740 c7a8 0840
00000160: e63a 0a40 06cd 0b40 265f 0d40 45f1 0e40
00000170: 6583 1040 8515 1240 a5a7 1340 c439 1540
00000180: e4cb 1640 045e 1840 23f0 1940 4382 1b40
00000190: 6314 1d40 83a6 1e40 a238 2040 c2ca 2140
000001a0: e25c 2340 01ef 2440 2181 2640 4113 2840
000001b0: 60a5 2940 8037 2b40 a0c9 2c40 c05b 2e40
000001c0: dfed 2f40 ff7f 3140 1f12 3340 3ea4 3440
000001d0: 5e36 3640 7ec8 3740 9e5a 3940 bdec 3a40
000001e0: dd7e 3c40 fd10 3e40 1ca3 3f40 3c35 4140
000001f0: 5cc7 4240 7c59 4440 9beb 4540 bb7d 4740
00000200: db0f 4940 faa1 4a40 1a34 4c40 3ac6 4d40
00000210: 5958 4f40 79ea 5040 997c 5240 b90e 5440
00000220: d8a0 5540 f832 5740 18c5 5840 3757 5a40
00000230: 57e9 5b40 777b 5d40 970d 5f40 b69f 6040
00000240: d631 6240 f6c3 6340 1556 6540 35e8 6640
00000250: 557a 6840 750c 6a40 949e 6b40 b430 6d40
00000260: d4c2 6e40 f354 7040 13e7 7140 3379 7340
00000270: 520b 7540 729d 7640 922f 7840 b2c1 7940
00000280: d153 7b40 f1e5 7c40 1178 7e40 1805 8040
00000290: 28ce 8040 3897 8140 4860 8240 5829 8340
000002a0: 67f2 8340 77bb 8440 8784 8540 974d 8640
000002b0: a716 8740 b7df 8740 c7a8 8840 d671 8940
000002c0: e63a 8a40 f603 8b40 06cd 8b40 1696 8c40
000002d0: 265f 8d40 3628 8e40 45f1 8e40 55ba 8f40
000002e0: 6583 9040 754c 9140 8515 9240 95de 9240
000002f0: a5a7 9340 b470 9440 c439 9540 d402 9640
00000300: e4cb 9640 f494 9740 045e 9840 1427 9940
00000310: 23f0 9940 33b9 9a40 4382 9b40 534b 9c40
00000320: 6314 9d40 73dd 9d40 83a6 9e40 926f 9f40
00000330: a238 a040 b201 a140 c2ca a140 d293 a240
00000340: e25c a340 f125 a440 01ef a440 11b8 a540
00000350: 2181 a640 314a a740 4113 a840 51dc a840
00000360: 60a5 a940 706e aa40 8037 ab40 9000 ac40
00000370: a0c9 ac40 b092 ad40 c05b ae40 cf24 af40
00000380: dfed af40 efb6 b040 ff7f b140 0f49 b240
00000390: 1f12 b340 2fdb b340 3ea4 b440 4e6d b540
000003a0: 5e36 b640 6eff b640 7ec8 b740 8e91 b840
000003b0: 9e5a b940 ad23 ba40 bdec ba40 cdb5 bb40
000003c0: dd7e bc40 ed47 bd40 fd10 be40 0dda be40
000003d0: 1ca3 bf40 2c6c c040 3c35 c140 4cfe c140
000003e0: 5cc7 c240 6c90 c340 7c59 c440 8b22 c540
000003f0: 9beb c540 abb4 c640 bb7d c740 cb46 c840

t_u f4 [256, 1]
0.0 0.0 0.0 0.0 0.0 0.0 0.0 0.0
0.0 0.0 0.0 0.0 0.0 0.0 0.0 0.0
0.0 0.0 0.0 0.0 0.0 0.0 0.0 0.0
0.0 0.0 0.0 0.0 0.0 0.0 0.0 0.0
0.0 0.0 0.0 0.0 0.0 0.0 0.0 0.0
0.0 0.0 0.0 0.0 0.0 0.0 0.0 0.0
0.0 0.0 0.0 0.0 0.0 0.0 0.0 0.0
0.0 0.0 0.0 0.0 0.0 0.0 0.0 0.0
0.0 0.0 0.0 0.0 0.0 0.0 0.0 0.0
0.0 0.0 0.0 0.0 0.0 0.0 0.0 0.0
0.0 0.0 0.0 0.0 0.0 0.0 0.0 0.0
0.0 0.0 0.0 0.0 0.0 0.0 0.0 0.0
0.0 0.0 0.0 0.0 0.0 0.0 0.0 0.0
0.0 0.0 0.0 0.0 0.0 0.0 0.0 0.0
0.0 0.0 0.0 0.0 0.0 0.0 0.0 0.0
0.0 0.0 0.0 0.0 0.0 0.0 0.0 0.0
0.0 0.0 0.0 0.0 0.0 0.0 0.0 0.0
0.0 0.0 0.0 0.0 0.0 0.0 0.0 0.0
0.0 0.0 0.0 0.0 0.0 0.0 0.0 0.0
0.0 0.0 0.0 0.0 0.0 0.0 0.0 0.0
0.0 0.0 0.0 0.0 0.0 0.0 0.0 0.0
0.0 0.0 0.0 0.0 0.0 0.0 0.0 0.0
0.0 0.0 0.0 0.0 0.0 0.0 0.0 0.0
0.0 0.0 0.0 0.0 0.0 0.0 0.0 0.0
0.0 0.0 0.0 0.0 0.0 0.0 0.0 0.0
0.0 0.0 0.0 0.0 0.0 0.0 0.0 0.0
0.0 0.0 0.0 0.0 0.0 0.0 0.0 0.0
0.0 0.0 0.0 0.0 0.0 0.0 0.0 0.0
0.0 0.0 0.0 0.0 0.0 0.0 0.0 0.0
0.0 0.0 0.0 0.0 0.0 0.0 0.0 0.0
0.0 0.0 0.0 0.0 0.0 0.0 0.0 0.0
0.0 0.0 0.0 0.0 0.0 0.0 0.0 0.0
00000000: 0000 0000 0000 0000 0000 0000 0000 0000
00000010: 0000 0000 0000 0000 0000 0000 0000 0000
00000020: 0000 0000 0000 0000 0000 0000 0000 0000
00000030: 0000 0000 0000 0000 0000 0000 0000 0000
00000040: 0000 0000 0000 0000 0000 0000 0000 0000
00000050: 0000 0000 0000 0000 0000 0000 0000 0000
00000060: 0000 0000 0000 0000 0000 0000 0000 0000
00000070: 0000 0000 0000 0000 0000 0000 0000 0000
00000080: 0000 0000 0000 0000 0000 0000 0000 0000
00000090: 0000 0000 0000 0000 0000 0000 0000 0000
000000a0: 0000 0000 0000 0000 0000 0000 0000 0000
000000b0: 0000 0000 0000 0000 0000 0000 0000 0000
000000c0: 0000 0000 0000 0000 0000 0000 0000 0000
000000d0: 0000 0000 0000 0000 0000 0000 0000 0000
000000e0: 0000 0000 0000 0000 0000 0000 0000 0000
000000f0: 0000 0000 0000 0000 0000 0000 0000 0000
00000100: 0000 0000 0000 0000 0000 0000 0000 0000
00000110: 0000 0000 0000 0000 0000 0000 0000 0000
00000120: 0000 0000 0000 0000 0000 0000 0000 0000
00000130: 0000 0000 0000 0000 0000 0000 0000 0000
00000140: 0000 0000 0000 0000 0000 0000 0000 0000
00000150: 0000 0000 0000 0000 0000 0000 0000 0000
00000160: 0000 0000 0000 0000 0000 0000 0000 0000
00000170: 0000 0000 0000 0000 0000 0000 0000 0000
00000180: 0000 0000 0000 0000 0000 0000 0000 0000
00000190: 0000 0000 0000 0000 0000 0000 0000 0000
000001a0: 0000 0000 0000 0000 0000 0000 0000 0000
000001b0: 0000 0000 0000 0000 0000 0000 0000 0000
000001c0: 0000 0000 0000 0000 0000 0000 0000 0000
000001d0: 0000 0000 0000 0000 0000 0000 0000 0000
000001e0: 0000 0000 0000 0000 0000 0000 0000 0000
000001f0: 0000 0000 0000 0000 0000 0000 0000 0000
00000200: 0000 0000 0000 0000 0000 0000 0000 0000
00000210: 0000 0000 0000 0000 0000 0000 0000 0000
00000220: 0000 0000 0000 0000 0000 0000 0000 0000
00000230: 0000 0000 0000 0000 0000 0000 0000 0000
00000240: 0000 0000 0000 0000 0000 0000 0000 0000
00000250: 0000 0000 0000 0000 0000 0000 0000 0000
00000260: 0000 0000 0000 0000 0000 0000 0000 0000
00000270: 0000 0000 0000 0000 0000 0000 0000 0000
00000280: 0000 0000 0000 0000 0000 0000 0000 0000
00000290: 0000 0000 0000 0000 0000 0000 0000 0000
000002a0: 0000 0000 0000 0000 0000 0000 0000 0000
000002b0: 0000 0000 0000 0000 0000 0000 0000 0000
000002c0: 0000 0000 0000 0000 0000 0000 0000 0000
000002d0: 0000 0000 0000 0000 0000 0000 0000 0000
000002e0: 0000 0000 0000 0000 0000 0000 0000 0000
000002f0: 0000 0000 0000 0000 0000 0000 0000 0000
00000300: 0000 0000 0000 0000 0000 0000 0000 0000
00000310: 0000 0000 0000 0000 0000 0000 0000 0000
00000320: 0000 0000 0000 0000 0000 0000 0000 0000
00000330: 0000 0000 0000 0000 0000 0000 0000 0000
00000340: 0000 0000 0000 0000 0000 0000 0000 0000
00000350: 0000 0000 0000 0000 0000 0000 0000 0000
00000360: 0000 0000 0000 0000 0000 0000 0000 0000
00000370: 0000 0000 0000 0000 0000 0000 0000 0000
00000380: 0000 0000 0000 0000 0000 0000 0000 0000
00000390: 0000 0000 0000 0000 0000 0000 0000 0000
000003a0: 0000 0000 0000 0000 0000 0000 0000 0000
000003b0: 0000 0000 0000 0000 0000 0000 0000 0000
000003c0: 0000 0000 0000 0000 0000 0000 0000 0000
000003d0: 0000 0000 0000 0000 0000 0000 0000 0000
000003e0: 0000 0000 0000 0000 0000 0000 0000 0000
000003f0: 0000 0000 0000 0000 0000 0000 0000 0000

x_f f4 [100, 1]
4.6142144 1.7426022 3.3379421 4.884195 3.0679617 5.5223308 5.816855 6.1850104
4.565127 1.2026409 4.7860203 0.5645049 1.8407769 0.12271846 4.9823694 6.086836
5.7186804 2.6998062 2.5280004 6.1113796 2.72435 5.473243 1.0553788 6.062292
0.44178647 0.7117671 4.1969714 6.2586417 6.1359234 4.540583 6.1850104 4.2706027
5.473243 2.6016314 4.417865 4.9087386 6.0132046 0.3681554 0.49087384 5.203263
3.4606607 0.44178647 1.6198837 4.147884 1.8162333 4.957826 3.4852045 3.3870296
0.957204 2.3071072 0.6626797 5.2278066 0.024543693 6.062292 2.3316507 1.9634954
2.3316507 0.6872234 1.59534 3.4115732 5.595962 5.7923117 1.1044662 3.6815538
0.88357294 1.7180585 2.4298255 3.6079228 1.7916895 1.6198837 4.295146 1.9880391
2.2580197 2.72435 0.7853982 2.06167 4.957826 5.1296315 2.4298255 4.540583
3.6570103 0.83448553 3.7060976 1.7916895 6.086836 4.9823694 4.884195 1.0062914
5.497787 5.8413987 4.1969714 4.712389 0.88357294 0.93266034 1.2271847 5.743224
5.5714183 6.0377483 3.436117 1.3499031
00000000: a5a7 9340 970d df3f d8a0 5540 534b 9c40
00000010: 7c59 4440 efb6 b040 ad23 ba40 9beb c540
00000020: 8515 9240 23f0 993f 1427 9940 6583 103f
00000030: 949e eb3f d153 fb3d 926f 9f40 5cc7 c240
00000040: 6eff b640 a0c9 2c40 c2ca 2140 6c90 c340
00000050: c05b 2e40 cf24 af40 a716 873f 4cfe c140
00000060: d631 e23e 5e36 363f 974d 8640 cb46 c840
00000070: 7c59 c440 754c 9140 9beb c540 c7a8 8840
00000080: cf24 af40 2181 2640 265f 8d40 6314 9d40
00000090: 2c6c c040 dd7e bc3e d153 fb3e 2181 a640
000000a0: 777b 5d40 d631 e23e 5958 cf3f 77bb 8440
000000b0: 557a e83f 83a6 9e40 970d 5f40 18c5 5840
000000c0: 520b 753f a5a7 1340 60a5 293f 314a a740
000000d0: db0f c93c 4cfe c140 c439 1540 d153 fb3f
000000e0: c439 1540 dfed 2f3f 1a34 cc3f 3757 5a40
000000f0: 1f12 b340 9e5a b940 265f 8d3f 949e 6b40
00000100: d631 623f 57e9 db3f 4382 1b40 35e8 6640
00000110: 1556 e53f 5958 cf3f d671 8940 1178 fe3f
00000120: 6583 1040 c05b 2e40 db0f 493f 67f2 0340
00000130: 83a6 9e40 f125 a440 4382 1b40 754c 9140
00000140: 750c 6a40 d8a0 553f b430 6d40 1556 e53f
00000150: 5cc7 c240 926f 9f40 534b 9c40 28ce 803f
00000160: dfed af40 bdec ba40 974d 8640 e4cb 9640
00000170: d631 623f d4c2 6e3f 6314 9d3f 7ec8 b740
00000180: 0f49 b240 3c35 c140 57e9 5b40 a0c9 ac3f

t_f f4 [100, 1]
0.3838384 0.8181818 0.53535354 0.7979798 0.14141414 0.7070707 0.68686867 0.7777778
0.54545456 0.01010101 0.5555556 0.7878788 0.43434343 0.43434343 0.97979796 1.0
0.67676765 0.5252525 0.3030303 0.82828283 0.97979796 0.6363636 0.34343433 0.32323232
0.47474748 0.9191919 0.5555556 0.7777778 0.36363637 0.22222222 0.28282827 0.8888889
0.90909094 0.15151516 0.6262626 0.04040404 0.15151516 0.8787879 0.5858586 0.25252524
0.7979798 0.3838384 0.42424244 0.01010101 0.24242425 0.8989899 0.36363637 0.93939394
0.75757575 0.3131313 0.04040404 0.34343433 0.45454547 0.959596 0.959596 0.45454547
0.45454547 0.8080808 0.5252525 0.56565654 0.8787879 0.7373737 0.04040404 0.47474748
0.57575756 0.56565654 0.67676765 0.989899 0.68686867 0.21212122 0.05050505 0.28282827
0.25252524 0.8080808 0.01010101 0.41414142 0.969697 0.97979796 0.2929293 0.5151515
0.83838385 0.94949496 0.47474748 0.5959596 0.3939394 0.68686867 0.8484849 0.02020202
0.9191919 0.4848485 0.13131313 0.6060606 0.25252524 0.969697 0.34343433 0.83838385
0.4848485 0.7979798 0.7171717 0.3030303
00000000: 7786 c43e 5d74 513f ee0c 093f 6748 4c3f
00000010: dece 103e 9602 353f a0d6 2f3f 721c 473f
00000020: e9a2 0b3f b57e 253c e438 0e3f 6db2 493f
00000030: 4362 de3e 4362 de3e 0ad4 7a3f 0000 803f
00000040: a540 2d3f f376 063f ca26 9b3e 580a 543f
00000050: 0ad4 7a3f bae8 223f a0d6 af3e b57e a53e
00000060: 1a12 f33e 2950 6b3f e438 0e3f 721c 473f
00000070: 8c2e ba3e 398e 633e dece 903e 398e 633f
00000080: 2fba 683f ca26 1b3e bf52 203f b57e 253d
00000090: ca26 1b3e 3ef8 603f d4fa 153f fd4a 813e
000000a0: 6748 4c3f 7786 c43e 4e36 d93e b57e 253c
000000b0: 103e 783e 3424 663f 8c2e ba3e 1f7c 703f
000000c0: 7cf0 413f bf52 a03e b57e 253d a0d6 af3e
000000d0: 2fba e83e 15a8 753f 15a8 753f 2fba e83e
000000e0: 2fba e83e 62de 4e3f f376 063f dece 103f
000000f0: 3ef8 603f 86c4 3c3f b57e 253d 1a12 f33e
00000100: d964 133f dece 103f a540 2d3f 056a 7d3f
00000110: a0d6 2f3f 4e36 593e 62de 4e3d dece 903e
00000120: fd4a 813e 62de 4e3f b57e 253c 580a d43e
00000130: 103e 783f 0ad4 7a3f d4fa 953e f8e0 033f
00000140: 53a0 563f 1a12 733f 1a12 f33e cf90 183f
00000150: 6db2 c93e a0d6 2f3f 4e36 593f b57e a53c
00000160: 2950 6b3f 103e f83e f376 063e ca26 1b3f
00000170: fd4a 813e 103e 783f a0d6 af3e 53a0 563f
00000180: 103e f83e 6748 4c3f 9198 373f ca26 9b3e

x_bc_lb f4 [100, 1]
0.0 0.0 0.0 0.0 0.0 0.0 0.0 0.0
0.0 0.0 0.0 0.0 0.0 0.0 0.0 0.0
0.0 0.0 0.0 0.0 0.0 0.0 0.0 0.0
0.0 0.0 0.0 0.0 0.0 0.0 0.0 0.0
0.0 0.0 0.0 0.0 0.0 0.0 0.0 0.0
0.0 0.0 0.0 0.0 0.0 0.0 0.0 0.0
0.0 0.0 0.0 0.0 0.0 0.0 0.0 0.0
0.0 0.0 0.0 0.0 0.0 0.0 0.0 0.0
0.0 0.0 0.0 0.0 0.0 0.0 0.0 0.0
0.0 0.0 0.0 0.0 0.0 0.0 0.0 0.0
0.0 0.0 0.0 0.0 0.0 0.0 0.0 0.0
0.0 0.0 0.0 0.0 0.0 0.0 0.0 0.0
0.0 0.0 0.0 0.0
00000000: 0000 0000 0000 0000 0000 0000 0000 0000
00000010: 0000 0000 0000 0000 0000 0000 0000 0000
00000020: 0000 0000 0000 0000 0000 0000 0000 0000
00000030: 0000 0000 0000 0000 0000 0000 0000 0000
00000040: 0000 0000 0000 0000 0000 0000 0000 0000
00000050: 0000 0000 0000 0000 0000 0000 0000 0000
00000060: 0000 0000 0000 0000 0000 0000 0000 0000
00000070: 0000 0000 0000 0000 0000 0000 0000 0000
00000080: 0000 0000 0000 0000 0000 0000 0000 0000
00000090: 0000 0000 0000 0000 0000 0000 0000 0000
000000a0: 0000 0000 0000 0000 0000 0000 0000 0000
000000b0: 0000 0000 0000 0000 0000 0000 0000 0000
000000c0: 0000 0000 0000 0000 0000 0000 0000 0000
000000d0: 0000 0000 0000 0000 0000 0000 0000 0000
000000e0: 0000 0000 0000 0000 0000 0000 0000 0000
000000f0: 0000 0000 0000 0000 0000 0000 0000 0000
00000100: 0000 0000 0000 0000 0000 0000 0000 0000
00000110: 0000 0000 0000 0000 0000 0000 0000 0000
00000120: 0000 0000 0000 0000 0000 0000 0000 0000
00000130: 0000 0000 0000 0000 0000 0000 0000 0000
00000140: 0000 0000 0000 0000 0000 0000 0000 0000
00000150: 0000 0000 0000 0000 0000 0000 0000 0000
00000160: 0000 0000 0000 0000 0000 0000 0000 0000
00000170: 0000 0000 0000 0000 0000 0000 0000 0000
00000180: 0000 0000 0000 0000 0000 0000 0000 0000

t_bc_lb f4 [100, 1]
0.0 0.01010101 0.02020202 0.030303031 0.04040404 0.05050505 0.060606062 0.07070707
0.08080808 0.09090909 0.1010101 0.11111111 0.121212125 0.13131313 0.14141414 0.15151516
0.16161616 0.17171717 0.18181819 0.1919192 0.2020202 0.21212122 0.22222222 0.23232323
0.24242425 0.25252524 0.26262626 0.27272728 0.28282827 0.2929293 0.3030303 0.3131313
0.32323232 0.33333334 0.34343433 0.35353535 0.36363637 0.37373737 0.3838384 0.3939394
0.4040404 0.41414142 0.42424244 0.43434343 0.44444445 0.45454547 0.46464646 0.47474748
0.4848485 0.4949495 0.5050505 0.5151515 0.5252525 0.53535354 0.54545456 0.5555556
0.56565654 0.57575756 0.5858586 0.5959596 0.6060606 0.61616164 0.6262626 0.6363636
0.64646465 0.65656567 0.6666667 0.67676765 0.68686867 0.6969697 0.7070707 0.7171717
0.72727275 0.7373737 0.74747473 0.75757575 0.7676768 0.7777778 0.7878788 0.7979798
0.8080808 0.8181818 0.82828283 0.83838385 0.8484849 0.85858583 0.86868685 0.8787879
0.8888889 0.8989899 0.90909094 0.9191919 0.9292929 0.93939394 0.94949496 0.959596
0.969697 0.97979796 0.989899 1.0
00000000: 0000 0000 b57e 253c b57e a53c 103e f83c
00000010: b57e 253d 62de 4e3d 103e 783d dece 903d
00000020: b57e a53d 8c2e ba3d 62de ce3d 398e e33d
00000030: 103e f83d f376 063e dece 103e ca26 1b3e
00000040: b57e 253e a0d6 2f3e 8c2e 3a3e 7786 443e
00000050: 62de 4e3e 4e36 593e 398e 633e 24e6 6d3e
00000060: 103e 783e fd4a 813e f376 863e e9a2 8b3e
00000070: dece 903e d4fa 953e ca26 9b3e bf52 a03e
00000080: b57e a53e abaa aa3e a0d6 af3e 9602 b53e
00000090: 8c2e ba3e 815a bf3e 7786 c43e 6db2 c93e
000000a0: 62de ce3e 580a d43e 4e36 d93e 4362 de3e
000000b0: 398e e33e 2fba e83e 24e6 ed3e 1a12 f33e
000000c0: 103e f83e 056a fd3e fd4a 013f f8e0 033f
000000d0: f376 063f ee0c 093f e9a2 0b3f e438 0e3f
000000e0: dece 103f d964 133f d4fa 153f cf90 183f
000000f0: ca26 1b3f c5bc 1d3f bf52 203f bae8 223f
00000100: b57e 253f b014 283f abaa 2a3f a540 2d3f
00000110: a0d6 2f3f 9b6c 323f 9602 353f 9198 373f
00000120: 8c2e 3a3f 86c4 3c3f 815a 3f3f 7cf0 413f
00000130: 7786 443f 721c 473f 6db2 493f 6748 4c3f
00000140: 62de 4e3f 5d74 513f 580a 543f 53a0 563f
00000150: 4e36 593f 48cc 5b3f 4362 5e3f 3ef8 603f
00000160: 398e 633f 3424 663f 2fba 683f 2950 6b3f
00000170: 24e6 6d3f 1f7c 703f 1a12 733f 15a8 753f
00000180: 103e 783f 0ad4 7a3f 056a 7d3f 0000 803f

x_bc_ub f4 [100, 1]
6.2831855 6.2831855 6.2831855 6.2831855 6.2831855 6.2831855 6.2831855 6.2831855
6.2831855 6.2831855 6.2831855 6.2831855 6.2831855 6.2831855 6.2831855 6.2831855
6.2831855 6.2831855 6.2831855 6.2831855 6.2831855 6.2831855 6.2831855 6.2831855
6.2831855 6.2831855 6.2831855 6.2831855 6.2831855 6.2831855 6.2831855 6.2831855
6.2831855 6.2831855 6.2831855 6.2831855 6.2831855 6.2831855 6.2831855 6.2831855
6.2831855 6.2831855 6.2831855 6.2831855 6.2831855 6.2831855 6.2831855 6.2831855
6.2831855 6.2831855 6.2831855 6.2831855 6.2831855 6.2831855 6.2831855 6.2831855
6.2831855 6.2831855 6.2831855 6.2831855 6.2831855 6.2831855 6.2831855 6.2831855
6.2831855 6.2831855 6.2831855 6.2831855 6.2831855 6.2831855 6.2831855 6.2831855
6.2831855 6.2831855 6.2831855 6.2831855 6.2831855 6.2831855 6.2831855 6.2831855
6.2831855 6.2831855 6.2831855 6.2831855 6.2831855 6.2831855 6.2831855 6.2831855
6.2831855 6.2831855 6.2831855 6.2831855 6.2831855 6.2831855 6.2831855 6.2831855
6.2831855 6.2831855 6.2831855 6.2831855
00000000: db0f c940 db0f c940 db0f c940 db0f c940
00000010: db0f c940 db0f c940 db0f c940 db0f c940
00000020: db0f c940 db0f c940 db0f c940 db0f c940
00000030: db0f c940 db0f c940 db0f c940 db0f c940
00000040: db0f c940 db0f c940 db0f c940 db0f c940
00000050: db0f c940 db0f c940 db0f c940 db0f c940
00000060: db0f c940 db0f c940 db0f c940 db0f c940
00000070: db0f c940 db0f c940 db0f c940 db0f c940
00000080: db0f c940 db0f c940 db0f c940 db0f c940
00000090: db0f c940 db0f c940 db0f c940 db0f c940
000000a0: db0f c940 db0f c940 db0f c940 db0f c940
000000b0: db0f c940 db0f c940 db0f c940 db0f c940
000000c0: db0f c940 db0f c940 db0f c940 db0f c940
000000d0: db0f c940 db0f c940 db0f c940 db0f c940
000000e0: db0f c940 db0f c940 db0f c940 db0f c940
000000f0: db0f c940 db0f c940 db0f c940 db0f c940
00000100: db0f c940 db0f c940 db0f c940 db0f c940
00000110: db0f c940 db0f c940 db0f c940 db0f c940
00000120: db0f c940 db0f c940 db0f c940 db0f c940
00000130: db0f c940 db0f c940 db0f c940 db0f c940
00000140: db0f c940 db0f c940 db0f c940 db0f c940
00000150: db0f c940 db0f c940 db0f c940 db0f c940
00000160: db0f c940 db0f c940 db0f c940 db0f c940
00000170: db0f c940 db0f c940 db0f c940 db0f c940
00000180: db0f c940 db0f c940 db0f c940 db0f c940

t_bc_ub f4 [100, 1]
0.0 0.01010101 0.02020202 0.030303031 0.04040404 0.05050505 0.060606062 0.07070707
0.08080808 0.09090909 0.1010101 0.11111111 0.121212125 0.13131313 0.14141414 0.15151516
0.16161616 0.17171717 0.18181819 0.1919192 0.2020202 0.21212122 0.22222222 0.23232323
0.24242425 0.25252524 0.26262626 0.27272728 0.28282827 0.2929293 0.3030303 0.3131313
0.32323232 0.33333334 0.34343433 0.35353535 0.36363637 0.37373737 0.3838384 0.3939394
0.4040404 0.41414142 0.42424244 0.43434343 0.44444445 0.45454547 0.46464646 0.47474748
0.4848485 0.4949495 0.5050505 0.5151515 0.5252525 0.53535354 0.54545456 0.5555556
0.56565654 0.57575756 0.5858586 0.5959596 0.6060606 0.61616164 0.6262626 0.6363636
0.64646465 0.65656567 0.6666667 0.67676765 0.68686867 0.6969697 0.7070707 0.7171717
0.72727275 0.7373737 0.74747473 0.75757575 0.7676768 0.7777778 0.7878788 0.7979798
0.8080808 0.8181818 0.82828283 0.83838385 0.8484849 0.85858583 0.86868685 0.8787879
0.8888889 0.8989899 0.90909094 0.9191919 0.9292929 0.93939394 0.94949496 0.959596
0.969697 0.97979796 0.989899 1.0
00000000: 0000 0000 b57e 253c b57e a53c 103e f83c
00000010: b57e 253d 62de 4e3d 103e 783d dece 903d
00000020: b57e a53d 8c2e ba3d 62de ce3d 398e e33d
00000030: 103e f83d f376 063e dece 103e ca26 1b3e
00000040: b57e 253e a0d6 2f3e 8c2e 3a3e 7786 443e
00000050: 62de 4e3e 4e36 593e 398e 633e 24e6 6d3e
00000060: 103e 783e fd4a 813e f376 863e e9a2 8b3e
00000070: dece 903e d4fa 953e ca26 9b3e bf52 a03e
00000080: b57e a53e abaa aa3e a0d6 af3e 9602 b53e
00000090: 8c2e ba3e 815a bf3e 7786 c43e 6db2 c93e
000000a0: 62de ce3e 580a d43e 4e36 d93e 4362 de3e
000000b0: 398e e33e 2fba e83e 24e6 ed3e 1a12 f33e
000000c0: 103e f83e 056a fd3e fd4a 013f f8e0 033f
000000d0: f376 063f ee0c 093f e9a2 0b3f e438 0e3f
000000e0: dece 103f d964 133f d4fa 153f cf90 183f
000000f0: ca26 1b3f c5bc 1d3f bf52 203f bae8 223f
00000100: b57e 253f b014 283f abaa 2a3f a540 2d3f
00000110: a0d6 2f3f 9b6c 323f 9602 353f 9198 373f
00000120: 8c2e 3a3f 86c4 3c3f 815a 3f3f 7cf0 413f
00000130: 7786 443f 721c 473f 6db2 493f 6748 4c3f
00000140: 62de 4e3f 5d74 513f 580a 543f 53a0 563f
00000150: 4e36 593f 48cc 5b3f 4362 5e3f 3ef8 603f
00000160: 398e 633f 3424 663f 2fba 683f 2950 6b3f
00000170: 24e6 6d3f 1f7c 703f 1a12 733f 15a8 753f
00000180: 103e 783f 0ad4 7a3f 056a 7d3f 0000 803f

weight f4 [70, 2]
-0.021307645 -0.07902344 -0.008276458 -0.25519812 0.01224494 0.18477352 0.058019117 0.09977736
-0.15294585 -0.12581074 0.13111173 0.16004628 -0.18402673 0.05704662 -0.2865036 -0.2252097
-0.22307198 -0.28714898 0.25281078 -0.18457818 0.0879072 -0.1365132 0.00066437345 -0.093487315
-0.08639846 0.1828421 0.38130492 -0.1812219 0.10378161 -0.04748369 -0.27014023 0.13369954
0.027609106 0.024545394 -0.13942541 0.1706663 -0.3554047 -0.024061592 0.34288025 -0.1287317
0.1991869 -0.22377941 -0.1463881 0.2032903 -0.058228742 0.025222588 -0.22596046 0.62658834
0.026242733 -0.27801934 0.0038766018 -0.07309028 -0.03967452 0.20392215 -0.19034457 0.21224058
0.16053115 -0.2729872 -0.104927 0.05758481 -0.32668737 0.22424743 -0.1707094 -0.058019556
0.07629644 -0.2634367 0.100810826 -0.17577337 -0.19079529 -0.18841283 -0.19893909 0.12858748
-0.18075344 -0.31175235 0.1452903 -0.1088665 -0.09996724 -0.23954025 0.07572228 -0.095751256
-0.07889616 0.12577969 -0.06714912 -0.025674898 0.18127255 0.034622863 0.1760925 0.15027024
0.04906709 0.052002348 -0.23203884 0.09683323 -0.03476443 -0.061953455 -0.09530255 -0.06404035
-0.36492485 0.25761408 -0.23037663 -0.089395374 -0.04866863 -0.04945745 -0.04761467 0.11674081
0.14739226 0.0020265796 -0.12862271 0.07567519 0.21126807 0.05387092 0.15500006 -0.18021552
0.1499503 0.046283938 0.14146747 -0.04649809 0.09040273 0.1683646 -0.08159872 -0.19218656
0.09470807 0.1490008 0.007786752 0.15790106 0.16433226 -0.05527145 0.1862811 0.040023528
-0.15315895 0.14655456 0.060498957 -0.025503084 0.2360948 0.08287071 0.052693672 -0.17558339
-0.38484186 0.11896333 0.3228763 -0.21230096
00000000: 5f8d aebc 0bd7 a1bd fb99 07bc 54a9 82be
00000010: 009f 483c 4535 3d3e 74a5 6d3d 1358 cc3d
00000020: d69d 1cbe 88d4 00be 2742 063e 2ce3 233e
00000030: 8171 3cbe b7a9 693d 9ab0 92be 5f9d 66be
00000040: fb6c 64be 3105 93be 6a70 813e 1002 3dbe
00000050: b108 b43d 1eca 0bbe 5929 2e3a 4776 bfbd
00000060: adf1 b0bd f63a 3b3e 663a c33e 3c92 39be
00000070: 748b d43d 427e 42bd d24f 8abe 88e8 083e
00000080: 7e2c e23c 6c13 c93c 89c5 0ebe 26c3 2e3e
00000090: 9bf7 b5be d11c c5bc 008e af3e 3ed2 03be
000000a0: a7f7 4b3e 6e26 65be c3e6 15be 552b 503e
000000b0: 4381 6ebd 9a9f ce3c 2e62 67be 1868 203f
000000c0: 00fb d63c 8d58 8ebe 960e 7e3b 5bb0 95bd
000000d0: c081 22bd f8d0 503e b0e9 42be 9855 593e
000000e0: 4762 243e fac4 8bbe f8e3 d6bd 0dde 6b3d
000000f0: 9143 a7be 1ea1 653e 72ce 2ebe eaa5 6dbd
00000100: 4f41 9c3d 2de1 86be e875 ce3d effd 33be
00000110: d75f 43be 4bef 40be b0b6 4bbe 70ac 033e
00000120: 6e17 39be 019e 9fbe fbc6 143e 66f5 debd
00000130: a0bb ccbd 0a4a 75be 4814 9b3d 3c19 c4bd
00000140: 4f94 a1bd 64cc 003e 7a85 89bd 2a54 d2bc
00000150: 839f 393e b4d0 0d3d 9851 343e 71e0 193e
00000160: 93fa 483d 6a00 553d 979b 6dbe 8050 c63d
00000170: 2665 0ebd e8c2 7dbd fc2d c3bd 9627 83bd
00000180: 6ed7 babe fee5 833e dae7 6bbe ec14 b7bd
00000190: c258 47bd e593 4abd 9a07 43bd ce15 ef3d
000001a0: ffed 163e 5dd0 043b acb5 03be 98fb 9a3d
000001b0: a856 583e c1a7 5c3d 56b8 1e3e 6b8a 38be
000001c0: 928c 193e 3a94 3d3d d9dc 103e c874 3ebd
000001d0: 1125 b93d c567 2c3e 3b1d a7bd 8ecc 44be
000001e0: 4ef6 c13d aa93 183e 0328 ff3b d1b0 213e
000001f0: b746 283e 5164 62bd 79c0 3e3e b6ef 233d
00000200: b3d5 1cbe 6612 163e c1cd 773d d8eb d0bc
00000210: d6c2 713e 1eb8 a93d 52d5 573d 22cc 33be
00000220: fe09 c5be 0ca3 f33d 0b50 a53e 6c65 59be

bias f4 [70]
0.032635447 -0.04664065 0.042454775 -0.012717144 0.044171352 0.023347847 0.02532969 -0.030024612
-0.008770302 -0.077770114 -0.0701503 -0.022201924 0.04766262 -0.044934984 -0.022397446 0.02612652
-0.015194352 0.045492236 -0.030839818 0.01661704 -0.07061659 0.020373123 0.05336481 0.06812766
-0.055091124 0.032566138 0.042185277 0.038863078 -0.042241257 0.081735715 0.072943546 0.055146366
-0.032969475 -0.044378873 0.032173753 0.06155786 0.038015876 -0.036105692 -0.058048613 -0.039340455
0.025571574 0.027207803 -0.022986302 0.014781179 -0.01399839 -0.025900178 -0.029429682 0.045207605
-0.008327413 0.0345218 -0.024636816 0.018900203 -0.05309434 0.054189857 -0.0013697648 -0.018043812
-0.07879508 -0.035277534 0.012586741 0.0036248593 0.0030541592 0.014279476 -0.03783421 -0.052479975
0.056963816 -0.022864617 -0.028172277 -0.018108893 -0.0146226585 -0.0011445065
00000000: bfac 053d 440a 3fbd 0fe5 2d3d 915b 50bc
00000010: 05ed 343d fc43 bf3c 3680 cf3c 2df6 f5bc
00000020: 50b1 0fbc f045 9fbd f6aa 8fbd cfe0 b5bc
00000030: e139 433d bf0d 38bd d97a b7bc 4907 d63c
00000040: bbf1 78bc 1156 3a3d c9a3 fcbc 7520 883c
00000050: 6e9f 90bd 89e5 a63c 0f95 5a3d 8486 8b3d
00000060: 3ba7 61bd 1264 053d 78ca 2c3d e42e 1f3d
00000070: 2b05 2dbd 0e65 a73d 6d63 953d 28e1 613d
00000080: 000b 07bd 9fc6 35bd a0c8 033d 1824 7c3d
00000090: 89b6 1b3d 90e3 13bd 62c4 6dbd 7523 21bd
000000a0: 7a7b d13c e6e2 de3c c54d bcbc c22c 723c
000000b0: 8159 65bc 9c2c d4bc 8416 f1bc 9c2b 393d
000000c0: b46f 08bc bb66 0d3d 26d3 c9bc 99d4 9a3c
000000d0: 7379 59bd 2ff6 5d3d ae89 b3ba 9ed0 93bc
000000e0: 515f a1bd 2d7f 10bd 9e38 4e3c 0c8f 6d3b
000000f0: 4a28 483b 77f4 693c 0bf8 1abd 3ef5 56bd
00000100: e452 693d 944e bbbc 8cc9 e6bc 1a59 94bc
00000110: e093 6fbc 4403 96ba

weight f4 [70, 70]
-0.0013992654 -0.1628859 0.007960846 -0.07207514 0.044547155 -0.015634248 -0.09889134 -0.13922499
-0.23220934 0.15079282 0.15204117 -0.11732778 -0.274892 -0.027578423 -0.03213161 -0.13355272
-0.08045025 0.036057536 -0.02494471 0.19250137 -0.016506387 0.120692775 0.21657753 -0.06444023
-0.019905807 0.0015175919 0.0038512533 -0.12606274 -0.135812 0.14808373 0.0842108 0.042922355
-0.02838713 -0.19858533 0.12583736 0.11749613 0.3403205 0.08483198 -0.19230978 -0.01528293
0.07009134 -0.007049541 -0.20811823 0.18830924 0.033392902 0.031419605 -0.1316001 -0.023957048
-0.19368628 0.21443887 -0.29588422 -0.18174061 -0.02082309 0.012179038 0.13600077 -0.04521353
-0.24180903 -0.12201541 -0.18474819 0.17986396 0.00846744 -0.0029682613 -0.10389214 0.049554378
0.13149437 0.14296308 -0.13079692 -0.036081035 0.07117994 -0.17355417 0.16824512 -0.0006110838
0.20807706 -0.10703472 0.066745535 0.21308397 0.0961019 0.0012760498 0.121961325 0.029855672
-0.24250077 -0.31250378 0.29096037 -0.083849035 -0.031483203 -0.13138057 -0.09771739 0.08225519
-0.17963801 0.19247095 -0.055459194 -0.05915304 0.0001603253 -0.15315084 -0.10185745 0.025030548
0.08404492 -0.01486562 -0.019882787 0.08577975 -0.1416287 -0.07116381 -0.2067727 -0.057997413
-0.112780206 -0.16968167 -0.05338526 0.24713063 0.10684863 -0.16235697 0.044886835 0.14151783
-0.109357096 -0.08359592 -0.11483216 0.25628388 0.21064542 -0.19256347 0.062054597 -0.05377209
0.098883845 0.19891745 0.03231049 0.41768393 0.038124405 0.06707032 -0.15319434 -0.18603715
-0.37221396 -0.06624269 0.02865248 0.14225776 0.102302395 0.12338748 0.00045998977 0.045879986
0.11200665 0.045101188 -0.1494021 0.013723517 0.13478501 0.19784148 -0.0050759274 0.080665894
0.10557326 -0.104232274 0.024097074 0.09287575 0.048353422 -0.19317716 -0.13430928 -0.1817418
0.15571581 0.058659606 0.1432986 0.13617426 0.12032682 0.19816597 -0.11946335 0.12569493
-0.07328856 0.06880805 -0.0039537726 0.16493028 -0.016384153 -0.112654455 0.20606624 -0.001485321
0.010591057 -0.034224417 0.1877781 -0.043102834 -0.014814417 0.083183326 0.089108415 0.31542292
-0.013163771 -0.16720816 0.19734801 -0.21714917 -0.06987451 -0.032540295 -0.01943212 -0.06745197
0.16705173 0.15137742 0.036150828 0.2043721 -0.018387204 0.078974865 0.17032237 0.022110268
0.06842783 -0.059515674 -0.081915066 -0.10047164 -0.07979458 -0.08423662 0.0439624 -0.0626485
0.011756297 0.0005114074 0.021633973 -0.088552274 0.16205738 -0.08322851 -0.074890554 -0.056407183
0.094110765 -0.04534385 -0.066983655 0.031176211 -0.17948502 -0.04982629 -0.087039016 0.0649619
-0.2562746 -0.2603857 -0.0965803 0.24940553 0.015206508 0.03905959 -0.114676185 -0.16845079
0.11500543 -0.16656652 0.009931579 -0.044094272 0.113214806 -0.19085945 -0.09120042 0.0021820317
-0.09243954 0.080461025 0.024231981 -0.08494324 -0.06182925 -0.15493263 0.057067957 -0.0981755
-0.093166456 -0.1376323 0.042778194 0.11911801 0.03927058 -0.0988294 0.013708015 0.05230488
-0.06000896 -0.17851838 -0.37594697 0.07021813 -0.0738929 -0.08394922 0.2943664 0.007037514
00000000: 8e67 b7ba 90cb 26be 356e 023c 229c 93bd
00000010: 1477 363d 6513 80bc 8b87 cabd ff90 0ebe
00000020: 49c8 6dbe 6f69 1a3e aeb0 1b3e 8c49 f0bd
00000030: a5be 8cbe 25ec e1bc 6f9c 03bd 0bc2 08be
00000040: 1ac3 a4bd 11b1 133d d958 ccbc 141f 453e
00000050: 6738 87bc c62d f73d 80c6 5d3e 3df9 83bd
00000060: 8111 a3bc efe9 c63a 4f65 7c3b 9716 01be
00000070: 4d12 0bbe 43a3 173e b676 ac3d 5acf 2f3d
00000080: 208c e8bc f459 4bbe 82db 003e d0a1 f03d
00000090: 7d3e ae3e 64bc ad3d dbec 44be 4165 7abc
000000a0: 0c8c 8f3d d6ff e6bb f21c 55be 23d4 403e
000000b0: ffc6 083d d8b1 003d 2dc2 06be 9241 c4bc
000000c0: b255 46be dd95 5b3e 237e 97be 361a 3abe
000000d0: 2f95 aabc 968a 473c c943 0b3e d331 39bd
000000e0: c99c 77be 37e3 f9bd a12e 3dbe 422e 383e
000000f0: 04bb 0a3c 2987 42bb 67c5 d4bd 88f9 4a3d
00000100: 76a6 063e ea64 123e a1ef 05be b5c9 13bd
00000110: cac6 913d 2fb8 31be 7348 2c3e 2431 20ba
00000120: 2712 553e 0535 dbbd e2b1 883d af32 5a3e
00000130: 13d1 c43d 2041 a73a dcc6 f93d e293 f43c
00000140: 1f52 78be 7f00 a0be c2f8 943e 0bb9 abbd
00000150: 88f4 00bd a188 06be 0e20 c8bd 6975 a83d
00000160: 07f3 37be 1b17 453e 2e29 63bd 754a 72bd
00000170: ff1c 2839 93d3 1cbe a49a d0bd dd0c cd3c
00000180: be1f ac3d ee8e 73bc 3ae1 a2bc 4bad af3d
00000190: 1d07 11be 55be 91bd 39bc 53be b28e 6dbd
000001a0: 4ff9 e6bd 08c1 2dbe 81aa 5abd d00f 7d3e
000001b0: 74d3 da3d e840 26be 42db 373d 0dea 103e
000001c0: 9df6 dfbd 5634 abbd 202d ebbd a437 833e
000001d0: 6fb3 573e 5c2f 45be f62c 7e3d 1f40 5cbd
000001e0: 9d83 ca3d 04b1 4b3e 0158 043d abda d53e
000001f0: 5628 1c3d 2a5c 893d fade 1cbe 8680 3ebe
00000200: d492 bebe 3faa 87bd 9bb8 ea3c 05ac 113e
00000210: eb83 d13d 93b2 fc3d c82a f139 a7ec 3b3d
00000220: be63 e53d 06bc 383d ddfc 18be 9ad8 603c
00000230: 1505 0a3e f596 4a3e f753 a6bb 2934 a53d
00000240: cb36 d83d bb77 d5bd 3a67 c53c a435 be3d
00000250: 3d0e 463d 3cd0 45be 5f88 09be 861a 3abe
00000260: f773 1f3e 0e45 703d debc 123e 4471 0b3e
00000270: e86d f63d 05ec 4a3e 33a9 f4bd 2cb6 003e
00000280: 5018 96bd 3ceb 8c3d a68e 81bb 7ce3 283e
00000290: 0f38 86bc 61b7 e6bd 0703 533e 1aaf c2ba
000002a0: 1d86 2d3c e72e 0cbd e748 403e 998c 30bd
000002b0: 2bb8 72bc 055c aa3d 797e b63d 1d7f a13e
000002c0: dbac 57bc 9e38 2bbe 9915 4a3e 5a5c 5ebe
000002d0: 5e1a 8fbd f948 05bd 1c30 9fbc 4224 8abd
000002e0: 9c0f 2b3e af02 1b3e e412 143d eb46 513e
000002f0: c3a0 96bc 93bd a13d fd68 2e3e 9820 b53c
00000300: e423 8c3d b5c6 73bd 16c3 a7bd 13c4 cdbd
00000310: 576b a3bd 4084 acbd eb11 343d db4d 80bd
00000320: 7c9d 403c f80f 063a bb39 b13c e55a b5bd
00000330: 5ff2 253e b673 aabd 3860 99bd 380b 67bd
00000340: 25bd c03d 79ba 39bd ba2e 89bd 4165 ff3c
00000350: ecca 37be a716 4cbd 8341 b2bd bf0a 853d
00000360: 6d36 83be 4651 85be e4cb c5bd 2a64 7f3e
00000370: b824 793c f3fc 1f3d 59db eabd 5d7e 2cbe
00000380: f887 eb3d 6a90 2abe 10b8 223c 329c 34bd
00000390: 2add e73d a970 43be 49c7 babd 6b00 0f3b
000003a0: f150 bdbd c0c8 a43d 2682 c63c b9f6 adbd
000003b0: ab40 7dbd a9a6 1ebe 17c0 693d 3d10 c9bd
000003c0: 0ece bebd 7bef 0cbe 3038 2f3d 25f4 f33d
000003d0: 30da 203d 1267 cabd 9597 603c a43d 563d
000003e0: f5cb 75bd 86cd 36be 1f7c c0be 86ce 8f3d
000003f0: 2955 97bd 92ed abbd 31b7 963e f29a e63b

bias f4 [70]
0.017989993 0.002520083 0.01917647 -0.04149176 0.009975321 -0.05489699 0.033393748 -0.049081355
-0.062438425 0.00900784 0.0177313 -0.025514113 0.029468335 0.0038269158 -0.015258117 -0.0058549563
-0.027596217 0.020775737 -0.016850624 -0.008341601 0.002647547 0.036182396 -0.017740833 -0.037806146
0.0055095246 -0.019085484 0.032494802 -0.04121152 0.046144083 0.0016338961 -0.005753899 0.024721753
-0.028477112 0.0025678158 -0.010840048 -0.04120099 -0.029911269 0.0050160713 -0.0010264543 0.0117398575
0.018316166 0.07426248 -0.0044783195 -0.011227668 0.001561932 0.028492017 -0.0028234192 0.027635574
0.010420749 0.00814983 -0.018560136 0.015529246 -0.025435701 -0.026890688 0.01193132 -0.011260585
0.014248127 -0.018230421 0.02422304 -0.013533835 -0.015777232 0.018273432 0.002175389 0.020795986
0.016871069 -0.010214466 -0.014505988 0.014763014 -0.014353237 -0.018887049
00000000: c05f 933c fa27 253b f917 9d3c 44f3 29bd
00000010: 876f 233c abdb 60bd e2c7 083d 8809 49bd
00000020: 6fbf 7fbd 9f95 133c 3b41 913c f902 d1bc
00000030: 9467 f13c fecc 7a3b 2efd 79bc efda bfbb
00000040: 7611 e2bc e131 aa3c 520a 8abc 36ab 08bc
00000050: 7882 2d3b fe33 143d 3955 91bc 9eda 1abd
00000060: 3e89 b43b 2959 9cbc 4519 053d 69cd 28bd
00000070: 9401 3d3d 7528 d63a 348b bcbb 4685 ca3c
00000080: d548 e9bc cd48 283b 759a 31bc 5fc2 28bd
00000090: 7a08 f5bc db5d a43b 178a 86ba 8858 403c
000000a0: c90b 963c ed16 983d debe 92bb 41f4 37bc
000000b0: beb9 cc3a 1768 e93c 1d09 39bb 0064 e23c
000000c0: cabb 2a3c dd86 053c 6d0b 98bc 616e 7e3c
000000d0: 885e d0bc dc49 dcbc 957b 433c 517e 38bc
000000e0: fa70 693c f757 95bc 666f c63c 05bd 5dbc
000000f0: 413f 81bc 2ab2 953c f990 0e3b 585c aa3c
00000100: 3235 8a3c 935a 27bc 86aa 6dbc 92e0 713c
00000110: d729 6bbc 03b9 9abc

weight f4 [70, 70]
-0.092514426 0.18089503 -0.08418411 0.12733923 0.25730896 -0.05653883 0.14240797 -0.18785352
0.085897125 0.111787125 -0.019514209 0.10921649 0.06154584 -0.1962908 -0.17057854 -0.1471973
-0.022493076 0.16813904 -0.16318265 -0.11183345 0.04937257 0.13700795 -0.03513551 0.11477819
0.043680325 0.026269747 -0.18126626 0.11874951 -0.0038134456 -0.036367796 0.05695484 0.074673794
-0.15363601 0.06379559 -0.08737919 -0.045651264 -0.10741536 -0.031314958 -0.10943749 0.03664266
0.12342429 -0.26511517 -0.022312846 0.015440226 -0.09178144 0.39401793 0.3756644 0.17824243
0.08716667 -0.017348563 0.14090349 0.049423695 -0.27814507 -0.111024514 0.2032 0.085630365
0.08431155 -0.1622449 0.0037247709 -0.16347916 -0.053822126 0.085395336 0.051046398 -0.07755832
-0.024138765 0.001226103 -0.11339237 -0.11451715 -0.05412019 0.07199299 -0.04399396 -0.38646892
0.23969406 0.16734779 -0.0461641 0.16658725 -0.055175405 0.21506108 0.056300346 -0.048378803
0.039564468 -0.008010541 0.080085784 0.12816568 -0.0018637023 0.07175573 -0.18010324 -0.022504251
0.10077637 0.11136079 0.04781958 0.054528594 -0.20645045 0.21735942 0.024124786 -0.092742026
-0.045396216 -0.157882 -0.04838872 0.07998869 -0.020273075 -0.005172003 0.23147063 0.19695215
0.25411907 0.0068874913 -0.1053555 0.065022945 -0.21430124 -0.10810621 0.069977574 -0.07891849
-0.2471737 0.021346137 -0.17180328 0.19018894 -0.07671378 -0.087882005 -0.07646522 0.0033636298
0.16837174 -0.2092634 0.025516707 0.008598261 -0.12992096 -0.12053472 -0.12748255 -0.038296346
0.059950612 -0.12847298 -0.07576707 -0.051695943 0.105184205 0.11257099 -0.091705844 -0.12620136
-0.1710458 0.14310263 0.16841397 0.07691627 -0.08056023 0.16665336 -0.15445152 0.011949606
-0.0961094 -0.013356445 0.20178916 0.117272474 -0.18954486 0.09049058 -0.06853363 -0.1859748
-0.12077687 0.024610702 0.09582233 -0.13424535 -0.03949864 -0.29302824 0.042994037 0.016362498
0.076426 0.022535933 0.07982641 0.13430502 -0.038918603 -0.15252759 0.09561273 0.10324829
-0.22192872 0.044298675 -0.020284846 0.02676568 -0.03614608 0.1939118 -0.12141167 -0.12819257
0.06889477 -0.1607747 0.01684148 0.014806177 0.13955219 -0.14981602 -0.09362407 -0.21475981
0.09261118 -0.020200303 -0.07590767 0.18772489 -0.06627091 0.011888596 0.13822694 0.017944342
0.09997544 0.116664045 -0.110091925 0.13301744 0.105349384 0.21647291 -0.1767683 0.06464471
0.021992158 0.070244074 0.11890618 -0.00051702914 -0.23194961 0.07836758 -0.08679702 -0.035189893
0.22241855 0.014767473 0.08830584 -0.047904078 -0.2166241 -0.032296926 0.15057729 -0.019690247
-0.08862123 -0.20107196 0.12365706 0.18854323 -0.15350066 0.0059419516 0.11846122 0.074366264
0.0023322275 -0.00069060177 0.11352384 0.036485363 -0.06256681 -0.19189772 0.08212951 -0.016256278
0.20115244 0.12106801 -0.063880116 0.005323695 -0.052346535 -0.07937277 -0.16725087 -0.05136418
0.0065344977 0.024440182 -0.23956165 -0.004699871 -0.079080984 -0.07755674 -0.043189 0.18494682
-0.03919263 0.046137433 0.06545776 0.016395243 -0.0038065638 -0.014614207 -0.019353278 0.106641375
00000000: 3478 bdbd 8c3c 393e b868 acbd 3765 023e
00000010: 00be 833e 4395 67bd 65d3 113e ac5c 40be
00000020: d5ea af3d a6f0 e43d 43dc 9fbc e5ac df3d
00000030: 7e17 7c3d 7500 49be 24ac 2ebe e4ba 16be
00000040: 6643 b8bc a42c 2c3e 5a19 27be f008 e5bd
00000050: e43a 4a3d d04b 0c3e 41ea 0fbd d410 eb3d
00000060: 24ea 323d a733 d73c dd9d 39be f132 f33d
00000070: 00eb 79bb 66f6 14bd 7a49 693d 93ee 983d
00000080: c252 1dbe 43a7 823d dcf3 b2bd d2fc 3abd
00000090: 96fc dbbd 1d44 00bd c320 e0bd 9d16 163d
000000a0: e0c5 fc3d 2dbd 87be 6ec9 b6bc 00f9 7c3c
000000b0: e8f7 bbbd b8bc c93e 1657 c03e 2f85 363e
000000c0: 7084 b23d 931e 8ebc 0149 103e 8070 4a3d
000000d0: 0869 8ebe d260 e3bd a913 503e f95e af3d
000000e0: 89ab ac3d 8723 26be 491b 743b 1567 27be
000000f0: 9774 5cbd c0e3 ae3d 0716 513d e5d6 9ebd
00000100: a9be c5bc 31b5 a03a 423a e8bd f887 eabd
00000110: 22ad 5dbd 1071 933d 0333 34bd 41df c5be
00000120: 5c72 753e 385d 2b3e 9116 3dbd d995 2a3e
00000130: 9bff 61bd f938 5c3e 319b 663d da28 46bd
00000140: 5a0e 223d a53e 03bc 0404 a43d dd3d 033e
00000150: 7947 f4ba abf4 923d fc6c 38be d65a b8bc
00000160: d763 ce3d 2011 e43d 77de 433d 6059 5f3d
00000170: bf67 53be 7893 5e3e 58a1 c53c 88ef bdbd
00000180: 62f1 39bd d2ab 21be 4033 46bd 1cd1 a33d
00000190: b813 a6bc e879 a9bb a306 6d3e d3ad 493e
000001a0: e51b 823e 77b0 e13b a0c4 d7bd c02a 853d
000001b0: c971 5bbe ca66 ddbd 6750 8f3d 04a0 a1bd
000001c0: 1a1b 7dbe 18de ae3c 33ed 2fbe e4c0 423e
000001d0: 1d1c 9dbd 7bfb b3bd cc99 9cbd 5870 5c3b
000001e0: a469 2c3e 2549 56be 6a08 d13c b8df 0c3c
000001f0: 000a 05be e8da f6bd c98a 02be a1dc 1cbd
00000200: c68e 753d 6c8e 03be c42b 9bbd 20bf 53bd
00000210: d16a d73d 9f8b e63d 46d0 bbbd ee3a 01be
00000220: a126 2fbe 7f89 123e b674 2c3e 4786 9d3d
00000230: c3fc a4bd 2ea7 2a3e 8a28 1ebe 48c8 433c
00000240: 01d5 c4bd fed4 5abc d1a1 4e3e 8d2c f03d
00000250: 0c18 42be 2053 b93d 5c5b 8cbd 2e70 3ebe
00000260: dd59 f7bd 629c c93c 7f3e c43d 9d77 09be
00000270: 53c9 21bd cc07 96be 841a 303d a50a 863c
00000280: 3c85 9c3d 479d b83c 077c a33d 4187 093e
00000290: 1d69 1fbd 3130 1cbe 9bd0 c33d d773 d33d
000002a0: 4841 63be 8772 353d 682c a6bc b343 db3c
000002b0: e90d 14bd d190 463e afa6 f8bd ea44 03be
000002c0: b418 8d3d 1fa2 24be 25f7 893c 9b95 723c
000002d0: c5e6 0e3e 5f69 19be fabd bfbd ffe9 5bbe
000002e0: eeaa bd3d 1b7b a5bc 7b75 9bbd f43a 403e
000002f0: 0bb9 87bd 63c8 423c 5d8b 0d3e 0300 933c
00000300: ecbf cc3d 8fed ee3d e077 e1bd b935 083e
00000310: 6bc1 d73d 13ab 5d3e c002 35be 7264 843d
00000320: e628 b43c 20dc 8f3d 1585 f33d 3d89 07ba
00000330: 3384 6dbe 2f7f a03d a3c2 b1bd 4723 10bd
00000340: b0c1 633e 45f3 713c b1d9 b43d 1137 44bd
00000350: b5d2 5dbe c849 04bd ef30 1a3e 714d a1bc
00000360: 0c7f b5bd cfe5 4dbe ea3f fd3d 7a11 413e
00000370: 472f 1dbe b4b4 c23b cc9b f23d 574d 983d
00000380: 49d8 183b 8009 35ba 307f e83d ad71 153d
00000390: 0723 80bd d680 44be 8433 a83d e32b 85bc
000003a0: e8fa 4d3e 81f2 f73d 94d3 82bd 6472 ae3b
000003b0: 5269 56bd 318e a2bd d043 2bbe 3f63 52bd
000003c0: 571f d63b c736 c83c a64f 75be 6001 9abb
000003d0: 36f5 a1bd 11d6 9ebd f3e6 30bd b362 3d3e
000003e0: 7488 20bd 9bfa 3c3d b80e 863d 514f 863c
000003f0: 8b77 79bb 6d70 6fbc c48a 9ebc cb66 da3d

bias f4 [70]
0.001833268 -0.01430722 -0.027031817 -0.01029033 0.002755588 -0.0077152126 0.018832305 0.013911916
-0.029913116 -0.00019202687 -0.0067378124 -0.013300286 -0.017105328 0.013591106 0.040226024 -0.004519022
-0.0054175993 0.02220336 0.032624654 -0.018689549 0.0030259856 0.02255788 0.03330637 0.0013951496
0.018613657 -0.012665194 0.00896948 -0.0002901398 -0.024044355 -0.017885834 0.0049780607 -0.006279082
0.0059095942 -0.0051682405 -0.00022834625 -0.0063822647 0.0060865297 0.008027481 -0.01301191 -0.0074744774
-0.009816076 0.043957468 -0.00938629 0.030374873 -0.016550006 -0.019376809 -0.0054537277 0.010172662
-0.0063562887 0.023722565 0.0638495 -0.0041865036 -0.00039303506 -0.011842668 -0.0041049686 -0.029724631
0.013626955 -0.0035440193 0.032416597 -0.049693372 -0.00022630084 -0.044160165 0.0013597773 -0.0079502445
0.007646773 0.005756646 -0.010877824 -0.0040703667 0.00838102 0.0035515751
00000000: 444a f03a d468 6abc d471 ddbc c698 28bc
00000010: 1897 343b e5cf fcbb 3546 9a3c ceee 633c
00000020: 5a0c f5bc d25a 49b9 dec8 dcbb 71e9 59bc
00000030: 7920 8cbc 3bad 5e3c 0bc4 243d 4e14 94bb
00000040: 1e86 b1bb d2e3 b53c 6ea1 053d d31a 99bc
00000050: 9d4f 463b 4ecb b83c 436c 083d 74dd b63a
00000060: ab7b 983c ad81 4fbc baf4 123c e81d 98b9
00000070: abf8 c4bc 5085 92bc 001f a33b c2c0 cdbb
00000080: 45a5 c13b 585a a9bb 3b70 6fb9 5122 d1bb
00000090: 8371 c73b b285 033c e82f 55bc 76ec f4bb
000000a0: 9bd3 20bc bf0c 343d f4c8 19bc bad4 f83c
000000b0: e193 87bc 1dbc 9ebc 2fb5 b2bb 3dab 263c
000000c0: 6a48 d0bb d355 c23c 87c3 823d f02e 89bb
000000d0: 4610 ceb9 c007 42bc f982 86bb 1281 f3bc
000000e0: 9843 5f3c c742 68bb 44c7 043d 478b 4bbd
000000f0: 2b4b 6db9 4ae1 34bd 8e3a b23a be41 02bc
00000100: c891 fa3b 3fa2 bc3b e738 32bc b660 85bb
00000110: 8c50 093c 8bc1 683b
