pbc_examples/saved_models/convection_beta-1.0_layers-50,50,50,50,1_L-1e-06_WD-0_init-normal_seed0.pt (torch, 114029 bytes, 36 tensors)

x_u f4 [256, 1]
0	0x00000000	0.0
1	0x3cc90fdb	0.024543693
2	0x3d490fdb	0.049087387
3	0x3d96cbe4	0.07363108
4	0x3dc90fdb	0.09817477
5	0x3dfb53d1	0.12271846
6	0x3e16cbe4	0.14726216
7	0x3e2feddf	0.17180584
8	0x3e490fdb	0.19634955
9	0x3e6231d6	0.22089323
10	0x3e7b53d1	0.24543692
11	0x3e8a3ae6	0.2699806
12	0x3e96cbe4	0.2945243
13	0x3ea35ce2	0.319068
14	0x3eafeddf	0.3436117
15	0x3ebc7edd	0.3681554
16	0x3ec90fdb	0.3926991
17	0x3ed5a0d8	0.41724277
18	0x3ee231d6	0.44178647
19	0x3eeec2d4	0.46633017
20	0x3efb53d1	0.49087384
21	0x3f03f267	0.5154175
22	0x3f0a3ae6	0.5399612
23	0x3f108365	0.5645049
24	0x3f16cbe4	0.5890486
25	0x3f1d1463	0.6135923
26	0x3f235ce2	0.638136
27	0x3f29a560	0.6626797
28	0x3f2feddf	0.6872234
29	0x3f36365e	0.7117671
30	0x3f3c7edd	0.7363108
31	0x3f42c75c	0.7608545
32	0x3f490fdb	0.7853982
33	0x3f4f5859	0.8099418
34	0x3f55a0d8	0.83448553
35	0x3f5be957	0.85902923
36	0x3f6231d6	0.88357294
37	0x3f687a55	0.90811664
38	0x3f6ec2d4	0.93266034
39	0x3f750b52	0.957204
40	0x3f7b53d1	0.9817477
41	0x3f80ce28	1.0062914
42	0x3f83f267	1.030835
43	0x3f8716a7	1.0553788
44	0x3f8a3ae6	1.0799224
45	0x3f8d5f26	1.1044662
46	0x3f908365	1.1290098
47	0x3f93a7a5	1.1535536
48	0x3f96cbe4	1.1780972
49	0x3f99f023	1.2026409
50	0x3f9d1463	1.2271847
51	0x3fa038a2	1.2517283
52	0x3fa35ce2	1.276272
53	0x3fa68121	1.3008157
54	0x3fa9a560	1.3253593
55	0x3facc9a0	1.3499031
56	0x3fafeddf	1.3744467
57	0x3fb3121f	1.3989905
58	0x3fb6365e	1.4235342
59	0x3fb95a9e	1.4480779
60	0x3fbc7edd	1.4726216
61	0x3fbfa31c	1.4971652
62	0x3fc2c75c	1.521709
63	0x3fc5eb9b	1.5462526
64	0x3fc90fdb	1.5707964
65	0x3fcc341a	1.59534
66	0x3fcf5859	1.6198837
67	0x3fd27c99	1.6444274
68	0x3fd5a0d8	1.6689711
69	0x3fd8c518	1.6935148
70	0x3fdbe957	1.7180585
71	0x3fdf0d97	1.7426022
72	0x3fe231d6	1.7671459
73	0x3fe55615	1.7916895
74	0x3fe87a55	1.8162333
75	0x3feb9e94	1.8407769
76	0x3feec2d4	1.8653207
77	0x3ff1e713	1.8898643
78	0x3ff50b52	1.914408
79	0x3ff82f92	1.9389517
80	0x3ffb53d1	1.9634954
81	0x3ffe7811	1.9880391
82	0x4000ce28	2.0125828
83	0x40026048	2.0371265
84	0x4003f267	2.06167
85	0x40058487	2.0862138
86	0x400716a7	2.1107576
87	0x4008a8c7	2.1353014
88	0x400a3ae6	2.1598449
89	0x400bcd06	2.1843886
90	0x400d5f26	2.2089324
91	0x400ef145	2.233476
92	0x40108365	2.2580197
93	0x40121585	2.2825634
94	0x4013a7a5	2.3071072
95	0x401539c4	2.3316507
96	0x4016cbe4	2.3561945
97	0x40185e04	2.3807383
98	0x4019f023	2.4052818
99	0x401b8243	2.4298255
100	0x401d1463	2.4543693
101	0x401ea683	2.478913
102	0x402038a2	2.5034566
103	0x4021cac2	2.5280004
104	0x40235ce2	2.552544
105	0x4024ef01	2.5770876
106	0x40268121	2.6016314
107	0x40281341	2.6261752
108	0x4029a560	2.6507187
109	0x402b3780	2.6752625
110	0x402cc9a0	2.6998062
111	0x402e5bc0	2.72435
112	0x402feddf	2.7488935
113	0x40317fff	2.7734373
114	0x4033121f	2.797981
115	0x4034a43e	2.8225245
116	0x4036365e	2.8470683
117	0x4037c87e	2.871612
118	0x40395a9e	2.8961558
119	0x403aecbd	2.9206994
120	0x403c7edd	2.9452431
121	0x403e10fd	2.969787
122	0x403fa31c	2.9943304
123	0x4041353c	3.0188742
124	0x4042c75c	3.043418
125	0x4044597c	3.0679617
126	0x4045eb9b	3.0925052
127	0x40477dbb	3.117049
128	0x40490fdb	3.1415927
129	0x404aa1fa	3.1661363
130	0x404c341a	3.19068
131	0x404dc63a	3.2152238
132	0x404f5859	3.2397673
133	0x4050ea79	3.264311
134	0x40527c99	3.2888548
135	0x40540eb9	3.3133986
136	0x4055a0d8	3.3379421
137	0x405732f8	3.362486
138	0x4058c518	3.3870296
139	0x405a5737	3.4115732
140	0x405be957	3.436117
141	0x405d7b77	3.4606607
142	0x405f0d97	3.4852045
143	0x40609fb6	3.509748
144	0x406231d6	3.5342917
145	0x4063c3f6	3.5588355
146	0x40655615	3.583379
147	0x4066e835	3.6079228
148	0x40687a55	3.6324666
149	0x406a0c75	3.6570103
150	0x406b9e94	3.6815538
151	0x406d30b4	3.7060976
152	0x406ec2d4	3.7306414
153	0x407054f3	3.755185
154	0x4071e713	3.7797287
155	0x40737933	3.8042724
156	0x40750b52	3.828816
157	0x40769d72	3.8533597
158	0x40782f92	3.8779035
159	0x4079c1b2	3.9024472
160	0x407b53d1	3.9269907
161	0x407ce5f1	3.9515345
162	0x407e7811	3.9760783
163	0x40800518	4.000622
164	0x4080ce28	4.0251656
165	0x40819738	4.0497093
166	0x40826048	4.074253
167	0x40832958	4.098797
168	0x4083f267	4.12334
169	0x4084bb77	4.147884
170	0x40858487	4.1724277
171	0x40864d97	4.1969714
172	0x408716a7	4.221515
173	0x4087dfb7	4.246059
174	0x4088a8c7	4.2706027
175	0x408971d6	4.295146
176	0x408a3ae6	4.3196898
177	0x408b03f6	4.3442335
178	0x408bcd06	4.3687773
179	0x408c9616	4.393321
180	0x408d5f26	4.417865
181	0x408e2836	4.4424086
182	0x408ef145	4.466952
183	0x408fba55	4.4914956
184	0x40908365	4.5160394
185	0x40914c75	4.540583
186	0x40921585	4.565127
187	0x4092de95	4.5896707
188	0x4093a7a5	4.6142144
189	0x409470b4	4.6387577
190	0x409539c4	4.6633015
191	0x409602d4	4.687845
192	0x4096cbe4	4.712389
193	0x409794f4	4.7369328
194	0x40985e04	4.7614765
195	0x40992714	4.7860203
196	0x4099f023	4.8105636
197	0x409ab933	4.8351073
198	0x409b8243	4.859651
199	0x409c4b53	4.884195
200	0x409d1463	4.9087386
201	0x409ddd73	4.9332824
202	0x409ea683	4.957826
203	0x409f6f92	4.9823694
204	0x40a038a2	5.006913
205	0x40a101b2	5.031457
206	0x40a1cac2	5.0560007
207	0x40a293d2	5.0805445
208	0x40a35ce2	5.105088
209	0x40a425f1	5.1296315
210	0x40a4ef01	5.1541753
211	0x40a5b811	5.178719
212	0x40a68121	5.203263
213	0x40a74a31	5.2278066
214	0x40a81341	5.2523503
215	0x40a8dc51	5.276894
216	0x40a9a560	5.3014374
217	0x40aa6e70	5.325981
218	0x40ab3780	5.350525
219	0x40ac0090	5.3750687
220	0x40acc9a0	5.3996124
221	0x40ad92b0	5.424156
222	0x40ae5bc0	5.4487
223	0x40af24cf	5.473243
224	0x40afeddf	5.497787
225	0x40b0b6ef	5.5223308
226	0x40b17fff	5.5468745
227	0x40b2490f	5.5714183
228	0x40b3121f	5.595962
229	0x40b3db2f	5.620506
230	0x40b4a43e	5.645049
231	0x40b56d4e	5.669593
232	0x40b6365e	5.6941366
233	0x40b6ff6e	5.7186804
234	0x40b7c87e	5.743224
235	0x40b8918e	5.767768
236	0x40b95a9e	5.7923117
237	0x40ba23ad	5.816855
238	0x40baecbd	5.8413987
239	0x40bbb5cd	5.8659425
240	0x40bc7edd	5.8904862
241	0x40bd47ed	5.91503
242	0x40be10fd	5.939574
243	0x40beda0d	5.9641175
244	0x40bfa31c	5.988661
245	0x40c06c2c	6.0132046
246	0x40c1353c	6.0377483
247	0x40c1fe4c	6.062292
248	0x40c2c75c	6.086836
249	0x40c3906c	6.1113796
250	0x40c4597c	6.1359234
251	0x40c5228b	6.1604667
252	0x40c5eb9b	6.1850104
253	0x40c6b4ab	6.209554
254	0x40c77dbb	6.234098
255	0x40c846cb	6.2586417

t_u f4 [256, 1]
0	0x00000000	0.0
1	0x00000000	0.0
2	0x00000000	0.0
3	0x00000000	0.0
4	0x00000000	0.0
5	0x00000000	0.0
6	0x00000000	0.0
7	0x00000000	0.0
8	0x00000000	0.0
9	0x00000000	0.0
10	0x00000000	0.0
11	0x00000000	0.0
12	0x00000000	0.0
13	0x00000000	0.0
14	0x00000000	0.0
15	0x00000000	0.0
16	0x00000000	0.0
17	0x00000000	0.0
18	0x00000000	0.0
19	0x00000000	0.0
20	0x00000000	0.0
21	0x00000000	0.0
22	0x00000000	0.0
23	0x00000000	0.0
24	0x00000000	0.0
25	0x00000000	0.0
26	0x00000000	0.0
27	0x00000000	0.0
28	0x00000000	0.0
29	0x00000000	0.0
30	0x00000000	0.0
31	0x00000000	0.0
32	0x00000000	0.0
33	0x00000000	0.0
34	0x00000000	0.0
35	0x00000000	0.0
36	0x00000000	0.0
37	0x00000000	0.0
38	0x00000000	0.0
39	0x00000000	0.0
40	0x00000000	0.0
41	0x00000000	0.0
42	0x00000000	0.0
43	0x00000000	0.0
44	0x00000000	0.0
45	0x00000000	0.0
46	0x00000000	0.0
47	0x00000000	0.0
48	0x00000000	0.0
49	0x00000000	0.0
50	0x00000000	0.0
51	0x00000000	0.0
52	0x00000000	0.0
53	0x00000000	0.0
54	0x00000000	0.0
55	0x00000000	0.0
56	0x00000000	0.0
57	0x00000000	0.0
58	0x00000000	0.0
59	0x00000000	0.0
60	0x00000000	0.0
61	0x00000000	0.0
62	0x00000000	0.0
63	0x00000000	0.0
64	0x00000000	0.0
65	0x00000000	0.0
66	0x00000000	0.0
67	0x00000000	0.0
68	0x00000000	0.0
69	0x00000000	0.0
70	0x00000000	0.0
71	0x00000000	0.0
72	0x00000000	0.0
73	0x00000000	0.0
74	0x00000000	0.0
75	0x00000000	0.0
76	0x00000000	0.0
77	0x00000000	0.0
78	0x00000000	0.0
79	0x00000000	0.0
80	0x00000000	0.0
81	0x00000000	0.0
82	0x00000000	0.0
83	0x00000000	0.0
84	0x00000000	0.0
85	0x00000000	0.0
86	0x00000000	0.0
87	0x00000000	0.0
88	0x00000000	0.0
89	0x00000000	0.0
90	0x00000000	0.0
91	0x00000000	0.0
92	0x00000000	0.0
93	0x00000000	0.0
94	0x00000000	0.0
95	0x00000000	0.0
96	0x00000000	0.0
97	0x00000000	0.0
98	0x00000000	0.0
99	0x00000000	0.0
100	0x00000000	0.0
101	0x00000000	0.0
102	0x00000000	0.0
103	0x00000000	0.0
104	0x00000000	0.0
105	0x00000000	0.0
106	0x00000000	0.0
107	0x00000000	0.0
108	0x00000000	0.0
109	0x00000000	0.0
110	0x00000000	0.0
111	0x00000000	0.0
112	0x00000000	0.0
113	0x00000000	0.0
114	0x00000000	0.0
115	0x00000000	0.0
116	0x00000000	0.0
117	0x00000000	0.0
118	0x00000000	0.0
119	0x00000000	0.0
120	0x00000000	0.0
121	0x00000000	0.0
122	0x00000000	0.0
123	0x00000000	0.0
124	0x00000000	0.0
125	0x00000000	0.0
126	0x00000000	0.0
127	0x00000000	0.0
128	0x00000000	0.0
129	0x00000000	0.0
130	0x00000000	0.0
131	0x00000000	0.0
132	0x00000000	0.0
133	0x00000000	0.0
134	0x00000000	0.0
135	0x00000000	0.0
136	0x00000000	0.0
137	0x00000000	0.0
138	0x00000000	0.0
139	0x00000000	0.0
140	0x00000000	0.0
141	0x00000000	0.0
142	0x00000000	0.0
143	0x00000000	0.0
144	0x00000000	0.0
145	0x00000000	0.0
146	0x00000000	0.0
147	0x00000000	0.0
148	0x00000000	0.0
149	0x00000000	0.0
150	0x00000000	0.0
151	0x00000000	0.0
152	0x00000000	0.0
153	0x00000000	0.0
154	0x00000000	0.0
155	0x00000000	0.0
156	0x00000000	0.0
157	0x00000000	0.0
158	0x00000000	0.0
159	0x00000000	0.0
160	0x00000000	0.0
161	0x00000000	0.0
162	0x00000000	0.0
163	0x00000000	0.0
164	0x00000000	0.0
165	0x00000000	0.0
166	0x00000000	0.0
167	0x00000000	0.0
168	0x00000000	0.0
169	0x00000000	0.0
170	0x00000000	0.0
171	0x00000000	0.0
172	0x00000000	0.0
173	0x00000000	0.0
174	0x00000000	0.0
175	0x00000000	0.0
176	0x00000000	0.0
177	0x00000000	0.0
178	0x00000000	0.0
179	0x00000000	0.0
180	0x00000000	0.0
181	0x00000000	0.0
182	0x00000000	0.0
183	0x00000000	0.0
184	0x00000000	0.0
185	0x00000000	0.0
186	0x00000000	0.0
187	0x00000000	0.0
188	0x00000000	0.0
189	0x00000000	0.0
190	0x00000000	0.0
191	0x00000000	0.0
192	0x00000000	0.0
193	0x00000000	0.0
194	0x00000000	0.0
195	0x00000000	0.0
196	0x00000000	0.0
197	0x00000000	0.0
198	0x00000000	0.0
199	0x00000000	0.0
200	0x00000000	0.0
201	0x00000000	0.0
202	0x00000000	0.0
203	0x00000000	0.0
204	0x00000000	0.0
205	0x00000000	0.0
206	0x00000000	0.0
207	0x00000000	0.0
208	0x00000000	0.0
209	0x00000000	0.0
210	0x00000000	0.0
211	0x00000000	0.0
212	0x00000000	0.0
213	0x00000000	0.0
214	0x00000000	0.0
215	0x00000000	0.0
216	0x00000000	0.0
217	0x00000000	0.0
218	0x00000000	0.0
219	0x00000000	0.0
220	0x00000000	0.0
221	0x00000000	0.0
222	0x00000000	0.0
223	0x00000000	0.0
224	0x00000000	0.0
225	0x00000000	0.0
226	0x00000000	0.0
227	0x00000000	0.0
228	0x00000000	0.0
229	0x00000000	0.0
230	0x00000000	0.0
231	0x00000000	0.0
232	0x00000000	0.0
233	0x00000000	0.0
234	0x00000000	0.0
235	0x00000000	0.0
236	0x00000000	0.0
237	0x00000000	0.0
238	0x00000000	0.0
239	0x00000000	0.0
240	0x00000000	0.0
241	0x00000000	0.0
242	0x00000000	0.0
243	0x00000000	0.0
244	0x00000000	0.0
245	0x00000000	0.0
246	0x00000000	0.0
247	0x00000000	0.0
248	0x00000000	0.0
249	0x00000000	0.0
250	0x00000000	0.0
251	0x00000000	0.0
252	0x00000000	0.0
253	0x00000000	0.0
254	0x00000000	0.0
255	0x00000000	0.0

x_f f4 [100, 1]
0	0x4093a7a5	4.6142144
1	0x3fdf0d97	1.7426022
2	0x4055a0d8	3.3379421
3	0x409c4b53	4.884195
4	0x4044597c	3.0679617
5	0x40b0b6ef	5.5223308
6	0x40ba23ad	5.816855
7	0x40c5eb9b	6.1850104
8	0x40921585	4.565127
9	0x3f99f023	1.2026409
10	0x40992714	4.7860203
11	0x3f108365	0.5645049
12	0x3feb9e94	1.8407769
13	0x3dfb53d1	0.12271846
14	0x409f6f92	4.9823694
15	0x40c2c75c	6.086836
16	0x40b6ff6e	5.7186804
17	0x402cc9a0	2.6998062
18	0x4021cac2	2.5280004
19	0x40c3906c	6.1113796
20	0x402e5bc0	2.72435
21	0x40af24cf	5.473243
22	0x3f8716a7	1.0553788
23	0x40c1fe4c	6.062292
24	0x3ee231d6	0.44178647
25	0x3f36365e	0.7117671
26	0x40864d97	4.1969714
27	0x40c846cb	6.2586417
28	0x40c4597c	6.1359234
29	0x40914c75	4.540583
30	0x40c5eb9b	6.1850104
31	0x4088a8c7	4.2706027
32	0x40af24cf	5.473243
33	0x40268121	2.6016314
34	0x408d5f26	4.417865
35	0x409d1463	4.9087386
36	0x40c06c2c	6.0132046
37	0x3ebc7edd	0.3681554
38	0x3efb53d1	0.49087384
39	0x40a68121	5.203263
40	0x405d7b77	3.4606607
41	0x3ee231d6	0.44178647
42	0x3fcf5859	1.6198837
43	0x4084bb77	4.147884
44	0x3fe87a55	1.8162333
45	0x409ea683	4.957826
46	0x405f0d97	3.4852045
47	0x4058c518	3.3870296
48	0x3f750b52	0.957204
49	0x4013a7a5	2.3071072
50	0x3f29a560	0.6626797
51	0x40a74a31	5.2278066
52	0x3cc90fdb	0.024543693
53	0x40c1fe4c	6.062292
54	0x401539c4	2.3316507
55	0x3ffb53d1	1.9634954
56	0x401539c4	2.3316507
57	0x3f2feddf	0.6872234
58	0x3fcc341a	1.59534
59	0x405a5737	3.4115732
60	0x40b3121f	5.595962
61	0x40b95a9e	5.7923117
62	0x3f8d5f26	1.1044662
63	0x406b9e94	3.6815538
64	0x3f6231d6	0.88357294
65	0x3fdbe957	1.7180585
66	0x401b8243	2.4298255
67	0x4066e835	3.6079228
68	0x3fe55615	1.7916895
69	0x3fcf5859	1.6198837
70	0x408971d6	4.295146
71	0x3ffe7811	1.9880391
72	0x40108365	2.2580197
73	0x402e5bc0	2.72435
74	0x3f490fdb	0.7853982
75	0x4003f267	2.06167
76	0x409ea683	4.957826
77	0x40a425f1	5.1296315
78	0x401b8243	2.4298255
79	0x40914c75	4.540583
80	0x406a0c75	3.6570103
81	0x3f55a0d8	0.83448553
82	0x406d30b4	3.7060976
83	0x3fe55615	1.7916895
84	0x40c2c75c	6.086836
85	0x409f6f92	4.9823694
86	0x409c4b53	4.884195
87	0x3f80ce28	1.0062914
88	0x40afeddf	5.497787
89	0x40baecbd	5.8413987
90	0x40864d97	4.1969714
91	0x4096cbe4	4.712389
92	0x3f6231d6	0.88357294
93	0x3f6ec2d4	0.93266034
94	0x3f9d1463	1.2271847
95	0x40b7c87e	5.743224
96	0x40b2490f	5.5714183
97	0x40c1353c	6.0377483
98	0x405be957	3.436117
99	0x3facc9a0	1.3499031

t_f f4 [100, 1]
0	0x3ec48677	0.3838384
1	0x3f51745d	0.8181818
2	0x3f090cee	0.53535354
3	0x3f4c4867	0.7979798
4	0x3e10cede	0.14141414
5	0x3f350296	0.7070707
6	0x3f2fd6a0	0.68686867
7	0x3f471c72	0.7777778
8	0x3f0ba2e9	0.54545456
9	0x3c257eb5	0.01010101
10	0x3f0e38e4	0.5555556
11	0x3f49b26d	0.7878788
12	0x3ede6243	0.43434343
13	0x3ede6243	0.43434343
14	0x3f7ad40a	0.97979796
15	0x3f800000	1.0
16	0x3f2d40a5	0.67676765
17	0x3f0676f3	0.5252525
18	0x3e9b26ca	0.3030303
19	0x3f540a58	0.82828283
20	0x3f7ad40a	0.97979796
21	0x3f22e8ba	0.6363636
22	0x3eafd6a0	0.34343433
23	0x3ea57eb5	0.32323232
24	0x3ef3121a	0.47474748
25	0x3f6b5029	0.9191919
26	0x3f0e38e4	0.5555556
27	0x3f471c72	0.7777778
28	0x3eba2e8c	0.36363637
29	0x3e638e39	0.22222222
30	0x3e90cede	0.28282827
31	0x3f638e39	0.8888889
32	0x3f68ba2f	0.90909094
33	0x3e1b26ca	0.15151516
34	0x3f2052bf	0.6262626
35	0x3d257eb5	0.04040404
36	0x3e1b26ca	0.15151516
37	0x3f60f83e	0.8787879
38	0x3f15fad4	0.5858586
39	0x3e814afd	0.25252524
40	0x3f4c4867	0.7979798
41	0x3ec48677	0.3838384
42	0x3ed9364e	0.42424244
43	0x3c257eb5	0.01010101
44	0x3e783e10	0.24242425
45	0x3f662434	0.8989899
46	0x3eba2e8c	0.36363637
47	0x3f707c1f	0.93939394
48	0x3f41f07c	0.75757575
49	0x3ea052bf	0.3131313
50	0x3d257eb5	0.04040404
51	0x3eafd6a0	0.34343433
52	0x3ee8ba2f	0.45454547
53	0x3f75a815	0.959596
54	0x3f75a815	0.959596
55	0x3ee8ba2f	0.45454547
56	0x3ee8ba2f	0.45454547
57	0x3f4ede62	0.8080808
58	0x3f0676f3	0.5252525
59	0x3f10cede	0.56565654
60	0x3f60f83e	0.8787879
61	0x3f3cc486	0.7373737
62	0x3d257eb5	0.04040404
63	0x3ef3121a	0.47474748
64	0x3f1364d9	0.57575756
65	0x3f10cede	0.56565654
66	0x3f2d40a5	0.67676765
67	0x3f7d6a05	0.989899
68	0x3f2fd6a0	0.68686867
69	0x3e59364e	0.21212122
70	0x3d4ede62	0.05050505
71	0x3e90cede	0.28282827
72	0x3e814afd	0.25252524
73	0x3f4ede62	0.8080808
74	0x3c257eb5	0.01010101
75	0x3ed40a58	0.41414142
76	0x3f783e10	0.969697
77	0x3f7ad40a	0.97979796
78	0x3e95fad4	0.2929293
79	0x3f03e0f8	0.5151515
80	0x3f56a053	0.83838385
81	0x3f73121a	0.94949496
82	0x3ef3121a	0.47474748
83	0x3f1890cf	0.5959596
84	0x3ec9b26d	0.3939394
85	0x3f2fd6a0	0.68686867
86	0x3f59364e	0.8484849
87	0x3ca57eb5	0.02020202
88	0x3f6b5029	0.9191919
89	0x3ef83e10	0.4848485
90	0x3e0676f3	0.13131313
91	0x3f1b26ca	0.6060606
92	0x3e814afd	0.25252524
93	0x3f783e10	0.969697
94	0x3eafd6a0	0.34343433
95	0x3f56a053	0.83838385
96	0x3ef83e10	0.4848485
97	0x3f4c4867	0.7979798
98	0x3f379891	0.7171717
99	0x3e9b26ca	0.3030303

x_bc_lb f4 [100, 1]
0	0x00000000	0.0
1	0x00000000	0.0
2	0x00000000	0.0
3	0x00000000	0.0
4	0x00000000	0.0
5	0x00000000	0.0
6	0x00000000	0.0
7	0x00000000	0.0
8	0x00000000	0.0
9	0x00000000	0.0
10	0x00000000	0.0
11	0x00000000	0.0
12	0x00000000	0.0
13	0x00000000	0.0
14	0x00000000	0.0
15	0x00000000	0.0
16	0x00000000	0.0
17	0x00000000	0.0
18	0x00000000	0.0
19	0x00000000	0.0
20	0x00000000	0.0
21	0x00000000	0.0
22	0x00000000	0.0
23	0x00000000	0.0
24	0x00000000	0.0
25	0x00000000	0.0
26	0x00000000	0.0
27	0x00000000	0.0
28	0x00000000	0.0
29	0x00000000	0.0
30	0x00000000	0.0
31	0x00000000	0.0
32	0x00000000	0.0
33	0x00000000	0.0
34	0x00000000	0.0
35	0x00000000	0.0
36	0x00000000	0.0
37	0x00000000	0.0
38	0x00000000	0.0
39	0x00000000	0.0
40	0x00000000	0.0
41	0x00000000	0.0
42	0x00000000	0.0
43	0x00000000	0.0
44	0x00000000	0.0
45	0x00000000	0.0
46	0x00000000	0.0
47	0x00000000	0.0
48	0x00000000	0.0
49	0x00000000	0.0
50	0x00000000	0.0
51	0x00000000	0.0
52	0x00000000	0.0
53	0x00000000	0.0
54	0x00000000	0.0
55	0x00000000	0.0
56	0x00000000	0.0
57	0x00000000	0.0
58	0x00000000	0.0
59	0x00000000	0.0
60	0x00000000	0.0
61	0x00000000	0.0
62	0x00000000	0.0
63	0x00000000	0.0
64	0x00000000	0.0
65	0x00000000	0.0
66	0x00000000	0.0
67	0x00000000	0.0
68	0x00000000	0.0
69	0x00000000	0.0
70	0x00000000	0.0
71	0x00000000	0.0
72	0x00000000	0.0
73	0x00000000	0.0
74	0x00000000	0.0
75	0x00000000	0.0
76	0x00000000	0.0
77	0x00000000	0.0
78	0x00000000	0.0
79	0x00000000	0.0
80	0x00000000	0.0
81	0x00000000	0.0
82	0x00000000	0.0
83	0x00000000	0.0
84	0x00000000	0.0
85	0x00000000	0.0
86	0x00000000	0.0
87	0x00000000	0.0
88	0x00000000	0.0
89	0x00000000	0.0
90	0x00000000	0.0
91	0x00000000	0.0
92	0x00000000	0.0
93	0x00000000	0.0
94	0x00000000	0.0
95	0x00000000	0.0
96	0x00000000	0.0
97	0x00000000	0.0
98	0x00000000	0.0
99	0x00000000	0.0

t_bc_lb f4 [100, 1]
0	0x00000000	0.0
1	0x3c257eb5	0.01010101
2	0x3ca57eb5	0.02020202
3	0x3cf83e10	0.030303031
4	0x3d257eb5	0.04040404
5	0x3d4ede62	0.05050505
6	0x3d783e10	0.060606062
7	0x3d90cede	0.07070707
8	0x3da57eb5	0.08080808
9	0x3dba2e8c	0.09090909
10	0x3dcede62	0.1010101
11	0x3de38e39	0.11111111
12	0x3df83e10	0.121212125
13	0x3e0676f3	0.13131313
14	0x3e10cede	0.14141414
15	0x3e1b26ca	0.15151516
16	0x3e257eb5	0.16161616
17	0x3e2fd6a0	0.17171717
18	0x3e3a2e8c	0.18181819
19	0x3e448677	0.1919192
20	0x3e4ede62	0.2020202
21	0x3e59364e	0.21212122
22	0x3e638e39	0.22222222
23	0x3e6de624	0.23232323
24	0x3e783e10	0.24242425
25	0x3e814afd	0.25252524
26	0x3e8676f3	0.26262626
27	0x3e8ba2e9	0.27272728
28	0x3e90cede	0.28282827
29	0x3e95fad4	0.2929293
30	0x3e9b26ca	0.3030303
31	0x3ea052bf	0.3131313
32	0x3ea57eb5	0.32323232
33	0x3eaaaaab	0.33333334
34	0x3eafd6a0	0.34343433
35	0x3eb50296	0.35353535
36	0x3eba2e8c	0.36363637
37	0x3ebf5a81	0.37373737
38	0x3ec48677	0.3838384
39	0x3ec9b26d	0.3939394
40	0x3ecede62	0.4040404
41	0x3ed40a58	0.41414142
42	0x3ed9364e	0.42424244
43	0x3ede6243	0.43434343
44	0x3ee38e39	0.44444445
45	0x3ee8ba2f	0.45454547
46	0x3eede624	0.46464646
47	0x3ef3121a	0.47474748
48	0x3ef83e10	0.4848485
49	0x3efd6a05	0.4949495
50	0x3f014afd	0.5050505
51	0x3f03e0f8	0.5151515
52	0x3f0676f3	0.5252525
53	0x3f090cee	0.53535354
54	0x3f0ba2e9	0.54545456
55	0x3f0e38e4	0.5555556
56	0x3f10cede	0.56565654
57	0x3f1364d9	0.57575756
58	0x3f15fad4	0.5858586
59	0x3f1890cf	0.5959596
60	0x3f1b26ca	0.6060606
61	0x3f1dbcc5	0.61616164
62	0x3f2052bf	0.6262626
63	0x3f22e8ba	0.6363636
64	0x3f257eb5	0.64646465
65	0x3f2814b0	0.65656567
66	0x3f2aaaab	0.6666667
67	0x3f2d40a5	0.67676765
68	0x3f2fd6a0	0.68686867
69	0x3f326c9b	0.6969697
70	0x3f350296	0.7070707
71	0x3f379891	0.7171717
72	0x3f3a2e8c	0.72727275
73	0x3f3cc486	0.7373737
74	0x3f3f5a81	0.74747473
75	0x3f41f07c	0.75757575
76	0x3f448677	0.7676768
77	0x3f471c72	0.7777778
78	0x3f49b26d	0.7878788
79	0x3f4c4867	0.7979798
80	0x3f4ede62	0.8080808
81	0x3f51745d	0.8181818
82	0x3f540a58	0.82828283
83	0x3f56a053	0.83838385
84	0x3f59364e	0.8484849
85	0x3f5bcc48	0.85858583
86	0x3f5e6243	0.86868685
87	0x3f60f83e	0.8787879
88	0x3f638e39	0.8888889
89	0x3f662434	0.8989899
90	0x3f68ba2f	0.90909094
91	0x3f6b5029	0.9191919
92	0x3f6de624	0.9292929
93	0x3f707c1f	0.93939394
94	0x3f73121a	0.94949496
95	0x3f75a815	0.959596
96	0x3f783e10	0.969697
97	0x3f7ad40a	0.97979796
98	0x3f7d6a05	0.989899
99	0x3f800000	1.0

x_bc_ub f4 [100, 1]
0	0x40c90fdb	6.2831855
1	0x40c90fdb	6.2831855
2	0x40c90fdb	6.2831855
3	0x40c90fdb	6.2831855
4	0x40c90fdb	6.2831855
5	0x40c90fdb	6.2831855
6	0x40c90fdb	6.2831855
7	0x40c90fdb	6.2831855
8	0x40c90fdb	6.2831855
9	0x40c90fdb	6.2831855
10	0x40c90fdb	6.2831855
11	0x40c90fdb	6.2831855
12	0x40c90fdb	6.2831855
13	0x40c90fdb	6.2831855
14	0x40c90fdb	6.2831855
15	0x40c90fdb	6.2831855
16	0x40c90fdb	6.2831855
17	0x40c90fdb	6.2831855
18	0x40c90fdb	6.2831855
19	0x40c90fdb	6.2831855
20	0x40c90fdb	6.2831855
21	0x40c90fdb	6.2831855
22	0x40c90fdb	6.2831855
23	0x40c90fdb	6.2831855
24	0x40c90fdb	6.2831855
25	0x40c90fdb	6.2831855
26	0x40c90fdb	6.2831855
27	0x40c90fdb	6.2831855
28	0x40c90fdb	6.2831855
29	0x40c90fdb	6.2831855
30	0x40c90fdb	6.2831855
31	0x40c90fdb	6.2831855
32	0x40c90fdb	6.2831855
33	0x40c90fdb	6.2831855
34	0x40c90fdb	6.2831855
35	0x40c90fdb	6.2831855
36	0x40c90fdb	6.2831855
37	0x40c90fdb	6.2831855
38	0x40c90fdb	6.2831855
39	0x40c90fdb	6.2831855
40	0x40c90fdb	6.2831855
41	0x40c90fdb	6.2831855
42	0x40c90fdb	6.2831855
43	0x40c90fdb	6.2831855
44	0x40c90fdb	6.2831855
45	0x40c90fdb	6.2831855
46	0x40c90fdb	6.2831855
47	0x40c90fdb	6.2831855
48	0x40c90fdb	6.2831855
49	0x40c90fdb	6.2831855
50	0x40c90fdb	6.2831855
51	0x40c90fdb	6.2831855
52	0x40c90fdb	6.2831855
53	0x40c90fdb	6.2831855
54	0x40c90fdb	6.2831855
55	0x40c90fdb	6.2831855
56	0x40c90fdb	6.2831855
57	0x40c90fdb	6.2831855
58	0x40c90fdb	6.2831855
59	0x40c90fdb	6.2831855
60	0x40c90fdb	6.2831855
61	0x40c90fdb	6.2831855
62	0x40c90fdb	6.2831855
63	0x40c90fdb	6.2831855
64	0x40c90fdb	6.2831855
65	0x40c90fdb	6.2831855
66	0x40c90fdb	6.2831855
67	0x40c90fdb	6.2831855
68	0x40c90fdb	6.2831855
69	0x40c90fdb	6.2831855
70	0x40c90fdb	6.2831855
71	0x40c90fdb	6.2831855
72	0x40c90fdb	6.2831855
73	0x40c90fdb	6.2831855
74	0x40c90fdb	6.2831855
75	0x40c90fdb	6.2831855
76	0x40c90fdb	6.2831855
77	0x40c90fdb	6.2831855
78	0x40c90fdb	6.2831855
79	0x40c90fdb	6.2831855
80	0x40c90fdb	6.2831855
81	0x40c90fdb	6.2831855
82	0x40c90fdb	6.2831855
83	0x40c90fdb	6.2831855
84	0x40c90fdb	6.2831855
85	0x40c90fdb	6.2831855
86	0x40c90fdb	6.2831855
87	0x40c90fdb	6.2831855
88	0x40c90fdb	6.2831855
89	0x40c90fdb	6.2831855
90	0x40c90fdb	6.2831855
91	0x40c90fdb	6.2831855
92	0x40c90fdb	6.2831855
93	0x40c90fdb	6.2831855
94	0x40c90fdb	6.2831855
95	0x40c90fdb	6.2831855
96	0x40c90fdb	6.2831855
97	0x40c90fdb	6.2831855
98	0x40c90fdb	6.2831855
99	0x40c90fdb	6.2831855

t_bc_ub f4 [100, 1]
0	0x00000000	0.0
1	0x3c257eb5	0.01010101
2	0x3ca57eb5	0.02020202
3	0x3cf83e10	0.030303031
4	0x3d257eb5	0.04040404
5	0x3d4ede62	0.05050505
6	0x3d783e10	0.060606062
7	0x3d90cede	0.07070707
8	0x3da57eb5	0.08080808
9	0x3dba2e8c	0.09090909
10	0x3dcede62	0.1010101
11	0x3de38e39	0.11111111
12	0x3df83e10	0.121212125
13	0x3e0676f3	0.13131313
14	0x3e10cede	0.14141414
15	0x3e1b26ca	0.15151516
16	0x3e257eb5	0.16161616
17	0x3e2fd6a0	0.17171717
18	0x3e3a2e8c	0.18181819
19	0x3e448677	0.1919192
20	0x3e4ede62	0.2020202
21	0x3e59364e	0.21212122
22	0x3e638e39	0.22222222
23	0x3e6de624	0.23232323
24	0x3e783e10	0.24242425
25	0x3e814afd	0.25252524
26	0x3e8676f3	0.26262626
27	0x3e8ba2e9	0.27272728
28	0x3e90cede	0.28282827
29	0x3e95fad4	0.2929293
30	0x3e9b26ca	0.3030303
31	0x3ea052bf	0.3131313
32	0x3ea57eb5	0.32323232
33	0x3eaaaaab	0.33333334
34	0x3eafd6a0	0.34343433
35	0x3eb50296	0.35353535
36	0x3eba2e8c	0.36363637
37	0x3ebf5a81	0.37373737
38	0x3ec48677	0.3838384
39	0x3ec9b26d	0.3939394
40	0x3ecede62	0.4040404
41	0x3ed40a58	0.41414142
42	0x3ed9364e	0.42424244
43	0x3ede6243	0.43434343
44	0x3ee38e39	0.44444445
45	0x3ee8ba2f	0.45454547
46	0x3eede624	0.46464646
47	0x3ef3121a	0.47474748
48	0x3ef83e10	0.4848485
49	0x3efd6a05	0.4949495
50	0x3f014afd	0.5050505
51	0x3f03e0f8	0.5151515
52	0x3f0676f3	0.5252525
53	0x3f090cee	0.53535354
54	0x3f0ba2e9	0.54545456
55	0x3f0e38e4	0.5555556
56	0x3f10cede	0.56565654
57	0x3f1364d9	0.57575756
58	0x3f15fad4	0.5858586
59	0x3f1890cf	0.5959596
60	0x3f1b26ca	0.6060606
61	0x3f1dbcc5	0.61616164
62	0x3f2052bf	0.6262626
63	0x3f22e8ba	0.6363636
64	0x3f257eb5	0.64646465
65	0x3f2814b0	0.65656567
66	0x3f2aaaab	0.6666667
67	0x3f2d40a5	0.67676765
68	0x3f2fd6a0	0.68686867
69	0x3f326c9b	0.6969697
70	0x3f350296	0.7070707
71	0x3f379891	0.7171717
72	0x3f3a2e8c	0.72727275
73	0x3f3cc486	0.7373737
74	0x3f3f5a81	0.74747473
75	0x3f41f07c	0.75757575
76	0x3f448677	0.7676768
77	0x3f471c72	0.7777778
78	0x3f49b26d	0.7878788
79	0x3f4c4867	0.7979798
80	0x3f4ede62	0.8080808
81	0x3f51745d	0.8181818
82	0x3f540a58	0.82828283
83	0x3f56a053	0.83838385
84	0x3f59364e	0.8484849
85	0x3f5bcc48	0.85858583
86	0x3f5e6243	0.86868685
87	0x3f60f83e	0.8787879
88	0x3f638e39	0.8888889
89	0x3f662434	0.8989899
90	0x3f68ba2f	0.90909094
91	0x3f6b5029	0.9191919
92	0x3f6de624	0.9292929
93	0x3f707c1f	0.93939394
94	0x3f73121a	0.94949496
95	0x3f75a815	0.959596
96	0x3f783e10	0.969697
97	0x3f7ad40a	0.97979796
98	0x3f7d6a05	0.989899
99	0x3f800000	1.0

weight f4 [50, 2]
0	0x3df0d55c	0.11759445
1	0xbd8776fa	-0.0661449
2	0x3d15c1d3	0.0365618
3	0x3de642fb	0.11243244
4	0x3f0ca0e4	0.54933
5	0xbe44ed4c	-0.19231147
6	0xbd47c97c	-0.048776135
7	0x3dd5a4c8	0.1043182
8	0xbd5e3fc1	-0.05426002
9	0x3bc3f64f	0.00598029
10	0xbe8a3b96	-0.26998585
11	0x3da65779	0.08122153
12	0x3dc5d06c	0.09658894
13	0x3da8bdba	0.082393125
14	0xbe6db92b	-0.23215167
15	0xbe772ec5	-0.24138935
16	0x3de12b97	0.10994642
17	0x3c8d3f66	0.017242145
18	0x3dd8d2d5	0.10587088
19	0xbe857508	-0.2606585
20	0xbed89e6d	-0.4230837
21	0x3d0393ac	0.032123253
22	0x3e7ee262	0.24891046
23	0xbdab6f3b	-0.08370825
24	0xbe5f6366	-0.21815261
25	0xbed96894	-0.424626
26	0xbd677eff	-0.056517597
27	0x3ddc96e4	0.107709676
28	0x3db7c27d	0.089726426
29	0x3df28bd6	0.11843078
30	0xbde7c7c1	-0.11317397
31	0xbb80db49	-0.003932391
32	0xbe1e64b1	-0.15468098
33	0xbe7255cd	-0.23665543
34	0xbea8a563	-0.3293868
35	0x3ddd2c2a	0.10799439
36	0xbd2c75c9	-0.042104516
37	0x3e49eafb	0.19718544
38	0xbec37055	-0.3817164
39	0x3e2d30db	0.16913168
40	0x3e05c2e2	0.13062623
41	0xbd9c83ae	-0.076423034
42	0x3e00d895	0.1258262
43	0xbd97b8a8	-0.07408267
44	0x3db26760	0.087111235
45	0xbc8185c2	-0.015810851
46	0x3da4169f	0.08012127
47	0xbe40d847	-0.18832503
48	0xbd2592e6	-0.040423296
49	0x3da950cb	0.08267363
50	0x3edaa919	0.42707136
51	0xbe1c83be	-0.1528463
52	0xbe08f7c6	-0.13375768
53	0x3e7262f8	0.23670566
54	0xbdb1b6f9	-0.086774774
55	0x3de8fdbb	0.1137652
56	0x3e891e02	0.26780707
57	0xbcf4bc49	-0.029874938
58	0x3d74bc16	0.059749685
59	0xbd81f3eb	-0.06345352
60	0xbcfde4d8	-0.03099291
61	0x3e42f695	0.19039376
62	0xbe843d02	-0.25827795
63	0x3d674905	0.05646612
64	0x3e1e0e5f	0.1543517
65	0x3cef189f	0.029186545
66	0xbed006a3	-0.40630063
67	0xbe5220d8	-0.20520341
68	0x3d4bc3de	0.04974734
69	0xbe4a1ea8	-0.19738257
70	0xbef71c1f	-0.48263642
71	0xbe09dfb6	-0.13464245
72	0xbddcfee3	-0.10790803
73	0xbe3b226c	-0.1827485
74	0x3de0fc80	0.109856606
75	0xbbd1e94b	-0.0064059845
76	0xbcb9027c	-0.022584192
77	0xbcca746b	-0.024713716
78	0xbe279ad0	-0.1636765
79	0xbd24adc4	-0.04020478
80	0xbd82b748	-0.063826144
81	0x3c86b933	0.016445732
82	0x3de4b273	0.11166849
83	0x3d6005e2	0.05469311
84	0x3e0046b1	0.12526967
85	0xbe496fad	-0.19671507
86	0x3f05f545	0.52327377
87	0xbcb3906c	-0.021919452
88	0x3e30c866	0.17263946
89	0x3e8d1526	0.27555197
90	0xbde2319a	-0.11044617
91	0xbf06a74b	-0.5259902
92	0x3d0a27c4	0.03372933
93	0xbe44f30e	-0.19233343
94	0x3e192ef8	0.14959323
95	0xbeb6f22d	-0.3573164
96	0xbe2d1d8c	-0.16905802
97	0xbe7ae873	-0.24502735
98	0x3e21a510	0.15785623
99	0xbe0b35f4	-0.135948

bias f4 [50]
0	0xbd8a6295	-0.06757084
1	0xbd4bedc1	-0.049787287
2	0xbc908b8d	-0.017644668
3	0xbd3789e7	-0.04480925
4	0x3c51c2d6	0.0128028
5	0x3dba23d0	0.09088862
6	0xbe0aba63	-0.13547663
7	0x3c06548a	0.008198867
8	0xbcf86d0b	-0.030325433
9	0x3b8d3998	0.004309844
10	0xbba9d5fe	-0.0051829806
11	0xbdb35ec4	-0.087583095
12	0x3d9f6112	0.077821866
13	0x3c3f86a4	0.011689816
14	0xbb3ac78f	-0.0028500294
15	0x3d7cda94	0.06173189
16	0xbca71721	-0.02039677
17	0x3ccfb7ca	0.025356192
18	0x3d976da1	0.07393957
19	0xbd071ec4	-0.032988325
20	0xbd62dd5f	-0.055386897
21	0xbd84482d	-0.06459079
22	0x3c77f2d3	0.015133577
23	0xbd87f207	-0.0663796
24	0x3d1b10fc	0.037857994
25	0xb9dc06c7	-0.0004196672
26	0x3d9a135c	0.07523224
27	0x3a67736e	0.0008829151
28	0xbd716f37	-0.058943953
29	0xbdc3423c	-0.095341176
30	0x3cfd9448	0.030954495
31	0x3ca55e01	0.020186426
32	0xbe018fc1	-0.12652494
33	0xbd3041c0	-0.043031454
34	0x3c384aa0	0.011248261
35	0xbc097963	-0.008390757
36	0x3c888bfb	0.01666831
37	0xbd83e3f6	-0.064399645
38	0x3b423fee	0.0029640156
39	0x3d08021e	0.033205144
40	0x3ca34147	0.019928588
41	0xbde622e3	-0.11237123
42	0xbd38a6f7	-0.045081105
43	0x3d35a05b	0.04434238
44	0xbdcc7394	-0.09982982
45	0x3dc47a68	0.0959366
46	0xbcf0b75c	-0.029384308
47	0xbc845ad5	-0.016156593
48	0x3de5a45a	0.11212988
49	0xbd619cc3	-0.05508114

weight f4 [50, 50]
0	0x3e115cd0	0.14195561
1	0xbe0a5770	-0.13509917
2	0xbeb6455b	-0.3559979
3	0x3e0bf837	0.13668905
4	0xbd026ce4	-0.031842127
5	0xbd818640	-0.06324434
6	0xbe54cf16	-0.20782122
7	0x3d8cc137	0.0687279
8	0x3dbb5d18	0.091486156
9	0x3daa3667	0.08311158
10	0x3dc67493	0.096902035
11	0xbe7b0162	-0.24512246
12	0xbe73f43d	-0.23823638
13	0xbd90e7cb	-0.07075461
14	0x3e4611d4	0.19342738
15	0xbd3eb61e	-0.0465604
16	0xbe86dab9	-0.26338747
17	0xbd1daa4f	-0.038492497
18	0x3e3dc311	0.18531443
19	0xbe52a0a0	-0.20569086
20	0x3cc216ef	0.023692576
21	0x3d211ed6	0.039336048
22	0x3e0b0a03	0.13578038
23	0x3d3b5843	0.04573847
24	0x3eaac3ae	0.33352417
25	0x3d6f78f9	0.058464978
26	0x3eaaafe7	0.33337328
27	0x3d5e706f	0.054306444
28	0x3e5f284a	0.21792713
29	0xbeb8151d	-0.35953608
30	0x3e85b92c	0.26117837
31	0xbda3d460	-0.07999492
32	0xbd177895	-0.03698023
33	0xbe7ced04	-0.2469979
34	0x3de14934	0.110002905
35	0x3ca5c9f2	0.020237897
36	0x3e68489d	0.2268395
37	0xbc188d72	-0.009311067
38	0xbc805468	-0.015665248
39	0x3dafd15c	0.08584854
40	0x3d9ca375	0.076483645
41	0xbe8038ee	-0.25043434
42	0xbe0343d0	-0.12818837
43	0x3c7e32eb	0.0155150695
44	0xbc160be3	-0.009158107
45	0x3dda347f	0.10654544
46	0xbd1f3426	-0.038868092
47	0xbe26614c	-0.16248053
48	0x3d96da96	0.07365911
49	0xbde081f6	-0.10962288
50	0xbe0b7044	-0.13617045
51	0xbdfc10c1	-0.12307883
52	0xbdb67174	-0.08908358
53	0xbdba8781	-0.091078766
54	0x3d614478	0.054996938
55	0xbd15323d	-0.036424864
56	0x3db9d5a4	0.09073952
57	0xbcf42e64	-0.029807277
58	0x3c992add	0.018697197
59	0x3e367320	0.17817354
60	0xbe0a7f83	-0.13525204
61	0xbeb007f1	-0.3438106
62	0x3e5b5880	0.21420479
63	0x3cc66114	0.024216212
64	0xbdc96eff	-0.09835624
65	0x3e04f485	0.12983902
66	0x3b43207e	0.0029774006
67	0x3e6fc7a0	0.23415995
68	0xbe31a5fe	-0.17348477
69	0x3cbd0e8f	0.023078231
70	0x3cf2538a	0.02958085
71	0x3e140bd3	0.14457636
72	0xbe3cfc88	-0.18455708
73	0x3e356647	0.17714797
74	0x3e1ffb47	0.15623198
75	0x3cf97f60	0.030456245
76	0xbdf5ca5e	-0.12001489
77	0xbcf904bc	-0.030397765
78	0xbc2b5983	-0.010458353
79	0x3da3cff2	0.07998647
80	0xbcc3a183	-0.023880726
81	0xbc77e211	-0.015129582
82	0x3aef65c4	0.0018264581
83	0xbe864a39	-0.26228502
84	0xbe525ad6	-0.20542464
85	0xbe11872b	-0.14211719
86	0xbdde1efd	-0.10845754
87	0xbe0b1416	-0.13581881
88	0xbe96cf7b	-0.2945517
89	0xbdf727ed	-0.12068162
90	0x3d4518f4	0.0481195
91	0xbcd214a7	-0.025644613
92	0xbe76d074	-0.24102956
93	0xbd984b2c	-0.07436213
94	0xbd9cae4a	-0.076504305
95	0xbdfdf2a8	-0.12399799
96	0x3e3ad0a9	0.1824366
97	0xbe6efe76	-0.23339257
98	0x3dcff228	0.101536095
99	0x3e6977d1	0.22799613
100	0xbddf71a2	-0.109103456
101	0x3cfc9100	0.03083086
102	0xbda2c75f	-0.07948183
103	0x3d4ed360	0.05049455
104	0x3c38de08	0.011283405
105	0x3d79230b	0.060824435
106	0xbca7f9b1	-0.020504804
107	0x3e59590e	0.21225378
108	0xbdb398ff	-0.08769416
109	0x3d1875c2	0.037221678
110	0xbe82a996	-0.2552001
111	0xbd9e9175	-0.077425875
112	0x3ded71e1	0.11593986
113	0xbd1dca82	-0.038523205
114	0x3d8ac35b	0.06775542
115	0x3d78e08a	0.060761012
116	0xbdf7dca6	-0.12102632
117	0x3dd987b9	0.1062159
118	0x3e40e41f	0.18837021
119	0x3d2cfac3	0.042231333
120	0x3dad6960	0.08467364
121	0xbcb3a7f1	-0.021930667
122	0x3c6bce8c	0.014392506
123	0xbe1dc970	-0.15408874
124	0x3d0df3f5	0.034656484
125	0xbcb65db4	-0.022261478
126	0xbe0fc53c	-0.14040083
127	0x3e468c46	0.19389448
128	0x3e8dc493	0.27689037
129	0xbde1b6c6	-0.110211894
130	0x3d3feaa1	0.04685462
131	0xbe31db59	-0.1736883
132	0x3d2cb130	0.042161167
133	0x3d55ee5c	0.05222927
134	0x3d2f4f3c	0.042800173
135	0x3dc56fed	0.09640489
136	0x3ddc29bd	0.107501484
137	0xbcc97102	-0.02459002
138	0x3cb2defc	0.021834843
139	0x3e53c5e7	0.20680963
140	0xbdbadbd4	-0.0912396
141	0x3d3cdd79	0.04610965
142	0xbd9c73b0	-0.07639253
143	0xbb919740	-0.0044430792
144	0x3da2d6ab	0.07951101
145	0x3e1a049c	0.15040821
146	0x3c85bbe4	0.016324945
147	0xbeb12d6f	-0.34604976
148	0x3cf002d6	0.029298227
149	0x3e1a9925	0.15097483
150	0xbe53cc45	-0.20683391
151	0x3cfe2317	0.031022592
152	0x3e13169f	0.14364098
153	0xbd411f6c	-0.047149107
154	0xbc8dd68b	-0.017314216
155	0x3e023650	0.12716031
156	0x3ea7b437	0.3275468
157	0x3d110a3b	0.035410147
158	0xbdee2960	-0.116289854
159	0x3d790501	0.060795788
160	0xbdf3c846	-0.119034335
161	0xbc32bea2	-0.010909708
162	0x3e015e81	0.12633707
163	0xbd04f595	-0.032460768
164	0x3cbe61b7	0.023239953
165	0x3dc38d69	0.09548456
166	0x3cdf8846	0.02728666
167	0xbc831d0a	-0.016005058
168	0xbe35a74e	-0.17739603
169	0x3dffd5ab	0.12491926
170	0xbe2af584	-0.1669522
171	0x3e4a1947	0.19736205
172	0x3b37bce4	0.0028036172
173	0x3eb18b36	0.34676522
174	0x3e675f74	0.22595006
175	0xbd84d9e4	-0.06486872
176	0x3d25e09d	0.04049741
177	0x3db3a735	0.087721266
178	0x3de31778	0.11088461
179	0x3e9271a9	0.2860234
180	0xbda5984d	-0.0808569
181	0x3db365f7	0.087596826
182	0xbe2e3c4d	-0.1701519
183	0xbe421020	-0.18951464
184	0xbe3172f8	-0.17329013
185	0xbd04666d	-0.032324243
186	0xbe8af491	-0.27139714
187	0x3a946f83	0.0011324737
188	0x3e50d5fd	0.2039413
189	0x3d4193fa	0.047260262
190	0xbe01515c	-0.12628692
191	0x3cc8f9b2	0.024533127
192	0xbe07669e	-0.13222739
193	0x3d841b25	0.0645049
194	0x3e207081	0.15667917
195	0xbe3555a2	-0.17708448
196	0x3a2aa588	0.00065096514
197	0x3dd5a096	0.1043102
198	0xbde82a6f	-0.113362186
199	0x3e1601a7	0.14649068
200	0x3d50900d	0.050918628
201	0xbd39577d	-0.04524945
202	0x3d8c1c7f	0.06841373
203	0x3c297a1d	0.0103440555
204	0x3e806c1a	0.25082475
205	0xbe5a092d	-0.21292563
206	0x3e11e349	0.14246859
207	0x3e6e9fd0	0.23303151
208	0xbcc52713	-0.024066484
209	0xbe155cda	-0.14586201
210	0x3e76beb2	0.24096182
211	0xbe613bd6	-0.21995482
212	0x3b7c2a2f	0.0038477292
213	0xbdb4e3ac	-0.088324875
214	0x3cdf37f6	0.027248364
215	0xbd5e5533	-0.05428047
216	0xbe13b167	-0.14423142
217	0x3d814bd4	0.06313291
218	0xbda30a81	-0.07960988
219	0xbdc4c191	-0.09607232
220	0xbd2b0f97	-0.041762915
221	0x3da7b7e5	0.08189372
222	0xbdd37edc	-0.10326931
223	0xbe0a3a97	-0.13498913
224	0x3df0de30	0.11761129
225	0x3d5955f5	0.05306049
226	0xbdeace5b	-0.114651404
227	0x3e09ed92	0.13469532
228	0xbc8c39da	-0.01711743
229	0x3e049a14	0.12949401
230	0xbd178291	-0.036989752
231	0xbe50ece6	-0.2040287
232	0xbdf2a3d9	-0.11847658
233	0x3e14a125	0.14514597
234	0xbe43dd36	-0.19127354
235	0x3dcf2678	0.10114759
236	0xbdb126b2	-0.08649959
237	0x3cd7fa37	0.026364429
238	0x3da4148b	0.08011731
239	0x3bb292e7	0.005449641
240	0xbddb3739	-0.10703892
241	0xbe7cd838	-0.24691856
242	0xbd232b45	-0.039836187
243	0x3e161a14	0.14658386
244	0xbe3aa1ad	-0.18225737
245	0x3df2a2b1	0.11847437
246	0x3d0eb963	0.034844767
247	0x3dcbe86a	0.09956439
248	0x3dd2a929	0.10286171
249	0x3c82bd5c	0.015959434
250	0xbdd65e0e	-0.10467158
251	0xbe166650	-0.14687467
252	0xbdf0a800	-0.117507935
253	0x3e249870	0.16073775
254	0xbc024d89	-0.007953056
255	0xbd0f3c91	-0.03496987

bias f4 [50]
0	0x3d6d9fcb	0.05801372
1	0x3c708e2f	0.014682337
2	0x3bfa11d9	0.007631522
3	0xbcc72091	-0.024307521
4	0x3c901158	0.017586395
5	0xbc0b3a4c	-0.008497786
6	0x3c845cbc	0.0161575
7	0xba8a94ed	-0.0010572948
8	0x3c164202	0.009171011
9	0xbd091884	-0.033470646
10	0x3c97b8b3	0.018520689
11	0x3c65afc7	0.014018959
12	0x3b8c16f9	0.0042751995
13	0x3ca5b1ef	0.020226447
14	0xbc09d495	-0.0084125
15	0xbcc86597	-0.024462504
16	0x3d324701	0.043524746
17	0xbcbc31f7	-0.022973044
18	0x3c0da522	0.008645328
19	0x3d473fae	0.048644714
20	0x3d5ef17f	0.054429527
21	0x3ccdae06	0.025107395
22	0xbda31dda	-0.07964678
23	0x3bf3952d	0.0074335546
24	0xbaab9f82	-0.0013093802
25	0x3da4978f	0.0803672
26	0xbded6414	-0.11591354
27	0xbd309e28	-0.04311958
28	0xbd18e8dc	-0.037331447
29	0x3b4fffc0	0.0031738132
30	0xbdb552b6	-0.088536665
31	0x3c4d9bd4	0.012549359
32	0xbbe1ee3f	-0.006894856
33	0xbcd5ca56	-0.026097458
34	0x3d1c5a8f	0.0381723
35	0x3cb8c571	0.022555085
36	0x3cd9ddc6	0.026595008
37	0x3d5e623c	0.054292902
38	0x3c8359b5	0.016033987
39	0x3c6f5ece	0.014610006
40	0xbbdf36ba	-0.006811944
41	0xbccee9ee	-0.02525803
42	0x3b1f982e	0.002435218
43	0x3c7d9cfc	0.0154793225
44	0xbc0d0b5c	-0.008608665
45	0x3b85ea53	0.0040867715
46	0x3c22639e	0.009911446
47	0x3b7f00a8	0.0038910303
48	0x3cfb4c56	0.030676048
49	0xbc857a2f	-0.016293613

weight f4 [50, 50]
0	0xbe7d71c3	-0.24750428
1	0x3dd270e1	0.10275436
2	0xbdb1673d	-0.08662269
3	0xbe163310	-0.14667916
4	0xbda74399	-0.0816719
5	0x3ead434a	0.338404
6	0x3de6b587	0.11265092
7	0x3d4c3257	0.049852695
8	0xbe599eb1	-0.21251942
9	0xbe1c0823	-0.15237479
10	0x3e9aa9ed	0.30207768
11	0xbe47977a	-0.19491377
12	0x3d120785	0.035651702
13	0x3e565137	0.20929419
14	0xbe2b38e8	-0.16720927
15	0x3ecc5b76	0.3991353
16	0xbdfbb353	-0.12290063
17	0xbe56da28	-0.20981658
18	0xbcbb7476	-0.022882681
19	0x3e72c606	0.23708352
20	0x3dcb38ae	0.0992292
21	0xbdef11b5	-0.11673299
22	0x3d674ef5	0.056471784
23	0xbbd659b8	-0.006541457
24	0xbb9b036f	-0.004730634
25	0x3e2e8d97	0.170462
26	0xbd1f9cc4	-0.038967863
27	0xbe3f485e	-0.1867995
28	0x3e4bb334	0.1989258
29	0x3deda973	0.116045855
30	0x3d555125	0.05207934
31	0x3c2279ae	0.009916706
32	0x3e536c3a	0.20646754
33	0xbd87c822	-0.06629969
34	0xbe20d047	-0.15704452
35	0xbd5d1199	-0.05397186
36	0xbd553d32	-0.052060314
37	0x3dc7eb0e	0.0976163
38	0x3e3785e5	0.1792217
39	0x3eb57499	0.3544052
40	0x3da3245b	0.07965919
41	0x3d9936fb	0.0748119
42	0x3e15e541	0.14638235
43	0xbe6b9896	-0.23007426
44	0x3de67950	0.11253607
45	0x3eb51bd0	0.35372782
46	0xbe0fbe3c	-0.14037412
47	0xbe347b70	-0.17625213
48	0xbe9cfbe4	-0.30660927
49	0x3d9a8671	0.07545174
50	0xbe83666f	-0.25664088
51	0xbc2c401c	-0.010513332
52	0xbdef5796	-0.116866276
53	0x3daa3d52	0.08312477
54	0x3c3b3273	0.011425602
55	0x3dc72bc6	0.09725146
56	0xbe9e57f2	-0.30926472
57	0x3e7d2292	0.24720219
58	0x3e15f17f	0.14642905
59	0x3d8c8e61	0.06863094
60	0x3e0be0ae	0.13659927
61	0x3de2130b	0.110387884
62	0x3e129d0a	0.14317718
63	0x3e174f1a	0.14776269
64	0xbd5024ca	-0.050816335
65	0x3dc84f3f	0.0978074
66	0x3d5cce14	0.05390747
67	0xbcc4c5f4	-0.024020173
68	0x3e0fecc2	0.1405516
69	0x3d019d66	0.031644247
70	0x3e8cc58e	0.27494472
71	0xbe2a9f0e	-0.16662237
72	0x3cc4f786	0.02404381
73	0xbe110980	-0.1416378
74	0x3d28c6b0	0.04120511
75	0xbd303174	-0.043015912
76	0xbe733f46	-0.23754606
77	0xbc968b96	-0.018377107
78	0x3dc952fb	0.098302804
79	0xbcb3a514	-0.021929301
80	0xbe1e74ed	-0.15474291
81	0x3b0fb668	0.002192879
82	0xbd425d41	-0.047452215
83	0x3ddfa069	0.10919268
84	0x3e54328e	0.2072241
85	0xbda73bee	-0.081657276
86	0x3dbd017d	0.092287995
87	0xbcd4f278	-0.025994524
88	0xbddb0df7	-0.10696023
89	0xbdef6819	-0.11689777
90	0xbe856e52	-0.2606073
91	0xbdda7724	-0.106672555
92	0x3e47fc02	0.19529727
93	0xbd50df9e	-0.050994508
94	0xbe1082fd	-0.14112468
95	0x3e8196a5	0.25310245
96	0x3d331b9f	0.043727513
97	0xbe952198	-0.29127192
98	0xbd2b01c9	-0.04174975
99	0x3db3bef5	0.087766565
100	0x3dd12e52	0.10213913
101	0x3e4b0b01	0.19828416
102	0xbcebc8f0	-0.028782338
103	0x3b2f29cf	0.00267278
104	0xbd64a922	-0.05582536
105	0xbea95a26	-0.3307659
106	0xbc861802	-0.01636887
107	0x3cbb60bb	0.022873273
108	0xbc60c588	-0.01371897
109	0x3da46702	0.0802746
110	0x3e392fff	0.18084715
111	0x3d42ed91	0.047589842
112	0x3e743eef	0.23852132
113	0x3dbaceec	0.091214985
114	0x3db73e1c	0.08947393
115	0x3e0453ac	0.12922543
116	0x3d3fee50	0.046858132
117	0x3dff7459	0.124733634
118	0x3d6a1746	0.0571511
119	0x3e18a16b	0.14905326
120	0x3e087f65	0.13329847
121	0x3e3bf316	0.18354449
122	0xbd524d05	-0.051342983
123	0x3e9a0c88	0.30087686
124	0xbe533621	-0.20626117
125	0xbde86059	-0.11346502
126	0xbe028882	-0.12747386
127	0xbdd27d57	-0.10277813
128	0xbe9a1a6f	-0.30098292
129	0x3e031728	0.12801802
130	0xbe3e2fff	-0.18572997
131	0x3df40f1d	0.11916945
132	0xbbb79a40	-0.005603105
133	0xbde5e497	-0.11225241
134	0xbe19904d	-0.14996453
135	0x3c829c01	0.01594353
136	0x3e6eb9a6	0.23313007
137	0xbe2bf1de	-0.16791484
138	0xbd644bf2	-0.05573649
139	0xbd94f8ed	-0.07274041
140	0xbd59c0fc	-0.05316256
141	0xbe5bc2fc	-0.214611
142	0x3d8b8750	0.06812918
143	0xbe60ba7e	-0.21946141
144	0x3af7bf7c	0.0018901671
145	0xbe6c88c1	-0.23099042
146	0x3e8e91a6	0.27845496
147	0xbe22698f	-0.1586058
148	0x3e3cab33	0.18424682
149	0xbe1e08c9	-0.15433039
150	0xbe96f8e8	-0.29486775
151	0x3e33dcb5	0.17564662
152	0x3d990efa	0.0747356
153	0x3e27193e	0.16318223
154	0x3af681a4	0.0018806946
155	0x3c7d7aa8	0.015471138
156	0xbb475062	-0.0030412902
157	0xbe184e85	-0.14873703
158	0xbe0eb3c1	-0.13935758
159	0xbcfa0cf5	-0.030523757
160	0xbd67612f	-0.056489166
161	0xbe04cbc0	-0.1296835
162	0x3e0f77c9	0.14010538
163	0xbe098599	-0.1342987
164	0xbdb47b13	-0.08812537
165	0x3e18ca99	0.14921035
166	0x3c7d3fd5	0.015457113
167	0x3e3348f1	0.17508294
168	0xbe1156ce	-0.1419327
169	0xbd8462cc	-0.064641565
170	0xbdf75f6d	-0.12078748
171	0x3ce02031	0.0273591
172	0xbd5f52c8	-0.054522306
173	0x3e00f663	0.12593989
174	0xbdd29c7d	-0.10283754
175	0xbdb9b63e	-0.09067963
176	0x3de382f7	0.11108964
177	0xbdd80bd9	-0.10549135
178	0x3d035b0b	0.032069247
179	0xbce794dd	-0.028269226
180	0x3d9fde00	0.07806015
181	0xbe864a70	-0.26228666
182	0x3d74c51d	0.059758294
183	0x3e960bc1	0.29305843
184	0xbe5de588	-0.2166959
185	0x3cd9c4c0	0.026583076
186	0xbe479501	-0.19490434
187	0x3c5163b8	0.012780122
188	0x3dddd12f	0.10830914
189	0x3e541be1	0.2071376
190	0x3e6b043a	0.22950831
191	0xbd18b3f8	-0.037281007
192	0xbd777634	-0.06041546
193	0xbea0bb4c	-0.31392896
194	0x3e1abc74	0.15110952
195	0xbe7aae86	-0.24480638
196	0x3e32c2fc	0.17457193
197	0xbccedc47	-0.02525152
198	0xbd19807b	-0.037476044
199	0xbe77d979	-0.24204053
200	0xbb92a080	-0.0044746995
201	0xbdcae918	-0.0990774
202	0xbdd1025e	-0.1020553
203	0x3d35c5f9	0.044378255
204	0xbe79dbfe	-0.24400327
205	0x3dc83878	0.097763956
206	0xbd941c7d	-0.07231996
207	0xbceee0d0	-0.029159933
208	0x3d801cc8	0.062554896
209	0x3d8228df	0.06355452
210	0xbe274e33	-0.16338424
211	0xbde472b3	-0.1115469
212	0xbe61aaa4	-0.2203775
213	0x3deb5682	0.114911094
214	0x3e030d4e	0.12798044
215	0xbddaaa0a	-0.106769636
216	0x3e0d8feb	0.13824432
217	0xbe0fc127	-0.14038526
218	0x3e52de05	0.20592506
219	0xbcd339e8	-0.025784448
220	0x3e9f0276	0.31056565
221	0x3d2d91b2	0.042375274
222	0xbea0f37e	-0.3143577
223	0x3dbf4ded	0.09341035
224	0x3e235f6b	0.15954368
225	0xbdafe85f	-0.08589243
226	0xbe90f7ca	-0.28314048
227	0x3e897993	0.26850566
228	0x3e1b3779	0.1515788
229	0x3dc26b64	0.094931394
230	0x3ca77c38	0.020444974
231	0x3d53ec5d	0.051739085
232	0xbe1a1c17	-0.15049778
233	0xbe56d926	-0.20981273
234	0xbc4400a8	-0.011963047
235	0x3dbe936e	0.09305464
236	0x3dea6c41	0.11446429
237	0x3dc1c170	0.094607234
238	0xbe6024cf	-0.21889041
239	0xbe46d823	-0.19418387
240	0xbd6dc415	-0.058048327
241	0x3c416042	0.011802735
242	0xbdee06e8	-0.11622411
243	0xbe1fa011	-0.15588404
244	0xbd8c97e6	-0.0686491
245	0x3e215f64	0.15759045
246	0x3e1de734	0.15420228
247	0xbe4b6eeb	-0.1986653
248	0x3bb0445c	0.005379243
249	0x3de8ac06	0.11360936
250	0x3e7fdcd3	0.24986582
251	0x3e331c9f	0.17491387
252	0x3da87eb2	0.0822729
253	0x3e189d55	0.14903767
254	0xbe5301a1	-0.2060609
255	0xbdf865c5	-0.12128786

bias f4 [50]
0	0xbcdb2d0a	-0.026754875
1	0x378cfcf0	1.6807084e-05
2	0x3d7d7945	0.06188323
3	0x3c9e4d77	0.019324047
4	0xbcccd211	-0.025002511
5	0xbc16aeb5	-0.009196927
6	0xbc4bc0d4	-0.0124361105
7	0x3ac398b4	0.0014922828
8	0x3d02cdd5	0.031934578
9	0x3d183fb6	0.037170134
10	0xbcac51e5	-0.021035144
11	0xbc70d598	-0.014699362
12	0x3cff7d45	0.031187663
13	0x3ca25e50	0.019820362
14	0xbc00cec6	-0.007861799
15	0xb9c01928	-0.00036639837
16	0xbd57db42	-0.052699335
17	0x3b722aae	0.0036951709
18	0x3b81d72b	0.0039624176
19	0x3c2ad594	0.010426898
20	0x3b8aac0d	0.004231936
21	0x3b1f820e	0.0024338993
22	0x3bc96343	0.006145866
23	0x3bc1b165	0.0059110397
24	0x3d1e8618	0.0387021
25	0x3c936b51	0.017995508
26	0xbc1d5000	-0.009601593
27	0x3c2eaa7c	0.010660764
28	0x3ac9712d	0.0015368812
29	0x3b61db58	0.0034463014
30	0xbc1c24bc	-0.0095302425
31	0xbcb1f98a	-0.021725435
32	0x3c460327	0.0120857125
33	0xbbb7ad44	-0.0056053717
34	0xbb8409c1	-0.004029483
35	0x3c7460f7	0.014915696
36	0x3bbee315	0.00582541
37	0x3c027cd4	0.007964332
38	0x3c3f3be5	0.011671995
39	0xbce9379d	-0.028468901
40	0x3d74946f	0.05971187
41	0xbc89ae64	-0.016806789
42	0xbce5fc5a	-0.028074432
43	0x3aa605d6	0.0012666534
44	0xbce7d151	-0.028298052
45	0xbbc14a2b	-0.005898734
46	0x3ab56677	0.0013839741
47	0xbcbfa794	-0.023395337
48	0xbc7c63a6	-0.015404617
49	0x3c25b1f8	0.010113232
