pbc_examples/saved_models/convection_beta-1.0_layers-50,50,50,50,1_L-0.001_WD-0_init-normal_seed0.pt (torch, 114029 bytes, 36 tensors)

x_u f4 [256, 1]
0.0 0.024543693 0.049087387 0.07363108 0.09817477 0.12271846 0.14726216 0.17180584
0.19634955 0.22089323 0.24543692 0.2699806 0.2945243 0.319068 0.3436117 0.3681554
0.3926991 0.41724277 0.44178647 0.46633017 0.49087384 0.5154175 0.5399612 0.5645049
0.5890486 0.6135923 0.638136 0.6626797 0.6872234 0.7117671 0.7363108 0.7608545
0.7853982 0.8099418 0.83448553 0.85902923 0.88357294 0.90811664 0.93266034 0.957204
0.9817477 1.0062914 1.030835 1.0553788 1.0799224 1.1044662 1.1290098 1.1535536
1.1780972 1.2026409 1.2271847 1.2517283 1.276272 1.3008157 1.3253593 1.3499031
1.3744467 1.3989905 1.4235342 1.4480779 1.4726216 1.4971652 1.521709 1.5462526
1.5707964 1.59534 1.6198837 1.6444274 1.6689711 1.6935148 1.7180585 1.7426022
1.7671459 1.7916895 1.8162333 1.8407769 1.8653207 1.8898643 1.914408 1.9389517
1.9634954 1.9880391 2.0125828 2.0371265 2.06167 2.0862138 2.1107576 2.1353014
2.1598449 2.1843886 2.2089324 2.233476 2.2580197 2.2825634 2.3071072 2.3316507
2.3561945 2.3807383 2.4052818 2.4298255 2.4543693 2.478913 2.5034566 2.5280004
2.552544 2.5770876 2.6016314 2.6261752 2.6507187 2.6752625 2.6998062 2.72435
2.7488935 2.7734373 2.797981 2.8225245 2.8470683 2.871612 2.8961558 2.9206994
2.9452431 2.969787 2.9943304 3.0188742 3.043418 3.0679617 3.0925052 3.117049
3.1415927 3.1661363 3.19068 3.2152238 3.2397673 3.264311 3.2888548 3.3133986
3.3379421 3.362486 3.3870296 3.4115732 3.436117 3.4606607 3.4852045 3.509748
3.5342917 3.5588355 3.583379 3.6079228 3.6324666 3.6570103 3.6815538 3.7060976
3.7306414 3.755185 3.7797287 3.8042724 3.828816 3.8533597 3.8779035 3.9024472
3.9269907 3.9515345 3.9760783 4.000622 4.0251656 4.0497093 4.074253 4.098797
4.12334 4.147884 4.1724277 4.1969714 4.221515 4.246059 4.2706027 4.295146
4.3196898 4.3442335 4.3687773 4.393321 4.417865 4.4424086 4.466952 4.4914956
4.5160394 4.540583 4.565127 4.5896707 4.6142144 4.6387577 4.6633015 4.687845
4.712389 4.7369328 4.7614765 4.7860203 4.8105636 4.8351073 4.859651 4.884195
4.9087386 4.9332824 4.957826 4.9823694 5.006913 5.031457 5.0560007 5.0805445
5.105088 5.1296315 5.1541753 5.178719 5.203263 5.2278066 5.2523503 5.276894
5.3014374 5.325981 5.350525 5.3750687 5.3996124 5.424156 5.4487 5.473243
5.497787 5.5223308 5.5468745 5.5714183 5.595962 5.620506 5.645049 5.669593
5.6941366 5.7186804 5.743224 5.767768 5.7923117 5.816855 5.8413987 5.8659425
5.8904862 5.91503 5.939574 5.9641175 5.988661 6.0132046 6.0377483 6.062292
6.086836 6.1113796 6.1359234 6.1604667 6.1850104 6.209554 6.234098 6.2586417
00000000: 0000 0000 db0f c93c db0f 493d e4cb 963d
00000010: db0f c93d d153 fb3d e4cb 163e dfed 2f3e
00000020: db0f 493e d631 623e d153 7b3e e63a 8a3e
00000030: e4cb 963e e25c a33e dfed af3e dd7e bc3e
00000040: db0f c93e d8a0 d53e d631 e23e d4c2 ee3e
00000050: d153 fb3e 67f2 033f e63a 0a3f 6583 103f
00000060: e4cb 163f 6314 1d3f e25c 233f 60a5 293f
00000070: dfed 2f3f 5e36 363f dd7e 3c3f 5cc7 423f
00000080: db0f 493f 5958 4f3f d8a0 553f 57e9 5b3f
00000090: d631 623f 557a 683f d4c2 6e3f 520b 753f
000000a0: d153 7b3f 28ce 803f 67f2 833f a716 873f
000000b0: e63a 8a3f 265f 8d3f 6583 903f a5a7 933f
000000c0: e4cb 963f 23f0 993f 6314 9d3f a238 a03f
000000d0: e25c a33f 2181 a63f 60a5 a93f a0c9 ac3f
000000e0: dfed af3f 1f12 b33f 5e36 b63f 9e5a b93f
000000f0: dd7e bc3f 1ca3 bf3f 5cc7 c23f 9beb c53f
00000100: db0f c93f 1a34 cc3f 5958 cf3f 997c d23f
00000110: d8a0 d53f 18c5 d83f 57e9 db3f 970d df3f
00000120: d631 e23f 1556 e53f 557a e83f 949e eb3f
00000130: d4c2 ee3f 13e7 f13f 520b f53f 922f f83f
00000140: d153 fb3f 1178 fe3f 28ce 0040 4860 0240
00000150: 67f2 0340 8784 0540 a716 0740 c7a8 0840
00000160: e63a 0a40 06cd 0b40 265f 0d40 45f1 0e40
00000170: 6583 1040 8515 1240 a5a7 1340 c439 1540
00000180: e4cb 1640 045e 1840 23f0 1940 4382 1b40
00000190: 6314 1d40 83a6 1e40 a238 2040 c2ca 2140
000001a0: e25c 2340 01ef 2440 2181 2640 4113 2840
000001b0: 60a5 2940 8037 2b40 a0c9 2c40 c05b 2e40
000001c0: dfed 2f40 ff7f 3140 1f12 3340 3ea4 3440
000001d0: 5e36 3640 7ec8 3740 9e5a 3940 bdec 3a40
000001e0: dd7e 3c40 fd10 3e40 1ca3 3f40 3c35 4140
000001f0: 5cc7 4240 7c59 4440 9beb 4540 bb7d 4740
00000200: db0f 4940 faa1 4a40 1a34 4c40 3ac6 4d40
00000210: 5958 4f40 79ea 5040 997c 5240 b90e 5440
00000220: d8a0 5540 f832 5740 18c5 5840 3757 5a40
00000230: 57e9 5b40 777b 5d40 970d 5f40 b69f 6040
00000240: d631 6240 f6c3 6340 1556 6540 35e8 6640
00000250: 557a 6840 750c 6a40 949e 6b40 b430 6d40
00000260: d4c2 6e40 f354 7040 13e7 7140 3379 7340
00000270: 520b 7540 729d 7640 922f 7840 b2c1 7940
00000280: d153 7b40 f1e5 7c40 1178 7e40 1805 8040
00000290: 28ce 8040 3897 8140 4860 8240 5829 8340
000002a0: 67f2 8340 77bb 8440 8784 8540 974d 8640
000002b0: a716 8740 b7df 8740 c7a8 8840 d671 8940
000002c0: e63a 8a40 f603 8b40 06cd 8b40 1696 8c40
000002d0: 265f 8d40 3628 8e40 45f1 8e40 55ba 8f40
000002e0: 6583 9040 754c 9140 8515 9240 95de 9240
000002f0: a5a7 9340 b470 9440 c439 9540 d402 9640
00000300: e4cb 9640 f494 9740 045e 9840 1427 9940
00000310: 23f0 9940 33b9 9a40 4382 9b40 534b 9c40
00000320: 6314 9d40 73dd 9d40 83a6 9e40 926f 9f40
00000330: a238 a040 b201 a140 c2ca a140 d293 a240
00000340: e25c a340 f125 a440 01ef a440 11b8 a540
00000350: 2181 a640 314a a740 4113 a840 51dc a840
00000360: 60a5 a940 706e aa40 8037 ab40 9000 ac40
00000370: a0c9 ac40 b092 ad40 c05b ae40 cf24 af40
00000380: dfed af40 efb6 b040 ff7f b140 0f49 b240
00000390: 1f12 b340 2fdb b340 3ea4 b440 4e6d b540
000003a0: 5e36 b640 6eff b640 7ec8 b740 8e91 b840
000003b0: 9e5a b940 ad23 ba40 bdec ba40 cdb5 bb40
000003c0: dd7e bc40 ed47 bd40 fd10 be40 0dda be40
000003d0: 1ca3 bf40 2c6c c040 3c35 c140 4cfe c140
000003e0: 5cc7 c240 6c90 c340 7c59 c440 8b22 c540
000003f0: 9beb c540 abb4 c640 bb7d c740 cb46 c840

t_u f4 [256, 1]
0.0 0.0 0.0 0.0 0.0 0.0 0.0 0.0
0.0 0.0 0.0 0.0 0.0 0.0 0.0 0.0
0.0 0.0 0.0 0.0 0.0 0.0 0.0 0.0
0.0 0.0 0.0 0.0 0.0 0.0 0.0 0.0
0.0 0.0 0.0 0.0 0.0 0.0 0.0 0.0
0.0 0.0 0.0 0.0 0.0 0.0 0.0 0.0
0.0 0.0 0.0 0.0 0.0 0.0 0.0 0.0
0.0 0.0 0.0 0.0 0.0 0.0 0.0 0.0
0.0 0.0 0.0 0.0 0.0 0.0 0.0 0.0
0.0 0.0 0.0 0.0 0.0 0.0 0.0 0.0
0.0 0.0 0.0 0.0 0.0 0.0 0.0 0.0
0.0 0.0 0.0 0.0 0.0 0.0 0.0 0.0
0.0 0.0 0.0 0.0 0.0 0.0 0.0 0.0
0.0 0.0 0.0 0.0 0.0 0.0 0.0 0.0
0.0 0.0 0.0 0.0 0.0 0.0 0.0 0.0
0.0 0.0 0.0 0.0 0.0 0.0 0.0 0.0
0.0 0.0 0.0 0.0 0.0 0.0 0.0 0.0
0.0 0.0 0.0 0.0 0.0 0.0 0.0 0.0
0.0 0.0 0.0 0.0 0.0 0.0 0.0 0.0
0.0 0.0 0.0 0.0 0.0 0.0 0.0 0.0
0.0 0.0 0.0 0.0 0.0 0.0 0.0 0.0
0.0 0.0 0.0 0.0 0.0 0.0 0.0 0.0
0.0 0.0 0.0 0.0 0.0 0.0 0.0 0.0
0.0 0.0 0.0 0.0 0.0 0.0 0.0 0.0
0.0 0.0 0.0 0.0 0.0 0.0 0.0 0.0
0.0 0.0 0.0 0.0 0.0 0.0 0.0 0.0
0.0 0.0 0.0 0.0 0.0 0.0 0.0 0.0
0.0 0.0 0.0 0.0 0.0 0.0 0.0 0.0
0.0 0.0 0.0 0.0 0.0 0.0 0.0 0.0
0.0 0.0 0.0 0.0 0.0 0.0 0.0 0.0
0.0 0.0 0.0 0.0 0.0 0.0 0.0 0.0
0.0 0.0 0.0 0.0 0.0 0.0 0.0 0.0
00000000: 0000 0000 0000 0000 0000 0000 0000 0000
00000010: 0000 0000 0000 0000 0000 0000 0000 0000
00000020: 0000 0000 0000 0000 0000 0000 0000 0000
00000030: 0000 0000 0000 0000 0000 0000 0000 0000
00000040: 0000 0000 0000 0000 0000 0000 0000 0000
00000050: 0000 0000 0000 0000 0000 0000 0000 0000
00000060: 0000 0000 0000 0000 0000 0000 0000 0000
00000070: 0000 0000 0000 0000 0000 0000 0000 0000
00000080: 0000 0000 0000 0000 0000 0000 0000 0000
00000090: 0000 0000 0000 0000 0000 0000 0000 0000
000000a0: 0000 0000 0000 0000 0000 0000 0000 0000
000000b0: 0000 0000 0000 0000 0000 0000 0000 0000
000000c0: 0000 0000 0000 0000 0000 0000 0000 0000
000000d0: 0000 0000 0000 0000 0000 0000 0000 0000
000000e0: 0000 0000 0000 0000 0000 0000 0000 0000
000000f0: 0000 0000 0000 0000 0000 0000 0000 0000
00000100: 0000 0000 0000 0000 0000 0000 0000 0000
00000110: 0000 0000 0000 0000 0000 0000 0000 0000
00000120: 0000 0000 0000 0000 0000 0000 0000 0000
00000130: 0000 0000 0000 0000 0000 0000 0000 0000
00000140: 0000 0000 0000 0000 0000 0000 0000 0000
00000150: 0000 0000 0000 0000 0000 0000 0000 0000
00000160: 0000 0000 0000 0000 0000 0000 0000 0000
00000170: 0000 0000 0000 0000 0000 0000 0000 0000
00000180: 0000 0000 0000 0000 0000 0000 0000 0000
00000190: 0000 0000 0000 0000 0000 0000 0000 0000
000001a0: 0000 0000 0000 0000 0000 0000 0000 0000
000001b0: 0000 0000 0000 0000 0000 0000 0000 0000
000001c0: 0000 0000 0000 0000 0000 0000 0000 0000
000001d0: 0000 0000 0000 0000 0000 0000 0000 0000
000001e0: 0000 0000 0000 0000 0000 0000 0000 0000
000001f0: 0000 0000 0000 0000 0000 0000 0000 0000
00000200: 0000 0000 0000 0000 0000 0000 0000 0000
00000210: 0000 0000 0000 0000 0000 0000 0000 0000
00000220: 0000 0000 0000 0000 0000 0000 0000 0000
00000230: 0000 0000 0000 0000 0000 0000 0000 0000
00000240: 0000 0000 0000 0000 0000 0000 0000 0000
00000250: 0000 0000 0000 0000 0000 0000 0000 0000
00000260: 0000 0000 0000 0000 0000 0000 0000 0000
00000270: 0000 0000 0000 0000 0000 0000 0000 0000
00000280: 0000 0000 0000 0000 0000 0000 0000 0000
00000290: 0000 0000 0000 0000 0000 0000 0000 0000
000002a0: 0000 0000 0000 0000 0000 0000 0000 0000
000002b0: 0000 0000 0000 0000 0000 0000 0000 0000
000002c0: 0000 0000 0000 0000 0000 0000 0000 0000
000002d0: 0000 0000 0000 0000 0000 0000 0000 0000
000002e0: 0000 0000 0000 0000 0000 0000 0000 0000
000002f0: 0000 0000 0000 0000 0000 0000 0000 0000
00000300: 0000 0000 0000 0000 0000 0000 0000 0000
00000310: 0000 0000 0000 0000 0000 0000 0000 0000
00000320: 0000 0000 0000 0000 0000 0000 0000 0000
00000330: 0000 0000 0000 0000 0000 0000 0000 0000
00000340: 0000 0000 0000 0000 0000 0000 0000 0000
00000350: 0000 0000 0000 0000 0000 0000 0000 0000
00000360: 0000 0000 0000 0000 0000 0000 0000 0000
00000370: 0000 0000 0000 0000 0000 0000 0000 0000
00000380: 0000 0000 0000 0000 0000 0000 0000 0000
00000390: 0000 0000 0000 0000 0000 0000 0000 0000
000003a0: 0000 0000 0000 0000 0000 0000 0000 0000
000003b0: 0000 0000 0000 0000 0000 0000 0000 0000
000003c0: 0000 0000 0000 0000 0000 0000 0000 0000
000003d0: 0000 0000 0000 0000 0000 0000 0000 0000
000003e0: 0000 0000 0000 0000 0000 0000 0000 0000
000003f0: 0000 0000 0000 0000 0000 0000 0000 0000

x_f f4 [100, 1]
4.6142144 1.7426022 3.3379421 4.884195 3.0679617 5.5223308 5.816855 6.1850104
4.565127 1.2026409 4.7860203 0.5645049 1.8407769 0.12271846 4.9823694 6.086836
5.7186804 2.6998062 2.5280004 6.1113796 2.72435 5.473243 1.0553788 6.062292
0.44178647 0.7117671 4.1969714 6.2586417 6.1359234 4.540583 6.1850104 4.2706027
5.473243 2.6016314 4.417865 4.9087386 6.0132046 0.3681554 0.49087384 5.203263
3.4606607 0.44178647 1.6198837 4.147884 1.8162333 4.957826 3.4852045 3.3870296
0.957204 2.3071072 0.6626797 5.2278066 0.024543693 6.062292 2.3316507 1.9634954
2.3316507 0.6872234 1.59534 3.4115732 5.595962 5.7923117 1.1044662 3.6815538
0.88357294 1.7180585 2.4298255 3.6079228 1.7916895 1.6198837 4.295146 1.9880391
2.2580197 2.72435 0.7853982 2.06167 4.957826 5.1296315 2.4298255 4.540583
3.6570103 0.83448553 3.7060976 1.7916895 6.086836 4.9823694 4.884195 1.0062914
5.497787 5.8413987 4.1969714 4.712389 0.88357294 0.93266034 1.2271847 5.743224
5.5714183 6.0377483 3.436117 1.3499031
00000000: a5a7 9340 970d df3f d8a0 5540 534b 9c40
00000010: 7c59 4440 efb6 b040 ad23 ba40 9beb c540
00000020: 8515 9240 23f0 993f 1427 9940 6583 103f
00000030: 949e eb3f d153 fb3d 926f 9f40 5cc7 c240
00000040: 6eff b640 a0c9 2c40 c2ca 2140 6c90 c340
00000050: c05b 2e40 cf24 af40 a716 873f 4cfe c140
00000060: d631 e23e 5e36 363f 974d 8640 cb46 c840
00000070: 7c59 c440 754c 9140 9beb c540 c7a8 8840
00000080: cf24 af40 2181 2640 265f 8d40 6314 9d40
00000090: 2c6c c040 dd7e bc3e d153 fb3e 2181 a640
000000a0: 777b 5d40 d631 e23e 5958 cf3f 77bb 8440
000000b0: 557a e83f 83a6 9e40 970d 5f40 18c5 5840
000000c0: 520b 753f a5a7 1340 60a5 293f 314a a740
000000d0: db0f c93c 4cfe c140 c439 1540 d153 fb3f
000000e0: c439 1540 dfed 2f3f 1a34 cc3f 3757 5a40
000000f0: 1f12 b340 9e5a b940 265f 8d3f 949e 6b40
00000100: d631 623f 57e9 db3f 4382 1b40 35e8 6640
00000110: 1556 e53f 5958 cf3f d671 8940 1178 fe3f
00000120: 6583 1040 c05b 2e40 db0f 493f 67f2 0340
00000130: 83a6 9e40 f125 a440 4382 1b40 754c 9140
00000140: 750c 6a40 d8a0 553f b430 6d40 1556 e53f
00000150: 5cc7 c240 926f 9f40 534b 9c40 28ce 803f
00000160: dfed af40 bdec ba40 974d 8640 e4cb 9640
00000170: d631 623f d4c2 6e3f 6314 9d3f 7ec8 b740
00000180: 0f49 b240 3c35 c140 57e9 5b40 a0c9 ac3f

t_f f4 [100, 1]
0.3838384 0.8181818 0.53535354 0.7979798 0.14141414 0.7070707 0.68686867 0.7777778
0.54545456 0.01010101 0.5555556 0.7878788 0.43434343 0.43434343 0.97979796 1.0
0.67676765 0.5252525 0.3030303 0.82828283 0.97979796 0.6363636 0.34343433 0.32323232
0.47474748 0.9191919 0.5555556 0.7777778 0.36363637 0.22222222 0.28282827 0.8888889
0.90909094 0.15151516 0.6262626 0.04040404 0.15151516 0.8787879 0.5858586 0.25252524
0.7979798 0.3838384 0.42424244 0.01010101 0.24242425 0.8989899 0.36363637 0.93939394
0.75757575 0.3131313 0.04040404 0.34343433 0.45454547 0.959596 0.959596 0.45454547
0.45454547 0.8080808 0.5252525 0.56565654 0.8787879 0.7373737 0.04040404 0.47474748
0.57575756 0.56565654 0.67676765 0.989899 0.68686867 0.21212122 0.05050505 0.28282827
0.25252524 0.8080808 0.01010101 0.41414142 0.969697 0.97979796 0.2929293 0.5151515
0.83838385 0.94949496 0.47474748 0.5959596 0.3939394 0.68686867 0.8484849 0.02020202
0.9191919 0.4848485 0.13131313 0.6060606 0.25252524 0.969697 0.34343433 0.83838385
0.4848485 0.7979798 0.7171717 0.3030303
00000000: 7786 c43e 5d74 513f ee0c 093f 6748 4c3f
00000010: dece 103e 9602 353f a0d6 2f3f 721c 473f
00000020: e9a2 0b3f b57e 253c e438 0e3f 6db2 493f
00000030: 4362 de3e 4362 de3e 0ad4 7a3f 0000 803f
00000040: a540 2d3f f376 063f ca26 9b3e 580a 543f
00000050: 0ad4 7a3f bae8 223f a0d6 af3e b57e a53e
00000060: 1a12 f33e 2950 6b3f e438 0e3f 721c 473f
00000070: 8c2e ba3e 398e 633e dece 903e 398e 633f
00000080: 2fba 683f ca26 1b3e bf52 203f b57e 253d
00000090: ca26 1b3e 3ef8 603f d4fa 153f fd4a 813e
000000a0: 6748 4c3f 7786 c43e 4e36 d93e b57e 253c
000000b0: 103e 783e 3424 663f 8c2e ba3e 1f7c 703f
000000c0: 7cf0 413f bf52 a03e b57e 253d a0d6 af3e
000000d0: 2fba e83e 15a8 753f 15a8 753f 2fba e83e
000000e0: 2fba e83e 62de 4e3f f376 063f dece 103f
000000f0: 3ef8 603f 86c4 3c3f b57e 253d 1a12 f33e
00000100: d964 133f dece 103f a540 2d3f 056a 7d3f
00000110: a0d6 2f3f 4e36 593e 62de 4e3d dece 903e
00000120: fd4a 813e 62de 4e3f b57e 253c 580a d43e
00000130: 103e 783f 0ad4 7a3f d4fa 953e f8e0 033f
00000140: 53a0 563f 1a12 733f 1a12 f33e cf90 183f
00000150: 6db2 c93e a0d6 2f3f 4e36 593f b57e a53c
00000160: 2950 6b3f 103e f83e f376 063e ca26 1b3f
00000170: fd4a 813e 103e 783f a0d6 af3e 53a0 563f
00000180: 103e f83e 6748 4c3f 9198 373f ca26 9b3e

x_bc_lb f4 [100, 1]
0.0 0.0 0.0 0.0 0.0 0.0 0.0 0.0
0.0 0.0 0.0 0.0 0.0 0.0 0.0 0.0
0.0 0.0 0.0 0.0 0.0 0.0 0.0 0.0
0.0 0.0 0.0 0.0 0.0 0.0 0.0 0.0
0.0 0.0 0.0 0.0 0.0 0.0 0.0 0.0
0.0 0.0 0.0 0.0 0.0 0.0 0.0 0.0
0.0 0.0 0.0 0.0 0.0 0.0 0.0 0.0
0.0 0.0 0.0 0.0 0.0 0.0 0.0 0.0
0.0 0.0 0.0 0.0 0.0 0.0 0.0 0.0
0.0 0.0 0.0 0.0 0.0 0.0 0.0 0.0
0.0 0.0 0.0 0.0 0.0 0.0 0.0 0.0
0.0 0.0 0.0 0.0 0.0 0.0 0.0 0.0
0.0 0.0 0.0 0.0
00000000: 0000 0000 0000 0000 0000 0000 0000 0000
00000010: 0000 0000 0000 0000 0000 0000 0000 0000
00000020: 0000 0000 0000 0000 0000 0000 0000 0000
00000030: 0000 0000 0000 0000 0000 0000 0000 0000
00000040: 0000 0000 0000 0000 0000 0000 0000 0000
00000050: 0000 0000 0000 0000 0000 0000 0000 0000
00000060: 0000 0000 0000 0000 0000 0000 0000 0000
00000070: 0000 0000 0000 0000 0000 0000 0000 0000
00000080: 0000 0000 0000 0000 0000 0000 0000 0000
00000090: 0000 0000 0000 0000 0000 0000 0000 0000
000000a0: 0000 0000 0000 0000 0000 0000 0000 0000
000000b0: 0000 0000 0000 0000 0000 0000 0000 0000
000000c0: 0000 0000 0000 0000 0000 0000 0000 0000
000000d0: 0000 0000 0000 0000 0000 0000 0000 0000
000000e0: 0000 0000 0000 0000 0000 0000 0000 0000
000000f0: 0000 0000 0000 0000 0000 0000 0000 0000
00000100: 0000 0000 0000 0000 0000 0000 0000 0000
00000110: 0000 0000 0000 0000 0000 0000 0000 0000
00000120: 0000 0000 0000 0000 0000 0000 0000 0000
00000130: 0000 0000 0000 0000 0000 0000 0000 0000
00000140: 0000 0000 0000 0000 0000 0000 0000 0000
00000150: 0000 0000 0000 0000 0000 0000 0000 0000
00000160: 0000 0000 0000 0000 0000 0000 0000 0000
00000170: 0000 0000 0000 0000 0000 0000 0000 0000
00000180: 0000 0000 0000 0000 0000 0000 0000 0000

t_bc_lb f4 [100, 1]
0.0 0.01010101 0.02020202 0.030303031 0.04040404 0.05050505 0.060606062 0.07070707
0.08080808 0.09090909 0.1010101 0.11111111 0.121212125 0.13131313 0.14141414 0.15151516
0.16161616 0.17171717 0.18181819 0.1919192 0.2020202 0.21212122 0.22222222 0.23232323
0.24242425 0.25252524 0.26262626 0.27272728 0.28282827 0.2929293 0.3030303 0.3131313
0.32323232 0.33333334 0.34343433 0.35353535 0.36363637 0.37373737 0.3838384 0.3939394
0.4040404 0.41414142 0.42424244 0.43434343 0.44444445 0.45454547 0.46464646 0.47474748
0.4848485 0.4949495 0.5050505 0.5151515 0.5252525 0.53535354 0.54545456 0.5555556
0.56565654 0.57575756 0.5858586 0.5959596 0.6060606 0.61616164 0.6262626 0.6363636
0.64646465 0.65656567 0.6666667 0.67676765 0.68686867 0.6969697 0.7070707 0.7171717
0.72727275 0.7373737 0.74747473 0.75757575 0.7676768 0.7777778 0.7878788 0.7979798
0.8080808 0.8181818 0.82828283 0.83838385 0.8484849 0.85858583 0.86868685 0.8787879
0.8888889 0.8989899 0.90909094 0.9191919 0.9292929 0.93939394 0.94949496 0.959596
0.969697 0.97979796 0.989899 1.0
00000000: 0000 0000 b57e 253c b57e a53c 103e f83c
00000010: b57e 253d 62de 4e3d 103e 783d dece 903d
00000020: b57e a53d 8c2e ba3d 62de ce3d 398e e33d
00000030: 103e f83d f376 063e dece 103e ca26 1b3e
00000040: b57e 253e a0d6 2f3e 8c2e 3a3e 7786 443e
00000050: 62de 4e3e 4e36 593e 398e 633e 24e6 6d3e
00000060: 103e 783e fd4a 813e f376 863e e9a2 8b3e
00000070: dece 903e d4fa 953e ca26 9b3e bf52 a03e
00000080: b57e a53e abaa aa3e a0d6 af3e 9602 b53e
00000090: 8c2e ba3e 815a bf3e 7786 c43e 6db2 c93e
000000a0: 62de ce3e 580a d43e 4e36 d93e 4362 de3e
000000b0: 398e e33e 2fba e83e 24e6 ed3e 1a12 f33e
000000c0: 103e f83e 056a fd3e fd4a 013f f8e0 033f
000000d0: f376 063f ee0c 093f e9a2 0b3f e438 0e3f
000000e0: dece 103f d964 133f d4fa 153f cf90 183f
000000f0: ca26 1b3f c5bc 1d3f bf52 203f bae8 223f
00000100: b57e 253f b014 283f abaa 2a3f a540 2d3f
00000110: a0d6 2f3f 9b6c 323f 9602 353f 9198 373f
00000120: 8c2e 3a3f 86c4 3c3f 815a 3f3f 7cf0 413f
00000130: 7786 443f 721c 473f 6db2 493f 6748 4c3f
00000140: 62de 4e3f 5d74 513f 580a 543f 53a0 563f
00000150: 4e36 593f 48cc 5b3f 4362 5e3f 3ef8 603f
00000160: 398e 633f 3424 663f 2fba 683f 2950 6b3f
00000170: 24e6 6d3f 1f7c 703f 1a12 733f 15a8 753f
00000180: 103e 783f 0ad4 7a3f 056a 7d3f 0000 803f

x_bc_ub f4 [100, 1]
6.2831855 6.2831855 6.2831855 6.2831855 6.2831855 6.2831855 6.2831855 6.2831855
6.2831855 6.2831855 6.2831855 6.2831855 6.2831855 6.2831855 6.2831855 6.2831855
6.2831855 6.2831855 6.2831855 6.2831855 6.2831855 6.2831855 6.2831855 6.2831855
6.2831855 6.2831855 6.2831855 6.2831855 6.2831855 6.2831855 6.2831855 6.2831855
6.2831855 6.2831855 6.2831855 6.2831855 6.2831855 6.2831855 6.2831855 6.2831855
6.2831855 6.2831855 6.2831855 6.2831855 6.2831855 6.2831855 6.2831855 6.2831855
6.2831855 6.2831855 6.2831855 6.2831855 6.2831855 6.2831855 6.2831855 6.2831855
6.2831855 6.2831855 6.2831855 6.2831855 6.2831855 6.2831855 6.2831855 6.2831855
6.2831855 6.2831855 6.2831855 6.2831855 6.2831855 6.2831855 6.2831855 6.2831855
6.2831855 6.2831855 6.2831855 6.2831855 6.2831855 6.2831855 6.2831855 6.2831855
6.2831855 6.2831855 6.2831855 6.2831855 6.2831855 6.2831855 6.2831855 6.2831855
6.2831855 6.2831855 6.2831855 6.2831855 6.2831855 6.2831855 6.2831855 6.2831855
6.2831855 6.2831855 6.2831855 6.2831855
00000000: db0f c940 db0f c940 db0f c940 db0f c940
00000010: db0f c940 db0f c940 db0f c940 db0f c940
00000020: db0f c940 db0f c940 db0f c940 db0f c940
00000030: db0f c940 db0f c940 db0f c940 db0f c940
00000040: db0f c940 db0f c940 db0f c940 db0f c940
00000050: db0f c940 db0f c940 db0f c940 db0f c940
00000060: db0f c940 db0f c940 db0f c940 db0f c940
00000070: db0f c940 db0f c940 db0f c940 db0f c940
00000080: db0f c940 db0f c940 db0f c940 db0f c940
00000090: db0f c940 db0f c940 db0f c940 db0f c940
000000a0: db0f c940 db0f c940 db0f c940 db0f c940
000000b0: db0f c940 db0f c940 db0f c940 db0f c940
000000c0: db0f c940 db0f c940 db0f c940 db0f c940
000000d0: db0f c940 db0f c940 db0f c940 db0f c940
000000e0: db0f c940 db0f c940 db0f c940 db0f c940
000000f0: db0f c940 db0f c940 db0f c940 db0f c940
00000100: db0f c940 db0f c940 db0f c940 db0f c940
00000110: db0f c940 db0f c940 db0f c940 db0f c940
00000120: db0f c940 db0f c940 db0f c940 db0f c940
00000130: db0f c940 db0f c940 db0f c940 db0f c940
00000140: db0f c940 db0f c940 db0f c940 db0f c940
00000150: db0f c940 db0f c940 db0f c940 db0f c940
00000160: db0f c940 db0f c940 db0f c940 db0f c940
00000170: db0f c940 db0f c940 db0f c940 db0f c940
00000180: db0f c940 db0f c940 db0f c940 db0f c940

t_bc_ub f4 [100, 1]
0.0 0.01010101 0.02020202 0.030303031 0.04040404 0.05050505 0.060606062 0.07070707
0.08080808 0.09090909 0.1010101 0.11111111 0.121212125 0.13131313 0.14141414 0.15151516
0.16161616 0.17171717 0.18181819 0.1919192 0.2020202 0.21212122 0.22222222 0.23232323
0.24242425 0.25252524 0.26262626 0.27272728 0.28282827 0.2929293 0.3030303 0.3131313
0.32323232 0.33333334 0.34343433 0.35353535 0.36363637 0.37373737 0.3838384 0.3939394
0.4040404 0.41414142 0.42424244 0.43434343 0.44444445 0.45454547 0.46464646 0.47474748
0.4848485 0.4949495 0.5050505 0.5151515 0.5252525 0.53535354 0.54545456 0.5555556
0.56565654 0.57575756 0.5858586 0.5959596 0.6060606 0.61616164 0.6262626 0.6363636
0.64646465 0.65656567 0.6666667 0.67676765 0.68686867 0.6969697 0.7070707 0.7171717
0.72727275 0.7373737 0.74747473 0.75757575 0.7676768 0.7777778 0.7878788 0.7979798
0.8080808 0.8181818 0.82828283 0.83838385 0.8484849 0.85858583 0.86868685 0.8787879
0.8888889 0.8989899 0.90909094 0.9191919 0.9292929 0.93939394 0.94949496 0.959596
0.969697 0.97979796 0.989899 1.0
00000000: 0000 0000 b57e 253c b57e a53c 103e f83c
00000010: b57e 253d 62de 4e3d 103e 783d dece 903d
00000020: b57e a53d 8c2e ba3d 62de ce3d 398e e33d
00000030: 103e f83d f376 063e dece 103e ca26 1b3e
00000040: b57e 253e a0d6 2f3e 8c2e 3a3e 7786 443e
00000050: 62de 4e3e 4e36 593e 398e 633e 24e6 6d3e
00000060: 103e 783e fd4a 813e f376 863e e9a2 8b3e
00000070: dece 903e d4fa 953e ca26 9b3e bf52 a03e
00000080: b57e a53e abaa aa3e a0d6 af3e 9602 b53e
00000090: 8c2e ba3e 815a bf3e 7786 c43e 6db2 c93e
000000a0: 62de ce3e 580a d43e 4e36 d93e 4362 de3e
000000b0: 398e e33e 2fba e83e 24e6 ed3e 1a12 f33e
000000c0: 103e f83e 056a fd3e fd4a 013f f8e0 033f
000000d0: f376 063f ee0c 093f e9a2 0b3f e438 0e3f
000000e0: dece 103f d964 133f d4fa 153f cf90 183f
000000f0: ca26 1b3f c5bc 1d3f bf52 203f bae8 223f
00000100: b57e 253f b014 283f abaa 2a3f a540 2d3f
00000110: a0d6 2f3f 9b6c 323f 9602 353f 9198 373f
00000120: 8c2e 3a3f 86c4 3c3f 815a 3f3f 7cf0 413f
00000130: 7786 443f 721c 473f 6db2 493f 6748 4c3f
00000140: 62de 4e3f 5d74 513f 580a 543f 53a0 563f
00000150: 4e36 593f 48cc 5b3f 4362 5e3f 3ef8 603f
00000160: 398e 633f 3424 663f 2fba 683f 2950 6b3f
00000170: 24e6 6d3f 1f7c 703f 1a12 733f 15a8 753f
00000180: 103e 783f 0ad4 7a3f 056a 7d3f 0000 803f

weight f4 [50, 2]
0.117886804 -0.071629964 0.037292317 0.11651766 0.5494881 -0.19687535 -0.049281653 0.08831324
-0.054263517 0.0063121696 -0.2703616 0.09074154 0.09619533 0.08837979 -0.23261172 -0.23904045
0.11017574 0.02907783 0.10775168 -0.2581595 -0.42320836 0.033174053 0.24890088 -0.08723796
-0.21994536 -0.42576247 -0.056731347 0.090749875 0.0898961 0.11702877 -0.11293334 0.0019609677
-0.15587407 -0.23614417 -0.32979494 0.10971096 -0.041730005 0.1942334 -0.38177174 0.1702401
0.13060145 -0.0781136 0.1252479 -0.0817952 0.087471746 -0.009761552 0.08201622 -0.17968172
-0.04038638 0.089890964 0.42754522 -0.15363865 -0.13330927 0.24616148 -0.08721702 0.11365162
0.26833978 -0.031181375 0.06031104 -0.05922183 -0.031094948 0.1887553 -0.2581386 0.057270057
0.15471229 0.019165864 -0.40681648 -0.20377351 0.049229626 -0.20288707 -0.4828071 -0.1296434
-0.10763105 -0.18426654 0.10991699 -0.007530491 -0.022585716 -0.020565253 -0.1641523 -0.039168723
-0.063928254 0.0132116005 0.11177951 0.052115854 0.1258764 -0.19721907 0.523404 -0.025206355
0.17396215 0.2629042 -0.10898872 -0.52547204 0.03362121 -0.19631083 0.14996256 -0.3562957
-0.16897391 -0.23373227 0.15770128 -0.13656338
00000000: a36e f13d bbb2 92bd d4bf 183d d0a0 ee3d
00000010: 41ab 0c3f b199 49be 8fdb 49bd 92dd b43d
00000020: 6c43 5ebd 51d6 ce3b d66c 8abe b3d6 b93d
00000030: 0f02 c53d 7700 b53d c431 6ebe 05c7 74be
00000040: d2a3 e13d a134 ee3c eaac dc3d 7b2d 84be
00000050: c4ae d8be 84e1 073d dfdf 7e3e d1a9 b2bd
00000060: 5b39 61be 8afd d9be 215f 68bd 12db b93d
00000070: 721b b83d c8ac ef3d 9849 e7bd 9483 003b
00000080: 749d 1fbe c7cf 71be e2da a8be 24b0 e03d
00000090: 15ed 2abd 1fe5 463e 9677 c3be 6c53 2e3e
000000a0: 63bc 053e 06fa 9fbd fc40 003e 3e84 a7bd
000000b0: 6324 b33d ebee 1fbc 1ff8 a73d 7cfe 37be
000000c0: 306c 25bd c118 b83d 35e7 da3e 7353 1dbe
000000d0: 3a82 08be c111 7c3e d69e b2bd 2ec2 e83d
000000e0: d563 893e 1570 ffbc b608 773d 9792 72bd
000000f0: d5ba febc 1249 413e be2a 84be 0294 6a3d
00000100: e66c 1e3e bb01 9d3c 404a d0be 01aa 50be
00000110: 01a5 493d a1c1 4fbe 7e32 f7be 3dc1 04be
00000120: ab6d dcbd 5eb0 3cbe 291c e13d 56c2 f6bb
00000130: ae05 b9bc 7678 a8bc 8a17 28be 626f 20bd
00000140: d1ec 82bd 7875 583c a8ec e43d 6f77 553d
00000150: bee5 003e ccf3 49be cefd 053f 8f7d cebc
00000160: 2223 323e 619b 863e 7a35 dfbd 5685 06bf
00000170: 65b6 093d b505 49be c98f 193e 646c b6be
00000180: 7f07 2dbe 8357 6fbe 727c 213e 45d7 0bbe

bias f4 [50]
-0.06727805 -0.049040597 -0.017212013 -0.03890838 0.012983082 0.08900031 -0.13567829 0.0075806817
-0.03065757 0.004483198 -0.005347843 -0.08722303 0.07617481 0.011822255 -0.0022033385 0.06147721
-0.022053521 0.024788048 0.07457391 -0.03237549 -0.055158064 -0.065003075 0.015086898 -0.066811725
0.036943804 -0.00031825996 0.07555215 0.0007683718 -0.058368668 -0.095161214 0.031217849 0.020020602
-0.12625578 -0.04259805 0.010998749 -0.008000661 0.016816195 -0.06431819 0.002081917 0.03253782
0.020222202 -0.11222356 -0.044481754 0.043574836 -0.09713314 0.09604183 -0.03019008 -0.016178854
0.111410014 -0.055147316
00000000: 13c9 89bd cbde 48bd 3500 8dbc 655e 1fbd
00000010: feb6 543c cb45 b63d 40ef 0abe 5e67 f83b
00000020: 9625 fbbc cae7 923b f53c afbb fda1 b2bd
00000030: 8a01 9c3d 22b2 413c e365 10bb 87cf 7b3d
00000040: 96a9 b4bc 4e10 cb3c 35ba 983d 299c 04bd
00000050: 6ced 61bd 5520 85bd 092f 773c 96d4 88bd
00000060: 6352 173d 21dc a6b9 16bb 9a3d 8f6c 493a
00000070: fc13 6fbd e2e3 c2bd 93bc ff3c 3f02 a43c
00000080: 3249 01be 4b7b 2ebd 1934 343c 3415 03bc
00000090: 1ec2 893c 41b9 83bd c570 083b 6146 053d
000000a0: 08a9 a53c 77d5 e5bd 8032 36bd 877b 323d
000000b0: bded c6bd 94b1 c43d 3051 f7bc 8489 84bc
000000c0: ef2a e43d 27e2 61bd

weight f4 [50, 50]
0.14173639 -0.13855396 -0.3560598 0.13651872 -0.03128134 -0.06291369 -0.20909686 0.06908656
0.09075435 0.08371805 0.096863694 -0.24536882 -0.23832518 -0.070925094 0.19184083 -0.045864325
-0.2624592 -0.038298078 0.18001185 -0.20544256 0.023337455 0.03882337 0.13506752 0.047663514
0.33225402 0.058330353 0.33308148 0.05415186 0.21770419 -0.35918632 0.25479746 -0.07969062
-0.037373453 -0.24736053 0.11194309 0.019853463 0.22843881 -0.009844775 -0.014687961 0.08642868
0.07714834 -0.25128105 -0.12805358 0.015657283 -0.00994567 0.10915037 -0.031040892 -0.16220757
0.07449245 -0.109933585 -0.13625833 -0.12321882 -0.08922238 -0.09080631 0.05510978 -0.03634395
0.09064547 -0.029767977 0.018597173 0.17809945 -0.13516335 -0.34387246 0.21416514 0.024346568
-0.098502636 0.12994502 0.0030630513 0.23425177 -0.17361516 0.023218887 0.02949377 0.14445369
-0.18469907 0.17716451 0.15628567 0.030335695 -0.11993881 -0.03023463 -0.010523239 0.080721214
-0.02401825 -0.015042539 0.0017825301 -0.2622522 -0.20553988 -0.14207146 -0.10833948 -0.13590439
-0.2944328 -0.1206005 0.048251342 -0.025726676 -0.24111189 -0.07446618 -0.07652897 -0.12396461
0.18276575 -0.2334849 0.10156022 0.22791168 -0.10912366 0.0294726 -0.07944213 0.050377835
0.011380293 0.060801525 -0.020822948 0.21227461 -0.08778698 0.037345402 -0.25527388 -0.07740674
0.1158888 -0.038579416 0.067473166 0.060859594 -0.12090079 0.10617259 0.1871174 0.042189747
0.084644906 -0.021993691 0.014312231 -0.15289544 0.03446553 -0.022213606 -0.14047542 0.1938273
0.2769181 -0.10989707 0.04569601 -0.17371313 0.04212674 0.05207914 0.043110628 0.09626323
0.10777471 -0.024671787 0.02202466 0.2068677 -0.091115646 0.045949515 -0.076339856 -0.004354847
0.07938216 0.15098022 0.01799911 -0.34594366 0.02941722 0.15097454 -0.20699626 0.034497835
0.14353728 -0.04579857 -0.017416751 0.12735 0.3282752 0.035661753 -0.11621291 0.06011179
-0.11869724 -0.011069658 0.12684791 -0.031814408 0.023916513 0.09538696 0.027139898 -0.015775543
-0.1724554 0.12512551 -0.16706054 0.19726177 0.002781161 0.34367993 0.22679982 -0.06506211
0.041008387 0.08835904 0.11066371 0.2846136 -0.076598436 0.08783026 -0.1701604 -0.1887078
-0.17471507 -0.031636093 -0.2720472 0.0011959217 0.20338015 0.047255434 -0.12637338 0.024855593
-0.13263659 0.06412299 0.15691264 -0.17849906 -0.00472886 0.10372572 -0.113517605 0.14630815
0.0508057 -0.044048294 0.06837623 0.010811126 0.25086355 -0.21285434 0.1425596 0.23308113
-0.024090668 -0.14608422 0.24103332 -0.22000955 0.0038915328 -0.08807811 0.02737858 -0.054230586
-0.14430596 0.06319174 -0.07779044 -0.09600888 -0.041845303 0.08176129 -0.10333313 -0.1375525
0.1179275 0.053011175 -0.11443827 0.13495128 -0.017172113 0.12807377 -0.035884827 -0.20395996
-0.11850777 0.14529045 -0.19168735 0.10128888 -0.08662574 0.026317352 0.080014445 0.0054712165
-0.10696978 -0.24691404 -0.03999584 0.14649898 -0.18214527 0.118064426 0.03349664 0.099361226
0.10282883 0.015864706 -0.10473219 -0.14502926 -0.11750469 0.16093922 -0.007938462 -0.03498676
00000000: 5823 113e 17e1 0dbe 784d b6be 90cb 0b3e
00000010: dd20 00bd e5d8 80bd 7d1d 56be 417d 8d3d
00000020: 6bdd b93d 5e74 ab3d 7960 c63d f741 7bbe
00000030: 840b 74be 2d41 91bd ec71 443e 3bdc 3bbd
00000040: 0d61 86be 72de 1cbd 0755 383e 895f 52be
00000050: 312e bf3c 4105 1f3d 244f 0a3e d13a 433d
00000060: 331d aa3e cfeb 6e3d a889 aa3e 57ce 5d3d
00000070: d9ed 5e3e 45e7 b7be d074 823e d634 a3bd
00000080: e814 19bd 144c 7dbe 6b42 e53d bba3 a23c
00000090: ddeb 693e fb4b 21bc c6a5 70bc 8501 b13d
000000a0: f3ff 9d3d e9a7 80be 7a20 03be b443 803c
000000b0: 2af3 22bc 3b8a df3d 7849 febc be19 26be
000000c0: 7f8f 983d dc24 e1bd 4e87 0bbe 265a fcbd
000000d0: 39ba b6bd a9f8 b9bd cbba 613d 65dd 14bd
000000e0: 55a4 b93d f9db f3bc 1959 983c b45f 363e
000000f0: 4368 0abe 0d10 b0be 1b4e 5b3e 7472 c73c
00000100: c0bb c9bd 4f10 053e 79bd 483b b2df 6f3e
00000110: 2cc8 31be 8935 be3c eb9c f13c abeb 133e
00000120: c121 3dbe 9d6a 353e 5a09 203e 9082 f83c
00000130: 7ba2 f5bd 9dae f7bc aa69 2cbc 2a51 a53d
00000140: ecc1 c4bc fb74 76bc c9a3 e93a ec45 86be
00000150: 0c79 52be 2e7b 11be 17e1 ddbd 852a 0bbe
00000160: e5bf 96be 65fd f6bd 33a3 453d c0c0 d2bc
00000170: 09e6 76be b981 98bd 38bb 9cbd 28e1 fdbd
00000180: f226 3b3e aa16 6fbe cefe cf3d ae61 693e
00000190: 3a7c dfbd 8670 f13c 8eb2 a2bd fd58 4e3d
000001a0: 6974 3a3c 050b 793d e394 aabc 845e 593e
000001b0: a9c9 b3bd 7ef7 183d 42b3 82be 6d87 9ebd
000001c0: 1b57 ed3d 7305 1ebd 5f2f 8a3d e947 793d
000001d0: d59a f7bd 0471 d93d b49b 3f3e 28cf 2c3d
000001e0: 4f5a ad3d 1d2c b4bc d97d 6a3c 9f90 1cbe
000001f0: ba2b 0d3d 4ff9 b5bc cad8 0fbe aa7a 463e
00000200: 36c8 8d3e b711 e1bd bd2b 3b3d dbe1 31be
00000210: 178d 2c3d f050 553d c594 303d a825 c53d
00000220: fdb8 dc3d 7d1c cabc 0f6d b43c 20d5 533e
00000230: d79a babd 8f35 3c3d 1258 9cbd 1bb3 8ebb
00000240: 1d93 a23d 8f9a 1a3e df72 933c 871f b1be
00000250: 62fc f03c 1299 1a3e d4f6 53be 9a4d 0d3d
00000260: 70fb 123e 4897 3bbd 93ad 8ebc 0a68 023e
00000270: b013 a83e 0f12 123d 0901 eebd c837 763d
00000280: 8a17 f3bd 835d 35bc 6be4 013e d34f 02bd
00000290: 90ec c33c 3d5a c33d 7e54 de3c b63b 81bc
000002a0: 2698 30be e720 003e eb11 2bbe fdfe 493e
000002b0: 2444 363b d1f6 af3e 363e 683e 493f 85bd
000002c0: 69f8 273d 96f5 b43d a8a3 e23d e0b8 913e
000002d0: a4df 9cbd 5ae0 b33d 873e 2ebe 9e3c 41be
000002e0: 82e8 32be d994 01bd c549 8bbe 79c0 9c3a
000002f0: e342 503e ea8e 413d 0668 01be f59d cb3c
00000300: e3d1 07be ea52 833d b5ad 203e 75c8 36be
00000310: 8ef4 9abb 266e d43d eb7b e8bd ced1 153e
00000320: a319 503d fc6b 34bd d608 8c3d 2621 313c
00000330: 3071 803e 7df6 59be 25fb 113e d2ac 6e3e
00000340: cb59 c5bc 1a97 15be 70d1 763e 2f4a 61be
00000350: 1609 7f3b 4c62 b4bd 0b49 e03c e420 5ebd
00000360: f1c4 13be ac6a 813d 9850 9fbd 4ea0 c4bd
00000370: fb65 2bbd 7772 a73d 52a0 d3bd 90da 0cbe
00000380: f983 f13d 3f22 593d 9d5e eabd ab30 0a3e
00000390: 88ac 8cbc c525 033e f8fb 12bd e1da 50be
000003a0: 34b4 f2bd 05c7 143e b049 44be 8b70 cf3d
000003b0: d668 b1bd 7d97 d73c 9dde a33d e447 b33b
000003c0: f912 dbbd 09d7 7cbe aed2 23bd d403 163e
000003d0: 4a84 3abe c3cb f13d c633 093d e67d cb3d
000003e0: ec97 d23d b3f6 813c d57d d6bd 8d82 14be
000003f0: 4da6 f0bd 40cd 243e 5310 02bc 474e 0fbd

bias f4 [50]
0.05758836 0.014331624 0.007805512 -0.025270073 0.017430278 -0.0084530115 0.016048312 -0.0011581545
0.009492397 -0.03343613 0.018773489 0.01419453 0.004133828 0.020204196 -0.008243529 -0.024092432
0.04283092 -0.023640452 0.008033282 0.048029285 0.05297093 0.02510804 -0.07905281 0.0074517927
-0.001038583 0.07998395 -0.11599202 -0.04292989 -0.03696694 0.0033225438 -0.0873296 0.012375336
-0.006754246 -0.025714498 0.03875157 0.022486515 0.026270693 0.05420493 0.017026886 0.015133369
-0.007143579 -0.025788711 0.0017948295 0.016478771 -0.008520496 0.0041575646 0.009705987 0.0038388895
0.030214464 -0.016628519
00000000: c6e1 6b3d 30cf 6a3c 61c5 ff3b 2f03 cfbc
00000010: f1c9 8e3c 807e 0abc c077 833c 37cd 97ba
00000020: 0086 1b3c 53f4 08bd dcca 993c 2d90 683c
00000030: 1075 873b 4583 a53c de0f 07bc 7e5d c5bc
00000040: 7a6f 2f3d 9fa9 c1bc 079e 033c 5bba 443d
00000050: 0cf8 583d 60af cd3c 71e6 a1bd 2b2e f43b
00000060: 1021 88ba a0ce a33d 398d edbd 41d7 2fbd
00000070: a56a 17bd 09bf 593b dcd9 b2bd ecc1 4a3c
00000080: b952 ddbb 36a7 d2bc f7b9 1e3d a435 b83c
00000090: a335 d73c fd05 5e3d f87b 8b3c f3f1 773c
000000a0: af14 eabb d942 d3bc 7c40 eb3a 7dfe 863c
000000b0: 8d99 0bbc 2e3c 883b dc05 1f3c e195 7b3b
000000c0: 5384 f73c 8838 88bc

weight f4 [50, 50]
-0.24951348 0.10387274 -0.08710806 -0.14755213 -0.08126537 0.33911577 0.10930277 0.048508655
-0.21338406 -0.15179946 0.30047715 -0.19526479 0.037049204 0.20236963 -0.16752313 0.39859
-0.12214289 -0.20987275 -0.023459285 0.23721151 0.100400686 -0.11840988 0.053909995 -0.007520782
-0.0067849606 0.16994122 -0.03863109 -0.1870647 0.19777891 0.11586748 0.050690383 0.011054137
0.2057769 -0.06491407 -0.1582136 -0.052352887 -0.0516547 0.09950755 0.17661034 0.35138658
0.07922447 0.075273156 0.1477616 -0.23132707 0.11198732 0.35214457 -0.14110446 -0.17575869
-0.30556285 0.08115399 -0.25653595 -0.010576467 -0.1166583 0.08286784 0.011536403 0.09729889
-0.3087834 0.24738358 0.14637491 0.06891805 0.13665868 0.1105272 0.14318617 0.1479599
-0.051023588 0.09775715 0.053861737 -0.023858631 0.14058954 0.031888798 0.2749493 -0.16661441
0.024084827 -0.14174104 0.04126878 -0.042959448 -0.2376267 -0.01850141 0.09748044 -0.021774797
-0.1547727 0.0023465052 -0.047513757 0.10921579 0.20716976 -0.08166879 0.09241684 -0.02605013
-0.107013695 -0.11709232 -0.2607907 -0.106756866 0.19531406 -0.05123123 -0.14104208 0.25322708
0.043691393 -0.29106036 -0.04173477 0.08755358 0.10222833 0.1989869 -0.02886576 0.0030318978
-0.05634113 -0.33016223 -0.017354298 0.022262735 -0.014394141 0.081624255 0.17983243 0.047195867
0.2387771 0.09116027 0.08929731 0.12924732 0.046875533 0.12535155 0.058216266 0.14877257
0.13271786 0.18378419 -0.051172264 0.30043995 -0.20680845 -0.11329507 -0.12695934 -0.10282464
-0.30080357 0.12836018 -0.1848755 0.119363904 -0.006193027 -0.11266077 -0.15125485 0.016164793
0.233052 -0.16737558 -0.05604837 -0.06886596 -0.052844744 -0.21306217 0.06861567 -0.22012636
-0.00022110695 -0.23155059 0.27736908 -0.15815665 0.18493553 -0.15650849 -0.29542074 0.17596239
0.07457067 0.16258872 0.001994586 0.015706342 -0.004201324 -0.14909053 -0.13971817 -0.03058604
-0.05694114 -0.12970616 0.14056051 -0.1360244 -0.0882299 0.1491787 0.015654031 0.17488228
-0.14219661 -0.064679295 -0.12050028 0.02691399 -0.05490949 0.12567537 -0.1036363 -0.0907947
0.11115871 -0.10557761 0.031675577 -0.028411685 0.07783983 -0.26185784 0.059508838 0.29345837
-0.21673182 0.027137065 -0.19487499 0.013266909 0.107486404 0.20677304 0.22926134 -0.03747837
-0.06002207 -0.31442577 0.15097277 -0.24550667 0.17438182 -0.025416493 -0.03719667 -0.23687771
-0.002789464 -0.10021456 -0.10146074 0.046034873 -0.24466296 0.09665209 -0.06961032 -0.02807235
0.063905105 0.06330435 -0.16104607 -0.11129977 -0.22308834 0.12118698 0.12833597 -0.10656102
0.13756764 -0.13936515 0.20666444 -0.025848705 0.3095628 0.04380064 -0.3126902 0.09406237
0.16351128 -0.08527495 -0.28335214 0.26871017 0.15314546 0.09528054 0.021375768 0.049679235
-0.1495104 -0.21202049 -0.0119706085 0.09035963 0.11428028 0.09346883 -0.21744716 -0.19251944
-0.05703759 0.012370616 -0.11769482 -0.15501334 -0.068241514 0.15915231 0.15469392 -0.19815175
0.0041503035 0.1048556 0.2497194 0.17480679 0.08226364 0.14911027 -0.20604338 -0.121331565
00000000: 7680 7fbe 3bbb d43d b665 b2bd e817 17be
00000010: 756e a6bd 95a0 ad3e 21da df3d 03b1 463d
00000020: 5a81 5abe 5171 1bbe 24d8 993e 7ef3 47be
00000030: e8c0 173d fc39 4f3e 2f8b 2bbe fd13 cc3e
00000040: 0d26 fabd e2e8 56be b02d c0bc 93e7 723e
00000050: e09e cd3d e180 f2bd bad0 5c3d e470 f6bb
00000060: 6054 debb 1205 2e3e a23b 1ebd e48d 3fbe
00000070: 8e86 4a3e ee4b ed3d b8a0 4f3d 691c 353c
00000080: 2eb7 523e abf1 84bd bf02 22be fb6f 56bd
00000090: e193 53bd 9dca cb3d 57d9 343e f1e8 b33e
000000a0: 7040 a23d d028 9a3d d14e 173e 01e1 6cbe
000000b0: 9c59 e53d 4b4c b43e b07d 10be 16fa 33be
000000c0: bc72 9cbe 1034 a63d ae58 83be eb48 2dbc
000000d0: 8cea eebd 9db6 a93d 2e03 3d3c a444 c73d
000000e0: dc18 9ebe 1f52 7d3e 4ee3 153e e824 8d3d
000000f0: 41f0 0b3e 165c e23d 659f 123e cd82 173e
00000100: 1cfe 50bd e734 c83d 209e 5c3d 2d73 c3bc
00000110: b4f6 0f3e d49d 023d 28c6 8c3e f89c 2abe
00000120: 8b4d c53c 9024 11be 7409 293d 3ff6 2fbd
00000130: 6a54 73be 4590 97bc d3a3 c73d 0f61 b2bc
00000140: bc7c 1ebe d3c7 193b c99d 42bd 87ac df3d
00000150: 4f24 543e f741 a7bd 0a45 bd3d 1567 d5bc
00000160: ff29 dbbd 19ce efbd 5c86 85be 58a3 dabd
00000170: 6900 483e d7d7 51bd 566d 10be fba6 813e
00000180: bff5 323d dd05 95be 14f2 2abd 4b4f b33d
00000190: 165d d13d 39c3 4b3e e377 ecbc ceb2 463b
000001a0: f5c5 66bd 060b a9be 9a2a 8ebc 5760 b63c
000001b0: 67d5 6bbc 9e2a a73d fe25 383e 7450 413d
000001c0: fc81 743e 3cb2 ba3d 82e1 b63d 6959 043e
000001d0: 8f00 403d 285c 003e 2e74 6e3d d657 183e
000001e0: 31e7 073e ec31 3c3e 029a 51bd 44d3 993e
000001f0: 98c5 53be 3f07 e8bd a101 02be ba95 d2bd
00000200: ed02 9abe da70 033e 0150 3dbe 1075 f43d
00000210: e0ee cabb b1ba e6bd 8de2 1abe 076c 843c
00000220: 2fa5 6e3e 8164 2bbe fa92 65bd 9909 8dbd
00000230: bb73 58bd f82c 5abe 5f86 8c3d ce68 61be
00000240: f2d8 67b9 991b 6dbe 5203 8e3e d1f3 21be
00000250: bd5f 3d3e c343 20be 6341 97be 7c2f 343e
00000260: 82b8 983d a87d 263e 9ab7 023b 96aa 803c
00000270: 43ab 89bb 30ab 18be 4812 0fbe 938f fabc
00000280: 1d3b 69bd b1d1 04be 18ef 0f3e fb49 0bbe
00000290: e1b1 b4bd 4dc2 183e e23c 803c 5714 333e
000002a0: fd9b 11be 9476 84bd dac8 f6bd ba7a dc3c
000002b0: c6e8 60bd 0bb1 003e 453f d4bd 92f2 b9bd
000002c0: 2ea7 e33d 1339 d8bd 40be 013d 9fbf e8bc
000002d0: 7d6a 9f3d 3b12 86be 8abf 733d 2d40 963e
000002e0: f2ee 5dbe 8d4e de3c 4f8d 47be 735d 593c
000002f0: d521 dc3d 50bc 533e 7cc3 6a3e eb82 19bd
00000300: b4d9 75bd 6afc a0be 9b98 1a3e 1a66 7bbe
00000310: 2691 323e 4036 d0bc 895b 18bd 1290 72be
00000320: 71cf 36bb 4b3d cdbd a6ca cfbd 108f 3c3d
00000330: ed88 7abe 88f1 c53d db8f 8ebd fcf7 e5bc
00000340: aee0 823d b6a5 813d 43e9 24be 22f1 e3bd
00000350: 4571 64be e130 f83d 816a 033e aa3c dabd
00000360: 88de 0c3e bdb5 0ebe d89f 533e aac0 d3bc
00000370: 047f 9e3e 4d68 333d ee18 a0be c6a3 c03d
00000380: 806f 273e a2a4 aebd 8813 91be 6194 893e
00000390: 2ad2 1c3e 7222 c33d 3c1c af3c 747c 4b3d
000003a0: 4119 19be e61b 59be 5f20 44bc 780e b93d
000003b0: c80b ea3d 966c bf3d 78aa 5ebe d123 45be
000003c0: 3fa0 69bd 20ae 4a3c fb09 f1bd d1bb 1ebe
000003d0: 35c2 8bbd d3f8 223e 1568 1e3e 4be8 4abe
000003e0: 45ff 873b 88be d63d 71b6 7f3e 8d00 333e
000003f0: d779 a83d 5db0 183e 09fd 52be af7c f8bd

bias f4 [50]
-0.026534518 -0.00020871662 0.0600119 0.01930949 -0.025370592 -0.009212407 -0.0123079475 0.0014799269
0.03175659 0.03528025 -0.020710679 -0.014773774 0.031516895 0.019364797 -0.008004065 -0.00046209496
-0.049350783 0.0032176971 0.004412817 0.010109316 0.0044157314 0.0025362992 0.006098197 0.005915764
0.038775522 0.017916348 -0.008917883 0.01101008 0.0016065774 0.0035987573 -0.0094815595 -0.0219976
0.011882567 -0.005138956 -0.004291882 0.014485145 0.0058086766 0.007795152 0.011673583 -0.02673206
0.05952057 -0.01652423 -0.028686617 0.001143619 -0.02732908 -0.006045882 0.0014442488 -0.023653472
-0.015141419 0.00989235
00000000: eb5e d9bc f1da 5ab9 0acf 753d f02e 9e3c
00000010: fdd5 cfbc a3ef 16bc 46a7 49bc 1bfa c13a
00000020: 3313 023d 0682 103d 71a9 a9bc b30d 72bc
00000030: dc17 013d eca2 9e3c 7b23 03bc 5645 f2b9
00000040: 0c24 4abd 00e0 523b 6499 903b 8ba1 253c
00000050: d7b1 903b 0a38 263b 62d3 c73b 06d9 c13b
00000060: 15d3 1e3d 4ec5 923c 501c 12bc 9f63 343c
00000070: cb93 d23a 21d9 6b3b 8b58 1bbc 5034 b4bc
00000080: 19af 423c b064 a8bb eaa2 8cbb 1a53 6d3c
00000090: b656 be3b 796e ff3b 8e42 3f3c 31fd dabc
000000a0: d7cb 733d d25d 87bc 3200 ebbc 7ce5 953a
000000b0: 3ce1 dfbc 891c c6bb f34c bd3a edc4 c1bc
000000c0: b713 78bc 8613 223c

weight f4 [50, 50]
-0.096450634 0.008040578 -0.23034075 0.13148643 -0.093045935 -0.05086609 0.013910786 -0.14681277
-0.0014098941 -0.11178238 -0.01308319 0.07467869 0.055165954 -0.12763952 -0.00018087079 0.048980776
-0.2859032 0.06912189 0.2009086 -0.04052236 -0.10302833 0.030776348 0.19855383 -0.29807988
0.15141639 0.26351547 0.002056447 0.117311366 0.06265694 0.05927228 -0.1390741 -0.18518266
0.0020084148 0.062924184 0.12260247 0.05965129 0.3671673 -0.1508606 0.08429411 0.024605116
-0.0031159164 0.35852233 -0.28090283 0.18646199 -0.23985356 0.11331844 -0.07002372 0.09929541
0.046594776 -0.00408264 0.08515861 -0.15137503 0.002594577 -0.009650178 -0.10827379 -0.20924059
0.21716164 0.23104668 0.24517716 -0.08296105 0.08980041 -0.003977158 0.21180257 0.25194946
-0.34054258 -0.017868048 -0.05018411 0.176011 0.11704606 -0.12476431 -0.0018955031 -0.056769956
-0.07575844 -0.07854454 0.09529461 0.029919853 0.047929194 0.058853537 -0.06896486 0.06390723
-0.103696555 0.08666151 0.2858545 0.024392799 0.038015235 -0.066139415 -0.09501919 -0.07655297
-0.19570002 0.17251724 -0.18525812 -0.25288075 0.12054135 -0.052837346 -0.12718326 -0.320276
0.14703645 -0.04571251 0.17421004 -0.1327144 0.092490986 0.2024826 -0.17377426 -0.15056531
0.064258635 0.16050641 0.1841677 0.11564485 -0.005746549 0.23796208 -0.23085566 -0.043628506
0.071748786 0.0012912395 0.01328005 -0.12817173 0.028016852 -0.13965599 -0.025523815 0.016561685
0.12904052 -0.18059564 -0.21746697 -0.26876274 -0.19362469 0.068484016 0.026545417 -0.042353205
-0.084934466 -0.016046662 0.058448877 -0.24163257 -0.060900837 0.053543497 0.22761285 0.072080225
-0.08838666 0.13877945 0.07069682 -0.11818526 -0.29589057 0.116815776 -0.17424685 -0.22054546
0.14015184 0.010069111 -0.07181107 0.22988376 0.0425756 -0.08364443 -0.06473316 0.091873966
-0.12040225 -0.06001941 0.02648067 -0.19317037 0.15397383 0.17611447 -0.14395131 0.12747279
-0.25639763 0.15999745 -0.19903971 -0.010507801 -0.19699392 0.121551484 0.07014232 -0.024283659
0.149577 -0.04193908 0.06610251 0.07040506 0.15527457 0.0062716412 -0.21790728 -0.32532972
-0.1878997 -0.0755942 0.09556955 -0.25194126 -0.17068146 -0.04139505 -0.21687236 -0.108393
0.06582998 -0.09385391 -0.16766177 -0.081187256 0.24479799 -0.112623945 -0.06663153 0.24035707
0.20143998 0.011088843 -0.14330508 0.16885424 -0.27379847 0.39086127 0.23531581 0.18639055
0.101325825 0.22274294 0.46255374 0.12464125 -0.21516584 0.20501667 0.07663854 0.061449677
0.021714471 -0.09612084 0.0780364 0.43190062 -0.10264678 0.30198863 -0.12685378 -0.045347136
0.062633805 0.12049763 0.18825075 0.02536984 -0.010724217 0.23518929 0.07253349 0.11971168
0.04931109 0.16337582 0.016662741 -0.191755 -0.355099 0.21933953 0.14880086 0.20406088
-0.13665389 -0.01231799 0.041917995 -0.06476509 0.1854718 0.3275656 -0.058647435 -0.115287825
0.1675946 -0.090182945 -0.010769374 -0.19030228 0.2593246 0.28462362 0.110715896 -0.11091124
-0.06901922 -0.27503645 0.16865002 -0.23730832 -0.011246941 -0.17505054 -0.171712 0.21955514
00000000: e987 c5bd a1bc 033c 72de 6bbe 61a4 063e
00000010: de8e bebd f658 50bd 11ea 633c 1656 16be
00000020: 32cc b8ba 29ee e4bd e05a 56bc 24f1 983d
00000030: b2f5 613d efb3 02be 22a8 3db9 11a0 483d
00000040: e761 92be c78f 8d3d fcba 4d3e c6fa 25bd
00000050: 8400 d3bd ae1e fc3c b251 4b3e ed9d 98be
00000060: e60c 1b3e 80eb 863e 75c5 063b f140 f03d
00000070: 4852 803d 7ec7 723d 7169 0ebe 86a0 3dbe
00000080: 9c9f 033b 65de 803d 0117 fb3d e954 743d
00000090: 5afd bb3e 337b 1abe 64a2 ac3d ab90 c93c
000000a0: 6734 4cbb 3d90 b73e 7fd2 8fbe e4ef 3e3e
000000b0: 2c9c 75be 8013 e83d 9968 8fbd 645b cb3d
000000c0: 2ada 3e3d abc7 85bb a367 ae3d 0e02 1bbe
000000d0: c709 2a3b c81b 1ebc a6be ddbd 2a43 56be
000000e0: 9f5f 5e3e 8097 6c3e b90f 7b3e 7ce7 a9bd
000000f0: 47e9 b73d d252 82bb c6e2 583e 85ff 803e
00000100: 995b aebe 0360 92bc da8d 4dbd 3a3c 343e
00000110: d8b5 ef3d 6e84 ffbd 8872 f8ba 9d87 68bd
00000120: 3e27 9bbd f6db a0bd d229 c33d 7b1a f53c
00000130: 6751 443d 6810 713d 733d 8dbd cbe1 823d
00000140: dc5e d4bd 977b b13d 855b 923e 68d3 c73c
00000150: ddb5 1b3d 1a74 87bd 6c99 c2bd cec7 9cbd
00000160: 9665 48be 5ca8 303e 4eb4 3dbe 9679 81be
00000170: 62de f63d f96b 58bd 543c 02be 37fb a3be
00000180: b990 163e 0a3d 3bbd 1e64 323e 49e6 07be
00000190: ea6b bd3d 9957 4f3e e1f1 31be cb2d 1abe
000001a0: 089a 833d cb5b 243e 7596 3c3e 35d7 ec3d
000001b0: 8c4d bcbb 55ac 733e 6d65 6cbe ceb3 32bd
000001c0: 07f1 923d cf3e a93a 9194 593c 733f 03be
000001d0: 9983 e53c fb01 0fbe 5217 d1bc 5fac 873c
000001e0: 3323 043e 10ee 38be a9af 5ebe 459b 89be
000001f0: 8d45 46be 5941 8c3d c675 d93c 8e7a 2dbd
00000200: 1ff2 adbd 4a74 83bc 1768 6f3d 876e 77be
00000210: 2873 79bd 6d50 5b3d 5813 693e cc9e 933d
00000220: 1104 b5bd 331c 0e3e 7fc9 903d 1d0b f2bd
00000230: f87e 97be 1c3d ef3d c46d 32be abd6 61be
00000240: f783 0f3e eaf8 243c af11 93bd a666 6b3e
00000250: c163 2e3d c54d abbd d292 84bd 6b28 bc3d
00000260: 7495 f6bd ead6 75bd fded d83c 74ce 45be
00000270: 51ab 1d3e 5a57 343e f967 13be 3a88 023e
00000280: 8d46 83be 5fd6 233e 11d1 4bbe e928 2cbc
00000290: c6b8 49be fcef f83d c7a6 8f3d 86ee c6bc
000002a0: b72a 193e 50c8 2bbd c160 873d 8730 903d
000002b0: 4c00 1f3e 5782 cd3b 1623 5fbe 9e91 a6be
000002c0: c768 40be 22d1 9abd f8b9 c33d 72fe 80be
000002d0: 1fc7 2ebe db8d 29bd ca13 5ebe 26fd ddbd
000002e0: ded1 863d 7b36 c0bd 87af 2bbe 8145 a6bd
000002f0: 53ac 7a3e 62a7 e6bd 1d76 88bd 2a20 763e
00000300: 4846 4e3e fbad 353c 91be 12be 20e8 2c3e
00000310: 502f 8cbe f81e c83e a1f6 703e 2add 3e3e
00000320: ea83 cf3d ba16 643e d8d3 ec3e e943 ff3d
00000330: 6f54 5cbe e4ef 513e abf4 9c3d a8b2 7b3d
00000340: 8ce2 b13c 01db c4bd 8cd1 9f3d 1422 dd3e
00000350: 7a38 d2bd 419e 9a3e f5e5 01be ebbd 39bd
00000360: 2746 803d 76c7 f63d cec4 403e 69d4 cf3c
00000370: a0b4 2fbc 76d5 703e 708c 943d 662b f53d
00000380: 6dfa 493d fe4b 273e 4d80 883c 6c5b 44be
00000390: 89cf b5be 8b9a 603e 415f 183e 56f5 503e
000003a0: ffee 0bbe 65d1 49bc 34b2 2b3d 8fa3 84bd
000003b0: 52ec 3d3e aeb6 a73e 4b38 70bd 061c ecbd
000003c0: eb9d 2b3e d6b1 b8bd 0772 30bc 9ade 42be
000003d0: 32c6 843e 30ba 913e 04bf e23d 6f25 e3bd
000003e0: f359 8dbd 94d1 8cbe 97b2 2c3e f400 73be
000003f0: 1745 38bc 7340 33be 45d5 2fbe 10d3 603e

bias f4 [50]
0.0057348562 0.008635866 -0.0072123036 -0.01540355 0.0039462326 -0.011395252 0.005780668 -0.008837036
0.007999781 0.00640203 0.006814134 0.003939199 -0.0025462308 -0.0070567075 0.0048451144 -0.0068476577
-0.0130405 0.003954382 0.0017210413 0.006197701 0.0059188833 -0.0034686287 -0.0023492263 -0.012682479
-0.0011299134 -0.0044682887 -0.008467473 -0.006771194 0.010009039 -0.010426637 -0.0062510404 -0.0053760465
-0.0017020288 -0.0051547727 -0.0065206154 -0.00013518224 0.00793815 -0.0071153915 0.010923284 -0.004360036
-0.0034411848 0.011962154 -0.0023396292 -0.0074391477 -0.0054203616 -0.00019127433 -0.0036363527 -0.005063853
0.010041819 -0.0048082173
00000000: 76eb bb3b 737d 0d3c 3055 ecbb 2c5f 7cbc
00000010: 664f 813b 27b3 3abc c26b bd3b 37c9 10bc
00000020: 8311 033c 1fc8 d13b 1949 df3b 6514 813b
00000030: aade 26bb f43b e7bb c4c3 9e3b 5162 e0bb
00000040: d2a7 55bc c393 813b 9094 e13a 1616 cb3b
00000050: 31f3 c13b ef51 63bb 7af5 19bb 2cca 4fbc
00000060: 9a19 94ba b96a 92bb 28bb 0abc e4e0 ddbb
00000070: f4fc 233c 7cd4 2abc 87d5 ccbb 8c29 b0bb
00000080: 9c16 dfba 5ee9 a8bb e3aa d5bb b5bf 0db9
00000090: 040f 023c 3b28 e9bb 93f7 323c a2de 8ebb
000000a0: 8085 61bb e9fc 433c 7754 19bb 18c4 f3bb
000000b0: 4a9d b1bb d090 48b9 e04f 6ebb aeee a5bb
000000c0: 7186 243c 408e 9dbb
