pbc_examples/saved_models/convection_beta-1.0_layers-50,50,50,50,1_L-2.0_WD-0_init-normal_seed0.pt (torch, 114029 bytes, 36 tensors)

x_u f4 [256, 1]
000000 00 00 00 00 db 0f c9 3c db 0f 49 3d e4 cb 96 3d
       0.0 0.024543693 0.049087387 0.07363108
000010 db 0f c9 3d d1 53 fb 3d e4 cb 16 3e df ed 2f 3e
       0.09817477 0.12271846 0.14726216 0.17180584
000020 db 0f 49 3e d6 31 62 3e d1 53 7b 3e e6 3a 8a 3e
       0.19634955 0.22089323 0.24543692 0.2699806
000030 e4 cb 96 3e e2 5c a3 3e df ed af 3e dd 7e bc 3e
       0.2945243 0.319068 0.3436117 0.3681554
000040 db 0f c9 3e d8 a0 d5 3e d6 31 e2 3e d4 c2 ee 3e
       0.3926991 0.41724277 0.44178647 0.46633017
000050 d1 53 fb 3e 67 f2 03 3f e6 3a 0a 3f 65 83 10 3f
       0.49087384 0.5154175 0.5399612 0.5645049
000060 e4 cb 16 3f 63 14 1d 3f e2 5c 23 3f 60 a5 29 3f
       0.5890486 0.6135923 0.638136 0.6626797
000070 df ed 2f 3f 5e 36 36 3f dd 7e 3c 3f 5c c7 42 3f
       0.6872234 0.7117671 0.7363108 0.7608545
000080 db 0f 49 3f 59 58 4f 3f d8 a0 55 3f 57 e9 5b 3f
       0.7853982 0.8099418 0.83448553 0.85902923
000090 d6 31 62 3f 55 7a 68 3f d4 c2 6e 3f 52 0b 75 3f
       0.88357294 0.90811664 0.93266034 0.957204
0000a0 d1 53 7b 3f 28 ce 80 3f 67 f2 83 3f a7 16 87 3f
       0.9817477 1.0062914 1.030835 1.0553788
0000b0 e6 3a 8a 3f 26 5f 8d 3f 65 83 90 3f a5 a7 93 3f
       1.0799224 1.1044662 1.1290098 1.1535536
0000c0 e4 cb 96 3f 23 f0 99 3f 63 14 9d 3f a2 38 a0 3f
       1.1780972 1.2026409 1.2271847 1.2517283
0000d0 e2 5c a3 3f 21 81 a6 3f 60 a5 a9 3f a0 c9 ac 3f
       1.276272 1.3008157 1.3253593 1.3499031
0000e0 df ed af 3f 1f 12 b3 3f 5e 36 b6 3f 9e 5a b9 3f
       1.3744467 1.3989905 1.4235342 1.4480779
0000f0 dd 7e bc 3f 1c a3 bf 3f 5c c7 c2 3f 9b eb c5 3f
       1.4726216 1.4971652 1.521709 1.5462526
000100 db 0f c9 3f 1a 34 cc 3f 59 58 cf 3f 99 7c d2 3f
       1.5707964 1.59534 1.6198837 1.6444274
000110 d8 a0 d5 3f 18 c5 d8 3f 57 e9 db 3f 97 0d df 3f
       1.6689711 1.6935148 1.7180585 1.7426022
000120 d6 31 e2 3f 15 56 e5 3f 55 7a e8 3f 94 9e eb 3f
       1.7671459 1.7916895 1.8162333 1.8407769
000130 d4 c2 ee 3f 13 e7 f1 3f 52 0b f5 3f 92 2f f8 3f
       1.8653207 1.8898643 1.914408 1.9389517
000140 d1 53 fb 3f 11 78 fe 3f 28 ce 00 40 48 60 02 40
       1.9634954 1.9880391 2.0125828 2.0371265
000150 67 f2 03 40 87 84 05 40 a7 16 07 40 c7 a8 08 40
       2.06167 2.0862138 2.1107576 2.1353014
000160 e6 3a 0a 40 06 cd 0b 40 26 5f 0d 40 45 f1 0e 40
       2.1598449 2.1843886 2.2089324 2.233476
000170 65 83 10 40 85 15 12 40 a5 a7 13 40 c4 39 15 40
       2.2580197 2.2825634 2.3071072 2.3316507
000180 e4 cb 16 40 04 5e 18 40 23 f0 19 40 43 82 1b 40
       2.3561945 2.3807383 2.4052818 2.4298255
000190 63 14 1d 40 83 a6 1e 40 a2 38 20 40 c2 ca 21 40
       2.4543693 2.478913 2.5034566 2.5280004
0001a0 e2 5c 23 40 01 ef 24 40 21 81 26 40 41 13 28 40
       2.552544 2.5770876 2.6016314 2.6261752
0001b0 60 a5 29 40 80 37 2b 40 a0 c9 2c 40 c0 5b 2e 40
       2.6507187 2.6752625 2.6998062 2.72435
0001c0 df ed 2f 40 ff 7f 31 40 1f 12 33 40 3e a4 34 40
       2.7488935 2.7734373 2.797981 2.8225245
0001d0 5e 36 36 40 7e c8 37 40 9e 5a 39 40 bd ec 3a 40
       2.8470683 2.871612 2.8961558 2.9206994
0001e0 dd 7e 3c 40 fd 10 3e 40 1c a3 3f 40 3c 35 41 40
       2.9452431 2.969787 2.9943304 3.0188742
0001f0 5c c7 42 40 7c 59 44 40 9b eb 45 40 bb 7d 47 40
       3.043418 3.0679617 3.0925052 3.117049
000200 db 0f 49 40 fa a1 4a 40 1a 34 4c 40 3a c6 4d 40
       3.1415927 3.1661363 3.19068 3.2152238
000210 59 58 4f 40 79 ea 50 40 99 7c 52 40 b9 0e 54 40
       3.2397673 3.264311 3.2888548 3.3133986
000220 d8 a0 55 40 f8 32 57 40 18 c5 58 40 37 57 5a 40
       3.3379421 3.362486 3.3870296 3.4115732
000230 57 e9 5b 40 77 7b 5d 40 97 0d 5f 40 b6 9f 60 40
       3.436117 3.4606607 3.4852045 3.509748
000240 d6 31 62 40 f6 c3 63 40 15 56 65 40 35 e8 66 40
       3.5342917 3.5588355 3.583379 3.6079228
000250 55 7a 68 40 75 0c 6a 40 94 9e 6b 40 b4 30 6d 40
       3.6324666 3.6570103 3.6815538 3.7060976
000260 d4 c2 6e 40 f3 54 70 40 13 e7 71 40 33 79 73 40
       3.7306414 3.755185 3.7797287 3.8042724
000270 52 0b 75 40 72 9d 76 40 92 2f 78 40 b2 c1 79 40
       3.828816 3.8533597 3.8779035 3.9024472
000280 d1 53 7b 40 f1 e5 7c 40 11 78 7e 40 18 05 80 40
       3.9269907 3.9515345 3.9760783 4.000622
000290 28 ce 80 40 38 97 81 40 48 60 82 40 58 29 83 40
       4.0251656 4.0497093 4.074253 4.098797
0002a0 67 f2 83 40 77 bb 84 40 87 84 85 40 97 4d 86 40
       4.12334 4.147884 4.1724277 4.1969714
0002b0 a7 16 87 40 b7 df 87 40 c7 a8 88 40 d6 71 89 40
       4.221515 4.246059 4.2706027 4.295146
0002c0 e6 3a 8a 40 f6 03 8b 40 06 cd 8b 40 16 96 8c 40
       4.3196898 4.3442335 4.3687773 4.393321
0002d0 26 5f 8d 40 36 28 8e 40 45 f1 8e 40 55 ba 8f 40
       4.417865 4.4424086 4.466952 4.4914956
0002e0 65 83 90 40 75 4c 91 40 85 15 92 40 95 de 92 40
       4.5160394 4.540583 4.565127 4.5896707
0002f0 a5 a7 93 40 b4 70 94 40 c4 39 95 40 d4 02 96 40
       4.6142144 4.6387577 4.6633015 4.687845
000300 e4 cb 96 40 f4 94 97 40 04 5e 98 40 14 27 99 40
       4.712389 4.7369328 4.7614765 4.7860203
000310 23 f0 99 40 33 b9 9a 40 43 82 9b 40 53 4b 9c 40
       4.8105636 4.8351073 4.859651 4.884195
000320 63 14 9d 40 73 dd 9d 40 83 a6 9e 40 92 6f 9f 40
       4.9087386 4.9332824 4.957826 4.9823694
000330 a2 38 a0 40 b2 01 a1 40 c2 ca a1 40 d2 93 a2 40
       5.006913 5.031457 5.0560007 5.0805445
000340 e2 5c a3 40 f1 25 a4 40 01 ef a4 40 11 b8 a5 40
       5.105088 5.1296315 5.1541753 5.178719
000350 21 81 a6 40 31 4a a7 40 41 13 a8 40 51 dc a8 40
       5.203263 5.2278066 5.2523503 5.276894
000360 60 a5 a9 40 70 6e aa 40 80 37 ab 40 90 00 ac 40
       5.3014374 5.325981 5.350525 5.3750687
000370 a0 c9 ac 40 b0 92 ad 40 c0 5b ae 40 cf 24 af 40
       5.3996124 5.424156 5.4487 5.473243
000380 df ed af 40 ef b6 b0 40 ff 7f b1 40 0f 49 b2 40
       5.497787 5.5223308 5.5468745 5.5714183
000390 1f 12 b3 40 2f db b3 40 3e a4 b4 40 4e 6d b5 40
       5.595962 5.620506 5.645049 5.669593
0003a0 5e 36 b6 40 6e ff b6 40 7e c8 b7 40 8e 91 b8 40
       5.6941366 5.7186804 5.743224 5.767768
0003b0 9e 5a b9 40 ad 23 ba 40 bd ec ba 40 cd b5 bb 40
       5.7923117 5.816855 5.8413987 5.8659425
0003c0 dd 7e bc 40 ed 47 bd 40 fd 10 be 40 0d da be 40
       5.8904862 5.91503 5.939574 5.9641175
0003d0 1c a3 bf 40 2c 6c c0 40 3c 35 c1 40 4c fe c1 40
       5.988661 6.0132046 6.0377483 6.062292
0003e0 5c c7 c2 40 6c 90 c3 40 7c 59 c4 40 8b 22 c5 40
       6.086836 6.1113796 6.1359234 6.1604667
0003f0 9b eb c5 40 ab b4 c6 40 bb 7d c7 40 cb 46 c8 40
       6.1850104 6.209554 6.234098 6.2586417

t_u f4 [256, 1]
000000 00 00 00 00 00 00 00 00 00 00 00 00 00 00 00 00
       0.0 0.0 0.0 0.0
000010 00 00 00 00 00 00 00 00 00 00 00 00 00 00 00 00
       0.0 0.0 0.0 0.0
000020 00 00 00 00 00 00 00 00 00 00 00 00 00 00 00 00
       0.0 0.0 0.0 0.0
000030 00 00 00 00 00 00 00 00 00 00 00 00 00 00 00 00
       0.0 0.0 0.0 0.0
000040 00 00 00 00 00 00 00 00 00 00 00 00 00 00 00 00
       0.0 0.0 0.0 0.0
000050 00 00 00 00 00 00 00 00 00 00 00 00 00 00 00 00
       0.0 0.0 0.0 0.0
000060 00 00 00 00 00 00 00 00 00 00 00 00 00 00 00 00
       0.0 0.0 0.0 0.0
000070 00 00 00 00 00 00 00 00 00 00 00 00 00 00 00 00
       0.0 0.0 0.0 0.0
000080 00 00 00 00 00 00 00 00 00 00 00 00 00 00 00 00
       0.0 0.0 0.0 0.0
000090 00 00 00 00 00 00 00 00 00 00 00 00 00 00 00 00
       0.0 0.0 0.0 0.0
0000a0 00 00 00 00 00 00 00 00 00 00 00 00 00 00 00 00
       0.0 0.0 0.0 0.0
0000b0 00 00 00 00 00 00 00 00 00 00 00 00 00 00 00 00
       0.0 0.0 0.0 0.0
0000c0 00 00 00 00 00 00 00 00 00 00 00 00 00 00 00 00
       0.0 0.0 0.0 0.0
0000d0 00 00 00 00 00 00 00 00 00 00 00 00 00 00 00 00
       0.0 0.0 0.0 0.0
0000e0 00 00 00 00 00 00 00 00 00 00 00 00 00 00 00 00
       0.0 0.0 0.0 0.0
0000f0 00 00 00 00 00 00 00 00 00 00 00 00 00 00 00 00
       0.0 0.0 0.0 0.0
000100 00 00 00 00 00 00 00 00 00 00 00 00 00 00 00 00
       0.0 0.0 0.0 0.0
000110 00 00 00 00 00 00 00 00 00 00 00 00 00 00 00 00
       0.0 0.0 0.0 0.0
000120 00 00 00 00 00 00 00 00 00 00 00 00 00 00 00 00
       0.0 0.0 0.0 0.0
000130 00 00 00 00 00 00 00 00 00 00 00 00 00 00 00 00
       0.0 0.0 0.0 0.0
000140 00 00 00 00 00 00 00 00 00 00 00 00 00 00 00 00
       0.0 0.0 0.0 0.0
000150 00 00 00 00 00 00 00 00 00 00 00 00 00 00 00 00
       0.0 0.0 0.0 0.0
000160 00 00 00 00 00 00 00 00 00 00 00 00 00 00 00 00
       0.0 0.0 0.0 0.0
000170 00 00 00 00 00 00 00 00 00 00 00 00 00 00 00 00
       0.0 0.0 0.0 0.0
000180 00 00 00 00 00 00 00 00 00 00 00 00 00 00 00 00
       0.0 0.0 0.0 0.0
000190 00 00 00 00 00 00 00 00 00 00 00 00 00 00 00 00
       0.0 0.0 0.0 0.0
0001a0 00 00 00 00 00 00 00 00 00 00 00 00 00 00 00 00
       0.0 0.0 0.0 0.0
0001b0 00 00 00 00 00 00 00 00 00 00 00 00 00 00 00 00
       0.0 0.0 0.0 0.0
0001c0 00 00 00 00 00 00 00 00 00 00 00 00 00 00 00 00
       0.0 0.0 0.0 0.0
0001d0 00 00 00 00 00 00 00 00 00 00 00 00 00 00 00 00
       0.0 0.0 0.0 0.0
0001e0 00 00 00 00 00 00 00 00 00 00 00 00 00 00 00 00
       0.0 0.0 0.0 0.0
0001f0 00 00 00 00 00 00 00 00 00 00 00 00 00 00 00 00
       0.0 0.0 0.0 0.0
000200 00 00 00 00 00 00 00 00 00 00 00 00 00 00 00 00
       0.0 0.0 0.0 0.0
000210 00 00 00 00 00 00 00 00 00 00 00 00 00 00 00 00
       0.0 0.0 0.0 0.0
000220 00 00 00 00 00 00 00 00 00 00 00 00 00 00 00 00
       0.0 0.0 0.0 0.0
000230 00 00 00 00 00 00 00 00 00 00 00 00 00 00 00 00
       0.0 0.0 0.0 0.0
000240 00 00 00 00 00 00 00 00 00 00 00 00 00 00 00 00
       0.0 0.0 0.0 0.0
000250 00 00 00 00 00 00 00 00 00 00 00 00 00 00 00 00
       0.0 0.0 0.0 0.0
000260 00 00 00 00 00 00 00 00 00 00 00 00 00 00 00 00
       0.0 0.0 0.0 0.0
000270 00 00 00 00 00 00 00 00 00 00 00 00 00 00 00 00
       0.0 0.0 0.0 0.0
000280 00 00 00 00 00 00 00 00 00 00 00 00 00 00 00 00
       0.0 0.0 0.0 0.0
000290 00 00 00 00 00 00 00 00 00 00 00 00 00 00 00 00
       0.0 0.0 0.0 0.0
0002a0 00 00 00 00 00 00 00 00 00 00 00 00 00 00 00 00
       0.0 0.0 0.0 0.0
0002b0 00 00 00 00 00 00 00 00 00 00 00 00 00 00 00 00
       0.0 0.0 0.0 0.0
0002c0 00 00 00 00 00 00 00 00 00 00 00 00 00 00 00 00
       0.0 0.0 0.0 0.0
0002d0 00 00 00 00 00 00 00 00 00 00 00 00 00 00 00 00
       0.0 0.0 0.0 0.0
0002e0 00 00 00 00 00 00 00 00 00 00 00 00 00 00 00 00
       0.0 0.0 0.0 0.0
0002f0 00 00 00 00 00 00 00 00 00 00 00 00 00 00 00 00
       0.0 0.0 0.0 0.0
000300 00 00 00 00 00 00 00 00 00 00 00 00 00 00 00 00
       0.0 0.0 0.0 0.0
000310 00 00 00 00 00 00 00 00 00 00 00 00 00 00 00 00
       0.0 0.0 0.0 0.0
000320 00 00 00 00 00 00 00 00 00 00 00 00 00 00 00 00
       0.0 0.0 0.0 0.0
000330 00 00 00 00 00 00 00 00 00 00 00 00 00 00 00 00
       0.0 0.0 0.0 0.0
000340 00 00 00 00 00 00 00 00 00 00 00 00 00 00 00 00
       0.0 0.0 0.0 0.0
000350 00 00 00 00 00 00 00 00 00 00 00 00 00 00 00 00
       0.0 0.0 0.0 0.0
000360 00 00 00 00 00 00 00 00 00 00 00 00 00 00 00 00
       0.0 0.0 0.0 0.0
000370 00 00 00 00 00 00 00 00 00 00 00 00 00 00 00 00
       0.0 0.0 0.0 0.0
000380 00 00 00 00 00 00 00 00 00 00 00 00 00 00 00 00
       0.0 0.0 0.0 0.0
000390 00 00 00 00 00 00 00 00 00 00 00 00 00 00 00 00
       0.0 0.0 0.0 0.0
0003a0 00 00 00 00 00 00 00 00 00 00 00 00 00 00 00 00
       0.0 0.0 0.0 0.0
0003b0 00 00 00 00 00 00 00 00 00 00 00 00 00 00 00 00
       0.0 0.0 0.0 0.0
0003c0 00 00 00 00 00 00 00 00 00 00 00 00 00 00 00 00
       0.0 0.0 0.0 0.0
0003d0 00 00 00 00 00 00 00 00 00 00 00 00 00 00 00 00
       0.0 0.0 0.0 0.0
0003e0 00 00 00 00 00 00 00 00 00 00 00 00 00 00 00 00
       0.0 0.0 0.0 0.0
0003f0 00 00 00 00 00 00 00 00 00 00 00 00 00 00 00 00
       0.0 0.0 0.0 0.0

x_f f4 [100, 1]
000000 a5 a7 93 40 97 0d df 3f d8 a0 55 40 53 4b 9c 40
       4.6142144 1.7426022 3.3379421 4.884195
000010 7c 59 44 40 ef b6 b0 40 ad 23 ba 40 9b eb c5 40
       3.0679617 5.5223308 5.816855 6.1850104
000020 85 15 92 40 23 f0 99 3f 14 27 99 40 65 83 10 3f
       4.565127 1.2026409 4.7860203 0.5645049
000030 94 9e eb 3f d1 53 fb 3d 92 6f 9f 40 5c c7 c2 40
       1.8407769 0.12271846 4.9823694 6.086836
000040 6e ff b6 40 a0 c9 2c 40 c2 ca 21 40 6c 90 c3 40
       5.7186804 2.6998062 2.5280004 6.1113796
000050 c0 5b 2e 40 cf 24 af 40 a7 16 87 3f 4c fe c1 40
       2.72435 5.473243 1.0553788 6.062292
000060 d6 31 e2 3e 5e 36 36 3f 97 4d 86 40 cb 46 c8 40
       0.44178647 0.7117671 4.1969714 6.2586417
000070 7c 59 c4 40 75 4c 91 40 9b eb c5 40 c7 a8 88 40
       6.1359234 4.540583 6.1850104 4.2706027
000080 cf 24 af 40 21 81 26 40 26 5f 8d 40 63 14 9d 40
       5.473243 2.6016314 4.417865 4.9087386
000090 2c 6c c0 40 dd 7e bc 3e d1 53 fb 3e 21 81 a6 40
       6.0132046 0.3681554 0.49087384 5.203263
0000a0 77 7b 5d 40 d6 31 e2 3e 59 58 cf 3f 77 bb 84 40
       3.4606607 0.44178647 1.6198837 4.147884
0000b0 55 7a e8 3f 83 a6 9e 40 97 0d 5f 40 18 c5 58 40
       1.8162333 4.957826 3.4852045 3.3870296
0000c0 52 0b 75 3f a5 a7 13 40 60 a5 29 3f 31 4a a7 40
       0.957204 2.3071072 0.6626797 5.2278066
0000d0 db 0f c9 3c 4c fe c1 40 c4 39 15 40 d1 53 fb 3f
       0.024543693 6.062292 2.3316507 1.9634954
0000e0 c4 39 15 40 df ed 2f 3f 1a 34 cc 3f 37 57 5a 40
       2.3316507 0.6872234 1.59534 3.4115732
0000f0 1f 12 b3 40 9e 5a b9 40 26 5f 8d 3f 94 9e 6b 40
       5.595962 5.7923117 1.1044662 3.6815538
000100 d6 31 62 3f 57 e9 db 3f 43 82 1b 40 35 e8 66 40
       0.88357294 1.7180585 2.4298255 3.6079228
000110 15 56 e5 3f 59 58 cf 3f d6 71 89 40 11 78 fe 3f
       1.7916895 1.6198837 4.295146 1.9880391
000120 65 83 10 40 c0 5b 2e 40 db 0f 49 3f 67 f2 03 40
       2.2580197 2.72435 0.7853982 2.06167
000130 83 a6 9e 40 f1 25 a4 40 43 82 1b 40 75 4c 91 40
       4.957826 5.1296315 2.4298255 4.540583
000140 75 0c 6a 40 d8 a0 55 3f b4 30 6d 40 15 56 e5 3f
       3.6570103 0.83448553 3.7060976 1.7916895
000150 5c c7 c2 40 92 6f 9f 40 53 4b 9c 40 28 ce 80 3f
       6.086836 4.9823694 4.884195 1.0062914
000160 df ed af 40 bd ec ba 40 97 4d 86 40 e4 cb 96 40
       5.497787 5.8413987 4.1969714 4.712389
000170 d6 31 62 3f d4 c2 6e 3f 63 14 9d 3f 7e c8 b7 40
       0.88357294 0.93266034 1.2271847 5.743224
000180 0f 49 b2 40 3c 35 c1 40 57 e9 5b 40 a0 c9 ac 3f
       5.5714183 6.0377483 3.436117 1.3499031

t_f f4 [100, 1]
000000 77 86 c4 3e 5d 74 51 3f ee 0c 09 3f 67 48 4c 3f
       0.3838384 0.8181818 0.53535354 0.7979798
000010 de ce 10 3e 96 02 35 3f a0 d6 2f 3f 72 1c 47 3f
       0.14141414 0.7070707 0.68686867 0.7777778
000020 e9 a2 0b 3f b5 7e 25 3c e4 38 0e 3f 6d b2 49 3f
       0.54545456 0.01010101 0.5555556 0.7878788
000030 43 62 de 3e 43 62 de 3e 0a d4 7a 3f 00 00 80 3f
       0.43434343 0.43434343 0.97979796 1.0
000040 a5 40 2d 3f f3 76 06 3f ca 26 9b 3e 58 0a 54 3f
       0.67676765 0.5252525 0.3030303 0.82828283
000050 0a d4 7a 3f ba e8 22 3f a0 d6 af 3e b5 7e a5 3e
       0.97979796 0.6363636 0.34343433 0.32323232
000060 1a 12 f3 3e 29 50 6b 3f e4 38 0e 3f 72 1c 47 3f
       0.47474748 0.9191919 0.5555556 0.7777778
000070 8c 2e ba 3e 39 8e 63 3e de ce 90 3e 39 8e 63 3f
       0.36363637 0.22222222 0.28282827 0.8888889
000080 2f ba 68 3f ca 26 1b 3e bf 52 20 3f b5 7e 25 3d
       0.90909094 0.15151516 0.6262626 0.04040404
000090 ca 26 1b 3e 3e f8 60 3f d4 fa 15 3f fd 4a 81 3e
       0.15151516 0.8787879 0.5858586 0.25252524
0000a0 67 48 4c 3f 77 86 c4 3e 4e 36 d9 3e b5 7e 25 3c
       0.7979798 0.3838384 0.42424244 0.01010101
0000b0 10 3e 78 3e 34 24 66 3f 8c 2e ba 3e 1f 7c 70 3f
       0.24242425 0.8989899 0.36363637 0.93939394
0000c0 7c f0 41 3f bf 52 a0 3e b5 7e 25 3d a0 d6 af 3e
       0.75757575 0.3131313 0.04040404 0.34343433
0000d0 2f ba e8 3e 15 a8 75 3f 15 a8 75 3f 2f ba e8 3e
       0.45454547 0.959596 0.959596 0.45454547
0000e0 2f ba e8 3e 62 de 4e 3f f3 76 06 3f de ce 10 3f
       0.45454547 0.8080808 0.5252525 0.56565654
0000f0 3e f8 60 3f 86 c4 3c 3f b5 7e 25 3d 1a 12 f3 3e
       0.8787879 0.7373737 0.04040404 0.47474748
000100 d9 64 13 3f de ce 10 3f a5 40 2d 3f 05 6a 7d 3f
       0.57575756 0.56565654 0.67676765 0.989899
000110 a0 d6 2f 3f 4e 36 59 3e 62 de 4e 3d de ce 90 3e
       0.68686867 0.21212122 0.05050505 0.28282827
000120 fd 4a 81 3e 62 de 4e 3f b5 7e 25 3c 58 0a d4 3e
       0.25252524 0.8080808 0.01010101 0.41414142
000130 10 3e 78 3f 0a d4 7a 3f d4 fa 95 3e f8 e0 03 3f
       0.969697 0.97979796 0.2929293 0.5151515
000140 53 a0 56 3f 1a 12 73 3f 1a 12 f3 3e cf 90 18 3f
       0.83838385 0.94949496 0.47474748 0.5959596
000150 6d b2 c9 3e a0 d6 2f 3f 4e 36 59 3f b5 7e a5 3c
       0.3939394 0.68686867 0.8484849 0.02020202
000160 29 50 6b 3f 10 3e f8 3e f3 76 06 3e ca 26 1b 3f
       0.9191919 0.4848485 0.13131313 0.6060606
000170 fd 4a 81 3e 10 3e 78 3f a0 d6 af 3e 53 a0 56 3f
       0.25252524 0.969697 0.34343433 0.83838385
000180 10 3e f8 3e 67 48 4c 3f 91 98 37 3f ca 26 9b 3e
       0.4848485 0.7979798 0.7171717 0.3030303

x_bc_lb f4 [100, 1]
000000 00 00 00 00 00 00 00 00 00 00 00 00 00 00 00 00
       0.0 0.0 0.0 0.0
000010 00 00 00 00 00 00 00 00 00 00 00 00 00 00 00 00
       0.0 0.0 0.0 0.0
000020 00 00 00 00 00 00 00 00 00 00 00 00 00 00 00 00
       0.0 0.0 0.0 0.0
000030 00 00 00 00 00 00 00 00 00 00 00 00 00 00 00 00
       0.0 0.0 0.0 0.0
000040 00 00 00 00 00 00 00 00 00 00 00 00 00 00 00 00
       0.0 0.0 0.0 0.0
000050 00 00 00 00 00 00 00 00 00 00 00 00 00 00 00 00
       0.0 0.0 0.0 0.0
000060 00 00 00 00 00 00 00 00 00 00 00 00 00 00 00 00
       0.0 0.0 0.0 0.0
000070 00 00 00 00 00 00 00 00 00 00 00 00 00 00 00 00
       0.0 0.0 0.0 0.0
000080 00 00 00 00 00 00 00 00 00 00 00 00 00 00 00 00
       0.0 0.0 0.0 0.0
000090 00 00 00 00 00 00 00 00 00 00 00 00 00 00 00 00
       0.0 0.0 0.0 0.0
0000a0 00 00 00 00 00 00 00 00 00 00 00 00 00 00 00 00
       0.0 0.0 0.0 0.0
0000b0 00 00 00 00 00 00 00 00 00 00 00 00 00 00 00 00
       0.0 0.0 0.0 0.0
0000c0 00 00 00 00 00 00 00 00 00 00 00 00 00 00 00 00
       0.0 0.0 0.0 0.0
0000d0 00 00 00 00 00 00 00 00 00 00 00 00 00 00 00 00
       0.0 0.0 0.0 0.0
0000e0 00 00 00 00 00 00 00 00 00 00 00 00 00 00 00 00
       0.0 0.0 0.0 0.0
0000f0 00 00 00 00 00 00 00 00 00 00 00 00 00 00 00 00
       0.0 0.0 0.0 0.0
000100 00 00 00 00 00 00 00 00 00 00 00 00 00 00 00 00
       0.0 0.0 0.0 0.0
000110 00 00 00 00 00 00 00 00 00 00 00 00 00 00 00 00
       0.0 0.0 0.0 0.0
000120 00 00 00 00 00 00 00 00 00 00 00 00 00 00 00 00
       0.0 0.0 0.0 0.0
000130 00 00 00 00 00 00 00 00 00 00 00 00 00 00 00 00
       0.0 0.0 0.0 0.0
000140 00 00 00 00 00 00 00 00 00 00 00 00 00 00 00 00
       0.0 0.0 0.0 0.0
000150 00 00 00 00 00 00 00 00 00 00 00 00 00 00 00 00
       0.0 0.0 0.0 0.0
000160 00 00 00 00 00 00 00 00 00 00 00 00 00 00 00 00
       0.0 0.0 0.0 0.0
000170 00 00 00 00 00 00 00 00 00 00 00 00 00 00 00 00
       0.0 0.0 0.0 0.0
000180 00 00 00 00 00 00 00 00 00 00 00 00 00 00 00 00
       0.0 0.0 0.0 0.0

t_bc_lb f4 [100, 1]
000000 00 00 00 00 b5 7e 25 3c b5 7e a5 3c 10 3e f8 3c
       0.0 0.01010101 0.02020202 0.030303031
000010 b5 7e 25 3d 62 de 4e 3d 10 3e 78 3d de ce 90 3d
       0.04040404 0.05050505 0.060606062 0.07070707
000020 b5 7e a5 3d 8c 2e ba 3d 62 de ce 3d 39 8e e3 3d
       0.08080808 0.09090909 0.1010101 0.11111111
000030 10 3e f8 3d f3 76 06 3e de ce 10 3e ca 26 1b 3e
       0.121212125 0.13131313 0.14141414 0.15151516
000040 b5 7e 25 3e a0 d6 2f 3e 8c 2e 3a 3e 77 86 44 3e
       0.16161616 0.17171717 0.18181819 0.1919192
000050 62 de 4e 3e 4e 36 59 3e 39 8e 63 3e 24 e6 6d 3e
       0.2020202 0.21212122 0.22222222 0.23232323
000060 10 3e 78 3e fd 4a 81 3e f3 76 86 3e e9 a2 8b 3e
       0.24242425 0.25252524 0.26262626 0.27272728
000070 de ce 90 3e d4 fa 95 3e ca 26 9b 3e bf 52 a0 3e
       0.28282827 0.2929293 0.3030303 0.3131313
000080 b5 7e a5 3e ab aa aa 3e a0 d6 af 3e 96 02 b5 3e
       0.32323232 0.33333334 0.34343433 0.35353535
000090 8c 2e ba 3e 81 5a bf 3e 77 86 c4 3e 6d b2 c9 3e
       0.36363637 0.37373737 0.3838384 0.3939394
0000a0 62 de ce 3e 58 0a d4 3e 4e 36 d9 3e 43 62 de 3e
       0.4040404 0.41414142 0.42424244 0.43434343
0000b0 39 8e e3 3e 2f ba e8 3e 24 e6 ed 3e 1a 12 f3 3e
       0.44444445 0.45454547 0.46464646 0.47474748
0000c0 10 3e f8 3e 05 6a fd 3e fd 4a 01 3f f8 e0 03 3f
       0.4848485 0.4949495 0.5050505 0.5151515
0000d0 f3 76 06 3f ee 0c 09 3f e9 a2 0b 3f e4 38 0e 3f
       0.5252525 0.53535354 0.54545456 0.5555556
0000e0 de ce 10 3f d9 64 13 3f d4 fa 15 3f cf 90 18 3f
       0.56565654 0.57575756 0.5858586 0.5959596
0000f0 ca 26 1b 3f c5 bc 1d 3f bf 52 20 3f ba e8 22 3f
       0.6060606 0.61616164 0.6262626 0.6363636
000100 b5 7e 25 3f b0 14 28 3f ab aa 2a 3f a5 40 2d 3f
       0.64646465 0.65656567 0.6666667 0.67676765
000110 a0 d6 2f 3f 9b 6c 32 3f 96 02 35 3f 91 98 37 3f
       0.68686867 0.6969697 0.7070707 0.7171717
000120 8c 2e 3a 3f 86 c4 3c 3f 81 5a 3f 3f 7c f0 41 3f
       0.72727275 0.7373737 0.74747473 0.75757575
000130 77 86 44 3f 72 1c 47 3f 6d b2 49 3f 67 48 4c 3f
       0.7676768 0.7777778 0.7878788 0.7979798
000140 62 de 4e 3f 5d 74 51 3f 58 0a 54 3f 53 a0 56 3f
       0.8080808 0.8181818 0.82828283 0.83838385
000150 4e 36 59 3f 48 cc 5b 3f 43 62 5e 3f 3e f8 60 3f
       0.8484849 0.85858583 0.86868685 0.8787879
000160 39 8e 63 3f 34 24 66 3f 2f ba 68 3f 29 50 6b 3f
       0.8888889 0.8989899 0.90909094 0.9191919
000170 24 e6 6d 3f 1f 7c 70 3f 1a 12 73 3f 15 a8 75 3f
       0.9292929 0.93939394 0.94949496 0.959596
000180 10 3e 78 3f 0a d4 7a 3f 05 6a 7d 3f 00 00 80 3f
       0.969697 0.97979796 0.989899 1.0

x_bc_ub f4 [100, 1]
000000 db 0f c9 40 db 0f c9 40 db 0f c9 40 db 0f c9 40
       6.2831855 6.2831855 6.2831855 6.2831855
000010 db 0f c9 40 db 0f c9 40 db 0f c9 40 db 0f c9 40
       6.2831855 6.2831855 6.2831855 6.2831855
000020 db 0f c9 40 db 0f c9 40 db 0f c9 40 db 0f c9 40
       6.2831855 6.2831855 6.2831855 6.2831855
000030 db 0f c9 40 db 0f c9 40 db 0f c9 40 db 0f c9 40
       6.2831855 6.2831855 6.2831855 6.2831855
000040 db 0f c9 40 db 0f c9 40 db 0f c9 40 db 0f c9 40
       6.2831855 6.2831855 6.2831855 6.2831855
000050 db 0f c9 40 db 0f c9 40 db 0f c9 40 db 0f c9 40
       6.2831855 6.2831855 6.2831855 6.2831855
000060 db 0f c9 40 db 0f c9 40 db 0f c9 40 db 0f c9 40
       6.2831855 6.2831855 6.2831855 6.2831855
000070 db 0f c9 40 db 0f c9 40 db 0f c9 40 db 0f c9 40
       6.2831855 6.2831855 6.2831855 6.2831855
000080 db 0f c9 40 db 0f c9 40 db 0f c9 40 db 0f c9 40
       6.2831855 6.2831855 6.2831855 6.2831855
000090 db 0f c9 40 db 0f c9 40 db 0f c9 40 db 0f c9 40
       6.2831855 6.2831855 6.2831855 6.2831855
0000a0 db 0f c9 40 db 0f c9 40 db 0f c9 40 db 0f c9 40
       6.2831855 6.2831855 6.2831855 6.2831855
0000b0 db 0f c9 40 db 0f c9 40 db 0f c9 40 db 0f c9 40
       6.2831855 6.2831855 6.2831855 6.2831855
0000c0 db 0f c9 40 db 0f c9 40 db 0f c9 40 db 0f c9 40
       6.2831855 6.2831855 6.2831855 6.2831855
0000d0 db 0f c9 40 db 0f c9 40 db 0f c9 40 db 0f c9 40
       6.2831855 6.2831855 6.2831855 6.2831855
0000e0 db 0f c9 40 db 0f c9 40 db 0f c9 40 db 0f c9 40
       6.2831855 6.2831855 6.2831855 6.2831855
0000f0 db 0f c9 40 db 0f c9 40 db 0f c9 40 db 0f c9 40
       6.2831855 6.2831855 6.2831855 6.2831855
000100 db 0f c9 40 db 0f c9 40 db 0f c9 40 db 0f c9 40
       6.2831855 6.2831855 6.2831855 6.2831855
000110 db 0f c9 40 db 0f c9 40 db 0f c9 40 db 0f c9 40
       6.2831855 6.2831855 6.2831855 6.2831855
000120 db 0f c9 40 db 0f c9 40 db 0f c9 40 db 0f c9 40
       6.2831855 6.2831855 6.2831855 6.2831855
000130 db 0f c9 40 db 0f c9 40 db 0f c9 40 db 0f c9 40
       6.2831855 6.2831855 6.2831855 6.2831855
000140 db 0f c9 40 db 0f c9 40 db 0f c9 40 db 0f c9 40
       6.2831855 6.2831855 6.2831855 6.2831855
000150 db 0f c9 40 db 0f c9 40 db 0f c9 40 db 0f c9 40
       6.2831855 6.2831855 6.2831855 6.2831855
000160 db 0f c9 40 db 0f c9 40 db 0f c9 40 db 0f c9 40
       6.2831855 6.2831855 6.2831855 6.2831855
000170 db 0f c9 40 db 0f c9 40 db 0f c9 40 db 0f c9 40
       6.2831855 6.2831855 6.2831855 6.2831855
000180 db 0f c9 40 db 0f c9 40 db 0f c9 40 db 0f c9 40
       6.2831855 6.2831855 6.2831855 6.2831855

t_bc_ub f4 [100, 1]
000000 00 00 00 00 b5 7e 25 3c b5 7e a5 3c 10 3e f8 3c
       0.0 0.01010101 0.02020202 0.030303031
000010 b5 7e 25 3d 62 de 4e 3d 10 3e 78 3d de ce 90 3d
       0.04040404 0.05050505 0.060606062 0.07070707
000020 b5 7e a5 3d 8c 2e ba 3d 62 de ce 3d 39 8e e3 3d
       0.08080808 0.09090909 0.1010101 0.11111111
000030 10 3e f8 3d f3 76 06 3e de ce 10 3e ca 26 1b 3e
       0.121212125 0.13131313 0.14141414 0.15151516
000040 b5 7e 25 3e a0 d6 2f 3e 8c 2e 3a 3e 77 86 44 3e
       0.16161616 0.17171717 0.18181819 0.1919192
000050 62 de 4e 3e 4e 36 59 3e 39 8e 63 3e 24 e6 6d 3e
       0.2020202 0.21212122 0.22222222 0.23232323
000060 10 3e 78 3e fd 4a 81 3e f3 76 86 3e e9 a2 8b 3e
       0.24242425 0.25252524 0.26262626 0.27272728
000070 de ce 90 3e d4 fa 95 3e ca 26 9b 3e bf 52 a0 3e
       0.28282827 0.2929293 0.3030303 0.3131313
000080 b5 7e a5 3e ab aa aa 3e a0 d6 af 3e 96 02 b5 3e
       0.32323232 0.33333334 0.34343433 0.35353535
000090 8c 2e ba 3e 81 5a bf 3e 77 86 c4 3e 6d b2 c9 3e
       0.36363637 0.37373737 0.3838384 0.3939394
0000a0 62 de ce 3e 58 0a d4 3e 4e 36 d9 3e 43 62 de 3e
       0.4040404 0.41414142 0.42424244 0.43434343
0000b0 39 8e e3 3e 2f ba e8 3e 24 e6 ed 3e 1a 12 f3 3e
       0.44444445 0.45454547 0.46464646 0.47474748
0000c0 10 3e f8 3e 05 6a fd 3e fd 4a 01 3f f8 e0 03 3f
       0.4848485 0.4949495 0.5050505 0.5151515
0000d0 f3 76 06 3f ee 0c 09 3f e9 a2 0b 3f e4 38 0e 3f
       0.5252525 0.53535354 0.54545456 0.5555556
0000e0 de ce 10 3f d9 64 13 3f d4 fa 15 3f cf 90 18 3f
       0.56565654 0.57575756 0.5858586 0.5959596
0000f0 ca 26 1b 3f c5 bc 1d 3f bf 52 20 3f ba e8 22 3f
       0.6060606 0.61616164 0.6262626 0.6363636
000100 b5 7e 25 3f b0 14 28 3f ab aa 2a 3f a5 40 2d 3f
       0.64646465 0.65656567 0.6666667 0.67676765
000110 a0 d6 2f 3f 9b 6c 32 3f 96 02 35 3f 91 98 37 3f
       0.68686867 0.6969697 0.7070707 0.7171717
000120 8c 2e 3a 3f 86 c4 3c 3f 81 5a 3f 3f 7c f0 41 3f
       0.72727275 0.7373737 0.74747473 0.75757575
000130 77 86 44 3f 72 1c 47 3f 6d b2 49 3f 67 48 4c 3f
       0.7676768 0.7777778 0.7878788 0.7979798
000140 62 de 4e 3f 5d 74 51 3f 58 0a 54 3f 53 a0 56 3f
       0.8080808 0.8181818 0.82828283 0.83838385
000150 4e 36 59 3f 48 cc 5b 3f 43 62 5e 3f 3e f8 60 3f
       0.8484849 0.85858583 0.86868685 0.8787879
000160 39 8e 63 3f 34 24 66 3f 2f ba 68 3f 29 50 6b 3f
       0.8888889 0.8989899 0.90909094 0.9191919
000170 24 e6 6d 3f 1f 7c 70 3f 1a 12 73 3f 15 a8 75 3f
       0.9292929 0.93939394 0.94949496 0.959596
000180 10 3e 78 3f 0a d4 7a 3f 05 6a 7d 3f 00 00 80 3f
       0.969697 0.97979796 0.989899 1.0

weight f4 [50, 2]
000000 66 35 10 3e e6 52 65 bd 2f 47 a5 3c 38 99 e5 3d
       0.1408287 -0.05598726 0.020175545 0.11210865
000010 9a 50 08 3f 95 ef 8e be 3a a9 84 bd a2 78 da 3d
       0.5324799 -0.27917162 -0.0647759 0.1066754
000020 c2 8a 38 bd fe 59 1e bc d4 fb 8e be 28 e1 6f 3e
       -0.045054205 -0.0096650105 -0.27926505 0.23425734
000030 a5 2c d4 3d d5 3d 60 3b df e8 6a be 68 c1 70 be
       0.10360078 0.0034216542 -0.22940396 -0.23511279
000040 61 66 f8 3d 8c 73 8f 3d ac c3 f0 3d 73 9a 92 be
       0.12128902 0.07004461 0.117560714 -0.2863346
000050 41 31 d9 be cb 8f cf 3c a7 da 84 3e 05 94 f4 bd
       -0.4242039 0.02533712 0.25948068 -0.11942295
000060 66 85 8d be bb c8 ef be c5 d3 69 bd 78 39 cc 3d
       -0.27640837 -0.46832833 -0.057086725 0.09971899
000070 8e eb a6 3d 0e c0 82 3d 6e 7f dc bd fe ab f9 bc
       0.08150397 0.06384288 -0.10766493 -0.03047752
000080 29 20 12 be 7d e0 5c be b4 de 9b be c1 98 2b 3e
       -0.1427008 -0.2157001 -0.30443347 0.1675749
000090 7f ed 5f bd 01 c0 70 3e 45 53 b5 be 20 e9 6d 3e
       -0.054669853 0.23510744 -0.35415092 0.23233461
0000a0 c9 ff 04 3e 20 fc bf bd b3 09 dd 3d 37 59 2d be
       0.129882 -0.09374261 0.107928656 -0.16928564
0000b0 b6 b5 a0 3d d0 cf 18 3d 3e 9d bb 3d 82 08 6a be
       0.078471586 0.03730756 0.09160851 -0.22854808
0000c0 60 d1 56 bd cf c6 1c 3e ae 1a db 3e 1f f0 5e be
       -0.05244577 0.15310214 0.42793792 -0.21771286
0000d0 df da 11 be 8c c9 9a 3e 42 8a a5 bd 00 d9 9f 3d
       -0.14243649 0.30231893 -0.08083011 0.07805061
0000e0 b6 a7 86 3e b4 08 ae bd e9 17 73 3d bd 05 d2 bd
       0.26299828 -0.08497754 0.059348974 -0.10255001
0000f0 c3 78 0c bd 18 25 62 3e 39 58 82 be 55 e9 9f 3d
       -0.034294855 0.22084463 -0.25457934 0.078081764
000100 c7 f3 19 3e db 5f 5d bd 22 2f d2 be 9c 5f db bd
       0.150344 -0.054046493 -0.41051584 -0.107115954
000110 9d d9 7f 3d 61 6c 86 be 03 14 ee be 17 95 bc bc
       0.06246339 -0.26254562 -0.46499643 -0.02302031
000120 30 ad dc bd 6c cc 56 be 3f a1 ec 3d 56 ce 3c 3d
       -0.107752204 -0.20976418 0.11554193 0.046095215
000130 81 c9 7a bc 9a d4 5d 3d 08 ef 27 be 7b ad 2c bd
       -0.015306831 0.05415783 -0.16399777 -0.04215763
000140 4f 8c 87 bd 41 d6 c3 3c 1d 4d f3 3d 94 aa 25 3d
       -0.066185586 0.023905875 0.118799426 0.04044588
000150 45 3f 16 3e 37 a0 73 be ce 6d 00 3f 56 07 f5 bd
       0.14672573 -0.23791586 0.5016755 -0.1196429
000160 1b 86 1d 3e fd 23 26 3e c9 bd c1 bd f7 7b 09 bf
       0.15383188 0.16224666 -0.09460027 -0.5370478
000170 11 e0 12 3d 42 ba 8b be 2b 9d 24 3e d1 55 93 be
       0.035858218 -0.2729054 0.1607558 -0.2877641
000180 fb 09 0a be 34 a8 5b be cc 76 2e 3e 7f 0a b9 bd
       -0.1348037 -0.21450883 0.17037505 -0.09035205

bias f4 [50]
000000 dd 4b 4f bd b4 dd a4 3b 52 fd 70 bd 7d 46 71 3d
       -0.05060946 0.005031312 -0.058835335 0.058905113
000010 ad 99 b4 3c 4c 6e aa 3d e7 4c 15 be fb 92 53 bb
       0.022045935 0.08321819 -0.14580117 -0.0032283652
000020 78 f7 02 bc 4b df f4 bc 6d 32 87 bb 1f 58 92 bd
       -0.007993571 -0.02989163 -0.0041258843 -0.07145714
000030 01 eb 25 3c 42 56 a3 3b 02 6c a5 bc 9e 47 7c 3d
       0.01012683 0.004984648 -0.020193104 0.061591737
000040 53 9e eb bc 37 21 cf 3c 9f 6c d9 3d 7b 44 18 3d
       -0.028762018 0.025284393 0.10616421 0.037174683
000050 93 3f 6e bd 92 17 aa bd 43 e8 1d 3d b6 57 87 bd
       -0.058166098 -0.08305277 0.03855158 -0.066085264
000060 ce be 4e 3d 52 78 22 bc 42 0e b0 3d 8a 6b cc 3a
       0.050474934 -0.009916382 0.085964695 0.0015596014
000070 8d 78 52 bd 70 ab d4 bd fd 33 34 3d 22 ca 9a 3c
       -0.051384497 -0.103842616 0.043994892 0.018895213
000080 03 9f e5 bd 4e ec 51 bd 83 03 c9 bc 7c 1e 84 3c
       -0.1121197 -0.05125075 -0.024537807 0.016127817
000090 0d 03 0e bc 7d ad 76 bd c8 4e b1 3b 12 3c e7 3c
       -0.00866772 -0.060224045 0.005411003 0.028226886
0000a0 40 b2 f7 3c b4 c6 dc bd 7f 18 45 bd 59 1d 2a 3b
       0.030236363 -0.10780087 -0.048119064 0.0025957434
0000b0 14 2f d1 bd e3 12 93 3d da 49 02 bd a1 86 1c bc
       -0.102140576 0.07181337 -0.03180871 -0.009553582
0000c0 48 59 c3 3d 1d 2e 67 bd
       0.095385134 -0.05644046

weight f4 [50, 50]
000000 1d 30 19 3e 87 99 d3 bd bf f2 c4 be 18 0a f4 3d
       0.1495976 -0.103320174 -0.3846645 0.11915988
000010 31 03 1e bd 23 36 32 bd c2 5b 3f be 7b 67 c2 3d
       -0.038577262 -0.04350866 -0.18687347 0.094923936
000020 4e 45 b7 3d 47 6a c5 3d da 10 00 3e be 71 88 be
       0.08948766 0.096394114 0.12506428 -0.26649278
000030 3f f5 5f be dc 16 b9 bd 10 93 4b 3e 04 21 39 bd
       -0.21870898 -0.09037563 0.19880319 -0.0451975
000040 40 11 7c be b2 55 1e bc 79 99 06 3e b4 cf 2f be
       -0.24615955 -0.009663986 0.13144483 -0.17169076
000050 e4 09 c8 3c 30 40 52 3d 04 0b 09 3e c7 a5 15 3e
       0.024418779 0.051330745 0.13383108 0.1461402
000060 53 cd 98 3e 57 d1 d9 3c 5d 52 a4 3e 01 e5 3b 3d
       0.2984415 0.026589079 0.32094088 0.045872692
000070 78 17 46 3e 88 22 73 be 14 1c 5b 3e 57 50 55 bd
       0.1934489 -0.23743641 0.2139743 -0.05207857
000080 c0 e9 47 bd f7 18 5b be 78 a3 06 3e af 47 48 3d
       -0.048806906 -0.21396242 0.13148296 0.048896488
000090 b8 01 6d 3e 29 d9 cd bb a6 fb 2f bd 30 e8 c1 3d
       0.23145187 -0.006281991 -0.0429646 0.094681144
0000a0 80 aa 76 3d 9c 99 79 be 02 6b f6 bd cd 57 51 bc
       0.060221195 -0.24375004 -0.12032129 -0.012777281
0000b0 8b 6e d4 bc bd cc f5 3d c0 2c fb 3c 04 a4 28 be
       -0.025931617 0.12001941 0.030660987 -0.16468817
0000c0 79 75 ca 3d 3f 4e f1 bd 4a b6 0d be a2 b9 fd bd
       0.098856874 -0.117825024 -0.13839069 -0.12388922
0000d0 c7 27 b8 bd d9 9f b7 bd 40 d5 65 3d 3d 94 fe bc
       -0.08991962 -0.089660354 0.056111574 -0.031076545
0000e0 e4 3f b6 3d 5a 09 d2 bc 42 b0 83 3c 0c c7 34 3e
       0.08898905 -0.025639225 0.016075257 0.17654055
0000f0 de b7 08 be fa f7 b1 be 8c 1c 5e 3e 11 d8 c5 3c
       -0.1335139 -0.34759504 0.21690577 0.02415088
000100 f7 79 ce bd af 45 08 3e 47 39 da 3b b0 61 74 3e
       -0.10081857 0.13307832 0.00665966 0.2386539
000110 9d 52 36 be ca 81 e5 3c c5 8f db 3c 20 d6 10 3e
       -0.17804952 0.02801599 0.026801953 0.14144182
000120 63 08 3f be 48 e8 33 3e 92 5d 20 3e 39 52 df 3c
       -0.18655543 0.17569077 0.15660694 0.027260887
000130 dc 8f f0 bd dd 1d f0 bc da e6 73 bc 61 7a c4 3d
       -0.11746189 -0.029311115 -0.014886582 0.095936544
000140 fc 0f ee bc 99 45 27 bc e2 e5 40 bb 6f 99 84 be
       -0.029060356 -0.0102094645 -0.0029433896 -0.2589831
000150 c2 72 52 be b3 c7 0f be e7 1b d9 bd 70 41 0d be
       -0.20551589 -0.14041023 -0.10601025 -0.13794494
000160 fe cb 95 be 62 dd ef bd 16 c2 48 3d 80 bf e9 bc
       -0.29257196 -0.11712147 0.04901322 -0.028533697
000170 a6 dc 79 be 44 86 9a bd 67 6e a6 bd d7 71 f7 bd
       -0.24400577 -0.075451404 -0.08126526 -0.1208226
000180 cc 57 4c 3e 7d 66 72 be 1c 20 da 3d 66 5a 65 3e
       0.19955367 -0.23671909 0.106506556 0.22397766
000190 fb c6 dc bd 3d bb 04 3d 9b b3 97 bd 06 ad 6a 3d
       -0.1078014 0.032405127 -0.07407304 0.057293914
0001a0 4d 78 4c 3c 15 4c 63 3d 05 4b bd bc ae 9c 5b 3e
       0.012479854 0.05549248 -0.023107061 0.21446487
0001b0 3b 70 b3 bd ee 52 28 3d d1 c9 84 be fc 6b 97 bd
       -0.08761641 0.041094713 -0.25935224 -0.07393643
0001c0 95 77 ed 3d 84 67 23 bd b9 41 82 3d 04 b7 7e 3d
       0.11595074 -0.039893642 0.06360192 0.062186256
0001d0 51 ae ed bd 42 02 d2 3d d7 d7 37 3e 15 0a 18 3d
       -0.11605514 0.10254337 0.1795343 0.03711899
0001e0 13 1b af 3d bc 01 be bc 68 f7 62 3c 51 6b ae bd
       0.08550086 -0.023194186 0.013852932 -0.08516563
0001f0 dc c0 11 3d af c2 8c bc a9 2a 14 be 1b 52 45 3e
       0.035584316 -0.017182676 -0.14469399 0.19269602
000200 7b 16 8f 3e df 2a bd bd e1 04 de 3c 75 24 35 be
       0.2794684 -0.09236693 0.027101936 -0.17689689
000210 48 1d 31 3d 24 54 4c 3d b6 fa 3e 3d ca f6 bd 3d
       0.043240815 0.04988493 0.046625815 0.09275587
000220 61 c5 e3 3d 4f 92 cf bc c3 7a b3 3c e7 8a 53 3e
       0.111216314 -0.02533832 0.021909123 0.20658456
000230 0c ae b7 bd 3a 68 38 3d b0 06 94 bd 75 9c 86 39
       -0.08968744 0.045021273 -0.07227838 0.0002567504
000240 f3 c0 96 3d 55 82 26 3e d2 a5 3c 3d fc f8 ad be
       0.07361021 0.16260655 0.046056576 -0.33979023
000250 db af 0c 3d 00 c2 1d 3e 8b 3c 5a be 6f 4a f1 3b
       0.034347396 0.15406036 -0.21312158 0.0073636095
000260 b8 04 0f 3e d7 c1 77 bd 40 c8 62 bc f9 ad 09 3e
       0.13966644 -0.060487594 -0.013841689 0.13445272
000270 ca 6b a5 3e d6 d2 0c 3d b7 81 f7 bd 06 68 5f 3d
       0.323088 0.034380756 -0.12085288 0.054542564
000280 a8 f5 e5 bd b1 c2 72 bc 46 cc 06 3e a3 9e ed bc
       -0.11228496 -0.014816926 0.13163862 -0.029006308
000290 d4 f5 a7 3c 62 1c c8 3d d0 6d cc 3c 45 6d 4b bc
       0.020502962 0.097710386 0.024954706 -0.012416189
0002a0 46 b6 39 be 4c 8d 04 3e 33 e8 2e be 31 e1 49 3e
       -0.18135938 0.12944525 -0.17080764 0.1971481
0002b0 4c 27 12 ba 25 b4 9c 3e bc 8e 62 3e 98 18 8b bd
       -0.00055753137 0.3060619 0.22124761 -0.067918
0002c0 9a 96 43 3d 7d 27 ba 3d 53 5a dc 3d 08 ec 93 3e
       0.047751047 0.09089563 0.107594155 0.28891015
0002d0 57 e3 b3 bd 31 4b bb 3d a8 80 31 be 2a 67 3b be
       -0.08783596 0.09145201 -0.17334235 -0.18301073
0002e0 b6 fa 31 be 3e 00 b1 bc c7 81 8a be d7 f4 2c bb
       -0.17380795 -0.02160656 -0.27052137 -0.0026391053
0002f0 34 72 5a 3e 1b 29 52 3d 8c 6e fc bd 17 6f a0 3c
       0.21332628 0.051308732 -0.12325773 0.019584222
000300 65 39 10 be 1d 09 64 3d a0 eb 24 3e bd b4 45 be
       -0.14084394 0.055672754 0.16105509 -0.19307227
000310 7c b7 86 bb ba 55 c2 3d 71 5f f4 bd 64 4b 0f 3e
       -0.0041112285 0.09489007 -0.119322665 0.13993603
000320 01 ef 40 3d 1f 5e 21 bd 0b 7e 88 3d 70 c7 9d 3c
       0.047102932 -0.0393964 0.06664666 0.019260138
000330 78 c1 81 3e a2 27 57 be 76 ae 0d 3e 2d 8a 70 3e
       0.25342917 -0.21011212 0.13836083 0.2349021
000340 a1 e6 d6 bc 1e 11 19 be 69 0e 7a 3e b4 97 62 be
       -0.02623302 -0.14947936 0.2441956 -0.22128183
000350 52 94 c7 3b bc 5e ad bd 6b 7f cd 3c a0 53 51 bd
       0.006090679 -0.08465335 0.025085172 -0.05110514
000360 41 aa 12 be a3 8d 85 3d b3 fe 89 bd 3c 80 c0 bd
       -0.14322759 0.06521156 -0.06738033 -0.09399459
000370 23 e3 36 bd 60 07 9f 3d 24 0d d8 bd 62 1d 2b be
       -0.04465021 0.077650785 -0.105493814 -0.16710427
000380 67 86 fd 3d 52 5c 55 3d 51 97 e1 bd 8d 88 0e 3e
       0.12379151 0.052089997 -0.110151894 0.13919277
000390 74 3e 9c bc 2d 48 ac 3d 51 9a e0 bc d6 d9 4e be
       -0.019072749 0.08412204 -0.027417334 -0.20200285
0003a0 1f 84 f7 bd 66 c2 18 3e b5 06 49 be 55 f7 db 3d
       -0.12085747 0.14917907 -0.19631465 0.10740534
0003b0 e4 58 af bd 12 1f c3 3c 48 5d a8 3d 11 07 fb 3b
       -0.085618764 0.023818526 0.08220917 0.0076607545
0003c0 81 e0 d3 bd 46 e2 7f be 4b e4 31 bd 2c b4 11 3e
       -0.10345555 -0.2498866 -0.043430608 0.14228886
0003d0 31 ec 3b be 7c 4b e3 3d a5 9d b7 3c 1f d3 c5 3d
       -0.18351819 0.11098382 0.022414038 0.09659409
0003e0 29 b1 d5 3d 86 22 5d 3c 8b 88 d7 bd 0f 82 32 be
       0.10434181 0.013497001 -0.105240904 -0.17432426
0003f0 67 1f f2 bd 4c dd 1e 3e 35 78 c6 bb b7 53 1e bd
       -0.11822396 0.15514106 -0.0060568103 -0.038654055

bias f4 [50]
000000 4d 81 01 3c 8d 8f b4 3b 03 4f 33 3c ec 2f 13 bd
       0.007904363 0.0055102766 0.010944131 -0.035934374
000010 80 cd d3 3c 9d 11 59 bb 62 c8 75 3c 44 5e 00 39
       0.025854826 -0.003312207 0.015001388 0.00012242148
000020 ac d2 69 3c 14 a1 9a bc 92 cb 19 3d 99 b3 64 3c
       0.0142714195 -0.018875636 0.037547655 0.013958835
000030 a6 bf a6 3a c3 a3 80 3c e7 2f 2e bd 02 ae 96 bc
       0.0012721911 0.015703088 -0.042526152 -0.01839352
000040 90 c3 1d 3d ab 3b e0 bc 5c 82 f7 3b 91 05 5b 3d
       0.03851658 -0.027372202 0.007553382 0.053472105
000050 9c b5 11 3d 96 d8 ab 3c 75 f3 9a bd b5 3d 1e bc
       0.035573587 0.0209773 -0.07565967 -0.009658267
000060 fa 4a 5e 3b e0 94 a5 3d 05 b9 d8 bc 68 49 84 bd
       0.0033919201 0.08085036 -0.026455412 -0.06459314
000070 f2 74 0e bd 3b d6 95 ba 01 a1 9e bd 0f 07 74 3c
       -0.034779496 -0.0011431644 -0.07745553 0.014894261
000080 9e f2 19 b8 22 f5 4c bc cf 3d 1c 3d f5 30 0b 3d
       -3.6703997e-05 -0.012509616 0.038144883 0.033982236
000090 66 54 42 3d 96 ac 75 3d c8 8d 95 3c 80 0b 6c 3b
       0.04744377 0.059979044 0.018256083 0.0036017597
0000a0 3e a1 11 3a 30 b9 3a bd 39 1d a0 3c c2 eb 66 3c
       0.0005555338 -0.045586765 0.019545184 0.014094295
0000b0 64 cd 13 bd d7 f2 98 3c 1f 1d df 3b c7 2a bb bb
       -0.036084548 0.018670483 0.0068088914 -0.0057118866
0000c0 0d 56 54 3c 24 25 0a bc
       0.012959969 -0.008431707

weight f4 [50, 50]
000000 4d ad 74 be ed 99 f1 3d 17 48 a9 bd f8 db d5 bd
       -0.23894234 0.11796937 -0.08265703 -0.10442346
000010 6f 79 b5 bd 0f 2b a1 3e a3 5b 2e 3e 29 5d 9d 3d
       -0.08861052 0.31478164 0.17027144 0.076837845
000020 40 df 39 be c4 5c 52 be d2 a9 b1 3e 89 36 52 be
       -0.1815157 -0.205432 0.34699875 -0.20528616
000030 ac c9 28 bb 37 68 a4 3e ce 1d 00 be 3e e5 b4 3e
       -0.0025754971 0.3211076 -0.1251137 0.35331148
000040 ab c5 a8 bd 17 b6 88 be 03 0a 84 3c c1 20 37 3e
       -0.08240827 -0.26701424 0.016118055 0.17883588
000050 3d b0 db 3d 45 85 54 bd fa 26 ea 3c 46 01 e2 bc
       0.10726974 -0.05188491 0.028583039 -0.027588498
000060 c0 2e c7 3c bf 88 26 3e f2 33 46 bd d6 28 1c be
       0.024314284 0.16263102 -0.048389383 -0.15249953
000070 21 ee 95 3e 4c 32 06 3e b0 6b 36 3c 6b 0a 09 bd
       0.2928324 0.13105124 0.011134073 -0.0334572
000080 39 fd 73 3e 4e 09 da bd 19 f0 ce bd e5 ea 62 bd
       0.23827066 -0.10646306 -0.10104389 -0.055399794
000090 36 74 0b bd 88 d0 1e 3e da 96 0f 3e 9a 2b b8 3e
       -0.034046374 0.15509236 0.14022389 0.35970765
0000a0 32 06 e4 3d 23 05 98 3d 60 49 18 3e ab bf 4b be
       0.11133994 0.07422855 0.1487174 -0.19897334
0000b0 44 82 15 bc 7e 1d e3 3e 12 6a d9 bd 0d 9c 58 be
       -0.009125296 0.44358438 -0.106159344 -0.21153279
0000c0 49 82 a0 be 70 cc 04 3c 69 d9 7f be 58 ba 1e bc
       -0.313494 0.008105382 -0.24985279 -0.0096879825
0000d0 fe 2e eb bd f8 6d 95 3d 69 88 52 3c f4 bc c9 3d
       -0.114835724 0.072963655 0.0128499055 0.09850493
0000e0 08 6e 94 be 54 ea 80 3e fe fd 0f 3e f4 4c a3 3d
       -0.28990197 0.25178778 0.14061734 0.07973662
0000f0 d3 d3 0c 3e 76 f0 e6 3d 90 97 17 3e be 6e 24 3e
       0.1375268 0.11276333 0.1480391 0.1605787
000100 e9 d4 76 bd d4 33 cd 3d 53 12 58 3d 5e 74 75 bc
       -0.06026164 0.10019651 0.05275185 -0.014981357
000110 55 54 16 3e 7f 14 43 3d 7e df 8b 3e 97 4e 23 be
       0.14680608 0.04762697 0.27318949 -0.15947948
000120 3a e1 c1 3c 44 dd 02 be 8e 91 27 3d 05 81 10 bd
       0.023666967 -0.12779719 0.040910296 -0.035279293
000130 7e 0b 71 be 05 e6 d2 bc c2 d0 58 3d bb 76 93 bc
       -0.2353954 -0.025744447 0.052933462 -0.018000951
000140 52 49 22 be 3d e6 33 3c 19 86 58 bd 4b e1 e5 3d
       -0.15848282 0.010980186 -0.05286226 0.11224612
000150 d5 6a 4a 3e cf 8f a4 bd a8 ef c6 3d a9 b2 97 bc
       0.19767316 -0.08035242 0.097136796 -0.018517809
000160 00 7a d4 bd d3 10 db bd 9f f7 86 be 20 fc db bd
       -0.10374832 -0.10696568 -0.26360795 -0.107414484
000170 14 eb 4c 3e 10 f9 93 bd ed 23 1d be 7e 52 7f 3e
       0.2001155 -0.07225239 -0.15345736 0.24933812
000180 cd b3 24 3d 2f 7a 91 be 15 e9 1c bd 8f 6f 36 3d
       0.040210534 -0.2841353 -0.03830822 0.044539984
000190 d1 4f 02 3e 87 d4 5d 3e 5c 3a ee bc 46 bd 99 3d
       0.1272576 0.21663104 -0.029080562 0.07506804
0001a0 0c 85 a4 bd 3d e2 a8 be 73 1e 64 3b c2 30 15 3d
       -0.08033189 -0.32985106 0.0034808188 0.036423452
0001b0 25 f5 03 bd 0a d3 04 3e 51 47 41 3e da 8f 04 3d
       -0.03221621 0.1297113 0.18874861 0.03236375
0001c0 a7 55 59 3e 50 50 ee 3d a5 49 b5 3d c8 30 c4 3d
       0.2122408 0.11636412 0.08851937 0.09579617
0001d0 a1 b8 81 3d 1f 73 1a 3e 3f e9 e7 3d b8 d8 0a 3e
       0.06334043 0.15082978 0.11323785 0.13559234
0001e0 ba 88 fc 3d 11 d0 58 3e 96 90 6a bd ba 45 8a 3e
       0.12330766 0.21173121 -0.057266794 0.27006322
0001f0 7f 61 40 be e7 e5 df bd d1 4a fd bd 4f 9f df bd
       -0.18787192 -0.10932522 -0.12367786 -0.109190576
000200 1b 38 89 be 7b 1f 1c 3e 69 33 51 be 7b f3 ed 3d
       -0.26800618 0.15246384 -0.20429768 0.11618706
000210 35 1a e7 bc da 8a 07 be 3d a1 4a be d2 78 2d 3c
       -0.028210739 -0.13236561 -0.1978807 0.010587888
000220 23 45 81 3e b8 6e 10 be 1b db d2 bd 2d 28 db bc
       0.2524806 -0.14104736 -0.10295697 -0.026752556
000230 39 ae 87 bc 5d 73 00 be a1 d7 a8 3d 1f 47 84 be
       -0.016562568 -0.12544008 0.08244253 -0.2583551
000240 b4 e7 a5 bd 6b a5 30 be b2 94 80 3e 1f 85 0b be
       -0.081008345 -0.17250602 0.25113446 -0.13625
000250 42 ed 56 3e 21 b7 6d be 95 e4 93 be 8b a5 39 3e
       0.20988944 -0.2321439 -0.28885332 0.18129556
000260 77 4a a8 3d 85 bc 21 3e 0b ef c7 3b 03 48 79 3c
       0.08217328 0.1579457 0.006101494 0.015214923
000270 ec 0e 83 bb 11 fe 10 be 4d 7e 0d be 7f 3e 4b bd
       -0.0039995816 -0.14159419 -0.13817711 -0.049620148
000280 54 cd 4d bd 1c 15 fd bd 67 27 0a 3e d0 ab f7 bd
       -0.050244644 -0.12357542 0.13491593 -0.120933175
000290 13 31 ae bd 72 7a 0d 3e b6 9e d5 3c df 7d 24 3e
       -0.08505454 0.1381624 0.026076656 0.16063641
0002a0 1c 35 1b be 39 ce ae bd 5c d5 e4 bd 87 20 c9 3c
       -0.15156978 -0.085354276 -0.111735076 0.024551643
0002b0 a8 7a 8f bd a0 4c a1 3d 7e 89 d7 bd ed 78 c3 bd
       -0.07005817 0.07875943 -0.105242714 -0.09544549
0002c0 c0 b4 d3 3d af f9 ca bd 6b 60 16 3d 60 22 ca bc
       0.1033721 -0.099109046 0.036713045 -0.024674594
0002d0 2c d2 92 3d 08 7f 87 be de 78 7c 3d c5 f4 8f 3e
       0.07168993 -0.26464105 0.061638705 0.28116432
0002e0 5e a7 47 be 41 56 1f 3d 00 1a 45 be bb 6d eb 3c
       -0.1949744 0.038900618 -0.192482 0.028738847
0002f0 03 b0 ae 3d 40 c5 39 3e ac 71 69 3e 18 6c 5f bd
       0.08529665 0.18141651 0.22797269 -0.054546446
000300 b4 78 6f bd ea 3a 9a be b2 8d 14 3e 73 d8 61 be
       -0.05846472 -0.30123073 0.14507177 -0.22055225
000310 db 1b 35 3e 2a b1 d5 bc ff 06 07 bd 4a 9b 43 be
       0.17686407 -0.026085455 -0.032965656 -0.19102207
000320 ca ce 01 bd 0a 87 fe bd 18 27 01 be 8e b3 44 3d
       -0.03169135 -0.124281004 -0.1261257 0.0480228
000330 87 2d 87 be 75 45 cc 3d 58 23 b9 bd 63 37 82 bd
       -0.26401922 0.099741854 -0.090399444 -0.063582204
000340 f6 7e 63 3d d0 54 b1 3d 1e 57 4c be 6d ce fa bd
       0.055541 0.08658755 -0.19955108 -0.12246404
000350 1d 8e 48 be 4e 91 80 3d e5 3a d1 3d b6 0d 95 bd
       -0.19585462 0.06277715 0.10216311 -0.07278006
000360 dc 2a cf 3d 1b 57 cc bd bf d6 5c 3e 6b 42 5a 3c
       0.10115597 -0.099775515 0.21566294 0.013321499
000370 c6 85 8c 3e 7d dd 02 3d 6c fa 92 be 1e 85 e1 3d
       0.2744581 0.03194951 -0.28706682 0.11011718
000380 95 2c 22 3e 06 d0 a2 bd 76 e9 7c be fc 97 85 3e
       0.15837319 -0.079498336 -0.24698433 0.26092517
000390 35 a7 1c 3e 5e 1e 96 3d 9a 6a 7f 3d f0 28 4b 3d
       0.1529816 0.07330011 0.062357523 0.049599588
0003a0 bc d6 23 be 78 b8 2d be 29 d0 87 bd d1 bf 41 3d
       -0.15999883 -0.169649 -0.066315 0.04730207
0003b0 e8 e2 c0 3d 64 4f 4b 3d c4 f2 25 be c0 ee 41 be
       0.09418279 0.04963626 -0.16205889 -0.18938732
0003c0 6d 38 6b bd 79 f5 19 3d 94 d2 12 be f5 7e 1e be
       -0.05742686 0.037587617 -0.14338142 -0.15478118
0003d0 dd 92 ea bc f7 32 b7 3d 1e 28 13 3e d8 aa 63 be
       -0.028634483 0.08945268 0.14370772 -0.2223314
0003e0 13 c5 a1 bc 8d 2a 52 3d 3a 4f 75 3e 5c 65 33 3e
       -0.019747293 0.05131011 0.23956004 0.17519134
0003f0 a3 82 a5 3d 98 12 16 3e 69 25 52 be 4b b4 f4 bd
       0.080815576 0.1465553 -0.20522083 -0.11948451

bias f4 [50]
000000 b9 ad 26 bc d7 e4 38 3b ce df 58 3c 70 74 ad 3c
       -0.010173255 0.002821257 0.013236953 0.021173686
000010 4f 45 be bc 30 63 8c bc 64 9a 48 bc 55 80 ba ba
       -0.023226408 -0.01713714 -0.012243841 -0.001422892
000020 48 e9 91 3c c3 58 4d 3d a7 75 74 bb dc 6f 16 bd
       0.017811432 0.050133478 -0.0037301572 -0.03672777
000030 ff cf 05 3c b0 bd da 3c 60 91 02 3b 71 64 95 3b
       0.008167266 0.026701778 0.0019923076 0.0045590927
000040 4c 0a a5 ba 7f e4 06 bd 3b ac 0c 3c 64 7b a7 bb
       -0.001259157 -0.032932755 0.008585985 -0.005111145
000050 94 7f f6 3b 1a ee 1e ba 9a 83 0e bb 64 e8 da bb
       0.0075225327 -0.00060627016 -0.002174592 -0.006680535
000060 82 bd fa 3c c3 91 af 3c 44 51 67 bc 8f 28 c3 3c
       0.030607942 0.02143181 -0.014118496 0.02382305
000070 37 c6 29 3a 18 13 05 ba 35 a9 da bb 27 b1 02 bd
       0.00064763747 -0.00050763926 -0.006673003 -0.031907227
000080 58 ec 2b 3c 2a d1 ee bb 79 92 48 b9 c7 45 24 3c
       0.01049336 -0.007288118 -0.00019128052 0.010026402
000090 04 12 73 3b 34 8b e0 bb 1e a1 1f 3c 45 a3 a6 3c
       0.0037089596 -0.006852532 0.009743003 0.020341525
0000a0 46 d2 23 3d 43 e5 a7 bc 5e 9f 8b bc 57 c7 46 3b
       0.039995454 -0.020495063 -0.017043766 0.0030331218
0000b0 9c dc 31 bc 91 5d 41 bc 6a 95 8e ba 24 ce ef bc
       -0.01085582 -0.011802093 -0.0010878269 -0.0292731
0000c0 3d 0a df ba 18 01 74 3b
       -0.0017016601 0.0037232097
