pbc_examples/saved_models/convection_beta-1.0_layers-50,50,50,50,1_L-2.0_WD-0_init-normal_batch_size256.pt (torch, 114093 bytes, 36 tensors)

x_u f4 [256, 1]
000000 00 00 00 00 db 0f c9 3c db 0f 49 3d e4 cb 96 3d
       0.0 0.024543693 0.049087387 0.07363108
000010 db 0f c9 3d d1 53 fb 3d e4 cb 16 3e df ed 2f 3e
       0.09817477 0.12271846 0.14726216 0.17180584
000020 db 0f 49 3e d6 31 62 3e d1 53 7b 3e e6 3a 8a 3e
       0.19634955 0.22089323 0.24543692 0.2699806
000030 e4 cb 96 3e e2 5c a3 3e df ed af 3e dd 7e bc 3e
       0.2945243 0.319068 0.3436117 0.3681554
000040 db 0f c9 3e d8 a0 d5 3e d6 31 e2 3e d4 c2 ee 3e
       0.3926991 0.41724277 0.44178647 0.46633017
000050 d1 53 fb 3e 67 f2 03 3f e6 3a 0a 3f 65 83 10 3f
       0.49087384 0.5154175 0.5399612 0.5645049
000060 e4 cb 16 3f 63 14 1d 3f e2 5c 23 3f 60 a5 29 3f
       0.5890486 0.6135923 0.638136 0.6626797
000070 df ed 2f 3f 5e 36 36 3f dd 7e 3c 3f 5c c7 42 3f
       0.6872234 0.7117671 0.7363108 0.7608545
000080 db 0f 49 3f 59 58 4f 3f d8 a0 55 3f 57 e9 5b 3f
       0.7853982 0.8099418 0.83448553 0.85902923
000090 d6 31 62 3f 55 7a 68 3f d4 c2 6e 3f 52 0b 75 3f
       0.88357294 0.90811664 0.93266034 0.957204
0000a0 d1 53 7b 3f 28 ce 80 3f 67 f2 83 3f a7 16 87 3f
       0.9817477 1.0062914 1.030835 1.0553788
0000b0 e6 3a 8a 3f 26 5f 8d 3f 65 83 90 3f a5 a7 93 3f
       1.0799224 1.1044662 1.1290098 1.1535536
0000c0 e4 cb 96 3f 23 f0 99 3f 63 14 9d 3f a2 38 a0 3f
       1.1780972 1.2026409 1.2271847 1.2517283
0000d0 e2 5c a3 3f 21 81 a6 3f 60 a5 a9 3f a0 c9 ac 3f
       1.276272 1.3008157 1.3253593 1.3499031
0000e0 df ed af 3f 1f 12 b3 3f 5e 36 b6 3f 9e 5a b9 3f
       1.3744467 1.3989905 1.4235342 1.4480779
0000f0 dd 7e bc 3f 1c a3 bf 3f 5c c7 c2 3f 9b eb c5 3f
       1.4726216 1.4971652 1.521709 1.5462526
000100 db 0f c9 3f 1a 34 cc 3f 59 58 cf 3f 99 7c d2 3f
       1.5707964 1.59534 1.6198837 1.6444274
000110 d8 a0 d5 3f 18 c5 d8 3f 57 e9 db 3f 97 0d df 3f
       1.6689711 1.6935148 1.7180585 1.7426022
000120 d6 31 e2 3f 15 56 e5 3f 55 7a e8 3f 94 9e eb 3f
       1.7671459 1.7916895 1.8162333 1.8407769
000130 d4 c2 ee 3f 13 e7 f1 3f 52 0b f5 3f 92 2f f8 3f
       1.8653207 1.8898643 1.914408 1.9389517
000140 d1 53 fb 3f 11 78 fe 3f 28 ce 00 40 48 60 02 40
       1.9634954 1.9880391 2.0125828 2.0371265
000150 67 f2 03 40 87 84 05 40 a7 16 07 40 c7 a8 08 40
       2.06167 2.0862138 2.1107576 2.1353014
000160 e6 3a 0a 40 06 cd 0b 40 26 5f 0d 40 45 f1 0e 40
       2.1598449 2.1843886 2.2089324 2.233476
000170 65 83 10 40 85 15 12 40 a5 a7 13 40 c4 39 15 40
       2.2580197 2.2825634 2.3071072 2.3316507
000180 e4 cb 16 40 04 5e 18 40 23 f0 19 40 43 82 1b 40
       2.3561945 2.3807383 2.4052818 2.4298255
000190 63 14 1d 40 83 a6 1e 40 a2 38 20 40 c2 ca 21 40
       2.4543693 2.478913 2.5034566 2.5280004
0001a0 e2 5c 23 40 01 ef 24 40 21 81 26 40 41 13 28 40
       2.552544 2.5770876 2.6016314 2.6261752
0001b0 60 a5 29 40 80 37 2b 40 a0 c9 2c 40 c0 5b 2e 40
       2.6507187 2.6752625 2.6998062 2.72435
0001c0 df ed 2f 40 ff 7f 31 40 1f 12 33 40 3e a4 34 40
       2.7488935 2.7734373 2.797981 2.8225245
0001d0 5e 36 36 40 7e c8 37 40 9e 5a 39 40 bd ec 3a 40
       2.8470683 2.871612 2.8961558 2.9206994
0001e0 dd 7e 3c 40 fd 10 3e 40 1c a3 3f 40 3c 35 41 40
       2.9452431 2.969787 2.9943304 3.0188742
0001f0 5c c7 42 40 7c 59 44 40 9b eb 45 40 bb 7d 47 40
       3.043418 3.0679617 3.0925052 3.117049
000200 db 0f 49 40 fa a1 4a 40 1a 34 4c 40 3a c6 4d 40
       3.1415927 3.1661363 3.19068 3.2152238
000210 59 58 4f 40 79 ea 50 40 99 7c 52 40 b9 0e 54 40
       3.2397673 3.264311 3.2888548 3.3133986
000220 d8 a0 55 40 f8 32 57 40 18 c5 58 40 37 57 5a 40
       3.3379421 3.362486 3.3870296 3.4115732
000230 57 e9 5b 40 77 7b 5d 40 97 0d 5f 40 b6 9f 60 40
       3.436117 3.4606607 3.4852045 3.509748
000240 d6 31 62 40 f6 c3 63 40 15 56 65 40 35 e8 66 40
       3.5342917 3.5588355 3.583379 3.6079228
000250 55 7a 68 40 75 0c 6a 40 94 9e 6b 40 b4 30 6d 40
       3.6324666 3.6570103 3.6815538 3.7060976
000260 d4 c2 6e 40 f3 54 70 40 13 e7 71 40 33 79 73 40
       3.7306414 3.755185 3.7797287 3.8042724
000270 52 0b 75 40 72 9d 76 40 92 2f 78 40 b2 c1 79 40
       3.828816 3.8533597 3.8779035 3.9024472
000280 d1 53 7b 40 f1 e5 7c 40 11 78 7e 40 18 05 80 40
       3.9269907 3.9515345 3.9760783 4.000622
000290 28 ce 80 40 38 97 81 40 48 60 82 40 58 29 83 40
       4.0251656 4.0497093 4.074253 4.098797
0002a0 67 f2 83 40 77 bb 84 40 87 84 85 40 97 4d 86 40
       4.12334 4.147884 4.1724277 4.1969714
0002b0 a7 16 87 40 b7 df 87 40 c7 a8 88 40 d6 71 89 40
       4.221515 4.246059 4.2706027 4.295146
0002c0 e6 3a 8a 40 f6 03 8b 40 06 cd 8b 40 16 96 8c 40
       4.3196898 4.3442335 4.3687773 4.393321
0002d0 26 5f 8d 40 36 28 8e 40 45 f1 8e 40 55 ba 8f 40
       4.417865 4.4424086 4.466952 4.4914956
0002e0 65 83 90 40 75 4c 91 40 85 15 92 40 95 de 92 40
       4.5160394 4.540583 4.565127 4.5896707
0002f0 a5 a7 93 40 b4 70 94 40 c4 39 95 40 d4 02 96 40
       4.6142144 4.6387577 4.6633015 4.687845
000300 e4 cb 96 40 f4 94 97 40 04 5e 98 40 14 27 99 40
       4.712389 4.7369328 4.7614765 4.7860203
000310 23 f0 99 40 33 b9 9a 40 43 82 9b 40 53 4b 9c 40
       4.8105636 4.8351073 4.859651 4.884195
000320 63 14 9d 40 73 dd 9d 40 83 a6 9e 40 92 6f 9f 40
       4.9087386 4.9332824 4.957826 4.9823694
000330 a2 38 a0 40 b2 01 a1 40 c2 ca a1 40 d2 93 a2 40
       5.006913 5.031457 5.0560007 5.0805445
000340 e2 5c a3 40 f1 25 a4 40 01 ef a4 40 11 b8 a5 40
       5.105088 5.1296315 5.1541753 5.178719
000350 21 81 a6 40 31 4a a7 40 41 13 a8 40 51 dc a8 40
       5.203263 5.2278066 5.2523503 5.276894
000360 60 a5 a9 40 70 6e aa 40 80 37 ab 40 90 00 ac 40
       5.3014374 5.325981 5.350525 5.3750687
000370 a0 c9 ac 40 b0 92 ad 40 c0 5b ae 40 cf 24 af 40
       5.3996124 5.424156 5.4487 5.473243
000380 df ed af 40 ef b6 b0 40 ff 7f b1 40 0f 49 b2 40
       5.497787 5.5223308 5.5468745 5.5714183
000390 1f 12 b3 40 2f db b3 40 3e a4 b4 40 4e 6d b5 40
       5.595962 5.620506 5.645049 5.669593
0003a0 5e 36 b6 40 6e ff b6 40 7e c8 b7 40 8e 91 b8 40
       5.6941366 5.7186804 5.743224 5.767768
0003b0 9e 5a b9 40 ad 23 ba 40 bd ec ba 40 cd b5 bb 40
       5.7923117 5.816855 5.8413987 5.8659425
0003c0 dd 7e bc 40 ed 47 bd 40 fd 10 be 40 0d da be 40
       5.8904862 5.91503 5.939574 5.9641175
0003d0 1c a3 bf 40 2c 6c c0 40 3c 35 c1 40 4c fe c1 40
       5.988661 6.0132046 6.0377483 6.062292
0003e0 5c c7 c2 40 6c 90 c3 40 7c 59 c4 40 8b 22 c5 40
       6.086836 6.1113796 6.1359234 6.1604667
0003f0 9b eb c5 40 ab b4 c6 40 bb 7d c7 40 cb 46 c8 40
       6.1850104 6.209554 6.234098 6.2586417

t_u f4 [256, 1]
000000 00 00 00 00 00 00 00 00 00 00 00 00 00 00 00 00
       0.0 0.0 0.0 0.0
000010 00 00 00 00 00 00 00 00 00 00 00 00 00 00 00 00
       0.0 0.0 0.0 0.0
000020 00 00 00 00 00 00 00 00 00 00 00 00 00 00 00 00
       0.0 0.0 0.0 0.0
000030 00 00 00 00 00 00 00 00 00 00 00 00 00 00 00 00
       0.0 0.0 0.0 0.0
000040 00 00 00 00 00 00 00 00 00 00 00 00 00 00 00 00
       0.0 0.0 0.0 0.0
000050 00 00 00 00 00 00 00 00 00 00 00 00 00 00 00 00
       0.0 0.0 0.0 0.0
000060 00 00 00 00 00 00 00 00 00 00 00 00 00 00 00 00
       0.0 0.0 0.0 0.0
000070 00 00 00 00 00 00 00 00 00 00 00 00 00 00 00 00
       0.0 0.0 0.0 0.0
000080 00 00 00 00 00 00 00 00 00 00 00 00 00 00 00 00
       0.0 0.0 0.0 0.0
000090 00 00 00 00 00 00 00 00 00 00 00 00 00 00 00 00
       0.0 0.0 0.0 0.0
0000a0 00 00 00 00 00 00 00 00 00 00 00 00 00 00 00 00
       0.0 0.0 0.0 0.0
0000b0 00 00 00 00 00 00 00 00 00 00 00 00 00 00 00 00
       0.0 0.0 0.0 0.0
0000c0 00 00 00 00 00 00 00 00 00 00 00 00 00 00 00 00
       0.0 0.0 0.0 0.0
0000d0 00 00 00 00 00 00 00 00 00 00 00 00 00 00 00 00
       0.0 0.0 0.0 0.0
0000e0 00 00 00 00 00 00 00 00 00 00 00 00 00 00 00 00
       0.0 0.0 0.0 0.0
0000f0 00 00 00 00 00 00 00 00 00 00 00 00 00 00 00 00
       0.0 0.0 0.0 0.0
000100 00 00 00 00 00 00 00 00 00 00 00 00 00 00 00 00
       0.0 0.0 0.0 0.0
000110 00 00 00 00 00 00 00 00 00 00 00 00 00 00 00 00
       0.0 0.0 0.0 0.0
000120 00 00 00 00 00 00 00 00 00 00 00 00 00 00 00 00
       0.0 0.0 0.0 0.0
000130 00 00 00 00 00 00 00 00 00 00 00 00 00 00 00 00
       0.0 0.0 0.0 0.0
000140 00 00 00 00 00 00 00 00 00 00 00 00 00 00 00 00
       0.0 0.0 0.0 0.0
000150 00 00 00 00 00 00 00 00 00 00 00 00 00 00 00 00
       0.0 0.0 0.0 0.0
000160 00 00 00 00 00 00 00 00 00 00 00 00 00 00 00 00
       0.0 0.0 0.0 0.0
000170 00 00 00 00 00 00 00 00 00 00 00 00 00 00 00 00
       0.0 0.0 0.0 0.0
000180 00 00 00 00 00 00 00 00 00 00 00 00 00 00 00 00
       0.0 0.0 0.0 0.0
000190 00 00 00 00 00 00 00 00 00 00 00 00 00 00 00 00
       0.0 0.0 0.0 0.0
0001a0 00 00 00 00 00 00 00 00 00 00 00 00 00 00 00 00
       0.0 0.0 0.0 0.0
0001b0 00 00 00 00 00 00 00 00 00 00 00 00 00 00 00 00
       0.0 0.0 0.0 0.0
0001c0 00 00 00 00 00 00 00 00 00 00 00 00 00 00 00 00
       0.0 0.0 0.0 0.0
0001d0 00 00 00 00 00 00 00 00 00 00 00 00 00 00 00 00
       0.0 0.0 0.0 0.0
0001e0 00 00 00 00 00 00 00 00 00 00 00 00 00 00 00 00
       0.0 0.0 0.0 0.0
0001f0 00 00 00 00 00 00 00 00 00 00 00 00 00 00 00 00
       0.0 0.0 0.0 0.0
000200 00 00 00 00 00 00 00 00 00 00 00 00 00 00 00 00
       0.0 0.0 0.0 0.0
000210 00 00 00 00 00 00 00 00 00 00 00 00 00 00 00 00
       0.0 0.0 0.0 0.0
000220 00 00 00 00 00 00 00 00 00 00 00 00 00 00 00 00
       0.0 0.0 0.0 0.0
000230 00 00 00 00 00 00 00 00 00 00 00 00 00 00 00 00
       0.0 0.0 0.0 0.0
000240 00 00 00 00 00 00 00 00 00 00 00 00 00 00 00 00
       0.0 0.0 0.0 0.0
000250 00 00 00 00 00 00 00 00 00 00 00 00 00 00 00 00
       0.0 0.0 0.0 0.0
000260 00 00 00 00 00 00 00 00 00 00 00 00 00 00 00 00
       0.0 0.0 0.0 0.0
000270 00 00 00 00 00 00 00 00 00 00 00 00 00 00 00 00
       0.0 0.0 0.0 0.0
000280 00 00 00 00 00 00 00 00 00 00 00 00 00 00 00 00
       0.0 0.0 0.0 0.0
000290 00 00 00 00 00 00 00 00 00 00 00 00 00 00 00 00
       0.0 0.0 0.0 0.0
0002a0 00 00 00 00 00 00 00 00 00 00 00 00 00 00 00 00
       0.0 0.0 0.0 0.0
0002b0 00 00 00 00 00 00 00 00 00 00 00 00 00 00 00 00
       0.0 0.0 0.0 0.0
0002c0 00 00 00 00 00 00 00 00 00 00 00 00 00 00 00 00
       0.0 0.0 0.0 0.0
0002d0 00 00 00 00 00 00 00 00 00 00 00 00 00 00 00 00
       0.0 0.0 0.0 0.0
0002e0 00 00 00 00 00 00 00 00 00 00 00 00 00 00 00 00
       0.0 0.0 0.0 0.0
0002f0 00 00 00 00 00 00 00 00 00 00 00 00 00 00 00 00
       0.0 0.0 0.0 0.0
000300 00 00 00 00 00 00 00 00 00 00 00 00 00 00 00 00
       0.0 0.0 0.0 0.0
000310 00 00 00 00 00 00 00 00 00 00 00 00 00 00 00 00
       0.0 0.0 0.0 0.0
000320 00 00 00 00 00 00 00 00 00 00 00 00 00 00 00 00
       0.0 0.0 0.0 0.0
000330 00 00 00 00 00 00 00 00 00 00 00 00 00 00 00 00
       0.0 0.0 0.0 0.0
000340 00 00 00 00 00 00 00 00 00 00 00 00 00 00 00 00
       0.0 0.0 0.0 0.0
000350 00 00 00 00 00 00 00 00 00 00 00 00 00 00 00 00
       0.0 0.0 0.0 0.0
000360 00 00 00 00 00 00 00 00 00 00 00 00 00 00 00 00
       0.0 0.0 0.0 0.0
000370 00 00 00 00 00 00 00 00 00 00 00 00 00 00 00 00
       0.0 0.0 0.0 0.0
000380 00 00 00 00 00 00 00 00 00 00 00 00 00 00 00 00
       0.0 0.0 0.0 0.0
000390 00 00 00 00 00 00 00 00 00 00 00 00 00 00 00 00
       0.0 0.0 0.0 0.0
0003a0 00 00 00 00 00 00 00 00 00 00 00 00 00 00 00 00
       0.0 0.0 0.0 0.0
0003b0 00 00 00 00 00 00 00 00 00 00 00 00 00 00 00 00
       0.0 0.0 0.0 0.0
0003c0 00 00 00 00 00 00 00 00 00 00 00 00 00 00 00 00
       0.0 0.0 0.0 0.0
0003d0 00 00 00 00 00 00 00 00 00 00 00 00 00 00 00 00
       0.0 0.0 0.0 0.0
0003e0 00 00 00 00 00 00 00 00 00 00 00 00 00 00 00 00
       0.0 0.0 0.0 0.0
0003f0 00 00 00 00 00 00 00 00 00 00 00 00 00 00 00 00
       0.0 0.0 0.0 0.0

x_f f4 [100, 1]
000000 a5 a7 93 40 97 0d df 3f d8 a0 55 40 53 4b 9c 40
       4.6142144 1.7426022 3.3379421 4.884195
000010 7c 59 44 40 ef b6 b0 40 ad 23 ba 40 9b eb c5 40
       3.0679617 5.5223308 5.816855 6.1850104
000020 85 15 92 40 23 f0 99 3f 14 27 99 40 65 83 10 3f
       4.565127 1.2026409 4.7860203 0.5645049
000030 94 9e eb 3f d1 53 fb 3d 92 6f 9f 40 5c c7 c2 40
       1.8407769 0.12271846 4.9823694 6.086836
000040 6e ff b6 40 a0 c9 2c 40 c2 ca 21 40 6c 90 c3 40
       5.7186804 2.6998062 2.5280004 6.1113796
000050 c0 5b 2e 40 cf 24 af 40 a7 16 87 3f 4c fe c1 40
       2.72435 5.473243 1.0553788 6.062292
000060 d6 31 e2 3e 5e 36 36 3f 97 4d 86 40 cb 46 c8 40
       0.44178647 0.7117671 4.1969714 6.2586417
000070 7c 59 c4 40 75 4c 91 40 9b eb c5 40 c7 a8 88 40
       6.1359234 4.540583 6.1850104 4.2706027
000080 cf 24 af 40 21 81 26 40 26 5f 8d 40 63 14 9d 40
       5.473243 2.6016314 4.417865 4.9087386
000090 2c 6c c0 40 dd 7e bc 3e d1 53 fb 3e 21 81 a6 40
       6.0132046 0.3681554 0.49087384 5.203263
0000a0 77 7b 5d 40 d6 31 e2 3e 59 58 cf 3f 77 bb 84 40
       3.4606607 0.44178647 1.6198837 4.147884
0000b0 55 7a e8 3f 83 a6 9e 40 97 0d 5f 40 18 c5 58 40
       1.8162333 4.957826 3.4852045 3.3870296
0000c0 52 0b 75 3f a5 a7 13 40 60 a5 29 3f 31 4a a7 40
       0.957204 2.3071072 0.6626797 5.2278066
0000d0 db 0f c9 3c 4c fe c1 40 c4 39 15 40 d1 53 fb 3f
       0.024543693 6.062292 2.3316507 1.9634954
0000e0 c4 39 15 40 df ed 2f 3f 1a 34 cc 3f 37 57 5a 40
       2.3316507 0.6872234 1.59534 3.4115732
0000f0 1f 12 b3 40 9e 5a b9 40 26 5f 8d 3f 94 9e 6b 40
       5.595962 5.7923117 1.1044662 3.6815538
000100 d6 31 62 3f 57 e9 db 3f 43 82 1b 40 35 e8 66 40
       0.88357294 1.7180585 2.4298255 3.6079228
000110 15 56 e5 3f 59 58 cf 3f d6 71 89 40 11 78 fe 3f
       1.7916895 1.6198837 4.295146 1.9880391
000120 65 83 10 40 c0 5b 2e 40 db 0f 49 3f 67 f2 03 40
       2.2580197 2.72435 0.7853982 2.06167
000130 83 a6 9e 40 f1 25 a4 40 43 82 1b 40 75 4c 91 40
       4.957826 5.1296315 2.4298255 4.540583
000140 75 0c 6a 40 d8 a0 55 3f b4 30 6d 40 15 56 e5 3f
       3.6570103 0.83448553 3.7060976 1.7916895
000150 5c c7 c2 40 92 6f 9f 40 53 4b 9c 40 28 ce 80 3f
       6.086836 4.9823694 4.884195 1.0062914
000160 df ed af 40 bd ec ba 40 97 4d 86 40 e4 cb 96 40
       5.497787 5.8413987 4.1969714 4.712389
000170 d6 31 62 3f d4 c2 6e 3f 63 14 9d 3f 7e c8 b7 40
       0.88357294 0.93266034 1.2271847 5.743224
000180 0f 49 b2 40 3c 35 c1 40 57 e9 5b 40 a0 c9 ac 3f
       5.5714183 6.0377483 3.436117 1.3499031

t_f f4 [100, 1]
000000 77 86 c4 3e 5d 74 51 3f ee 0c 09 3f 67 48 4c 3f
       0.3838384 0.8181818 0.53535354 0.7979798
000010 de ce 10 3e 96 02 35 3f a0 d6 2f 3f 72 1c 47 3f
       0.14141414 0.7070707 0.68686867 0.7777778
000020 e9 a2 0b 3f b5 7e 25 3c e4 38 0e 3f 6d b2 49 3f
       0.54545456 0.01010101 0.5555556 0.7878788
000030 43 62 de 3e 43 62 de 3e 0a d4 7a 3f 00 00 80 3f
       0.43434343 0.43434343 0.97979796 1.0
000040 a5 40 2d 3f f3 76 06 3f ca 26 9b 3e 58 0a 54 3f
       0.67676765 0.5252525 0.3030303 0.82828283
000050 0a d4 7a 3f ba e8 22 3f a0 d6 af 3e b5 7e a5 3e
       0.97979796 0.6363636 0.34343433 0.32323232
000060 1a 12 f3 3e 29 50 6b 3f e4 38 0e 3f 72 1c 47 3f
       0.47474748 0.9191919 0.5555556 0.7777778
000070 8c 2e ba 3e 39 8e 63 3e de ce 90 3e 39 8e 63 3f
       0.36363637 0.22222222 0.28282827 0.8888889
000080 2f ba 68 3f ca 26 1b 3e bf 52 20 3f b5 7e 25 3d
       0.90909094 0.15151516 0.6262626 0.04040404
000090 ca 26 1b 3e 3e f8 60 3f d4 fa 15 3f fd 4a 81 3e
       0.15151516 0.8787879 0.5858586 0.25252524
0000a0 67 48 4c 3f 77 86 c4 3e 4e 36 d9 3e b5 7e 25 3c
       0.7979798 0.3838384 0.42424244 0.01010101
0000b0 10 3e 78 3e 34 24 66 3f 8c 2e ba 3e 1f 7c 70 3f
       0.24242425 0.8989899 0.36363637 0.93939394
0000c0 7c f0 41 3f bf 52 a0 3e b5 7e 25 3d a0 d6 af 3e
       0.75757575 0.3131313 0.04040404 0.34343433
0000d0 2f ba e8 3e 15 a8 75 3f 15 a8 75 3f 2f ba e8 3e
       0.45454547 0.959596 0.959596 0.45454547
0000e0 2f ba e8 3e 62 de 4e 3f f3 76 06 3f de ce 10 3f
       0.45454547 0.8080808 0.5252525 0.56565654
0000f0 3e f8 60 3f 86 c4 3c 3f b5 7e 25 3d 1a 12 f3 3e
       0.8787879 0.7373737 0.04040404 0.47474748
000100 d9 64 13 3f de ce 10 3f a5 40 2d 3f 05 6a 7d 3f
       0.57575756 0.56565654 0.67676765 0.989899
000110 a0 d6 2f 3f 4e 36 59 3e 62 de 4e 3d de ce 90 3e
       0.68686867 0.21212122 0.05050505 0.28282827
000120 fd 4a 81 3e 62 de 4e 3f b5 7e 25 3c 58 0a d4 3e
       0.25252524 0.8080808 0.01010101 0.41414142
000130 10 3e 78 3f 0a d4 7a 3f d4 fa 95 3e f8 e0 03 3f
       0.969697 0.97979796 0.2929293 0.5151515
000140 53 a0 56 3f 1a 12 73 3f 1a 12 f3 3e cf 90 18 3f
       0.83838385 0.94949496 0.47474748 0.5959596
000150 6d b2 c9 3e a0 d6 2f 3f 4e 36 59 3f b5 7e a5 3c
       0.3939394 0.68686867 0.8484849 0.02020202
000160 29 50 6b 3f 10 3e f8 3e f3 76 06 3e ca 26 1b 3f
       0.9191919 0.4848485 0.13131313 0.6060606
000170 fd 4a 81 3e 10 3e 78 3f a0 d6 af 3e 53 a0 56 3f
       0.25252524 0.969697 0.34343433 0.83838385
000180 10 3e f8 3e 67 48 4c 3f 91 98 37 3f ca 26 9b 3e
       0.4848485 0.7979798 0.7171717 0.3030303

x_bc_lb f4 [100, 1]
000000 00 00 00 00 00 00 00 00 00 00 00 00 00 00 00 00
       0.0 0.0 0.0 0.0
000010 00 00 00 00 00 00 00 00 00 00 00 00 00 00 00 00
       0.0 0.0 0.0 0.0
000020 00 00 00 00 00 00 00 00 00 00 00 00 00 00 00 00
       0.0 0.0 0.0 0.0
000030 00 00 00 00 00 00 00 00 00 00 00 00 00 00 00 00
       0.0 0.0 0.0 0.0
000040 00 00 00 00 00 00 00 00 00 00 00 00 00 00 00 00
       0.0 0.0 0.0 0.0
000050 00 00 00 00 00 00 00 00 00 00 00 00 00 00 00 00
       0.0 0.0 0.0 0.0
000060 00 00 00 00 00 00 00 00 00 00 00 00 00 00 00 00
       0.0 0.0 0.0 0.0
000070 00 00 00 00 00 00 00 00 00 00 00 00 00 00 00 00
       0.0 0.0 0.0 0.0
000080 00 00 00 00 00 00 00 00 00 00 00 00 00 00 00 00
       0.0 0.0 0.0 0.0
000090 00 00 00 00 00 00 00 00 00 00 00 00 00 00 00 00
       0.0 0.0 0.0 0.0
0000a0 00 00 00 00 00 00 00 00 00 00 00 00 00 00 00 00
       0.0 0.0 0.0 0.0
0000b0 00 00 00 00 00 00 00 00 00 00 00 00 00 00 00 00
       0.0 0.0 0.0 0.0
0000c0 00 00 00 00 00 00 00 00 00 00 00 00 00 00 00 00
       0.0 0.0 0.0 0.0
0000d0 00 00 00 00 00 00 00 00 00 00 00 00 00 00 00 00
       0.0 0.0 0.0 0.0
0000e0 00 00 00 00 00 00 00 00 00 00 00 00 00 00 00 00
       0.0 0.0 0.0 0.0
0000f0 00 00 00 00 00 00 00 00 00 00 00 00 00 00 00 00
       0.0 0.0 0.0 0.0
000100 00 00 00 00 00 00 00 00 00 00 00 00 00 00 00 00
       0.0 0.0 0.0 0.0
000110 00 00 00 00 00 00 00 00 00 00 00 00 00 00 00 00
       0.0 0.0 0.0 0.0
000120 00 00 00 00 00 00 00 00 00 00 00 00 00 00 00 00
       0.0 0.0 0.0 0.0
000130 00 00 00 00 00 00 00 00 00 00 00 00 00 00 00 00
       0.0 0.0 0.0 0.0
000140 00 00 00 00 00 00 00 00 00 00 00 00 00 00 00 00
       0.0 0.0 0.0 0.0
000150 00 00 00 00 00 00 00 00 00 00 00 00 00 00 00 00
       0.0 0.0 0.0 0.0
000160 00 00 00 00 00 00 00 00 00 00 00 00 00 00 00 00
       0.0 0.0 0.0 0.0
000170 00 00 00 00 00 00 00 00 00 00 00 00 00 00 00 00
       0.0 0.0 0.0 0.0
000180 00 00 00 00 00 00 00 00 00 00 00 00 00 00 00 00
       0.0 0.0 0.0 0.0

t_bc_lb f4 [100, 1]
000000 00 00 00 00 b5 7e 25 3c b5 7e a5 3c 10 3e f8 3c
       0.0 0.01010101 0.02020202 0.030303031
000010 b5 7e 25 3d 62 de 4e 3d 10 3e 78 3d de ce 90 3d
       0.04040404 0.05050505 0.060606062 0.07070707
000020 b5 7e a5 3d 8c 2e ba 3d 62 de ce 3d 39 8e e3 3d
       0.08080808 0.09090909 0.1010101 0.11111111
000030 10 3e f8 3d f3 76 06 3e de ce 10 3e ca 26 1b 3e
       0.121212125 0.13131313 0.14141414 0.15151516
000040 b5 7e 25 3e a0 d6 2f 3e 8c 2e 3a 3e 77 86 44 3e
       0.16161616 0.17171717 0.18181819 0.1919192
000050 62 de 4e 3e 4e 36 59 3e 39 8e 63 3e 24 e6 6d 3e
       0.2020202 0.21212122 0.22222222 0.23232323
000060 10 3e 78 3e fd 4a 81 3e f3 76 86 3e e9 a2 8b 3e
       0.24242425 0.25252524 0.26262626 0.27272728
000070 de ce 90 3e d4 fa 95 3e ca 26 9b 3e bf 52 a0 3e
       0.28282827 0.2929293 0.3030303 0.3131313
000080 b5 7e a5 3e ab aa aa 3e a0 d6 af 3e 96 02 b5 3e
       0.32323232 0.33333334 0.34343433 0.35353535
000090 8c 2e ba 3e 81 5a bf 3e 77 86 c4 3e 6d b2 c9 3e
       0.36363637 0.37373737 0.3838384 0.3939394
0000a0 62 de ce 3e 58 0a d4 3e 4e 36 d9 3e 43 62 de 3e
       0.4040404 0.41414142 0.42424244 0.43434343
0000b0 39 8e e3 3e 2f ba e8 3e 24 e6 ed 3e 1a 12 f3 3e
       0.44444445 0.45454547 0.46464646 0.47474748
0000c0 10 3e f8 3e 05 6a fd 3e fd 4a 01 3f f8 e0 03 3f
       0.4848485 0.4949495 0.5050505 0.5151515
0000d0 f3 76 06 3f ee 0c 09 3f e9 a2 0b 3f e4 38 0e 3f
       0.5252525 0.53535354 0.54545456 0.5555556
0000e0 de ce 10 3f d9 64 13 3f d4 fa 15 3f cf 90 18 3f
       0.56565654 0.57575756 0.5858586 0.5959596
0000f0 ca 26 1b 3f c5 bc 1d 3f bf 52 20 3f ba e8 22 3f
       0.6060606 0.61616164 0.6262626 0.6363636
000100 b5 7e 25 3f b0 14 28 3f ab aa 2a 3f a5 40 2d 3f
       0.64646465 0.65656567 0.6666667 0.67676765
000110 a0 d6 2f 3f 9b 6c 32 3f 96 02 35 3f 91 98 37 3f
       0.68686867 0.6969697 0.7070707 0.7171717
000120 8c 2e 3a 3f 86 c4 3c 3f 81 5a 3f 3f 7c f0 41 3f
       0.72727275 0.7373737 0.74747473 0.75757575
000130 77 86 44 3f 72 1c 47 3f 6d b2 49 3f 67 48 4c 3f
       0.7676768 0.7777778 0.7878788 0.7979798
000140 62 de 4e 3f 5d 74 51 3f 58 0a 54 3f 53 a0 56 3f
       0.8080808 0.8181818 0.82828283 0.83838385
000150 4e 36 59 3f 48 cc 5b 3f 43 62 5e 3f 3e f8 60 3f
       0.8484849 0.85858583 0.86868685 0.8787879
000160 39 8e 63 3f 34 24 66 3f 2f ba 68 3f 29 50 6b 3f
       0.8888889 0.8989899 0.90909094 0.9191919
000170 24 e6 6d 3f 1f 7c 70 3f 1a 12 73 3f 15 a8 75 3f
       0.9292929 0.93939394 0.94949496 0.959596
000180 10 3e 78 3f 0a d4 7a 3f 05 6a 7d 3f 00 00 80 3f
       0.969697 0.97979796 0.989899 1.0

x_bc_ub f4 [100, 1]
000000 db 0f c9 40 db 0f c9 40 db 0f c9 40 db 0f c9 40
       6.2831855 6.2831855 6.2831855 6.2831855
000010 db 0f c9 40 db 0f c9 40 db 0f c9 40 db 0f c9 40
       6.2831855 6.2831855 6.2831855 6.2831855
000020 db 0f c9 40 db 0f c9 40 db 0f c9 40 db 0f c9 40
       6.2831855 6.2831855 6.2831855 6.2831855
000030 db 0f c9 40 db 0f c9 40 db 0f c9 40 db 0f c9 40
       6.2831855 6.2831855 6.2831855 6.2831855
000040 db 0f c9 40 db 0f c9 40 db 0f c9 40 db 0f c9 40
       6.2831855 6.2831855 6.2831855 6.2831855
000050 db 0f c9 40 db 0f c9 40 db 0f c9 40 db 0f c9 40
       6.2831855 6.2831855 6.2831855 6.2831855
000060 db 0f c9 40 db 0f c9 40 db 0f c9 40 db 0f c9 40
       6.2831855 6.2831855 6.2831855 6.2831855
000070 db 0f c9 40 db 0f c9 40 db 0f c9 40 db 0f c9 40
       6.2831855 6.2831855 6.2831855 6.2831855
000080 db 0f c9 40 db 0f c9 40 db 0f c9 40 db 0f c9 40
       6.2831855 6.2831855 6.2831855 6.2831855
000090 db 0f c9 40 db 0f c9 40 db 0f c9 40 db 0f c9 40
       6.2831855 6.2831855 6.2831855 6.2831855
0000a0 db 0f c9 40 db 0f c9 40 db 0f c9 40 db 0f c9 40
       6.2831855 6.2831855 6.2831855 6.2831855
0000b0 db 0f c9 40 db 0f c9 40 db 0f c9 40 db 0f c9 40
       6.2831855 6.2831855 6.2831855 6.2831855
0000c0 db 0f c9 40 db 0f c9 40 db 0f c9 40 db 0f c9 40
       6.2831855 6.2831855 6.2831855 6.2831855
0000d0 db 0f c9 40 db 0f c9 40 db 0f c9 40 db 0f c9 40
       6.2831855 6.2831855 6.2831855 6.2831855
0000e0 db 0f c9 40 db 0f c9 40 db 0f c9 40 db 0f c9 40
       6.2831855 6.2831855 6.2831855 6.2831855
0000f0 db 0f c9 40 db 0f c9 40 db 0f c9 40 db 0f c9 40
       6.2831855 6.2831855 6.2831855 6.2831855
000100 db 0f c9 40 db 0f c9 40 db 0f c9 40 db 0f c9 40
       6.2831855 6.2831855 6.2831855 6.2831855
000110 db 0f c9 40 db 0f c9 40 db 0f c9 40 db 0f c9 40
       6.2831855 6.2831855 6.2831855 6.2831855
000120 db 0f c9 40 db 0f c9 40 db 0f c9 40 db 0f c9 40
       6.2831855 6.2831855 6.2831855 6.2831855
000130 db 0f c9 40 db 0f c9 40 db 0f c9 40 db 0f c9 40
       6.2831855 6.2831855 6.2831855 6.2831855
000140 db 0f c9 40 db 0f c9 40 db 0f c9 40 db 0f c9 40
       6.2831855 6.2831855 6.2831855 6.2831855
000150 db 0f c9 40 db 0f c9 40 db 0f c9 40 db 0f c9 40
       6.2831855 6.2831855 6.2831855 6.2831855
000160 db 0f c9 40 db 0f c9 40 db 0f c9 40 db 0f c9 40
       6.2831855 6.2831855 6.2831855 6.2831855
000170 db 0f c9 40 db 0f c9 40 db 0f c9 40 db 0f c9 40
       6.2831855 6.2831855 6.2831855 6.2831855
000180 db 0f c9 40 db 0f c9 40 db 0f c9 40 db 0f c9 40
       6.2831855 6.2831855 6.2831855 6.2831855

t_bc_ub f4 [100, 1]
000000 00 00 00 00 b5 7e 25 3c b5 7e a5 3c 10 3e f8 3c
       0.0 0.01010101 0.02020202 0.030303031
000010 b5 7e 25 3d 62 de 4e 3d 10 3e 78 3d de ce 90 3d
       0.04040404 0.05050505 0.060606062 0.07070707
000020 b5 7e a5 3d 8c 2e ba 3d 62 de ce 3d 39 8e e3 3d
       0.08080808 0.09090909 0.1010101 0.11111111
000030 10 3e f8 3d f3 76 06 3e de ce 10 3e ca 26 1b 3e
       0.121212125 0.13131313 0.14141414 0.15151516
000040 b5 7e 25 3e a0 d6 2f 3e 8c 2e 3a 3e 77 86 44 3e
       0.16161616 0.17171717 0.18181819 0.1919192
000050 62 de 4e 3e 4e 36 59 3e 39 8e 63 3e 24 e6 6d 3e
       0.2020202 0.21212122 0.22222222 0.23232323
000060 10 3e 78 3e fd 4a 81 3e f3 76 86 3e e9 a2 8b 3e
       0.24242425 0.25252524 0.26262626 0.27272728
000070 de ce 90 3e d4 fa 95 3e ca 26 9b 3e bf 52 a0 3e
       0.28282827 0.2929293 0.3030303 0.3131313
000080 b5 7e a5 3e ab aa aa 3e a0 d6 af 3e 96 02 b5 3e
       0.32323232 0.33333334 0.34343433 0.35353535
000090 8c 2e ba 3e 81 5a bf 3e 77 86 c4 3e 6d b2 c9 3e
       0.36363637 0.37373737 0.3838384 0.3939394
0000a0 62 de ce 3e 58 0a d4 3e 4e 36 d9 3e 43 62 de 3e
       0.4040404 0.41414142 0.42424244 0.43434343
0000b0 39 8e e3 3e 2f ba e8 3e 24 e6 ed 3e 1a 12 f3 3e
       0.44444445 0.45454547 0.46464646 0.47474748
0000c0 10 3e f8 3e 05 6a fd 3e fd 4a 01 3f f8 e0 03 3f
       0.4848485 0.4949495 0.5050505 0.5151515
0000d0 f3 76 06 3f ee 0c 09 3f e9 a2 0b 3f e4 38 0e 3f
       0.5252525 0.53535354 0.54545456 0.5555556
0000e0 de ce 10 3f d9 64 13 3f d4 fa 15 3f cf 90 18 3f
       0.56565654 0.57575756 0.5858586 0.5959596
0000f0 ca 26 1b 3f c5 bc 1d 3f bf 52 20 3f ba e8 22 3f
       0.6060606 0.61616164 0.6262626 0.6363636
000100 b5 7e 25 3f b0 14 28 3f ab aa 2a 3f a5 40 2d 3f
       0.64646465 0.65656567 0.6666667 0.67676765
000110 a0 d6 2f 3f 9b 6c 32 3f 96 02 35 3f 91 98 37 3f
       0.68686867 0.6969697 0.7070707 0.7171717
000120 8c 2e 3a 3f 86 c4 3c 3f 81 5a 3f 3f 7c f0 41 3f
       0.72727275 0.7373737 0.74747473 0.75757575
000130 77 86 44 3f 72 1c 47 3f 6d b2 49 3f 67 48 4c 3f
       0.7676768 0.7777778 0.7878788 0.7979798
000140 62 de 4e 3f 5d 74 51 3f 58 0a 54 3f 53 a0 56 3f
       0.8080808 0.8181818 0.82828283 0.83838385
000150 4e 36 59 3f 48 cc 5b 3f 43 62 5e 3f 3e f8 60 3f
       0.8484849 0.85858583 0.86868685 0.8787879
000160 39 8e 63 3f 34 24 66 3f 2f ba 68 3f 29 50 6b 3f
       0.8888889 0.8989899 0.90909094 0.9191919
000170 24 e6 6d 3f 1f 7c 70 3f 1a 12 73 3f 15 a8 75 3f
       0.9292929 0.93939394 0.94949496 0.959596
000180 10 3e 78 3f 0a d4 7a 3f 05 6a 7d 3f 00 00 80 3f
       0.969697 0.97979796 0.989899 1.0

weight f4 [50, 2]
000000 9e f8 02 3e 19 68 80 bd 4a 0e 3f 3c a5 2b c8 3d
       0.12790152 -0.06269855 0.011661122 0.097739495
000010 a1 fe 07 3f f6 cf 88 be 9b a7 14 bd 74 05 16 3e
       0.5312291 -0.26721162 -0.036292654 0.14650518
000020 38 57 4f bd 3a c2 9c bc 20 79 79 be e5 df 60 3e
       -0.050620288 -0.019135583 -0.24362612 0.21960409
000030 eb 54 f0 3d 7e 37 39 bc 74 f0 4c be bd 0a 6f be
       0.11734947 -0.011304734 -0.200136 -0.2334394
000040 76 1e 06 3e da 83 28 3d 9d ee f1 3d c4 e3 a0 be
       0.13097557 0.04114137 0.1181309 -0.3142377
000050 bb 27 d5 be 2b 9c bf 3c cb 44 97 3e bc be 02 be
       -0.41631874 0.023389896 0.29544672 -0.12768072
000060 ad 99 84 be 44 12 e9 be 59 89 5a bd fb 94 d2 3d
       -0.25898495 -0.45521748 -0.05335364 0.10282322
000070 da a9 97 3d 67 6e 9c 3d 4c 9b f3 bd 99 b4 3d bb
       0.074054435 0.07638245 -0.11894855 -0.0028946756
000080 ba 04 04 be 6e 8a 65 be 8a bb 99 be 57 e2 27 3e
       -0.12892428 -0.22416088 -0.30025893 0.16394936
000090 a5 03 ce bc 24 60 85 3e b6 1b b2 be ad 77 68 3e
       -0.025148222 0.26049912 -0.34786767 0.22701903
0000a0 77 6b 08 3e 0c 19 bf bd 3a e0 c4 3d 8b 8d 34 be
       0.13322245 -0.09330949 0.0961308 -0.1763212
0000b0 42 05 91 3d 59 4a 2c 3d 58 07 9c 3d 80 b9 80 be
       0.07081081 0.04206309 0.07618588 -0.25141525
0000c0 a6 48 3e bd 9a 3f 29 3e 27 74 cd 3e e2 38 57 be
       -0.046456 0.16528168 0.4012768 -0.21017793
0000d0 17 b2 11 be ee 94 a3 3e 98 0e 84 bd 5c d5 9c 3d
       -0.14228092 0.31949562 -0.06448096 0.076578826
0000e0 2d 72 89 3e 10 b6 9b bd 78 74 0e 3d 46 41 0c be
       0.26844922 -0.07603085 0.034779042 -0.13696775
0000f0 81 73 e5 bc 11 88 73 3e 4e 51 89 be ca cc a7 3d
       -0.028009178 0.23782374 -0.26819843 0.08193357
000100 ea 87 5b 3e 7a cf 6b bd d1 de be be 00 06 00 be
       0.21438566 -0.057570912 -0.3727937 -0.12502289
000110 d0 d8 60 3d 9c db 73 be e7 5c db be 4b 43 1f bd
       0.05489427 -0.23814243 -0.42844316 -0.038882535
000120 b6 7b e1 bd 0f a0 4e be a3 2e f0 3d 34 5e b1 3c
       -0.11009924 -0.20178245 0.11727645 0.021651365
000130 8a dd ac bc 26 ff 2c 3d ff a6 26 be 93 42 0e bd
       -0.021101732 0.042235516 -0.16274641 -0.03473146
000140 1a 6d 7b bd 2d c1 28 3d 3a 0d 0f 3e cf 40 a0 3c
       -0.061383344 0.04119985 0.1396989 0.019562153
000150 6f 07 1b 3e 38 49 80 be 43 68 fa 3e 89 91 cb bd
       0.15139554 -0.2505586 0.4890767 -0.09939868
000160 df 25 22 3e 0a 17 28 3e 23 0c dc bd 75 57 08 bf
       0.15834759 0.16415039 -0.107445024 -0.5325845
000170 1f a3 c5 3c 51 a8 8e be e3 4a 2c 3e ef 1e a0 be
       0.024125634 -0.2786279 0.16825442 -0.312736
000180 6a a4 34 be a1 8c 4e be 48 30 41 3e e9 d8 f0 bd
       -0.17640844 -0.20170833 0.18866074 -0.11760122

bias f4 [50]
000000 70 dd ef bc ca 3a 6b 3c 52 32 89 bd d7 5e 08 3d
       -0.029280394 0.014357278 -0.06699051 0.03329357
000010 91 43 98 3b 42 7b b6 3d 65 58 ea bd 51 71 a6 3b
       0.0046467264 0.08910228 -0.11442641 0.0050794263
000020 e5 96 d7 3b 8f 76 eb bc 67 9d 16 bb 46 af 77 bd
       0.0065792673 -0.028743057 -0.0022982003 -0.06046989
000030 ae a4 a9 bb 62 91 40 3b b2 f2 a3 bc f0 5b a2 3c
       -0.005177102 0.002938353 -0.020013187 0.01981923
000040 ce 32 16 bc 14 89 1c 3d 27 7d 9b 3d b5 06 5f 3d
       -0.009167386 0.038216665 0.0759223 0.054449756
000050 df 8a 0a bd d9 0a 8c bd fa 9b 55 3d 68 df 0b bd
       -0.033823844 -0.068380065 0.052150704 -0.034148604
000060 c0 78 53 3d 43 51 dc bc 41 af 88 3d 3d 5c 0b bd
       0.051628828 -0.026894217 0.06674052 -0.034023512
000070 3e 2f 50 bd 37 36 74 bd a4 5a dd 3c 84 d6 04 3c
       -0.050826304 -0.059622016 0.02702076 0.008107785
000080 a5 c7 b7 bd 16 f5 42 bc d8 16 90 bc c7 15 43 3d
       -0.08973626 -0.011899253 -0.017589018 0.04762819
000090 2d 32 9d bb cb 84 ac bc 0b 80 c7 3c 02 aa d6 3c
       -0.004797241 -0.021059414 0.024353048 0.026204113
0000a0 a0 88 43 3c 3e cf 84 bd f3 d5 37 bd 0a fa bf ba
       0.011934429 -0.06484841 -0.044881772 -0.0014646661
0000b0 6c 24 8d bd b5 35 ad 3c e7 96 28 bd 8b 90 8f 3c
       -0.068917125 0.021143774 -0.041159537 0.017524978
0000c0 cf 6f de 3c 13 4f bf bc
       0.027152924 -0.023353135

weight f4 [50, 50]
000000 e5 44 12 3e 14 2d 99 bd 32 d6 ca be 14 89 0b 3e
       0.14284094 -0.07479301 -0.39616543 0.1362651
000010 21 6d 2e bd 05 78 cc bc d9 dd 3e be 80 0b cb 3d
       -0.042584542 -0.024959574 -0.18639316 0.09914303
000020 a7 7f b7 3d 3b 2e a5 3d 12 30 0c 3e 2f e3 8d be
       0.089598946 0.080654584 0.13690212 -0.2771239
000030 51 26 57 be 42 83 a8 bd bf 7e 52 3e 3a 4e 39 bd
       -0.2101071 -0.082281604 0.20556162 -0.04524062
000040 8a 4d 80 be fa ae 3b 3b 6e 24 23 3e 3d 17 21 be
       -0.25059158 0.002863823 0.15931866 -0.15731521
000050 d5 c0 94 3c 10 c5 23 3d 05 dd 0c 3e a7 e3 ec 3d
       0.018158356 0.039982855 0.13756187 0.11566859
000060 7c a9 a2 3e 75 fb 67 3c ec 89 ad 3e 24 e8 54 3d
       0.3176993 0.014159073 0.3389429 0.0519792
000070 04 0c 3b 3e 74 cb 86 be cf 09 7c 3e 0d e0 27 bd
       0.18266302 -0.26327097 0.24613117 -0.040985156
000080 b2 bf 62 bd 76 fb 4c be 1f f8 de 3d 60 53 80 3d
       -0.055358596 -0.200178 0.10887169 0.062659025
000090 b2 81 64 3e ed a0 b8 bb 03 ff 0e bd be 1c c9 3d
       0.223151 -0.005634418 -0.034911167 0.09819935
0000a0 63 10 78 3d ab d3 79 be e6 eb 09 be a3 d6 d0 bc
       0.060562503 -0.24397151 -0.13468894 -0.025492972
0000b0 97 6f c6 bc 08 4f d0 3d 93 49 88 bb 53 8a 38 be
       -0.024223132 0.10171324 -0.0041591614 -0.18021517
0000c0 c7 4d c4 3d 63 d2 01 be fd b9 11 be a3 5a fd bd
       0.09585147 -0.12677912 -0.14231105 -0.12370803
0000d0 21 13 c1 bd fc f3 a2 bd 72 87 70 3d 1f 7c e1 bc
       -0.09427477 -0.079566926 0.05872292 -0.027525006
0000e0 78 4b ae 3d c8 d5 bf bc 9c 79 5e 3c 5f d3 2f 3e
       0.08510488 -0.023417369 0.013578799 0.17170475
0000f0 a9 0f 05 be 52 28 b3 be ce df 60 3e 04 7f f1 3c
       -0.12994255 -0.349917 0.21960375 0.029479511
000100 0d f0 d3 bd 9e 95 0b 3e 85 50 11 3c 79 36 77 3e
       -0.103485204 0.13631293 0.008869295 0.24141873
000110 7a 2e 2f be 40 d8 00 3d 69 9e c1 3c 34 ad 0b 3e
       -0.17107573 0.031456232 0.023635106 0.1364029
000120 c7 f5 41 be ed 83 22 3e 06 d6 2a 3e 41 7a c1 3c
       -0.18941413 0.15870638 0.16683206 0.023617866
000130 6b cf e5 bd 49 ef bb bc 57 b1 8d bc af 59 8a 3d
       -0.112212025 -0.022941248 -0.017296476 0.06755387
000140 78 4d f5 bb 25 49 f8 bb ba fc ad bb 8e ae 82 be
       -0.0074860416 -0.007577079 -0.0053096684 -0.255238
000150 fe 7e 5c be 88 a4 0b be ed e9 d4 bd 0a fc 0f be
       -0.21532819 -0.13636982 -0.1039618 -0.14060989
000160 31 26 94 be 5b 02 eb bd 27 e1 59 3d 16 60 01 bd
       -0.28935388 -0.11475059 0.053193238 -0.031585775
000170 f6 1f 7e be df 3f a3 bd db 61 ab bd 8e 80 f5 bd
       -0.2481688 -0.07971167 -0.08368274 -0.119874105
000180 50 8b 3a 3e f6 8e 76 be 39 53 de 3d 4a 87 62 3e
       0.18217206 -0.24077973 0.10855717 0.22121921
000190 5e fe d3 bd a4 15 2b 3d 20 3c a5 bd 62 ff 33 3d
       -0.10351251 0.041768685 -0.080681086 0.043944724
0001a0 55 53 df 3b 60 b9 6f 3d a6 f7 3c bc f1 6d 5c 3e
       0.006815354 0.058526397 -0.011533653 0.21526314
0001b0 22 e3 ac bd 7c a2 33 3d 01 a9 81 be ca c6 9c bd
       -0.0844176 0.04385613 -0.25324252 -0.076551035
0001c0 7a 64 f4 3d 61 7c 3b bd 6c ab 90 3d 94 28 67 3d
       0.11933227 -0.045772914 0.07063946 0.056435183
0001d0 13 d0 f3 bd 2c 50 da 3d 27 e1 2c 3e ef f9 2e 3d
       -0.119049214 0.10659823 0.16882764 0.042718824
0001e0 4e 40 b6 3d 42 d7 84 bc 50 64 8f 3c 06 54 7a bd
       0.08898984 -0.016215924 0.017503887 -0.061115287
0001f0 b1 c3 bc 3c bc 81 bf bc e8 84 17 be d1 1c 3f 3e
       0.023042532 -0.023377292 -0.14796793 0.18663336
000200 f8 c9 8d 3e 80 3f 03 bd 56 a8 3e 3c ca e1 31 be
       0.27693152 -0.03204298 0.011636814 -0.17371288
000210 37 00 3a 3d e5 b8 68 3d 64 9f 55 3d a8 e2 cb 3d
       0.04541036 0.056816954 0.05215396 0.099553406
000220 49 ca d9 3d d0 20 a7 bc 98 d2 8c 3c 05 9a 51 3e
       0.10634286 -0.020401388 0.017190263 0.2046891
000230 64 7e c7 bd f8 ad 53 3d 50 8c 8f bd 48 c9 df bb
       -0.09740904 0.05167958 -0.07009184 -0.0068294145
000240 43 37 a1 3d ca d6 1e 3e 11 65 69 3d c9 23 ae be
       0.078718685 0.15511623 0.05698115 -0.34011677
000250 54 08 f8 3c 55 80 1e 3e a4 0b 60 be cb 7a 5f bc
       0.030277409 0.15478642 -0.2187944 -0.013640116
000260 99 e9 14 3e 37 38 2f bd 09 df 47 bb 30 3f 01 3e
       0.14542235 -0.04277822 -0.003049793 0.1262176
000270 14 51 9d 3e 62 bd 02 3d 8c 5f 01 be 98 c6 53 3d
       0.3072592 0.03191889 -0.12634104 0.051703066
000280 ce 33 f6 bd fb f1 12 bc 07 3d fd 3d e1 f5 95 bc
       -0.120216 -0.008968825 0.12365156 -0.01830572
000290 1b a8 f6 3b 6e 82 da 3d 9d 95 fc 3c 60 fc 9f bc
       0.007527364 0.10669409 0.03083306 -0.019529521
0002a0 88 04 2f be 7e df f7 3d 1a 93 33 be bd 76 40 3e
       -0.17091572 0.121031746 -0.17536584 0.18795295
0002b0 54 1a 18 bc d7 ab 90 3e 18 a2 72 3e 3f f5 78 bd
       -0.009283621 0.28256103 0.23694646 -0.06078076
0002c0 46 44 4a 3d d7 3e d2 3d 49 16 e8 3d 7f cb 7c 3e
       0.049381517 0.10265892 0.113323756 0.24687003
0002d0 32 72 a2 bd 7c 78 ae 3d 9d 48 32 be fe ec 45 be
       -0.07931937 0.08519074 -0.17410512 -0.19328687
0002e0 cf d1 39 be 3e 41 fd bc 3d a3 85 be e9 98 2a bc
       -0.18146442 -0.030914899 -0.26101103 -0.010412433
0002f0 eb 87 62 3e fd a4 5a 3d cc d4 e0 bd d1 5e 2b 3c
       0.22122161 0.05338 -0.10978088 0.010459618
000300 d8 55 11 be 72 56 82 3d 54 65 1e 3e 65 8a 37 be
       -0.14192903 0.063641444 0.15468341 -0.17923887
000310 25 49 ea bb f2 20 c7 3d cb ce e9 bd 50 1d 10 3e
       -0.007149833 0.09723081 -0.11416396 0.14073682
000320 79 22 50 3d 43 57 13 bd fc 7a 84 3d e4 30 50 3c
       0.050814126 -0.03597189 0.0646877 0.012706969
000330 76 89 80 3e a3 19 59 be 1b 4b 14 3e ce 87 6e 3e
       0.25104874 -0.21201186 0.14481775 0.23293993
000340 ea ca c1 bc b6 66 16 be d2 16 7b 3e 55 a5 61 be
       -0.023656327 -0.14687619 0.24520424 -0.22035725
000350 dc c2 8e 3b 36 34 b3 bd 9a 5f e9 3c 3b 7e 60 bd
       0.004356725 -0.08750193 0.02848797 -0.054807883
000360 97 64 15 be 60 f3 84 3d 32 d7 97 bd 5c 96 bf bd
       -0.14589153 0.064917326 -0.07414092 -0.09354851
000370 3d 0f 2b bd ce 9d a7 3d 02 23 d4 bd ea b7 15 be
       -0.04176258 0.08184396 -0.1035824 -0.14620939
000380 e4 0f f1 3d 7a bd 4f 3d 8e 09 e9 bd 61 21 0b 3e
       0.11770609 0.05071781 -0.113787755 0.13586952
000390 05 2e 93 bc 83 83 13 3e ed 08 20 bd 23 cd 4f be
       -0.01796628 0.14405636 -0.039071012 -0.20293097
0003a0 41 33 f1 bd e2 7a 19 3e 71 a7 45 be 5e 1d de 3d
       -0.11777354 0.14988282 -0.19302155 0.10845445
0003b0 5a 5e b5 bd 1e 1f dd 3c ca 42 a4 3d 4f 9a a7 3b
       -0.08855887 0.026992377 0.080205515 0.0051148306
0003c0 bf 5f db bd a3 3a 7b be e5 a4 25 bd 5e 0d 10 3e
       -0.107116215 -0.24534087 -0.04044046 0.14067599
0003d0 f4 60 37 be 20 b7 db 3d 73 86 0f 3d e4 ea c9 3d
       -0.17908078 0.10728288 0.03504033 0.09859255
0003e0 70 03 ce 3d 3b 33 82 3c 60 04 d5 bd b8 bc 32 be
       0.100592494 0.01589357 -0.10401225 -0.17454803
0003f0 6d 22 ef bd e9 78 1e 3e be e4 c3 bb d9 11 28 bd
       -0.11676488 0.15475811 -0.005978196 -0.041032646

bias f4 [50]
000000 d6 c3 08 3c 8b ca 4c 3b 27 d2 22 bc 88 32 96 bc
       0.008347472 0.0031248655 -0.0099378 -0.018334642
000010 57 e8 78 3c 0c d5 cd bb 8b 6b 53 ba 21 f1 5e 39
       0.015192113 -0.0062815007 -0.00080650364 0.00021261397
000020 cd 8d 7b bc ad f7 9d bc b5 a9 46 3c cc 94 6e 3c
       -0.015353632 -0.01928314 0.012125422 0.014561843
000030 6b 87 87 3b 78 f9 0f bb 69 75 e5 bc c4 69 85 bc
       0.004136016 -0.0021968763 -0.028010087 -0.016285785
000040 4c 45 ab 3c f8 f7 0f 3c 23 5d 92 3c 00 19 79 3d
       0.020907067 0.008787148 0.017866677 0.060814857
000050 b3 9a 00 3d de 1a 1d 3a 6a a7 4b bd ac cb 33 3a
       0.031397533 0.0005993078 -0.049720205 0.00068586576
000060 6c 24 61 bb c9 f1 91 3d 66 a7 61 bd 6e 01 a6 bd
       -0.0034353985 0.07126195 -0.055091284 -0.081057414
000070 07 0b bb bc d8 1a 88 3b ed e1 72 bd d2 8e 3e 3c
       -0.022832407 0.0041535906 -0.05929749 0.011630731
000080 c9 ca 6c bc 7b 43 0a 3c 8d 8f 84 bb 20 c8 3f 3c
       -0.014452645 0.00843894 -0.004045433 0.011705428
000090 b4 77 00 3d a3 61 18 3d 5c ee 53 3c ad 03 9a 3c
       0.031364158 0.03720249 0.012935247 0.01880058
0000a0 0e 8a f7 3a b2 ce d1 bb ff b4 52 3c 67 a3 41 bc
       0.0018885748 -0.006402814 0.012860536 -0.011818743
0000b0 9b b4 67 bb 61 3e 72 3a 6e bf 69 3a bd ac 2a 3c
       -0.0035355452 0.00092408626 0.000891677 0.010417161
0000c0 3b 50 19 3d 66 a8 de bb
       0.03743003 -0.006794977

weight f4 [50, 50]
000000 1d ca 87 be 81 ff e3 3d be ef c8 bd 9d 80 a8 bd
       -0.26521388 0.11132718 -0.09811352 -0.08227656
000010 fd 32 c0 bd 05 99 9f 3e 57 6a 06 3e 04 e2 6c 3d
       -0.09384725 0.31171432 0.13126503 0.057832733
000020 52 64 2f be fb 79 5b be 8f 6c a2 3e 9f ae 6a be
       -0.17128113 -0.2143325 0.3172345 -0.22918175
000030 88 de 1b 3b 86 fa 8a 3e 55 1b e0 bd 15 af b2 3e
       0.0023783762 0.2714426 -0.10942713 0.34899202
000040 9d 13 ac bd ae 6d 7b be 94 56 38 3d ee c0 34 3e
       -0.084021784 -0.24553558 0.045004442 0.17651722
000050 da b4 e0 3d 66 08 97 bd 03 41 a3 3c 51 ef 21 bd
       0.10971995 -0.07374649 0.019928461 -0.03953487
000060 9e 8f 62 3c e0 1d 25 3e 76 07 3d bd 53 c0 15 be
       0.013828186 0.16124678 -0.046149693 -0.14624147
000070 4d f2 90 3e 70 33 f5 3d c9 b2 d1 3c 5a 3d 0d bd
       0.2830986 0.119727015 0.025597947 -0.034482338
000080 1c 66 76 3e a8 d1 a8 bd 5a c1 0f be 44 be 91 bd
       0.24062389 -0.08243114 -0.14038602 -0.071163684
000090 9a 28 08 bd 58 3e 01 3e ed 47 26 3e 28 45 ab 3e
       -0.033241846 0.12621439 0.16238375 0.334512
0000a0 41 f4 ea 3d c0 20 01 3e 75 40 0c 3e 52 fe 3d be
       0.11472369 0.1261015 0.13696463 -0.18554047
0000b0 a9 e2 4b 3c 22 90 d2 3e 43 55 f3 bd 9a d5 57 be
       0.012444177 0.4112559 -0.11881497 -0.21077576
0000c0 3a 4b a3 be 53 31 2f 3d 81 de 81 be 4a 15 3e bc
       -0.3189333 0.04277165 -0.2536507 -0.011601755
0000d0 43 3f f1 bd ac ae 99 3d 89 aa 2f 3c fa 70 c8 3d
       -0.11779644 0.07504019 0.010721811 0.097871736
0000e0 30 52 99 be 8b 87 7d 3e 34 64 10 3e 40 14 9f 3d
       -0.29945517 0.24758737 0.14100724 0.07767534
0000f0 11 20 0a 3e 40 49 e5 3d 26 a5 16 3e 1b 6e 1d 3e
       0.13488795 0.11195612 0.14711437 0.15374033
000100 24 b7 75 bd 22 49 d8 3d 7a 4a 47 3d 69 cd 65 bc
       -0.05998911 0.10560824 0.04865501 -0.014026024
000110 fc a8 14 3e 41 84 3f 3d b7 c2 8a 3e f1 ee 27 be
       0.14517587 0.046756987 0.2710168 -0.16399743
000120 c9 79 ea 3c fd be 02 be 00 fd 27 3d af b2 19 bd
       0.028622525 -0.12768169 0.041012764 -0.03752392
000130 e2 c2 6f be d7 12 d1 bc 41 04 82 3d fe 1b ae bc
       -0.23414186 -0.025521679 0.063484676 -0.021253582
000140 b4 7d 19 be 26 68 11 3c 49 4d 57 bd b3 1a e8 3d
       -0.14989358 0.008874929 -0.05256394 0.113332175
000150 5c c3 47 3e bd 00 a9 bd e2 a1 bc 3d d6 4f e2 bc
       0.19508117 -0.08252094 0.09210564 -0.02762596
000160 03 ab b9 bd 93 35 db bd 73 25 86 be b2 76 d4 bd
       -0.09065821 -0.10703578 -0.26200446 -0.10374202
000170 f0 8d 49 3e 8e c7 8e bd c2 d7 0a be c1 35 76 3e
       0.19683051 -0.06971656 -0.13558868 0.24043943
000180 f8 5f 22 3d 01 74 92 be fe 6d 1b bd 5c ee 4c 3d
       0.039642304 -0.2860413 -0.037946694 0.050032005
000190 95 12 11 3e ea 19 56 3e 0d 0c a7 bc 38 d9 21 3d
       0.14167245 0.20908323 -0.020391488 0.039513797
0001a0 36 17 95 bd b3 1c aa be cc cf ac 3c ca a3 52 3d
       -0.07279818 -0.3322502 0.021095179 0.051425733
0001b0 5e 22 30 bd 68 5f 02 3e 8d d5 50 3e c9 5f 39 3d
       -0.043001525 0.12731707 0.20393963 0.045257363
0001c0 4b 39 62 3e 65 b4 07 3e 73 92 91 3d 1f a9 ac 3d
       0.22092168 0.13252409 0.07108011 0.08430695
0001d0 ed e1 8f 3d 8c 11 29 3e e7 ed ee 3d c1 48 1f 3e
       0.07025514 0.165106 0.1166647 0.15555097
0001e0 9f 3f 0b 3e cd 52 5e 3e ea 3c 93 bd 7f f1 93 3e
       0.13598488 0.21711273 -0.07189353 0.28895184
0001f0 1b 12 32 be 08 5a c6 bd 4a 43 12 be d2 83 03 be
       -0.17389719 -0.09685141 -0.14283481 -0.12843254
000200 45 bf 9a be 8f de 25 3e 43 cf 61 be 18 f9 08 3e
       -0.30224052 0.1619818 -0.2205172 0.13376272
000210 d0 72 1a bd 8f 2f 04 be eb 59 50 be b7 ac ee 3c
       -0.03770715 -0.12908767 -0.20346801 0.029135091
000220 16 5a 8b 3e 65 75 08 be 35 cf e0 bd 71 9d 78 bc
       0.27217168 -0.13326032 -0.109770216 -0.015174256
000230 26 6d e5 bc 6e 20 19 be b8 99 bf 3d d1 f6 8c be
       -0.028006148 -0.14953777 0.093554914 -0.27532056
000240 36 39 ca bd c9 d9 1b be 57 2b 7e 3e c4 5f f3 bd
       -0.09874193 -0.15219797 0.2482122 -0.118835
000250 c7 2d 63 3e 5d 98 74 be 7d 56 8e be ca e4 3d 3e
       0.22185431 -0.23886247 -0.2780036 0.18544307
000260 9f 77 b3 3d 34 6a 1e 3e a3 19 26 3c 0f 32 8a 3c
       0.0876305 0.15470201 0.010137948 0.016869573
000270 af 65 2a 3c a9 0b 08 be 33 36 10 be 02 c4 2b bd
       0.01040022 -0.13285698 -0.14083175 -0.041934974
000280 04 da 40 bd 2b 46 fb bd a0 be 0c 3e 8b 94 df bd
       -0.047082916 -0.12269243 0.13744593 -0.10917004
000290 20 22 b1 bd 4d 0f 02 3e 31 77 0a 3d e6 b5 27 3e
       -0.08649087 0.1270115 0.033805076 0.16377982
0002a0 4f 3e 14 be aa 04 a8 bd 7a 48 da bd 4b 0d 06 3d
       -0.14476894 -0.082040146 -0.10658355 0.03272752
0002b0 ff d4 a3 bd 00 25 a6 3d ee 90 d8 bd 1d 83 b7 bd
       -0.0799961 0.08112526 -0.10574518 -0.08960555
0002c0 68 f5 c9 3d 44 85 ce bd 32 48 85 3c 2d af 8c bc
       0.09861261 -0.10084012 0.016269777 -0.017173374
0002d0 c8 1b 63 3d 01 35 84 be a7 bf 70 3d d9 a4 8f 3e
       0.055446416 -0.2582169 0.058776524 0.28055456
0002e0 85 e3 47 be 6f e5 32 3d b7 38 3a be 83 a1 3a 3d
       -0.19520386 0.043675836 -0.18185697 0.045564186
0002f0 90 5d 7e 3d 3f 69 3d 3e d4 0a 66 3e 1d 72 6a bd
       0.062100947 0.1849718 0.22465068 -0.057237733
000300 da 3f 50 bd 58 00 a2 be 32 d0 e8 3d ba c6 51 be
       -0.050842144 -0.31640887 0.11367835 -0.20485964
000310 a4 fb 33 3e e9 42 90 bc 29 8b f5 bc 52 a1 4c be
       0.17576462 -0.01761003 -0.029973583 -0.19983414
000320 4a 4c 3f 3c 25 60 e2 bd 4b d7 d5 bd 44 61 e3 3b
       0.011675904 -0.11053494 -0.104414545 0.006939085
000330 b2 6e 80 be b5 c8 ea 3d 96 dc 81 bd 29 03 20 bd
       -0.25084454 0.11464063 -0.063409016 -0.039065514
000340 6e 20 d6 3c 94 4c f2 3d 11 64 2c be 26 55 b8 bd
       0.02613851 0.11831012 -0.16835047 -0.09000616
000350 f1 5b 46 be ca a4 ea 3d 09 43 a0 3d 09 b0 ac bd
       -0.1937101 0.11457212 0.07825286 -0.084320135
000360 15 43 e1 3d bf f8 d8 bd 87 26 4f 3e d0 08 fa 3c
       0.10999123 -0.105943196 0.20229541 0.03052178
000370 ee da 92 3e 4d b0 59 3d f5 63 95 be 31 86 07 3e
       0.28682655 0.05314665 -0.29177824 0.13234784
000380 c2 e5 2b 3e d1 30 8b bd ce e6 88 be 6d 5c 7c 3e
       0.16786864 -0.0679642 -0.2673859 0.24644633
000390 fb d8 0a 3e 01 c2 be 3d c7 64 25 3d 60 1e 96 3d
       0.13559334 0.09314347 0.040379312 0.07330012
0003a0 a9 39 38 be f6 f6 46 be ea bc 21 bd c9 a6 a1 3d
       -0.17990746 -0.19430146 -0.039486803 0.0789314
0003b0 7d 40 db 3d e9 fa a1 3d db 47 4b be 7b 26 1f be
       0.107056595 0.079091854 -0.1985163 -0.15542023
0003c0 6a 1f 90 bd 00 55 2b bc d8 0f ef bd 54 df 41 be
       -0.07037242 -0.010457277 -0.11672944 -0.18932849
0003d0 b0 80 3f bd 97 4c f3 3d ee 74 13 3e bc a1 46 be
       -0.046753585 0.11879843 0.14400074 -0.19397634
0003e0 da 04 68 3c 57 50 23 3c de 1d 7b 3e cc 09 34 3e
       0.014161313 0.009967885 0.24523112 0.17581862
0003f0 2e e5 aa 3d bd 4c 11 3e 2f 8e 51 be 75 db f7 bd
       0.08344494 0.1418943 -0.20464395 -0.12102405

bias f4 [50]
000000 d6 4f bc 3b 3c 5c 4a 3b 00 f3 4c 3d bd 88 8f 3c
       0.005746822 0.003087773 0.05003643 0.017521257
000010 8f 1c fd bc 41 33 1b bc 41 bc 7a bb 38 bf 32 b9
       -0.030897407 -0.009472669 -0.003825918 -0.00017046637
000020 1f 4c 86 3c 75 f3 89 3c 16 60 18 bb 1f 28 fe bb
       0.01639372 0.016839722 -0.002325063 -0.0077562477
000030 ac 13 35 3c 5b c0 33 3d b9 4b 96 ba bf fd 1c 3c
       0.011052053 0.043884616 -0.0011466659 0.009581982
000040 7e a6 01 bd 56 d3 0d bc 51 e8 b9 3b a9 17 b6 bb
       -0.03165292 -0.008656343 0.005673446 -0.0055570197
000050 47 09 e6 39 44 55 43 b9 21 ab 0d ba f2 38 39 bb
       0.0004387593 -0.00018628413 -0.00054042233 -0.0028262702
000060 a6 cc 44 3c 4a 01 ca 3b f3 02 b4 bb c5 c1 8e 3b
       0.012011683 0.0061647044 -0.0054935156 0.004356595
000070 c1 86 03 bc 37 82 87 39 f4 41 00 bc b8 c1 62 bc
       -0.008027733 0.00025846224 -0.007828224 -0.013840131
000080 f8 ef 59 bb b9 c3 3d 3b 91 a6 73 bc a8 2f 9d 3a
       -0.0033254605 0.002895577 -0.0148712555 0.0011992352
000090 f2 91 39 3b c3 42 0c 39 2c 22 7a 3c 6c 6f 39 bc
       0.002831575 0.00013376311 0.015266936 -0.011318069
0000a0 d3 03 10 bb b6 f7 74 bc df 89 ad bc 79 37 49 bb
       -0.0021974936 -0.014951637 -0.021183906 -0.003070323
0000b0 2d 00 8e bb fe ef 60 bb e9 df c6 3b d5 5a d3 bc
       -0.004333517 -0.0034322734 0.0060691726 -0.025800148
0000c0 0a d0 b5 bb 2b 6f 88 3c
       -0.005548482 0.016654572
