pbc_examples/saved_models/convection_beta-1.0_layers-50,50,50,50,1_L-2.0_WD-0_init-normal_batch_size64.pt (torch, 114093 bytes, 36 tensors)

x_u f4 [256, 1]
0.0 0.024543693 0.049087387 0.07363108 0.09817477 0.12271846 0.14726216 0.17180584
0.19634955 0.22089323 0.24543692 0.2699806 0.2945243 0.319068 0.3436117 0.3681554
0.3926991 0.41724277 0.44178647 0.46633017 0.49087384 0.5154175 0.5399612 0.5645049
0.5890486 0.6135923 0.638136 0.6626797 0.6872234 0.7117671 0.7363108 0.7608545
0.7853982 0.8099418 0.83448553 0.85902923 0.88357294 0.90811664 0.93266034 0.957204
0.9817477 1.0062914 1.030835 1.0553788 1.0799224 1.1044662 1.1290098 1.1535536
1.1780972 1.2026409 1.2271847 1.2517283 1.276272 1.3008157 1.3253593 1.3499031
1.3744467 1.3989905 1.4235342 1.4480779 1.4726216 1.4971652 1.521709 1.5462526
1.5707964 1.59534 1.6198837 1.6444274 1.6689711 1.6935148 1.7180585 1.7426022
1.7671459 1.7916895 1.8162333 1.8407769 1.8653207 1.8898643 1.914408 1.9389517
1.9634954 1.9880391 2.0125828 2.0371265 2.06167 2.0862138 2.1107576 2.1353014
2.1598449 2.1843886 2.2089324 2.233476 2.2580197 2.2825634 2.3071072 2.3316507
2.3561945 2.3807383 2.4052818 2.4298255 2.4543693 2.478913 2.5034566 2.5280004
2.552544 2.5770876 2.6016314 2.6261752 2.6507187 2.6752625 2.6998062 2.72435
2.7488935 2.7734373 2.797981 2.8225245 2.8470683 2.871612 2.8961558 2.9206994
2.9452431 2.969787 2.9943304 3.0188742 3.043418 3.0679617 3.0925052 3.117049
3.1415927 3.1661363 3.19068 3.2152238 3.2397673 3.264311 3.2888548 3.3133986
3.3379421 3.362486 3.3870296 3.4115732 3.436117 3.4606607 3.4852045 3.509748
3.5342917 3.5588355 3.583379 3.6079228 3.6324666 3.6570103 3.6815538 3.7060976
3.7306414 3.755185 3.7797287 3.8042724 3.828816 3.8533597 3.8779035 3.9024472
3.9269907 3.9515345 3.9760783 4.000622 4.0251656 4.0497093 4.074253 4.098797
4.12334 4.147884 4.1724277 4.1969714 4.221515 4.246059 4.2706027 4.295146
4.3196898 4.3442335 4.3687773 4.393321 4.417865 4.4424086 4.466952 4.4914956
4.5160394 4.540583 4.565127 4.5896707 4.6142144 4.6387577 4.6633015 4.687845
4.712389 4.7369328 4.7614765 4.7860203 4.8105636 4.8351073 4.859651 4.884195
4.9087386 4.9332824 4.957826 4.9823694 5.006913 5.031457 5.0560007 5.0805445
5.105088 5.1296315 5.1541753 5.178719 5.203263 5.2278066 5.2523503 5.276894
5.3014374 5.325981 5.350525 5.3750687 5.3996124 5.424156 5.4487 5.473243
5.497787 5.5223308 5.5468745 5.5714183 5.595962 5.620506 5.645049 5.669593
5.6941366 5.7186804 5.743224 5.767768 5.7923117 5.816855 5.8413987 5.8659425
5.8904862 5.91503 5.939574 5.9641175 5.988661 6.0132046 6.0377483 6.062292
6.086836 6.1113796 6.1359234 6.1604667 6.1850104 6.209554 6.234098 6.2586417
00000000: 0000 0000 db0f c93c db0f 493d e4cb 963d
00000010: db0f c93d d153 fb3d e4cb 163e dfed 2f3e
00000020: db0f 493e d631 623e d153 7b3e e63a 8a3e
00000030: e4cb 963e e25c a33e dfed af3e dd7e bc3e
00000040: db0f c93e d8a0 d53e d631 e23e d4c2 ee3e
00000050: d153 fb3e 67f2 033f e63a 0a3f 6583 103f
00000060: e4cb 163f 6314 1d3f e25c 233f 60a5 293f
00000070: dfed 2f3f 5e36 363f dd7e 3c3f 5cc7 423f
00000080: db0f 493f 5958 4f3f d8a0 553f 57e9 5b3f
00000090: d631 623f 557a 683f d4c2 6e3f 520b 753f
000000a0: d153 7b3f 28ce 803f 67f2 833f a716 873f
000000b0: e63a 8a3f 265f 8d3f 6583 903f a5a7 933f
000000c0: e4cb 963f 23f0 993f 6314 9d3f a238 a03f
000000d0: e25c a33f 2181 a63f 60a5 a93f a0c9 ac3f
000000e0: dfed af3f 1f12 b33f 5e36 b63f 9e5a b93f
000000f0: dd7e bc3f 1ca3 bf3f 5cc7 c23f 9beb c53f
00000100: db0f c93f 1a34 cc3f 5958 cf3f 997c d23f
00000110: d8a0 d53f 18c5 d83f 57e9 db3f 970d df3f
00000120: d631 e23f 1556 e53f 557a e83f 949e eb3f
00000130: d4c2 ee3f 13e7 f13f 520b f53f 922f f83f
00000140: d153 fb3f 1178 fe3f 28ce 0040 4860 0240
00000150: 67f2 0340 8784 0540 a716 0740 c7a8 0840
00000160: e63a 0a40 06cd 0b40 265f 0d40 45f1 0e40
00000170: 6583 1040 8515 1240 a5a7 1340 c439 1540
00000180: e4cb 1640 045e 1840 23f0 1940 4382 1b40
00000190: 6314 1d40 83a6 1e40 a238 2040 c2ca 2140
000001a0: e25c 2340 01ef 2440 2181 2640 4113 2840
000001b0: 60a5 2940 8037 2b40 a0c9 2c40 c05b 2e40
000001c0: dfed 2f40 ff7f 3140 1f12 3340 3ea4 3440
000001d0: 5e36 3640 7ec8 3740 9e5a 3940 bdec 3a40
000001e0: dd7e 3c40 fd10 3e40 1ca3 3f40 3c35 4140
000001f0: 5cc7 4240 7c59 4440 9beb 4540 bb7d 4740
00000200: db0f 4940 faa1 4a40 1a34 4c40 3ac6 4d40
00000210: 5958 4f40 79ea 5040 997c 5240 b90e 5440
00000220: d8a0 5540 f832 5740 18c5 5840 3757 5a40
00000230: 57e9 5b40 777b 5d40 970d 5f40 b69f 6040
00000240: d631 6240 f6c3 6340 1556 6540 35e8 6640
00000250: 557a 6840 750c 6a40 949e 6b40 b430 6d40
00000260: d4c2 6e40 f354 7040 13e7 7140 3379 7340
00000270: 520b 7540 729d 7640 922f 7840 b2c1 7940
00000280: d153 7b40 f1e5 7c40 1178 7e40 1805 8040
00000290: 28ce 8040 3897 8140 4860 8240 5829 8340
000002a0: 67f2 8340 77bb 8440 8784 8540 974d 8640
000002b0: a716 8740 b7df 8740 c7a8 8840 d671 8940
000002c0: e63a 8a40 f603 8b40 06cd 8b40 1696 8c40
000002d0: 265f 8d40 3628 8e40 45f1 8e40 55ba 8f40
000002e0: 6583 9040 754c 9140 8515 9240 95de 9240
000002f0: a5a7 9340 b470 9440 c439 9540 d402 9640
00000300: e4cb 9640 f494 9740 045e 9840 1427 9940
00000310: 23f0 9940 33b9 9a40 4382 9b40 534b 9c40
00000320: 6314 9d40 73dd 9d40 83a6 9e40 926f 9f40
00000330: a238 a040 b201 a140 c2ca a140 d293 a240
00000340: e25c a340 f125 a440 01ef a440 11b8 a540
00000350: 2181 a640 314a a740 4113 a840 51dc a840
00000360: 60a5 a940 706e aa40 8037 ab40 9000 ac40
00000370: a0c9 ac40 b092 ad40 c05b ae40 cf24 af40
00000380: dfed af40 efb6 b040 ff7f b140 0f49 b240
00000390: 1f12 b340 2fdb b340 3ea4 b440 4e6d b540
000003a0: 5e36 b640 6eff b640 7ec8 b740 8e91 b840
000003b0: 9e5a b940 ad23 ba40 bdec ba40 cdb5 bb40
000003c0: dd7e bc40 ed47 bd40 fd10 be40 0dda be40
000003d0: 1ca3 bf40 2c6c c040 3c35 c140 4cfe c140
000003e0: 5cc7 c240 6c90 c340 7c59 c440 8b22 c540
000003f0: 9beb c540 abb4 c640 bb7d c740 cb46 c840

t_u f4 [256, 1]
0.0 0.0 0.0 0.0 0.0 0.0 0.0 0.0
0.0 0.0 0.0 0.0 0.0 0.0 0.0 0.0
0.0 0.0 0.0 0.0 0.0 0.0 0.0 0.0
0.0 0.0 0.0 0.0 0.0 0.0 0.0 0.0
0.0 0.0 0.0 0.0 0.0 0.0 0.0 0.0
0.0 0.0 0.0 0.0 0.0 0.0 0.0 0.0
0.0 0.0 0.0 0.0 0.0 0.0 0.0 0.0
0.0 0.0 0.0 0.0 0.0 0.0 0.0 0.0
0.0 0.0 0.0 0.0 0.0 0.0 0.0 0.0
0.0 0.0 0.0 0.0 0.0 0.0 0.0 0.0
0.0 0.0 0.0 0.0 0.0 0.0 0.0 0.0
0.0 0.0 0.0 0.0 0.0 0.0 0.0 0.0
0.0 0.0 0.0 0.0 0.0 0.0 0.0 0.0
0.0 0.0 0.0 0.0 0.0 0.0 0.0 0.0
0.0 0.0 0.0 0.0 0.0 0.0 0.0 0.0
0.0 0.0 0.0 0.0 0.0 0.0 0.0 0.0
0.0 0.0 0.0 0.0 0.0 0.0 0.0 0.0
0.0 0.0 0.0 0.0 0.0 0.0 0.0 0.0
0.0 0.0 0.0 0.0 0.0 0.0 0.0 0.0
0.0 0.0 0.0 0.0 0.0 0.0 0.0 0.0
0.0 0.0 0.0 0.0 0.0 0.0 0.0 0.0
0.0 0.0 0.0 0.0 0.0 0.0 0.0 0.0
0.0 0.0 0.0 0.0 0.0 0.0 0.0 0.0
0.0 0.0 0.0 0.0 0.0 0.0 0.0 0.0
0.0 0.0 0.0 0.0 0.0 0.0 0.0 0.0
0.0 0.0 0.0 0.0 0.0 0.0 0.0 0.0
0.0 0.0 0.0 0.0 0.0 0.0 0.0 0.0
0.0 0.0 0.0 0.0 0.0 0.0 0.0 0.0
0.0 0.0 0.0 0.0 0.0 0.0 0.0 0.0
0.0 0.0 0.0 0.0 0.0 0.0 0.0 0.0
0.0 0.0 0.0 0.0 0.0 0.0 0.0 0.0
0.0 0.0 0.0 0.0 0.0 0.0 0.0 0.0
00000000: 0000 0000 0000 0000 0000 0000 0000 0000
00000010: 0000 0000 0000 0000 0000 0000 0000 0000
00000020: 0000 0000 0000 0000 0000 0000 0000 0000
00000030: 0000 0000 0000 0000 0000 0000 0000 0000
00000040: 0000 0000 0000 0000 0000 0000 0000 0000
00000050: 0000 0000 0000 0000 0000 0000 0000 0000
00000060: 0000 0000 0000 0000 0000 0000 0000 0000
00000070: 0000 0000 0000 0000 0000 0000 0000 0000
00000080: 0000 0000 0000 0000 0000 0000 0000 0000
00000090: 0000 0000 0000 0000 0000 0000 0000 0000
000000a0: 0000 0000 0000 0000 0000 0000 0000 0000
000000b0: 0000 0000 0000 0000 0000 0000 0000 0000
000000c0: 0000 0000 0000 0000 0000 0000 0000 0000
000000d0: 0000 0000 0000 0000 0000 0000 0000 0000
000000e0: 0000 0000 0000 0000 0000 0000 0000 0000
000000f0: 0000 0000 0000 0000 0000 0000 0000 0000
00000100: 0000 0000 0000 0000 0000 0000 0000 0000
00000110: 0000 0000 0000 0000 0000 0000 0000 0000
00000120: 0000 0000 0000 0000 0000 0000 0000 0000
00000130: 0000 0000 0000 0000 0000 0000 0000 0000
00000140: 0000 0000 0000 0000 0000 0000 0000 0000
00000150: 0000 0000 0000 0000 0000 0000 0000 0000
00000160: 0000 0000 0000 0000 0000 0000 0000 0000
00000170: 0000 0000 0000 0000 0000 0000 0000 0000
00000180: 0000 0000 0000 0000 0000 0000 0000 0000
00000190: 0000 0000 0000 0000 0000 0000 0000 0000
000001a0: 0000 0000 0000 0000 0000 0000 0000 0000
000001b0: 0000 0000 0000 0000 0000 0000 0000 0000
000001c0: 0000 0000 0000 0000 0000 0000 0000 0000
000001d0: 0000 0000 0000 0000 0000 0000 0000 0000
000001e0: 0000 0000 0000 0000 0000 0000 0000 0000
000001f0: 0000 0000 0000 0000 0000 0000 0000 0000
00000200: 0000 0000 0000 0000 0000 0000 0000 0000
00000210: 0000 0000 0000 0000 0000 0000 0000 0000
00000220: 0000 0000 0000 0000 0000 0000 0000 0000
00000230: 0000 0000 0000 0000 0000 0000 0000 0000
00000240: 0000 0000 0000 0000 0000 0000 0000 0000
00000250: 0000 0000 0000 0000 0000 0000 0000 0000
00000260: 0000 0000 0000 0000 0000 0000 0000 0000
00000270: 0000 0000 0000 0000 0000 0000 0000 0000
00000280: 0000 0000 0000 0000 0000 0000 0000 0000
00000290: 0000 0000 0000 0000 0000 0000 0000 0000
000002a0: 0000 0000 0000 0000 0000 0000 0000 0000
000002b0: 0000 0000 0000 0000 0000 0000 0000 0000
000002c0: 0000 0000 0000 0000 0000 0000 0000 0000
000002d0: 0000 0000 0000 0000 0000 0000 0000 0000
000002e0: 0000 0000 0000 0000 0000 0000 0000 0000
000002f0: 0000 0000 0000 0000 0000 0000 0000 0000
00000300: 0000 0000 0000 0000 0000 0000 0000 0000
00000310: 0000 0000 0000 0000 0000 0000 0000 0000
00000320: 0000 0000 0000 0000 0000 0000 0000 0000
00000330: 0000 0000 0000 0000 0000 0000 0000 0000
00000340: 0000 0000 0000 0000 0000 0000 0000 0000
00000350: 0000 0000 0000 0000 0000 0000 0000 0000
00000360: 0000 0000 0000 0000 0000 0000 0000 0000
00000370: 0000 0000 0000 0000 0000 0000 0000 0000
00000380: 0000 0000 0000 0000 0000 0000 0000 0000
00000390: 0000 0000 0000 0000 0000 0000 0000 0000
000003a0: 0000 0000 0000 0000 0000 0000 0000 0000
000003b0: 0000 0000 0000 0000 0000 0000 0000 0000
000003c0: 0000 0000 0000 0000 0000 0000 0000 0000
000003d0: 0000 0000 0000 0000 0000 0000 0000 0000
000003e0: 0000 0000 0000 0000 0000 0000 0000 0000
000003f0: 0000 0000 0000 0000 0000 0000 0000 0000

x_f f4 [100, 1]
4.6142144 1.7426022 3.3379421 4.884195 3.0679617 5.5223308 5.816855 6.1850104
4.565127 1.2026409 4.7860203 0.5645049 1.8407769 0.12271846 4.9823694 6.086836
5.7186804 2.6998062 2.5280004 6.1113796 2.72435 5.473243 1.0553788 6.062292
0.44178647 0.7117671 4.1969714 6.2586417 6.1359234 4.540583 6.1850104 4.2706027
5.473243 2.6016314 4.417865 4.9087386 6.0132046 0.3681554 0.49087384 5.203263
3.4606607 0.44178647 1.6198837 4.147884 1.8162333 4.957826 3.4852045 3.3870296
0.957204 2.3071072 0.6626797 5.2278066 0.024543693 6.062292 2.3316507 1.9634954
2.3316507 0.6872234 1.59534 3.4115732 5.595962 5.7923117 1.1044662 3.6815538
0.88357294 1.7180585 2.4298255 3.6079228 1.7916895 1.6198837 4.295146 1.9880391
2.2580197 2.72435 0.7853982 2.06167 4.957826 5.1296315 2.4298255 4.540583
3.6570103 0.83448553 3.7060976 1.7916895 6.086836 4.9823694 4.884195 1.0062914
5.497787 5.8413987 4.1969714 4.712389 0.88357294 0.93266034 1.2271847 5.743224
5.5714183 6.0377483 3.436117 1.3499031
00000000: a5a7 9340 970d df3f d8a0 5540 534b 9c40
00000010: 7c59 4440 efb6 b040 ad23 ba40 9beb c540
00000020: 8515 9240 23f0 993f 1427 9940 6583 103f
00000030: 949e eb3f d153 fb3d 926f 9f40 5cc7 c240
00000040: 6eff b640 a0c9 2c40 c2ca 2140 6c90 c340
00000050: c05b 2e40 cf24 af40 a716 873f 4cfe c140
00000060: d631 e23e 5e36 363f 974d 8640 cb46 c840
00000070: 7c59 c440 754c 9140 9beb c540 c7a8 8840
00000080: cf24 af40 2181 2640 265f 8d40 6314 9d40
00000090: 2c6c c040 dd7e bc3e d153 fb3e 2181 a640
000000a0: 777b 5d40 d631 e23e 5958 cf3f 77bb 8440
000000b0: 557a e83f 83a6 9e40 970d 5f40 18c5 5840
000000c0: 520b 753f a5a7 1340 60a5 293f 314a a740
000000d0: db0f c93c 4cfe c140 c439 1540 d153 fb3f
000000e0: c439 1540 dfed 2f3f 1a34 cc3f 3757 5a40
000000f0: 1f12 b340 9e5a b940 265f 8d3f 949e 6b40
00000100: d631 623f 57e9 db3f 4382 1b40 35e8 6640
00000110: 1556 e53f 5958 cf3f d671 8940 1178 fe3f
00000120: 6583 1040 c05b 2e40 db0f 493f 67f2 0340
00000130: 83a6 9e40 f125 a440 4382 1b40 754c 9140
00000140: 750c 6a40 d8a0 553f b430 6d40 1556 e53f
00000150: 5cc7 c240 926f 9f40 534b 9c40 28ce 803f
00000160: dfed af40 bdec ba40 974d 8640 e4cb 9640
00000170: d631 623f d4c2 6e3f 6314 9d3f 7ec8 b740
00000180: 0f49 b240 3c35 c140 57e9 5b40 a0c9 ac3f

t_f f4 [100, 1]
0.3838384 0.8181818 0.53535354 0.7979798 0.14141414 0.7070707 0.68686867 0.7777778
0.54545456 0.01010101 0.5555556 0.7878788 0.43434343 0.43434343 0.97979796 1.0
0.67676765 0.5252525 0.3030303 0.82828283 0.97979796 0.6363636 0.34343433 0.32323232
0.47474748 0.9191919 0.5555556 0.7777778 0.36363637 0.22222222 0.28282827 0.8888889
0.90909094 0.15151516 0.6262626 0.04040404 0.15151516 0.8787879 0.5858586 0.25252524
0.7979798 0.3838384 0.42424244 0.01010101 0.24242425 0.8989899 0.36363637 0.93939394
0.75757575 0.3131313 0.04040404 0.34343433 0.45454547 0.959596 0.959596 0.45454547
0.45454547 0.8080808 0.5252525 0.56565654 0.8787879 0.7373737 0.04040404 0.47474748
0.57575756 0.56565654 0.67676765 0.989899 0.68686867 0.21212122 0.05050505 0.28282827
0.25252524 0.8080808 0.01010101 0.41414142 0.969697 0.97979796 0.2929293 0.5151515
0.83838385 0.94949496 0.47474748 0.5959596 0.3939394 0.68686867 0.8484849 0.02020202
0.9191919 0.4848485 0.13131313 0.6060606 0.25252524 0.969697 0.34343433 0.83838385
0.4848485 0.7979798 0.7171717 0.3030303
00000000: 7786 c43e 5d74 513f ee0c 093f 6748 4c3f
00000010: dece 103e 9602 353f a0d6 2f3f 721c 473f
00000020: e9a2 0b3f b57e 253c e438 0e3f 6db2 493f
00000030: 4362 de3e 4362 de3e 0ad4 7a3f 0000 803f
00000040: a540 2d3f f376 063f ca26 9b3e 580a 543f
00000050: 0ad4 7a3f bae8 223f a0d6 af3e b57e a53e
00000060: 1a12 f33e 2950 6b3f e438 0e3f 721c 473f
00000070: 8c2e ba3e 398e 633e dece 903e 398e 633f
00000080: 2fba 683f ca26 1b3e bf52 203f b57e 253d
00000090: ca26 1b3e 3ef8 603f d4fa 153f fd4a 813e
000000a0: 6748 4c3f 7786 c43e 4e36 d93e b57e 253c
000000b0: 103e 783e 3424 663f 8c2e ba3e 1f7c 703f
000000c0: 7cf0 413f bf52 a03e b57e 253d a0d6 af3e
000000d0: 2fba e83e 15a8 753f 15a8 753f 2fba e83e
000000e0: 2fba e83e 62de 4e3f f376 063f dece 103f
000000f0: 3ef8 603f 86c4 3c3f b57e 253d 1a12 f33e
00000100: d964 133f dece 103f a540 2d3f 056a 7d3f
00000110: a0d6 2f3f 4e36 593e 62de 4e3d dece 903e
00000120: fd4a 813e 62de 4e3f b57e 253c 580a d43e
00000130: 103e 783f 0ad4 7a3f d4fa 953e f8e0 033f
00000140: 53a0 563f 1a12 733f 1a12 f33e cf90 183f
00000150: 6db2 c93e a0d6 2f3f 4e36 593f b57e a53c
00000160: 2950 6b3f 103e f83e f376 063e ca26 1b3f
00000170: fd4a 813e 103e 783f a0d6 af3e 53a0 563f
00000180: 103e f83e 6748 4c3f 9198 373f ca26 9b3e

x_bc_lb f4 [100, 1]
0.0 0.0 0.0 0.0 0.0 0.0 0.0 0.0
0.0 0.0 0.0 0.0 0.0 0.0 0.0 0.0
0.0 0.0 0.0 0.0 0.0 0.0 0.0 0.0
0.0 0.0 0.0 0.0 0.0 0.0 0.0 0.0
0.0 0.0 0.0 0.0 0.0 0.0 0.0 0.0
0.0 0.0 0.0 0.0 0.0 0.0 0.0 0.0
0.0 0.0 0.0 0.0 0.0 0.0 0.0 0.0
0.0 0.0 0.0 0.0 0.0 0.0 0.0 0.0
0.0 0.0 0.0 0.0 0.0 0.0 0.0 0.0
0.0 0.0 0.0 0.0 0.0 0.0 0.0 0.0
0.0 0.0 0.0 0.0 0.0 0.0 0.0 0.0
0.0 0.0 0.0 0.0 0.0 0.0 0.0 0.0
0.0 0.0 0.0 0.0
00000000: 0000 0000 0000 0000 0000 0000 0000 0000
00000010: 0000 0000 0000 0000 0000 0000 0000 0000
00000020: 0000 0000 0000 0000 0000 0000 0000 0000
00000030: 0000 0000 0000 0000 0000 0000 0000 0000
00000040: 0000 0000 0000 0000 0000 0000 0000 0000
00000050: 0000 0000 0000 0000 0000 0000 0000 0000
00000060: 0000 0000 0000 0000 0000 0000 0000 0000
00000070: 0000 0000 0000 0000 0000 0000 0000 0000
00000080: 0000 0000 0000 0000 0000 0000 0000 0000
00000090: 0000 0000 0000 0000 0000 0000 0000 0000
000000a0: 0000 0000 0000 0000 0000 0000 0000 0000
000000b0: 0000 0000 0000 0000 0000 0000 0000 0000
000000c0: 0000 0000 0000 0000 0000 0000 0000 0000
000000d0: 0000 0000 0000 0000 0000 0000 0000 0000
000000e0: 0000 0000 0000 0000 0000 0000 0000 0000
000000f0: 0000 0000 0000 0000 0000 0000 0000 0000
00000100: 0000 0000 0000 0000 0000 0000 0000 0000
00000110: 0000 0000 0000 0000 0000 0000 0000 0000
00000120: 0000 0000 0000 0000 0000 0000 0000 0000
00000130: 0000 0000 0000 0000 0000 0000 0000 0000
00000140: 0000 0000 0000 0000 0000 0000 0000 0000
00000150: 0000 0000 0000 0000 0000 0000 0000 0000
00000160: 0000 0000 0000 0000 0000 0000 0000 0000
00000170: 0000 0000 0000 0000 0000 0000 0000 0000
00000180: 0000 0000 0000 0000 0000 0000 0000 0000

t_bc_lb f4 [100, 1]
0.0 0.01010101 0.02020202 0.030303031 0.04040404 0.05050505 0.060606062 0.07070707
0.08080808 0.09090909 0.1010101 0.11111111 0.121212125 0.13131313 0.14141414 0.15151516
0.16161616 0.17171717 0.18181819 0.1919192 0.2020202 0.21212122 0.22222222 0.23232323
0.24242425 0.25252524 0.26262626 0.27272728 0.28282827 0.2929293 0.3030303 0.3131313
0.32323232 0.33333334 0.34343433 0.35353535 0.36363637 0.37373737 0.3838384 0.3939394
0.4040404 0.41414142 0.42424244 0.43434343 0.44444445 0.45454547 0.46464646 0.47474748
0.4848485 0.4949495 0.5050505 0.5151515 0.5252525 0.53535354 0.54545456 0.5555556
0.56565654 0.57575756 0.5858586 0.5959596 0.6060606 0.61616164 0.6262626 0.6363636
0.64646465 0.65656567 0.6666667 0.67676765 0.68686867 0.6969697 0.7070707 0.7171717
0.72727275 0.7373737 0.74747473 0.75757575 0.7676768 0.7777778 0.7878788 0.7979798
0.8080808 0.8181818 0.82828283 0.83838385 0.8484849 0.85858583 0.86868685 0.8787879
0.8888889 0.8989899 0.90909094 0.9191919 0.9292929 0.93939394 0.94949496 0.959596
0.969697 0.97979796 0.989899 1.0
00000000: 0000 0000 b57e 253c b57e a53c 103e f83c
00000010: b57e 253d 62de 4e3d 103e 783d dece 903d
00000020: b57e a53d 8c2e ba3d 62de ce3d 398e e33d
00000030: 103e f83d f376 063e dece 103e ca26 1b3e
00000040: b57e 253e a0d6 2f3e 8c2e 3a3e 7786 443e
00000050: 62de 4e3e 4e36 593e 398e 633e 24e6 6d3e
00000060: 103e 783e fd4a 813e f376 863e e9a2 8b3e
00000070: dece 903e d4fa 953e ca26 9b3e bf52 a03e
00000080: b57e a53e abaa aa3e a0d6 af3e 9602 b53e
00000090: 8c2e ba3e 815a bf3e 7786 c43e 6db2 c93e
000000a0: 62de ce3e 580a d43e 4e36 d93e 4362 de3e
000000b0: 398e e33e 2fba e83e 24e6 ed3e 1a12 f33e
000000c0: 103e f83e 056a fd3e fd4a 013f f8e0 033f
000000d0: f376 063f ee0c 093f e9a2 0b3f e438 0e3f
000000e0: dece 103f d964 133f d4fa 153f cf90 183f
000000f0: ca26 1b3f c5bc 1d3f bf52 203f bae8 223f
00000100: b57e 253f b014 283f abaa 2a3f a540 2d3f
00000110: a0d6 2f3f 9b6c 323f 9602 353f 9198 373f
00000120: 8c2e 3a3f 86c4 3c3f 815a 3f3f 7cf0 413f
00000130: 7786 443f 721c 473f 6db2 493f 6748 4c3f
00000140: 62de 4e3f 5d74 513f 580a 543f 53a0 563f
00000150: 4e36 593f 48cc 5b3f 4362 5e3f 3ef8 603f
00000160: 398e 633f 3424 663f 2fba 683f 2950 6b3f
00000170: 24e6 6d3f 1f7c 703f 1a12 733f 15a8 753f
00000180: 103e 783f 0ad4 7a3f 056a 7d3f 0000 803f

x_bc_ub f4 [100, 1]
6.2831855 6.2831855 6.2831855 6.2831855 6.2831855 6.2831855 6.2831855 6.2831855
6.2831855 6.2831855 6.2831855 6.2831855 6.2831855 6.2831855 6.2831855 6.2831855
6.2831855 6.2831855 6.2831855 6.2831855 6.2831855 6.2831855 6.2831855 6.2831855
6.2831855 6.2831855 6.2831855 6.2831855 6.2831855 6.2831855 6.2831855 6.2831855
6.2831855 6.2831855 6.2831855 6.2831855 6.2831855 6.2831855 6.2831855 6.2831855
6.2831855 6.2831855 6.2831855 6.2831855 6.2831855 6.2831855 6.2831855 6.2831855
6.2831855 6.2831855 6.2831855 6.2831855 6.2831855 6.2831855 6.2831855 6.2831855
6.2831855 6.2831855 6.2831855 6.2831855 6.2831855 6.2831855 6.2831855 6.2831855
6.2831855 6.2831855 6.2831855 6.2831855 6.2831855 6.2831855 6.2831855 6.2831855
6.2831855 6.2831855 6.2831855 6.2831855 6.2831855 6.2831855 6.2831855 6.2831855
6.2831855 6.2831855 6.2831855 6.2831855 6.2831855 6.2831855 6.2831855 6.2831855
6.2831855 6.2831855 6.2831855 6.2831855 6.2831855 6.2831855 6.2831855 6.2831855
6.2831855 6.2831855 6.2831855 6.2831855
00000000: db0f c940 db0f c940 db0f c940 db0f c940
00000010: db0f c940 db0f c940 db0f c940 db0f c940
00000020: db0f c940 db0f c940 db0f c940 db0f c940
00000030: db0f c940 db0f c940 db0f c940 db0f c940
00000040: db0f c940 db0f c940 db0f c940 db0f c940
00000050: db0f c940 db0f c940 db0f c940 db0f c940
00000060: db0f c940 db0f c940 db0f c940 db0f c940
00000070: db0f c940 db0f c940 db0f c940 db0f c940
00000080: db0f c940 db0f c940 db0f c940 db0f c940
00000090: db0f c940 db0f c940 db0f c940 db0f c940
000000a0: db0f c940 db0f c940 db0f c940 db0f c940
000000b0: db0f c940 db0f c940 db0f c940 db0f c940
000000c0: db0f c940 db0f c940 db0f c940 db0f c940
000000d0: db0f c940 db0f c940 db0f c940 db0f c940
000000e0: db0f c940 db0f c940 db0f c940 db0f c940
000000f0: db0f c940 db0f c940 db0f c940 db0f c940
00000100: db0f c940 db0f c940 db0f c940 db0f c940
00000110: db0f c940 db0f c940 db0f c940 db0f c940
00000120: db0f c940 db0f c940 db0f c940 db0f c940
00000130: db0f c940 db0f c940 db0f c940 db0f c940
00000140: db0f c940 db0f c940 db0f c940 db0f c940
00000150: db0f c940 db0f c940 db0f c940 db0f c940
00000160: db0f c940 db0f c940 db0f c940 db0f c940
00000170: db0f c940 db0f c940 db0f c940 db0f c940
00000180: db0f c940 db0f c940 db0f c940 db0f c940

t_bc_ub f4 [100, 1]
0.0 0.01010101 0.02020202 0.030303031 0.04040404 0.05050505 0.060606062 0.07070707
0.08080808 0.09090909 0.1010101 0.11111111 0.121212125 0.13131313 0.14141414 0.15151516
0.16161616 0.17171717 0.18181819 0.1919192 0.2020202 0.21212122 0.22222222 0.23232323
0.24242425 0.25252524 0.26262626 0.27272728 0.28282827 0.2929293 0.3030303 0.3131313
0.32323232 0.33333334 0.34343433 0.35353535 0.36363637 0.37373737 0.3838384 0.3939394
0.4040404 0.41414142 0.42424244 0.43434343 0.44444445 0.45454547 0.46464646 0.47474748
0.4848485 0.4949495 0.5050505 0.5151515 0.5252525 0.53535354 0.54545456 0.5555556
0.56565654 0.57575756 0.5858586 0.5959596 0.6060606 0.61616164 0.6262626 0.6363636
0.64646465 0.65656567 0.6666667 0.67676765 0.68686867 0.6969697 0.7070707 0.7171717
0.72727275 0.7373737 0.74747473 0.75757575 0.7676768 0.7777778 0.7878788 0.7979798
0.8080808 0.8181818 0.82828283 0.83838385 0.8484849 0.85858583 0.86868685 0.8787879
0.8888889 0.8989899 0.90909094 0.9191919 0.9292929 0.93939394 0.94949496 0.959596
0.969697 0.97979796 0.989899 1.0
00000000: 0000 0000 b57e 253c b57e a53c 103e f83c
00000010: b57e 253d 62de 4e3d 103e 783d dece 903d
00000020: b57e a53d 8c2e ba3d 62de ce3d 398e e33d
00000030: 103e f83d f376 063e dece 103e ca26 1b3e
00000040: b57e 253e a0d6 2f3e 8c2e 3a3e 7786 443e
00000050: 62de 4e3e 4e36 593e 398e 633e 24e6 6d3e
00000060: 103e 783e fd4a 813e f376 863e e9a2 8b3e
00000070: dece 903e d4fa 953e ca26 9b3e bf52 a03e
00000080: b57e a53e abaa aa3e a0d6 af3e 9602 b53e
00000090: 8c2e ba3e 815a bf3e 7786 c43e 6db2 c93e
000000a0: 62de ce3e 580a d43e 4e36 d93e 4362 de3e
000000b0: 398e e33e 2fba e83e 24e6 ed3e 1a12 f33e
000000c0: 103e f83e 056a fd3e fd4a 013f f8e0 033f
000000d0: f376 063f ee0c 093f e9a2 0b3f e438 0e3f
000000e0: dece 103f d964 133f d4fa 153f cf90 183f
000000f0: ca26 1b3f c5bc 1d3f bf52 203f bae8 223f
00000100: b57e 253f b014 283f abaa 2a3f a540 2d3f
00000110: a0d6 2f3f 9b6c 323f 9602 353f 9198 373f
00000120: 8c2e 3a3f 86c4 3c3f 815a 3f3f 7cf0 413f
00000130: 7786 443f 721c 473f 6db2 493f 6748 4c3f
00000140: 62de 4e3f 5d74 513f 580a 543f 53a0 563f
00000150: 4e36 593f 48cc 5b3f 4362 5e3f 3ef8 603f
00000160: 398e 633f 3424 663f 2fba 683f 2950 6b3f
00000170: 24e6 6d3f 1f7c 703f 1a12 733f 15a8 753f
00000180: 103e 783f 0ad4 7a3f 056a 7d3f 0000 803f

weight f4 [50, 2]
0.07151209 0.049279835 0.008172721 -0.021377668 0.5638574 -0.4488756 -0.026747275 0.090639316
-0.054868214 0.05218357 -0.19538876 0.38520396 0.14902723 -0.02784145 -0.18058556 -0.11355538
0.1184986 0.24190152 0.105947 -0.25750855 -0.4338964 0.1693374 0.30630234 -0.17894259
-0.25349918 -0.35546872 -0.060201116 0.14784718 0.07398436 -0.09954246 -0.11172308 -0.09370452
-0.13355617 -0.11124733 -0.291912 0.2767249 -0.06259621 0.1997378 -0.37752932 0.35914457
0.13802697 -0.18084222 0.09435364 -0.27556598 0.070534065 0.002951454 0.022301627 -0.25891533
-0.03929539 0.066033155 0.38363105 -0.30926898 -0.13545766 0.17702736 -0.056546453 0.054618917
0.27813762 -0.2047727 0.027672572 -0.094169565 -0.057260785 0.09340073 -0.25378665 0.12505251
0.21524768 -0.1490533 -0.37626782 0.02118618 0.052211694 -0.2596861 -0.45512316 0.17830129
-0.11831476 -0.06178361 0.11297859 0.03715698 0.0073248134 0.109754845 -0.16418917 -0.050734363
-0.06376557 0.0028810767 0.1272355 0.08467815 0.1396622 -0.22875005 0.52142006 -0.3249744
0.13441157 0.01501617 -0.10892476 -0.41865838 0.013293325 -0.32304475 0.1519014 -0.24450055
-0.16983889 0.009743088 0.17666009 0.01191192
00000000: ee74 923d a7d9 493d e0e6 053c 3820 afbc
00000010: f558 103f 06d3 e5be 1a1d dbbc 1ba1 b93d
00000020: 7ebd 60bd 70be 553d fe13 48be 7439 c53e
00000030: 989a 183e c113 e4bc 6ceb 38be b98f e8bd
00000040: 65af f23d 08b5 773e befa d83d 29d8 83be
00000050: ab27 debe c966 2d3e a9d3 9c3e ba3c 37be
00000060: a5ca 81be ffff b5be 7295 76bd 4065 173e
00000070: 1d85 973d ebdc cbbd 12cf e4bd 28e8 bfbd
00000080: f3c2 08be a4d5 e3bd 7d75 95be e3ae 8d3e
00000090: 7132 80bd 1188 4c3e 864b c1be cce1 b73e
000000a0: f156 0d3e b42e 39be 7b3c c13d fc16 8dbe
000000b0: 2a74 903d 2e6d 413b e7b1 b63c 8d90 84be
000000c0: 34f4 20bd 643c 873d 4a6b c43e 8158 9ebe
000000d0: 6ab5 0abe a946 353e 419d 67bd 16b8 5f3d
000000e0: 0e68 8e3e efaf 51be 97b1 e23c f9db c0bd
000000f0: 498a 6abd e248 bf3d 53f0 81be c40d 003e
00000100: e369 5c3e 6ea1 18be 2da6 c0be a48e ad3c
00000110: eedb 553d 94f5 84be e705 e9be 9d94 363e
00000120: 024f f2bd d010 7dbd 5261 e73d eb31 183d
00000130: fd04 f03b 26c7 e03d 3521 28be d6ce 4fbd
00000140: 8697 82bd 72d0 3c3b 064a 023e bd6b ad3d
00000150: 9c03 0f3e 743d 6abe c97b 053f 0b63 a6be
00000160: 30a3 093e 6206 763c f213 dfbd 645a d6be
00000170: 3fcc 593c 1f66 a5be 0a8c 1b3e 5a5e 7abe
00000180: 3fea 2dbe 79a1 1f3c 62e6 343e 372a 433c

bias f4 [50]
0.0024891337 0.0050175264 -0.03797989 0.004385473 0.0019976695 0.02056084 -0.1949797 0.034217954
0.007209239 -0.007635986 0.0030777226 -0.08235775 0.0018510541 0.005850637 -0.009633498 0.010987268
-0.0045443606 0.1195388 0.10773052 0.029590104 -0.02322787 -0.017506389 0.04183769 -0.043274906
0.016618282 -0.0903997 0.027917787 -0.0031803898 -0.04786392 -0.0384006 0.043020505 0.046624627
-0.06379956 -0.027767709 -0.004000236 -0.0051076324 0.038921088 -0.08593247 0.0038936918 0.030673759
0.006841293 -0.032888766 -0.07041975 -0.02926101 -0.017730897 0.060966548 -0.05395963 -0.022343135
0.01647562 -0.03158989
00000000: bc20 233b 106a a43b cd90 1bbd 04b4 8f3b
00000010: 55eb 023b 356f a83c c2a8 47be 2028 0c3d
00000020: 7b3b ec3b 4b37 fabb 9eb3 493b 2eab a8bd
00000030: 129f f23a b3b6 bf3b d2d5 1dbc f103 343c
00000040: dce8 94bb c2d0 f43d d2a1 dc3d f266 f23c
00000050: 6048 bebc 8f69 8fbc ff5d 2b3d 0741 31bd
00000060: 1023 883c 7a23 b9bd d8b3 e43c 166e 50bb
00000070: f50c 44bd f349 1dbd 4536 303d 77f9 3e3d
00000080: 58a9 82bd 1b79 e3bc 6914 83bb ed5d a7bb
00000090: b86b 1f3d 5dfd afbd 4f2d 7f3b 8947 fb3c
000000a0: ed2c e03b 5fb6 06bd 3b38 90bd c9b4 efbc
000000b0: 6340 91bc 0fb8 793d c604 5dbd f308 b7bc
000000c0: e1f7 863c 6764 01bd

weight f4 [50, 50]
0.14462084 -0.06162864 -0.37633237 0.11504202 -0.043480296 -0.04405731 -0.1973647 0.09371249
0.09200862 0.096056916 0.11820202 -0.26254615 -0.22096378 -0.09560547 0.20353815 -0.052724056
-0.25367156 -0.0117079085 0.16057673 -0.17951044 0.028903263 0.05380057 0.14322591 0.15862897
0.3023206 0.031843185 0.32607815 0.04211322 0.19783436 -0.2461211 0.23351164 -0.05729999
-0.042531267 -0.21858115 0.12972338 0.042895097 0.22230437 -0.0041371435 -0.05207982 0.0918263
0.055820584 -0.23967578 -0.122505434 -0.0061849873 -0.019153712 0.116888426 0.016843878 -0.16354653
0.08476146 -0.11577325 -0.13924453 -0.11444772 -0.08472242 -0.07375259 0.056956235 -0.026481032
0.06676748 -0.022422189 0.015475113 0.1692237 -0.13679117 -0.3497189 0.216766 0.030671855
-0.104932666 0.13497318 0.008286803 0.24398619 -0.12912886 0.027231509 0.022078132 0.13401708
-0.18319568 0.09050341 0.1704323 0.026426341 -0.10956504 -0.0258692 -0.017097225 0.012187565
0.009635127 -0.008310791 -0.0077302163 -0.26086843 -0.21380107 -0.14397705 -0.10298344 -0.1434856
-0.27750757 -0.113383606 0.05371621 -0.03329837 -0.25251865 -0.071092874 -0.08400198 -0.11881391
0.12669832 -0.24060045 0.108543575 0.2205957 -0.107790686 0.041168924 -0.076149754 0.057993043
0.010793504 0.05844789 -0.0083029745 0.21176788 -0.08420853 0.038326714 -0.25941077 -0.07044558
0.11332566 -0.03761749 0.06802777 0.05742694 -0.12120863 0.10097206 0.20118421 0.037558276
0.08823097 -0.021518735 0.01576186 -0.11377795 0.03365775 -0.01722988 -0.14477104 0.19219181
0.28250292 -0.06310335 0.040699873 -0.1784538 0.04892617 0.050637566 0.04253465 0.093709804
0.10551808 -0.023095906 0.020645669 0.20255232 -0.09217691 0.05167174 -0.07246592 -0.0015798261
0.08007971 0.15234877 0.013366857 -0.3411214 0.027127123 0.15690686 -0.21662576 -0.00933545
0.13707887 -0.04031721 -0.003453803 0.1228746 0.30065948 0.030033397 -0.12492314 0.051319275
-0.11674697 -0.011328355 0.12000444 -0.017502617 0.0081613455 0.10676933 0.031547204 -0.017293412
-0.18221174 0.123735726 -0.17550354 0.18590564 -0.0085688885 0.26968083 0.24632923 -0.06615688
0.050744977 0.10497732 0.11285199 0.21578741 -0.062342837 0.085045904 -0.17237508 -0.19471352
-0.1878425 -0.029411113 -0.2601153 -0.009147227 0.22565135 0.05279466 -0.10913648 0.010705138
-0.14162204 0.058910258 0.1550157 -0.1740193 -0.024624214 0.097749434 -0.11610313 0.14153272
0.050743278 -0.034130402 0.06898291 0.013789779 0.25128603 -0.2104812 0.13942179 0.23254827
-0.023733106 -0.1484638 0.24209394 -0.22051975 0.0016405423 -0.086697675 0.02794199 -0.054374415
-0.14612886 0.0668027 -0.06544645 -0.094037496 -0.043065157 0.08070333 -0.10285334 -0.16715902
0.11963329 0.051371187 -0.11209052 0.13687189 -0.018119529 0.12427747 -0.029119989 -0.20230469
-0.11915926 0.14718883 -0.19479936 0.10491804 -0.08804164 0.025258593 0.08120882 0.0059915935
-0.10659051 -0.24611096 -0.04303868 0.14491232 -0.17887808 0.1074935 0.0143142175 0.096559934
0.10042581 0.014557047 -0.09995889 -0.15914425 -0.10677947 0.15578628 -0.012013602 -0.0467974
00000000: 7c17 143e 506e 7cbd a3ae c0be 279b eb3d
00000010: 6518 32bd 7075 34bd f919 4abe 55ec bf3d
00000020: 046f bc3d 7db9 c43d e713 f23d 736c 86be
00000030: 5444 62be cdcc c3bd 4e6c 503e 2ef5 57bd
00000040: 3de1 81be 87d2 3fbc 3a6e 243e 96d1 37be
00000050: 89c6 ec3c fd5d 5c3d d0a9 123e a26f 223e
00000060: c4c9 9a3e 006e 023d b7f3 a63e e97e 2c3d
00000070: 1795 4a3e 2b07 7cbe ad1d 6f3e 65b3 6abd
00000080: 4435 2ebd bdd3 5fbe 35d6 043e c5b2 2f3d
00000090: c2a3 633e e090 87bb a651 55bd 6d0f bc3d
000000a0: 20a4 643d 916d 75be 21e4 fabd 6fab cabb
000000b0: 3fe8 9cbc 3363 ef3d 2cfc 893c be78 27be
000000c0: 6b97 ad3d 871a edbd 1e96 0ebe 9163 eabd
000000d0: f382 adbd 990b 97bd f14a 693d c0ee d8bc
000000e0: 63bd 883d bdae b7bc 548b 7d3c fa48 2d3e
000000f0: fc12 0cbe 5b0e b3be e8f7 5d3e 8b43 fb3c
00000100: f0e6 d6bd 6936 0a3e 5fc5 073c 84d7 793e
00000110: 5b3a 04be 9d14 df3c 33dd b43c c63b 093e
00000120: a697 3bbe da59 b93d ce85 2e3e 0e7c d83c
00000130: a363 e0bd a5eb d3bc 7b0f 8cbc 5aae 473c
00000140: a7dc 1d3c fc29 08bc c14d fdbb 8c90 85be
00000150: abee 5abe b86e 13be fbe8 d2bd e4ed 12be
00000160: 7915 8ebe aa35 e8bd 8705 5c3d df63 08bd
00000170: 204a 81be 2499 91bd 3b09 acbd b554 f3bd
00000180: 34bd 013e f75f 76be 184c de3d d7e3 613e
00000190: 5dc1 dcbd bfa0 283d 67f4 9bbd 1d8a 6d3d
000001a0: 3dd7 303c 0e67 6f3d 3309 08bc aed9 583e
000001b0: 8675 acbd 79fc 1c3d 7dd1 84be c645 90bd
000001c0: 4917 e83d cc14 1abd 2552 8b3d 8338 6b3d
000001d0: 3b3c f8bd 70ca ce3d 3c03 4e3e b5d6 193d
000001e0: 70b2 b43d 0f48 b0bc 041f 813c 6a04 e9bd
000001f0: b5dc 093d ad25 8dbc dc3e 14be eecd 443e
00000200: 39a4 903e 543c 81bd e9b4 263d 98bc 36be
00000210: cf66 483d 5669 4f3d d038 2e3d edea bf3d
00000220: dd19 d83d a033 bdbc 1b21 a93c e069 4f3e
00000230: 3fc7 bcbd bfa5 533d 0369 94bd 2b12 cfba
00000240: d500 a43d 5101 1c3e a900 5b3c 77a7 aebe
00000250: b339 de3c 31ac 203e 25d3 5dbe b7f3 18bc
00000260: 675e 0c3e a923 25bd 3359 62bb aea5 fb3d
00000270: 0af0 993e 9908 f63c b4d7 ffbd 2934 523d
00000280: 0919 efbd 919a 39bc e3c4 f53d a661 8fbc
00000290: 2ab7 053c e1a9 da3d a437 013d eaaa 8dbc
000002a0: b795 3abe 2869 fd3d 33b7 33be 0c5e 3e3e
000002b0: 8664 0cbc 9b13 8a3e bb3d 7c3e 427d 87bd
000002c0: f7d9 4f3d 59fe d63d f21e e73d 60f7 5c3e
000002d0: 345b 7fbd 8c2c ae3d 1883 30be fb62 47be
000002e0: c959 40be 93ef f0bc d52d 85be 40de 15bc
000002f0: 2611 673e 373f 583d f282 dfbd 9a64 2f3c
00000300: 5e05 11be e24b 713d 70bc 1e3e 1e32 32be
00000310: b8b8 c9bc db30 c83d 7ac7 edbd f4ed 103e
00000320: 2fd8 4f3d 52cc 0bbd e946 8d3d 86ee 613c
00000330: 90a8 803e 6288 57be 96c4 0e3e 2221 6e3e
00000340: ee6b c2bc e506 18be 79e7 773e eecf 61be
00000350: 7707 d73a 8d8e b1bd 9ae6 e43c b5b7 5ebd
00000360: cea2 15be dbcf 883d ca08 86bd bb96 c0bd
00000370: 1765 30bd ca47 a53d c6a4 d2bd bc2b 2bbe
00000380: 4c02 f53d 986a 523d b78f e5bd 2528 0c3e
00000390: 686f 94bc 3085 fe3d 0b8d eebc f628 4fbe
000003a0: c509 f4bd abb8 163e 7c79 47be 45df d63d
000003b0: 2d4f b4bd 1ceb ce3c cf50 a63d 2155 c43b
000003c0: 204c dabd 8304 7cbe 5449 30bd e563 143e
000003d0: d12b 37be 8d25 dc3d 2e86 6a3c 37c1 c53d
000003e0: 0cac cd3d ae80 6e3c 3fb7 ccbd b6f6 22be
000003f0: 32af dabd 7086 1f3e b3d4 44bc a1ae 3fbd

bias f4 [50]
0.037167065 0.028481076 -0.0025727656 -0.0023607307 0.010170406 0.009333536 0.0023802915 0.0030150672
0.0003359058 -0.030425753 0.0037660196 -0.008471397 0.0067549557 0.013370597 -0.05130695 -0.017532168
0.021624623 0.006843811 0.011345377 0.0741196 0.018225556 -0.002169929 -0.011377932 -0.0022942072
-0.019586947 0.076701246 -0.07815085 -0.10244875 0.0007268333 -0.0014187595 -0.0036552693 0.01617815
-0.021465335 0.06138207 -0.0022563082 0.021883914 0.008410978 0.12917328 0.007315705 0.009656034
-0.0026449098 0.008860381 0.017374767 -0.0071523036 -0.003554707 0.004871299 0.012552287 -0.0021707742
0.038909134 -0.012306294
00000000: 7e3c 183d 2551 e93c d89b 28bb 7db6 1abb
00000010: c6a1 263c b0eb 183c aafe 1b3b 6f98 453b
00000020: 831c b039 6e3f f9bc 53cf 763b 9dcb 0abc
00000030: ad58 dd3b 5910 5b3c 3d27 52bd 9f9f 8fbc
00000040: 1f26 b13c 0c42 e03b f6e1 393c 04cc 973d
00000050: c34d 953c 5e35 0ebb 816a 3abc 695a 16bb
00000060: ce74 a0bc 8b15 9d3d 8e0d a0bd a6d0 d1bd
00000070: f588 3e3a abf5 b9ba 3e8d 6fbb 0a88 843c
00000080: 12d8 afbc c46b 7b3d 92de 13bb e545 b33c
00000090: 33ce 093c 0046 043e 95b8 ef3b 5834 1e3c
000000a0: 3956 2dbb 222b 113c 8755 8e3c df5d eabb
000000b0: 16f6 68bb 6b9f 9f3b 1ca8 4d3c 8c43 0ebb
000000c0: 2f5f 1f3d 57a0 49bc

weight f4 [50, 50]
-0.30109528 0.10299874 -0.10286321 -0.09237376 -0.09250579 0.31948647 0.10997623 0.05138291
-0.16815895 -0.20359005 0.31374058 -0.22370669 0.009175325 0.2259951 -0.11164896 0.37091967
-0.099577725 -0.25368896 0.015712896 0.18905762 0.10738404 -0.09957394 0.028052254 -0.030408857
0.009513226 0.15267256 -0.049567122 -0.15776901 0.28886083 0.10869895 0.036209483 -0.034128625
0.2421629 -0.07756932 -0.12797523 -0.07387852 -0.043326143 0.12048014 0.1696464 0.36385444
0.108922966 0.10566294 0.12917605 -0.14128666 0.05234495 0.35395283 -0.10321617 -0.22708763
-0.34639904 0.060684856 -0.24732408 -0.008257188 -0.11591478 0.06962886 0.011937304 0.09552172
-0.30518487 0.24664916 0.14061113 0.060911074 0.13234599 0.11136865 0.14677095 0.17014425
-0.061039492 0.09803868 0.058579057 -0.014469538 0.15179327 0.045220487 0.27357337 -0.15671825
0.02954085 -0.14246058 0.0386232 -0.0364292 -0.22942238 -0.02066661 0.07553784 -0.01996361
-0.15190533 0.009542824 -0.05032156 0.11440206 0.19459002 -0.08051503 0.09344582 -0.030833326
-0.086854495 -0.13764434 -0.26158488 -0.105088405 0.19990206 -0.07214692 -0.1581981 0.2653852
0.041563828 -0.2833947 -0.029453944 0.051157154 0.14331636 0.19790854 -0.022152942 0.0127434265
-0.06964303 -0.32256278 0.007731324 0.035327546 -0.022144256 0.07429645 0.18583722 0.052594878
0.221625 0.15470305 0.07791841 0.10514605 0.0654097 0.14612868 0.091164246 0.15161404
0.13628513 0.2129717 -0.046048913 0.24298462 -0.1977915 -0.11219985 -0.13368458 -0.13364731
-0.17495574 0.1422053 -0.1693542 0.1105372 -0.03193507 -0.11961136 -0.1805692 0.013578661
0.25736463 -0.12775125 -0.07095841 0.06874552 -0.03453991 -0.15583925 0.08255734 -0.23959945
-0.1244359 -0.1575373 0.24623682 -0.16681127 0.20198667 -0.24095845 -0.294262 0.18724829
0.09281303 0.16172327 0.012825927 0.018656615 0.024797786 -0.13137478 -0.13763869 -0.0386154
-0.04220706 -0.12353896 0.13729012 -0.118644 -0.082224086 0.12137938 0.032714173 0.16072391
-0.14340833 -0.08264092 -0.1042076 0.03495992 -0.08999552 0.08462457 -0.106912464 -0.09130557
0.092746735 -0.097836986 -0.00044074608 -0.012786359 0.042805154 -0.25421268 0.058941703 0.28147236
-0.19258258 0.043707322 -0.17551376 0.05413413 0.040251452 0.21131736 0.2209106 -0.10902244
-0.04821941 -0.33205706 0.115279354 -0.20767975 0.18992203 -0.023456683 -0.038899854 -0.2138902
0.03630135 -0.13260779 -0.12521166 -0.023698146 -0.27062634 0.11060861 -0.09198656 -0.05802389
0.019206012 0.10508104 -0.1733269 -0.08297944 -0.19803993 0.115937434 0.06925452 -0.054699946
0.087871574 -0.10765418 0.17120759 0.03655239 0.2646165 0.023616204 -0.249072 0.14689107
0.17705287 -0.07673007 -0.24496815 0.21950652 0.18127897 0.064552836 0.08276635 0.04941972
-0.17591837 -0.21014875 -0.026437111 0.06656373 0.0740165 0.03994341 -0.1551459 -0.16342139
-0.053513568 0.049860626 -0.1437627 -0.14500499 -0.034010228 0.10102344 0.13984223 -0.20148599
0.015869278 0.05177215 0.2603416 0.17736074 0.078753844 0.140052 -0.2030841 -0.116222344
00000000: 2929 9abe 01f1 d23d f2a9 d2bd 742e bdbd
00000010: ad73 bdbd bb93 a33e 383b e13d e376 523d
00000020: dc31 2cbe e979 50be 9ba2 a03e 5e13 65be
00000030: 1a54 163c 426b 673e 36a8 e4bd 2fe9 bd3e
00000040: 68ef cbbd 85e3 81be 55b8 803c 5298 413e
00000050: 2aec db3d 6ced cbbd d7cd e53c ff1b f9bc
00000060: 5ddd 1b3c 3256 1c3e e506 4bbd 338e 21be
00000070: 91e5 933e 8e9d de3d 6550 143d 75ca 0bbd
00000080: 8df9 773e aadc 9ebd f00b 03be 9f4d 97bd
00000090: c176 31bd 4bbe f63d c9b7 2d3e 214b ba3e
000000a0: 0113 df3d d065 d83d ba46 043e 73ad 10be
000000b0: a967 563d 4e39 b53e 0063 d3bd a989 68be
000000c0: 375b b1be af90 783d 8642 7dbe 2849 07bc
000000d0: ba64 edbd 9399 8e3d af94 433c e4a0 c33d
000000e0: 3141 9cbe 9991 7c3e 5dfc 0f3e e47d 793d
000000f0: b585 073e 3f15 e43d 204b 163e 4b3a 2e3e
00000100: 8c04 7abd 81c8 c83d 98f0 6f3d a411 6dbc
00000110: b26f 1b3e 1e39 393d cf11 8c3e c07a 20be
00000120: a7ff f13c 30e1 11be 5c33 1e3d c936 15bd
00000130: b3ed 6abe 064d a9bc 95b3 9a3d ba8a a3bc
00000140: 128d 1bbe 8159 1c3c fb1d 4ebd a14b ea3d
00000150: 9b42 473e 10e5 a4bd 8660 bf3d 2c96 fcbc
00000160: c5e0 b1bd a3f2 0cbe 74ee 85be 9738 d7bd
00000170: 20b3 4c3e c4c1 93bd affe 21be 92e0 873e
00000180: d53e 2a3d 1c19 91be 6649 f1bc 2a8a 513d
00000190: 86c1 123e 89a8 4a3e 167a b5bc cec9 503c
000001a0: 01a1 8ebd f326 a5be 0c57 fd3b 9eb3 103d
000001b0: df67 b5bc bd28 983d 1d4c 3e3e ba6d 573d
000001c0: aaf1 623e 7a6a 1e3e b093 9f3d d056 d73d
000001d0: 85f5 853d c2a2 153e 52b4 ba3d b640 1b3e
000001e0: 548e 0b3e 4115 5a3e c99d 3cbd f6d0 783e
000001f0: db89 4abe 09c9 e5bd 9ce4 08be d7da 08be
00000200: 9927 33be 449e 113e 306b 2dbe 5461 e23d
00000210: 59ce 02bd cdf6 f4bd 22e7 38be 0879 5e3c
00000220: 4cc5 833e 39d1 02be a552 91bd 74ca 8c3d
00000230: b879 0dbd 5394 1fbe d313 a93d 8f59 75be
00000240: 40d8 febd 7551 21be 8125 7c3e 93d0 2abe
00000250: 98d5 4e3e d0bd 76be 82a9 96be 04be 3f3e
00000260: c214 be3d c99a 253e d623 523c c2d5 983c
00000270: ba24 cb3c 1c87 06be 28f1 0cbe 2f2b 1ebd
00000280: 4fe1 2cbd ff01 fdbd c895 0c3e a0fb f2bd
00000290: 1a65 a8bd c195 f83d 4cff 053d cf94 243e
000002a0: a2d9 12be a53f a9bd cb6a d5bd 2232 0f3d
000002b0: 924f b8bd a64f ad3d ecf4 dabd 6afe babd
000002c0: 00f2 bd3d c25e c8bd f013 e7b9 e07d 51bc
000002d0: 7554 2f3d 2a28 82be db6c 713d 251d 903e
000002e0: 5e34 45be 7306 333d e1b9 33be c0bb 5d3d
000002f0: b5de 243d 9463 583e 6336 623e 2847 dfbd
00000300: b781 45bd 6203 aabe 9517 ec3d 00aa 54be
00000310: ec7a 423e 3b28 c0bc 7455 1fbd 0806 5bbe
00000320: b9b0 143d 56ca 07be 7c37 00be 9d22 c2bc
00000330: 898f 8abe c486 e23d 7363 bcbd 75aa 6dbd
00000340: ed55 9d3c ba34 d73d 9b7c 31be 20f1 a9bd
00000350: fbca 4abe 9b70 ed3d 50d5 8d3d 0d0d 60bd
00000360: 03f6 b33d cb79 dcbd 0b51 2f3e f5b7 153d
00000370: d07b 873e c576 c13c bb0c 7fbe 9d6a 163e
00000380: 594d 353e a824 9dbd eed8 7abe 51c6 603e
00000390: 32a1 393e 4734 843d 6781 a93d 556c 4a3d
000003a0: f223 34be 3c31 57be a492 d8bc 9152 883d
000003b0: f695 973d b39b 233d 91de 1ebe f057 27be
000003c0: 0b31 5bbd a83a 4c3d 8736 13be 307c 14be
000003d0: 4f4e 0bbd 61e5 ce3d cd32 0f3e 5852 4ebe
000003e0: 4a00 823c 090f 543d 7f4b 853e 0e9e 353e
000003f0: b249 a13d cb69 0f3e 47f5 4fbe fb05 eebd

bias f4 [50]
0.015976634 0.004955695 0.053109765 0.0011792755 -0.0022377546 -0.007853281 5.262596e-05 0.0029913064
0.03123887 0.0006190873 -0.03765396 0.0054092477 0.004772651 0.031367384 -0.00042083467 0.0077930796
-0.015261293 -0.012134979 0.0025553543 0.0067768055 0.0035748293 -0.0030637372 0.022408463 -0.0019974585
0.049744576 -4.0787647e-05 -0.006062902 0.022722924 0.020142417 -0.0037160777 -0.0066692606 -0.003347438
-0.0042173215 -0.010568386 0.017298546 0.014006111 -0.0026558426 0.00029023117 0.009824121 -0.010585685
6.8727626e-05 -0.00059575564 -0.0030087556 0.0012264365 -0.009995417 -0.0014063013 -0.019442715 -0.003927794
-0.011531538 0.02054798
00000000: 6ee1 823c 6263 a23b a089 593d eb91 9a3a
00000010: 4ba7 12bb 0cab 00bc b2ba 5c38 cb09 443b
00000020: a9e8 ff3c 3f4a 223a 0a3b 1abd 0f40 b13b
00000030: e663 9c3b 167b 003d 79a3 dcb9 175d ff3b
00000040: 810a 7abc cad1 46bc bb77 273b f70f de3b
00000050: af47 6a3b fbc8 48bb f491 b73c cbe7 02bb
00000060: f8c0 4b3d 6713 2bb8 4fab c6bb 6d25 ba3c
00000070: b601 a53c 7089 73bb d089 dabb b160 5bbb
00000080: 7531 8abb 0627 2dbc aeb5 8d3c e379 653c
00000090: a50d 2ebb 2b2a 9839 5af5 203c 956f 2dbc
000000a0: dd21 9038 7c2c 1cba 8b2e 45bb 61c0 a03a
000000b0: d1c3 23bc a453 b8ba 5446 9fbc b9b4 80bb
000000c0: c7ee 3cbc 3d54 a83c

weight f4 [50, 50]
-0.092909195 0.008959385 -0.23776187 0.11179616 -0.08882834 -0.04575262 0.020577472 -0.1655731
-0.04048465 -0.119088106 -0.008856441 0.014918453 0.052024353 -0.1276256 0.0058311094 0.049370978
-0.26969427 0.07243908 0.20145041 -0.05067751 -0.10061163 0.033844274 0.19310842 -0.27586782
0.121285185 0.26189014 0.0044783093 0.087120704 0.0641988 0.06034805 -0.13673815 -0.18030715
-0.0073058126 0.06672916 0.13507251 0.03738887 0.3599022 -0.14572407 0.08071671 0.025292309
-0.0018545141 0.3617269 -0.28912625 0.18079752 -0.23806642 0.12511964 -0.07197335 0.10718572
0.069794916 -0.0049679317 0.09033623 -0.1455026 -0.013150862 -0.027960923 -0.09880592 -0.1954413
0.25291207 0.22809573 0.19030035 -0.08981765 0.09220458 -0.07111074 0.20645626 0.253504
-0.34034932 -0.011643722 -0.027524915 0.17524895 0.11056907 -0.14129514 -0.00011062914 -0.059081115
-0.09084678 -0.063788705 0.04965226 0.030688757 0.048196387 0.019933145 -0.07055635 0.059562825
-0.10285831 0.09095057 0.2688764 0.02587992 0.06381098 -0.09759618 -0.10640431 -0.059073973
-0.19869411 0.16748762 -0.17637794 -0.23932204 0.11078595 -0.052735865 -0.12941673 -0.29712573
0.13508976 -0.028168974 0.20117316 -0.13272566 0.07797845 0.20395732 -0.15723531 -0.14157882
0.06325031 0.15482438 0.14984013 0.13660836 0.041228708 0.26759169 -0.23981795 0.006743318
0.0781501 0.0017075015 0.0062342486 -0.12646246 0.002631557 -0.14290597 -0.034634218 0.03611411
0.12210831 -0.18781804 -0.20376341 -0.29887363 -0.1541537 0.06372059 0.01764752 -0.006284752
-0.07712635 -0.021299593 0.05358823 -0.2489657 -0.046620395 0.04552376 0.21025153 0.10035995
-0.081506744 0.12673506 0.077870145 -0.12240537 -0.3085647 0.105199374 -0.1608234 -0.20842129
0.13318442 -0.014421977 -0.06371223 0.21683954 0.005240225 -0.0805762 -0.05412577 0.08173329
-0.09462674 -0.051823337 0.014823573 -0.20583342 0.14703767 0.20702177 -0.09258402 0.15453894
-0.26112965 0.2321853 -0.19193082 -0.0074814647 -0.1988802 0.11608997 0.039324813 -0.036948018
0.15541802 -0.015164642 0.0638678 0.06772969 0.1837771 -0.023317544 -0.14970128 -0.30848727
-0.1816429 -0.027138507 0.092024304 -0.24474585 -0.17781511 -0.11015863 -0.1902166 -0.11440738
0.06616339 0.010804402 -0.14712474 -0.08632259 0.2514921 -0.10719542 -0.052706756 0.21870081
0.25386462 0.018975895 -0.13088131 0.12127542 -0.29104954 0.38034976 0.19977003 0.19136503
0.098735996 0.24370883 0.44213775 0.034894824 -0.17019111 0.19544803 0.13475803 0.019519713
-0.027080031 -0.10585574 0.0638652 0.3168406 -0.109115504 0.2961701 -0.09878662 -0.043888215
0.088602826 0.09975964 0.1471394 0.033983547 -0.010396494 0.23425743 0.10886058 0.106161326
0.09640059 0.16344774 0.009368186 -0.13659543 -0.28513494 0.21202654 0.15346879 0.21453884
-0.054841407 -0.012906882 0.08104304 -0.08279539 0.1586062 0.32310274 -0.05810555 -0.113804765
0.17878646 -0.11772515 -0.019508857 -0.15608847 0.23703891 0.21647193 0.104261614 -0.10808568
-0.018832084 -0.27961114 0.15799268 -0.24203566 -0.0035588334 -0.14726046 -0.1782844 0.20887168
00000000: 2d47 bebd 62ca 123c d977 73be 63f5 e43d
00000010: a2eb b5bd 1967 3bbd 1692 a83c ff8b 29be
00000020: 3bd3 25bd 77e4 f3bd 9b1a 11bc 876c 743c
00000030: 7d17 553d 49b0 02be e412 bf3b 3939 4a3d
00000040: 5e15 8abe f15a 943d 0449 4e3e 3993 4fbd
00000050: 780d cebd 4ba0 0a3d 37be 453e 8c3e 8dbe
00000060: 5e64 f83d 7716 863e c8be 923b 576c b23d
00000070: a97a 833d 842f 773d 1605 0cbe 70a2 38be
00000080: 9965 efbb 4ca9 883d 7350 0a3e 1225 193d
00000090: 1a45 b83e b138 15be cd4e a53d d131 cf3c
000000a0: 2b13 f3ba 4534 b93e 5b08 94be fc22 393e
000000b0: afc7 73be 5d1f 003e c466 93bd 3084 db3d
000000c0: a3f0 8e3d 08ca a2bb 3402 b93d a2fe 14be
000000d0: b776 57bc 4e0e e5bc c25a cabd c421 48be
000000e0: b17d 813e ed91 693e 18de 423e 51f2 b7bd
000000f0: c1d5 bc3d 82a2 91bd 4569 533e 47cb 813e
00000100: 4442 aebe 4fc5 3ebc ee7b e1bc 7674 333e
00000110: 0972 e23d acaf 10be 9101 e8b8 0aff 71bd
00000120: e00d babd a7a3 82bd 2b60 4b3d fd66 fb3c
00000130: 9369 453d d64a a33c d97f 90bd 26f8 733d
00000140: 61a7 d2bd 4b44 ba3d 2baa 893e 2002 d43c
00000150: 55af 823d 82e0 c7bd 81ea d9bd 8df7 71bd
00000160: 7876 4bbe e081 2b3e 6b9c 34be d610 75be
00000170: bfe3 e23d 9001 58bd d285 04be dd20 98be
00000180: f854 0a3e 9fc2 e6bc 5600 4e3e 3ce9 07be
00000190: 2ab3 9f3d 30da 503e 4b02 21be 0afa 10be
000001a0: 6189 813d 488a 1e3e b16f 193e 10e3 0b3e
000001b0: 6fdf 283d c701 893e d692 75be 0df7 dc3b
000001c0: 290d a03d 3ece df3a ab48 cc3b 607f 01be
000001d0: 3376 2c3b f155 12be 9cdc 0dbd 64ec 133d
000001e0: ec13 fa3d 5f53 40be 5ba7 50be f705 99be
000001f0: 78da 1dbe f17f 823d 8891 903c 52f0 cdbb
00000200: 6bf4 9dbd 7c7c aebc 557f 5b3d ddf0 7ebe
00000210: 07f5 3ebd 1f77 3a3d 2d4c 573e 8489 cd3d
00000220: 02ed a6bd d6c6 013e 627a 9f3d abaf fabd
00000230: 31fc 9dbe c572 d73d e4ae 24be 646c 55be
00000240: 7f61 083e 284a 6cbc 8f7b 82bd 2f0b 5e3e
00000250: 31b6 ab3b 2205 a5bd fcb2 5dbd c863 a73d
00000260: aacb c1bd b544 54bd 92de 723c ffc5 52be
00000270: 0b91 163e 84fd 533e b19c bdbd 753f 1e3e
00000280: c9b2 85be fcc1 6d3e 8389 44be 1327 f5bb
00000290: 40a7 4bbe 94c0 ed3d 0e13 213d ce56 17bd
000002a0: e725 1f3e 1e75 78bc 1fcd 823d ddb5 8a3d
000002b0: 1030 3c3e 6f04 bfbc 4b4b 19be 0bf2 9dbe
000002c0: 9900 3abe 9351 debc 3d77 bc3d a89e 7abe
000002d0: 2a15 36be d99a e1bd 24c8 42be 6b4e eabd
000002e0: ac80 873d f204 313c dea7 16be e6c9 b0bd
000002f0: 93c3 803e 4689 dbbd 0ae3 57bd 1bf3 5f3e
00000300: 8bfa 813e 5673 9b3c c005 06be 3f5f f83d
00000310: 7204 95be 34bd c23e 8490 4c3e 32f5 433e
00000320: 1936 ca3d cf8e 793e e15f e23e e0ed 0e3d
00000330: 9446 2ebe 8723 483e 02fe 093e cee7 9f3c
00000340: f1d6 ddbc e5ca d8bd c2cb 823d ee38 a23e
00000350: f377 dfbd 9ba3 973e a450 cabd 21c4 33bd
00000360: 6675 b53d c84e cc3d b6ab 163e 5532 0b3d
00000370: 0e56 2abc 2ee1 6f3e 4cf2 de3d 1c6b d93d
00000380: ac6d c53d d85e 273e 057d 193c acdf 0bbe
00000390: 35fd 91be 7c1d 593e ec26 1d3e 12b0 5b3e
000003a0: 62a1 60bd 6377 53bc e5f9 a53d a190 a9bd
000003b0: aa69 223e b96d a53e 1600 6ebd 7912 e9bd
000003c0: cc13 373e e219 f1bd 0ad1 9fbc a8d5 1fbe
000003d0: 54ba 723e d1aa 5d3e 1d87 d53d 065c ddbd
000003e0: be45 9abc 3129 8fbe d5c8 213e 32d8 77be
000003f0: 513b 69bb 72cb 16be 3090 36be 75e2 553e

bias f4 [50]
0.0013467491 -0.0002431982 -0.0032676298 0.0012405951 -0.0006640497 -0.0011348815 0.00096214213 -0.0039517474
0.0006010956 -0.00046071596 0.0035544073 0.0024615636 0.0015672419 3.6076133e-05 0.000670294 -0.006111427
-0.0012675503 0.00078855763 -0.00018245661 -0.0014038244 -0.001992937 -0.016390666 6.614019e-05 -0.0010872153
-0.0010824559 -0.0069617764 -0.00025902325 -0.0009373235 0.0020919635 -0.002048996 -0.003959668 0.0015109896
0.001421836 0.0041699233 0.00041217898 0.002007346 0.0015017906 0.0005407302 0.0020017852 -0.0020491173
0.00014461724 -0.00049051316 0.0022892263 -0.0013837491 -0.0036613073 -0.0060472717 0.002271164 0.005229794
0.0018782462 -0.0019322925
00000000: 6785 b03a 0503 7fb9 bb25 56bb 779b a23a
00000010: 9f13 2eba 4ec0 94ba 4438 7c3a a97d 81bb
00000020: d892 1d3a 408c f1b9 0ff1 683b 2f52 213b
00000030: e96b cd3a 7450 1738 abb6 2f3a 5e42 c8bb
00000040: ee23 a6ba 35b7 4e3a d351 3fb9 8800 b8ba
00000050: ef9b 02bb b845 86bc beb4 8a38 e480 8eba
00000060: 31e1 8dba 9d1f e4bb 83cd 87b9 b7b6 75ba
00000070: 5319 093b 7348 06bb 1ac0 81bb 660c c63a
00000080: e65c ba3a daa3 883b ba19 d839 ad8d 033b
00000090: bbd7 c43a cabf 0d3a 6230 033b 7c4a 06bb
000000a0: 65a4 1739 c895 00ba d806 163b ea5e b5ba
000000b0: 8bf2 6fbb 3128 c6bb cfd7 143b b15e ab3b
000000c0: 7c2f f63a fa44 fdba
