pbc_examples/saved_models/convection_beta-30.0_layers-50,50,50,50,1_L-2.0_WD-0_init-normal_seed0.pt (torch, 114029 bytes, 36 tensors)

x_u f4 [256, 1]
0.0 0.024543693 0.049087387 0.07363108 0.09817477 0.12271846 0.14726216 0.17180584
0.19634955 0.22089323 0.24543692 0.2699806 0.2945243 0.319068 0.3436117 0.3681554
0.3926991 0.41724277 0.44178647 0.46633017 0.49087384 0.5154175 0.5399612 0.5645049
0.5890486 0.6135923 0.638136 0.6626797 0.6872234 0.7117671 0.7363108 0.7608545
0.7853982 0.8099418 0.83448553 0.85902923 0.88357294 0.90811664 0.93266034 0.957204
0.9817477 1.0062914 1.030835 1.0553788 1.0799224 1.1044662 1.1290098 1.1535536
1.1780972 1.2026409 1.2271847 1.2517283 1.276272 1.3008157 1.3253593 1.3499031
1.3744467 1.3989905 1.4235342 1.4480779 1.4726216 1.4971652 1.521709 1.5462526
1.5707964 1.59534 1.6198837 1.6444274 1.6689711 1.6935148 1.7180585 1.7426022
1.7671459 1.7916895 1.8162333 1.8407769 1.8653207 1.8898643 1.914408 1.9389517
1.9634954 1.9880391 2.0125828 2.0371265 2.06167 2.0862138 2.1107576 2.1353014
2.1598449 2.1843886 2.2089324 2.233476 2.2580197 2.2825634 2.3071072 2.3316507
2.3561945 2.3807383 2.4052818 2.4298255 2.4543693 2.478913 2.5034566 2.5280004
2.552544 2.5770876 2.6016314 2.6261752 2.6507187 2.6752625 2.6998062 2.72435
2.7488935 2.7734373 2.797981 2.8225245 2.8470683 2.871612 2.8961558 2.9206994
2.9452431 2.969787 2.9943304 3.0188742 3.043418 3.0679617 3.0925052 3.117049
3.1415927 3.1661363 3.19068 3.2152238 3.2397673 3.264311 3.2888548 3.3133986
3.3379421 3.362486 3.3870296 3.4115732 3.436117 3.4606607 3.4852045 3.509748
3.5342917 3.5588355 3.583379 3.6079228 3.6324666 3.6570103 3.6815538 3.7060976
3.7306414 3.755185 3.7797287 3.8042724 3.828816 3.8533597 3.8779035 3.9024472
3.9269907 3.9515345 3.9760783 4.000622 4.0251656 4.0497093 4.074253 4.098797
4.12334 4.147884 4.1724277 4.1969714 4.221515 4.246059 4.2706027 4.295146
4.3196898 4.3442335 4.3687773 4.393321 4.417865 4.4424086 4.466952 4.4914956
4.5160394 4.540583 4.565127 4.5896707 4.6142144 4.6387577 4.6633015 4.687845
4.712389 4.7369328 4.7614765 4.7860203 4.8105636 4.8351073 4.859651 4.884195
4.9087386 4.9332824 4.957826 4.9823694 5.006913 5.031457 5.0560007 5.0805445
5.105088 5.1296315 5.1541753 5.178719 5.203263 5.2278066 5.2523503 5.276894
5.3014374 5.325981 5.350525 5.3750687 5.3996124 5.424156 5.4487 5.473243
5.497787 5.5223308 5.5468745 5.5714183 5.595962 5.620506 5.645049 5.669593
5.6941366 5.7186804 5.743224 5.767768 5.7923117 5.816855 5.8413987 5.8659425
5.8904862 5.91503 5.939574 5.9641175 5.988661 6.0132046 6.0377483 6.062292
6.086836 6.1113796 6.1359234 6.1604667 6.1850104 6.209554 6.234098 6.2586417
00000000: 0000 0000 db0f c93c db0f 493d e4cb 963d
00000010: db0f c93d d153 fb3d e4cb 163e dfed 2f3e
00000020: db0f 493e d631 623e d153 7b3e e63a 8a3e
00000030: e4cb 963e e25c a33e dfed af3e dd7e bc3e
00000040: db0f c93e d8a0 d53e d631 e23e d4c2 ee3e
00000050: d153 fb3e 67f2 033f e63a 0a3f 6583 103f
00000060: e4cb 163f 6314 1d3f e25c 233f 60a5 293f
00000070: dfed 2f3f 5e36 363f dd7e 3c3f 5cc7 423f
00000080: db0f 493f 5958 4f3f d8a0 553f 57e9 5b3f
00000090: d631 623f 557a 683f d4c2 6e3f 520b 753f
000000a0: d153 7b3f 28ce 803f 67f2 833f a716 873f
000000b0: e63a 8a3f 265f 8d3f 6583 903f a5a7 933f
000000c0: e4cb 963f 23f0 993f 6314 9d3f a238 a03f
000000d0: e25c a33f 2181 a63f 60a5 a93f a0c9 ac3f
000000e0: dfed af3f 1f12 b33f 5e36 b63f 9e5a b93f
000000f0: dd7e bc3f 1ca3 bf3f 5cc7 c23f 9beb c53f
00000100: db0f c93f 1a34 cc3f 5958 cf3f 997c d23f
00000110: d8a0 d53f 18c5 d83f 57e9 db3f 970d df3f
00000120: d631 e23f 1556 e53f 557a e83f 949e eb3f
00000130: d4c2 ee3f 13e7 f13f 520b f53f 922f f83f
00000140: d153 fb3f 1178 fe3f 28ce 0040 4860 0240
00000150: 67f2 0340 8784 0540 a716 0740 c7a8 0840
00000160: e63a 0a40 06cd 0b40 265f 0d40 45f1 0e40
00000170: 6583 1040 8515 1240 a5a7 1340 c439 1540
00000180: e4cb 1640 045e 1840 23f0 1940 4382 1b40
00000190: 6314 1d40 83a6 1e40 a238 2040 c2ca 2140
000001a0: e25c 2340 01ef 2440 2181 2640 4113 2840
000001b0: 60a5 2940 8037 2b40 a0c9 2c40 c05b 2e40
000001c0: dfed 2f40 ff7f 3140 1f12 3340 3ea4 3440
000001d0: 5e36 3640 7ec8 3740 9e5a 3940 bdec 3a40
000001e0: dd7e 3c40 fd10 3e40 1ca3 3f40 3c35 4140
000001f0: 5cc7 4240 7c59 4440 9beb 4540 bb7d 4740
00000200: db0f 4940 faa1 4a40 1a34 4c40 3ac6 4d40
00000210: 5958 4f40 79ea 5040 997c 5240 b90e 5440
00000220: d8a0 5540 f832 5740 18c5 5840 3757 5a40
00000230: 57e9 5b40 777b 5d40 970d 5f40 b69f 6040
00000240: d631 6240 f6c3 6340 1556 6540 35e8 6640
00000250: 557a 6840 750c 6a40 949e 6b40 b430 6d40
00000260: d4c2 6e40 f354 7040 13e7 7140 3379 7340
00000270: 520b 7540 729d 7640 922f 7840 b2c1 7940
00000280: d153 7b40 f1e5 7c40 1178 7e40 1805 8040
00000290: 28ce 8040 3897 8140 4860 8240 5829 8340
000002a0: 67f2 8340 77bb 8440 8784 8540 974d 8640
000002b0: a716 8740 b7df 8740 c7a8 8840 d671 8940
000002c0: e63a 8a40 f603 8b40 06cd 8b40 1696 8c40
000002d0: 265f 8d40 3628 8e40 45f1 8e40 55ba 8f40
000002e0: 6583 9040 754c 9140 8515 9240 95de 9240
000002f0: a5a7 9340 b470 9440 c439 9540 d402 9640
00000300: e4cb 9640 f494 9740 045e 9840 1427 9940
00000310: 23f0 9940 33b9 9a40 4382 9b40 534b 9c40
00000320: 6314 9d40 73dd 9d40 83a6 9e40 926f 9f40
00000330: a238 a040 b201 a140 c2ca a140 d293 a240
00000340: e25c a340 f125 a440 01ef a440 11b8 a540
00000350: 2181 a640 314a a740 4113 a840 51dc a840
00000360: 60a5 a940 706e aa40 8037 ab40 9000 ac40
00000370: a0c9 ac40 b092 ad40 c05b ae40 cf24 af40
00000380: dfed af40 efb6 b040 ff7f b140 0f49 b240
00000390: 1f12 b340 2fdb b340 3ea4 b440 4e6d b540
000003a0: 5e36 b640 6eff b640 7ec8 b740 8e91 b840
000003b0: 9e5a b940 ad23 ba40 bdec ba40 cdb5 bb40
000003c0: dd7e bc40 ed47 bd40 fd10 be40 0dda be40
000003d0: 1ca3 bf40 2c6c c040 3c35 c140 4cfe c140
000003e0: 5cc7 c240 6c90 c340 7c59 c440 8b22 c540
000003f0: 9beb c540 abb4 c640 bb7d c740 cb46 c840

t_u f4 [256, 1]
0.0 0.0 0.0 0.0 0.0 0.0 0.0 0.0
0.0 0.0 0.0 0.0 0.0 0.0 0.0 0.0
0.0 0.0 0.0 0.0 0.0 0.0 0.0 0.0
0.0 0.0 0.0 0.0 0.0 0.0 0.0 0.0
0.0 0.0 0.0 0.0 0.0 0.0 0.0 0.0
0.0 0.0 0.0 0.0 0.0 0.0 0.0 0.0
0.0 0.0 0.0 0.0 0.0 0.0 0.0 0.0
0.0 0.0 0.0 0.0 0.0 0.0 0.0 0.0
0.0 0.0 0.0 0.0 0.0 0.0 0.0 0.0
0.0 0.0 0.0 0.0 0.0 0.0 0.0 0.0
0.0 0.0 0.0 0.0 0.0 0.0 0.0 0.0
0.0 0.0 0.0 0.0 0.0 0.0 0.0 0.0
0.0 0.0 0.0 0.0 0.0 0.0 0.0 0.0
0.0 0.0 0.0 0.0 0.0 0.0 0.0 0.0
0.0 0.0 0.0 0.0 0.0 0.0 0.0 0.0
0.0 0.0 0.0 0.0 0.0 0.0 0.0 0.0
0.0 0.0 0.0 0.0 0.0 0.0 0.0 0.0
0.0 0.0 0.0 0.0 0.0 0.0 0.0 0.0
0.0 0.0 0.0 0.0 0.0 0.0 0.0 0.0
0.0 0.0 0.0 0.0 0.0 0.0 0.0 0.0
0.0 0.0 0.0 0.0 0.0 0.0 0.0 0.0
0.0 0.0 0.0 0.0 0.0 0.0 0.0 0.0
0.0 0.0 0.0 0.0 0.0 0.0 0.0 0.0
0.0 0.0 0.0 0.0 0.0 0.0 0.0 0.0
0.0 0.0 0.0 0.0 0.0 0.0 0.0 0.0
0.0 0.0 0.0 0.0 0.0 0.0 0.0 0.0
0.0 0.0 0.0 0.0 0.0 0.0 0.0 0.0
0.0 0.0 0.0 0.0 0.0 0.0 0.0 0.0
0.0 0.0 0.0 0.0 0.0 0.0 0.0 0.0
0.0 0.0 0.0 0.0 0.0 0.0 0.0 0.0
0.0 0.0 0.0 0.0 0.0 0.0 0.0 0.0
0.0 0.0 0.0 0.0 0.0 0.0 0.0 0.0
00000000: 0000 0000 0000 0000 0000 0000 0000 0000
00000010: 0000 0000 0000 0000 0000 0000 0000 0000
00000020: 0000 0000 0000 0000 0000 0000 0000 0000
00000030: 0000 0000 0000 0000 0000 0000 0000 0000
00000040: 0000 0000 0000 0000 0000 0000 0000 0000
00000050: 0000 0000 0000 0000 0000 0000 0000 0000
00000060: 0000 0000 0000 0000 0000 0000 0000 0000
00000070: 0000 0000 0000 0000 0000 0000 0000 0000
00000080: 0000 0000 0000 0000 0000 0000 0000 0000
00000090: 0000 0000 0000 0000 0000 0000 0000 0000
000000a0: 0000 0000 0000 0000 0000 0000 0000 0000
000000b0: 0000 0000 0000 0000 0000 0000 0000 0000
000000c0: 0000 0000 0000 0000 0000 0000 0000 0000
000000d0: 0000 0000 0000 0000 0000 0000 0000 0000
000000e0: 0000 0000 0000 0000 0000 0000 0000 0000
000000f0: 0000 0000 0000 0000 0000 0000 0000 0000
00000100: 0000 0000 0000 0000 0000 0000 0000 0000
00000110: 0000 0000 0000 0000 0000 0000 0000 0000
00000120: 0000 0000 0000 0000 0000 0000 0000 0000
00000130: 0000 0000 0000 0000 0000 0000 0000 0000
00000140: 0000 0000 0000 0000 0000 0000 0000 0000
00000150: 0000 0000 0000 0000 0000 0000 0000 0000
00000160: 0000 0000 0000 0000 0000 0000 0000 0000
00000170: 0000 0000 0000 0000 0000 0000 0000 0000
00000180: 0000 0000 0000 0000 0000 0000 0000 0000
00000190: 0000 0000 0000 0000 0000 0000 0000 0000
000001a0: 0000 0000 0000 0000 0000 0000 0000 0000
000001b0: 0000 0000 0000 0000 0000 0000 0000 0000
000001c0: 0000 0000 0000 0000 0000 0000 0000 0000
000001d0: 0000 0000 0000 0000 0000 0000 0000 0000
000001e0: 0000 0000 0000 0000 0000 0000 0000 0000
000001f0: 0000 0000 0000 0000 0000 0000 0000 0000
00000200: 0000 0000 0000 0000 0000 0000 0000 0000
00000210: 0000 0000 0000 0000 0000 0000 0000 0000
00000220: 0000 0000 0000 0000 0000 0000 0000 0000
00000230: 0000 0000 0000 0000 0000 0000 0000 0000
00000240: 0000 0000 0000 0000 0000 0000 0000 0000
00000250: 0000 0000 0000 0000 0000 0000 0000 0000
00000260: 0000 0000 0000 0000 0000 0000 0000 0000
00000270: 0000 0000 0000 0000 0000 0000 0000 0000
00000280: 0000 0000 0000 0000 0000 0000 0000 0000
00000290: 0000 0000 0000 0000 0000 0000 0000 0000
000002a0: 0000 0000 0000 0000 0000 0000 0000 0000
000002b0: 0000 0000 0000 0000 0000 0000 0000 0000
000002c0: 0000 0000 0000 0000 0000 0000 0000 0000
000002d0: 0000 0000 0000 0000 0000 0000 0000 0000
000002e0: 0000 0000 0000 0000 0000 0000 0000 0000
000002f0: 0000 0000 0000 0000 0000 0000 0000 0000
00000300: 0000 0000 0000 0000 0000 0000 0000 0000
00000310: 0000 0000 0000 0000 0000 0000 0000 0000
00000320: 0000 0000 0000 0000 0000 0000 0000 0000
00000330: 0000 0000 0000 0000 0000 0000 0000 0000
00000340: 0000 0000 0000 0000 0000 0000 0000 0000
00000350: 0000 0000 0000 0000 0000 0000 0000 0000
00000360: 0000 0000 0000 0000 0000 0000 0000 0000
00000370: 0000 0000 0000 0000 0000 0000 0000 0000
00000380: 0000 0000 0000 0000 0000 0000 0000 0000
00000390: 0000 0000 0000 0000 0000 0000 0000 0000
000003a0: 0000 0000 0000 0000 0000 0000 0000 0000
000003b0: 0000 0000 0000 0000 0000 0000 0000 0000
000003c0: 0000 0000 0000 0000 0000 0000 0000 0000
000003d0: 0000 0000 0000 0000 0000 0000 0000 0000
000003e0: 0000 0000 0000 0000 0000 0000 0000 0000
000003f0: 0000 0000 0000 0000 0000 0000 0000 0000

x_f f4 [100, 1]
4.6142144 1.7426022 3.3379421 4.884195 3.0679617 5.5223308 5.816855 6.1850104
4.565127 1.2026409 4.7860203 0.5645049 1.8407769 0.12271846 4.9823694 6.086836
5.7186804 2.6998062 2.5280004 6.1113796 2.72435 5.473243 1.0553788 6.062292
0.44178647 0.7117671 4.1969714 6.2586417 6.1359234 4.540583 6.1850104 4.2706027
5.473243 2.6016314 4.417865 4.9087386 6.0132046 0.3681554 0.49087384 5.203263
3.4606607 0.44178647 1.6198837 4.147884 1.8162333 4.957826 3.4852045 3.3870296
0.957204 2.3071072 0.6626797 5.2278066 0.024543693 6.062292 2.3316507 1.9634954
2.3316507 0.6872234 1.59534 3.4115732 5.595962 5.7923117 1.1044662 3.6815538
0.88357294 1.7180585 2.4298255 3.6079228 1.7916895 1.6198837 4.295146 1.9880391
2.2580197 2.72435 0.7853982 2.06167 4.957826 5.1296315 2.4298255 4.540583
3.6570103 0.83448553 3.7060976 1.7916895 6.086836 4.9823694 4.884195 1.0062914
5.497787 5.8413987 4.1969714 4.712389 0.88357294 0.93266034 1.2271847 5.743224
5.5714183 6.0377483 3.436117 1.3499031
00000000: a5a7 9340 970d df3f d8a0 5540 534b 9c40
00000010: 7c59 4440 efb6 b040 ad23 ba40 9beb c540
00000020: 8515 9240 23f0 993f 1427 9940 6583 103f
00000030: 949e eb3f d153 fb3d 926f 9f40 5cc7 c240
00000040: 6eff b640 a0c9 2c40 c2ca 2140 6c90 c340
00000050: c05b 2e40 cf24 af40 a716 873f 4cfe c140
00000060: d631 e23e 5e36 363f 974d 8640 cb46 c840
00000070: 7c59 c440 754c 9140 9beb c540 c7a8 8840
00000080: cf24 af40 2181 2640 265f 8d40 6314 9d40
00000090: 2c6c c040 dd7e bc3e d153 fb3e 2181 a640
000000a0: 777b 5d40 d631 e23e 5958 cf3f 77bb 8440
000000b0: 557a e83f 83a6 9e40 970d 5f40 18c5 5840
000000c0: 520b 753f a5a7 1340 60a5 293f 314a a740
000000d0: db0f c93c 4cfe c140 c439 1540 d153 fb3f
000000e0: c439 1540 dfed 2f3f 1a34 cc3f 3757 5a40
000000f0: 1f12 b340 9e5a b940 265f 8d3f 949e 6b40
00000100: d631 623f 57e9 db3f 4382 1b40 35e8 6640
00000110: 1556 e53f 5958 cf3f d671 8940 1178 fe3f
00000120: 6583 1040 c05b 2e40 db0f 493f 67f2 0340
00000130: 83a6 9e40 f125 a440 4382 1b40 754c 9140
00000140: 750c 6a40 d8a0 553f b430 6d40 1556 e53f
00000150: 5cc7 c240 926f 9f40 534b 9c40 28ce 803f
00000160: dfed af40 bdec ba40 974d 8640 e4cb 9640
00000170: d631 623f d4c2 6e3f 6314 9d3f 7ec8 b740
00000180: 0f49 b240 3c35 c140 57e9 5b40 a0c9 ac3f

t_f f4 [100, 1]
0.3838384 0.8181818 0.53535354 0.7979798 0.14141414 0.7070707 0.68686867 0.7777778
0.54545456 0.01010101 0.5555556 0.7878788 0.43434343 0.43434343 0.97979796 1.0
0.67676765 0.5252525 0.3030303 0.82828283 0.97979796 0.6363636 0.34343433 0.32323232
0.47474748 0.9191919 0.5555556 0.7777778 0.36363637 0.22222222 0.28282827 0.8888889
0.90909094 0.15151516 0.6262626 0.04040404 0.15151516 0.8787879 0.5858586 0.25252524
0.7979798 0.3838384 0.42424244 0.01010101 0.24242425 0.8989899 0.36363637 0.93939394
0.75757575 0.3131313 0.04040404 0.34343433 0.45454547 0.959596 0.959596 0.45454547
0.45454547 0.8080808 0.5252525 0.56565654 0.8787879 0.7373737 0.04040404 0.47474748
0.57575756 0.56565654 0.67676765 0.989899 0.68686867 0.21212122 0.05050505 0.28282827
0.25252524 0.8080808 0.01010101 0.41414142 0.969697 0.97979796 0.2929293 0.5151515
0.83838385 0.94949496 0.47474748 0.5959596 0.3939394 0.68686867 0.8484849 0.02020202
0.9191919 0.4848485 0.13131313 0.6060606 0.25252524 0.969697 0.34343433 0.83838385
0.4848485 0.7979798 0.7171717 0.3030303
00000000: 7786 c43e 5d74 513f ee0c 093f 6748 4c3f
00000010: dece 103e 9602 353f a0d6 2f3f 721c 473f
00000020: e9a2 0b3f b57e 253c e438 0e3f 6db2 493f
00000030: 4362 de3e 4362 de3e 0ad4 7a3f 0000 803f
00000040: a540 2d3f f376 063f ca26 9b3e 580a 543f
00000050: 0ad4 7a3f bae8 223f a0d6 af3e b57e a53e
00000060: 1a12 f33e 2950 6b3f e438 0e3f 721c 473f
00000070: 8c2e ba3e 398e 633e dece 903e 398e 633f
00000080: 2fba 683f ca26 1b3e bf52 203f b57e 253d
00000090: ca26 1b3e 3ef8 603f d4fa 153f fd4a 813e
000000a0: 6748 4c3f 7786 c43e 4e36 d93e b57e 253c
000000b0: 103e 783e 3424 663f 8c2e ba3e 1f7c 703f
000000c0: 7cf0 413f bf52 a03e b57e 253d a0d6 af3e
000000d0: 2fba e83e 15a8 753f 15a8 753f 2fba e83e
000000e0: 2fba e83e 62de 4e3f f376 063f dece 103f
000000f0: 3ef8 603f 86c4 3c3f b57e 253d 1a12 f33e
00000100: d964 133f dece 103f a540 2d3f 056a 7d3f
00000110: a0d6 2f3f 4e36 593e 62de 4e3d dece 903e
00000120: fd4a 813e 62de 4e3f b57e 253c 580a d43e
00000130: 103e 783f 0ad4 7a3f d4fa 953e f8e0 033f
00000140: 53a0 563f 1a12 733f 1a12 f33e cf90 183f
00000150: 6db2 c93e a0d6 2f3f 4e36 593f b57e a53c
00000160: 2950 6b3f 103e f83e f376 063e ca26 1b3f
00000170: fd4a 813e 103e 783f a0d6 af3e 53a0 563f
00000180: 103e f83e 6748 4c3f 9198 373f ca26 9b3e

x_bc_lb f4 [100, 1]
0.0 0.0 0.0 0.0 0.0 0.0 0.0 0.0
0.0 0.0 0.0 0.0 0.0 0.0 0.0 0.0
0.0 0.0 0.0 0.0 0.0 0.0 0.0 0.0
0.0 0.0 0.0 0.0 0.0 0.0 0.0 0.0
0.0 0.0 0.0 0.0 0.0 0.0 0.0 0.0
0.0 0.0 0.0 0.0 0.0 0.0 0.0 0.0
0.0 0.0 0.0 0.0 0.0 0.0 0.0 0.0
0.0 0.0 0.0 0.0 0.0 0.0 0.0 0.0
0.0 0.0 0.0 0.0 0.0 0.0 0.0 0.0
0.0 0.0 0.0 0.0 0.0 0.0 0.0 0.0
0.0 0.0 0.0 0.0 0.0 0.0 0.0 0.0
0.0 0.0 0.0 0.0 0.0 0.0 0.0 0.0
0.0 0.0 0.0 0.0
00000000: 0000 0000 0000 0000 0000 0000 0000 0000
00000010: 0000 0000 0000 0000 0000 0000 0000 0000
00000020: 0000 0000 0000 0000 0000 0000 0000 0000
00000030: 0000 0000 0000 0000 0000 0000 0000 0000
00000040: 0000 0000 0000 0000 0000 0000 0000 0000
00000050: 0000 0000 0000 0000 0000 0000 0000 0000
00000060: 0000 0000 0000 0000 0000 0000 0000 0000
00000070: 0000 0000 0000 0000 0000 0000 0000 0000
00000080: 0000 0000 0000 0000 0000 0000 0000 0000
00000090: 0000 0000 0000 0000 0000 0000 0000 0000
000000a0: 0000 0000 0000 0000 0000 0000 0000 0000
000000b0: 0000 0000 0000 0000 0000 0000 0000 0000
000000c0: 0000 0000 0000 0000 0000 0000 0000 0000
000000d0: 0000 0000 0000 0000 0000 0000 0000 0000
000000e0: 0000 0000 0000 0000 0000 0000 0000 0000
000000f0: 0000 0000 0000 0000 0000 0000 0000 0000
00000100: 0000 0000 0000 0000 0000 0000 0000 0000
00000110: 0000 0000 0000 0000 0000 0000 0000 0000
00000120: 0000 0000 0000 0000 0000 0000 0000 0000
00000130: 0000 0000 0000 0000 0000 0000 0000 0000
00000140: 0000 0000 0000 0000 0000 0000 0000 0000
00000150: 0000 0000 0000 0000 0000 0000 0000 0000
00000160: 0000 0000 0000 0000 0000 0000 0000 0000
00000170: 0000 0000 0000 0000 0000 0000 0000 0000
00000180: 0000 0000 0000 0000 0000 0000 0000 0000

t_bc_lb f4 [100, 1]
0.0 0.01010101 0.02020202 0.030303031 0.04040404 0.05050505 0.060606062 0.07070707
0.08080808 0.09090909 0.1010101 0.11111111 0.121212125 0.13131313 0.14141414 0.15151516
0.16161616 0.17171717 0.18181819 0.1919192 0.2020202 0.21212122 0.22222222 0.23232323
0.24242425 0.25252524 0.26262626 0.27272728 0.28282827 0.2929293 0.3030303 0.3131313
0.32323232 0.33333334 0.34343433 0.35353535 0.36363637 0.37373737 0.3838384 0.3939394
0.4040404 0.41414142 0.42424244 0.43434343 0.44444445 0.45454547 0.46464646 0.47474748
0.4848485 0.4949495 0.5050505 0.5151515 0.5252525 0.53535354 0.54545456 0.5555556
0.56565654 0.57575756 0.5858586 0.5959596 0.6060606 0.61616164 0.6262626 0.6363636
0.64646465 0.65656567 0.6666667 0.67676765 0.68686867 0.6969697 0.7070707 0.7171717
0.72727275 0.7373737 0.74747473 0.75757575 0.7676768 0.7777778 0.7878788 0.7979798
0.8080808 0.8181818 0.82828283 0.83838385 0.8484849 0.85858583 0.86868685 0.8787879
0.8888889 0.8989899 0.90909094 0.9191919 0.9292929 0.93939394 0.94949496 0.959596
0.969697 0.97979796 0.989899 1.0
00000000: 0000 0000 b57e 253c b57e a53c 103e f83c
00000010: b57e 253d 62de 4e3d 103e 783d dece 903d
00000020: b57e a53d 8c2e ba3d 62de ce3d 398e e33d
00000030: 103e f83d f376 063e dece 103e ca26 1b3e
00000040: b57e 253e a0d6 2f3e 8c2e 3a3e 7786 443e
00000050: 62de 4e3e 4e36 593e 398e 633e 24e6 6d3e
00000060: 103e 783e fd4a 813e f376 863e e9a2 8b3e
00000070: dece 903e d4fa 953e ca26 9b3e bf52 a03e
00000080: b57e a53e abaa aa3e a0d6 af3e 9602 b53e
00000090: 8c2e ba3e 815a bf3e 7786 c43e 6db2 c93e
000000a0: 62de ce3e 580a d43e 4e36 d93e 4362 de3e
000000b0: 398e e33e 2fba e83e 24e6 ed3e 1a12 f33e
000000c0: 103e f83e 056a fd3e fd4a 013f f8e0 033f
000000d0: f376 063f ee0c 093f e9a2 0b3f e438 0e3f
000000e0: dece 103f d964 133f d4fa 153f cf90 183f
000000f0: ca26 1b3f c5bc 1d3f bf52 203f bae8 223f
00000100: b57e 253f b014 283f abaa 2a3f a540 2d3f
00000110: a0d6 2f3f 9b6c 323f 9602 353f 9198 373f
00000120: 8c2e 3a3f 86c4 3c3f 815a 3f3f 7cf0 413f
00000130: 7786 443f 721c 473f 6db2 493f 6748 4c3f
00000140: 62de 4e3f 5d74 513f 580a 543f 53a0 563f
00000150: 4e36 593f 48cc 5b3f 4362 5e3f 3ef8 603f
00000160: 398e 633f 3424 663f 2fba 683f 2950 6b3f
00000170: 24e6 6d3f 1f7c 703f 1a12 733f 15a8 753f
00000180: 103e 783f 0ad4 7a3f 056a 7d3f 0000 803f

x_bc_ub f4 [100, 1]
6.2831855 6.2831855 6.2831855 6.2831855 6.2831855 6.2831855 6.2831855 6.2831855
6.2831855 6.2831855 6.2831855 6.2831855 6.2831855 6.2831855 6.2831855 6.2831855
6.2831855 6.2831855 6.2831855 6.2831855 6.2831855 6.2831855 6.2831855 6.2831855
6.2831855 6.2831855 6.2831855 6.2831855 6.2831855 6.2831855 6.2831855 6.2831855
6.2831855 6.2831855 6.2831855 6.2831855 6.2831855 6.2831855 6.2831855 6.2831855
6.2831855 6.2831855 6.2831855 6.2831855 6.2831855 6.2831855 6.2831855 6.2831855
6.2831855 6.2831855 6.2831855 6.2831855 6.2831855 6.2831855 6.2831855 6.2831855
6.2831855 6.2831855 6.2831855 6.2831855 6.2831855 6.2831855 6.2831855 6.2831855
6.2831855 6.2831855 6.2831855 6.2831855 6.2831855 6.2831855 6.2831855 6.2831855
6.2831855 6.2831855 6.2831855 6.2831855 6.2831855 6.2831855 6.2831855 6.2831855
6.2831855 6.2831855 6.2831855 6.2831855 6.2831855 6.2831855 6.2831855 6.2831855
6.2831855 6.2831855 6.2831855 6.2831855 6.2831855 6.2831855 6.2831855 6.2831855
6.2831855 6.2831855 6.2831855 6.2831855
00000000: db0f c940 db0f c940 db0f c940 db0f c940
00000010: db0f c940 db0f c940 db0f c940 db0f c940
00000020: db0f c940 db0f c940 db0f c940 db0f c940
00000030: db0f c940 db0f c940 db0f c940 db0f c940
00000040: db0f c940 db0f c940 db0f c940 db0f c940
00000050: db0f c940 db0f c940 db0f c940 db0f c940
00000060: db0f c940 db0f c940 db0f c940 db0f c940
00000070: db0f c940 db0f c940 db0f c940 db0f c940
00000080: db0f c940 db0f c940 db0f c940 db0f c940
00000090: db0f c940 db0f c940 db0f c940 db0f c940
000000a0: db0f c940 db0f c940 db0f c940 db0f c940
000000b0: db0f c940 db0f c940 db0f c940 db0f c940
000000c0: db0f c940 db0f c940 db0f c940 db0f c940
000000d0: db0f c940 db0f c940 db0f c940 db0f c940
000000e0: db0f c940 db0f c940 db0f c940 db0f c940
000000f0: db0f c940 db0f c940 db0f c940 db0f c940
00000100: db0f c940 db0f c940 db0f c940 db0f c940
00000110: db0f c940 db0f c940 db0f c940 db0f c940
00000120: db0f c940 db0f c940 db0f c940 db0f c940
00000130: db0f c940 db0f c940 db0f c940 db0f c940
00000140: db0f c940 db0f c940 db0f c940 db0f c940
00000150: db0f c940 db0f c940 db0f c940 db0f c940
00000160: db0f c940 db0f c940 db0f c940 db0f c940
00000170: db0f c940 db0f c940 db0f c940 db0f c940
00000180: db0f c940 db0f c940 db0f c940 db0f c940

t_bc_ub f4 [100, 1]
0.0 0.01010101 0.02020202 0.030303031 0.04040404 0.05050505 0.060606062 0.07070707
0.08080808 0.09090909 0.1010101 0.11111111 0.121212125 0.13131313 0.14141414 0.15151516
0.16161616 0.17171717 0.18181819 0.1919192 0.2020202 0.21212122 0.22222222 0.23232323
0.24242425 0.25252524 0.26262626 0.27272728 0.28282827 0.2929293 0.3030303 0.3131313
0.32323232 0.33333334 0.34343433 0.35353535 0.36363637 0.37373737 0.3838384 0.3939394
0.4040404 0.41414142 0.42424244 0.43434343 0.44444445 0.45454547 0.46464646 0.47474748
0.4848485 0.4949495 0.5050505 0.5151515 0.5252525 0.53535354 0.54545456 0.5555556
0.56565654 0.57575756 0.5858586 0.5959596 0.6060606 0.61616164 0.6262626 0.6363636
0.64646465 0.65656567 0.6666667 0.67676765 0.68686867 0.6969697 0.7070707 0.7171717
0.72727275 0.7373737 0.74747473 0.75757575 0.7676768 0.7777778 0.7878788 0.7979798
0.8080808 0.8181818 0.82828283 0.83838385 0.8484849 0.85858583 0.86868685 0.8787879
0.8888889 0.8989899 0.90909094 0.9191919 0.9292929 0.93939394 0.94949496 0.959596
0.969697 0.97979796 0.989899 1.0
00000000: 0000 0000 b57e 253c b57e a53c 103e f83c
00000010: b57e 253d 62de 4e3d 103e 783d dece 903d
00000020: b57e a53d 8c2e ba3d 62de ce3d 398e e33d
00000030: 103e f83d f376 063e dece 103e ca26 1b3e
00000040: b57e 253e a0d6 2f3e 8c2e 3a3e 7786 443e
00000050: 62de 4e3e 4e36 593e 398e 633e 24e6 6d3e
00000060: 103e 783e fd4a 813e f376 863e e9a2 8b3e
00000070: dece 903e d4fa 953e ca26 9b3e bf52 a03e
00000080: b57e a53e abaa aa3e a0d6 af3e 9602 b53e
00000090: 8c2e ba3e 815a bf3e 7786 c43e 6db2 c93e
000000a0: 62de ce3e 580a d43e 4e36 d93e 4362 de3e
000000b0: 398e e33e 2fba e83e 24e6 ed3e 1a12 f33e
000000c0: 103e f83e 056a fd3e fd4a 013f f8e0 033f
000000d0: f376 063f ee0c 093f e9a2 0b3f e438 0e3f
000000e0: dece 103f d964 133f d4fa 153f cf90 183f
000000f0: ca26 1b3f c5bc 1d3f bf52 203f bae8 223f
00000100: b57e 253f b014 283f abaa 2a3f a540 2d3f
00000110: a0d6 2f3f 9b6c 323f 9602 353f 9198 373f
00000120: 8c2e 3a3f 86c4 3c3f 815a 3f3f 7cf0 413f
00000130: 7786 443f 721c 473f 6db2 493f 6748 4c3f
00000140: 62de 4e3f 5d74 513f 580a 543f 53a0 563f
00000150: 4e36 593f 48cc 5b3f 4362 5e3f 3ef8 603f
00000160: 398e 633f 3424 663f 2fba 683f 2950 6b3f
00000170: 24e6 6d3f 1f7c 703f 1a12 733f 15a8 753f
00000180: 103e 783f 0ad4 7a3f 056a 7d3f 0000 803f

weight f4 [50, 2]
0.10343719 -0.06290216 0.015429203 0.09320632 0.4805922 -0.16696718 -0.03100311 0.1001204
-0.060706455 0.018594276 -0.17564625 0.12567756 0.068555705 0.10130411 -0.21003288 -0.24298999
0.13602152 0.027181933 0.120192096 -0.25874993 -0.42467886 0.038529675 0.35989863 -0.08493858
-0.26881513 -0.40152976 -0.053461738 0.07947718 0.07817023 0.12025011 -0.100556955 0.009224269
-0.124396764 -0.22323522 -0.31637025 0.10955251 0.023321886 0.19159661 -0.2911918 0.14590485
0.13720632 -0.09743386 0.0817692 -0.0938316 0.08928314 -0.023757255 -0.0023544093 -0.20010352
-0.026768202 0.0953416 0.38432765 -0.15496609 -0.11476684 0.24926467 -0.049633823 0.14285338
0.29909933 -0.036487542 0.0025985488 -0.07523286 -0.010429725 0.1844062 -0.2616932 0.04790906
0.1989184 0.036601108 -0.3212903 -0.19825517 0.042857118 -0.21890901 -0.385878 -0.1362218
-0.10753509 -0.20514081 0.120443486 0.020897973 -0.025793625 -0.011047871 -0.16854875 -0.036071073
-0.057014573 0.0026028275 0.10412867 0.08047786 0.13614555 -0.1803973 0.42775506 -0.023746604
0.117441855 0.26138422 -0.10689739 -0.50968385 0.0041177054 -0.2362172 0.16528401 -0.35062492
-0.17025141 -0.22887176 0.18502668 -0.14293157
00000000: e1d6 d33d d9d2 80bd c5ca 7c3c f5e2 be3d
00000010: 2e10 f63e 72f9 2abe 3cfa fdbc ed0b cd3d
00000020: 55a7 78bd 0653 983c 9cdc 33be 9eb1 003e
00000030: ef66 8c3d 8778 cf3d dc12 57be 5ed2 78be
00000040: 3a49 0b3e a5ac de3c 4627 f63d df7a 84be
00000050: 826f d9be 4bd1 1d3d a244 b83e 47f4 adbd
00000060: 23a2 89be 4f95 cdbe b2fa 5abd efc4 a23d
00000070: b717 a03d b145 f63d cef0 cdbd 6321 173c
00000080: bbc3 febd c697 64be 48fb a1be 115d e03d
00000090: 8a0d bf3c e731 443e 1717 95be 1568 153e
000000a0: d07f 0c3e 678b c7bd 9c76 a73d c82a c0bd
000000b0: 14da b63d 939e c2bc 6f4c 1abb f0e7 4cbe
000000c0: fd48 dbbc 7542 c33d 98c6 c43e 6eaf 1ebe
000000d0: e10a ebbd 3d3f 7f3e d64c 4bbd 2848 123e
000000e0: 8c23 993e f673 15bd 6a4c 2a3b b013 9abd
000000f0: 70e1 2abc fbd4 3c3e a7fc 85be 4a3c 443d
00000100: 44b1 4b3e 0beb 153d 2a80 a4be 6703 4bbe
00000110: f28a 2f3d af29 60be cd91 c5be ba7d 0bbe
00000120: 5b3b dcbd 6f10 52be 13ab f63d 3a32 ab3c
00000130: 274d d3bc 2102 35bc 0b98 2cbe 43bf 13bd
00000140: 1d88 69bd 3394 2a3b 6a41 d53d 94d1 a43d
00000150: bd69 0b3e 12ba 38be b602 db3e 3d88 c2bc
00000160: 5b85 f03d 27d4 853e 05ed dabd a47a 02bf
00000170: d1ed 863b ece2 71be 3640 293e 1c85 b3be
00000180: 6356 2ebe 5c5d 6abe a277 3d3e a75c 12be

bias f4 [50]
-0.00326603 -0.0004238668 -0.0034956213 0.0025242392 -0.0015337184 0.0011822686 -0.0023778293 -0.0035140696
0.0045797965 0.0034481701 -0.0019220106 0.0019772758 -0.0072244275 -0.0025852455 -0.0026718436 -0.0031747718
-0.0019811983 -0.0014052631 0.0023853227 -0.002777659 -0.0024596537 0.0028097627 -0.0013386598 -0.0029433533
-0.0021669585 0.002574432 -0.0013406423 -0.002050957 0.001251168 -0.0025634137 0.0021002053 0.0016169212
-0.0052390597 -0.0033559063 0.0019271211 -0.0039062048 0.0015495189 0.0011426772 -0.0023614266 -0.0022011444
0.0015671342 -0.0031536445 -0.0026006377 0.0030405426 -0.005653122 -0.0020610108 0.007518594 -0.001873074
-0.00020870015 0.002251603
00000000: e40a 56bb 703a deb9 cb16 65bb b56d 253b
00000010: 0d07 c9ba 5af6 9a3a 5bd5 1bbb 4e4c 66bb
00000020: 1e12 963b b2fa 613b f9eb fbba 2f95 013b
00000030: e4ba ecbb 396d 29bb 191a 2fbb d50f 50bb
00000040: fed6 01bb ce30 b8ba 1353 1c3b 6309 36bb
00000050: 2432 21bb ff23 383b f875 afba 46e5 40bb
00000060: 8803 0ebb cdb7 283b 7eb8 afba 5969 06bb
00000070: 3bfe a33a f2fe 27bb 99a3 093b dfee d33a
00000080: 6bac abbb c4ee 5bbb 7497 fc3a 3eff 7fbb
00000090: 3a19 cb3a e2c5 953a 2ac2 1abb 1341 10bb
000000a0: 4c68 cd3a 60ad 4ebb 766f 2abb d743 473b
000000b0: d33d b9bb 0612 07bb 8a5e f63b ef81 f5ba
000000c0: 85d6 5ab9 a18f 133b

weight f4 [50, 50]
0.16512445 -0.07238259 -0.35962558 0.109438695 -0.062155392 -0.04850221 -0.16137575 0.08306057
0.108228 0.103565 0.10921582 -0.25208768 -0.22327764 -0.10605876 0.22255759 -0.06697095
-0.2667264 -0.022456415 0.14656113 -0.18705525 0.038898896 0.063812435 0.15554532 0.15793066
0.28237683 0.04433882 0.31373027 0.024172662 0.20534478 -0.20260628 0.18545488 -0.06488665
-0.032719936 -0.22223796 0.14224553 0.036059376 0.20666178 0.013396134 -0.05221428 0.079462424
0.0398239 -0.22217524 -0.11180977 0.0056094965 -0.005258742 0.08929747 0.044776004 -0.15629438
0.07644415 -0.10541692 -0.13952877 -0.12813802 -0.08567777 -0.08698847 0.057725534 -0.032526202
0.0887827 -0.024525758 0.015116856 0.17624016 -0.1357198 -0.34424523 0.21911395 0.02631048
-0.10296612 0.13415985 0.008829345 0.23601817 -0.17860949 0.025167702 0.026466297 0.14073409
-0.18915614 0.17022099 0.15685864 0.030115025 -0.11775783 -0.02548216 -0.012757841 0.0968711
-0.0318865 -0.01202783 -0.0011062782 -0.25858092 -0.20717919 -0.14143057 -0.10390781 -0.13889828
-0.2916651 -0.11694156 0.051210433 -0.028951798 -0.2436398 -0.0733363 -0.08217019 -0.11768897
0.20307246 -0.23610593 0.106985904 0.22479361 -0.107845396 0.044042867 -0.078922555 0.04901544
0.009354974 0.066030875 -0.014443295 0.21802379 -0.08776308 0.038226433 -0.25283012 -0.07912919
0.121688284 -0.041899536 0.06950484 0.060125526 -0.11786723 0.11044413 0.17067084 0.047161967
0.08443057 -0.020451436 0.014719725 -0.059552323 0.028071748 -0.025397582 -0.14122117 0.19139366
0.27318543 -0.047985643 0.03444471 -0.16910057 0.039915342 0.05982311 0.04550752 0.10074765
0.10735672 -0.023535969 0.018934067 0.20844941 -0.09489098 0.047991335 -0.076125726 -0.006491853
0.07651423 0.15138383 0.033790354 -0.34715992 0.033397604 0.14927192 -0.21796507 0.001280295
0.12958233 -0.029678946 -0.0014533689 0.116717614 0.30510905 0.024726471 -0.122712955 0.050264318
-0.11656687 -0.007228143 0.11337106 -0.012641013 0.007433976 0.10489631 0.028655013 -0.022967739
-0.1370113 0.11972415 -0.1724723 0.18423745 -0.008511108 0.23134181 0.25450283 -0.06461725
0.049580485 0.10801448 0.118777625 0.1872103 -0.043058727 0.07884918 -0.16528662 -0.19950882
-0.19386585 -0.030337358 -0.26224917 -0.008108906 0.22479951 0.048157416 -0.106306165 0.013406442
-0.13871115 0.055640154 0.15855646 -0.1736989 -0.04472783 0.101797745 -0.12172183 0.14718676
0.051849805 -0.031292982 0.04903311 0.0135285035 0.25018388 -0.21218933 0.1472193 0.23217653
-0.022805186 -0.14693923 0.25484082 -0.22650993 0.0040044114 -0.087489575 0.030062541 -0.05591455
-0.14721335 0.07029415 -0.068565175 -0.086046025 -0.041013535 0.08256852 -0.10303254 -0.16181394
0.11888876 0.040965308 -0.11435854 0.13645266 -0.021513993 0.12694487 -0.029044526 -0.19945501
-0.11803466 0.15467668 -0.19463184 0.11699744 -0.0898881 0.028015692 0.079131186 0.004364435
-0.107878044 -0.24350347 -0.039998703 0.12864827 -0.17684358 0.10693454 0.024208732 0.09778112
0.09928845 0.015673917 -0.10877745 -0.14839575 -0.1325501 0.16616482 -0.0026003176 -0.035215866
00000000: 6216 293e 533d 94bd d820 b8be 6521 e03d
00000010: a796 7ebd 41aa 46bd af3f 25be a91b aa3d
00000020: a4a6 dd3d e319 d43d 8bac df3d a311 81be
00000030: e5a2 64be 5635 d9bd 23e6 633e 1128 89bd
00000040: 5d90 88be 84f6 b7bc 1f14 163e 698b 3fbe
00000050: 7354 1f3d 18b0 823d 4647 1f3e 93b8 213e
00000060: b293 903e 9f9c 353d 41a1 a03e bf05 c63c
00000070: e745 523e 0578 4fbe e2e7 3d3e 4be3 84bd
00000080: 5705 06bd 5992 63be d0a8 113e ffb2 133d
00000090: 259f 533e 757b 5b3c a4de 55bd 32bd a23d
000000a0: 631e 233d e881 63be 85fc e4bd decf b73b
000000b0: 8651 acbb 98e1 b63d 0b67 373d a20b 20be
000000c0: c08e 9c3d d3e4 d7bd a1e0 0ebe 9d36 03be
000000d0: d477 afbd 0327 b2bd 9c71 6c3d 323a 05bd
000000e0: b4d3 b53d 3eea c8bc b1ac 773c 4d78 343e
000000f0: 22fa 0abe e940 b0be 685f 603e 1389 d73c
00000100: e7df d2bd 3361 093e f5a8 103c bfae 713e
00000110: 68e5 36be 7f2c ce3c d9cf d83c 991c 103e
00000120: 26b2 41be 694e 2e3e 8d9f 203e c9b3 f63c
00000130: 042b f1bd f6bf d0bc 4306 51bc 5b64 c63d
00000140: 6b9b 02bd 6010 45bc 8900 91ba b864 84be
00000150: c826 54be 2dd3 10be 9ecd d4bd 5a3b 0ebe
00000160: 2155 95be 0e7f efbd 08c2 513d 522c edbc
00000170: b67c 79be 5831 96bd d848 a8bd ea06 f1bd
00000180: 3af2 4f3e c1c5 71be 6d1b db3d 4c30 663e
00000190: 0cde dcbd 4b66 343d 26a2 a1bd 6ac4 483d
000001a0: 9b45 193c 323b 873d 92a3 6cbc a141 5f3e
000001b0: 21bd b3bd 5293 1c3d f372 81be 7c0e a2bd
000001c0: b537 f93d d99e 2bbd 8e58 8e3d 2f46 763d
000001d0: 6064 f1bd 8830 e23d 56c4 2e3e e82c 413d
000001e0: efe9 ac3d c589 a7bc 002b 713c 23ed 73bd
000001f0: b9f6 e53c 970e d0bc 489c 10be b3fc 433e
00000200: f6de 8b3e 988c 44bd e515 0d3d b328 2dbe
00000210: 457e 233d 1409 753d 1866 3a3d c954 ce3d
00000220: d7dd db3d 81ce c0bc 9e1b 9b3c c373 553e
00000230: 3456 c2bd 9092 443d cee7 9bbd 9cb9 d4bb
00000240: 7eb3 9c3d 5d04 1b3e c167 0a3d f2be b1be
00000250: edcb 083d bdda 183e 3c32 5fbe 92cf a73a
00000260: 3bb1 043e 4321 f3bc f87e beba a509 ef3d
00000270: 4137 9c3e 2b8f ca3c ee50 fbbd f5e1 4d3d
00000280: 9cba eebd 0fda ecbb 162f e83d 401c 4fbc
00000290: b698 f33b e0d3 d63d ebbd ea3c d726 bcbc
000002a0: b14c 0cbe ef31 f53d 949c 30be bea8 3c3e
000002b0: 2d72 0bbc dee4 6c3e 324e 823e 0c56 84bd
000002c0: e814 4b3d b236 dd3d af41 f33d 0fb4 3f3e
000002d0: 595e 30bd ae7b a13d e540 29be 0a4c 4cbe
000002e0: c584 46be 0d86 f8bc 8645 86be 38db 04bc
000002f0: d831 663e b640 453d 0cb7 d9bd b1a6 5b3c
00000300: 4c0a 0ebe eee6 633d a05c 223e 20de 31be
00000310: 8734 37bd 567b d03d 4b49 f9bd 20b8 163e
00000320: 7660 543d 122d 00bd f1d6 483d a8a6 5d3c
00000330: 1a18 803e 2948 59be a8c0 163e afbf 6d3e
00000340: f1d1 babc 3d77 16be 7f7a 823e 38f2 67be
00000350: 7037 833b bc2d b3bd b845 f63c a806 65bd
00000360: 19bf 16be 61f6 8f3d e66b 8cbd e638 b0bd
00000370: cffd 27bd af19 a93d b902 d3bd 8eb2 25be
00000380: f37b f33d 3dcb 273d cf34 eabd 3fba 0b3e
00000390: 1d3e b0bc d6fd 013e c9ee edbc ef3d 4cbe
000003a0: 28bc f1bd 9063 1e3e 924d 47be 5b9c ef3d
000003b0: 4117 b8bd 2a81 e53c 880f a23d 8903 8f3b
000003c0: 2aef dcbd f958 79be aed5 23bd 5fbc 033e
000003d0: 7c16 35be 7f00 db3d 6451 c63c 7841 c83d
000003e0: be57 cb3d 9666 803c b6c6 debd 0ef5 17be
000003f0: 37bb 07be 1c27 2a3e 176a 2abb 833e 10bd

bias f4 [50]
-0.0022660745 -0.0026891748 0.00045900937 -0.0020297929 -0.0011872664 -0.002133332 0.001905294 -0.0021453414
0.0017901638 -0.0033528202 0.0024683464 -0.0018781135 -0.0019749703 -0.0022937078 -0.0030225136 0.0028689418
-0.0024579058 -0.0021885103 -0.002182454 0.003344175 -0.0012933197 0.0021728862 -0.008297204 -0.0034340653
0.002808473 -0.00040298657 0.0014374963 0.0012185421 -0.0020925654 -0.003401642 0.0030287472 0.0010871615
0.0026643956 -0.0027835355 0.0023017547 0.0019071396 0.010557831 0.0026942715 -0.0015117896 0.0027574322
0.010610259 -0.0015063301 -0.0022849843 -0.0022095114 0.0025360854 0.003398989 0.0023202715 0.0018446199
0.003649431 0.00048239145
00000000: 6c82 14bb de3c 30bb 32a7 f039 4606 05bb
00000010: 0d9e 9bba 5fcf 0bbb 0fbb f93a db98 0cbb
00000020: eea3 ea3a fdba 5bbb fbc3 213b 082b f6ba
00000030: 816e 01bb 0852 16bb 5d15 46bb db04 3c3b
00000040: d114 21bb 1c6d 0fbb 8107 0fbb f229 5b3b
00000050: 9c84 a9ba fb66 0e3b fff0 07bc 0e0e 61bb
00000060: 5c0e 383b f147 d3b9 5f6a bc3a 7db7 9f3a
00000070: 6c23 09bb 15ee 5ebb f27d 463b 167f 8e3a
00000080: 249d 2e3b fa6b 36bb 09d9 163b fcf8 f93a
00000090: c1fa 2c3c 6092 303b 3e27 c6ba 09b6 343b
000000a0: a7d6 2d3c 0d70 c5ba adbf 15bb 73cd 10bb
000000b0: 7434 263b 93c1 5e3b b20f 183b 2cc7 f13a
000000c0: 4b2b 6f3b 7ce9 fc39

weight f4 [50, 50]
-0.3415128 0.09688661 -0.107812755 -0.07768282 -0.09623914 0.3014187 0.12251403 0.04450617
-0.14614002 -0.23458043 0.32099524 -0.24181317 -0.0038383596 0.22674379 -0.09195766 0.35470042
-0.08893672 -0.27642763 0.020990437 0.16415355 0.1078394 -0.09575189 0.028385589 -0.05394904
0.017283808 0.1378157 -0.029082607 -0.11717994 0.29156196 0.105811365 0.016089411 -0.045648094
0.2669956 -0.08185098 -0.10468774 -0.08577931 -0.037394512 0.09956544 0.1604757 0.28821012
0.11658955 0.091778755 0.121257715 -0.13229306 0.031787306 0.41275847 -0.098132595 -0.23891833
-0.3611585 0.068995714 -0.23571686 -0.013068953 -0.12311903 0.061143383 0.007983125 0.10037925
-0.3238129 0.24136692 0.13307735 0.0829044 0.13025045 0.1136812 0.15197934 0.14211932
-0.068625376 0.12107151 0.040571313 -0.0052461107 0.13650317 0.058593806 0.26658762 -0.17398486
0.037937693 -0.10758461 0.03868166 -0.03377786 -0.23578463 -0.042494163 0.061550263 -0.02804578
-0.14186007 0.0135311065 -0.059092414 0.11398229 0.1860308 -0.080819905 0.07744617 -0.029688448
-0.06514616 -0.07619394 -0.26122117 -0.08844198 0.19574472 -0.06468536 -0.09037596 0.2183345
0.034167696 -0.27598757 -0.030981563 0.06876453 0.052017592 0.16799524 -0.05226853 0.048021473
-0.08542856 -0.34457186 -0.028039468 0.0050893496 0.015709665 0.1050755 0.18991749 0.01695235
0.20789883 0.054571494 0.120830014 0.14876547 0.027876573 0.09986518 0.046082728 0.110105366
0.11140253 0.14381985 -0.0029227908 0.28457326 -0.18083642 -0.15271345 -0.088668354 -0.069650054
-0.24749154 0.1083398 -0.16075101 0.08553936 0.021958703 -0.13571547 -0.13376513 -0.021492027
0.21388607 -0.21698606 -0.024863966 -0.114414476 -0.02237527 -0.20004971 0.035276793 -0.18718855
-0.0014568846 -0.21427915 0.29560176 -0.18193686 0.14848569 -0.15109965 -0.304941 0.19368371
0.09650121 0.16841668 0.018154548 0.017417492 0.029067082 -0.12727751 -0.13402663 -0.040260598
-0.049148556 -0.12741116 0.13717575 -0.11447006 -0.078671925 0.101445824 0.04729488 0.15759298
-0.12160912 -0.09066457 -0.09562527 0.04779134 -0.10054215 0.06360882 -0.11000722 -0.09011933
0.093546525 -0.080950275 -0.021768872 -0.0034714665 0.03821914 -0.2529915 0.062113874 0.28676277
-0.19731988 0.045025997 -0.16037567 0.05720436 0.027960509 0.1434842 0.2183299 -0.05903969
-0.04175694 -0.34076172 0.06384559 -0.19103427 0.17601292 -0.019608803 -0.03345087 -0.20732015
0.04046765 -0.14511691 -0.13436669 -0.023061415 -0.28170243 0.10748559 -0.10349929 -0.06717972
0.020900702 0.10812454 -0.16120459 -0.084405296 -0.2028998 0.10131947 0.07175647 -0.028379878
0.065950036 -0.110072225 0.14225122 0.039000634 0.24969363 0.0034280065 -0.23193814 0.17417347
0.18588243 -0.083700545 -0.2400268 0.20769298 0.20547417 0.049213298 0.09152046 0.042129193
-0.17312416 -0.22146389 -0.016167874 0.059039954 0.0525044 0.02912992 -0.13345908 -0.113980375
-0.045536 -0.016400075 -0.15710089 -0.13024041 0.024760531 0.08004207 0.15820551 -0.21048176
0.0038240864 0.040919777 0.27071702 0.17555967 0.08330451 0.13709463 -0.20622355 -0.12174909
00000000: c4da aebe 7d6c c63d efcc dcbd 2c18 9fbd
00000010: 0719 c5bd 8d53 9a3e a3e8 fa3d 1a4c 363d
00000020: bba5 15be da35 70be 7d59 a43e df9d 77be
00000030: fd8c 7bbb 862f 683e 4c54 bcbd 4b9b b53e
00000040: 7424 b6bd ec87 8dbe 23f4 ab3c de17 283e
00000050: e7da dc3d 9119 c4bd e588 e83c abf9 5cbd
00000060: c696 8d3c 8f1f 0d3e a63e eebc 09fc efbd
00000070: 9c47 953e a1b3 d83d f1cd 833c 7ff9 3abd
00000080: a6b3 883e 7da1 a7bd 8766 d6bd 10ad afbd
00000090: fd2a 19bd f7e8 cb3d be53 243e 4790 933e
000000a0: 81c6 ee3d 80f6 bb3d f755 f83d d577 07be
000000b0: 6833 023d 1455 d33e bef9 c8bd 02a7 74be
000000c0: c4e9 b8be a04d 8d3d c35f 71be 291f 56bc
000000d0: d425 fcbd 7c71 7a3d a7cb 023c a393 cd3d
000000e0: ceca a5be e428 773e 6e45 083e c8c9 a93d
000000f0: 6060 053e b0d1 e83d 79a0 1b3e ba87 113e
00000100: 768b 8cbd 57f4 f73d 1b2e 263d 91e7 abbb
00000110: 7dc7 0b3e 0f00 703d 2c7e 883e 1629 32be
00000120: 8e64 1b3d 5255 dcbd a970 1e3d a75a 0abd
00000130: 8771 71be 5c0e 2ebd 211c 7c3d 43c0 e5bc
00000140: c443 11be 93b1 5d3c e30a 72bd 8c6f e93d
00000150: dc7e 3e3e e884 a5bd 199c 9e3d 3035 f3bc
00000160: 5a6b 85bd 920b 9cbd c8be 85be 1221 b5bd
00000170: 4e71 483e c279 84bd 0817 b9bd 1493 5f3e
00000180: 6df3 0b3d 3e4e 8dbe 0ccd fdbc 6bd4 8c3d
00000190: 6610 553d f206 2c3e 8717 56bd 2ab2 443d
000001a0: 2bf5 aebd b96b b0be 07b3 e5bc 8fc4 a63b
000001b0: 8eb1 803c d331 d73d bb79 423e a8df 8a3c
000001c0: 6ee3 543e 5c86 5f3d ba75 f73d fa55 183e
000001d0: 695d e43c 1e86 cc3d 3ec1 3c3d ec7e e13d
000001e0: 0227 e43d 8345 133e 4b8c 3fbb 96b3 913e
000001f0: 2f2d 39be ea60 1cbe c197 b5bd b0a4 8ebd
00000200: 6c6e 7dbe 42e1 dd3d ea9b 24be 432f af3d
00000210: bde2 b33c fff8 0abe baf9 08be 0c10 b0bc
00000220: f304 5b3e 9831 5ebe 84af cbbc 2352 eabd
00000230: 584c b7bc d5d9 4cbe 667e 103d 5bae 3fbe
00000240: eff4 beba fe6b 5bbe 1d59 973e a84d 3abe
00000250: a20c 183e deb9 1abe 3a21 9cbe 0655 463e
00000260: 6da2 c53d 6c75 2c3e d9b8 943c 21af 8e3c
00000270: 171e ee3c 0955 02be 473e 09be 4ce8 24bd
00000280: ff4f 49bd 1278 02be cd77 0c3e 476f eabd
00000290: bf1e a1bd d4c2 cf3d 47b8 413d 0e60 213e
000002a0: 340e f9bd 59ae b9bd 2ed7 c3bd dac0 433d
000002b0: 0be9 cdbd 5745 823d 774b e1bd 7c90 b8bd
000002c0: 5295 bf3d 42c9 a5bd a254 b2bc 8b81 63bb
000002d0: ac8b 1c3d 1a88 81be 1e6b 7e3d 92d2 923e
000002e0: 390e 4abe 2e6d 383d 8539 24be 1e4f 6a3d
000002f0: 700d e53c 86ed 123e e091 5f3e 9ad3 71bd
00000300: 5309 2bbd 5278 aebe 7ac1 823d 7d9e 43be
00000310: bb3c 343e a4a2 a0bc c803 09bd bc4b 54be
00000320: 68c1 253d 8799 14be 6c97 09be 4beb bcbc
00000330: 4d3b 90be 6821 dc3d 70f7 d3bd 8595 89bd
00000340: f337 ab3c 6670 dd3d d112 25be afdc acbd
00000350: f7c4 4fbe 9580 cf3d 0ef5 923d eb7c e8bc
00000360: d010 873d 8c6d e1bd 4eaa 113e 21bf 1f3d
00000370: b0af 7f3e 68a8 603b 3181 6dbe 885a 323e
00000380: f757 3e3e 316b abbd 96c9 75be 78ad 543e
00000390: d267 523e e293 493d 146f bb3d a98f 2c3d
000003a0: 7647 31be 6ec7 62be 7d72 84bc e1d3 713d
000003b0: db0e 573d dfa1 ee3c 7fa9 08be 8b6e e9bd
000003c0: f583 3abd 7359 86bc 0edf 20be be5d 05be
000003d0: 99d6 ca3c 19ed a33d a000 223e 8888 57be
000003e0: 869d 7a3b 7f9b 273d 6c9b 8a3e eac5 333e
000003f0: 8e9b aa3d 8962 0c3e 442c 53be 9657 f9bd

bias f4 [50]
0.004203148 -0.0016377372 -0.003759681 0.002846536 -0.0025664314 -0.0015429839 -0.0020965084 0.00023730462
0.003641436 -0.00214714 0.0030727412 -0.0022495205 0.0030781785 0.002750212 0.0013337398 -0.0021000116
0.0017266968 -0.0011289791 -0.0026235345 0.0021815035 0.0033539375 0.004122901 -0.0032834003 -0.006408452
0.0024501986 0.0022535159 0.0021271466 0.0026218505 -0.0034606948 0.0019864019 -0.0029790883 0.0034387447
0.0018957903 0.002311683 -0.0024560874 0.00057472195 0.0027561109 -0.002150617 -0.0021332859 0.0018481958
0.0002876312 -0.0018713026 -0.0017399504 0.0006538012 0.0023633016 -0.0021222131 0.002642546 -0.0024062337
-0.0025906765 0.0020631084
00000000: 90ba 893b 57a9 d6ba fb64 76bb f38c 3a3b
00000010: 9331 28bb f33d caba 9365 09bb f9d4 7839
00000020: 29a5 6e3b 08b7 0cbb 0b60 493b b16c 13bb
00000030: 44bb 493b e73c 343b e2d0 ae3a 59a0 09bb
00000040: 5552 e23a 41fa 93ba 9bef 2bbb 8ef7 0e3b
00000050: bccd 5b3b 6619 873b 512e 57bb fefd d1bb
00000060: 8393 203b b9af 133b 9967 0b3b 5ad3 2b3b
00000070: d3cc 62bb 4b2e 023b cf3c 43bb 905c 613b
00000080: 2b7c f83a 9b7f 173b 4ff6 20bb f0a8 163a
00000090: de9f 343b 5ef1 0cbb 99ce 0bbb 293f f23a
000000a0: 35cd 9639 7f46 f5ba 0c0f e4ba db63 2b3a
000000b0: 9fe1 1a3b d414 0bbb 912e 2d3b e7b1 1dbb
000000c0: 57c8 29bb 3735 073b

weight f4 [50, 50]
-0.10802719 0.014381355 -0.23671156 0.094029486 -0.07778462 -0.049284957 0.0035033145 -0.12506704
-0.04099551 -0.07942274 -0.015383139 0.007791379 0.051145133 -0.13684914 0.009048442 0.052330263
-0.28244108 0.07301886 0.1590129 -0.042522956 -0.105540745 0.02991457 0.1893488 -0.313953
0.119889 0.25687388 -0.005841841 0.09812973 0.07181545 0.051876474 -0.13321829 -0.18274947
-0.00787068 0.061710104 0.12123252 0.03642993 0.37955317 -0.15404291 0.08169649 0.019766571
-0.01290374 0.36750895 -0.23223875 0.20727247 -0.24861534 0.11615462 -0.07273619 0.118485324
0.03912399 -0.009701833 0.06758619 -0.14517903 -0.017251598 -0.042156223 -0.08723223 -0.20607129
0.19776294 0.27198184 0.18399043 -0.037911594 0.08857388 -0.077854864 0.20391947 0.2357691
-0.33193845 -0.012664184 -0.03767558 0.18489161 0.06498466 -0.13035092 -0.0017842075 -0.059216674
-0.099593624 -0.09962549 0.041534 0.019170966 0.036532152 0.025252173 -0.06829419 0.05202053
-0.09304106 0.09605818 0.26010764 0.023644472 0.03303979 -0.10496167 -0.0777476 -0.08111959
-0.2023162 0.16501789 -0.20154208 -0.2263877 0.17797066 -0.026443804 -0.13880254 -0.2991813
0.14548208 -0.009840647 0.16371672 -0.14417039 0.10454167 0.19720411 -0.15935297 -0.12061105
0.04778477 0.15956886 0.1964608 0.087301314 0.04075099 0.21091807 -0.22983387 0.019296719
0.07719671 0.014124712 0.0037951209 -0.13105033 0.019442817 -0.14492233 0.015039901 0.020521266
0.12947416 -0.18145551 -0.20132902 -0.25543663 -0.15306662 0.075319365 0.034416534 -0.019310042
-0.08608875 -0.008302729 0.04982909 -0.24692366 -0.044695623 0.054044496 0.23086274 0.09899327
-0.10374728 0.14226493 0.07566604 -0.11407271 -0.2845905 0.098691344 -0.2229221 -0.24040604
0.1485534 -0.004305334 -0.068674386 0.20417725 0.045756508 -0.074776374 -0.035156846 0.07736643
-0.0869596 -0.015446531 -0.011258741 -0.191502 0.1755027 0.13121298 -0.08139634 0.07742583
-0.25707877 0.25466874 -0.1814917 0.016512707 -0.21524675 0.11779675 0.05184352 -0.02842269
0.21000485 -0.035816807 0.06238253 0.06680808 0.18942672 0.02538499 -0.14361194 -0.31094575
-0.17041992 -0.051673584 0.086118154 -0.2356902 -0.19111608 -0.04359654 -0.21207952 -0.11037344
0.07000032 -0.006951283 -0.18786372 -0.06792111 0.25747457 -0.106126875 -0.042141225 0.20308642
0.13976777 -0.026000047 -0.11975171 0.12860271 -0.26281458 0.35823944 0.23544599 0.20798306
0.07048136 0.25067297 0.44015 -0.0007766179 -0.14530167 0.18554385 0.08424662 0.09372393
-0.03020077 -0.022022005 0.054641955 0.3030739 -0.114508025 0.27680424 -0.089706324 -0.040554546
0.06938114 0.09508162 0.09027892 0.056634165 -0.014616263 0.22863412 0.10372108 0.052926596
0.09450683 0.15832223 -0.008762661 -0.11501352 -0.27704212 0.1971993 0.16221446 0.15825126
-0.042462077 -0.022919195 0.071339406 -0.064088844 0.1929695 0.30529106 -0.05841542 -0.120995395
0.15696412 -0.1063886 0.07747479 -0.11083135 0.22117434 0.2027918 0.0877127 -0.08780951
-0.06369056 -0.29098588 0.18410358 -0.24595468 -0.0033131817 -0.12810312 -0.19158244 0.2159984
00000000: 5c3d ddbd c69f 6b3c 8464 72be 8892 c03d
00000010: 8b4d 9fbd 06df 49bd dd97 653b 9311 00be
00000020: e8ea 27bd 64a8 a2bd 9009 7cbc d34e ff3b
00000030: 8f7d 513d 2e22 0cbe eb3f 143c 4258 563d
00000040: 1e9c 90be e98a 953d 47d4 223e 8d2c 2ebd
00000050: bf25 d8bd 660f f53c a7e4 413e 73be a0be
00000060: 5d88 f53d f984 833e ea6c bfbb 3df8 c83d
00000070: fb13 933d 6d7c 543d 606a 08be ad22 3bbe
00000080: 06f4 00bc bcc3 7c3d c148 f83d 8d37 153d
00000090: cb54 c23e 6dbd 1dbe 7d50 a73d 81ed a13c
000000a0: 356a 53bc 222a bc3e ffcf 6dbe 3c3f 543e
000000b0: 0595 7ebe 79e2 ed3d b6f6 94bd 6fa8 f23d
000000c0: 7a40 203d 70f4 1ebc a16a 8a3d d0a9 14be
000000d0: 3953 8dbc 01ac 2cbd d0a6 b2bd 5a04 53be
000000e0: 5e82 4a3e 3441 8b3e fd67 3c3e 3049 1bbd
000000f0: 3966 b53d 5f72 9fbd 44d0 503e 746d 713e
00000100: d6f3 a9be 707d 4fbc b551 1abd 3a54 3d3e
00000110: ad16 853d b67a 05be 12dc e9ba 2f8d 72bd
00000120: bef7 cbbd 7308 ccbd 8e1f 2a3d 6e0c 9d3c
00000130: bda2 153d a5dd ce3c d3dd 8bbd 7b13 553d
00000140: 508c bebd 27ba c43d d42c 853e 0db2 c13c
00000150: bb54 073d 25f6 d6bd 223a 9fbd 0722 a6bd
00000160: fa2b 4fbe 73fa 283e 0c61 4ebe 2dd2 67be
00000170: f13d 363e ada0 d8bc 4122 0ebe 4b2e 99be
00000180: 41f9 143e aa3a 21bc 5ba5 273e 67a1 13be
00000190: f119 d63d e0ef 493e 6d2d 23be ed02 f7bd
000001a0: f7b9 433d 0566 233e 052d 493e 08cb b23d
000001b0: 83ea 263d e8fa 573e 9259 6bbe 2714 9e3c
000001c0: 4f19 9e3d 566b 673c 90b7 783b 0f32 06be
000001d0: 8b46 9f3c 8566 14be eb69 763c 371c a83c
000001e0: e094 043e 79cf 39be 3229 4ebe 97c8 82be
000001f0: 7fbd 1cbe 0a41 9a3d 5af8 0c3d 1830 9ebc
00000200: 4c4f b0bd 2b08 08bc 9619 4c3d 8ed9 7cbe
00000210: c212 37bd c35d 5d3d 4867 6c3e fcbc ca3d
00000220: 7479 d4bd e6ad 113e ccf6 9a3d f49e e9bd
00000230: d9b5 91be b01e ca3d b145 64be 002d 76be
00000240: 621e 183e c213 8dbb 28a5 8cbd d713 513e
00000250: 2d6b 3b3d 5b24 99bd a000 10bd 4a72 9e3d
00000260: e017 b2bd 7213 7dbc 9576 38bc 1a19 44be
00000270: fbb6 333e b25c 063e 20b3 a6bd 6f91 9e3d
00000280: d49f 83be f163 823e f6d8 39be a845 873c
00000290: a569 5cbe 6c3f f13d df59 543d b4d6 e8bc
000002a0: 830b 573e a5b4 12bd d384 7f3d add2 883d
000002b0: 14f9 413e 2ff4 cf3c 020f 13be 4834 9fbe
000002c0: 8f82 2ebe aea7 53bd b75e b03d c658 71be
000002d0: efb3 43be 4992 32bd 602b 59be 780b e2bd
000002e0: 545c 8f3d 97c7 e3bb 595f 40be 391a 8bbd
000002f0: b5d3 833e 0c59 d9bd 479c 2cbd e3f5 4f3e
00000300: 481f 0f3e 0dfe d4bc 6240 f5bd 6eb0 033e
00000310: a28f 86be 296b b73e c118 713e 83f9 543e
00000320: 8858 903d 3558 803e 575b e13e f295 4bba
00000330: f6c9 14be 35ff 3d3e 7e89 ac3d 55f2 bf3d
00000340: 9b67 f7bc 7e67 b4bc 3ed0 5f3d 812c 9b3e
00000350: 2f83 eabd 49b9 8d3e f3b7 b7bd 861c 26bd
00000360: b317 8e3d 27ba c23d 28e4 b83d 3af9 673d
00000370: 0d79 6fbc 101f 6a3e b86b d43d 8fc9 583d
00000380: cc8c c13d 391f 223e 4491 0fbc 358c ebbd
00000390: 77d8 8dbe 9dee 493e 8c1b 263e 9e0c 223e
000003a0: b7ec 2dbd 09c1 bbbc 651a 923d 0341 83bd
000003b0: cc99 453e 1c4f 9c3e 0245 6fbd 6fcc f7bd
000003c0: 34bb 203e 44e2 d9bd 1aab 9e3d 8cfb e2bd
000003d0: 877b 623e a7a8 4f3e b7a2 b33d 79d5 b3bd
000003e0: 3270 82bd 1afc 94be a685 3c3e 8bdb 7bbe
000003f0: f721 59bb 772d 03be 302e 44be af2e 5d3e

bias f4 [50]
-0.015953718 -0.00875409 0.0071052853 -0.002355476 -0.01169311 -6.509364e-05 -0.011662763 -0.0027328965
-0.02469874 -0.017424596 0.0025448408 0.0036696747 -0.0024940534 0.001878389 -0.0035842874 -0.002620267
-0.00031171596 -0.00048437133 0.021440387 -0.004589098 -0.00072629837 -0.0016362199 0.0015877867 -0.005113399
0.0015383364 0.004707563 0.015687991 -0.0034144544 -0.019762477 -0.002680063 -0.0024837216 0.0061197574
0.010481472 0.004210557 0.0037964596 -0.0010336053 0.000718669 -0.0016711325 -0.0032204606 0.0055895206
-0.0012621303 0.001805952 0.00022269797 0.014215084 -0.0024587985 0.00011005538 -0.002416649 0.002428932
0.0018132506 0.0059742164
00000000: 5fb1 82bc 516d 0fbc 74d3 e83b 545e 1abb
00000010: 7594 3fbc e282 88b8 2c15 3fbc 651a 33bb
00000020: 0355 cabc 07be 8ebc 58c7 263b ed7e 703b
00000030: 4673 23bb 4734 f63a 5de6 6abb c9b8 2bbb
00000040: cf6d a3b9 38f3 fdb9 c0a3 af3c 2560 96bb
00000050: 0f65 3eba 6e76 d6ba 481d d03a 4d8e a7bb
00000060: 01a2 c93a e741 9a3b 1a84 803c 0ac5 5fbb
00000070: ebe4 a1bc ffa3 2fbb efc5 22bb 3f88 c83b
00000080: 7bba 2b3c b6f8 893b 06ce 783b 0a7a 87ba
00000090: 0f65 3c3a e709 dbba 5d0e 53bb 4c28 b73b
000000a0: 116e a5ba b2b5 ec3a 0884 6939 62e6 683c
000000b0: cb23 21bb 88cd e638 a460 1ebb b82e 1f3b
000000c0: 98aa ed3a 5cc3 c33b
