pbc_examples/saved_models/convection_beta-40.0_layers-50,50,50,50,1_L-2.0_WD-0_init-normal_seed0.pt (torch, 114029 bytes, 36 tensors)

x_u f4 [256, 1]
0	0x00000000	0.0
1	0x3cc90fdb	0.024543693
2	0x3d490fdb	0.049087387
3	0x3d96cbe4	0.07363108
4	0x3dc90fdb	0.09817477
5	0x3dfb53d1	0.12271846
6	0x3e16cbe4	0.14726216
7	0x3e2feddf	0.17180584
8	0x3e490fdb	0.19634955
9	0x3e6231d6	0.22089323
10	0x3e7b53d1	0.24543692
11	0x3e8a3ae6	0.2699806
12	0x3e96cbe4	0.2945243
13	0x3ea35ce2	0.319068
14	0x3eafeddf	0.3436117
15	0x3ebc7edd	0.3681554
16	0x3ec90fdb	0.3926991
17	0x3ed5a0d8	0.41724277
18	0x3ee231d6	0.44178647
19	0x3eeec2d4	0.46633017
20	0x3efb53d1	0.49087384
21	0x3f03f267	0.5154175
22	0x3f0a3ae6	0.5399612
23	0x3f108365	0.5645049
24	0x3f16cbe4	0.5890486
25	0x3f1d1463	0.6135923
26	0x3f235ce2	0.638136
27	0x3f29a560	0.6626797
28	0x3f2feddf	0.6872234
29	0x3f36365e	0.7117671
30	0x3f3c7edd	0.7363108
31	0x3f42c75c	0.7608545
32	0x3f490fdb	0.7853982
33	0x3f4f5859	0.8099418
34	0x3f55a0d8	0.83448553
35	0x3f5be957	0.85902923
36	0x3f6231d6	0.88357294
37	0x3f687a55	0.90811664
38	0x3f6ec2d4	0.93266034
39	0x3f750b52	0.957204
40	0x3f7b53d1	0.9817477
41	0x3f80ce28	1.0062914
42	0x3f83f267	1.030835
43	0x3f8716a7	1.0553788
44	0x3f8a3ae6	1.0799224
45	0x3f8d5f26	1.1044662
46	0x3f908365	1.1290098
47	0x3f93a7a5	1.1535536
48	0x3f96cbe4	1.1780972
49	0x3f99f023	1.2026409
50	0x3f9d1463	1.2271847
51	0x3fa038a2	1.2517283
52	0x3fa35ce2	1.276272
53	0x3fa68121	1.3008157
54	0x3fa9a560	1.3253593
55	0x3facc9a0	1.3499031
56	0x3fafeddf	1.3744467
57	0x3fb3121f	1.3989905
58	0x3fb6365e	1.4235342
59	0x3fb95a9e	1.4480779
60	0x3fbc7edd	1.4726216
61	0x3fbfa31c	1.4971652
62	0x3fc2c75c	1.521709
63	0x3fc5eb9b	1.5462526
64	0x3fc90fdb	1.5707964
65	0x3fcc341a	1.59534
66	0x3fcf5859	1.6198837
67	0x3fd27c99	1.6444274
68	0x3fd5a0d8	1.6689711
69	0x3fd8c518	1.6935148
70	0x3fdbe957	1.7180585
71	0x3fdf0d97	1.7426022
72	0x3fe231d6	1.7671459
73	0x3fe55615	1.7916895
74	0x3fe87a55	1.8162333
75	0x3feb9e94	1.8407769
76	0x3feec2d4	1.8653207
77	0x3ff1e713	1.8898643
78	0x3ff50b52	1.914408
79	0x3ff82f92	1.9389517
80	0x3ffb53d1	1.9634954
81	0x3ffe7811	1.9880391
82	0x4000ce28	2.0125828
83	0x40026048	2.0371265
84	0x4003f267	2.06167
85	0x40058487	2.0862138
86	0x400716a7	2.1107576
87	0x4008a8c7	2.1353014
88	0x400a3ae6	2.1598449
89	0x400bcd06	2.1843886
90	0x400d5f26	2.2089324
91	0x400ef145	2.233476
92	0x40108365	2.2580197
93	0x40121585	2.2825634
94	0x4013a7a5	2.3071072
95	0x401539c4	2.3316507
96	0x4016cbe4	2.3561945
97	0x40185e04	2.3807383
98	0x4019f023	2.4052818
99	0x401b8243	2.4298255
100	0x401d1463	2.4543693
101	0x401ea683	2.478913
102	0x402038a2	2.5034566
103	0x4021cac2	2.5280004
104	0x40235ce2	2.552544
105	0x4024ef01	2.5770876
106	0x40268121	2.6016314
107	0x40281341	2.6261752
108	0x4029a560	2.6507187
109	0x402b3780	2.6752625
110	0x402cc9a0	2.6998062
111	0x402e5bc0	2.72435
112	0x402feddf	2.7488935
113	0x40317fff	2.7734373
114	0x4033121f	2.797981
115	0x4034a43e	2.8225245
116	0x4036365e	2.8470683
117	0x4037c87e	2.871612
118	0x40395a9e	2.8961558
119	0x403aecbd	2.9206994
120	0x403c7edd	2.9452431
121	0x403e10fd	2.969787
122	0x403fa31c	2.9943304
123	0x4041353c	3.0188742
124	0x4042c75c	3.043418
125	0x4044597c	3.0679617
126	0x4045eb9b	3.0925052
127	0x40477dbb	3.117049
128	0x40490fdb	3.1415927
129	0x404aa1fa	3.1661363
130	0x404c341a	3.19068
131	0x404dc63a	3.2152238
132	0x404f5859	3.2397673
133	0x4050ea79	3.264311
134	0x40527c99	3.2888548
135	0x40540eb9	3.3133986
136	0x4055a0d8	3.3379421
137	0x405732f8	3.362486
138	0x4058c518	3.3870296
139	0x405a5737	3.4115732
140	0x405be957	3.436117
141	0x405d7b77	3.4606607
142	0x405f0d97	3.4852045
143	0x40609fb6	3.509748
144	0x406231d6	3.5342917
145	0x4063c3f6	3.5588355
146	0x40655615	3.583379
147	0x4066e835	3.6079228
148	0x40687a55	3.6324666
149	0x406a0c75	3.6570103
150	0x406b9e94	3.6815538
151	0x406d30b4	3.7060976
152	0x406ec2d4	3.7306414
153	0x407054f3	3.755185
154	0x4071e713	3.7797287
155	0x40737933	3.8042724
156	0x40750b52	3.828816
157	0x40769d72	3.8533597
158	0x40782f92	3.8779035
159	0x4079c1b2	3.9024472
160	0x407b53d1	3.9269907
161	0x407ce5f1	3.9515345
162	0x407e7811	3.9760783
163	0x40800518	4.000622
164	0x4080ce28	4.0251656
165	0x40819738	4.0497093
166	0x40826048	4.074253
167	0x40832958	4.098797
168	0x4083f267	4.12334
169	0x4084bb77	4.147884
170	0x40858487	4.1724277
171	0x40864d97	4.1969714
172	0x408716a7	4.221515
173	0x4087dfb7	4.246059
174	0x4088a8c7	4.2706027
175	0x408971d6	4.295146
176	0x408a3ae6	4.3196898
177	0x408b03f6	4.3442335
178	0x408bcd06	4.3687773
179	0x408c9616	4.393321
180	0x408d5f26	4.417865
181	0x408e2836	4.4424086
182	0x408ef145	4.466952
183	0x408fba55	4.4914956
184	0x40908365	4.5160394
185	0x40914c75	4.540583
186	0x40921585	4.565127
187	0x4092de95	4.5896707
188	0x4093a7a5	4.6142144
189	0x409470b4	4.6387577
190	0x409539c4	4.6633015
191	0x409602d4	4.687845
192	0x4096cbe4	4.712389
193	0x409794f4	4.7369328
194	0x40985e04	4.7614765
195	0x40992714	4.7860203
196	0x4099f023	4.8105636
197	0x409ab933	4.8351073
198	0x409b8243	4.859651
199	0x409c4b53	4.884195
200	0x409d1463	4.9087386
201	0x409ddd73	4.9332824
202	0x409ea683	4.957826
203	0x409f6f92	4.9823694
204	0x40a038a2	5.006913
205	0x40a101b2	5.031457
206	0x40a1cac2	5.0560007
207	0x40a293d2	5.0805445
208	0x40a35ce2	5.105088
209	0x40a425f1	5.1296315
210	0x40a4ef01	5.1541753
211	0x40a5b811	5.178719
212	0x40a68121	5.203263
213	0x40a74a31	5.2278066
214	0x40a81341	5.2523503
215	0x40a8dc51	5.276894
216	0x40a9a560	5.3014374
217	0x40aa6e70	5.325981
218	0x40ab3780	5.350525
219	0x40ac0090	5.3750687
220	0x40acc9a0	5.3996124
221	0x40ad92b0	5.424156
222	0x40ae5bc0	5.4487
223	0x40af24cf	5.473243
224	0x40afeddf	5.497787
225	0x40b0b6ef	5.5223308
226	0x40b17fff	5.5468745
227	0x40b2490f	5.5714183
228	0x40b3121f	5.595962
229	0x40b3db2f	5.620506
230	0x40b4a43e	5.645049
231	0x40b56d4e	5.669593
232	0x40b6365e	5.6941366
233	0x40b6ff6e	5.7186804
234	0x40b7c87e	5.743224
235	0x40b8918e	5.767768
236	0x40b95a9e	5.7923117
237	0x40ba23ad	5.816855
238	0x40baecbd	5.8413987
239	0x40bbb5cd	5.8659425
240	0x40bc7edd	5.8904862
241	0x40bd47ed	5.91503
242	0x40be10fd	5.939574
243	0x40beda0d	5.9641175
244	0x40bfa31c	5.988661
245	0x40c06c2c	6.0132046
246	0x40c1353c	6.0377483
247	0x40c1fe4c	6.062292
248	0x40c2c75c	6.086836
249	0x40c3906c	6.1113796
250	0x40c4597c	6.1359234
251	0x40c5228b	6.1604667
252	0x40c5eb9b	6.1850104
253	0x40c6b4ab	6.209554
254	0x40c77dbb	6.234098
255	0x40c846cb	6.2586417

t_u f4 [256, 1]
0	0x00000000	0.0
1	0x00000000	0.0
2	0x00000000	0.0
3	0x00000000	0.0
4	0x00000000	0.0
5	0x00000000	0.0
6	0x00000000	0.0
7	0x00000000	0.0
8	0x00000000	0.0
9	0x00000000	0.0
10	0x00000000	0.0
11	0x00000000	0.0
12	0x00000000	0.0
13	0x00000000	0.0
14	0x00000000	0.0
15	0x00000000	0.0
16	0x00000000	0.0
17	0x00000000	0.0
18	0x00000000	0.0
19	0x00000000	0.0
20	0x00000000	0.0
21	0x00000000	0.0
22	0x00000000	0.0
23	0x00000000	0.0
24	0x00000000	0.0
25	0x00000000	0.0
26	0x00000000	0.0
27	0x00000000	0.0
28	0x00000000	0.0
29	0x00000000	0.0
30	0x00000000	0.0
31	0x00000000	0.0
32	0x00000000	0.0
33	0x00000000	0.0
34	0x00000000	0.0
35	0x00000000	0.0
36	0x00000000	0.0
37	0x00000000	0.0
38	0x00000000	0.0
39	0x00000000	0.0
40	0x00000000	0.0
41	0x00000000	0.0
42	0x00000000	0.0
43	0x00000000	0.0
44	0x00000000	0.0
45	0x00000000	0.0
46	0x00000000	0.0
47	0x00000000	0.0
48	0x00000000	0.0
49	0x00000000	0.0
50	0x00000000	0.0
51	0x00000000	0.0
52	0x00000000	0.0
53	0x00000000	0.0
54	0x00000000	0.0
55	0x00000000	0.0
56	0x00000000	0.0
57	0x00000000	0.0
58	0x00000000	0.0
59	0x00000000	0.0
60	0x00000000	0.0
61	0x00000000	0.0
62	0x00000000	0.0
63	0x00000000	0.0
64	0x00000000	0.0
65	0x00000000	0.0
66	0x00000000	0.0
67	0x00000000	0.0
68	0x00000000	0.0
69	0x00000000	0.0
70	0x00000000	0.0
71	0x00000000	0.0
72	0x00000000	0.0
73	0x00000000	0.0
74	0x00000000	0.0
75	0x00000000	0.0
76	0x00000000	0.0
77	0x00000000	0.0
78	0x00000000	0.0
79	0x00000000	0.0
80	0x00000000	0.0
81	0x00000000	0.0
82	0x00000000	0.0
83	0x00000000	0.0
84	0x00000000	0.0
85	0x00000000	0.0
86	0x00000000	0.0
87	0x00000000	0.0
88	0x00000000	0.0
89	0x00000000	0.0
90	0x00000000	0.0
91	0x00000000	0.0
92	0x00000000	0.0
93	0x00000000	0.0
94	0x00000000	0.0
95	0x00000000	0.0
96	0x00000000	0.0
97	0x00000000	0.0
98	0x00000000	0.0
99	0x00000000	0.0
100	0x00000000	0.0
101	0x00000000	0.0
102	0x00000000	0.0
103	0x00000000	0.0
104	0x00000000	0.0
105	0x00000000	0.0
106	0x00000000	0.0
107	0x00000000	0.0
108	0x00000000	0.0
109	0x00000000	0.0
110	0x00000000	0.0
111	0x00000000	0.0
112	0x00000000	0.0
113	0x00000000	0.0
114	0x00000000	0.0
115	0x00000000	0.0
116	0x00000000	0.0
117	0x00000000	0.0
118	0x00000000	0.0
119	0x00000000	0.0
120	0x00000000	0.0
121	0x00000000	0.0
122	0x00000000	0.0
123	0x00000000	0.0
124	0x00000000	0.0
125	0x00000000	0.0
126	0x00000000	0.0
127	0x00000000	0.0
128	0x00000000	0.0
129	0x00000000	0.0
130	0x00000000	0.0
131	0x00000000	0.0
132	0x00000000	0.0
133	0x00000000	0.0
134	0x00000000	0.0
135	0x00000000	0.0
136	0x00000000	0.0
137	0x00000000	0.0
138	0x00000000	0.0
139	0x00000000	0.0
140	0x00000000	0.0
141	0x00000000	0.0
142	0x00000000	0.0
143	0x00000000	0.0
144	0x00000000	0.0
145	0x00000000	0.0
146	0x00000000	0.0
147	0x00000000	0.0
148	0x00000000	0.0
149	0x00000000	0.0
150	0x00000000	0.0
151	0x00000000	0.0
152	0x00000000	0.0
153	0x00000000	0.0
154	0x00000000	0.0
155	0x00000000	0.0
156	0x00000000	0.0
157	0x00000000	0.0
158	0x00000000	0.0
159	0x00000000	0.0
160	0x00000000	0.0
161	0x00000000	0.0
162	0x00000000	0.0
163	0x00000000	0.0
164	0x00000000	0.0
165	0x00000000	0.0
166	0x00000000	0.0
167	0x00000000	0.0
168	0x00000000	0.0
169	0x00000000	0.0
170	0x00000000	0.0
171	0x00000000	0.0
172	0x00000000	0.0
173	0x00000000	0.0
174	0x00000000	0.0
175	0x00000000	0.0
176	0x00000000	0.0
177	0x00000000	0.0
178	0x00000000	0.0
179	0x00000000	0.0
180	0x00000000	0.0
181	0x00000000	0.0
182	0x00000000	0.0
183	0x00000000	0.0
184	0x00000000	0.0
185	0x00000000	0.0
186	0x00000000	0.0
187	0x00000000	0.0
188	0x00000000	0.0
189	0x00000000	0.0
190	0x00000000	0.0
191	0x00000000	0.0
192	0x00000000	0.0
193	0x00000000	0.0
194	0x00000000	0.0
195	0x00000000	0.0
196	0x00000000	0.0
197	0x00000000	0.0
198	0x00000000	0.0
199	0x00000000	0.0
200	0x00000000	0.0
201	0x00000000	0.0
202	0x00000000	0.0
203	0x00000000	0.0
204	0x00000000	0.0
205	0x00000000	0.0
206	0x00000000	0.0
207	0x00000000	0.0
208	0x00000000	0.0
209	0x00000000	0.0
210	0x00000000	0.0
211	0x00000000	0.0
212	0x00000000	0.0
213	0x00000000	0.0
214	0x00000000	0.0
215	0x00000000	0.0
216	0x00000000	0.0
217	0x00000000	0.0
218	0x00000000	0.0
219	0x00000000	0.0
220	0x00000000	0.0
221	0x00000000	0.0
222	0x00000000	0.0
223	0x00000000	0.0
224	0x00000000	0.0
225	0x00000000	0.0
226	0x00000000	0.0
227	0x00000000	0.0
228	0x00000000	0.0
229	0x00000000	0.0
230	0x00000000	0.0
231	0x00000000	0.0
232	0x00000000	0.0
233	0x00000000	0.0
234	0x00000000	0.0
235	0x00000000	0.0
236	0x00000000	0.0
237	0x00000000	0.0
238	0x00000000	0.0
239	0x00000000	0.0
240	0x00000000	0.0
241	0x00000000	0.0
242	0x00000000	0.0
243	0x00000000	0.0
244	0x00000000	0.0
245	0x00000000	0.0
246	0x00000000	0.0
247	0x00000000	0.0
248	0x00000000	0.0
249	0x00000000	0.0
250	0x00000000	0.0
251	0x00000000	0.0
252	0x00000000	0.0
253	0x00000000	0.0
254	0x00000000	0.0
255	0x00000000	0.0

x_f f4 [100, 1]
0	0x4093a7a5	4.6142144
1	0x3fdf0d97	1.7426022
2	0x4055a0d8	3.3379421
3	0x409c4b53	4.884195
4	0x4044597c	3.0679617
5	0x40b0b6ef	5.5223308
6	0x40ba23ad	5.816855
7	0x40c5eb9b	6.1850104
8	0x40921585	4.565127
9	0x3f99f023	1.2026409
10	0x40992714	4.7860203
11	0x3f108365	0.5645049
12	0x3feb9e94	1.8407769
13	0x3dfb53d1	0.12271846
14	0x409f6f92	4.9823694
15	0x40c2c75c	6.086836
16	0x40b6ff6e	5.7186804
17	0x402cc9a0	2.6998062
18	0x4021cac2	2.5280004
19	0x40c3906c	6.1113796
20	0x402e5bc0	2.72435
21	0x40af24cf	5.473243
22	0x3f8716a7	1.0553788
23	0x40c1fe4c	6.062292
24	0x3ee231d6	0.44178647
25	0x3f36365e	0.7117671
26	0x40864d97	4.1969714
27	0x40c846cb	6.2586417
28	0x40c4597c	6.1359234
29	0x40914c75	4.540583
30	0x40c5eb9b	6.1850104
31	0x4088a8c7	4.2706027
32	0x40af24cf	5.473243
33	0x40268121	2.6016314
34	0x408d5f26	4.417865
35	0x409d1463	4.9087386
36	0x40c06c2c	6.0132046
37	0x3ebc7edd	0.3681554
38	0x3efb53d1	0.49087384
39	0x40a68121	5.203263
40	0x405d7b77	3.4606607
41	0x3ee231d6	0.44178647
42	0x3fcf5859	1.6198837
43	0x4084bb77	4.147884
44	0x3fe87a55	1.8162333
45	0x409ea683	4.957826
46	0x405f0d97	3.4852045
47	0x4058c518	3.3870296
48	0x3f750b52	0.957204
49	0x4013a7a5	2.3071072
50	0x3f29a560	0.6626797
51	0x40a74a31	5.2278066
52	0x3cc90fdb	0.024543693
53	0x40c1fe4c	6.062292
54	0x401539c4	2.3316507
55	0x3ffb53d1	1.9634954
56	0x401539c4	2.3316507
57	0x3f2feddf	0.6872234
58	0x3fcc341a	1.59534
59	0x405a5737	3.4115732
60	0x40b3121f	5.595962
61	0x40b95a9e	5.7923117
62	0x3f8d5f26	1.1044662
63	0x406b9e94	3.6815538
64	0x3f6231d6	0.88357294
65	0x3fdbe957	1.7180585
66	0x401b8243	2.4298255
67	0x4066e835	3.6079228
68	0x3fe55615	1.7916895
69	0x3fcf5859	1.6198837
70	0x408971d6	4.295146
71	0x3ffe7811	1.9880391
72	0x40108365	2.2580197
73	0x402e5bc0	2.72435
74	0x3f490fdb	0.7853982
75	0x4003f267	2.06167
76	0x409ea683	4.957826
77	0x40a425f1	5.1296315
78	0x401b8243	2.4298255
79	0x40914c75	4.540583
80	0x406a0c75	3.6570103
81	0x3f55a0d8	0.83448553
82	0x406d30b4	3.7060976
83	0x3fe55615	1.7916895
84	0x40c2c75c	6.086836
85	0x409f6f92	4.9823694
86	0x409c4b53	4.884195
87	0x3f80ce28	1.0062914
88	0x40afeddf	5.497787
89	0x40baecbd	5.8413987
90	0x40864d97	4.1969714
91	0x4096cbe4	4.712389
92	0x3f6231d6	0.88357294
93	0x3f6ec2d4	0.93266034
94	0x3f9d1463	1.2271847
95	0x40b7c87e	5.743224
96	0x40b2490f	5.5714183
97	0x40c1353c	6.0377483
98	0x405be957	3.436117
99	0x3facc9a0	1.3499031

t_f f4 [100, 1]
0	0x3ec48677	0.3838384
1	0x3f51745d	0.8181818
2	0x3f090cee	0.53535354
3	0x3f4c4867	0.7979798
4	0x3e10cede	0.14141414
5	0x3f350296	0.7070707
6	0x3f2fd6a0	0.68686867
7	0x3f471c72	0.7777778
8	0x3f0ba2e9	0.54545456
9	0x3c257eb5	0.01010101
10	0x3f0e38e4	0.5555556
11	0x3f49b26d	0.7878788
12	0x3ede6243	0.43434343
13	0x3ede6243	0.43434343
14	0x3f7ad40a	0.97979796
15	0x3f800000	1.0
16	0x3f2d40a5	0.67676765
17	0x3f0676f3	0.5252525
18	0x3e9b26ca	0.3030303
19	0x3f540a58	0.82828283
20	0x3f7ad40a	0.97979796
21	0x3f22e8ba	0.6363636
22	0x3eafd6a0	0.34343433
23	0x3ea57eb5	0.32323232
24	0x3ef3121a	0.47474748
25	0x3f6b5029	0.9191919
26	0x3f0e38e4	0.5555556
27	0x3f471c72	0.7777778
28	0x3eba2e8c	0.36363637
29	0x3e638e39	0.22222222
30	0x3e90cede	0.28282827
31	0x3f638e39	0.8888889
32	0x3f68ba2f	0.90909094
33	0x3e1b26ca	0.15151516
34	0x3f2052bf	0.6262626
35	0x3d257eb5	0.04040404
36	0x3e1b26ca	0.15151516
37	0x3f60f83e	0.8787879
38	0x3f15fad4	0.5858586
39	0x3e814afd	0.25252524
40	0x3f4c4867	0.7979798
41	0x3ec48677	0.3838384
42	0x3ed9364e	0.42424244
43	0x3c257eb5	0.01010101
44	0x3e783e10	0.24242425
45	0x3f662434	0.8989899
46	0x3eba2e8c	0.36363637
47	0x3f707c1f	0.93939394
48	0x3f41f07c	0.75757575
49	0x3ea052bf	0.3131313
50	0x3d257eb5	0.04040404
51	0x3eafd6a0	0.34343433
52	0x3ee8ba2f	0.45454547
53	0x3f75a815	0.959596
54	0x3f75a815	0.959596
55	0x3ee8ba2f	0.45454547
56	0x3ee8ba2f	0.45454547
57	0x3f4ede62	0.8080808
58	0x3f0676f3	0.5252525
59	0x3f10cede	0.56565654
60	0x3f60f83e	0.8787879
61	0x3f3cc486	0.7373737
62	0x3d257eb5	0.04040404
63	0x3ef3121a	0.47474748
64	0x3f1364d9	0.57575756
65	0x3f10cede	0.56565654
66	0x3f2d40a5	0.67676765
67	0x3f7d6a05	0.989899
68	0x3f2fd6a0	0.68686867
69	0x3e59364e	0.21212122
70	0x3d4ede62	0.05050505
71	0x3e90cede	0.28282827
72	0x3e814afd	0.25252524
73	0x3f4ede62	0.8080808
74	0x3c257eb5	0.01010101
75	0x3ed40a58	0.41414142
76	0x3f783e10	0.969697
77	0x3f7ad40a	0.97979796
78	0x3e95fad4	0.2929293
79	0x3f03e0f8	0.5151515
80	0x3f56a053	0.83838385
81	0x3f73121a	0.94949496
82	0x3ef3121a	0.47474748
83	0x3f1890cf	0.5959596
84	0x3ec9b26d	0.3939394
85	0x3f2fd6a0	0.68686867
86	0x3f59364e	0.8484849
87	0x3ca57eb5	0.02020202
88	0x3f6b5029	0.9191919
89	0x3ef83e10	0.4848485
90	0x3e0676f3	0.13131313
91	0x3f1b26ca	0.6060606
92	0x3e814afd	0.25252524
93	0x3f783e10	0.969697
94	0x3eafd6a0	0.34343433
95	0x3f56a053	0.83838385
96	0x3ef83e10	0.4848485
97	0x3f4c4867	0.7979798
98	0x3f379891	0.7171717
99	0x3e9b26ca	0.3030303

x_bc_lb f4 [100, 1]
0	0x00000000	0.0
1	0x00000000	0.0
2	0x00000000	0.0
3	0x00000000	0.0
4	0x00000000	0.0
5	0x00000000	0.0
6	0x00000000	0.0
7	0x00000000	0.0
8	0x00000000	0.0
9	0x00000000	0.0
10	0x00000000	0.0
11	0x00000000	0.0
12	0x00000000	0.0
13	0x00000000	0.0
14	0x00000000	0.0
15	0x00000000	0.0
16	0x00000000	0.0
17	0x00000000	0.0
18	0x00000000	0.0
19	0x00000000	0.0
20	0x00000000	0.0
21	0x00000000	0.0
22	0x00000000	0.0
23	0x00000000	0.0
24	0x00000000	0.0
25	0x00000000	0.0
26	0x00000000	0.0
27	0x00000000	0.0
28	0x00000000	0.0
29	0x00000000	0.0
30	0x00000000	0.0
31	0x00000000	0.0
32	0x00000000	0.0
33	0x00000000	0.0
34	0x00000000	0.0
35	0x00000000	0.0
36	0x00000000	0.0
37	0x00000000	0.0
38	0x00000000	0.0
39	0x00000000	0.0
40	0x00000000	0.0
41	0x00000000	0.0
42	0x00000000	0.0
43	0x00000000	0.0
44	0x00000000	0.0
45	0x00000000	0.0
46	0x00000000	0.0
47	0x00000000	0.0
48	0x00000000	0.0
49	0x00000000	0.0
50	0x00000000	0.0
51	0x00000000	0.0
52	0x00000000	0.0
53	0x00000000	0.0
54	0x00000000	0.0
55	0x00000000	0.0
56	0x00000000	0.0
57	0x00000000	0.0
58	0x00000000	0.0
59	0x00000000	0.0
60	0x00000000	0.0
61	0x00000000	0.0
62	0x00000000	0.0
63	0x00000000	0.0
64	0x00000000	0.0
65	0x00000000	0.0
66	0x00000000	0.0
67	0x00000000	0.0
68	0x00000000	0.0
69	0x00000000	0.0
70	0x00000000	0.0
71	0x00000000	0.0
72	0x00000000	0.0
73	0x00000000	0.0
74	0x00000000	0.0
75	0x00000000	0.0
76	0x00000000	0.0
77	0x00000000	0.0
78	0x00000000	0.0
79	0x00000000	0.0
80	0x00000000	0.0
81	0x00000000	0.0
82	0x00000000	0.0
83	0x00000000	0.0
84	0x00000000	0.0
85	0x00000000	0.0
86	0x00000000	0.0
87	0x00000000	0.0
88	0x00000000	0.0
89	0x00000000	0.0
90	0x00000000	0.0
91	0x00000000	0.0
92	0x00000000	0.0
93	0x00000000	0.0
94	0x00000000	0.0
95	0x00000000	0.0
96	0x00000000	0.0
97	0x00000000	0.0
98	0x00000000	0.0
99	0x00000000	0.0

t_bc_lb f4 [100, 1]
0	0x00000000	0.0
1	0x3c257eb5	0.01010101
2	0x3ca57eb5	0.02020202
3	0x3cf83e10	0.030303031
4	0x3d257eb5	0.04040404
5	0x3d4ede62	0.05050505
6	0x3d783e10	0.060606062
7	0x3d90cede	0.07070707
8	0x3da57eb5	0.08080808
9	0x3dba2e8c	0.09090909
10	0x3dcede62	0.1010101
11	0x3de38e39	0.11111111
12	0x3df83e10	0.121212125
13	0x3e0676f3	0.13131313
14	0x3e10cede	0.14141414
15	0x3e1b26ca	0.15151516
16	0x3e257eb5	0.16161616
17	0x3e2fd6a0	0.17171717
18	0x3e3a2e8c	0.18181819
19	0x3e448677	0.1919192
20	0x3e4ede62	0.2020202
21	0x3e59364e	0.21212122
22	0x3e638e39	0.22222222
23	0x3e6de624	0.23232323
24	0x3e783e10	0.24242425
25	0x3e814afd	0.25252524
26	0x3e8676f3	0.26262626
27	0x3e8ba2e9	0.27272728
28	0x3e90cede	0.28282827
29	0x3e95fad4	0.2929293
30	0x3e9b26ca	0.3030303
31	0x3ea052bf	0.3131313
32	0x3ea57eb5	0.32323232
33	0x3eaaaaab	0.33333334
34	0x3eafd6a0	0.34343433
35	0x3eb50296	0.35353535
36	0x3eba2e8c	0.36363637
37	0x3ebf5a81	0.37373737
38	0x3ec48677	0.3838384
39	0x3ec9b26d	0.3939394
40	0x3ecede62	0.4040404
41	0x3ed40a58	0.41414142
42	0x3ed9364e	0.42424244
43	0x3ede6243	0.43434343
44	0x3ee38e39	0.44444445
45	0x3ee8ba2f	0.45454547
46	0x3eede624	0.46464646
47	0x3ef3121a	0.47474748
48	0x3ef83e10	0.4848485
49	0x3efd6a05	0.4949495
50	0x3f014afd	0.5050505
51	0x3f03e0f8	0.5151515
52	0x3f0676f3	0.5252525
53	0x3f090cee	0.53535354
54	0x3f0ba2e9	0.54545456
55	0x3f0e38e4	0.5555556
56	0x3f10cede	0.56565654
57	0x3f1364d9	0.57575756
58	0x3f15fad4	0.5858586
59	0x3f1890cf	0.5959596
60	0x3f1b26ca	0.6060606
61	0x3f1dbcc5	0.61616164
62	0x3f2052bf	0.6262626
63	0x3f22e8ba	0.6363636
64	0x3f257eb5	0.64646465
65	0x3f2814b0	0.65656567
66	0x3f2aaaab	0.6666667
67	0x3f2d40a5	0.67676765
68	0x3f2fd6a0	0.68686867
69	0x3f326c9b	0.6969697
70	0x3f350296	0.7070707
71	0x3f379891	0.7171717
72	0x3f3a2e8c	0.72727275
73	0x3f3cc486	0.7373737
74	0x3f3f5a81	0.74747473
75	0x3f41f07c	0.75757575
76	0x3f448677	0.7676768
77	0x3f471c72	0.7777778
78	0x3f49b26d	0.7878788
79	0x3f4c4867	0.7979798
80	0x3f4ede62	0.8080808
81	0x3f51745d	0.8181818
82	0x3f540a58	0.82828283
83	0x3f56a053	0.83838385
84	0x3f59364e	0.8484849
85	0x3f5bcc48	0.85858583
86	0x3f5e6243	0.86868685
87	0x3f60f83e	0.8787879
88	0x3f638e39	0.8888889
89	0x3f662434	0.8989899
90	0x3f68ba2f	0.90909094
91	0x3f6b5029	0.9191919
92	0x3f6de624	0.9292929
93	0x3f707c1f	0.93939394
94	0x3f73121a	0.94949496
95	0x3f75a815	0.959596
96	0x3f783e10	0.969697
97	0x3f7ad40a	0.97979796
98	0x3f7d6a05	0.989899
99	0x3f800000	1.0

x_bc_ub f4 [100, 1]
0	0x40c90fdb	6.2831855
1	0x40c90fdb	6.2831855
2	0x40c90fdb	6.2831855
3	0x40c90fdb	6.2831855
4	0x40c90fdb	6.2831855
5	0x40c90fdb	6.2831855
6	0x40c90fdb	6.2831855
7	0x40c90fdb	6.2831855
8	0x40c90fdb	6.2831855
9	0x40c90fdb	6.2831855
10	0x40c90fdb	6.2831855
11	0x40c90fdb	6.2831855
12	0x40c90fdb	6.2831855
13	0x40c90fdb	6.2831855
14	0x40c90fdb	6.2831855
15	0x40c90fdb	6.2831855
16	0x40c90fdb	6.2831855
17	0x40c90fdb	6.2831855
18	0x40c90fdb	6.2831855
19	0x40c90fdb	6.2831855
20	0x40c90fdb	6.2831855
21	0x40c90fdb	6.2831855
22	0x40c90fdb	6.2831855
23	0x40c90fdb	6.2831855
24	0x40c90fdb	6.2831855
25	0x40c90fdb	6.2831855
26	0x40c90fdb	6.2831855
27	0x40c90fdb	6.2831855
28	0x40c90fdb	6.2831855
29	0x40c90fdb	6.2831855
30	0x40c90fdb	6.2831855
31	0x40c90fdb	6.2831855
32	0x40c90fdb	6.2831855
33	0x40c90fdb	6.2831855
34	0x40c90fdb	6.2831855
35	0x40c90fdb	6.2831855
36	0x40c90fdb	6.2831855
37	0x40c90fdb	6.2831855
38	0x40c90fdb	6.2831855
39	0x40c90fdb	6.2831855
40	0x40c90fdb	6.2831855
41	0x40c90fdb	6.2831855
42	0x40c90fdb	6.2831855
43	0x40c90fdb	6.2831855
44	0x40c90fdb	6.2831855
45	0x40c90fdb	6.2831855
46	0x40c90fdb	6.2831855
47	0x40c90fdb	6.2831855
48	0x40c90fdb	6.2831855
49	0x40c90fdb	6.2831855
50	0x40c90fdb	6.2831855
51	0x40c90fdb	6.2831855
52	0x40c90fdb	6.2831855
53	0x40c90fdb	6.2831855
54	0x40c90fdb	6.2831855
55	0x40c90fdb	6.2831855
56	0x40c90fdb	6.2831855
57	0x40c90fdb	6.2831855
58	0x40c90fdb	6.2831855
59	0x40c90fdb	6.2831855
60	0x40c90fdb	6.2831855
61	0x40c90fdb	6.2831855
62	0x40c90fdb	6.2831855
63	0x40c90fdb	6.2831855
64	0x40c90fdb	6.2831855
65	0x40c90fdb	6.2831855
66	0x40c90fdb	6.2831855
67	0x40c90fdb	6.2831855
68	0x40c90fdb	6.2831855
69	0x40c90fdb	6.2831855
70	0x40c90fdb	6.2831855
71	0x40c90fdb	6.2831855
72	0x40c90fdb	6.2831855
73	0x40c90fdb	6.2831855
74	0x40c90fdb	6.2831855
75	0x40c90fdb	6.2831855
76	0x40c90fdb	6.2831855
77	0x40c90fdb	6.2831855
78	0x40c90fdb	6.2831855
79	0x40c90fdb	6.2831855
80	0x40c90fdb	6.2831855
81	0x40c90fdb	6.2831855
82	0x40c90fdb	6.2831855
83	0x40c90fdb	6.2831855
84	0x40c90fdb	6.2831855
85	0x40c90fdb	6.2831855
86	0x40c90fdb	6.2831855
87	0x40c90fdb	6.2831855
88	0x40c90fdb	6.2831855
89	0x40c90fdb	6.2831855
90	0x40c90fdb	6.2831855
91	0x40c90fdb	6.2831855
92	0x40c90fdb	6.2831855
93	0x40c90fdb	6.2831855
94	0x40c90fdb	6.2831855
95	0x40c90fdb	6.2831855
96	0x40c90fdb	6.2831855
97	0x40c90fdb	6.2831855
98	0x40c90fdb	6.2831855
99	0x40c90fdb	6.2831855

t_bc_ub f4 [100, 1]
0	0x00000000	0.0
1	0x3c257eb5	0.01010101
2	0x3ca57eb5	0.02020202
3	0x3cf83e10	0.030303031
4	0x3d257eb5	0.04040404
5	0x3d4ede62	0.05050505
6	0x3d783e10	0.060606062
7	0x3d90cede	0.07070707
8	0x3da57eb5	0.08080808
9	0x3dba2e8c	0.09090909
10	0x3dcede62	0.1010101
11	0x3de38e39	0.11111111
12	0x3df83e10	0.121212125
13	0x3e0676f3	0.13131313
14	0x3e10cede	0.14141414
15	0x3e1b26ca	0.15151516
16	0x3e257eb5	0.16161616
17	0x3e2fd6a0	0.17171717
18	0x3e3a2e8c	0.18181819
19	0x3e448677	0.1919192
20	0x3e4ede62	0.2020202
21	0x3e59364e	0.21212122
22	0x3e638e39	0.22222222
23	0x3e6de624	0.23232323
24	0x3e783e10	0.24242425
25	0x3e814afd	0.25252524
26	0x3e8676f3	0.26262626
27	0x3e8ba2e9	0.27272728
28	0x3e90cede	0.28282827
29	0x3e95fad4	0.2929293
30	0x3e9b26ca	0.3030303
31	0x3ea052bf	0.3131313
32	0x3ea57eb5	0.32323232
33	0x3eaaaaab	0.33333334
34	0x3eafd6a0	0.34343433
35	0x3eb50296	0.35353535
36	0x3eba2e8c	0.36363637
37	0x3ebf5a81	0.37373737
38	0x3ec48677	0.3838384
39	0x3ec9b26d	0.3939394
40	0x3ecede62	0.4040404
41	0x3ed40a58	0.41414142
42	0x3ed9364e	0.42424244
43	0x3ede6243	0.43434343
44	0x3ee38e39	0.44444445
45	0x3ee8ba2f	0.45454547
46	0x3eede624	0.46464646
47	0x3ef3121a	0.47474748
48	0x3ef83e10	0.4848485
49	0x3efd6a05	0.4949495
50	0x3f014afd	0.5050505
51	0x3f03e0f8	0.5151515
52	0x3f0676f3	0.5252525
53	0x3f090cee	0.53535354
54	0x3f0ba2e9	0.54545456
55	0x3f0e38e4	0.5555556
56	0x3f10cede	0.56565654
57	0x3f1364d9	0.57575756
58	0x3f15fad4	0.5858586
59	0x3f1890cf	0.5959596
60	0x3f1b26ca	0.6060606
61	0x3f1dbcc5	0.61616164
62	0x3f2052bf	0.6262626
63	0x3f22e8ba	0.6363636
64	0x3f257eb5	0.64646465
65	0x3f2814b0	0.65656567
66	0x3f2aaaab	0.6666667
67	0x3f2d40a5	0.67676765
68	0x3f2fd6a0	0.68686867
69	0x3f326c9b	0.6969697
70	0x3f350296	0.7070707
71	0x3f379891	0.7171717
72	0x3f3a2e8c	0.72727275
73	0x3f3cc486	0.7373737
74	0x3f3f5a81	0.74747473
75	0x3f41f07c	0.75757575
76	0x3f448677	0.7676768
77	0x3f471c72	0.7777778
78	0x3f49b26d	0.7878788
79	0x3f4c4867	0.7979798
80	0x3f4ede62	0.8080808
81	0x3f51745d	0.8181818
82	0x3f540a58	0.82828283
83	0x3f56a053	0.83838385
84	0x3f59364e	0.8484849
85	0x3f5bcc48	0.85858583
86	0x3f5e6243	0.86868685
87	0x3f60f83e	0.8787879
88	0x3f638e39	0.8888889
89	0x3f662434	0.8989899
90	0x3f68ba2f	0.90909094
91	0x3f6b5029	0.9191919
92	0x3f6de624	0.9292929
93	0x3f707c1f	0.93939394
94	0x3f73121a	0.94949496
95	0x3f75a815	0.959596
96	0x3f783e10	0.969697
97	0x3f7ad40a	0.97979796
98	0x3f7d6a05	0.989899
99	0x3f800000	1.0

weight f4 [50, 2]
0	0x3dd51d09	0.10405929
1	0xbd767eb8	-0.060179442
2	0x3c79055e	0.015199034
3	0x3dbc0bb1	0.091819175
4	0x3ef6088a	0.4805339
5	0xbe2a1a1f	-0.16611527
6	0xbcfd8c8a	-0.030950803
7	0x3dcf947d	0.10135744
8	0xbd78d8a1	-0.06075347
9	0x3c948b39	0.018132793
10	0xbe33fb87	-0.17576419
11	0x3e00ff7c	0.1259746
12	0x3d8d86ae	0.06910454
13	0x3dcb8d26	0.09939031
14	0xbe5850be	-0.2112455
15	0xbe790559	-0.24318446
16	0x3e0b4ede	0.13604304
17	0x3cdcf78a	0.026973505
18	0x3df618a5	0.12016419
19	0xbe8458a7	-0.25848886
20	0xbed97d50	-0.42478418
21	0x3d1fc1cb	0.039003175
22	0x3eb88e75	0.36046186
23	0xbdae5161	-0.085116155
24	0xbe89c4cd	-0.2690796
25	0xbece6ab0	-0.4031577
26	0xbd5a2808	-0.053260833
27	0x3daa706a	0.083222225
28	0x3d9f2a4a	0.07771738
29	0x3df67912	0.12034811
30	0xbdcdb4e8	-0.10044271
31	0x3c10aabd	0.00882977
32	0xbdfe28cf	-0.12410127
33	0xbe64b3eb	-0.22334258
34	0xbea202e7	-0.3164284
35	0x3de15dd0	0.110042214
36	0x3cbac623	0.022799557
37	0x3e438537	0.19093786
38	0xbe9507a5	-0.29107395
39	0x3e14f149	0.14545168
40	0x3e0ca88a	0.13736168
41	0xbdc849c1	-0.097796924
42	0x3da7c0bd	0.08191059
43	0xbdbf8d45	-0.09353117
44	0x3db71e91	0.08941377
45	0xbcc5f10a	-0.024162788
46	0xbb4484b5	-0.0029986326
47	0xbe4d21f6	-0.20032486
48	0xbcdc414f	-0.02688661
49	0x3dbe1cee	0.09282862
50	0x3ec4c3f9	0.38430765
51	0xbe1eaacc	-0.15494841
52	0xbdebf59c	-0.11521456
53	0x3e7ddc9a	0.24791184
54	0xbd4c4b0a	-0.04987625
55	0x3e112c7b	0.14177124
56	0x3e9937f8	0.29925513
57	0xbd1738ad	-0.036919285
58	0x3b31dbb5	0.0027139012
59	0xbd9b0b79	-0.075705476
60	0xbc2912f5	-0.010319461
61	0x3e3da9ea	0.18521848
62	0xbe85f88b	-0.26166186
63	0x3d42b260	0.047533393
64	0x3e4b1d7c	0.19835466
65	0x3d13818c	0.036012217
66	0xbea455b3	-0.32096633
67	0xbe4b0d9f	-0.19829415
68	0x3d309fb7	0.043121066
69	0xbe5f0ee2	-0.21783021
70	0xbec5837d	-0.3857688
71	0xbe0b6865	-0.13614042
72	0xbddd6147	-0.1080957
73	0xbe4f37af	-0.20236085
74	0x3df66313	0.12030616
75	0x3ca24526	0.019808363
76	0xbcd2330a	-0.025659103
77	0xbc435eb8	-0.011924438
78	0xbe2c9987	-0.16855441
79	0xbd13da27	-0.03609672
80	0xbd69d513	-0.05708797
81	0x3b9a1510	0.004702218
82	0x3dd4363b	0.10361906
83	0x3da5576e	0.080733165
84	0x3e0b5635	0.13607104
85	0xbe397415	-0.18110688
86	0x3eda30f4	0.42615473
87	0xbcc00d92	-0.02344397
88	0x3defe33b	0.11713263
89	0x3e8676bf	0.2626247
90	0xbddc1030	-0.10745275
91	0xbf0267b0	-0.50939465
92	0x3b875719	0.004130256
93	0xbe5d35b1	-0.21602513
94	0x3e28de77	0.16491114
95	0xbeb36419	-0.35037306
96	0xbe2be784	-0.16787535
97	0xbe6b16c2	-0.229579
98	0x3e3d7e31	0.1850517
99	0xbe1266ae	-0.14296982

bias f4 [50]
0	0xbb38aa9f	-0.002817787
1	0x381a394b	3.676982e-05
2	0xbb4f3a2b	-0.0031620364
3	0x3b23db67	0.00250026
4	0xbad1d60a	-0.0016009223
5	0x3a5cd96c	0.00084247324
6	0xbad33b19	-0.0016115635
7	0xbb668626	-0.0035175174
8	0x3b97a968	0.004628349
9	0x3b446bf6	0.0029971576
10	0xbaf46574	-0.0018645958
11	0x3b083c76	0.002078799
12	0xbbf01898	-0.0073271506
13	0xba88942c	-0.0010420135
14	0xbb3281dc	-0.0027238047
15	0xbb5315d5	-0.0032209058
16	0xbafe872d	-0.0019418948
17	0xbab548e9	-0.0013830933
18	0x3b0cfad6	0.0021511815
19	0xbb433603	-0.0029786832
20	0xbb0e85c3	-0.0021747209
21	0x3b335261	0.0027362334
22	0xbaba863c	-0.0014230679
23	0xbb406cca	-0.0029361718
24	0xbb149631	-0.002267253
25	0x3b275a12	0.0025535864
26	0xbadd44a4	-0.0016881418
27	0xbb0b00e3	-0.0021210245
28	0x3ab018f2	0.0013435169
29	0xbb230eea	-0.0024880716
30	0x3b0a8190	0.0021134354
31	0x3ad4e775	0.0016243296
32	0xbba3718d	-0.0049879015
33	0xbb521c85	-0.0032060456
34	0x3b0547f1	0.002033707
35	0xbb78df1f	-0.0037974787
36	0xb9274e00	-0.00015955418
37	0x3a9bf450	0.0011898372
38	0xbb17a556	-0.002313932
39	0xbb143176	-0.0022612489
40	0x3acc1f64	0.001557332
41	0xbb51d681	-0.0032018723
42	0xbb2730f9	-0.0025511368
43	0x3b3e3c97	0.0029027814
44	0xbbbcd959	-0.0057632145
45	0xbb0c5d7a	-0.002141802
46	0x3be87904	0.0070945043
47	0xbb036770	-0.0020050667
48	0x398a8859	0.00026422998
49	0x3b13e240	0.0022565275

weight f4 [50, 50]
0	0x3e28d870	0.16488814
1	0xbd945986	-0.07243638
2	0xbeb82a64	-0.3596984
3	0x3de1111e	0.10989593
4	0xbd7d9cb6	-0.06191703
5	0xbd45ea40	-0.0483191
6	0xbe2574a6	-0.16157779
7	0x3daabadb	0.08336421
8	0x3ddd2635	0.10798303
9	0x3dd3b223	0.10336711
10	0x3ddfe4cf	0.10932314
11	0xbe8120a1	-0.25220206
12	0xbe644a34	-0.22293931
13	0xbdd89359	-0.10574979
14	0x3e63abde	0.22233531
15	0xbd88a81d	-0.0667269
16	0xbe886c99	-0.26645353
17	0xbcb6f65f	-0.022334276
18	0x3e160f21	0.14654209
19	0xbe3f6b65	-0.18693312
20	0x3d1e78bf	0.03868937
21	0x3d822a0c	0.06355676
22	0x3e1f07da	0.15530339
23	0x3e2185b7	0.15773664
24	0x3e90cb4c	0.28280103
25	0x3d354296	0.044252954
26	0x3ea0bc65	0.31393734
27	0x3cc8cef0	0.024512738
28	0x3e521d25	0.2051893
29	0xbe4fda9e	-0.2029824
30	0x3e3e6fb9	0.18597306
31	0xbd8487a9	-0.064711876
32	0xbd06f984	-0.0329528
33	0xbe635762	-0.22201303
34	0x3e11252d	0.14174338
35	0x3d14653c	0.036229357
36	0x3e53e0bb	0.20691197
37	0x3c578532	0.013154315
38	0xbd550026	-0.052002095
39	0x3da33a30	0.07970083
40	0x3d241d5d	0.040067066
41	0xbe63c1d0	-0.22241902
42	0xbde56389	-0.112006254
43	0x3bb42893	0.005498001
44	0xbbb51b04	-0.005526902
45	0x3db77bea	0.089591816
46	0x3d352c71	0.044231836
47	0xbe2025b1	-0.15639378
48	0x3d9d40c5	0.076783694
49	0xbdd83ddc	-0.10558674
50	0xbe0ee481	-0.13954355
51	0xbe02e683	-0.12783246
52	0xbdaf69a1	-0.08565069
53	0xbdb169ad	-0.08662734
54	0x3d6c74f1	0.05772871
55	0xbd0536c2	-0.032522924
56	0x3db5f5aa	0.08884747
57	0xbcc7d89d	-0.024395281
58	0x3c7719bf	0.015081822
59	0x3e34758e	0.17622969
60	0xbe0af7e6	-0.13571128
61	0xbeb04134	-0.34424746
62	0x3e608fa2	0.21929792
63	0x3cd84d3d	0.026404018
64	0xbdd2c2c5	-0.102910556
65	0x3e096416	0.13417086
66	0x3c1133dc	0.008862462
67	0x3e71aedf	0.23601864
68	0xbe3690ab	-0.17828624
69	0x3cce11cd	0.025154972
70	0x3cd8ad0e	0.026449706
71	0x3e1012b6	0.14069638
72	0xbe41b4e0	-0.18916655
73	0x3e2dc747	0.1697055
74	0x3e20f604	0.15718848
75	0x3cf6e456	0.030138176
76	0xbdf11d58	-0.11773175
77	0xbccf1781	-0.025279762
78	0xbc518e1a	-0.012790227
79	0x3dc4e675	0.09614269
80	0xbcfc9f87	-0.030837787
81	0xbc4483d2	-0.011994319
82	0xba996da8	-0.0011705654
83	0xbe8456a1	-0.25847343
84	0xbe54bf28	-0.20776045
85	0xbe10c169	-0.1413628
86	0xbdd4cf22	-0.1039107
87	0xbe0e41c3	-0.13892274
88	0xbe955c0b	-0.29171786
89	0xbdef6324	-0.116888314
90	0x3d51b58f	0.05119854
91	0xbced2dfd	-0.028952593
92	0xbe797d82	-0.24364284
93	0xbd963763	-0.07334783
94	0xbda85061	-0.08218456
95	0xbdf10c54	-0.117699295
96	0x3e4efd27	0.20213757
97	0xbe71ad57	-0.2360128
98	0x3ddb52e6	0.10709171
99	0x3e6630a4	0.22479492
100	0xbddccb50	-0.10780966
101	0x3d3826be	0.044958822
102	0xbda16509	-0.07880599
103	0x3d49d0f7	0.04927155
104	0x3c1865a3	0.009301576
105	0x3d871b04	0.0659695
106	0xbc699ea7	-0.014259017
107	0x3e5f5106	0.21808252
108	0xbdb3a6c4	-0.087720424
109	0x3d1c9f55	0.03823789
110	0xbe817d9f	-0.25291154
111	0xbda1e2b1	-0.07904566
112	0x3df97c29	0.12181885
113	0xbd2b6845	-0.041847486
114	0x3d8ebad2	0.06969227
115	0x3d760a0b	0.06006817
116	0xbdf18c4d	-0.117943384
117	0x3de203c0	0.110358715
118	0x3e2fe548	0.17177308
119	0x3d40c7e4	0.04706563
120	0x3dacffe1	0.084472425
121	0xbca78c16	-0.02045254
122	0x3c72009c	0.014770653
123	0xbd812550	-0.06305945
124	0x3ce7faec	0.028317891
125	0xbccf2872	-0.02528784
126	0xbe109b9b	-0.14121859
127	0x3e44266a	0.19155279
128	0x3e8be396	0.27322072
129	0xbd521062	-0.051285155
130	0x3d13f6f5	0.03612419
131	0xbe2d35f5	-0.16915114
132	0x3d238cf8	0.03992936
133	0x3d75242b	0.059848946
134	0x3d38f39c	0.0451542
135	0x3dce4792	0.10072245
136	0x3ddb9cf0	0.10723293
137	0xbcc06046	-0.023483407
138	0x3c99fd41	0.018797519
139	0x3e556cac	0.20842236
140	0xbdc27f9a	-0.09496994
141	0x3d44f132	0.048081584
142	0xbd9bd220	-0.076084375
143	0xbbd21970	-0.006411724
144	0x3d9ced35	0.07662431
145	0x3e1ac89d	0.1511559
146	0x3cfbc6fd	0.030734533
147	0xbeb1aff3	-0.3470455
148	0x3d08d87c	0.03340958
149	0x3e18ed37	0.1493424
150	0xbe5f20bc	-0.21789831
151	0xbaaeda08	-0.0013340125
152	0x3e0498ed	0.12948962
153	0xbcf77ca7	-0.030210806
154	0xbac0965a	-0.0014693246
155	0x3deef72f	0.1166824
156	0x3e9c1150	0.30481958
157	0x3cc99d69	0.024611192
158	0xbdfb4d1c	-0.12270567
159	0x3d4e94b7	0.050434794
160	0xbdee9e8a	-0.11651333
161	0xbbee3154	-0.007269064
162	0x3de7b8d3	0.11314549
163	0xbc52bdc8	-0.01286263
164	0x3be965ee	0.0071227467
165	0x3dd6d1ec	0.10489258
166	0x3cebe538	0.028795823
167	0xbcbbe68e	-0.022937085
168	0xbe103089	-0.14081015
169	0x3df54379	0.1197576
170	0xbe308d85	-0.17241485
171	0x3e3ccbff	0.18437193
172	0xbc0b13e3	-0.008488628
173	0x3e71740f	0.23579429
174	0x3e820a47	0.25398466
175	0xbd847b49	-0.06468827
176	0x3d4a53eb	0.049396437
177	0x3ddc67c8	0.10761982
178	0x3df3432c	0.118780464
179	0x3e41f654	0.18941623
180	0xbd3757af	-0.044761356
181	0x3da172b9	0.0788321
182	0xbe2932b1	-0.16523243
183	0xbe4c6160	-0.1995902
184	0xbe45d5ce	-0.19319841
185	0xbcf89fea	-0.03034969
186	0xbe862a50	-0.26204157
187	0xbc04ea20	-0.00811246
188	0x3e665975	0.22495063
189	0x3d451bfe	0.0481224
190	0xbdd9a739	-0.10627598
191	0x3c5a110e	0.01330973
192	0xbe0df187	-0.13861667
193	0x3d63b087	0.05558827
194	0x3e222079	0.158327
195	0xbe3120c1	-0.17297651
196	0xbd2d8261	-0.042360667
197	0x3dd096e0	0.10185027
198	0xbdf95c65	-0.12175826
199	0x3e16bf16	0.14721331
200	0x3d5426e1	0.05179489
201	0xbd02dcbd	-0.031948794
202	0x3d4863ee	0.048923425
203	0x3c5ba792	0.013406651
204	0x3e802091	0.25024846
205	0xbe593408	-0.21211255
206	0x3e169ba0	0.14707804
207	0x3e6db2e0	0.23212767
208	0xbcbb339b	-0.022851756
209	0xbe16863c	-0.14699644
210	0x3e82855c	0.2549237
211	0xbe680990	-0.22659898
212	0x3b7e9674	0.0038847001
213	0xbdb32bf6	-0.08748619
214	0x3cf52163	0.029923147
215	0xbd64c3cd	-0.055850793
216	0xbe16b618	-0.14717901
217	0x3d902542	0.07038356
218	0xbd8df5e4	-0.069316655
219	0xbdb003b2	-0.08594455
220	0xbd283d7f	-0.041074272
221	0x3da907a5	0.08253411
222	0xbdd3231e	-0.103094324
223	0xbe1e97f2	-0.1548765
224	0x3df33c45	0.1187673
225	0x3d27596d	0.040856767
226	0xbdea1a72	-0.11430825
227	0x3e0ba911	0.13638712
228	0xbcb0c12f	-0.021576492
229	0x3e03426b	0.12818305
230	0xbcf46831	-0.029834839
231	0xbe4c2e87	-0.19939624
232	0xbdf1cab2	-0.11806239
233	0x3e1e6204	0.15467077
234	0xbe471f20	-0.19445467
235	0x3defb27a	0.117039636
236	0xbdb7ef65	-0.08981208
237	0x3ce50ddc	0.02796071
238	0x3da24e2f	0.079250686
239	0x3b900a4d	0.004395759
240	0xbddcc4e5	-0.10779742
241	0xbe796c5d	-0.24357744
242	0xbd2420d2	-0.040070362
243	0x3e03a5a5	0.12856157
244	0xbe3524b2	-0.1768978
245	0x3ddb1763	0.1069782
246	0x3cd0c490	0.025484353
247	0x3dc7fa2e	0.09764515
248	0x3dcb489d	0.09925959
249	0x3c7f7456	0.0155917015
250	0xbdded62c	-0.10880694
251	0xbe20509e	-0.15655753
252	0xbe07cadb	-0.13260977
253	0x3e2a0500	0.1660347
254	0xbb278877	-0.0025563517
255	0xbd101032	-0.035171695

bias f4 [50]
0	0xbb6de008	-0.0036296863
1	0xbb3bdb1b	-0.0028664533
2	0x3a2d9413	0.0006621491
3	0xbb093f52	-0.0020942283
4	0xbaa99704	-0.0012938683
5	0xbb0d9a2e	-0.002160679
6	0x3b008642	0.0019611274
7	0xbb117a3c	-0.0022198102
8	0x3b0f1c9a	0.0021837116
9	0xbb5a9afc	-0.0033356538
10	0x3b224f03	0.0024766333
11	0xbb0314a4	-0.0020001316
12	0xbafe06ab	-0.0019380649
13	0xbad6d3ae	-0.001638999
14	0xbb4388af	-0.0029836108
15	0x3b3c4be5	0.002873176
16	0xbb1ffe79	-0.0024413152
17	0xbb112dfc	-0.0022152653
18	0xbb113e71	-0.0022162462
19	0x3b5a8202	0.003334165
20	0xbab84e77	-0.001406147
21	0x3b10b7d5	0.0022082229
22	0xbbe1e978	-0.0068942867
23	0xbb5bdd47	-0.003354864
24	0x3b51f578	0.003203718
25	0xba07b25f	-0.00051764207
26	0x3adfe0be	0.0017080528
27	0x3aa4252b	0.0012523284
28	0xbb0e21fa	-0.0021687732
29	0xbb62f6b4	-0.003463191
30	0x3b500a88	0.0031744558
31	0x3a807141	0.0009799377
32	0x3b2ba672	0.0026191738
33	0xbb39a29b	-0.002832568
34	0x3b0afcb6	0.0021207756
35	0x3af88a19	0.0018962055
36	0x3c077ce4	0.008269522
37	0x3b2e7f99	0.0026626347
38	0xbae5c6bc	-0.0017530541
39	0x3b31a796	0.0027107946
40	0x3c2949ea	0.010332564
41	0xbac7d49c	-0.0015245858
42	0xbb14d071	-0.0022707249
43	0xbb1399b2	-0.002252203
44	0x3b2f2676	0.0026725805
45	0x3b562d8d	0.003268096
46	0x3b1bb2c1	0.0023757669
47	0x3af5d354	0.0018754997
48	0x3b66fcec	0.0035245968
49	0xb7da3da4	-2.6016329e-05

weight f4 [50, 50]
0	0xbeadb9c1	-0.3393078
1	0x3dc7b224	0.097507745
2	0xbddcd58f	-0.107829206
3	0xbda0187b	-0.07817169
4	0xbdc4d80c	-0.0961152
5	0x3e9a7d9f	0.30173966
6	0x3df80783	0.12110808
7	0x3d33a138	0.043854922
8	0xbe165e41	-0.14684393
9	0xbe6fd2a1	-0.23420192
10	0x3ea42c99	0.32065275
11	0xbe777e38	-0.24169242
12	0xbb6231d1	-0.0034514556
13	0x3e680170	0.22656798
14	0xbdbcebb8	-0.09224647
15	0x3eb5a446	0.35476893
16	0xbdb577c7	-0.08860736
17	0xbe8d3e07	-0.27586386
18	0x3cb93cb4	0.022611953
19	0x3e287a27	0.16452847
20	0x3ddd33be	0.10800885
21	0xbdc27533	-0.0949501
22	0x3ce618ee	0.02808806
23	0xbd5dee79	-0.054182503
24	0x3c8af123	0.016960686
25	0x3e0dc93a	0.13846293
26	0xbcf04737	-0.029330833
27	0xbdf0ded1	-0.11761249
28	0x3e952001	0.2912598
29	0x3dd9058f	0.10596763
30	0x3c8619f9	0.016369807
31	0xbd394256	-0.04522928
32	0x3e885b66	0.2663223
33	0xbda74c57	-0.081688575
34	0xbdd9385d	-0.106064536
35	0xbdadf912	-0.08494772
36	0xbd197cd0	-0.037472546
37	0x3dcd5c04	0.10027316
38	0x3e236819	0.15957679
39	0x3e9407ea	0.28912288
40	0x3dee7afc	0.11644551
41	0x3dbdd93f	0.09269952
42	0x3df97f09	0.12182433
43	0xbe07c2e4	-0.13257939
44	0x3d02fe70	0.03198093
45	0x3ed30874	0.41217387
46	0xbdca16c2	-0.09867622
47	0xbe745aa6	-0.23862705
48	0xbeb86c90	-0.36020327
49	0x3d8d770b	0.06907471
50	0xbe712796	-0.23550257
51	0xbc54b3cc	-0.01298232
52	0xbdfc7762	-0.12327458
53	0x3d79b1c0	0.06096053
54	0x3c01fb4a	0.007933447
55	0x3dcd9cd7	0.100396805
56	0xbea73021	-0.32653907
57	0x3e76ecb9	0.2411374
58	0x3e082b7c	0.13297838
59	0x3da9b176	0.08285801
60	0x3e055564	0.13020855
61	0x3de8b42d	0.11362491
62	0x3e1bb27a	0.15204802
63	0x3e114053	0.14184694
64	0xbd8c9225	-0.06863812
65	0x3df85db7	0.1212725
66	0x3d263208	0.040575057
67	0xbbaae282	-0.00521499
68	0x3e0be5a7	0.13661824
69	0x3d7033b4	0.058643058
70	0x3e887a2c	0.2665571
71	0xbe320ba0	-0.17387247
72	0x3d1b3394	0.037890986
73	0xbddd1722	-0.10795428
74	0x3d1e3f77	0.038634744
75	0xbd0a13b4	-0.033710197
76	0xbe716a6c	-0.23575753
77	0xbd2e3c2c	-0.042537853
78	0x3d7c0279	0.061525796
79	0xbce68031	-0.028137298
80	0xbe1140a5	-0.14184816
81	0x3c5ea3c9	0.013588854
82	0xbd725498	-0.059162706
83	0x3de96d3c	0.11397788
84	0x3e3e5e1a	0.18590584
85	0xbda51724	-0.08061054
86	0x3d9e5a6b	0.077320896
87	0xbcf07e3a	-0.029357065
88	0xbd86051c	-0.06543943
89	0xbd9a9fef	-0.07550036
90	0xbe85b738	-0.26116347
91	0xbdb4f49f	-0.0883572
92	0x3e488960	0.19583654
93	0xbd8436ae	-0.06455742
94	0xbdb92a83	-0.090413116
95	0x3e5f5651	0.21810271
96	0x3d0bddfd	0.03414725
97	0xbe8d5440	-0.2760334
98	0xbcfd133f	-0.030892966
99	0x3d8b7675	0.06809703
100	0x3d54bfdb	0.05194078
101	0x3e2bd084	0.16778761
102	0xbd5885fc	-0.052862152
103	0x3d444a65	0.04792251
104	0xbdaf8292	-0.08569826
105	0xbeb08640	-0.34477425
106	0xbd05021e	-0.032472722
107	0x3b92b8b5	0.004477585
108	0x3c81cd79	0.015845047
109	0x3dd63d4e	0.10460912
110	0x3e429d0e	0.19005224
111	0x3c882984	0.016621359
112	0x3e54c434	0.2077797
113	0x3d581947	0.05275848
114	0x3df7d9f8	0.12102121
115	0x3e18fc01	0.14939882
116	0x3ce23b10	0.027616054
117	0x3dcc0c1b	0.099632464
118	0x3d3b978c	0.045798823
119	0x3de124d9	0.10993356
120	0x3de3a4a8	0.1111539
121	0x3e12b746	0.14327726
122	0xbb38275d	-0.0028099634
123	0x3e91d6ea	0.2848428
124	0xbe390ea0	-0.18071985
125	0xbe1c8ba4	-0.15287644
126	0xbdb4e208	-0.088321745
127	0xbd8e5a71	-0.06950844
128	0xbe7d3a75	-0.24729331
129	0x3ddcd076	0.10781948
130	0xbe24c85d	-0.16092058
131	0x3daee25f	0.085392706
132	0x3cb53f4d	0.02212491
133	0xbe0b355a	-0.13594571
134	0xbe08dbab	-0.13365047
135	0xbcb060a7	-0.021530462
136	0x3e5a7fc6	0.21337804
137	0xbe5d98db	-0.21640341
138	0xbccdff44	-0.025146134
139	0xbde7ebb2	-0.11324252
140	0xbcb52fa1	-0.022117438
141	0xbe4cea08	-0.20011151
142	0x3d0ff966	0.035149954
143	0xbe3ea764	-0.18618542
144	0xbab2b01b	-0.0013632806
145	0xbe5b905e	-0.2144179
146	0x3e9775d1	0.29582074
147	0xbe3aa9cd	-0.18228836
148	0x3e17d378	0.14826763
149	0xbe1a3c75	-0.15062125
150	0xbe9c3a74	-0.30513346
151	0x3e4632ba	0.19355288
152	0x3dc60d2d	0.09670482
153	0x3e2cc1da	0.16870824
154	0x3c95591a	0.018230963
155	0x3c8eaacd	0.017415429
156	0x3d05959d	0.032613385
157	0xbe01d021	-0.12677051
158	0xbe091e27	-0.13390408
159	0xbd242a98	-0.040079683
160	0xbd491a27	-0.049097206
161	0xbe0258f7	-0.1272925
162	0x3e0c6407	0.13710032
163	0xbde885f8	-0.113536775
164	0xbda133a5	-0.078711785
165	0x3dcf41fb	0.10120007
166	0x3d41c46f	0.047306474
167	0x3e217516	0.15767321
168	0xbdf93a46	-0.12169318
169	0xbdb9b821	-0.09068323
170	0xbdc3beaa	-0.09557851
171	0x3d42e123	0.04757799
172	0xbdcdbdbf	-0.10045957
173	0x3d84024c	0.064457506
174	0xbde11537	-0.109903745
175	0xbdb8a7a2	-0.090163484
176	0x3dbf6c1b	0.09346791
177	0xbda5c764	-0.08094671
178	0xbcb24119	-0.021759557
179	0xbb57bc29	-0.0032918549
180	0x3d1ca8a1	0.038246755
181	0xbe819106	-0.25305957
182	0x3d7e9984	0.062158123
183	0x3e92d3c2	0.28677183
184	0xbe49fbb1	-0.19724919
185	0x3d370a2a	0.044687428
186	0xbe24137e	-0.1602306
187	0x3d684341	0.056704763
188	0x3ceebb3d	0.029142017
189	0x3e119087	0.14215289
190	0x3e5f89bc	0.21829885
191	0xbd71b21f	-0.05900776
192	0xbd2b8a70	-0.04188007
193	0xbeaeaa0a	-0.34114105
194	0x3d82f3f0	0.06394184
195	0xbe43514f	-0.19073986
196	0x3e342e6e	0.17595837
197	0xbc9f13cd	-0.019418621
198	0xbd09526f	-0.03352588
199	0xbe546189	-0.20740332
200	0x3d25d48e	0.04048591
201	0xbe14b103	-0.1452065
202	0xbe0a5fad	-0.1351306
203	0xbcc01934	-0.023449518
204	0xbe906668	-0.2820313
205	0x3ddbbd28	0.10729438
206	0xbdddd6c1	-0.10831977
207	0xbd8b8a04	-0.06813434
208	0x3cab7e74	0.020934321
209	0x3ddc5be8	0.10759717
210	0xbe24ffc3	-0.1611319
211	0xbdadb736	-0.0848221
212	0xbe4fccfd	-0.2029304
213	0x3dcc704c	0.099823564
214	0x3d9359a3	0.07194831
215	0xbce1a6c7	-0.027545346
216	0x3d868a40	0.06569338
217	0xbde1f319	-0.11032695
218	0x3e117b84	0.14207274
219	0x3d1f4835	0.03888722
220	0x3e7f679c	0.24941868
221	0x3b4de098	0.0031414386
222	0xbe6d75ba	-0.2318944
223	0x3e320f6d	0.17388697
224	0x3e3e5ec4	0.18590838
225	0xbdaba403	-0.08380892
226	0xbe7564f5	-0.23964293
227	0x3e54cb79	0.20780744
228	0x3e52813e	0.20557114
229	0x3d4714c1	0.048603777
230	0x3dbaf914	0.09129539
231	0x3d2c4d37	0.042065825
232	0xbe3129fe	-0.17301175
233	0xbe6300cc	-0.22168273
234	0xbc843b65	-0.016141603
235	0x3d72c8ef	0.059273656
236	0x3d5473f1	0.051868383
237	0x3cf7296b	0.030171117
238	0xbe098d6c	-0.13432854
239	0xbde7a522	-0.113107935
240	0xbd393eff	-0.045226093
241	0xbc86fc05	-0.016477594
242	0xbe20e0b7	-0.15710722
243	0xbe045b2c	-0.12925404
244	0x3ccc7106	0.024956238
245	0x3da2fd4e	0.0795847
246	0x3e224057	0.15844856
247	0xbe57fae2	-0.21091798
248	0x3b71b716	0.003688281
249	0x3d29c206	0.0414448
250	0x3e8aabc2	0.27084166
251	0x3e33c122	0.17554143
252	0x3daa07d1	0.08302272
253	0x3e0c47a8	0.1369921
254	0xbe534cfe	-0.20634839
255	0xbdf97942	-0.12181331

bias f4 [50]
0	0x3b81c5f4	0.0039603654
1	0xbae21658	-0.0017249091
2	0xbb57628c	-0.0032865135
3	0x3b3bbf8e	0.002864811
4	0xbb2146ec	-0.0024608923
5	0xbab0605d	-0.0013456453
6	0xbb09c748	-0.0021023322
7	0x3a669e6a	0.0008797409
8	0x3b562b2f	0.0032679548
9	0xbb22f4e9	-0.0024865216
10	0x3b4b6946	0.003103809
11	0xbb13a435	-0.0022528295
12	0x3b52de50	0.0032175966
13	0x3b320a2c	0.0027166707
14	0x3ac0dc8d	0.0014714167
15	0xbb0a62c3	-0.0021115995
16	0x3b19eb03	0.0023486025
17	0xba9405f8	-0.0011293283
18	0xbb25c0f9	-0.0025292023
19	0x3b1e354f	0.002414066
20	0x3b443138	0.0029936563
21	0x3b62ddb0	0.0034617
22	0xbb574cb2	-0.003285211
23	0xbbb1457e	-0.0054098954
24	0x3b18827f	0.002327114
25	0x3b187e4b	0.0023268636
26	0x3b0d96df	0.0021604819
27	0x3b2857df	0.002568714
28	0xbb88e203	-0.0041773333
29	0x3b032405	0.0020010483
30	0xbb2aa5bc	-0.0026038727
31	0x3b5f2ef1	0.003405508
32	0x3b09db4d	0.0021035254
33	0x3b19ced2	0.0023469222
34	0xbb1afeee	-0.0023650485
35	0x3a5d47d0	0.0008441182
36	0x3b2ac831	0.0026059265
37	0xbb0c2e98	-0.0021390077
38	0xbb158d3b	-0.0022819776
39	0x3b056632	0.0020355103
40	0x39ac2c99	0.00032839624
41	0xbb00498d	-0.001957509
42	0xbb02826f	-0.001991417
43	0x39f52aed	0.00046762024
44	0x3b1c0602	0.0023807292
45	0xbb0b3b67	-0.0021245123
46	0x3b314542	0.0027049338
47	0xbb20e92e	-0.0024553048
48	0xbb2ae812	-0.0026078266
49	0x3afb08b2	0.0019152372
