pbc_examples/saved_models/convection_beta-1.0_layers-50,50,50,50,1_L-0.1_WD-0_init-normal_seed0.pt (torch, 114029 bytes, 36 tensors)

x_u f4 [256, 1]
0	0x00000000	0.0
1	0x3cc90fdb	0.024543693
2	0x3d490fdb	0.049087387
3	0x3d96cbe4	0.07363108
4	0x3dc90fdb	0.09817477
5	0x3dfb53d1	0.12271846
6	0x3e16cbe4	0.14726216
7	0x3e2feddf	0.17180584
8	0x3e490fdb	0.19634955
9	0x3e6231d6	0.22089323
10	0x3e7b53d1	0.24543692
11	0x3e8a3ae6	0.2699806
12	0x3e96cbe4	0.2945243
13	0x3ea35ce2	0.319068
14	0x3eafeddf	0.3436117
15	0x3ebc7edd	0.3681554
16	0x3ec90fdb	0.3926991
17	0x3ed5a0d8	0.41724277
18	0x3ee231d6	0.44178647
19	0x3eeec2d4	0.46633017
20	0x3efb53d1	0.49087384
21	0x3f03f267	0.5154175
22	0x3f0a3ae6	0.5399612
23	0x3f108365	0.5645049
24	0x3f16cbe4	0.5890486
25	0x3f1d1463	0.6135923
26	0x3f235ce2	0.638136
27	0x3f29a560	0.6626797
28	0x3f2feddf	0.6872234
29	0x3f36365e	0.7117671
30	0x3f3c7edd	0.7363108
31	0x3f42c75c	0.7608545
32	0x3f490fdb	0.7853982
33	0x3f4f5859	0.8099418
34	0x3f55a0d8	0.83448553
35	0x3f5be957	0.85902923
36	0x3f6231d6	0.88357294
37	0x3f687a55	0.90811664
38	0x3f6ec2d4	0.93266034
39	0x3f750b52	0.957204
40	0x3f7b53d1	0.9817477
41	0x3f80ce28	1.0062914
42	0x3f83f267	1.030835
43	0x3f8716a7	1.0553788
44	0x3f8a3ae6	1.0799224
45	0x3f8d5f26	1.1044662
46	0x3f908365	1.1290098
47	0x3f93a7a5	1.1535536
48	0x3f96cbe4	1.1780972
49	0x3f99f023	1.2026409
50	0x3f9d1463	1.2271847
51	0x3fa038a2	1.2517283
52	0x3fa35ce2	1.276272
53	0x3fa68121	1.3008157
54	0x3fa9a560	1.3253593
55	0x3facc9a0	1.3499031
56	0x3fafeddf	1.3744467
57	0x3fb3121f	1.3989905
58	0x3fb6365e	1.4235342
59	0x3fb95a9e	1.4480779
60	0x3fbc7edd	1.4726216
61	0x3fbfa31c	1.4971652
62	0x3fc2c75c	1.521709
63	0x3fc5eb9b	1.5462526
64	0x3fc90fdb	1.5707964
65	0x3fcc341a	1.59534
66	0x3fcf5859	1.6198837
67	0x3fd27c99	1.6444274
68	0x3fd5a0d8	1.6689711
69	0x3fd8c518	1.6935148
70	0x3fdbe957	1.7180585
71	0x3fdf0d97	1.7426022
72	0x3fe231d6	1.7671459
73	0x3fe55615	1.7916895
74	0x3fe87a55	1.8162333
75	0x3feb9e94	1.8407769
76	0x3feec2d4	1.8653207
77	0x3ff1e713	1.8898643
78	0x3ff50b52	1.914408
79	0x3ff82f92	1.9389517
80	0x3ffb53d1	1.9634954
81	0x3ffe7811	1.9880391
82	0x4000ce28	2.0125828
83	0x40026048	2.0371265
84	0x4003f267	2.06167
85	0x40058487	2.0862138
86	0x400716a7	2.1107576
87	0x4008a8c7	2.1353014
88	0x400a3ae6	2.1598449
89	0x400bcd06	2.1843886
90	0x400d5f26	2.2089324
91	0x400ef145	2.233476
92	0x40108365	2.2580197
93	0x40121585	2.2825634
94	0x4013a7a5	2.3071072
95	0x401539c4	2.3316507
96	0x4016cbe4	2.3561945
97	0x40185e04	2.3807383
98	0x4019f023	2.4052818
99	0x401b8243	2.4298255
100	0x401d1463	2.4543693
101	0x401ea683	2.478913
102	0x402038a2	2.5034566
103	0x4021cac2	2.5280004
104	0x40235ce2	2.552544
105	0x4024ef01	2.5770876
106	0x40268121	2.6016314
107	0x40281341	2.6261752
108	0x4029a560	2.6507187
109	0x402b3780	2.6752625
110	0x402cc9a0	2.6998062
111	0x402e5bc0	2.72435
112	0x402feddf	2.7488935
113	0x40317fff	2.7734373
114	0x4033121f	2.797981
115	0x4034a43e	2.8225245
116	0x4036365e	2.8470683
117	0x4037c87e	2.871612
118	0x40395a9e	2.8961558
119	0x403aecbd	2.9206994
120	0x403c7edd	2.9452431
121	0x403e10fd	2.969787
122	0x403fa31c	2.9943304
123	0x4041353c	3.0188742
124	0x4042c75c	3.043418
125	0x4044597c	3.0679617
126	0x4045eb9b	3.0925052
127	0x40477dbb	3.117049
128	0x40490fdb	3.1415927
129	0x404aa1fa	3.1661363
130	0x404c341a	3.19068
131	0x404dc63a	3.2152238
132	0x404f5859	3.2397673
133	0x4050ea79	3.264311
134	0x40527c99	3.2888548
135	0x40540eb9	3.3133986
136	0x4055a0d8	3.3379421
137	0x405732f8	3.362486
138	0x4058c518	3.3870296
139	0x405a5737	3.4115732
140	0x405be957	3.436117
141	0x405d7b77	3.4606607
142	0x405f0d97	3.4852045
143	0x40609fb6	3.509748
144	0x406231d6	3.5342917
145	0x4063c3f6	3.5588355
146	0x40655615	3.583379
147	0x4066e835	3.6079228
148	0x40687a55	3.6324666
149	0x406a0c75	3.6570103
150	0x406b9e94	3.6815538
151	0x406d30b4	3.7060976
152	0x406ec2d4	3.7306414
153	0x407054f3	3.755185
154	0x4071e713	3.7797287
155	0x40737933	3.8042724
156	0x40750b52	3.828816
157	0x40769d72	3.8533597
158	0x40782f92	3.8779035
159	0x4079c1b2	3.9024472
160	0x407b53d1	3.9269907
161	0x407ce5f1	3.9515345
162	0x407e7811	3.9760783
163	0x40800518	4.000622
164	0x4080ce28	4.0251656
165	0x40819738	4.0497093
166	0x40826048	4.074253
167	0x40832958	4.098797
168	0x4083f267	4.12334
169	0x4084bb77	4.147884
170	0x40858487	4.1724277
171	0x40864d97	4.1969714
172	0x408716a7	4.221515
173	0x4087dfb7	4.246059
174	0x4088a8c7	4.2706027
175	0x408971d6	4.295146
176	0x408a3ae6	4.3196898
177	0x408b03f6	4.3442335
178	0x408bcd06	4.3687773
179	0x408c9616	4.393321
180	0x408d5f26	4.417865
181	0x408e2836	4.4424086
182	0x408ef145	4.466952
183	0x408fba55	4.4914956
184	0x40908365	4.5160394
185	0x40914c75	4.540583
186	0x40921585	4.565127
187	0x4092de95	4.5896707
188	0x4093a7a5	4.6142144
189	0x409470b4	4.6387577
190	0x409539c4	4.6633015
191	0x409602d4	4.687845
192	0x4096cbe4	4.712389
193	0x409794f4	4.7369328
194	0x40985e04	4.7614765
195	0x40992714	4.7860203
196	0x4099f023	4.8105636
197	0x409ab933	4.8351073
198	0x409b8243	4.859651
199	0x409c4b53	4.884195
200	0x409d1463	4.9087386
201	0x409ddd73	4.9332824
202	0x409ea683	4.957826
203	0x409f6f92	4.9823694
204	0x40a038a2	5.006913
205	0x40a101b2	5.031457
206	0x40a1cac2	5.0560007
207	0x40a293d2	5.0805445
208	0x40a35ce2	5.105088
209	0x40a425f1	5.1296315
210	0x40a4ef01	5.1541753
211	0x40a5b811	5.178719
212	0x40a68121	5.203263
213	0x40a74a31	5.2278066
214	0x40a81341	5.2523503
215	0x40a8dc51	5.276894
216	0x40a9a560	5.3014374
217	0x40aa6e70	5.325981
218	0x40ab3780	5.350525
219	0x40ac0090	5.3750687
220	0x40acc9a0	5.3996124
221	0x40ad92b0	5.424156
222	0x40ae5bc0	5.4487
223	0x40af24cf	5.473243
224	0x40afeddf	5.497787
225	0x40b0b6ef	5.5223308
226	0x40b17fff	5.5468745
227	0x40b2490f	5.5714183
228	0x40b3121f	5.595962
229	0x40b3db2f	5.620506
230	0x40b4a43e	5.645049
231	0x40b56d4e	5.669593
232	0x40b6365e	5.6941366
233	0x40b6ff6e	5.7186804
234	0x40b7c87e	5.743224
235	0x40b8918e	5.767768
236	0x40b95a9e	5.7923117
237	0x40ba23ad	5.816855
238	0x40baecbd	5.8413987
239	0x40bbb5cd	5.8659425
240	0x40bc7edd	5.8904862
241	0x40bd47ed	5.91503
242	0x40be10fd	5.939574
243	0x40beda0d	5.9641175
244	0x40bfa31c	5.988661
245	0x40c06c2c	6.0132046
246	0x40c1353c	6.0377483
247	0x40c1fe4c	6.062292
248	0x40c2c75c	6.086836
249	0x40c3906c	6.1113796
250	0x40c4597c	6.1359234
251	0x40c5228b	6.1604667
252	0x40c5eb9b	6.1850104
253	0x40c6b4ab	6.209554
254	0x40c77dbb	6.234098
255	0x40c846cb	6.2586417

t_u f4 [256, 1]
0	0x00000000	0.0
1	0x00000000	0.0
2	0x00000000	0.0
3	0x00000000	0.0
4	0x00000000	0.0
5	0x00000000	0.0
6	0x00000000	0.0
7	0x00000000	0.0
8	0x00000000	0.0
9	0x00000000	0.0
10	0x00000000	0.0
11	0x00000000	0.0
12	0x00000000	0.0
13	0x00000000	0.0
14	0x00000000	0.0
15	0x00000000	0.0
16	0x00000000	0.0
17	0x00000000	0.0
18	0x00000000	0.0
19	0x00000000	0.0
20	0x00000000	0.0
21	0x00000000	0.0
22	0x00000000	0.0
23	0x00000000	0.0
24	0x00000000	0.0
25	0x00000000	0.0
26	0x00000000	0.0
27	0x00000000	0.0
28	0x00000000	0.0
29	0x00000000	0.0
30	0x00000000	0.0
31	0x00000000	0.0
32	0x00000000	0.0
33	0x00000000	0.0
34	0x00000000	0.0
35	0x00000000	0.0
36	0x00000000	0.0
37	0x00000000	0.0
38	0x00000000	0.0
39	0x00000000	0.0
40	0x00000000	0.0
41	0x00000000	0.0
42	0x00000000	0.0
43	0x00000000	0.0
44	0x00000000	0.0
45	0x00000000	0.0
46	0x00000000	0.0
47	0x00000000	0.0
48	0x00000000	0.0
49	0x00000000	0.0
50	0x00000000	0.0
51	0x00000000	0.0
52	0x00000000	0.0
53	0x00000000	0.0
54	0x00000000	0.0
55	0x00000000	0.0
56	0x00000000	0.0
57	0x00000000	0.0
58	0x00000000	0.0
59	0x00000000	0.0
60	0x00000000	0.0
61	0x00000000	0.0
62	0x00000000	0.0
63	0x00000000	0.0
64	0x00000000	0.0
65	0x00000000	0.0
66	0x00000000	0.0
67	0x00000000	0.0
68	0x00000000	0.0
69	0x00000000	0.0
70	0x00000000	0.0
71	0x00000000	0.0
72	0x00000000	0.0
73	0x00000000	0.0
74	0x00000000	0.0
75	0x00000000	0.0
76	0x00000000	0.0
77	0x00000000	0.0
78	0x00000000	0.0
79	0x00000000	0.0
80	0x00000000	0.0
81	0x00000000	0.0
82	0x00000000	0.0
83	0x00000000	0.0
84	0x00000000	0.0
85	0x00000000	0.0
86	0x00000000	0.0
87	0x00000000	0.0
88	0x00000000	0.0
89	0x00000000	0.0
90	0x00000000	0.0
91	0x00000000	0.0
92	0x00000000	0.0
93	0x00000000	0.0
94	0x00000000	0.0
95	0x00000000	0.0
96	0x00000000	0.0
97	0x00000000	0.0
98	0x00000000	0.0
99	0x00000000	0.0
100	0x00000000	0.0
101	0x00000000	0.0
102	0x00000000	0.0
103	0x00000000	0.0
104	0x00000000	0.0
105	0x00000000	0.0
106	0x00000000	0.0
107	0x00000000	0.0
108	0x00000000	0.0
109	0x00000000	0.0
110	0x00000000	0.0
111	0x00000000	0.0
112	0x00000000	0.0
113	0x00000000	0.0
114	0x00000000	0.0
115	0x00000000	0.0
116	0x00000000	0.0
117	0x00000000	0.0
118	0x00000000	0.0
119	0x00000000	0.0
120	0x00000000	0.0
121	0x00000000	0.0
122	0x00000000	0.0
123	0x00000000	0.0
124	0x00000000	0.0
125	0x00000000	0.0
126	0x00000000	0.0
127	0x00000000	0.0
128	0x00000000	0.0
129	0x00000000	0.0
130	0x00000000	0.0
131	0x00000000	0.0
132	0x00000000	0.0
133	0x00000000	0.0
134	0x00000000	0.0
135	0x00000000	0.0
136	0x00000000	0.0
137	0x00000000	0.0
138	0x00000000	0.0
139	0x00000000	0.0
140	0x00000000	0.0
141	0x00000000	0.0
142	0x00000000	0.0
143	0x00000000	0.0
144	0x00000000	0.0
145	0x00000000	0.0
146	0x00000000	0.0
147	0x00000000	0.0
148	0x00000000	0.0
149	0x00000000	0.0
150	0x00000000	0.0
151	0x00000000	0.0
152	0x00000000	0.0
153	0x00000000	0.0
154	0x00000000	0.0
155	0x00000000	0.0
156	0x00000000	0.0
157	0x00000000	0.0
158	0x00000000	0.0
159	0x00000000	0.0
160	0x00000000	0.0
161	0x00000000	0.0
162	0x00000000	0.0
163	0x00000000	0.0
164	0x00000000	0.0
165	0x00000000	0.0
166	0x00000000	0.0
167	0x00000000	0.0
168	0x00000000	0.0
169	0x00000000	0.0
170	0x00000000	0.0
171	0x00000000	0.0
172	0x00000000	0.0
173	0x00000000	0.0
174	0x00000000	0.0
175	0x00000000	0.0
176	0x00000000	0.0
177	0x00000000	0.0
178	0x00000000	0.0
179	0x00000000	0.0
180	0x00000000	0.0
181	0x00000000	0.0
182	0x00000000	0.0
183	0x00000000	0.0
184	0x00000000	0.0
185	0x00000000	0.0
186	0x00000000	0.0
187	0x00000000	0.0
188	0x00000000	0.0
189	0x00000000	0.0
190	0x00000000	0.0
191	0x00000000	0.0
192	0x00000000	0.0
193	0x00000000	0.0
194	0x00000000	0.0
195	0x00000000	0.0
196	0x00000000	0.0
197	0x00000000	0.0
198	0x00000000	0.0
199	0x00000000	0.0
200	0x00000000	0.0
201	0x00000000	0.0
202	0x00000000	0.0
203	0x00000000	0.0
204	0x00000000	0.0
205	0x00000000	0.0
206	0x00000000	0.0
207	0x00000000	0.0
208	0x00000000	0.0
209	0x00000000	0.0
210	0x00000000	0.0
211	0x00000000	0.0
212	0x00000000	0.0
213	0x00000000	0.0
214	0x00000000	0.0
215	0x00000000	0.0
216	0x00000000	0.0
217	0x00000000	0.0
218	0x00000000	0.0
219	0x00000000	0.0
220	0x00000000	0.0
221	0x00000000	0.0
222	0x00000000	0.0
223	0x00000000	0.0
224	0x00000000	0.0
225	0x00000000	0.0
226	0x00000000	0.0
227	0x00000000	0.0
228	0x00000000	0.0
229	0x00000000	0.0
230	0x00000000	0.0
231	0x00000000	0.0
232	0x00000000	0.0
233	0x00000000	0.0
234	0x00000000	0.0
235	0x00000000	0.0
236	0x00000000	0.0
237	0x00000000	0.0
238	0x00000000	0.0
239	0x00000000	0.0
240	0x00000000	0.0
241	0x00000000	0.0
242	0x00000000	0.0
243	0x00000000	0.0
244	0x00000000	0.0
245	0x00000000	0.0
246	0x00000000	0.0
247	0x00000000	0.0
248	0x00000000	0.0
249	0x00000000	0.0
250	0x00000000	0.0
251	0x00000000	0.0
252	0x00000000	0.0
253	0x00000000	0.0
254	0x00000000	0.0
255	0x00000000	0.0

x_f f4 [100, 1]
0	0x4093a7a5	4.6142144
1	0x3fdf0d97	1.7426022
2	0x4055a0d8	3.3379421
3	0x409c4b53	4.884195
4	0x4044597c	3.0679617
5	0x40b0b6ef	5.5223308
6	0x40ba23ad	5.816855
7	0x40c5eb9b	6.1850104
8	0x40921585	4.565127
9	0x3f99f023	1.2026409
10	0x40992714	4.7860203
11	0x3f108365	0.5645049
12	0x3feb9e94	1.8407769
13	0x3dfb53d1	0.12271846
14	0x409f6f92	4.9823694
15	0x40c2c75c	6.086836
16	0x40b6ff6e	5.7186804
17	0x402cc9a0	2.6998062
18	0x4021cac2	2.5280004
19	0x40c3906c	6.1113796
20	0x402e5bc0	2.72435
21	0x40af24cf	5.473243
22	0x3f8716a7	1.0553788
23	0x40c1fe4c	6.062292
24	0x3ee231d6	0.44178647
25	0x3f36365e	0.7117671
26	0x40864d97	4.1969714
27	0x40c846cb	6.2586417
28	0x40c4597c	6.1359234
29	0x40914c75	4.540583
30	0x40c5eb9b	6.1850104
31	0x4088a8c7	4.2706027
32	0x40af24cf	5.473243
33	0x40268121	2.6016314
34	0x408d5f26	4.417865
35	0x409d1463	4.9087386
36	0x40c06c2c	6.0132046
37	0x3ebc7edd	0.3681554
38	0x3efb53d1	0.49087384
39	0x40a68121	5.203263
40	0x405d7b77	3.4606607
41	0x3ee231d6	0.44178647
42	0x3fcf5859	1.6198837
43	0x4084bb77	4.147884
44	0x3fe87a55	1.8162333
45	0x409ea683	4.957826
46	0x405f0d97	3.4852045
47	0x4058c518	3.3870296
48	0x3f750b52	0.957204
49	0x4013a7a5	2.3071072
50	0x3f29a560	0.6626797
51	0x40a74a31	5.2278066
52	0x3cc90fdb	0.024543693
53	0x40c1fe4c	6.062292
54	0x401539c4	2.3316507
55	0x3ffb53d1	1.9634954
56	0x401539c4	2.3316507
57	0x3f2feddf	0.6872234
58	0x3fcc341a	1.59534
59	0x405a5737	3.4115732
60	0x40b3121f	5.595962
61	0x40b95a9e	5.7923117
62	0x3f8d5f26	1.1044662
63	0x406b9e94	3.6815538
64	0x3f6231d6	0.88357294
65	0x3fdbe957	1.7180585
66	0x401b8243	2.4298255
67	0x4066e835	3.6079228
68	0x3fe55615	1.7916895
69	0x3fcf5859	1.6198837
70	0x408971d6	4.295146
71	0x3ffe7811	1.9880391
72	0x40108365	2.2580197
73	0x402e5bc0	2.72435
74	0x3f490fdb	0.7853982
75	0x4003f267	2.06167
76	0x409ea683	4.957826
77	0x40a425f1	5.1296315
78	0x401b8243	2.4298255
79	0x40914c75	4.540583
80	0x406a0c75	3.6570103
81	0x3f55a0d8	0.83448553
82	0x406d30b4	3.7060976
83	0x3fe55615	1.7916895
84	0x40c2c75c	6.086836
85	0x409f6f92	4.9823694
86	0x409c4b53	4.884195
87	0x3f80ce28	1.0062914
88	0x40afeddf	5.497787
89	0x40baecbd	5.8413987
90	0x40864d97	4.1969714
91	0x4096cbe4	4.712389
92	0x3f6231d6	0.88357294
93	0x3f6ec2d4	0.93266034
94	0x3f9d1463	1.2271847
95	0x40b7c87e	5.743224
96	0x40b2490f	5.5714183
97	0x40c1353c	6.0377483
98	0x405be957	3.436117
99	0x3facc9a0	1.3499031

t_f f4 [100, 1]
0	0x3ec48677	0.3838384
1	0x3f51745d	0.8181818
2	0x3f090cee	0.53535354
3	0x3f4c4867	0.7979798
4	0x3e10cede	0.14141414
5	0x3f350296	0.7070707
6	0x3f2fd6a0	0.68686867
7	0x3f471c72	0.7777778
8	0x3f0ba2e9	0.54545456
9	0x3c257eb5	0.01010101
10	0x3f0e38e4	0.5555556
11	0x3f49b26d	0.7878788
12	0x3ede6243	0.43434343
13	0x3ede6243	0.43434343
14	0x3f7ad40a	0.97979796
15	0x3f800000	1.0
16	0x3f2d40a5	0.67676765
17	0x3f0676f3	0.5252525
18	0x3e9b26ca	0.3030303
19	0x3f540a58	0.82828283
20	0x3f7ad40a	0.97979796
21	0x3f22e8ba	0.6363636
22	0x3eafd6a0	0.34343433
23	0x3ea57eb5	0.32323232
24	0x3ef3121a	0.47474748
25	0x3f6b5029	0.9191919
26	0x3f0e38e4	0.5555556
27	0x3f471c72	0.7777778
28	0x3eba2e8c	0.36363637
29	0x3e638e39	0.22222222
30	0x3e90cede	0.28282827
31	0x3f638e39	0.8888889
32	0x3f68ba2f	0.90909094
33	0x3e1b26ca	0.15151516
34	0x3f2052bf	0.6262626
35	0x3d257eb5	0.04040404
36	0x3e1b26ca	0.15151516
37	0x3f60f83e	0.8787879
38	0x3f15fad4	0.5858586
39	0x3e814afd	0.25252524
40	0x3f4c4867	0.7979798
41	0x3ec48677	0.3838384
42	0x3ed9364e	0.42424244
43	0x3c257eb5	0.01010101
44	0x3e783e10	0.24242425
45	0x3f662434	0.8989899
46	0x3eba2e8c	0.36363637
47	0x3f707c1f	0.93939394
48	0x3f41f07c	0.75757575
49	0x3ea052bf	0.3131313
50	0x3d257eb5	0.04040404
51	0x3eafd6a0	0.34343433
52	0x3ee8ba2f	0.45454547
53	0x3f75a815	0.959596
54	0x3f75a815	0.959596
55	0x3ee8ba2f	0.45454547
56	0x3ee8ba2f	0.45454547
57	0x3f4ede62	0.8080808
58	0x3f0676f3	0.5252525
59	0x3f10cede	0.56565654
60	0x3f60f83e	0.8787879
61	0x3f3cc486	0.7373737
62	0x3d257eb5	0.04040404
63	0x3ef3121a	0.47474748
64	0x3f1364d9	0.57575756
65	0x3f10cede	0.56565654
66	0x3f2d40a5	0.67676765
67	0x3f7d6a05	0.989899
68	0x3f2fd6a0	0.68686867
69	0x3e59364e	0.21212122
70	0x3d4ede62	0.05050505
71	0x3e90cede	0.28282827
72	0x3e814afd	0.25252524
73	0x3f4ede62	0.8080808
74	0x3c257eb5	0.01010101
75	0x3ed40a58	0.41414142
76	0x3f783e10	0.969697
77	0x3f7ad40a	0.97979796
78	0x3e95fad4	0.2929293
79	0x3f03e0f8	0.5151515
80	0x3f56a053	0.83838385
81	0x3f73121a	0.94949496
82	0x3ef3121a	0.47474748
83	0x3f1890cf	0.5959596
84	0x3ec9b26d	0.3939394
85	0x3f2fd6a0	0.68686867
86	0x3f59364e	0.8484849
87	0x3ca57eb5	0.02020202
88	0x3f6b5029	0.9191919
89	0x3ef83e10	0.4848485
90	0x3e0676f3	0.13131313
91	0x3f1b26ca	0.6060606
92	0x3e814afd	0.25252524
93	0x3f783e10	0.969697
94	0x3eafd6a0	0.34343433
95	0x3f56a053	0.83838385
96	0x3ef83e10	0.4848485
97	0x3f4c4867	0.7979798
98	0x3f379891	0.7171717
99	0x3e9b26ca	0.3030303

x_bc_lb f4 [100, 1]
0	0x00000000	0.0
1	0x00000000	0.0
2	0x00000000	0.0
3	0x00000000	0.0
4	0x00000000	0.0
5	0x00000000	0.0
6	0x00000000	0.0
7	0x00000000	0.0
8	0x00000000	0.0
9	0x00000000	0.0
10	0x00000000	0.0
11	0x00000000	0.0
12	0x00000000	0.0
13	0x00000000	0.0
14	0x00000000	0.0
15	0x00000000	0.0
16	0x00000000	0.0
17	0x00000000	0.0
18	0x00000000	0.0
19	0x00000000	0.0
20	0x00000000	0.0
21	0x00000000	0.0
22	0x00000000	0.0
23	0x00000000	0.0
24	0x00000000	0.0
25	0x00000000	0.0
26	0x00000000	0.0
27	0x00000000	0.0
28	0x00000000	0.0
29	0x00000000	0.0
30	0x00000000	0.0
31	0x00000000	0.0
32	0x00000000	0.0
33	0x00000000	0.0
34	0x00000000	0.0
35	0x00000000	0.0
36	0x00000000	0.0
37	0x00000000	0.0
38	0x00000000	0.0
39	0x00000000	0.0
40	0x00000000	0.0
41	0x00000000	0.0
42	0x00000000	0.0
43	0x00000000	0.0
44	0x00000000	0.0
45	0x00000000	0.0
46	0x00000000	0.0
47	0x00000000	0.0
48	0x00000000	0.0
49	0x00000000	0.0
50	0x00000000	0.0
51	0x00000000	0.0
52	0x00000000	0.0
53	0x00000000	0.0
54	0x00000000	0.0
55	0x00000000	0.0
56	0x00000000	0.0
57	0x00000000	0.0
58	0x00000000	0.0
59	0x00000000	0.0
60	0x00000000	0.0
61	0x00000000	0.0
62	0x00000000	0.0
63	0x00000000	0.0
64	0x00000000	0.0
65	0x00000000	0.0
66	0x00000000	0.0
67	0x00000000	0.0
68	0x00000000	0.0
69	0x00000000	0.0
70	0x00000000	0.0
71	0x00000000	0.0
72	0x00000000	0.0
73	0x00000000	0.0
74	0x00000000	0.0
75	0x00000000	0.0
76	0x00000000	0.0
77	0x00000000	0.0
78	0x00000000	0.0
79	0x00000000	0.0
80	0x00000000	0.0
81	0x00000000	0.0
82	0x00000000	0.0
83	0x00000000	0.0
84	0x00000000	0.0
85	0x00000000	0.0
86	0x00000000	0.0
87	0x00000000	0.0
88	0x00000000	0.0
89	0x00000000	0.0
90	0x00000000	0.0
91	0x00000000	0.0
92	0x00000000	0.0
93	0x00000000	0.0
94	0x00000000	0.0
95	0x00000000	0.0
96	0x00000000	0.0
97	0x00000000	0.0
98	0x00000000	0.0
99	0x00000000	0.0

t_bc_lb f4 [100, 1]
0	0x00000000	0.0
1	0x3c257eb5	0.01010101
2	0x3ca57eb5	0.02020202
3	0x3cf83e10	0.030303031
4	0x3d257eb5	0.04040404
5	0x3d4ede62	0.05050505
6	0x3d783e10	0.060606062
7	0x3d90cede	0.07070707
8	0x3da57eb5	0.08080808
9	0x3dba2e8c	0.09090909
10	0x3dcede62	0.1010101
11	0x3de38e39	0.11111111
12	0x3df83e10	0.121212125
13	0x3e0676f3	0.13131313
14	0x3e10cede	0.14141414
15	0x3e1b26ca	0.15151516
16	0x3e257eb5	0.16161616
17	0x3e2fd6a0	0.17171717
18	0x3e3a2e8c	0.18181819
19	0x3e448677	0.1919192
20	0x3e4ede62	0.2020202
21	0x3e59364e	0.21212122
22	0x3e638e39	0.22222222
23	0x3e6de624	0.23232323
24	0x3e783e10	0.24242425
25	0x3e814afd	0.25252524
26	0x3e8676f3	0.26262626
27	0x3e8ba2e9	0.27272728
28	0x3e90cede	0.28282827
29	0x3e95fad4	0.2929293
30	0x3e9b26ca	0.3030303
31	0x3ea052bf	0.3131313
32	0x3ea57eb5	0.32323232
33	0x3eaaaaab	0.33333334
34	0x3eafd6a0	0.34343433
35	0x3eb50296	0.35353535
36	0x3eba2e8c	0.36363637
37	0x3ebf5a81	0.37373737
38	0x3ec48677	0.3838384
39	0x3ec9b26d	0.3939394
40	0x3ecede62	0.4040404
41	0x3ed40a58	0.41414142
42	0x3ed9364e	0.42424244
43	0x3ede6243	0.43434343
44	0x3ee38e39	0.44444445
45	0x3ee8ba2f	0.45454547
46	0x3eede624	0.46464646
47	0x3ef3121a	0.47474748
48	0x3ef83e10	0.4848485
49	0x3efd6a05	0.4949495
50	0x3f014afd	0.5050505
51	0x3f03e0f8	0.5151515
52	0x3f0676f3	0.5252525
53	0x3f090cee	0.53535354
54	0x3f0ba2e9	0.54545456
55	0x3f0e38e4	0.5555556
56	0x3f10cede	0.56565654
57	0x3f1364d9	0.57575756
58	0x3f15fad4	0.5858586
59	0x3f1890cf	0.5959596
60	0x3f1b26ca	0.6060606
61	0x3f1dbcc5	0.61616164
62	0x3f2052bf	0.6262626
63	0x3f22e8ba	0.6363636
64	0x3f257eb5	0.64646465
65	0x3f2814b0	0.65656567
66	0x3f2aaaab	0.6666667
67	0x3f2d40a5	0.67676765
68	0x3f2fd6a0	0.68686867
69	0x3f326c9b	0.6969697
70	0x3f350296	0.7070707
71	0x3f379891	0.7171717
72	0x3f3a2e8c	0.72727275
73	0x3f3cc486	0.7373737
74	0x3f3f5a81	0.74747473
75	0x3f41f07c	0.75757575
76	0x3f448677	0.7676768
77	0x3f471c72	0.7777778
78	0x3f49b26d	0.7878788
79	0x3f4c4867	0.7979798
80	0x3f4ede62	0.8080808
81	0x3f51745d	0.8181818
82	0x3f540a58	0.82828283
83	0x3f56a053	0.83838385
84	0x3f59364e	0.8484849
85	0x3f5bcc48	0.85858583
86	0x3f5e6243	0.86868685
87	0x3f60f83e	0.8787879
88	0x3f638e39	0.8888889
89	0x3f662434	0.8989899
90	0x3f68ba2f	0.90909094
91	0x3f6b5029	0.9191919
92	0x3f6de624	0.9292929
93	0x3f707c1f	0.93939394
94	0x3f73121a	0.94949496
95	0x3f75a815	0.959596
96	0x3f783e10	0.969697
97	0x3f7ad40a	0.97979796
98	0x3f7d6a05	0.989899
99	0x3f800000	1.0

x_bc_ub f4 [100, 1]
0	0x40c90fdb	6.2831855
1	0x40c90fdb	6.2831855
2	0x40c90fdb	6.2831855
3	0x40c90fdb	6.2831855
4	0x40c90fdb	6.2831855
5	0x40c90fdb	6.2831855
6	0x40c90fdb	6.2831855
7	0x40c90fdb	6.2831855
8	0x40c90fdb	6.2831855
9	0x40c90fdb	6.2831855
10	0x40c90fdb	6.2831855
11	0x40c90fdb	6.2831855
12	0x40c90fdb	6.2831855
13	0x40c90fdb	6.2831855
14	0x40c90fdb	6.2831855
15	0x40c90fdb	6.2831855
16	0x40c90fdb	6.2831855
17	0x40c90fdb	6.2831855
18	0x40c90fdb	6.2831855
19	0x40c90fdb	6.2831855
20	0x40c90fdb	6.2831855
21	0x40c90fdb	6.2831855
22	0x40c90fdb	6.2831855
23	0x40c90fdb	6.2831855
24	0x40c90fdb	6.2831855
25	0x40c90fdb	6.2831855
26	0x40c90fdb	6.2831855
27	0x40c90fdb	6.2831855
28	0x40c90fdb	6.2831855
29	0x40c90fdb	6.2831855
30	0x40c90fdb	6.2831855
31	0x40c90fdb	6.2831855
32	0x40c90fdb	6.2831855
33	0x40c90fdb	6.2831855
34	0x40c90fdb	6.2831855
35	0x40c90fdb	6.2831855
36	0x40c90fdb	6.2831855
37	0x40c90fdb	6.2831855
38	0x40c90fdb	6.2831855
39	0x40c90fdb	6.2831855
40	0x40c90fdb	6.2831855
41	0x40c90fdb	6.2831855
42	0x40c90fdb	6.2831855
43	0x40c90fdb	6.2831855
44	0x40c90fdb	6.2831855
45	0x40c90fdb	6.2831855
46	0x40c90fdb	6.2831855
47	0x40c90fdb	6.2831855
48	0x40c90fdb	6.2831855
49	0x40c90fdb	6.2831855
50	0x40c90fdb	6.2831855
51	0x40c90fdb	6.2831855
52	0x40c90fdb	6.2831855
53	0x40c90fdb	6.2831855
54	0x40c90fdb	6.2831855
55	0x40c90fdb	6.2831855
56	0x40c90fdb	6.2831855
57	0x40c90fdb	6.2831855
58	0x40c90fdb	6.2831855
59	0x40c90fdb	6.2831855
60	0x40c90fdb	6.2831855
61	0x40c90fdb	6.2831855
62	0x40c90fdb	6.2831855
63	0x40c90fdb	6.2831855
64	0x40c90fdb	6.2831855
65	0x40c90fdb	6.2831855
66	0x40c90fdb	6.2831855
67	0x40c90fdb	6.2831855
68	0x40c90fdb	6.2831855
69	0x40c90fdb	6.2831855
70	0x40c90fdb	6.2831855
71	0x40c90fdb	6.2831855
72	0x40c90fdb	6.2831855
73	0x40c90fdb	6.2831855
74	0x40c90fdb	6.2831855
75	0x40c90fdb	6.2831855
76	0x40c90fdb	6.2831855
77	0x40c90fdb	6.2831855
78	0x40c90fdb	6.2831855
79	0x40c90fdb	6.2831855
80	0x40c90fdb	6.2831855
81	0x40c90fdb	6.2831855
82	0x40c90fdb	6.2831855
83	0x40c90fdb	6.2831855
84	0x40c90fdb	6.2831855
85	0x40c90fdb	6.2831855
86	0x40c90fdb	6.2831855
87	0x40c90fdb	6.2831855
88	0x40c90fdb	6.2831855
89	0x40c90fdb	6.2831855
90	0x40c90fdb	6.2831855
91	0x40c90fdb	6.2831855
92	0x40c90fdb	6.2831855
93	0x40c90fdb	6.2831855
94	0x40c90fdb	6.2831855
95	0x40c90fdb	6.2831855
96	0x40c90fdb	6.2831855
97	0x40c90fdb	6.2831855
98	0x40c90fdb	6.2831855
99	0x40c90fdb	6.2831855

t_bc_ub f4 [100, 1]
0	0x00000000	0.0
1	0x3c257eb5	0.01010101
2	0x3ca57eb5	0.02020202
3	0x3cf83e10	0.030303031
4	0x3d257eb5	0.04040404
5	0x3d4ede62	0.05050505
6	0x3d783e10	0.060606062
7	0x3d90cede	0.07070707
8	0x3da57eb5	0.08080808
9	0x3dba2e8c	0.09090909
10	0x3dcede62	0.1010101
11	0x3de38e39	0.11111111
12	0x3df83e10	0.121212125
13	0x3e0676f3	0.13131313
14	0x3e10cede	0.14141414
15	0x3e1b26ca	0.15151516
16	0x3e257eb5	0.16161616
17	0x3e2fd6a0	0.17171717
18	0x3e3a2e8c	0.18181819
19	0x3e448677	0.1919192
20	0x3e4ede62	0.2020202
21	0x3e59364e	0.21212122
22	0x3e638e39	0.22222222
23	0x3e6de624	0.23232323
24	0x3e783e10	0.24242425
25	0x3e814afd	0.25252524
26	0x3e8676f3	0.26262626
27	0x3e8ba2e9	0.27272728
28	0x3e90cede	0.28282827
29	0x3e95fad4	0.2929293
30	0x3e9b26ca	0.3030303
31	0x3ea052bf	0.3131313
32	0x3ea57eb5	0.32323232
33	0x3eaaaaab	0.33333334
34	0x3eafd6a0	0.34343433
35	0x3eb50296	0.35353535
36	0x3eba2e8c	0.36363637
37	0x3ebf5a81	0.37373737
38	0x3ec48677	0.3838384
39	0x3ec9b26d	0.3939394
40	0x3ecede62	0.4040404
41	0x3ed40a58	0.41414142
42	0x3ed9364e	0.42424244
43	0x3ede6243	0.43434343
44	0x3ee38e39	0.44444445
45	0x3ee8ba2f	0.45454547
46	0x3eede624	0.46464646
47	0x3ef3121a	0.47474748
48	0x3ef83e10	0.4848485
49	0x3efd6a05	0.4949495
50	0x3f014afd	0.5050505
51	0x3f03e0f8	0.5151515
52	0x3f0676f3	0.5252525
53	0x3f090cee	0.53535354
54	0x3f0ba2e9	0.54545456
55	0x3f0e38e4	0.5555556
56	0x3f10cede	0.56565654
57	0x3f1364d9	0.57575756
58	0x3f15fad4	0.5858586
59	0x3f1890cf	0.5959596
60	0x3f1b26ca	0.6060606
61	0x3f1dbcc5	0.61616164
62	0x3f2052bf	0.6262626
63	0x3f22e8ba	0.6363636
64	0x3f257eb5	0.64646465
65	0x3f2814b0	0.65656567
66	0x3f2aaaab	0.6666667
67	0x3f2d40a5	0.67676765
68	0x3f2fd6a0	0.68686867
69	0x3f326c9b	0.6969697
70	0x3f350296	0.7070707
71	0x3f379891	0.7171717
72	0x3f3a2e8c	0.72727275
73	0x3f3cc486	0.7373737
74	0x3f3f5a81	0.74747473
75	0x3f41f07c	0.75757575
76	0x3f448677	0.7676768
77	0x3f471c72	0.7777778
78	0x3f49b26d	0.7878788
79	0x3f4c4867	0.7979798
80	0x3f4ede62	0.8080808
81	0x3f51745d	0.8181818
82	0x3f540a58	0.82828283
83	0x3f56a053	0.83838385
84	0x3f59364e	0.8484849
85	0x3f5bcc48	0.85858583
86	0x3f5e6243	0.86868685
87	0x3f60f83e	0.8787879
88	0x3f638e39	0.8888889
89	0x3f662434	0.8989899
90	0x3f68ba2f	0.90909094
91	0x3f6b5029	0.9191919
92	0x3f6de624	0.9292929
93	0x3f707c1f	0.93939394
94	0x3f73121a	0.94949496
95	0x3f75a815	0.959596
96	0x3f783e10	0.969697
97	0x3f7ad40a	0.97979796
98	0x3f7d6a05	0.989899
99	0x3f800000	1.0

weight f4 [50, 2]
0	0x3e0710b3	0.13189964
1	0xbdedc450	-0.11609709
2	0x3d217a8b	0.039423507
3	0x3de52b09	0.11189849
4	0x3f0b4e3d	0.5441626
5	0xbe829c31	-0.2550979
6	0xbd4effca	-0.05053691
7	0x3d682bd7	0.056682434
8	0xbd51f52a	-0.051259197
9	0x3bfe20f2	0.007755392
10	0xbe8ceffa	-0.27526838
11	0x3e63ab19	0.22233237
12	0x3dcd4044	0.10022023
13	0x3ca6854c	0.020327233
14	0xbe62f958	-0.2216543
15	0xbe750180	-0.23926353
16	0x3deb32f6	0.114843294
17	0x3d9fe678	0.0780763
18	0x3df89a25	0.12138776
19	0xbe887a78	-0.26655936
20	0xbed85f7a	-0.42260343
21	0x3d16e403	0.036838543
22	0x3e81080b	0.2520145
23	0xbdf3e706	-0.119092986
24	0xbe7e929f	-0.24860619
25	0xbed9abff	-0.42514035
26	0xbd69e8ae	-0.057106666
27	0x3cc70329	0.024293499
28	0x3db29ecf	0.087216966
29	0x3dc4bfe2	0.09606911
30	0xbddb2a80	-0.107014656
31	0x3c5c4ccd	0.013446045
32	0xbe22cbc1	-0.15898038
33	0xbe6812de	-0.22663447
34	0xbea8d1a4	-0.32972443
35	0x3e0b5365	0.13606031
36	0xbd35b775	-0.04436441
37	0x3e5b64b1	0.2142513
38	0xbec21dfe	-0.37913507
39	0x3e5db34e	0.2165043
40	0x3e046dec	0.12932557
41	0xbdbc1b63	-0.09184911
42	0x3df35b5c	0.1188266
43	0xbe164417	-0.14674412
44	0x3db21a82	0.08696462
45	0x3c9a3b86	0.018827211
46	0x3db6e1a5	0.08929757
47	0xbe4e2411	-0.20130946
48	0xbd2ff6b2	-0.042959876
49	0x3e118ae7	0.14213143
50	0x3edc21d8	0.4299457
51	0xbe3141b5	-0.17310221
52	0xbe064036	-0.13110432
53	0x3e980b04	0.29695904
54	0xbdb1be88	-0.08678919
55	0x3dd9cc40	0.10634661
56	0x3e8b4309	0.2719958
57	0xbd626dea	-0.055280603
58	0x3d71c6bc	0.05902742
59	0xbdce5b0b	-0.10075959
60	0xbd005938	-0.031335086
61	0x3e51e901	0.2049904
62	0xbe82adc4	-0.25523198
63	0x3d8e7412	0.069557324
64	0x3e21f743	0.15816979
65	0xbd7d7767	-0.06188145
66	0xbed2d68e	-0.41179317
67	0xbe2ad3cb	-0.16682355
68	0x3d4636f1	0.04839224
69	0xbe686db1	-0.22698094
70	0xbef5caf8	-0.48006415
71	0xbd8c14a0	-0.068398714
72	0xbdd751f8	-0.10513681
73	0xbe51d9a2	-0.20493177
74	0x3de12113	0.109926365
75	0x3d044875	0.032295663
76	0xbc9f625e	-0.019456085
77	0x3c49bf7d	0.012313721
78	0xbe2a3d2d	-0.16624899
79	0xbd16fc00	-0.03686142
80	0xbd83cd33	-0.06435623
81	0x3c17bfd8	0.009262048
82	0x3debe6a9	0.11518604
83	0xbac8ffb6	-0.0015334997
84	0x3e06631b	0.13123743
85	0xbe5f72ab	-0.21821086
86	0x3f044d0b	0.5168006
87	0xbd77b4bc	-0.060475096
88	0x3e2c5c98	0.16832197
89	0x3e226a98	0.15860975
90	0xbdd0bc32	-0.101921454
91	0xbf078692	-0.52939713
92	0x3cf8373a	0.030299772
93	0xbe9b79d1	-0.30366376
94	0x3e1ce5b2	0.15321997
95	0xbeaf9993	-0.34296855
96	0xbe2517dc	-0.16122383
97	0xbe3271ce	-0.17426226
98	0x3e20c2f3	0.15699367
99	0xbe06b5f8	-0.13155353

bias f4 [50]
0	0xbd789f1d	-0.060698617
1	0xbd0b85e2	-0.034063227
2	0xbc66fe8b	-0.014098774
3	0x3ae51243	0.0017476756
4	0x3ca47e78	0.020079836
5	0x3d8bdcfa	0.06829257
6	0xbe0dcf7e	-0.13848683
7	0xbc1c1506	-0.009526497
8	0xbce3cf2d	-0.02780875
9	0x3ca30f65	0.019904802
10	0xbc284386	-0.010270005
11	0xbda8fd4e	-0.08251439
12	0x3d61c04f	0.05511504
13	0x3c27c37d	0.010239479
14	0x3c1fba9d	0.009749082
15	0x3d79fd64	0.061032668
16	0xbd0b2fcc	-0.03398113
17	0x3c552f52	0.01301177
18	0x3daf8757	0.08570736
19	0xbc962b5d	-0.018331224
20	0xbd6257c9	-0.0552595
21	0xbda75a83	-0.081715606
22	0x3c9d1bd2	0.019178305
23	0xbd984ce3	-0.0743654
24	0x3ce6e3e4	0.028184839
25	0x3b934ec4	0.0044954736
26	0x3dabaf1e	0.0838301
27	0x3b56f3f0	0.0032799207
28	0xbd4e6335	-0.05038758
29	0xbdbb248e	-0.09137832
30	0x3d11096e	0.035409383
31	0x3cbc8132	0.023010824
32	0xbe01d585	-0.12679107
33	0xbd4b9036	-0.049698077
34	0x3b664e3a	0.0035141842
35	0xbc30a075	-0.010780443
36	0x3c1dfccd	0.009642792
37	0xbd766833	-0.060157966
38	0xbb8b3b65	-0.0042490237
39	0x3ceb56c9	0.028727906
40	0x3c93032c	0.017945848
41	0xbde8a8cd	-0.11360321
42	0xbd219f5f	-0.03945863
43	0x3d58b0bf	0.052902933
44	0xbdb47f60	-0.08813357
45	0x3dbc1203	0.09183123
46	0xbccf7b7e	-0.02532744
47	0xbca1bf5d	-0.01974457
48	0x3dcb1369	0.099158116
49	0xbd7021cc	-0.05862598

weight f4 [50, 50]
0	0x3e100852	0.14065674
1	0xbe0b410e	-0.13599035
2	0xbeb5b9ef	-0.3549342
3	0x3e13e889	0.14444174
4	0xbced4718	-0.028964564
5	0xbd69221f	-0.056917306
6	0xbe5825d9	-0.21108188
7	0x3d9aa0e5	0.075502194
8	0x3db2354c	0.08701572
9	0x3dab28fa	0.08357425
10	0x3dc37005	0.095428504
11	0xbe7df880	-0.24801826
12	0xbe77eb1a	-0.24210778
13	0xbd86a30b	-0.06574067
14	0x3e3fa67f	0.18715857
15	0xbd283f48	-0.041075975
16	0xbe83ca1e	-0.2574014
17	0xbd0f68b8	-0.035011977
18	0x3e2d55cc	0.1692726
19	0xbe4e6592	-0.20155933
20	0x3ca01357	0.019540472
21	0x3d057e72	0.03259129
22	0x3e053e4a	0.13012043
23	0x3d67f449	0.056629453
24	0x3ea72520	0.32645512
25	0x3d68b877	0.056816544
26	0x3eac38ca	0.33637077
27	0x3d6c5b27	0.057704117
28	0x3e5ba577	0.21449839
29	0xbeadd857	-0.33954117
30	0x3e7db0c3	0.2477446
31	0xbd9a57ab	-0.075362526
32	0xbd2517b0	-0.040305793
33	0xbe802d08	-0.25034356
34	0x3de76405	0.11298374
35	0x3c724676	0.014787307
36	0x3e708131	0.23486783
37	0xbc513a0d	-0.012770188
38	0xbc8cda29	-0.01719387
39	0x3db9b036	0.09066813
40	0x3da3d643	0.079998516
41	0xbe822e55	-0.25425974
42	0xbe05d67f	-0.13070105
43	0x3c9e590f	0.019329576
44	0xbc852a6f	-0.016255585
45	0x3def52a1	0.11685682
46	0xbc9079aa	-0.017636139
47	0xbe2a5d67	-0.16637193
48	0x3d9f0293	0.07764163
49	0xbdeb3b4e	-0.11485921
50	0xbe0d3a53	-0.1379178
51	0xbe04d8f0	-0.1297338
52	0xbdbe3bf5	-0.0928878
53	0xbdb4976a	-0.088179424
54	0x3d6b4724	0.05744089
55	0xbd0b52bc	-0.03401445
56	0x3db5f122	0.08883883
57	0xbcdca3dd	-0.026933605
58	0x3c8345ad	0.016024435
59	0x3e358871	0.1772783
60	0xbe079fb9	-0.13244523
61	0xbeb11859	-0.34588888
62	0x3e5d1ac1	0.21592237
63	0x3cda20c2	0.026626948
64	0xbdd20405	-0.10254673
65	0x3e07b96c	0.13254327
66	0x3be39c74	0.006946141
67	0x3e72be52	0.23705414
68	0xbe3a00db	-0.18164389
69	0x3cdcde1a	0.026961375
70	0x3ce227f6	0.027606945
71	0x3e11e652	0.14248016
72	0xbe4096b3	-0.18807487
73	0x3e380cec	0.1797368
74	0x3e1f4538	0.15553749
75	0x3cdcdcfa	0.026960839
76	0xbdf46626	-0.11933546
77	0xbce0523a	-0.027382959
78	0xbc521cef	-0.012824281
79	0x3dc53008	0.09628302
80	0xbd063153	-0.032761883
81	0xbc4a4645	-0.012345855
82	0x391cdaeb	0.00014958873
83	0xbe85126c	-0.25990617
84	0xbe52c785	-0.20583923
85	0xbe0f3627	-0.13985501
86	0xbdd60bf4	-0.10451499
87	0xbe0d508b	-0.13800256
88	0xbe957b4b	-0.29195628
89	0xbdf200a4	-0.118165284
90	0x3d5049b4	0.05085154
91	0xbce2d248	-0.02768816
92	0xbe784a0d	-0.24246998
93	0xbd9e87af	-0.07740723
94	0xbda32428	-0.07965881
95	0xbdf3935b	-0.1189334
96	0x3e49f1b9	0.19721116
97	0xbe707447	-0.23481856
98	0x3dd4f183	0.10397627
99	0x3e676055	0.22595342
100	0xbddd96bc	-0.10819766
101	0x3c8d1cc3	0.017225629
102	0xbda056ac	-0.07829031
103	0x3d46d26e	0.048540525
104	0x3c4695b1	0.01212065
105	0x3d722b22	0.059123166
106	0xbcbabf06	-0.022796165
107	0x3e5b8734	0.21438295
108	0xbdb5be9b	-0.08874246
109	0x3d2591ad	0.04042213
110	0xbe8341be	-0.25636095
111	0xbd9ce08b	-0.07660016
112	0x3def8755	0.116957344
113	0xbd1ec37e	-0.038760655
114	0x3d836f53	0.06417718
115	0x3d7c767a	0.061636426
116	0xbdf1154d	-0.11771641
117	0x3dd74f46	0.10513167
118	0x3e2d062f	0.1689689
119	0x3d279c0c	0.040920302
120	0x3dae1baa	0.0850137
121	0xbcb2f84e	-0.021846917
122	0x3c5ce0bf	0.013481318
123	0xbe01e1fa	-0.1268386
124	0x3cf344cc	0.02969589
125	0xbcac4bf7	-0.021032317
126	0xbe126a47	-0.14298354
127	0x3e44b14d	0.1920826
128	0x3e8e190e	0.2775349
129	0xbdbb399b	-0.09141847
130	0x3ce483fe	0.02789497
131	0xbe3271e8	-0.17426264
132	0x3d2d3968	0.042291075
133	0x3d51dc37	0.051235404
134	0x3d45b642	0.048269518
135	0x3dc27307	0.09494596
136	0x3de4db6e	0.111746654
137	0xbccfbb2b	-0.025357803
138	0x3cb939ec	0.022610627
139	0x3e546de2	0.20745042
140	0xbdb92a1c	-0.09041235
141	0x3d3763a6	0.044772767
142	0xbd9858c5	-0.074388064
143	0xbb453ce1	-0.00300961
144	0x3d9b1e3e	0.075741276
145	0x3e264be6	0.1623989
146	0x3d580dab	0.05274741
147	0xbeafb364	-0.34316552
148	0x3d01f77a	0.031730153
149	0x3e1b56bd	0.15169807
150	0xbe5446a1	-0.20730068
151	0x3d445ba0	0.047938943
152	0x3e105a1e	0.14096877
153	0xbd340b6a	-0.043956198
154	0xbc947ab1	-0.01812491
155	0x3e02a6e2	0.12758973
156	0x3ea9c21f	0.33155915
157	0x3d10b8e4	0.035332575
158	0xbded271a	-0.11579724
159	0x3d6c8728	0.057746083
160	0xbdea11cc	-0.11429176
161	0xbc44d881	-0.012014509
162	0x3e07090a	0.13187042
163	0xbd0352fa	-0.032061554
164	0x3cdd9e86	0.027053129
165	0x3dc0a0f2	0.09405698
166	0x3cd2934b	0.025705
167	0xbc68eb25	-0.014216219
168	0xbe220dbe	-0.15825555
169	0x3e01c0a3	0.12671141
170	0xbe2ad298	-0.16681898
171	0x3e4bc2fc	0.198986
172	0x3b561610	0.003266696
173	0x3ea9676f	0.33086726
174	0x3e6b3370	0.2296884
175	0xbd89b1d1	-0.06723369
176	0x3d2ac043	0.04168726
177	0x3db88cc6	0.090112254
178	0x3ddfdc9b	0.10930749
179	0x3e89ab25	0.26888385
180	0xbd81d30e	-0.063390836
181	0x3db6b3bf	0.089210026
182	0xbe2e86a2	-0.17043546
183	0xbe39bf3c	-0.18139356
184	0xbe37a817	-0.17935215
185	0xbcbdfec5	-0.023192773
186	0xbe8d29a6	-0.27570838
187	0x3b0238ff	0.0019870398
188	0x3e502e7d	0.20330234
189	0x3d4129d1	0.04715902
190	0xbe028562	-0.12746194
191	0x3cdab8a1	0.026699366
192	0xbe08bbd0	-0.13352895
193	0x3d6d6e90	0.05796677
194	0x3e23c63c	0.15993589
195	0xbe4371ea	-0.19086424
196	0xbd05efda	-0.032699443
197	0x3dd168be	0.10225056
198	0xbde8405a	-0.11340399
199	0x3e15bd64	0.14623028
200	0x3d48f3e3	0.049060713
201	0xbd2967c2	-0.041358717
202	0x3d89a690	0.067212224
203	0x3c6c895d	0.014437047
204	0x3e80f059	0.2518337
205	0xbe589c58	-0.2115339
206	0x3e10b48a	0.1413137
207	0x3e6f6fc3	0.23382477
208	0xbccc18ec	-0.024914227
209	0xbe17a048	-0.14807236
210	0x3e783cc3	0.24241929
211	0xbe622acd	-0.2208664
212	0x3b8e45db	0.0043418235
213	0xbdb02a81	-0.08601857
214	0x3cdee8e8	0.027210668
215	0xbd591382	-0.05299712
216	0xbe13e3da	-0.14442387
217	0x3d836ce6	0.06417255
218	0xbd7ed77c	-0.06221722
219	0xbdc21768	-0.09477121
220	0xbd303a9d	-0.043024648
221	0x3da29dfb	0.07940289
222	0xbdd5c725	-0.104383744
223	0xbe2d19ce	-0.16904375
224	0x3df90df6	0.12160866
225	0x3d554923	0.0520717
226	0xbde5a5ef	-0.1121329
227	0x3e0d0f18	0.13775289
228	0xbc940ea4	-0.018073387
229	0x3ddfa0af	0.1091932
230	0xbcde5b59	-0.027143167
231	0xbe4fbc01	-0.20286562
232	0xbdf4f504	-0.119607955
233	0x3e168a59	0.14701213
234	0xbe47dc3a	-0.19517604
235	0x3dd4af7d	0.10385034
236	0xbdb1cdbe	-0.0868182
237	0x3cd02413	0.025407827
238	0x3da4b976	0.08043186
239	0x3bcd746b	0.0062699816
240	0xbdd815f9	-0.10551066
241	0xbe7e0a61	-0.24808647
242	0xbd2adb7b	-0.04171322
243	0x3e141373	0.14460544
244	0xbe3ac86d	-0.18240519
245	0x3dea1cdc	0.11431286
246	0x3cb036da	0.02151053
247	0x3dc7e9d8	0.09761399
248	0x3dd3aa14	0.10335174
249	0x3c710602	0.014710905
250	0xbdd83022	-0.105560556
251	0xbe29bb7a	-0.16575423
252	0xbdf34680	-0.11878681
253	0x3e24d4fb	0.1609687
254	0xbbb548ab	-0.0055323443
255	0xbd15a459	-0.036533687

bias f4 [50]
0	0x3d5c243d	0.053745497
1	0x3bcb7b27	0.0062097493
2	0x3bfd6f1a	0.0077341916
3	0xbd04ab1c	-0.032389745
4	0x3c85f266	0.016350936
5	0xbc452d1b	-0.01203468
6	0x3c8f0066	0.017456245
7	0xbb36f068	-0.002791429
8	0x3c9303e9	0.0179462
9	0xbd1988cc	-0.037483975
10	0x3cd08293	0.025452888
11	0x3c5cb3e5	0.013470625
12	0x3b269c0c	0.00254226
13	0x3c994bec	0.01871296
14	0xbcb4b761	-0.022060098
15	0xbca5b531	-0.020228
16	0x3d29b3ee	0.04143136
17	0xbd023f2f	-0.031798538
18	0x3b8dea36	0.0043308986
19	0x3ccfa8d7	0.025349064
20	0x3d3b567a	0.045736767
21	0x3cfed9dd	0.031109745
22	0xbd9abc82	-0.07555486
23	0x395df04a	0.00021165717
24	0x3ba34a74	0.0049832407
25	0x3d9dad48	0.076990664
26	0xbde3895c	-0.111101836
27	0xbd0f3c6b	-0.03496973
28	0xbd19914e	-0.03749209
29	0x3ba64939	0.005074647
30	0xbd952330	-0.07282102
31	0x3c40e63f	0.011773645
32	0xbc16a336	-0.009194186
33	0xbcd6d98f	-0.026226787
34	0x3d3ac4f4	0.045597985
35	0x3cf15e6e	0.029463973
36	0x3d0ac314	0.033877447
37	0x3d74b267	0.05974045
38	0x3cc0c0fe	0.023529526
39	0x3c1e8a2a	0.009676496
40	0xbbccb465	-0.0062470906
41	0xbd0996de	-0.033591144
42	0xbba8dbe3	-0.0051531657
43	0x3ca35c45	0.019941458
44	0xbc1c0786	-0.009523278
45	0x3c177d21	0.009246142
46	0x3c1c007c	0.0095216
47	0xb8318c1d	-4.233058e-05
48	0x3cca82f6	0.02472065
49	0xbc517944	-0.01278526

weight f4 [50, 50]
0	0xbe8d252f	-0.2756743
1	0x3de63da5	0.112422265
2	0xbdb3e57c	-0.08784005
3	0xbe0c3f91	-0.13696124
4	0xbda710d2	-0.08157505
5	0x3eadfd76	0.33982438
6	0x3dba48f2	0.090959445
7	0x3d2da2fc	0.042391762
8	0xbe5a88ba	-0.2134122
9	0xbe10b2f3	-0.14130764
10	0x3e9372d2	0.28798538
11	0xbe540a7b	-0.20707123
12	0x3d122a7b	0.035685044
13	0x3e3495b9	0.1763524
14	0xbe17c8f4	-0.14822751
15	0x3ec5152f	0.38492724
16	0xbdeb43e2	-0.11487557
17	0xbe4bd8e3	-0.19906954
18	0x3b62ae5c	0.003458879
19	0x3e6ca375	0.23109229
20	0x3de7432a	0.112921074
21	0xbe05d8b2	-0.13070944
22	0x3d57f37a	0.05272243
23	0xbc269975	-0.010168423
24	0xbc2bc2de	-0.010483472
25	0x3e26dcdc	0.16295189
26	0xbd0d4146	-0.034486078
27	0xbe3a5e0d	-0.1819994
28	0x3e4e5f35	0.20153506
29	0x3df2cbfd	0.11855314
30	0x3d3faf64	0.046798125
31	0x3c2cbd37	0.010543159
32	0x3e5320fc	0.20618051
33	0xbd66114d	-0.056168843
34	0xbe39e2cd	-0.18152924
35	0xbd7001b4	-0.058595374
36	0xbd3b8e8a	-0.045790233
37	0x3dbe583c	0.09294173
38	0x3e1e9fe3	0.1549068
39	0x3eabcd94	0.3355528
40	0x3dac1a68	0.08403474
41	0x3dfc0780	0.12306118
42	0x3e1b0cd6	0.15141615
43	0xbe71f93f	-0.23630236
44	0x3de2528c	0.11050901
45	0x3eb04442	0.34427077
46	0xbe1960df	-0.1497836
47	0xbe279ee7	-0.1636921
48	0xbe9a8358	-0.30178332
49	0x3dcee2d6	0.10101859
50	0xbe814aec	-0.25252473
51	0xbc3908ac	-0.011293571
52	0xbded42ef	-0.11585032
53	0x3da57be6	0.080802724
54	0x3c4395e9	0.011937597
55	0x3dc6feec	0.09716591
56	0xbe9b086e	-0.3027987
57	0x3e7fede7	0.24993096
58	0x3e14c91d	0.14529844
59	0x3d9462be	0.07245396
60	0x3e0d62d0	0.13807225
61	0x3de524d3	0.11188664
62	0x3e132d36	0.14372715
63	0x3e1c07d1	0.15237357
64	0xbd657e5b	-0.056028705
65	0x3dc99f62	0.09844853
66	0x3d5908e6	0.052987
67	0xbcac3d0c	-0.021025203
68	0x3e1189af	0.14212678
69	0x3d15fd41	0.036618475
70	0x3e8c32d1	0.2738252
71	0xbe27ec99	-0.16398849
72	0x3cc3a982	0.023884539
73	0xbe0f69c3	-0.14005189
74	0x3d2f4c5f	0.042797443
75	0xbd274ca5	-0.04084458
76	0xbe744db0	-0.2385776
77	0xbcaed335	-0.021340946
78	0x3dabeb5d	0.08394501
79	0xbca5a933	-0.020222282
80	0xbe1dce72	-0.15410784
81	0x3b8f22b1	0.004368149
82	0xbd468c1c	-0.048473462
83	0x3ddf07e4	0.10890177
84	0x3e511bc7	0.20420752
85	0xbda629d9	-0.081134506
86	0x3dbf9d97	0.0935623
87	0xbccd137a	-0.025033701
88	0xbdd14b7e	-0.10219477
89	0xbde8d9cf	-0.11369669
90	0xbe85e731	-0.26152948
91	0xbddc50d6	-0.10757606
92	0x3e487601	0.19576265
93	0xbd65f175	-0.056138474
94	0xbe10250e	-0.14076635
95	0x3e823ff6	0.25439423
96	0x3d2f2fef	0.042770322
97	0xbe93bb88	-0.28854012
98	0xbd243ccd	-0.040097047
99	0x3d7cfff2	0.061767526
100	0x3dea1213	0.11429229
101	0x3e5ce909	0.21573271
102	0xbc95c3d1	-0.01828185
103	0x3ca7028a	0.020386953
104	0xbd82bb21	-0.06383348
105	0xbea2b782	-0.3178063
106	0xb9bce4f1	-0.0003602873
107	0x3d10f2c2	0.035387762
108	0xbd0e3b4d	-0.034724522
109	0x3e1967c7	0.14980994
110	0x3e313217	0.17304264
111	0x3d255868	0.040367514
112	0x3e724670	0.23659682
113	0x3dd404a5	0.103524484
114	0x3daf4511	0.08558095
115	0x3ddf97ec	0.10917649
116	0x3d57352e	0.05254095
117	0x3e1991fd	0.14997096
118	0x3dbf15b5	0.09330312
119	0x3e0e276d	0.13882227
120	0x3e08e7ef	0.13369726
121	0x3e47e88e	0.19522306
122	0xbd44fa8c	-0.048090503
123	0x3e897ae6	0.26851577
124	0xbe54cffc	-0.20782465
125	0xbddd268b	-0.10798367
126	0xbdfad670	-0.12247932
127	0xbdcb57cb	-0.099288546
128	0xbe994647	-0.2993643
129	0x3e16995e	0.14706942
130	0xbe3529de	-0.17691752
131	0x3e01c078	0.12671077
132	0xbcc7ebe1	-0.024404468
133	0xbdfaf503	-0.122537635
134	0xbe40adee	-0.18816349
135	0x3c843c00	0.016141891
136	0x3e7d8b1d	0.24760099
137	0xbe22287f	-0.1583576
138	0xbdc55140	-0.09634638
139	0xbd336888	-0.04380086
140	0xbd348c68	-0.044079214
141	0xbe201617	-0.15633427
142	0x3da4b660	0.08042598
143	0xbe82812b	-0.25489172
144	0xbd9be6d3	-0.076123856
145	0xbe474af2	-0.19462183
146	0x3e81515f	0.25257394
147	0xbe095969	-0.13413014
148	0x3e52b239	0.20575799
149	0xbe56be63	-0.20971064
150	0xbe9aa40c	-0.30203283
151	0x3e36ea22	0.17862752
152	0x3d98e4f7	0.074655466
153	0x3e264655	0.16237767
154	0x3b000d66	0.0019539236
155	0x3c86118f	0.016365794
156	0xbc38d0a4	-0.011280213
157	0xbe1d7130	-0.15375209
158	0xbe0f6dd8	-0.14006746
159	0xbd243ba4	-0.04009594
160	0xbd7cdef8	-0.061736077
161	0xbe067f13	-0.13134412
162	0x3e1017e2	0.1407161
163	0xbe13a7bc	-0.14419454
164	0xbda964e2	-0.08271195
165	0x3e188500	0.14894485
166	0x3c9167e9	0.017749744
167	0x3e2f015d	0.17090364
168	0xbe14eea0	-0.14544153
169	0xbd952b17	-0.07283609
170	0xbdf073a2	-0.11740805
171	0x3cab5c38	0.020917997
172	0xbd65f075	-0.05613752
173	0x3df7a011	0.12091077
174	0xbde0bc53	-0.1097342
175	0xbdc009af	-0.09376847
176	0x3de4e262	0.111759916
177	0xbdcef6fe	-0.10105704
178	0x3d22c2e9	0.039736662
179	0xbcfabb6c	-0.030606948
180	0x3d9f61c4	0.07782319
181	0xbe86b57c	-0.26310337
182	0x3d73ee39	0.05955336
183	0x3e96e4e1	0.29471496
184	0xbe598aa1	-0.21244289
185	0x3ce9f2bf	0.028558133
186	0xbe498ec0	-0.19683361
187	0x3c658d37	0.014010719
188	0x3dd322ef	0.103093974
189	0x3e4ec433	0.20192032
190	0x3e6a7206	0.22895059
191	0xbd0e7ab6	-0.034784995
192	0xbd772d01	-0.060345653
193	0xbe9eb8ed	-0.31000462
194	0x3e1acc45	0.15116985
195	0xbe7e2153	-0.248174
196	0x3e32895c	0.17435211
197	0xbced653b	-0.028978935
198	0xbd1a3c47	-0.03765514
199	0xbe2e2d99	-0.17009582
200	0x3d16c9d4	0.036813572
201	0xbdd93e57	-0.106075935
202	0xbdc99c7a	-0.09844299
203	0x3d2bd47f	0.0419507
204	0xbe7ddf5f	-0.2479224
205	0x3db8360e	0.08994685
206	0xbd3c03c0	-0.045902014
207	0xbc293142	-0.010326685
208	0x3d75f9cf	0.06005269
209	0x3d6b2f60	0.057418227
210	0xbe02cbf9	-0.12773122
211	0xbdca4ffb	-0.09878536
212	0xbe6c203c	-0.23059171
213	0x3e2c4271	0.1682222
214	0x3dd1b400	0.102394104
215	0xbddcb524	-0.10776737
216	0x3e0b3678	0.13594997
217	0xbe09e134	-0.13464814
218	0x3e57f006	0.21087655
219	0xbc8654a0	-0.016397774
220	0x3e99303a	0.29919606
221	0x3d93d91c	0.07219145
222	0xbea26eaa	-0.31725055
223	0x3dc3e33f	0.09564828
224	0x3e4843f5	0.19557174
225	0xbd861b5c	-0.06548187
226	0xbe94a3e8	-0.290313
227	0x3e85d8d0	0.26141977
228	0x3e0e1aee	0.1387746
229	0x3dd5cf4d	0.1043993
230	0x3c95466e	0.01822206
231	0x3d505e05	0.050870914
232	0xbe1eda13	-0.15512876
233	0xbe73257f	-0.23744772
234	0xbc80bf0a	-0.015716095
235	0x3dbc2e4d	0.09188519
236	0x3df5e6b9	0.120068975
237	0x3dd220cf	0.10260164
238	0xbe56d963	-0.20981364
239	0xbe2fc3f9	-0.17164601
240	0xbd51c401	-0.051212315
241	0xbc0437b9	-0.008069926
242	0xbdef9516	-0.11698358
243	0xbe2c3d7a	-0.16820326
244	0xbd9cb45c	-0.07651588
245	0x3e31be2c	0.17357701
246	0x3e20945f	0.15681599
247	0xbe4526d2	-0.1925309
248	0x3c8c5182	0.01712871
249	0xbcea10ed	-0.028572524
250	0x3e7b6ae4	0.24552494
251	0x3e318d02	0.17338946
252	0x3da739b5	0.081653036
253	0x3e19ba4e	0.15012476
254	0xbe52cf1c	-0.20586818
255	0xbdf93293	-0.121678494

bias f4 [50]
0	0xbcdbb81f	-0.026821194
1	0x3a4444cd	0.0007487059
2	0x3d0455e9	0.032308493
3	0x3ca02e3a	0.019553293
4	0xbc868ab1	-0.016423555
5	0xbc25b690	-0.010114327
6	0xbc44a3fa	-0.012001986
7	0x3a57d1fd	0.000823289
8	0x3cdffc08	0.027341858
9	0xbc29b6ca	-0.010358522
10	0xbc815159	-0.01578586
11	0xbd0740ab	-0.033020657
12	0x3d0ed352	0.0348695
13	0x3cb4da43	0.022076732
14	0xbbdaa23a	-0.006672171
15	0xbb34f4e4	-0.0027611786
16	0xbbb97366	-0.0056595085
17	0xbc5640f4	-0.0130770095
18	0x3b9acbc2	0.004723997
19	0x3b773e68	0.0037726406
20	0x3c086805	0.008325581
21	0x3b2df4e5	0.0026543674
22	0x3b44b3be	0.0030014361
23	0x3b5b9e2b	0.0033511024
24	0x3d29cfa5	0.04145779
25	0x3cd5265d	0.02601927
26	0x3a695b8c	0.0008901886
27	0x3c9ada9f	0.018903075
28	0xbb80851e	-0.003922119
29	0x3b8e7cb4	0.004348362
30	0xbbea81f6	-0.007156606
31	0xbcd971bb	-0.026543489
32	0x3c44bcf1	0.012007938
33	0xba52c087	-0.0008039553
34	0xbc00d948	-0.007864304
35	0x3c2ae346	0.010430163
36	0x3bbd5cfe	0.005778908
37	0x3b106e30	0.0022038333
38	0x3c3b24bd	0.011422333
39	0xbc32ba23	-0.010908636
40	0x3d6ea762	0.058265097
41	0xbc8e889f	-0.01739913
42	0xbd0acd94	-0.03388746
43	0x3a9c1e00	0.0011910796
44	0xbc915682	-0.017741445
45	0xbbf93dbe	-0.007606237
46	0x3ad4df5f	0.0016240886
47	0xbcbd59d4	-0.023114122
48	0xba591ca4	-0.0008282161
49	0x3be86845	0.007092508
