pbc_examples/saved_models/convection_beta-1.0_layers-50,50,50,50,1_L-2.0_WD-0_init-uniform_seed0.pt (torch, 114029 bytes, 36 tensors)

x_u f4 [256, 1]
00000000: 0000 0000 db0f c93c db0f 493d e4cb 963d
00000010: db0f c93d d153 fb3d e4cb 163e dfed 2f3e
00000020: db0f 493e d631 623e d153 7b3e e63a 8a3e
00000030: e4cb 963e e25c a33e dfed af3e dd7e bc3e
00000040: db0f c93e d8a0 d53e d631 e23e d4c2 ee3e
00000050: d153 fb3e 67f2 033f e63a 0a3f 6583 103f
00000060: e4cb 163f 6314 1d3f e25c 233f 60a5 293f
00000070: dfed 2f3f 5e36 363f dd7e 3c3f 5cc7 423f
00000080: db0f 493f 5958 4f3f d8a0 553f 57e9 5b3f
00000090: d631 623f 557a 683f d4c2 6e3f 520b 753f
000000a0: d153 7b3f 28ce 803f 67f2 833f a716 873f
000000b0: e63a 8a3f 265f 8d3f 6583 903f a5a7 933f
000000c0: e4cb 963f 23f0 993f 6314 9d3f a238 a03f
000000d0: e25c a33f 2181 a63f 60a5 a93f a0c9 ac3f
000000e0: dfed af3f 1f12 b33f 5e36 b63f 9e5a b93f
000000f0: dd7e bc3f 1ca3 bf3f 5cc7 c23f 9beb c53f
00000100: db0f c93f 1a34 cc3f 5958 cf3f 997c d23f
00000110: d8a0 d53f 18c5 d83f 57e9 db3f 970d df3f
00000120: d631 e23f 1556 e53f 557a e83f 949e eb3f
00000130: d4c2 ee3f 13e7 f13f 520b f53f 922f f83f
00000140: d153 fb3f 1178 fe3f 28ce 0040 4860 0240
00000150: 67f2 0340 8784 0540 a716 0740 c7a8 0840
00000160: e63a 0a40 06cd 0b40 265f 0d40 45f1 0e40
00000170: 6583 1040 8515 1240 a5a7 1340 c439 1540
00000180: e4cb 1640 045e 1840 23f0 1940 4382 1b40
00000190: 6314 1d40 83a6 1e40 a238 2040 c2ca 2140
000001a0: e25c 2340 01ef 2440 2181 2640 4113 2840
000001b0: 60a5 2940 8037 2b40 a0c9 2c40 c05b 2e40
000001c0: dfed 2f40 ff7f 3140 1f12 3340 3ea4 3440
000001d0: 5e36 3640 7ec8 3740 9e5a 3940 bdec 3a40
000001e0: dd7e 3c40 fd10 3e40 1ca3 3f40 3c35 4140
000001f0: 5cc7 4240 7c59 4440 9beb 4540 bb7d 4740
00000200: db0f 4940 faa1 4a40 1a34 4c40 3ac6 4d40
00000210: 5958 4f40 79ea 5040 997c 5240 b90e 5440
00000220: d8a0 5540 f832 5740 18c5 5840 3757 5a40
00000230: 57e9 5b40 777b 5d40 970d 5f40 b69f 6040
00000240: d631 6240 f6c3 6340 1556 6540 35e8 6640
00000250: 557a 6840 750c 6a40 949e 6b40 b430 6d40
00000260: d4c2 6e40 f354 7040 13e7 7140 3379 7340
00000270: 520b 7540 729d 7640 922f 7840 b2c1 7940
00000280: d153 7b40 f1e5 7c40 1178 7e40 1805 8040
00000290: 28ce 8040 3897 8140 4860 8240 5829 8340
000002a0: 67f2 8340 77bb 8440 8784 8540 974d 8640
000002b0: a716 8740 b7df 8740 c7a8 8840 d671 8940
000002c0: e63a 8a40 f603 8b40 06cd 8b40 1696 8c40
000002d0: 265f 8d40 3628 8e40 45f1 8e40 55ba 8f40
000002e0: 6583 9040 754c 9140 8515 9240 95de 9240
000002f0: a5a7 9340 b470 9440 c439 9540 d402 9640
00000300: e4cb 9640 f494 9740 045e 9840 1427 9940
00000310: 23f0 9940 33b9 9a40 4382 9b40 534b 9c40
00000320: 6314 9d40 73dd 9d40 83a6 9e40 926f 9f40
00000330: a238 a040 b201 a140 c2ca a140 d293 a240
00000340: e25c a340 f125 a440 01ef a440 11b8 a540
00000350: 2181 a640 314a a740 4113 a840 51dc a840
00000360: 60a5 a940 706e aa40 8037 ab40 9000 ac40
00000370: a0c9 ac40 b092 ad40 c05b ae40 cf24 af40
00000380: dfed af40 efb6 b040 ff7f b140 0f49 b240
00000390: 1f12 b340 2fdb b340 3ea4 b440 4e6d b540
000003a0: 5e36 b640 6eff b640 7ec8 b740 8e91 b840
000003b0: 9e5a b940 ad23 ba40 bdec ba40 cdb5 bb40
000003c0: dd7e bc40 ed47 bd40 fd10 be40 0dda be40
000003d0: 1ca3 bf40 2c6c c040 3c35 c140 4cfe c140
000003e0: 5cc7 c240 6c90 c340 7c59 c440 8b22 c540
000003f0: 9beb c540 abb4 c640 bb7d c740 cb46 c840
0.0 0.024543693 0.049087387 0.07363108 0.09817477 0.12271846 0.14726216 0.17180584
0.19634955 0.22089323 0.24543692 0.2699806 0.2945243 0.319068 0.3436117 0.3681554
0.3926991 0.41724277 0.44178647 0.46633017 0.49087384 0.5154175 0.5399612 0.5645049
0.5890486 0.6135923 0.638136 0.6626797 0.6872234 0.7117671 0.7363108 0.7608545
0.7853982 0.8099418 0.83448553 0.85902923 0.88357294 0.90811664 0.93266034 0.957204
0.9817477 1.0062914 1.030835 1.0553788 1.0799224 1.1044662 1.1290098 1.1535536
1.1780972 1.2026409 1.2271847 1.2517283 1.276272 1.3008157 1.3253593 1.3499031
1.3744467 1.3989905 1.4235342 1.4480779 1.4726216 1.4971652 1.521709 1.5462526
1.5707964 1.59534 1.6198837 1.6444274 1.6689711 1.6935148 1.7180585 1.7426022
1.7671459 1.7916895 1.8162333 1.8407769 1.8653207 1.8898643 1.914408 1.9389517
1.9634954 1.9880391 2.0125828 2.0371265 2.06167 2.0862138 2.1107576 2.1353014
2.1598449 2.1843886 2.2089324 2.233476 2.2580197 2.2825634 2.3071072 2.3316507
2.3561945 2.3807383 2.4052818 2.4298255 2.4543693 2.478913 2.5034566 2.5280004
2.552544 2.5770876 2.6016314 2.6261752 2.6507187 2.6752625 2.6998062 2.72435
2.7488935 2.7734373 2.797981 2.8225245 2.8470683 2.871612 2.8961558 2.9206994
2.9452431 2.969787 2.9943304 3.0188742 3.043418 3.0679617 3.0925052 3.117049
3.1415927 3.1661363 3.19068 3.2152238 3.2397673 3.264311 3.2888548 3.3133986
3.3379421 3.362486 3.3870296 3.4115732 3.436117 3.4606607 3.4852045 3.509748
3.5342917 3.5588355 3.583379 3.6079228 3.6324666 3.6570103 3.6815538 3.7060976
3.7306414 3.755185 3.7797287 3.8042724 3.828816 3.8533597 3.8779035 3.9024472
3.9269907 3.9515345 3.9760783 4.000622 4.0251656 4.0497093 4.074253 4.098797
4.12334 4.147884 4.1724277 4.1969714 4.221515 4.246059 4.2706027 4.295146
4.3196898 4.3442335 4.3687773 4.393321 4.417865 4.4424086 4.466952 4.4914956
4.5160394 4.540583 4.565127 4.5896707 4.6142144 4.6387577 4.6633015 4.687845
4.712389 4.7369328 4.7614765 4.7860203 4.8105636 4.8351073 4.859651 4.884195
4.9087386 4.9332824 4.957826 4.9823694 5.006913 5.031457 5.0560007 5.0805445
5.105088 5.1296315 5.1541753 5.178719 5.203263 5.2278066 5.2523503 5.276894
5.3014374 5.325981 5.350525 5.3750687 5.3996124 5.424156 5.4487 5.473243
5.497787 5.5223308 5.5468745 5.5714183 5.595962 5.620506 5.645049 5.669593
5.6941366 5.7186804 5.743224 5.767768 5.7923117 5.816855 5.8413987 5.8659425
5.8904862 5.91503 5.939574 5.9641175 5.988661 6.0132046 6.0377483 6.062292
6.086836 6.1113796 6.1359234 6.1604667 6.1850104 6.209554 6.234098 6.2586417

t_u f4 [256, 1]
00000000: 0000 0000 0000 0000 0000 0000 0000 0000
00000010: 0000 0000 0000 0000 0000 0000 0000 0000
00000020: 0000 0000 0000 0000 0000 0000 0000 0000
00000030: 0000 0000 0000 0000 0000 0000 0000 0000
00000040: 0000 0000 0000 0000 0000 0000 0000 0000
00000050: 0000 0000 0000 0000 0000 0000 0000 0000
00000060: 0000 0000 0000 0000 0000 0000 0000 0000
00000070: 0000 0000 0000 0000 0000 0000 0000 0000
00000080: 0000 0000 0000 0000 0000 0000 0000 0000
00000090: 0000 0000 0000 0000 0000 0000 0000 0000
000000a0: 0000 0000 0000 0000 0000 0000 0000 0000
000000b0: 0000 0000 0000 0000 0000 0000 0000 0000
000000c0: 0000 0000 0000 0000 0000 0000 0000 0000
000000d0: 0000 0000 0000 0000 0000 0000 0000 0000
000000e0: 0000 0000 0000 0000 0000 0000 0000 0000
000000f0: 0000 0000 0000 0000 0000 0000 0000 0000
00000100: 0000 0000 0000 0000 0000 0000 0000 0000
00000110: 0000 0000 0000 0000 0000 0000 0000 0000
00000120: 0000 0000 0000 0000 0000 0000 0000 0000
00000130: 0000 0000 0000 0000 0000 0000 0000 0000
00000140: 0000 0000 0000 0000 0000 0000 0000 0000
00000150: 0000 0000 0000 0000 0000 0000 0000 0000
00000160: 0000 0000 0000 0000 0000 0000 0000 0000
00000170: 0000 0000 0000 0000 0000 0000 0000 0000
00000180: 0000 0000 0000 0000 0000 0000 0000 0000
00000190: 0000 0000 0000 0000 0000 0000 0000 0000
000001a0: 0000 0000 0000 0000 0000 0000 0000 0000
000001b0: 0000 0000 0000 0000 0000 0000 0000 0000
000001c0: 0000 0000 0000 0000 0000 0000 0000 0000
000001d0: 0000 0000 0000 0000 0000 0000 0000 0000
000001e0: 0000 0000 0000 0000 0000 0000 0000 0000
000001f0: 0000 0000 0000 0000 0000 0000 0000 0000
00000200: 0000 0000 0000 0000 0000 0000 0000 0000
00000210: 0000 0000 0000 0000 0000 0000 0000 0000
00000220: 0000 0000 0000 0000 0000 0000 0000 0000
00000230: 0000 0000 0000 0000 0000 0000 0000 0000
00000240: 0000 0000 0000 0000 0000 0000 0000 0000
00000250: 0000 0000 0000 0000 0000 0000 0000 0000
00000260: 0000 0000 0000 0000 0000 0000 0000 0000
00000270: 0000 0000 0000 0000 0000 0000 0000 0000
00000280: 0000 0000 0000 0000 0000 0000 0000 0000
00000290: 0000 0000 0000 0000 0000 0000 0000 0000
000002a0: 0000 0000 0000 0000 0000 0000 0000 0000
000002b0: 0000 0000 0000 0000 0000 0000 0000 0000
000002c0: 0000 0000 0000 0000 0000 0000 0000 0000
000002d0: 0000 0000 0000 0000 0000 0000 0000 0000
000002e0: 0000 0000 0000 0000 0000 0000 0000 0000
000002f0: 0000 0000 0000 0000 0000 0000 0000 0000
00000300: 0000 0000 0000 0000 0000 0000 0000 0000
00000310: 0000 0000 0000 0000 0000 0000 0000 0000
00000320: 0000 0000 0000 0000 0000 0000 0000 0000
00000330: 0000 0000 0000 0000 0000 0000 0000 0000
00000340: 0000 0000 0000 0000 0000 0000 0000 0000
00000350: 0000 0000 0000 0000 0000 0000 0000 0000
00000360: 0000 0000 0000 0000 0000 0000 0000 0000
00000370: 0000 0000 0000 0000 0000 0000 0000 0000
00000380: 0000 0000 0000 0000 0000 0000 0000 0000
00000390: 0000 0000 0000 0000 0000 0000 0000 0000
000003a0: 0000 0000 0000 0000 0000 0000 0000 0000
000003b0: 0000 0000 0000 0000 0000 0000 0000 0000
000003c0: 0000 0000 0000 0000 0000 0000 0000 0000
000003d0: 0000 0000 0000 0000 0000 0000 0000 0000
000003e0: 0000 0000 0000 0000 0000 0000 0000 0000
000003f0: 0000 0000 0000 0000 0000 0000 0000 0000
0.0 0.0 0.0 0.0 0.0 0.0 0.0 0.0
0.0 0.0 0.0 0.0 0.0 0.0 0.0 0.0
0.0 0.0 0.0 0.0 0.0 0.0 0.0 0.0
0.0 0.0 0.0 0.0 0.0 0.0 0.0 0.0
0.0 0.0 0.0 0.0 0.0 0.0 0.0 0.0
0.0 0.0 0.0 0.0 0.0 0.0 0.0 0.0
0.0 0.0 0.0 0.0 0.0 0.0 0.0 0.0
0.0 0.0 0.0 0.0 0.0 0.0 0.0 0.0
0.0 0.0 0.0 0.0 0.0 0.0 0.0 0.0
0.0 0.0 0.0 0.0 0.0 0.0 0.0 0.0
0.0 0.0 0.0 0.0 0.0 0.0 0.0 0.0
0.0 0.0 0.0 0.0 0.0 0.0 0.0 0.0
0.0 0.0 0.0 0.0 0.0 0.0 0.0 0.0
0.0 0.0 0.0 0.0 0.0 0.0 0.0 0.0
0.0 0.0 0.0 0.0 0.0 0.0 0.0 0.0
0.0 0.0 0.0 0.0 0.0 0.0 0.0 0.0
0.0 0.0 0.0 0.0 0.0 0.0 0.0 0.0
0.0 0.0 0.0 0.0 0.0 0.0 0.0 0.0
0.0 0.0 0.0 0.0 0.0 0.0 0.0 0.0
0.0 0.0 0.0 0.0 0.0 0.0 0.0 0.0
0.0 0.0 0.0 0.0 0.0 0.0 0.0 0.0
0.0 0.0 0.0 0.0 0.0 0.0 0.0 0.0
0.0 0.0 0.0 0.0 0.0 0.0 0.0 0.0
0.0 0.0 0.0 0.0 0.0 0.0 0.0 0.0
0.0 0.0 0.0 0.0 0.0 0.0 0.0 0.0
0.0 0.0 0.0 0.0 0.0 0.0 0.0 0.0
0.0 0.0 0.0 0.0 0.0 0.0 0.0 0.0
0.0 0.0 0.0 0.0 0.0 0.0 0.0 0.0
0.0 0.0 0.0 0.0 0.0 0.0 0.0 0.0
0.0 0.0 0.0 0.0 0.0 0.0 0.0 0.0
0.0 0.0 0.0 0.0 0.0 0.0 0.0 0.0
0.0 0.0 0.0 0.0 0.0 0.0 0.0 0.0

x_f f4 [100, 1]
00000000: a5a7 9340 970d df3f d8a0 5540 534b 9c40
00000010: 7c59 4440 efb6 b040 ad23 ba40 9beb c540
00000020: 8515 9240 23f0 993f 1427 9940 6583 103f
00000030: 949e eb3f d153 fb3d 926f 9f40 5cc7 c240
00000040: 6eff b640 a0c9 2c40 c2ca 2140 6c90 c340
00000050: c05b 2e40 cf24 af40 a716 873f 4cfe c140
00000060: d631 e23e 5e36 363f 974d 8640 cb46 c840
00000070: 7c59 c440 754c 9140 9beb c540 c7a8 8840
00000080: cf24 af40 2181 2640 265f 8d40 6314 9d40
00000090: 2c6c c040 dd7e bc3e d153 fb3e 2181 a640
000000a0: 777b 5d40 d631 e23e 5958 cf3f 77bb 8440
000000b0: 557a e83f 83a6 9e40 970d 5f40 18c5 5840
000000c0: 520b 753f a5a7 1340 60a5 293f 314a a740
000000d0: db0f c93c 4cfe c140 c439 1540 d153 fb3f
000000e0: c439 1540 dfed 2f3f 1a34 cc3f 3757 5a40
000000f0: 1f12 b340 9e5a b940 265f 8d3f 949e 6b40
00000100: d631 623f 57e9 db3f 4382 1b40 35e8 6640
00000110: 1556 e53f 5958 cf3f d671 8940 1178 fe3f
00000120: 6583 1040 c05b 2e40 db0f 493f 67f2 0340
00000130: 83a6 9e40 f125 a440 4382 1b40 754c 9140
00000140: 750c 6a40 d8a0 553f b430 6d40 1556 e53f
00000150: 5cc7 c240 926f 9f40 534b 9c40 28ce 803f
00000160: dfed af40 bdec ba40 974d 8640 e4cb 9640
00000170: d631 623f d4c2 6e3f 6314 9d3f 7ec8 b740
00000180: 0f49 b240 3c35 c140 57e9 5b40 a0c9 ac3f
4.6142144 1.7426022 3.3379421 4.884195 3.0679617 5.5223308 5.816855 6.1850104
4.565127 1.2026409 4.7860203 0.5645049 1.8407769 0.12271846 4.9823694 6.086836
5.7186804 2.6998062 2.5280004 6.1113796 2.72435 5.473243 1.0553788 6.062292
0.44178647 0.7117671 4.1969714 6.2586417 6.1359234 4.540583 6.1850104 4.2706027
5.473243 2.6016314 4.417865 4.9087386 6.0132046 0.3681554 0.49087384 5.203263
3.4606607 0.44178647 1.6198837 4.147884 1.8162333 4.957826 3.4852045 3.3870296
0.957204 2.3071072 0.6626797 5.2278066 0.024543693 6.062292 2.3316507 1.9634954
2.3316507 0.6872234 1.59534 3.4115732 5.595962 5.7923117 1.1044662 3.6815538
0.88357294 1.7180585 2.4298255 3.6079228 1.7916895 1.6198837 4.295146 1.9880391
2.2580197 2.72435 0.7853982 2.06167 4.957826 5.1296315 2.4298255 4.540583
3.6570103 0.83448553 3.7060976 1.7916895 6.086836 4.9823694 4.884195 1.0062914
5.497787 5.8413987 4.1969714 4.712389 0.88357294 0.93266034 1.2271847 5.743224
5.5714183 6.0377483 3.436117 1.3499031

t_f f4 [100, 1]
00000000: 7786 c43e 5d74 513f ee0c 093f 6748 4c3f
00000010: dece 103e 9602 353f a0d6 2f3f 721c 473f
00000020: e9a2 0b3f b57e 253c e438 0e3f 6db2 493f
00000030: 4362 de3e 4362 de3e 0ad4 7a3f 0000 803f
00000040: a540 2d3f f376 063f ca26 9b3e 580a 543f
00000050: 0ad4 7a3f bae8 223f a0d6 af3e b57e a53e
00000060: 1a12 f33e 2950 6b3f e438 0e3f 721c 473f
00000070: 8c2e ba3e 398e 633e dece 903e 398e 633f
00000080: 2fba 683f ca26 1b3e bf52 203f b57e 253d
00000090: ca26 1b3e 3ef8 603f d4fa 153f fd4a 813e
000000a0: 6748 4c3f 7786 c43e 4e36 d93e b57e 253c
000000b0: 103e 783e 3424 663f 8c2e ba3e 1f7c 703f
000000c0: 7cf0 413f bf52 a03e b57e 253d a0d6 af3e
000000d0: 2fba e83e 15a8 753f 15a8 753f 2fba e83e
000000e0: 2fba e83e 62de 4e3f f376 063f dece 103f
000000f0: 3ef8 603f 86c4 3c3f b57e 253d 1a12 f33e
00000100: d964 133f dece 103f a540 2d3f 056a 7d3f
00000110: a0d6 2f3f 4e36 593e 62de 4e3d dece 903e
00000120: fd4a 813e 62de 4e3f b57e 253c 580a d43e
00000130: 103e 783f 0ad4 7a3f d4fa 953e f8e0 033f
00000140: 53a0 563f 1a12 733f 1a12 f33e cf90 183f
00000150: 6db2 c93e a0d6 2f3f 4e36 593f b57e a53c
00000160: 2950 6b3f 103e f83e f376 063e ca26 1b3f
00000170: fd4a 813e 103e 783f a0d6 af3e 53a0 563f
00000180: 103e f83e 6748 4c3f 9198 373f ca26 9b3e
0.3838384 0.8181818 0.53535354 0.7979798 0.14141414 0.7070707 0.68686867 0.7777778
0.54545456 0.01010101 0.5555556 0.7878788 0.43434343 0.43434343 0.97979796 1.0
0.67676765 0.5252525 0.3030303 0.82828283 0.97979796 0.6363636 0.34343433 0.32323232
0.47474748 0.9191919 0.5555556 0.7777778 0.36363637 0.22222222 0.28282827 0.8888889
0.90909094 0.15151516 0.6262626 0.04040404 0.15151516 0.8787879 0.5858586 0.25252524
0.7979798 0.3838384 0.42424244 0.01010101 0.24242425 0.8989899 0.36363637 0.93939394
0.75757575 0.3131313 0.04040404 0.34343433 0.45454547 0.959596 0.959596 0.45454547
0.45454547 0.8080808 0.5252525 0.56565654 0.8787879 0.7373737 0.04040404 0.47474748
0.57575756 0.56565654 0.67676765 0.989899 0.68686867 0.21212122 0.05050505 0.28282827
0.25252524 0.8080808 0.01010101 0.41414142 0.969697 0.97979796 0.2929293 0.5151515
0.83838385 0.94949496 0.47474748 0.5959596 0.3939394 0.68686867 0.8484849 0.02020202
0.9191919 0.4848485 0.13131313 0.6060606 0.25252524 0.969697 0.34343433 0.83838385
0.4848485 0.7979798 0.7171717 0.3030303

x_bc_lb f4 [100, 1]
00000000: 0000 0000 0000 0000 0000 0000 0000 0000
00000010: 0000 0000 0000 0000 0000 0000 0000 0000
00000020: 0000 0000 0000 0000 0000 0000 0000 0000
00000030: 0000 0000 0000 0000 0000 0000 0000 0000
00000040: 0000 0000 0000 0000 0000 0000 0000 0000
00000050: 0000 0000 0000 0000 0000 0000 0000 0000
00000060: 0000 0000 0000 0000 0000 0000 0000 0000
00000070: 0000 0000 0000 0000 0000 0000 0000 0000
00000080: 0000 0000 0000 0000 0000 0000 0000 0000
00000090: 0000 0000 0000 0000 0000 0000 0000 0000
000000a0: 0000 0000 0000 0000 0000 0000 0000 0000
000000b0: 0000 0000 0000 0000 0000 0000 0000 0000
000000c0: 0000 0000 0000 0000 0000 0000 0000 0000
000000d0: 0000 0000 0000 0000 0000 0000 0000 0000
000000e0: 0000 0000 0000 0000 0000 0000 0000 0000
000000f0: 0000 0000 0000 0000 0000 0000 0000 0000
00000100: 0000 0000 0000 0000 0000 0000 0000 0000
00000110: 0000 0000 0000 0000 0000 0000 0000 0000
00000120: 0000 0000 0000 0000 0000 0000 0000 0000
00000130: 0000 0000 0000 0000 0000 0000 0000 0000
00000140: 0000 0000 0000 0000 0000 0000 0000 0000
00000150: 0000 0000 0000 0000 0000 0000 0000 0000
00000160: 0000 0000 0000 0000 0000 0000 0000 0000
00000170: 0000 0000 0000 0000 0000 0000 0000 0000
00000180: 0000 0000 0000 0000 0000 0000 0000 0000
0.0 0.0 0.0 0.0 0.0 0.0 0.0 0.0
0.0 0.0 0.0 0.0 0.0 0.0 0.0 0.0
0.0 0.0 0.0 0.0 0.0 0.0 0.0 0.0
0.0 0.0 0.0 0.0 0.0 0.0 0.0 0.0
0.0 0.0 0.0 0.0 0.0 0.0 0.0 0.0
0.0 0.0 0.0 0.0 0.0 0.0 0.0 0.0
0.0 0.0 0.0 0.0 0.0 0.0 0.0 0.0
0.0 0.0 0.0 0.0 0.0 0.0 0.0 0.0
0.0 0.0 0.0 0.0 0.0 0.0 0.0 0.0
0.0 0.0 0.0 0.0 0.0 0.0 0.0 0.0
0.0 0.0 0.0 0.0 0.0 0.0 0.0 0.0
0.0 0.0 0.0 0.0 0.0 0.0 0.0 0.0
0.0 0.0 0.0 0.0

t_bc_lb f4 [100, 1]
00000000: 0000 0000 b57e 253c b57e a53c 103e f83c
00000010: b57e 253d 62de 4e3d 103e 783d dece 903d
00000020: b57e a53d 8c2e ba3d 62de ce3d 398e e33d
00000030: 103e f83d f376 063e dece 103e ca26 1b3e
00000040: b57e 253e a0d6 2f3e 8c2e 3a3e 7786 443e
00000050: 62de 4e3e 4e36 593e 398e 633e 24e6 6d3e
00000060: 103e 783e fd4a 813e f376 863e e9a2 8b3e
00000070: dece 903e d4fa 953e ca26 9b3e bf52 a03e
00000080: b57e a53e abaa aa3e a0d6 af3e 9602 b53e
00000090: 8c2e ba3e 815a bf3e 7786 c43e 6db2 c93e
000000a0: 62de ce3e 580a d43e 4e36 d93e 4362 de3e
000000b0: 398e e33e 2fba e83e 24e6 ed3e 1a12 f33e
000000c0: 103e f83e 056a fd3e fd4a 013f f8e0 033f
000000d0: f376 063f ee0c 093f e9a2 0b3f e438 0e3f
000000e0: dece 103f d964 133f d4fa 153f cf90 183f
000000f0: ca26 1b3f c5bc 1d3f bf52 203f bae8 223f
00000100: b57e 253f b014 283f abaa 2a3f a540 2d3f
00000110: a0d6 2f3f 9b6c 323f 9602 353f 9198 373f
00000120: 8c2e 3a3f 86c4 3c3f 815a 3f3f 7cf0 413f
00000130: 7786 443f 721c 473f 6db2 493f 6748 4c3f
00000140: 62de 4e3f 5d74 513f 580a 543f 53a0 563f
00000150: 4e36 593f 48cc 5b3f 4362 5e3f 3ef8 603f
00000160: 398e 633f 3424 663f 2fba 683f 2950 6b3f
00000170: 24e6 6d3f 1f7c 703f 1a12 733f 15a8 753f
00000180: 103e 783f 0ad4 7a3f 056a 7d3f 0000 803f
0.0 0.01010101 0.02020202 0.030303031 0.04040404 0.05050505 0.060606062 0.07070707
0.08080808 0.09090909 0.1010101 0.11111111 0.121212125 0.13131313 0.14141414 0.15151516
0.16161616 0.17171717 0.18181819 0.1919192 0.2020202 0.21212122 0.22222222 0.23232323
0.24242425 0.25252524 0.26262626 0.27272728 0.28282827 0.2929293 0.3030303 0.3131313
0.32323232 0.33333334 0.34343433 0.35353535 0.36363637 0.37373737 0.3838384 0.3939394
0.4040404 0.41414142 0.42424244 0.43434343 0.44444445 0.45454547 0.46464646 0.47474748
0.4848485 0.4949495 0.5050505 0.5151515 0.5252525 0.53535354 0.54545456 0.5555556
0.56565654 0.57575756 0.5858586 0.5959596 0.6060606 0.61616164 0.6262626 0.6363636
0.64646465 0.65656567 0.6666667 0.67676765 0.68686867 0.6969697 0.7070707 0.7171717
0.72727275 0.7373737 0.74747473 0.75757575 0.7676768 0.7777778 0.7878788 0.7979798
0.8080808 0.8181818 0.82828283 0.83838385 0.8484849 0.85858583 0.86868685 0.8787879
0.8888889 0.8989899 0.90909094 0.9191919 0.9292929 0.93939394 0.94949496 0.959596
0.969697 0.97979796 0.989899 1.0

x_bc_ub f4 [100, 1]
00000000: db0f c940 db0f c940 db0f c940 db0f c940
00000010: db0f c940 db0f c940 db0f c940 db0f c940
00000020: db0f c940 db0f c940 db0f c940 db0f c940
00000030: db0f c940 db0f c940 db0f c940 db0f c940
00000040: db0f c940 db0f c940 db0f c940 db0f c940
00000050: db0f c940 db0f c940 db0f c940 db0f c940
00000060: db0f c940 db0f c940 db0f c940 db0f c940
00000070: db0f c940 db0f c940 db0f c940 db0f c940
00000080: db0f c940 db0f c940 db0f c940 db0f c940
00000090: db0f c940 db0f c940 db0f c940 db0f c940
000000a0: db0f c940 db0f c940 db0f c940 db0f c940
000000b0: db0f c940 db0f c940 db0f c940 db0f c940
000000c0: db0f c940 db0f c940 db0f c940 db0f c940
000000d0: db0f c940 db0f c940 db0f c940 db0f c940
000000e0: db0f c940 db0f c940 db0f c940 db0f c940
000000f0: db0f c940 db0f c940 db0f c940 db0f c940
00000100: db0f c940 db0f c940 db0f c940 db0f c940
00000110: db0f c940 db0f c940 db0f c940 db0f c940
00000120: db0f c940 db0f c940 db0f c940 db0f c940
00000130: db0f c940 db0f c940 db0f c940 db0f c940
00000140: db0f c940 db0f c940 db0f c940 db0f c940
00000150: db0f c940 db0f c940 db0f c940 db0f c940
00000160: db0f c940 db0f c940 db0f c940 db0f c940
00000170: db0f c940 db0f c940 db0f c940 db0f c940
00000180: db0f c940 db0f c940 db0f c940 db0f c940
6.2831855 6.2831855 6.2831855 6.2831855 6.2831855 6.2831855 6.2831855 6.2831855
6.2831855 6.2831855 6.2831855 6.2831855 6.2831855 6.2831855 6.2831855 6.2831855
6.2831855 6.2831855 6.2831855 6.2831855 6.2831855 6.2831855 6.2831855 6.2831855
6.2831855 6.2831855 6.2831855 6.2831855 6.2831855 6.2831855 6.2831855 6.2831855
6.2831855 6.2831855 6.2831855 6.2831855 6.2831855 6.2831855 6.2831855 6.2831855
6.2831855 6.2831855 6.2831855 6.2831855 6.2831855 6.2831855 6.2831855 6.2831855
6.2831855 6.2831855 6.2831855 6.2831855 6.2831855 6.2831855 6.2831855 6.2831855
6.2831855 6.2831855 6.2831855 6.2831855 6.2831855 6.2831855 6.2831855 6.2831855
6.2831855 6.2831855 6.2831855 6.2831855 6.2831855 6.2831855 6.2831855 6.2831855
6.2831855 6.2831855 6.2831855 6.2831855 6.2831855 6.2831855 6.2831855 6.2831855
6.2831855 6.2831855 6.2831855 6.2831855 6.2831855 6.2831855 6.2831855 6.2831855
6.2831855 6.2831855 6.2831855 6.2831855 6.2831855 6.2831855 6.2831855 6.2831855
6.2831855 6.2831855 6.2831855 6.2831855

t_bc_ub f4 [100, 1]
00000000: 0000 0000 b57e 253c b57e a53c 103e f83c
00000010: b57e 253d 62de 4e3d 103e 783d dece 903d
00000020: b57e a53d 8c2e ba3d 62de ce3d 398e e33d
00000030: 103e f83d f376 063e dece 103e ca26 1b3e
00000040: b57e 253e a0d6 2f3e 8c2e 3a3e 7786 443e
00000050: 62de 4e3e 4e36 593e 398e 633e 24e6 6d3e
00000060: 103e 783e fd4a 813e f376 863e e9a2 8b3e
00000070: dece 903e d4fa 953e ca26 9b3e bf52 a03e
00000080: b57e a53e abaa aa3e a0d6 af3e 9602 b53e
00000090: 8c2e ba3e 815a bf3e 7786 c43e 6db2 c93e
000000a0: 62de ce3e 580a d43e 4e36 d93e 4362 de3e
000000b0: 398e e33e 2fba e83e 24e6 ed3e 1a12 f33e
000000c0: 103e f83e 056a fd3e fd4a 013f f8e0 033f
000000d0: f376 063f ee0c 093f e9a2 0b3f e438 0e3f
000000e0: dece 103f d964 133f d4fa 153f cf90 183f
000000f0: ca26 1b3f c5bc 1d3f bf52 203f bae8 223f
00000100: b57e 253f b014 283f abaa 2a3f a540 2d3f
00000110: a0d6 2f3f 9b6c 323f 9602 353f 9198 373f
00000120: 8c2e 3a3f 86c4 3c3f 815a 3f3f 7cf0 413f
00000130: 7786 443f 721c 473f 6db2 493f 6748 4c3f
00000140: 62de 4e3f 5d74 513f 580a 543f 53a0 563f
00000150: 4e36 593f 48cc 5b3f 4362 5e3f 3ef8 603f
00000160: 398e 633f 3424 663f 2fba 683f 2950 6b3f
00000170: 24e6 6d3f 1f7c 703f 1a12 733f 15a8 753f
00000180: 103e 783f 0ad4 7a3f 056a 7d3f 0000 803f
0.0 0.01010101 0.02020202 0.030303031 0.04040404 0.05050505 0.060606062 0.07070707
0.08080808 0.09090909 0.1010101 0.11111111 0.121212125 0.13131313 0.14141414 0.15151516
0.16161616 0.17171717 0.18181819 0.1919192 0.2020202 0.21212122 0.22222222 0.23232323
0.24242425 0.25252524 0.26262626 0.27272728 0.28282827 0.2929293 0.3030303 0.3131313
0.32323232 0.33333334 0.34343433 0.35353535 0.36363637 0.37373737 0.3838384 0.3939394
0.4040404 0.41414142 0.42424244 0.43434343 0.44444445 0.45454547 0.46464646 0.47474748
0.4848485 0.4949495 0.5050505 0.5151515 0.5252525 0.53535354 0.54545456 0.5555556
0.56565654 0.57575756 0.5858586 0.5959596 0.6060606 0.61616164 0.6262626 0.6363636
0.64646465 0.65656567 0.6666667 0.67676765 0.68686867 0.6969697 0.7070707 0.7171717
0.72727275 0.7373737 0.74747473 0.75757575 0.7676768 0.7777778 0.7878788 0.7979798
0.8080808 0.8181818 0.82828283 0.83838385 0.8484849 0.85858583 0.86868685 0.8787879
0.8888889 0.8989899 0.90909094 0.9191919 0.9292929 0.93939394 0.94949496 0.959596
0.969697 0.97979796 0.989899 1.0

weight f4 [50, 2]
00000000: d340 5ebe eb16 a0be 2b84 0ebe 6817 b6bd
00000010: 7a78 a73e 231a 29be df45 d3bd 4a98 813d
00000020: 31c0 a63e c9f6 75bd 5330 123e ea6b 6cbe
00000030: 3247 d0be 6cfe 223d 4088 453e 9bab 323e
00000040: 0757 de3d 6e08 a43e 897e 6fbe 8969 1f3e
00000050: 1d1c 9b3e 9ea8 6dbe a845 8c3e bfb9 8cbe
00000060: 7453 853e 84b5 f53d c406 a93e b12f 5fbd
00000070: a1c5 36bd 0cf4 75be 0ecc b33e 8e0c 92bd
00000080: 3417 c2bd 9e69 cd3c 2925 3c3e 54cf 43be
00000090: 631b 49be 83a8 06bd 2193 f53d 11ca 4e3c
000000a0: b67e acbd 62de 5f3d aae7 94bd 258a 983e
000000b0: aa61 19be ea69 ba3e d52d 8fbb 8073 843e
000000c0: f61b e23d ab92 8bbe 01fd 513e d8ee dbbd
000000d0: 7cf5 9fbe 670e 733e 4a92 e73d 8a23 54be
000000e0: 2c67 31be e8e9 933e 561b a5be 75d3 8f3d
000000f0: 1f01 803d 52f8 a0be 20ae 3e3e 674c a5be
00000100: 8b7b 17bd 1739 9fbd 1b5c 0c3e d583 cfbd
00000110: 1042 98be 6267 48bc eb43 9a3e c2b7 78be
00000120: 0111 b83e 4c93 f63d 1ed6 7ebd b416 10bd
00000130: 1190 a53e d2da 4dbd f2e5 af3d 9a3e 3fbb
00000140: 8fd8 f13c c907 96be 7acb 3dbe f37a 9d3e
00000150: fd2d 6a3e 0e2b 603c 1009 be3e e421 4fbe
00000160: 259c 073e 3cc3 21be 915e 9d3e 4d24 203e
00000170: 8a38 0b3e 9a88 34bd fca1 813e ea6e f83d
00000180: 39e1 393e e800 f8bd f382 0e3c b1ee 8fbd
-0.21704416 -0.31267485 -0.13917606 -0.08891183 0.32709104 -0.16513877 -0.10316061 0.06327875
0.32568505 -0.060049806 0.14276247 -0.23088041 -0.40679318 0.039793417 0.19290257 0.17448275
0.10856443 0.3203768 -0.23388113 0.15567602 0.30294886 -0.23208854 0.27396894 -0.27485463
0.26040232 0.11997512 0.33012974 -0.05448884 -0.044622067 -0.24018878 0.3511662 -0.07131301
-0.09477082 0.025074776 0.1837355 -0.19122058 -0.19639353 -0.03287555 0.11990953 0.012621419
-0.08422606 0.05465544 -0.07270749 0.29792896 -0.14978662 0.3640893 -0.0043694773 0.2586937
0.110404894 -0.27260336 0.2050667 -0.10738915 -0.31241977 0.23735963 0.11307199 -0.20716682
-0.17324513 0.28889394 -0.32247418 0.07022754 0.06250214 -0.31439453 0.18621111 -0.32284853
-0.036983054 -0.07774561 0.1370701 -0.10132567 -0.29737902 -0.01223168 0.30129942 -0.24288848
0.35950473 0.120398134 -0.062215917 -0.0351779 0.32336476 -0.05025751 0.085887805 -0.00291816
0.029522208 -0.29302815 -0.18534651 0.30757865 0.22869106 0.01368214 0.3711629 -0.20227772
0.13243158 -0.15797132 0.3073621 0.15638848 0.13595787 -0.044075586 0.25318897 0.1213053
0.18152322 -0.12109548 0.008698213 -0.07027949

bias f4 [50]
00000000: f865 2f3d c942 d53d c042 a3bd 9ddb 0f3e
00000010: 1084 533c 2cbc a1bd 9f9c 433d 655e 193c
00000020: 1f05 85bd bca6 a93d aa2e 6e3b 8c78 873d
00000030: 766b 0fbd 4bc4 033d 9083 97bd 1a10 64bd
00000040: e813 893d 9abf dfbd b7bf b73d 3153 93bd
00000050: cfda 963c a72f 913d 5d52 b43d 62a3 9f3d
00000060: 9d36 c2bd 6b7a 15bd be4b dc3c 9ae3 16be
00000070: 6d4e c33c 6342 0c3d 90c8 9abd f605 98bd
00000080: 1e72 803d d27d c2bd 768c 543d 119c bb3b
00000090: 4280 30bd b8c1 cc3b 7e16 34bd 9de4 30bd
000000a0: 2cbe 213d 3841 bb3d b56a a4bc 7b8c 88bd
000000b0: 58a6 afbd 69e3 05ba 1aa6 a2bd 51b0 70bd
000000c0: 31ed e5bb 803d 8fbd
0.042821854 0.10413129 -0.07971716 0.1404862 0.012909904 -0.07897219 0.047756787 0.009360884
-0.064951174 0.08283755 0.0036343732 0.06614789 -0.035014592 0.03216962 -0.073981404 -0.05567942
0.0669325 -0.10925217 0.089721136 -0.07193602 0.018414883 0.07089167 0.08804772 0.07794835
-0.09483073 -0.0364937 0.026891585 -0.1473526 0.023841107 0.034243 -0.075577855 -0.07423012
0.06271766 -0.094966546 0.051891766 0.0057253917 -0.043091066 0.006248679 -0.043966763 -0.043186773
0.039488003 0.09143299 -0.020070413 -0.066674195 -0.085766494 -0.0005107434 -0.079418376 -0.0587619
-0.007016801 -0.06994152

weight f4 [50, 50]
00000000: a33d 0fbe 308a 183e b9b5 723e 4d9f 6c3e
00000010: cce6 08bd f295 e33d e50e 95bd f471 513e
00000020: fcb9 98be 7f4e a83d 3384 44be 5308 083e
00000030: 241b 3e3e 9d8d 613e 0d60 58bd f4fc 6d3d
00000040: fa1b 063e 504c ecbd 9967 793e 91b7 bb3d
00000050: a42c 323e ae2e 93bd 0bc3 423e 159c f9bd
00000060: 5833 6fbe e153 acbd 28a0 21bd 5aed c13d
00000070: 55c3 f33d 5d54 673d 8906 d0bd 62a2 2b3e
00000080: 19c3 a43e 9fef 81be 4749 493e 50d7 853d
00000090: 456e 103e 958d 373e bcca 293e ce9f babd
000000a0: 3c63 6dbd a05d 87bd 096f 30be 71c2 ce3c
000000b0: 5965 34be 06d4 473e 23e1 72be 6f61 5f3e
000000c0: 4d62 75be d1b8 273e 7380 fa3c 3566 8bbe
000000d0: 7510 873d 291b 52be 0552 52be 7a6c 123d
000000e0: 2478 2fbd 4150 933d 27ca 573e 9985 79be
000000f0: bb41 743e 6883 08be 0f45 3cbd 189f 183e
00000100: d3e1 c2bd 68a0 0cbe baa6 b6bd 16be f83d
00000110: 1aba a6bc 1472 843e d861 a23d fac1 7cbe
00000120: 9500 48be cc5a b73a 1410 723c d064 80bd
00000130: 9658 9f3d c6ee 0f3e a855 26be df49 16bd
00000140: ec0e e93d 7b9a e63d a3e4 cfbd d971 183e
00000150: 85eb c03d 1169 6abe 3160 83be 9dcc bfbc
00000160: 0a05 a43d ea7d 01be 9a7f f3bd c526 82be
00000170: 6c2d 793d a7e7 273e 1531 783e c201 5ebe
00000180: 6ded 633e bed4 c2bd b85f 48be a290 423e
00000190: 30ec 443e ff99 3a3c 4cc3 72bd 1f77 9c3d
000001a0: 027a 0a3e 3bc6 b73d 3e22 22be 32c9 4f3c
000001b0: 46f9 813d 1105 533d 6280 7b3d 623b 6e3d
000001c0: fafc 943d 15fa 1a3e 39c1 03be d2a9 643e
000001d0: 6e30 22bd 128c 68be d3e1 2a3e e72b 38be
000001e0: 7631 68be fceb 30bc b715 833e b556 36be
000001f0: b99a fa3c 0fff 4bbe f71d c93d 7a8a 033e
00000200: 7dc7 a3bc d534 72be 55de 43be dc6c 34be
00000210: 9f4a 42bd 7c1f 0fbe dc29 c33d 9c1f 703d
00000220: 7c16 2abe e15b 483d fa4e 5ebe 4b54 153e
00000230: 05e9 06bb c132 813e 49f8 3c3e e0b6 f7bd
00000240: ad8e 293e ea75 3bbe 528d 81be 4aa5 2e3e
00000250: a265 11be 2173 5bbe cc79 1fbe 3387 0bbe
00000260: 8f3d 69be cf9c 2d3d 68b9 60be 50f4 9bbd
00000270: c6a8 293e 3c52 44be 95de 263e ee5b 7f3e
00000280: c523 46bd 7e50 20bd 737c 73be f7df 5f3e
00000290: a6cb 3b3e ed89 15bd a1a2 1c3e da2a 64be
000002a0: 9a0d 22be 1394 653e b7de 71be 88d0 3cbc
000002b0: 0839 f9bd 395e 5abe d06e 013d 8663 eabd
000002c0: ac81 6b3d 8c60 d1bd 0677 b63d b004 303d
000002d0: c43d 86be 2fd8 173e 7195 1e3e cede 46be
000002e0: 7631 a73d 2958 00be 6234 253e c155 e3bd
000002f0: 7f04 153e 6844 28be c4e5 12be 9b78 dc3d
00000300: 86c5 7b3d 0289 febd 70df 303e abdb 253d
00000310: 8930 e23d 7a23 1abe c19a 583d 8b05 333d
00000320: b0bb 1d3e c71e 643e 3c0f 0a3e 8dc0 663e
00000330: 7b22 04be d88d 53be b6f9 8e3d 8d66 44bc
00000340: 29a7 1abd bceb 41be 1c34 fabc 7997 4dbc
00000350: d923 0d3e 617b c63d d2a5 173d d3d1 193e
00000360: 8eb0 e2bc ef64 463e 57f8 59be 87f8 9ebb
00000370: 6dd6 dabd 6677 2b3e 83ca 78bd 5ea0 23be
00000380: e821 3dbd 6a83 31bc e03c 3b3e 66bc 0e3e
00000390: 1608 5bbe 7c23 a8bd f8bc ffbd c047 95bc
000003a0: fb66 b53d cd34 1fbd 092d 763e 3f90 0d3c
000003b0: 3ac2 eb3d 91c7 7cbd 7078 ff3d 8561 d23d
000003c0: 3c54 24bc b9a5 03bb 5ffa cc3d 1186 1e3c
000003d0: 6d89 21be 73e2 c1bd 1d1c 24be 9f52 3e3d
000003e0: c6a6 353e 8ece 14be 7877 a93d 329d 36be
000003f0: 67c0 e03d 4c03 51be cfd8 b2bd dbb2 a2bb
-0.13988356 0.14896464 0.23702134 0.23107643 -0.03342323 0.11112584 -0.072782315 0.20453626
-0.29829395 0.08218097 -0.19191055 0.13284425 0.18565041 0.22026677 -0.052825976 0.058102563
0.1309661 -0.11537993 0.24355926 0.09165872 0.17399842 -0.07186638 0.19019715 -0.121879734
-0.2335943 -0.08414436 -0.039459378 0.09469099 0.11902491 0.05647694 -0.101574965 0.16761163
0.32180098 -0.2537813 0.1965686 0.06535208 0.14104564 0.17925103 0.16581243 -0.091125116
-0.057955965 -0.066096544 -0.17229857 0.025239201 -0.17616786 0.19514474 -0.23718695 0.21814512
-0.2396328 0.16379096 0.030578827 -0.27226415 0.06594936 -0.20518173 -0.205391 0.035747983
-0.042839184 0.071930416 0.21073209 -0.2436737 0.23853199 -0.13331378 -0.045964297 0.1490444
-0.09515729 -0.13733065 -0.08918519 0.12145631 -0.020352412 0.25868285 0.079288185 -0.24683371
-0.19531472 0.0013988852 0.014774341 -0.062692285 0.07780568 0.14055929 -0.16243613 -0.036691543
0.11379799 0.112599336 -0.10151031 0.1488718 0.09419922 -0.22891642 -0.25659326 -0.023412997
0.080087736 -0.12645689 -0.118895724 -0.25420204 0.060834333 0.16396962 0.24237473 -0.21680358
0.2225854 -0.095132336 -0.19567764 0.19000486 0.19230723 0.011389255 -0.05926828 0.07639908
0.13523105 0.08973356 -0.15833375 0.012682246 0.06346373 0.051518504 0.061401732 0.0581621
0.07274814 0.15134461 -0.12866677 0.22330406 -0.039596967 -0.22709683 0.16687708 -0.17985497
-0.22675118 -0.010798451 0.25602505 -0.17806514 0.030591356 -0.19921516 0.098201685 0.12845793
-0.019992584 -0.23652966 -0.19127782 -0.17619652 -0.047434445 -0.13976854 0.095294684 0.058623895
-0.1661014 0.048915748 -0.21709815 0.14582936 -0.0020585668 0.25234035 0.18454088 -0.120954275
0.16558333 -0.183067 -0.2530313 0.1705524 -0.14198926 -0.21430637 -0.15573806 -0.13625793
-0.22777389 0.042385872 -0.21945727 -0.07614958 0.16568288 -0.19171995 0.16295846 0.24937412
-0.048373956 -0.039139263 -0.23777942 0.2186278 0.18339404 -0.03650849 0.15296413 -0.22281972
-0.15825501 0.22419767 -0.23620115 -0.011524327 -0.12169081 -0.21325006 0.03159982 -0.11444764
0.05749671 -0.10223493 0.08909421 0.04297322 -0.26218998 0.14828561 0.15486695 -0.1942093
0.08163731 -0.1253363 0.16133264 -0.11100341 0.14552496 -0.16432345 -0.14345461 0.10765191
0.06146767 -0.12428476 0.17272735 0.040492695 0.110444136 -0.15052596 0.05288196 0.043706458
0.15403628 0.22277366 0.13482374 0.2253439 -0.12903778 -0.20659578 0.06981222 -0.011987341
-0.037757073 -0.18937582 -0.030542426 -0.012548321 0.13783206 0.096915014 0.037023373 0.15021448
-0.027672078 0.1937444 -0.2128614 -0.004851404 -0.1068543 0.16744766 -0.060740005 -0.15979144
-0.046174914 -0.010834554 0.1828494 0.13939056 -0.21389803 -0.08209893 -0.12487215 -0.01822269
0.088575326 -0.038868714 0.24040617 0.008640348 0.11511655 -0.06171376 0.124741435 0.102725066
-0.010029849 -0.0020087792 0.10008692 0.009675519 -0.1577508 -0.0946702 -0.1602635 0.046465512
0.177394 -0.1453192 0.0827474 -0.17833403 0.10974198 -0.20411414 -0.08732759 -0.004965169

bias f4 [50]
00000000: 03f1 8b3d 0233 9dbd ca9e 3e3d 214e c23b
00000010: 8a43 81bc 88a9 b33c 1b38 aabc fdeb 0fbd
00000020: b67a 1abc 1cd0 c53a 81c6 063b 7aa2 a1bd
00000030: b094 7c3d 8b1f df3c b5df ccbc a969 05bc
00000040: 2f5a 8b3d 3d0c 893d 1403 de3c 2cfa 37bd
00000050: 7091 07bc 2569 70ba 4680 8b3b 5b4e 423d
00000060: 1878 77bc 85c0 093d e950 863c 0800 3dbd
00000070: e752 87bc 5578 413d 9cef 8fbc a0fc 9f3b
00000080: fbca 84bc 76e3 84bb ddac 213b a06a 30bd
00000090: da68 01bb ad6c 703d fa8c d63c fdfe 893c
000000a0: dfc0 27bd 816c 973c 1e21 42bb ac57 6bbd
000000b0: 113b 143d 4233 1dbd 32cf 153c 3a54 cfbb
000000c0: 2ca6 ae3a 8df2 b83d
0.06833079 -0.076757446 0.04653815 0.005929724 -0.015779275 0.021931425 -0.020778706 -0.035137165
-0.009428671 0.0015091929 0.0020565095 -0.07892318 0.061665237 0.02723672 -0.025009016 -0.008142867
0.068043105 0.066917874 0.027101077 -0.044916317 -0.008274421 -0.0009170941 0.0042572347 0.047438007
-0.015104316 0.033630867 0.016396003 -0.046142608 -0.016519023 0.0472339 -0.01757031 0.00488241
-0.01621007 -0.004055436 0.0024669685 -0.043070436 -0.0019746334 0.05869739 0.02619027 0.01684522
-0.04095542 0.018484356 -0.002962179 -0.057456657 0.036189143 -0.03837896 0.0091436375 -0.0063271793
0.001332467 0.09030638

weight f4 [50, 50]
00000000: 5ec5 423e 4293 203e d2e8 733e 0558 8a3d
00000010: 0c86 39be a779 67be f6a7 1d3e 3384 433e
00000020: a4ac 733e 2d2d 2dbe e929 3f3e 8d63 c3bd
00000030: 6b00 923d 445a 6d3e 2748 45be 8690 77be
00000040: 0da9 243e 4a4b 63be 7ac3 c73d 9671 0c3e
00000050: 5dc1 383e 169c 4b3c 2de0 7ebd 98be eb3c
00000060: 9206 26bd ae55 67be 754e 803d 9bd2 1dbe
00000070: 7db7 373e 979e e4bd 0be7 1bbd 7b4e 43be
00000080: 61c5 5f3e 4da2 123e ec4c 533e 9d1a 0d3e
00000090: c5fc 15be 1e72 6f3e 0716 e4bc 6be1 683e
000000a0: 9ead f73c 91d4 243e 14a2 bfbd 3394 c03d
000000b0: 37eb 8cbb 2262 57be a76d 463e 2646 0ebe
000000c0: 95f6 2abe eb62 513e 4491 26be 8bf6 ed3d
000000d0: 5083 3c3e 34aa 4bbd 943e 4dbe 08c4 5dbe
000000e0: 9af6 4bbd b616 44bd 6c72 353e 968c 423e
000000f0: dc4d 95be 8b94 8ebd e233 6abe ba22 093e
00000100: 1d7a 4e3e b4d7 a0bd faae e83c f043 60bd
00000110: 55cf 94be 4f1f 813e 7cc4 e43d e9a2 853e
00000120: e7e3 6ebe 7ddf 213d 0408 2fbe 1700 8c3d
00000130: de2a 81bd 414e 1dbe d8af 513e 46da 433e
00000140: b179 a73e 51ad 1b3e 28a5 393e ad8d 10be
00000150: f047 c0bd 3d7e 0ebe 6b35 0abd c1af e13c
00000160: 4424 433d dab5 1abe 4c32 71bd 6588 f6bd
00000170: 1a48 a8bd 4781 3cbe 581e d6bd 2681 04be
00000180: 2b7e 2fbe fd96 b1bc 47c9 56be 2d43 92be
00000190: 0ee2 4c3e 3971 51be 5c6d 483e 06a5 8d3c
000001a0: ece9 24bd 9c91 543e 7f14 71be 38f8 0c3e
000001b0: 4ffe 1f3e 4d83 503e 2ae6 63be 89a5 063d
000001c0: 17da 8abd e5ba 03be 8846 273e 81cc 2bbd
000001d0: 1d0b 643e 00c3 08be 3321 c4bd e485 a13d
000001e0: a6fc 1a3d ffb6 293e e5e2 d13d cc29 823e
000001f0: 85dc 48be ec3a 8a3d ad16 513e efc8 afbd
00000200: 5ce5 1ebe 36e8 843e 7f1a 55be ea31 5dbe
00000210: 407a 59be 5d94 a73d 43da c13c e1a1 7fbe
00000220: 5c7f 293e f7b7 c53d 71a3 f83d fe70 65be
00000230: c248 87be 543f 4abe b3b3 90bd 7a08 86be
00000240: 6cd1 013e 8b75 38bd 4f98 edbc 38d0 693e
00000250: 3b52 1c3d 9f96 9b3d a8cf 13be 3187 8cbd
00000260: 4568 50be 4ff3 07be 3f91 703e 0109 4abe
00000270: 1fe0 0d3e 32a8 0d3e efb6 183e dc74 303e
00000280: 28a2 683e b0fa cb3d 5089 b0bb 0a0e 85bd
00000290: 1ed9 84be 0664 e33d a047 95bd f732 5c3c
000002a0: 8517 87bd 7f36 1c3e f3da 60bc 7d5e 403e
000002b0: dba6 1d3e e192 753d 359a f5bc 1348 f33d
000002c0: da3b 10be d69b 103e 0e47 303e 8228 283d
000002d0: 2c42 e6bc 799c 933d 328e 543e 28a1 8a3d
000002e0: 681e e1bd 688a bcbc 19d5 74be bd57 d6bb
000002f0: 9696 6cbe 9a3d 903d 28c8 383d a015 823e
00000300: 04ad 8cbd 499d 3d3c 1f9f 54bc 1541 cabd
00000310: 34c7 bebd fd28 04be 1187 04be f13b b43c
00000320: 0ac3 e03d bbc2 913d 856b 303e a370 63bd
00000330: ca26 ad3d de78 56be e4e0 3d3e 6ea7 603e
00000340: 3035 e43d bf37 06be af40 d2bd ecf6 47be
00000350: 38b1 35be 18c7 7b3e 84d7 063e 4860 553e
00000360: 6a49 ff3d 0a65 61bc 9fd5 953d 3188 d2bd
00000370: 22cf 30be 4f26 83bd 2d00 02be 22e6 563e
00000380: 162e 60be dce5 573e d4e7 92bd 91c8 673d
00000390: 4178 6a3e 88ac 15be 4250 71bd 1235 0a3e
000003a0: 64fa 4dbd 18ed 943c d43c fe3d 5f09 dc3a
000003b0: 7309 1b3e 7c24 01be f90c 903d 3c8d 08bc
000003c0: bfa4 35be c009 9bbd 0712 023d 565c 08be
000003d0: 709f 603e 7357 c2bd 3669 833d 532e 433d
000003e0: 2166 f4bd fcf6 163e d5ac c8bc 65ed d1bc
000003f0: aca2 a0bd fa71 81be 69a6 1f3e 5ac9 ebbd
0.19020602 0.15681174 0.23819283 0.0675507 -0.18117541 -0.22605 0.15396103 0.19093399
0.23796326 -0.16911764 0.18668331 -0.09540472 0.07128986 0.23178965 -0.19265805 -0.24176225
0.16080113 -0.22196689 0.09754081 0.13715205 0.18042512 0.0124273505 -0.06222551 0.028777406
-0.04053361 -0.22591278 0.062649645 -0.15412371 0.17941089 -0.11163061 -0.038062137 -0.19072907
0.21852638 0.14319725 0.20634812 0.13779683 -0.14647205 0.23383376 -0.027842535 0.2274224
0.030234154 0.16096713 -0.09357086 0.09403267 -0.0043005007 -0.21033528 0.19377767 -0.13893947
-0.16695626 0.2044789 -0.16266352 0.1161929 0.18409467 -0.049722865 -0.20043403 -0.21656811
-0.049795724 -0.04787322 0.1771943 0.18998942 -0.29160964 -0.06961926 -0.22871354 0.13392153
0.2016377 -0.07853642 0.028403748 -0.05475229 -0.29064432 0.252192 0.11170289 0.26100853
-0.23329125 0.039519776 -0.17092901 0.06835955 -0.063070044 -0.15361883 0.20477235 0.19126233
0.3271003 0.15202834 0.18129408 -0.14116545 -0.09388721 -0.13915344 -0.03374235 0.027549626
0.047642007 -0.15108433 -0.058885857 -0.12037734 -0.08216877 -0.1840869 -0.10455006 -0.12939891
-0.17137973 -0.021678442 -0.20975219 -0.28566876 0.20008108 -0.20453347 0.19572967 0.017290603
-0.040262148 0.2075867 -0.23542975 0.13766563 0.15624355 0.20362587 -0.2225577 0.03287271
-0.067798786 -0.12864263 0.163355 -0.041943077 0.22269864 -0.13355637 -0.09576645 0.07886866
0.0378386 0.16573714 0.10248355 0.25422513 -0.19615372 0.0674952 0.20418806 -0.08583247
-0.15517181 0.25958413 -0.20810889 -0.21601072 -0.21238041 0.08182595 0.023663646 -0.24964096
0.1655249 0.09654229 0.12140549 -0.22406384 -0.26422697 -0.1975072 -0.07065525 -0.26178342
0.12677544 -0.045033973 -0.02900329 0.22833335 0.03816436 0.07597088 -0.14434683 -0.06861723
-0.20352276 -0.13276409 0.23492907 -0.19729997 0.13855027 0.13833693 0.14913534 0.17232078
0.22718108 0.09959924 -0.0053874627 -0.06496818 -0.25946897 0.11103062 -0.07289052 0.013439885
-0.06596283 0.15255164 -0.013724077 0.18786044 0.15395682 0.059954528 -0.029980758 0.118789814
-0.14085332 0.14121947 0.17214605 0.041054256 -0.028107725 0.07207579 0.20757368 0.06769019
-0.10992128 -0.023015216 -0.23909415 -0.006541221 -0.23104319 0.070429996 0.04511276 0.25407124
-0.068689376 0.011573144 -0.012977391 -0.09875695 -0.09315339 -0.12906261 -0.12942149 0.022001239
0.10974701 0.0711722 0.17228515 -0.05552734 0.08454664 -0.20944545 0.1854282 0.2193887
0.11142957 -0.13107203 -0.10266244 -0.19527787 -0.17743385 0.24587667 0.1316815 0.2083751
0.124651745 -0.013757 0.073161356 -0.10279883 -0.17266515 -0.06403791 -0.1269538 0.20986226
-0.2189258 0.21083778 -0.07173124 0.05658776 0.22897436 -0.14616597 -0.05891443 0.13496807
-0.05028762 0.018179461 0.12413946 0.0016787461 0.15140323 -0.12611574 0.07033724 -0.008334454
-0.17738627 -0.07570219 0.031755473 -0.13316473 0.2193582 -0.09489336 0.06416552 0.0476516
-0.11933542 0.14742655 -0.024496475 -0.025625894 -0.07843527 -0.2528227 0.15590824 -0.11513014

bias f4 [50]
00000000: 3e08 3b3c 0591 4ebd 921a 8f3a 2369 c0bb
00000010: 8789 f73c bf6e 603b f9c6 bbbc 5bdc 89bc
00000020: b74b 8f3c e32f 80bd bb1a 103d 25cc e03b
00000030: d360 993d 390a 3e3d 4298 993c 0184 61bd
00000040: cd81 5d3c a95c 0bbd cdbc da3c 48d1 26bb
00000050: 447f 01bd a4bc b33c 92cb b3bb cc7e a53c
00000060: 1f6d de3a 5dff cf3c df66 27bc 65aa efbb
00000070: 43c2 fb39 c0f3 01bc 8a0f 1d3c 6818 23bc
00000080: c863 9db9 04e3 333d c9b5 f7bc 824e 743b
00000090: ef84 a03c dea7 59bd 2ff4 4e3c 8bbf 103b
000000a0: e68f 643c e1e3 0dbd 9091 043b fd62 363c
000000b0: 9c92 053c 5837 cabc 8f4f 463c c17b ddbb
000000c0: ca5e 03bd 71ef a83c
0.011415539 -0.05043127 0.0010917953 -0.0058719083 0.030216945 0.0034245697 -0.022922026 -0.016828706
0.017492158 -0.06259134 0.035181742 0.0068602734 0.07489171 0.046396468 0.01874936 -0.05505753
0.013519716 -0.034023914 0.026701355 -0.0025454331 -0.03161551 0.021940537 -0.005486914 0.020202063
0.0016969776 0.025390321 -0.0102173975 -0.007314014 0.00048019187 -0.00793165 0.009586224 -0.009954549
-0.00030019716 0.04391767 -0.03023805 0.003727824 0.019594638 -0.053138606 0.01263146 0.0022086825
0.013950324 -0.03464115 0.0020228364 0.011131999 0.00815263 -0.024684593 0.012103929 -0.0067591374
-0.03207282 0.020621987

weight f4 [50, 50]
00000000: 6ba5 503e 9036 353e d2a2 403e 3430 9b3c
00000010: 4873 01be b0bb 403c 1279 84bd edaf 1ebe
00000020: 5088 5bbe 2072 5a3e 5cff 5ebe 7808 8ebd
00000030: feeb 103e c28c 12be c732 74bd 7058 34be
00000040: c455 403c ec96 613e 8280 e33d 7b4f d7bc
00000050: a528 343e e0a6 483e aaf4 533e 121a a8bd
00000060: 0cca bc3d 25ce 533d 9172 f93d aa9f 4e3e
00000070: f02a bbbd cfdd 35be 009e e73d 488f 323d
00000080: 9b84 fcbd 5491 583e ae34 c4bc 2404 4c3e
00000090: c982 3ebe 9c2e b8bd f766 ff3d 28c1 02be
000000a0: a113 403d b2e2 b8bc 1c7a 413e 058a 82be
000000b0: 161b 31be 12ad 25be 02b6 8c3c a999 42bc
000000c0: 0b14 02be 4da4 36be 0cd3 113e e96e 54be
000000d0: ba87 0cbe 6ea5 10bd d583 70be c81a e5bd
000000e0: f217 553c ef6b bd3d 1300 893b d115 6c3e
000000f0: a48e 05bd b332 c93d b8e2 abbd cd02 d5bc
00000100: 3840 523e f289 3c3e 27c5 81bd c8c4 04be
00000110: 1310 50bd db6a 42be 7647 023e 0164 6d3e
00000120: 9511 00bd f00a 0abe e5cb 713e 5a6e c1bd
00000130: 3891 4c3c bf6b 1abe 0bbd 543e a389 2f3d
00000140: c73e 6cbe 6671 5b3e 5985 133e 58a6 0f3e
00000150: 5707 743e 4ecd 2b3d 8ea6 d3bd ea5d afbd
00000160: 1a9a 0d3e 7a03 0cbe 10a0 5d3e 3887 e9bd
00000170: 50d0 603e fc9c a8bd 3c52 3e3e 9f4c d8bd
00000180: 7b38 773d 7095 2e3e fd53 413d 1052 efbc
00000190: 5b0a 11be 5d64 27be 8105 e73d c5e8 523e
000001a0: 724a 09be d8b6 22be 927f 24be 7ae9 ecbc
000001b0: 3a44 e7bd b5bf ae3d 85e3 b1bd 3013 89bd
000001c0: c2a3 933e 1439 fcbd 1818 51be da82 513d
000001d0: 1aca 6abe 1283 a7bd 2837 29be 576b 29be
000001e0: 92a3 ad3c a715 e33d 87d9 7bbd c290 6dbe
000001f0: f8fa 3abe 8fd2 c4bc 3c0a 453e 7a30 27bd
00000200: 34ed df3d f200 383d 02b2 643e 4d4c c73d
00000210: 61a7 203d f47b 94bd faf1 b0bc 32a4 383e
00000220: 90c2 d43d 92c7 19be 3334 553e dbfd 0b3e
00000230: 1718 abbd 5c5a 473d 0afd cb3d a6cd 833d
00000240: 22de 26bd c7a5 903c 2f4f 073e 37c7 8d3b
00000250: bbb6 06be d04c 3b3e 79b2 453e 1ecf c6bd
00000260: 5901 68be ee4a 04be dce4 2ebe 33d7 87bc
00000270: 0a45 70be 9813 28be 6398 ce3d 4470 20bd
00000280: 4253 5fbc b422 5b3d 4ca8 733d 463d 433e
00000290: dec8 bfbc 6d59 abbc cd43 5bbe f17d 77be
000002a0: ee52 28be 8e4b 043e 6903 0b3e 5356 c63d
000002b0: 11f4 023e 1454 d3bc 6356 60be 8d07 473e
000002c0: d96a a3bd f461 6ebd cb29 17be 5c3e 423e
000002d0: 9e3d 413e f47d f2bd 1fed 4c3e 6be5 133e
000002e0: 49b0 5c3d 7f82 8abd 11e1 25be 83be 873c
000002f0: f981 e83d d5a0 10be ec51 2b3e fd9b e23d
00000300: 7b83 8e3a 545f 71be f778 51be 71f4 3e3e
00000310: 8e1c 1e3d c5c0 60bd e61d 04be e851 ebbd
00000320: f926 633e 4c06 2c3e ee29 92bc 3fbc 3a3e
00000330: 05e5 19be 2b82 8bbd dbc3 a43d 2324 0abe
00000340: 6d4f 6a3e c44f 203e abed 123d 571e 44be
00000350: b95a ca3d bf8f acbd 713f 88bd 323a 363e
00000360: a033 10bd 1546 723e 9ab1 72bd 4287 1fbe
00000370: 3ef2 a4bd f887 6abe b2ae 083e 1623 f93d
00000380: 1702 683d 6bbe 47be a49a 2f3c 664a f33d
00000390: 1834 5b3e ec49 d2bd bc06 a83d dfde 113e
000003a0: b8b6 11bd 0a38 56bd 504a 173e 2655 103d
000003b0: 4459 b8bd d9b3 943d 10aa 9a3c 3c16 24bd
000003c0: 59e3 c5bd bf4e d33d 61e4 5f3e 9dd7 e5bc
000003d0: ed67 2a3e bb2a 823e 1261 293e bc77 eb3d
000003e0: 5411 47be 71dd 05be 5a93 c9bd 265a 3a3e
000003f0: 256a 803d 50bd 52be e2f4 5abe c4d2 82be
0.20375602 0.17696595 0.18812111 0.018943883 -0.12641633 0.011763498 -0.06468405 -0.15496798
-0.21438718 0.21332598 -0.217771 -0.06935209 0.14152524 -0.14311507 -0.059618738 -0.17611861
0.011739198 0.22030228 0.11108495 -0.026283016 0.1759363 0.19594908 0.206988 -0.082080975
0.09218225 0.051710267 0.12180055 0.20178095 -0.09139049 -0.17760395 0.11309433 0.043593675
-0.1232998 0.21149188 -0.0239509 0.19923455 -0.18604578 -0.08993265 0.12470811 -0.12768996
0.04689372 -0.022569034 0.18894237 -0.25495926 -0.17295489 -0.16179302 0.017176632 -0.011877456
-0.12702958 -0.17836113 0.14240664 -0.20745434 -0.1372365 -0.035314016 -0.2348779 -0.11186749
0.013006197 0.09249102 0.004180917 0.23055197 -0.032606736 0.09824123 -0.083928525 -0.026002312
0.2053231 0.18411997 -0.06336432 -0.12965691 -0.05079658 -0.18986075 0.12722573 0.2318268
-0.031266768 -0.13480735 0.23612936 -0.09444876 0.012485795 -0.15080164 0.20775239 0.04285587
-0.23070823 0.21429977 0.14406337 0.14028299 0.23830925 0.04194384 -0.10334502 -0.085628346
0.13828316 -0.13673201 0.2164309 -0.11402744 0.21954465 -0.082330674 0.18586057 -0.10561489
0.0603566 0.17049193 0.047199238 -0.029213935 -0.14164107 -0.1634688 0.11280347 0.20596607
-0.13407305 -0.15890062 -0.16064289 -0.028919924 -0.1129231 0.08532659 -0.08685974 -0.06693113
0.28835875 -0.12315574 -0.20419347 0.05115018 -0.22928658 -0.081792966 -0.16524947 -0.16544853
0.02119616 0.11088114 -0.061486747 -0.23199752 -0.182598 -0.024026183 0.19242185 -0.040817715
0.10933915 0.044922777 0.2233353 0.0973135 0.039222125 -0.07250205 -0.021599758 0.18031386
0.10388672 -0.15017536 0.20820694 0.13671057 -0.08354204 0.048670158 0.09960373 0.06435709
-0.040739186 0.017657174 0.132138 0.004326727 -0.13155644 0.1829102 0.19306363 -0.09707473
-0.22656764 -0.12919208 -0.1707949 -0.016582107 -0.23463836 -0.16413724 0.10087659 -0.039169565
-0.01363069 0.053499892 0.059486672 0.19066343 -0.02341121 -0.020916665 -0.21412583 -0.24169137
-0.16437885 0.12919447 0.1357552 0.09684434 0.12788416 -0.025796928 -0.21907954 0.19436474
-0.07979364 -0.058198884 -0.14762037 0.189691 0.18871161 -0.1184043 0.2001233 0.14442985
0.053879056 -0.067631714 -0.16199137 0.016570335 0.11352915 -0.14123853 0.1673047 0.11064909
0.0010872924 -0.23571521 -0.204563 0.18647934 0.03860145 -0.05487134 -0.1290203 -0.11490232
0.22182836 0.16799277 -0.01784226 0.18235873 -0.1502877 -0.06811937 0.08045169 -0.13490348
0.22881861 0.15655428 0.03587119 -0.19152199 0.09880585 -0.08425855 -0.066527255 0.17795637
-0.035205483 0.23659547 -0.059251405 -0.1557894 -0.080540165 -0.2290343 0.13347891 0.12164895
0.056642618 -0.19506232 0.010718022 0.11879425 0.21406591 -0.10268006 0.082044095 0.14245175
-0.035574645 -0.052299537 0.14774442 0.035237454 -0.09001401 0.07260866 0.01887992 -0.040060267
-0.09662504 0.10317754 0.21864463 -0.028056914 0.16641207 0.25423226 0.16540936 0.11497447
-0.19440204 -0.13072754 -0.09842558 0.18198451 0.062702455 -0.2058003 -0.21382478 -0.25551426

bias f4 [50]
00000000: 6bab f6bc 1233 92bc fd4c 1fbc ec8c d63a
00000010: 5934 633c eb54 49bc 7762 b1ba e067 ff3a
00000020: 172f 9c3c 4d47 9ebc 1ec3 02ba 0b98 91bc
00000030: e155 b13c 0c05 6ebb 4cb6 a0bc 9235 4a3c
00000040: 9a99 7a3c 6729 2b3c 7880 903c 443e f83a
00000050: e381 203c a635 8039 ae6d 3c3d 491e 64bc
00000060: 2606 e13b 30f7 6c3c 5df6 aa3b 0d0a 39bb
00000070: 1df4 f9bc ce9a 3dba 9ec9 85bc 0065 8dbc
00000080: 0168 17ba 9a35 0b3c f6c7 83bc a8b8 f93c
00000090: c621 9cbb e97d 2a3c 6fa8 05bc 5789 0c3c
000000a0: c408 80bb a31f 54bb 97ce e4bc 782b 403d
000000b0: ea3c 38bc 440d f2bb 62fd 0bbd 4a25 a43b
000000c0: 12c9 4fbb b03c c33c
-0.030111035 -0.017846618 -0.009722945 0.0016368902 0.013867461 -0.012288312 -0.0013533373 0.0019485913
0.019065423 -0.019321108 -0.0004988181 -0.017772695 0.021647396 -0.0036318926 -0.019618176 0.012341874
0.0152954105 0.010446883 0.017639384 0.0018939455 0.009796592 0.00024454034 0.046003036 -0.013923236
0.006867188 0.014463231 0.005217357 -0.002823475 -0.03051191 -0.00072328455 -0.01633149 -0.017260075
-0.00057756907 0.008496666 -0.01608656 0.030483559 -0.0047647683 0.010405996 -0.0081578335 0.008577666
-0.003907295 -0.003236749 -0.027930541 0.046916455 -0.011244992 -0.0073868353 -0.03417719 0.005009328
-0.003170554 0.023832649
