pbc_examples/saved_models/convection_beta-1.0_layers-30,30,30,30,1_L-2.0_WD-0_init-normal_batch_size256.pt (torch, 53997 bytes, 36 tensors)

x_u f4 [256, 1]
00000000: 0000 0000 db0f c93c db0f 493d e4cb 963d
00000010: db0f c93d d153 fb3d e4cb 163e dfed 2f3e
00000020: db0f 493e d631 623e d153 7b3e e63a 8a3e
00000030: e4cb 963e e25c a33e dfed af3e dd7e bc3e
00000040: db0f c93e d8a0 d53e d631 e23e d4c2 ee3e
00000050: d153 fb3e 67f2 033f e63a 0a3f 6583 103f
00000060: e4cb 163f 6314 1d3f e25c 233f 60a5 293f
00000070: dfed 2f3f 5e36 363f dd7e 3c3f 5cc7 423f
00000080: db0f 493f 5958 4f3f d8a0 553f 57e9 5b3f
00000090: d631 623f 557a 683f d4c2 6e3f 520b 753f
000000a0: d153 7b3f 28ce 803f 67f2 833f a716 873f
000000b0: e63a 8a3f 265f 8d3f 6583 903f a5a7 933f
000000c0: e4cb 963f 23f0 993f 6314 9d3f a238 a03f
000000d0: e25c a33f 2181 a63f 60a5 a93f a0c9 ac3f
000000e0: dfed af3f 1f12 b33f 5e36 b63f 9e5a b93f
000000f0: dd7e bc3f 1ca3 bf3f 5cc7 c23f 9beb c53f
00000100: db0f c93f 1a34 cc3f 5958 cf3f 997c d23f
00000110: d8a0 d53f 18c5 d83f 57e9 db3f 970d df3f
00000120: d631 e23f 1556 e53f 557a e83f 949e eb3f
00000130: d4c2 ee3f 13e7 f13f 520b f53f 922f f83f
00000140: d153 fb3f 1178 fe3f 28ce 0040 4860 0240
00000150: 67f2 0340 8784 0540 a716 0740 c7a8 0840
00000160: e63a 0a40 06cd 0b40 265f 0d40 45f1 0e40
00000170: 6583 1040 8515 1240 a5a7 1340 c439 1540
00000180: e4cb 1640 045e 1840 23f0 1940 4382 1b40
00000190: 6314 1d40 83a6 1e40 a238 2040 c2ca 2140
000001a0: e25c 2340 01ef 2440 2181 2640 4113 2840
000001b0: 60a5 2940 8037 2b40 a0c9 2c40 c05b 2e40
000001c0: dfed 2f40 ff7f 3140 1f12 3340 3ea4 3440
000001d0: 5e36 3640 7ec8 3740 9e5a 3940 bdec 3a40
000001e0: dd7e 3c40 fd10 3e40 1ca3 3f40 3c35 4140
000001f0: 5cc7 4240 7c59 4440 9beb 4540 bb7d 4740
00000200: db0f 4940 faa1 4a40 1a34 4c40 3ac6 4d40
00000210: 5958 4f40 79ea 5040 997c 5240 b90e 5440
00000220: d8a0 5540 f832 5740 18c5 5840 3757 5a40
00000230: 57e9 5b40 777b 5d40 970d 5f40 b69f 6040
00000240: d631 6240 f6c3 6340 1556 6540 35e8 6640
00000250: 557a 6840 750c 6a40 949e 6b40 b430 6d40
00000260: d4c2 6e40 f354 7040 13e7 7140 3379 7340
00000270: 520b 7540 729d 7640 922f 7840 b2c1 7940
00000280: d153 7b40 f1e5 7c40 1178 7e40 1805 8040
00000290: 28ce 8040 3897 8140 4860 8240 5829 8340
000002a0: 67f2 8340 77bb 8440 8784 8540 974d 8640
000002b0: a716 8740 b7df 8740 c7a8 8840 d671 8940
000002c0: e63a 8a40 f603 8b40 06cd 8b40 1696 8c40
000002d0: 265f 8d40 3628 8e40 45f1 8e40 55ba 8f40
000002e0: 6583 9040 754c 9140 8515 9240 95de 9240
000002f0: a5a7 9340 b470 9440 c439 9540 d402 9640
00000300: e4cb 9640 f494 9740 045e 9840 1427 9940
00000310: 23f0 9940 33b9 9a40 4382 9b40 534b 9c40
00000320: 6314 9d40 73dd 9d40 83a6 9e40 926f 9f40
00000330: a238 a040 b201 a140 c2ca a140 d293 a240
00000340: e25c a340 f125 a440 01ef a440 11b8 a540
00000350: 2181 a640 314a a740 4113 a840 51dc a840
00000360: 60a5 a940 706e aa40 8037 ab40 9000 ac40
00000370: a0c9 ac40 b092 ad40 c05b ae40 cf24 af40
00000380: dfed af40 efb6 b040 ff7f b140 0f49 b240
00000390: 1f12 b340 2fdb b340 3ea4 b440 4e6d b540
000003a0: 5e36 b640 6eff b640 7ec8 b740 8e91 b840
000003b0: 9e5a b940 ad23 ba40 bdec ba40 cdb5 bb40
000003c0: dd7e bc40 ed47 bd40 fd10 be40 0dda be40
000003d0: 1ca3 bf40 2c6c c040 3c35 c140 4cfe c140
000003e0: 5cc7 c240 6c90 c340 7c59 c440 8b22 c540
000003f0: 9beb c540 abb4 c640 bb7d c740 cb46 c840
0.0 0.024543693 0.049087387 0.07363108 0.09817477 0.12271846 0.14726216 0.17180584
0.19634955 0.22089323 0.24543692 0.2699806 0.2945243 0.319068 0.3436117 0.3681554
0.3926991 0.41724277 0.44178647 0.46633017 0.49087384 0.5154175 0.5399612 0.5645049
0.5890486 0.6135923 0.638136 0.6626797 0.6872234 0.7117671 0.7363108 0.7608545
0.7853982 0.8099418 0.83448553 0.85902923 0.88357294 0.90811664 0.93266034 0.957204
0.9817477 1.0062914 1.030835 1.0553788 1.0799224 1.1044662 1.1290098 1.1535536
1.1780972 1.2026409 1.2271847 1.2517283 1.276272 1.3008157 1.3253593 1.3499031
1.3744467 1.3989905 1.4235342 1.4480779 1.4726216 1.4971652 1.521709 1.5462526
1.5707964 1.59534 1.6198837 1.6444274 1.6689711 1.6935148 1.7180585 1.7426022
1.7671459 1.7916895 1.8162333 1.8407769 1.8653207 1.8898643 1.914408 1.9389517
1.9634954 1.9880391 2.0125828 2.0371265 2.06167 2.0862138 2.1107576 2.1353014
2.1598449 2.1843886 2.2089324 2.233476 2.2580197 2.2825634 2.3071072 2.3316507
2.3561945 2.3807383 2.4052818 2.4298255 2.4543693 2.478913 2.5034566 2.5280004
2.552544 2.5770876 2.6016314 2.6261752 2.6507187 2.6752625 2.6998062 2.72435
2.7488935 2.7734373 2.797981 2.8225245 2.8470683 2.871612 2.8961558 2.9206994
2.9452431 2.969787 2.9943304 3.0188742 3.043418 3.0679617 3.0925052 3.117049
3.1415927 3.1661363 3.19068 3.2152238 3.2397673 3.264311 3.2888548 3.3133986
3.3379421 3.362486 3.3870296 3.4115732 3.436117 3.4606607 3.4852045 3.509748
3.5342917 3.5588355 3.583379 3.6079228 3.6324666 3.6570103 3.6815538 3.7060976
3.7306414 3.755185 3.7797287 3.8042724 3.828816 3.8533597 3.8779035 3.9024472
3.9269907 3.9515345 3.9760783 4.000622 4.0251656 4.0497093 4.074253 4.098797
4.12334 4.147884 4.1724277 4.1969714 4.221515 4.246059 4.2706027 4.295146
4.3196898 4.3442335 4.3687773 4.393321 4.417865 4.4424086 4.466952 4.4914956
4.5160394 4.540583 4.565127 4.5896707 4.6142144 4.6387577 4.6633015 4.687845
4.712389 4.7369328 4.7614765 4.7860203 4.8105636 4.8351073 4.859651 4.884195
4.9087386 4.9332824 4.957826 4.9823694 5.006913 5.031457 5.0560007 5.0805445
5.105088 5.1296315 5.1541753 5.178719 5.203263 5.2278066 5.2523503 5.276894
5.3014374 5.325981 5.350525 5.3750687 5.3996124 5.424156 5.4487 5.473243
5.497787 5.5223308 5.5468745 5.5714183 5.595962 5.620506 5.645049 5.669593
5.6941366 5.7186804 5.743224 5.767768 5.7923117 5.816855 5.8413987 5.8659425
5.8904862 5.91503 5.939574 5.9641175 5.988661 6.0132046 6.0377483 6.062292
6.086836 6.1113796 6.1359234 6.1604667 6.1850104 6.209554 6.234098 6.2586417

t_u f4 [256, 1]
00000000: 0000 0000 0000 0000 0000 0000 0000 0000
00000010: 0000 0000 0000 0000 0000 0000 0000 0000
00000020: 0000 0000 0000 0000 0000 0000 0000 0000
00000030: 0000 0000 0000 0000 0000 0000 0000 0000
00000040: 0000 0000 0000 0000 0000 0000 0000 0000
00000050: 0000 0000 0000 0000 0000 0000 0000 0000
00000060: 0000 0000 0000 0000 0000 0000 0000 0000
00000070: 0000 0000 0000 0000 0000 0000 0000 0000
00000080: 0000 0000 0000 0000 0000 0000 0000 0000
00000090: 0000 0000 0000 0000 0000 0000 0000 0000
000000a0: 0000 0000 0000 0000 0000 0000 0000 0000
000000b0: 0000 0000 0000 0000 0000 0000 0000 0000
000000c0: 0000 0000 0000 0000 0000 0000 0000 0000
000000d0: 0000 0000 0000 0000 0000 0000 0000 0000
000000e0: 0000 0000 0000 0000 0000 0000 0000 0000
000000f0: 0000 0000 0000 0000 0000 0000 0000 0000
00000100: 0000 0000 0000 0000 0000 0000 0000 0000
00000110: 0000 0000 0000 0000 0000 0000 0000 0000
00000120: 0000 0000 0000 0000 0000 0000 0000 0000
00000130: 0000 0000 0000 0000 0000 0000 0000 0000
00000140: 0000 0000 0000 0000 0000 0000 0000 0000
00000150: 0000 0000 0000 0000 0000 0000 0000 0000
00000160: 0000 0000 0000 0000 0000 0000 0000 0000
00000170: 0000 0000 0000 0000 0000 0000 0000 0000
00000180: 0000 0000 0000 0000 0000 0000 0000 0000
00000190: 0000 0000 0000 0000 0000 0000 0000 0000
000001a0: 0000 0000 0000 0000 0000 0000 0000 0000
000001b0: 0000 0000 0000 0000 0000 0000 0000 0000
000001c0: 0000 0000 0000 0000 0000 0000 0000 0000
000001d0: 0000 0000 0000 0000 0000 0000 0000 0000
000001e0: 0000 0000 0000 0000 0000 0000 0000 0000
000001f0: 0000 0000 0000 0000 0000 0000 0000 0000
00000200: 0000 0000 0000 0000 0000 0000 0000 0000
00000210: 0000 0000 0000 0000 0000 0000 0000 0000
00000220: 0000 0000 0000 0000 0000 0000 0000 0000
00000230: 0000 0000 0000 0000 0000 0000 0000 0000
00000240: 0000 0000 0000 0000 0000 0000 0000 0000
00000250: 0000 0000 0000 0000 0000 0000 0000 0000
00000260: 0000 0000 0000 0000 0000 0000 0000 0000
00000270: 0000 0000 0000 0000 0000 0000 0000 0000
00000280: 0000 0000 0000 0000 0000 0000 0000 0000
00000290: 0000 0000 0000 0000 0000 0000 0000 0000
000002a0: 0000 0000 0000 0000 0000 0000 0000 0000
000002b0: 0000 0000 0000 0000 0000 0000 0000 0000
000002c0: 0000 0000 0000 0000 0000 0000 0000 0000
000002d0: 0000 0000 0000 0000 0000 0000 0000 0000
000002e0: 0000 0000 0000 0000 0000 0000 0000 0000
000002f0: 0000 0000 0000 0000 0000 0000 0000 0000
00000300: 0000 0000 0000 0000 0000 0000 0000 0000
00000310: 0000 0000 0000 0000 0000 0000 0000 0000
00000320: 0000 0000 0000 0000 0000 0000 0000 0000
00000330: 0000 0000 0000 0000 0000 0000 0000 0000
00000340: 0000 0000 0000 0000 0000 0000 0000 0000
00000350: 0000 0000 0000 0000 0000 0000 0000 0000
00000360: 0000 0000 0000 0000 0000 0000 0000 0000
00000370: 0000 0000 0000 0000 0000 0000 0000 0000
00000380: 0000 0000 0000 0000 0000 0000 0000 0000
00000390: 0000 0000 0000 0000 0000 0000 0000 0000
000003a0: 0000 0000 0000 0000 0000 0000 0000 0000
000003b0: 0000 0000 0000 0000 0000 0000 0000 0000
000003c0: 0000 0000 0000 0000 0000 0000 0000 0000
000003d0: 0000 0000 0000 0000 0000 0000 0000 0000
000003e0: 0000 0000 0000 0000 0000 0000 0000 0000
000003f0: 0000 0000 0000 0000 0000 0000 0000 0000
0.0 0.0 0.0 0.0 0.0 0.0 0.0 0.0
0.0 0.0 0.0 0.0 0.0 0.0 0.0 0.0
0.0 0.0 0.0 0.0 0.0 0.0 0.0 0.0
0.0 0.0 0.0 0.0 0.0 0.0 0.0 0.0
0.0 0.0 0.0 0.0 0.0 0.0 0.0 0.0
0.0 0.0 0.0 0.0 0.0 0.0 0.0 0.0
0.0 0.0 0.0 0.0 0.0 0.0 0.0 0.0
0.0 0.0 0.0 0.0 0.0 0.0 0.0 0.0
0.0 0.0 0.0 0.0 0.0 0.0 0.0 0.0
0.0 0.0 0.0 0.0 0.0 0.0 0.0 0.0
0.0 0.0 0.0 0.0 0.0 0.0 0.0 0.0
0.0 0.0 0.0 0.0 0.0 0.0 0.0 0.0
0.0 0.0 0.0 0.0 0.0 0.0 0.0 0.0
0.0 0.0 0.0 0.0 0.0 0.0 0.0 0.0
0.0 0.0 0.0 0.0 0.0 0.0 0.0 0.0
0.0 0.0 0.0 0.0 0.0 0.0 0.0 0.0
0.0 0.0 0.0 0.0 0.0 0.0 0.0 0.0
0.0 0.0 0.0 0.0 0.0 0.0 0.0 0.0
0.0 0.0 0.0 0.0 0.0 0.0 0.0 0.0
0.0 0.0 0.0 0.0 0.0 0.0 0.0 0.0
0.0 0.0 0.0 0.0 0.0 0.0 0.0 0.0
0.0 0.0 0.0 0.0 0.0 0.0 0.0 0.0
0.0 0.0 0.0 0.0 0.0 0.0 0.0 0.0
0.0 0.0 0.0 0.0 0.0 0.0 0.0 0.0
0.0 0.0 0.0 0.0 0.0 0.0 0.0 0.0
0.0 0.0 0.0 0.0 0.0 0.0 0.0 0.0
0.0 0.0 0.0 0.0 0.0 0.0 0.0 0.0
0.0 0.0 0.0 0.0 0.0 0.0 0.0 0.0
0.0 0.0 0.0 0.0 0.0 0.0 0.0 0.0
0.0 0.0 0.0 0.0 0.0 0.0 0.0 0.0
0.0 0.0 0.0 0.0 0.0 0.0 0.0 0.0
0.0 0.0 0.0 0.0 0.0 0.0 0.0 0.0

x_f f4 [100, 1]
00000000: a5a7 9340 970d df3f d8a0 5540 534b 9c40
00000010: 7c59 4440 efb6 b040 ad23 ba40 9beb c540
00000020: 8515 9240 23f0 993f 1427 9940 6583 103f
00000030: 949e eb3f d153 fb3d 926f 9f40 5cc7 c240
00000040: 6eff b640 a0c9 2c40 c2ca 2140 6c90 c340
00000050: c05b 2e40 cf24 af40 a716 873f 4cfe c140
00000060: d631 e23e 5e36 363f 974d 8640 cb46 c840
00000070: 7c59 c440 754c 9140 9beb c540 c7a8 8840
00000080: cf24 af40 2181 2640 265f 8d40 6314 9d40
00000090: 2c6c c040 dd7e bc3e d153 fb3e 2181 a640
000000a0: 777b 5d40 d631 e23e 5958 cf3f 77bb 8440
000000b0: 557a e83f 83a6 9e40 970d 5f40 18c5 5840
000000c0: 520b 753f a5a7 1340 60a5 293f 314a a740
000000d0: db0f c93c 4cfe c140 c439 1540 d153 fb3f
000000e0: c439 1540 dfed 2f3f 1a34 cc3f 3757 5a40
000000f0: 1f12 b340 9e5a b940 265f 8d3f 949e 6b40
00000100: d631 623f 57e9 db3f 4382 1b40 35e8 6640
00000110: 1556 e53f 5958 cf3f d671 8940 1178 fe3f
00000120: 6583 1040 c05b 2e40 db0f 493f 67f2 0340
00000130: 83a6 9e40 f125 a440 4382 1b40 754c 9140
00000140: 750c 6a40 d8a0 553f b430 6d40 1556 e53f
00000150: 5cc7 c240 926f 9f40 534b 9c40 28ce 803f
00000160: dfed af40 bdec ba40 974d 8640 e4cb 9640
00000170: d631 623f d4c2 6e3f 6314 9d3f 7ec8 b740
00000180: 0f49 b240 3c35 c140 57e9 5b40 a0c9 ac3f
4.6142144 1.7426022 3.3379421 4.884195 3.0679617 5.5223308 5.816855 6.1850104
4.565127 1.2026409 4.7860203 0.5645049 1.8407769 0.12271846 4.9823694 6.086836
5.7186804 2.6998062 2.5280004 6.1113796 2.72435 5.473243 1.0553788 6.062292
0.44178647 0.7117671 4.1969714 6.2586417 6.1359234 4.540583 6.1850104 4.2706027
5.473243 2.6016314 4.417865 4.9087386 6.0132046 0.3681554 0.49087384 5.203263
3.4606607 0.44178647 1.6198837 4.147884 1.8162333 4.957826 3.4852045 3.3870296
0.957204 2.3071072 0.6626797 5.2278066 0.024543693 6.062292 2.3316507 1.9634954
2.3316507 0.6872234 1.59534 3.4115732 5.595962 5.7923117 1.1044662 3.6815538
0.88357294 1.7180585 2.4298255 3.6079228 1.7916895 1.6198837 4.295146 1.9880391
2.2580197 2.72435 0.7853982 2.06167 4.957826 5.1296315 2.4298255 4.540583
3.6570103 0.83448553 3.7060976 1.7916895 6.086836 4.9823694 4.884195 1.0062914
5.497787 5.8413987 4.1969714 4.712389 0.88357294 0.93266034 1.2271847 5.743224
5.5714183 6.0377483 3.436117 1.3499031

t_f f4 [100, 1]
00000000: 7786 c43e 5d74 513f ee0c 093f 6748 4c3f
00000010: dece 103e 9602 353f a0d6 2f3f 721c 473f
00000020: e9a2 0b3f b57e 253c e438 0e3f 6db2 493f
00000030: 4362 de3e 4362 de3e 0ad4 7a3f 0000 803f
00000040: a540 2d3f f376 063f ca26 9b3e 580a 543f
00000050: 0ad4 7a3f bae8 223f a0d6 af3e b57e a53e
00000060: 1a12 f33e 2950 6b3f e438 0e3f 721c 473f
00000070: 8c2e ba3e 398e 633e dece 903e 398e 633f
00000080: 2fba 683f ca26 1b3e bf52 203f b57e 253d
00000090: ca26 1b3e 3ef8 603f d4fa 153f fd4a 813e
000000a0: 6748 4c3f 7786 c43e 4e36 d93e b57e 253c
000000b0: 103e 783e 3424 663f 8c2e ba3e 1f7c 703f
000000c0: 7cf0 413f bf52 a03e b57e 253d a0d6 af3e
000000d0: 2fba e83e 15a8 753f 15a8 753f 2fba e83e
000000e0: 2fba e83e 62de 4e3f f376 063f dece 103f
000000f0: 3ef8 603f 86c4 3c3f b57e 253d 1a12 f33e
00000100: d964 133f dece 103f a540 2d3f 056a 7d3f
00000110: a0d6 2f3f 4e36 593e 62de 4e3d dece 903e
00000120: fd4a 813e 62de 4e3f b57e 253c 580a d43e
00000130: 103e 783f 0ad4 7a3f d4fa 953e f8e0 033f
00000140: 53a0 563f 1a12 733f 1a12 f33e cf90 183f
00000150: 6db2 c93e a0d6 2f3f 4e36 593f b57e a53c
00000160: 2950 6b3f 103e f83e f376 063e ca26 1b3f
00000170: fd4a 813e 103e 783f a0d6 af3e 53a0 563f
00000180: 103e f83e 6748 4c3f 9198 373f ca26 9b3e
0.3838384 0.8181818 0.53535354 0.7979798 0.14141414 0.7070707 0.68686867 0.7777778
0.54545456 0.01010101 0.5555556 0.7878788 0.43434343 0.43434343 0.97979796 1.0
0.67676765 0.5252525 0.3030303 0.82828283 0.97979796 0.6363636 0.34343433 0.32323232
0.47474748 0.9191919 0.5555556 0.7777778 0.36363637 0.22222222 0.28282827 0.8888889
0.90909094 0.15151516 0.6262626 0.04040404 0.15151516 0.8787879 0.5858586 0.25252524
0.7979798 0.3838384 0.42424244 0.01010101 0.24242425 0.8989899 0.36363637 0.93939394
0.75757575 0.3131313 0.04040404 0.34343433 0.45454547 0.959596 0.959596 0.45454547
0.45454547 0.8080808 0.5252525 0.56565654 0.8787879 0.7373737 0.04040404 0.47474748
0.57575756 0.56565654 0.67676765 0.989899 0.68686867 0.21212122 0.05050505 0.28282827
0.25252524 0.8080808 0.01010101 0.41414142 0.969697 0.97979796 0.2929293 0.5151515
0.83838385 0.94949496 0.47474748 0.5959596 0.3939394 0.68686867 0.8484849 0.02020202
0.9191919 0.4848485 0.13131313 0.6060606 0.25252524 0.969697 0.34343433 0.83838385
0.4848485 0.7979798 0.7171717 0.3030303

x_bc_lb f4 [100, 1]
00000000: 0000 0000 0000 0000 0000 0000 0000 0000
00000010: 0000 0000 0000 0000 0000 0000 0000 0000
00000020: 0000 0000 0000 0000 0000 0000 0000 0000
00000030: 0000 0000 0000 0000 0000 0000 0000 0000
00000040: 0000 0000 0000 0000 0000 0000 0000 0000
00000050: 0000 0000 0000 0000 0000 0000 0000 0000
00000060: 0000 0000 0000 0000 0000 0000 0000 0000
00000070: 0000 0000 0000 0000 0000 0000 0000 0000
00000080: 0000 0000 0000 0000 0000 0000 0000 0000
00000090: 0000 0000 0000 0000 0000 0000 0000 0000
000000a0: 0000 0000 0000 0000 0000 0000 0000 0000
000000b0: 0000 0000 0000 0000 0000 0000 0000 0000
000000c0: 0000 0000 0000 0000 0000 0000 0000 0000
000000d0: 0000 0000 0000 0000 0000 0000 0000 0000
000000e0: 0000 0000 0000 0000 0000 0000 0000 0000
000000f0: 0000 0000 0000 0000 0000 0000 0000 0000
00000100: 0000 0000 0000 0000 0000 0000 0000 0000
00000110: 0000 0000 0000 0000 0000 0000 0000 0000
00000120: 0000 0000 0000 0000 0000 0000 0000 0000
00000130: 0000 0000 0000 0000 0000 0000 0000 0000
00000140: 0000 0000 0000 0000 0000 0000 0000 0000
00000150: 0000 0000 0000 0000 0000 0000 0000 0000
00000160: 0000 0000 0000 0000 0000 0000 0000 0000
00000170: 0000 0000 0000 0000 0000 0000 0000 0000
00000180: 0000 0000 0000 0000 0000 0000 0000 0000
0.0 0.0 0.0 0.0 0.0 0.0 0.0 0.0
0.0 0.0 0.0 0.0 0.0 0.0 0.0 0.0
0.0 0.0 0.0 0.0 0.0 0.0 0.0 0.0
0.0 0.0 0.0 0.0 0.0 0.0 0.0 0.0
0.0 0.0 0.0 0.0 0.0 0.0 0.0 0.0
0.0 0.0 0.0 0.0 0.0 0.0 0.0 0.0
0.0 0.0 0.0 0.0 0.0 0.0 0.0 0.0
0.0 0.0 0.0 0.0 0.0 0.0 0.0 0.0
0.0 0.0 0.0 0.0 0.0 0.0 0.0 0.0
0.0 0.0 0.0 0.0 0.0 0.0 0.0 0.0
0.0 0.0 0.0 0.0 0.0 0.0 0.0 0.0
0.0 0.0 0.0 0.0 0.0 0.0 0.0 0.0
0.0 0.0 0.0 0.0

t_bc_lb f4 [100, 1]
00000000: 0000 0000 b57e 253c b57e a53c 103e f83c
00000010: b57e 253d 62de 4e3d 103e 783d dece 903d
00000020: b57e a53d 8c2e ba3d 62de ce3d 398e e33d
00000030: 103e f83d f376 063e dece 103e ca26 1b3e
00000040: b57e 253e a0d6 2f3e 8c2e 3a3e 7786 443e
00000050: 62de 4e3e 4e36 593e 398e 633e 24e6 6d3e
00000060: 103e 783e fd4a 813e f376 863e e9a2 8b3e
00000070: dece 903e d4fa 953e ca26 9b3e bf52 a03e
00000080: b57e a53e abaa aa3e a0d6 af3e 9602 b53e
00000090: 8c2e ba3e 815a bf3e 7786 c43e 6db2 c93e
000000a0: 62de ce3e 580a d43e 4e36 d93e 4362 de3e
000000b0: 398e e33e 2fba e83e 24e6 ed3e 1a12 f33e
000000c0: 103e f83e 056a fd3e fd4a 013f f8e0 033f
000000d0: f376 063f ee0c 093f e9a2 0b3f e438 0e3f
000000e0: dece 103f d964 133f d4fa 153f cf90 183f
000000f0: ca26 1b3f c5bc 1d3f bf52 203f bae8 223f
00000100: b57e 253f b014 283f abaa 2a3f a540 2d3f
00000110: a0d6 2f3f 9b6c 323f 9602 353f 9198 373f
00000120: 8c2e 3a3f 86c4 3c3f 815a 3f3f 7cf0 413f
00000130: 7786 443f 721c 473f 6db2 493f 6748 4c3f
00000140: 62de 4e3f 5d74 513f 580a 543f 53a0 563f
00000150: 4e36 593f 48cc 5b3f 4362 5e3f 3ef8 603f
00000160: 398e 633f 3424 663f 2fba 683f 2950 6b3f
00000170: 24e6 6d3f 1f7c 703f 1a12 733f 15a8 753f
00000180: 103e 783f 0ad4 7a3f 056a 7d3f 0000 803f
0.0 0.01010101 0.02020202 0.030303031 0.04040404 0.05050505 0.060606062 0.07070707
0.08080808 0.09090909 0.1010101 0.11111111 0.121212125 0.13131313 0.14141414 0.15151516
0.16161616 0.17171717 0.18181819 0.1919192 0.2020202 0.21212122 0.22222222 0.23232323
0.24242425 0.25252524 0.26262626 0.27272728 0.28282827 0.2929293 0.3030303 0.3131313
0.32323232 0.33333334 0.34343433 0.35353535 0.36363637 0.37373737 0.3838384 0.3939394
0.4040404 0.41414142 0.42424244 0.43434343 0.44444445 0.45454547 0.46464646 0.47474748
0.4848485 0.4949495 0.5050505 0.5151515 0.5252525 0.53535354 0.54545456 0.5555556
0.56565654 0.57575756 0.5858586 0.5959596 0.6060606 0.61616164 0.6262626 0.6363636
0.64646465 0.65656567 0.6666667 0.67676765 0.68686867 0.6969697 0.7070707 0.7171717
0.72727275 0.7373737 0.74747473 0.75757575 0.7676768 0.7777778 0.7878788 0.7979798
0.8080808 0.8181818 0.82828283 0.83838385 0.8484849 0.85858583 0.86868685 0.8787879
0.8888889 0.8989899 0.90909094 0.9191919 0.9292929 0.93939394 0.94949496 0.959596
0.969697 0.97979796 0.989899 1.0

x_bc_ub f4 [100, 1]
00000000: db0f c940 db0f c940 db0f c940 db0f c940
00000010: db0f c940 db0f c940 db0f c940 db0f c940
00000020: db0f c940 db0f c940 db0f c940 db0f c940
00000030: db0f c940 db0f c940 db0f c940 db0f c940
00000040: db0f c940 db0f c940 db0f c940 db0f c940
00000050: db0f c940 db0f c940 db0f c940 db0f c940
00000060: db0f c940 db0f c940 db0f c940 db0f c940
00000070: db0f c940 db0f c940 db0f c940 db0f c940
00000080: db0f c940 db0f c940 db0f c940 db0f c940
00000090: db0f c940 db0f c940 db0f c940 db0f c940
000000a0: db0f c940 db0f c940 db0f c940 db0f c940
000000b0: db0f c940 db0f c940 db0f c940 db0f c940
000000c0: db0f c940 db0f c940 db0f c940 db0f c940
000000d0: db0f c940 db0f c940 db0f c940 db0f c940
000000e0: db0f c940 db0f c940 db0f c940 db0f c940
000000f0: db0f c940 db0f c940 db0f c940 db0f c940
00000100: db0f c940 db0f c940 db0f c940 db0f c940
00000110: db0f c940 db0f c940 db0f c940 db0f c940
00000120: db0f c940 db0f c940 db0f c940 db0f c940
00000130: db0f c940 db0f c940 db0f c940 db0f c940
00000140: db0f c940 db0f c940 db0f c940 db0f c940
00000150: db0f c940 db0f c940 db0f c940 db0f c940
00000160: db0f c940 db0f c940 db0f c940 db0f c940
00000170: db0f c940 db0f c940 db0f c940 db0f c940
00000180: db0f c940 db0f c940 db0f c940 db0f c940
6.2831855 6.2831855 6.2831855 6.2831855 6.2831855 6.2831855 6.2831855 6.2831855
6.2831855 6.2831855 6.2831855 6.2831855 6.2831855 6.2831855 6.2831855 6.2831855
6.2831855 6.2831855 6.2831855 6.2831855 6.2831855 6.2831855 6.2831855 6.2831855
6.2831855 6.2831855 6.2831855 6.2831855 6.2831855 6.2831855 6.2831855 6.2831855
6.2831855 6.2831855 6.2831855 6.2831855 6.2831855 6.2831855 6.2831855 6.2831855
6.2831855 6.2831855 6.2831855 6.2831855 6.2831855 6.2831855 6.2831855 6.2831855
6.2831855 6.2831855 6.2831855 6.2831855 6.2831855 6.2831855 6.2831855 6.2831855
6.2831855 6.2831855 6.2831855 6.2831855 6.2831855 6.2831855 6.2831855 6.2831855
6.2831855 6.2831855 6.2831855 6.2831855 6.2831855 6.2831855 6.2831855 6.2831855
6.2831855 6.2831855 6.2831855 6.2831855 6.2831855 6.2831855 6.2831855 6.2831855
6.2831855 6.2831855 6.2831855 6.2831855 6.2831855 6.2831855 6.2831855 6.2831855
6.2831855 6.2831855 6.2831855 6.2831855 6.2831855 6.2831855 6.2831855 6.2831855
6.2831855 6.2831855 6.2831855 6.2831855

t_bc_ub f4 [100, 1]
00000000: 0000 0000 b57e 253c b57e a53c 103e f83c
00000010: b57e 253d 62de 4e3d 103e 783d dece 903d
00000020: b57e a53d 8c2e ba3d 62de ce3d 398e e33d
00000030: 103e f83d f376 063e dece 103e ca26 1b3e
00000040: b57e 253e a0d6 2f3e 8c2e 3a3e 7786 443e
00000050: 62de 4e3e 4e36 593e 398e 633e 24e6 6d3e
00000060: 103e 783e fd4a 813e f376 863e e9a2 8b3e
00000070: dece 903e d4fa 953e ca26 9b3e bf52 a03e
00000080: b57e a53e abaa aa3e a0d6 af3e 9602 b53e
00000090: 8c2e ba3e 815a bf3e 7786 c43e 6db2 c93e
000000a0: 62de ce3e 580a d43e 4e36 d93e 4362 de3e
000000b0: 398e e33e 2fba e83e 24e6 ed3e 1a12 f33e
000000c0: 103e f83e 056a fd3e fd4a 013f f8e0 033f
000000d0: f376 063f ee0c 093f e9a2 0b3f e438 0e3f
000000e0: dece 103f d964 133f d4fa 153f cf90 183f
000000f0: ca26 1b3f c5bc 1d3f bf52 203f bae8 223f
00000100: b57e 253f b014 283f abaa 2a3f a540 2d3f
00000110: a0d6 2f3f 9b6c 323f 9602 353f 9198 373f
00000120: 8c2e 3a3f 86c4 3c3f 815a 3f3f 7cf0 413f
00000130: 7786 443f 721c 473f 6db2 493f 6748 4c3f
00000140: 62de 4e3f 5d74 513f 580a 543f 53a0 563f
00000150: 4e36 593f 48cc 5b3f 4362 5e3f 3ef8 603f
00000160: 398e 633f 3424 663f 2fba 683f 2950 6b3f
00000170: 24e6 6d3f 1f7c 703f 1a12 733f 15a8 753f
00000180: 103e 783f 0ad4 7a3f 056a 7d3f 0000 803f
0.0 0.01010101 0.02020202 0.030303031 0.04040404 0.05050505 0.060606062 0.07070707
0.08080808 0.09090909 0.1010101 0.11111111 0.121212125 0.13131313 0.14141414 0.15151516
0.16161616 0.17171717 0.18181819 0.1919192 0.2020202 0.21212122 0.22222222 0.23232323
0.24242425 0.25252524 0.26262626 0.27272728 0.28282827 0.2929293 0.3030303 0.3131313
0.32323232 0.33333334 0.34343433 0.35353535 0.36363637 0.37373737 0.3838384 0.3939394
0.4040404 0.41414142 0.42424244 0.43434343 0.44444445 0.45454547 0.46464646 0.47474748
0.4848485 0.4949495 0.5050505 0.5151515 0.5252525 0.53535354 0.54545456 0.5555556
0.56565654 0.57575756 0.5858586 0.5959596 0.6060606 0.61616164 0.6262626 0.6363636
0.64646465 0.65656567 0.6666667 0.67676765 0.68686867 0.6969697 0.7070707 0.7171717
0.72727275 0.7373737 0.74747473 0.75757575 0.7676768 0.7777778 0.7878788 0.7979798
0.8080808 0.8181818 0.82828283 0.83838385 0.8484849 0.85858583 0.86868685 0.8787879
0.8888889 0.8989899 0.90909094 0.9191919 0.9292929 0.93939394 0.94949496 0.959596
0.969697 0.97979796 0.989899 1.0

weight f4 [30, 2]
00000000: 919b e3bd 11d9 043d 19f3 cdbd cbd2 d83e
00000010: efb8 ccbd b866 37bd a1a2 8d3e 0ee1 aebd
00000020: 0b3a e13d 87c2 d8be 0064 963d 9dd1 1fbe
00000030: cd36 d13e 7c4e 2e3d 9937 153f f61a 653d
00000040: 830d 1b3f 89ce c33e fadf 023d 3688 dd3c
00000050: 25e8 f3bd 5d3e a83e 309b f7bd ccb1 c9bd
00000060: 6650 063f 3a3e b3be 12bd a5be 3fe9 9abe
00000070: ac3e b4bd 39d3 fd3e 7577 59be 165e 07bd
00000080: d8d6 dfbe ebdf f53d 810e 223e 8e1a 113f
00000090: 5bee 743e 8da9 8bbe 1db0 e5bd 115a 34be
000000a0: 03d8 c43d 076d 3abe da13 303e 0944 45be
000000b0: c21f 5c3e ee39 41bd 7575 023e 64dc 84be
000000c0: 2527 6e3e 5ccf f43e 981a 13be e088 c6be
000000d0: 6322 e2be 0fcb 17bc b0a7 c2be 9fc5 f53d
000000e0: fb21 883d 6336 b83d ce54 49be 60a0 863d
-0.11113656 0.032433573 -0.10056133 0.42348322 -0.09996211 -0.044775695 0.27663139 -0.085390195
0.10997399 -0.42335913 0.07343292 -0.15607305 0.40862122 0.042555317 0.5828796 0.055933915
0.6056749 0.3824351 0.031951882 0.02704249 -0.119095124 0.3286008 -0.120901465 -0.09848365
0.5246643 -0.35008413 -0.32370812 -0.30256078 -0.08801016 0.49575213 -0.21236975 -0.03304871
-0.437186 0.120055996 0.15825845 0.56681144 0.2391905 -0.27277794 -0.112152316 -0.17612483
0.096115135 -0.18205653 0.17195073 -0.19264235 0.2149649 -0.047174387 0.12740119 -0.25949395
0.2325712 0.47814453 -0.14365613 -0.38776302 -0.4416686 -0.009264722 -0.3801856 0.12000584
0.06647106 0.089947484 -0.19661257 0.06573558

bias f4 [30]
00000000: 49ca 283d 59cc 733d f4d8 7d3c 4e51 b8bd
00000010: c19e 8abc 174f 21bc 4b78 dfbc 6d61 b5bc
00000020: 7d06 aabc d409 59bd d00b e53d 3a5a da3d
00000030: 8a77 9cbd bbfe 983c 9c91 823d be04 8a3d
00000040: 7cb4 513d a720 30bc 1dfc 90bd 14b1 963d
00000050: 8af6 833d 2c39 2a3d 56d0 c1bd 28fe 93bd
00000060: f015 653d c0f8 0abd b767 3a3d 565b 5dbd
00000070: f719 3c3c 205e 883d
0.04120854 0.059521053 0.01549362 -0.08999883 -0.016921403 -0.009845517 -0.02727904 -0.022141183
-0.020755047 -0.05298789 0.11183894 0.106617406 -0.07639988 0.018676152 0.06375429 0.06739186
0.051197514 -0.010749972 -0.07079337 0.07357994 0.06443508 0.04155843 -0.09463565 -0.07226211
0.055929124 -0.033928633 0.045509066 -0.054042183 0.0114808 0.06658578

weight f4 [30, 30]
00000000: 3d73 2d3e 3ec7 793e 39ee 903c 62b9 bdbd
00000010: ca07 c13d bec2 7cbe 5a61 eabc d86d 5d3d
00000020: 0271 2d3e f86b 64be 2a27 083f 7299 ca3e
00000030: 3ab9 383e 018d 133e abd0 e73d 1272 ab3e
00000040: 0559 e0be 7472 ebbd 65e9 1dbd 9069 7a3e
00000050: e52a 303e 8799 e73e 9a40 39be c61e 4bbe
00000060: edc2 853d 2321 9e3e 323b 19be 8b5a 97bb
00000070: d7e4 3fbe 623d 6e3d 0a74 d73d 99f7 b3be
00000080: 0d98 35be 7f07 33be 4414 0fbe 3f9a ed3c
00000090: bfb6 16be a01d 153d 1972 7bbd b442 b93d
000000a0: 4daf 1c3f 3de2 54be aac4 4f3e 80ca 9dbe
000000b0: 2960 36bd 321e 90be 1a7f c13d 0bf7 d93e
000000c0: 8021 c6bd 4df5 a0bd c538 d6bc 520c 4d3e
000000d0: 9cf6 19bd bddd 1d3d a749 053e 8ac6 81be
000000e0: 7fa7 753e e3a2 d63d 6b68 a43d 1a13 84be
000000f0: 7f46 a3bd b9e1 343e ac7e 2a3e b492 45bd
00000100: ed53 78be 6d56 233e ca70 73bd 1aed dcbe
00000110: c092 c2bd bfe2 4f3e 66fd 403d 3c14 283e
00000120: 66a5 45be c0f9 d2bd 687c ae3e 7487 9dbd
00000130: 0c67 943e a1b0 263e bb6e adbe a0d8 95bd
00000140: 61eb 66bd c095 503c b986 133d fb60 83be
00000150: 3e80 a2bd 0b49 bdbe 2ae3 c33c 094b c5b9
00000160: 6563 e43d 64ea 83be 4e79 3c3e 8f55 6abe
00000170: ebd2 623e d092 79be 7b24 a1be 43a6 2f3c
00000180: 23e8 833e 12ea 503d 64fc b8be 5052 4c3e
00000190: 91be 69be 22b8 d6bd dcf1 9cbe f430 67bd
000001a0: 1151 a3be 5b48 6cbe 1527 053d 49df 143e
000001b0: 3eb2 363c 08cd c73b 1dbb 8cbe 771d 643e
000001c0: 1bf7 7c3e 7ee7 263d bd71 973d c75d 8d3c
000001d0: 1abe 8b3d bddf 0abe 1429 a3bd 20c2 c9bd
000001e0: 96c9 b9be 39bc 82bd ed84 42be df72 543e
000001f0: ee1f 743e 10a5 d13e a067 91bd c78d e6bd
00000200: d045 613d d948 3d3e c5d3 aa3d 30d6 35be
00000210: 0e2e d9bd df5c 0b3f 87ad 02be 2276 103e
00000220: eddf 003e 2e3d e7bd 1efd 113e 7e1e fbbe
00000230: 90d6 263e 0a3e e83a 8824 4dbd 5919 b43d
00000240: 6884 1cbe 8f78 88bd 997c 8c3d 7dfb 843e
00000250: da35 3cbc 36ee d4bd 93f2 203e b8ed 1ebd
00000260: 8b8f 5bbe 5abe 813e fef2 963d b72e 29bd
00000270: 6aa8 0cbf 86a3 2d3e b7df 10bd 02d7 213e
00000280: 3d3d acbe 3e40 2aba 3c7b 27bd daff 693e
00000290: e8f7 313e 13f7 5abc b507 d4bb cc29 b0bd
000002a0: c0b4 063f ddb2 23bd 89e6 eb3c 4e92 123e
000002b0: 9e82 fc3d 9027 a43d 2a42 86bc 4194 7f3e
000002c0: 5a6f 46be 1041 1bbe 27e5 a73d 0b62 d3bb
000002d0: 0c60 443d 6a36 e8bd cb77 a9be f7a3 8ebb
000002e0: beea 0e3e dcf7 fcbc 8c8f a43e bbec 6bbe
000002f0: 3be2 f43d ae7b bdbd bd91 1cbe 4a48 c4bd
00000300: 7bed b73c 5cbf 48bd d5bc 89be 2a97 dfbd
00000310: f483 573e b5a0 be3d 1534 a03e 0d52 663c
00000320: 74f0 293d 61df 883e ca80 853e 43f8 f9bc
00000330: 157d 14bd 21b7 a8bd d494 b5be c994 60be
00000340: 2e17 af3e 8da3 683d ce20 7bbe a56a 4cbe
00000350: 451b be3d c1c4 11be 041d a93c 9b85 203e
00000360: a005 ed3d ce72 003e 7ae4 6c3d aac1 023e
00000370: 9fff 013d 4cda f7bd 4d39 2abe 43fa 9abd
00000380: 4bb2 033d 9a1c c93c 9ab8 dc3d e56d bf3d
00000390: 113c 7ebe d4dc 5c3e de52 a93d 1eeb 62be
000003a0: 201a d9be 02db da3d fb6d 0cbe 762c 06be
000003b0: 3553 adbd 32b8 f73d 22bc 7c3e a569 70be
000003c0: 801c 94bd 7478 0bbf 69c1 993d c208 f43c
000003d0: 60e6 c1bd 29a8 93be 6311 933d 746e a8bc
000003e0: 1ca2 533e 3542 eabc ac78 b7be df0c 7bbe
000003f0: c26e 503e 120f 833d 31d7 b23d 9ce7 aabe
0.16938491 0.24392411 0.017691718 -0.092638746 0.09425314 -0.24683663 -0.028610874 0.054059833
0.1693764 -0.22306812 0.5318476 0.39570194 0.18039408 0.14409257 0.11319097 0.33485466
-0.43817917 -0.114964396 -0.03855266 0.24454331 0.17203863 0.4523432 -0.1809105 -0.19835958
0.0653132 0.30884656 -0.14963987 -0.004618948 -0.18739639 0.058164008 0.105201796 -0.3514984
-0.17733784 -0.17483328 -0.13972574 0.029004214 -0.1471815 0.036405206 -0.06138811 0.09045926
0.6120499 -0.20789428 0.20289865 -0.30818558 -0.0445253 -0.28148037 0.09448071 0.4257129
-0.09674358 -0.078592874 -0.026150117 0.20024231 -0.0375887 0.038541544 0.13016377 -0.25346786
0.23989676 0.10480287 0.08027729 -0.25795823 -0.079724304 0.17664231 0.16649884 -0.04823561
-0.24250765 0.15950938 -0.059433736 -0.43149644 -0.095006466 0.2030134 0.04711666 0.16413969
-0.19301376 -0.10301542 0.3407929 -0.07691851 0.2898487 0.16278316 -0.33873543 -0.073167086
-0.05637682 0.012731016 0.036017153 -0.25659928 -0.079346165 -0.3696979 0.023912031 -0.00037630674
0.111517705 -0.25764763 0.18405649 -0.228842 0.22150771 -0.24372411 -0.31473145 0.010720792
0.25763044 0.051004477 -0.3613006 0.19953275 -0.22826602 -0.10484339 -0.30653274 -0.05644317
-0.31897786 -0.23074476 0.032507975 0.14538302 0.011150895 0.0060974397 -0.27486506 0.22276865
0.24703638 0.040748112 0.07394741 0.01725663 0.06823368 -0.13561912 -0.079668194 -0.098514795
-0.3628661 -0.06383557 -0.1899602 0.20746945 0.23840305 0.40946245 -0.07099843 -0.11257511
0.05499822 0.1848482 0.08341173 -0.17757487 -0.10604487 0.54438585 -0.12761508 0.14107564
0.12585421 -0.11290966 0.14256713 -0.490467 0.16292787 0.0017718684 -0.050083667 0.08793897
-0.15284884 -0.0666362 0.068597026 0.2597312 -0.011487449 -0.10396998 0.15717535 -0.038800925
-0.21441476 0.2534054 0.07370566 -0.041304316 -0.5494448 0.1695691 -0.0353696 0.15804675
-0.3364047 -0.0006494558 -0.04088901 0.22851506 0.17379725 -0.013364571 -0.0064706453 -0.08601722
0.5261955 -0.0399655 0.028796451 0.14313623 0.12329601 0.080153584 -0.016388971 0.24958898
-0.19378415 -0.15161538 0.08198004 -0.0064508966 0.04794316 -0.11338504 -0.33099207 -0.004353042
0.13956735 -0.030879907 0.32140768 -0.23039524 0.119572125 -0.09252106 -0.1528997 -0.095841005
0.022452107 -0.04901062 -0.2690188 -0.10917504 0.2104643 0.09307996 0.31289735 0.014057648
0.04148908 0.26732925 0.2607482 -0.030513888 -0.0362521 -0.08238054 -0.3546511 -0.21931757
0.34197372 0.0567966 -0.24524233 -0.19962557 0.09282545 -0.14235212 0.020643719 0.15675966
0.115733385 0.12543795 0.05783508 0.1276919 0.03173792 -0.12102184 -0.16623421 -0.07567265
0.032152455 0.024549771 0.107773975 0.093471326 -0.24827601 0.21568614 0.08267759 -0.22160003
-0.42402744 0.10686304 -0.13713829 -0.13102898 -0.08463136 0.12095679 0.24681142 -0.234778
-0.072319984 -0.5448067 0.07507593 0.029789332 -0.09467769 -0.28839234 0.07181051 -0.02056048
0.20667309 -0.028596023 -0.35834253 -0.24516629 0.20354751 0.06399359 0.08732451 -0.3337983

bias f4 [30]
00000000: 565a c53d 1eb5 c63c c9de 153d 22a7 4bbd
00000010: caf7 b73b 2ab7 9abd 2dfd c1bc 1e7d 94bc
00000020: 0d0b 7abd 6997 0cbd 4c28 e33c 66a2 fabc
00000030: b22b 433c b113 09bd 5fea 02bd 6be6 963a
00000040: 59a5 86bd 5a32 e7ba 9584 0f3d fb2c 18bd
00000050: 8c62 72bd 30ec 96bd 5fa6 80bd 0fdf 5a3d
00000060: 367a 0c3d 4b95 9bbd 4dec 77bd 96b5 8dbc
00000070: 068e f1bc b5ab e23c
0.09636371 0.024256285 0.036589418 -0.049719937 0.0056142556 -0.07554467 -0.023680294 -0.018126067
-0.061045695 -0.034324083 0.027729176 -0.030595016 0.011912273 -0.033466045 -0.031961795 0.0011512762
-0.06574506 -0.0017638907 0.03503855 -0.03715227 -0.059176013 -0.07369268 -0.06281733 0.05343538
0.034296237 -0.07596835 -0.06052809 -0.017298501 -0.029486667 0.027669767

weight f4 [30, 30]
00000000: 478b 92be f602 213d 2787 82bd a27b ebbe
00000010: 968c a33d 76ba 333c 9138 083e 65a8 4b3e
00000020: fc0e a9be dd1c 48be 94bb 563e 6c63 08be
00000030: 59ac 2abd 9939 243e 957e 2e3e 9cbf d33d
00000040: f028 b0be cbc7 67bd 74c1 4b3d c101 9f3e
00000050: 721b 4f3d 6d7a e23c 7103 abbd 79e3 88be
00000060: b2d6 05be ead6 293c 09fd 06be ba52 28be
00000070: ed79 f53d eadc d8be dd32 ecbd f138 8f3c
00000080: b543 50bd c8f0 8e3e 1b16 25be de52 1d3c
00000090: a811 94bd 6fc7 7a3d e8cd 33be 6094 6c3c
000000a0: f233 cb3d 768f 8fbd 66db 9f3e 8ed8 cc3d
000000b0: 2485 16bd e971 4c3d 3da0 483e 6cbc 1dbe
000000c0: 6e60 2e3e 6ed2 c43d 6691 42bd fa2c 9dbe
000000d0: 38de 3fbd cbe0 09bd 98cc 4a3e 0e76 c0bd
000000e0: 16c1 393e fb76 3c3d c7f3 04bf aea8 28be
000000f0: 9422 27be c6fd 9b3e 03b9 3bbe e217 bbbc
00000100: 16a7 d93c 8fbd 023e 1bd6 29be 8076 96be
00000110: 02c1 303e 89e7 3bbd 3693 043e cae1 d53e
00000120: 44e4 d93d 9457 f1bd 185f 8d3e 7c9c 343c
00000130: 5072 a73d 0287 d53d a538 16bc 894c b33d
00000140: 9aa7 503e 2646 ce3c 20f7 6c3d 8bb8 9a3d
00000150: fa2a 5a3d fb2b a13c 010c ddbd 0c5a 5abe
00000160: 51ca 493e 3a0b 08bd 6d73 14be bd58 cdbc
00000170: 74d5 8bbd 96b7 0ebe 5a15 463d 44be 983d
00000180: 12f4 d33e 5ef2 553e 4719 643e c572 c4be
00000190: 790d 86bd be7d cc3d a7a3 dbbd fdf9 0abe
000001a0: 321e 6c3e a1e3 7bbe 0abf 68bd 2d1d 13be
000001b0: 2a4f 8c3c f2ea cbbe 991b ccbe 0873 86bd
000001c0: e90a a0be d7f8 30be cca1 01be 6cc1 ac3e
000001d0: 6173 d63c 809a efbd 95a5 3d3e ee73 a1be
000001e0: d5d9 283e e4ee a0be 8b2b 77be 14d2 a13d
000001f0: ba26 c83c 4be2 183d c97b 553e d7c3 94bc
00000200: ac09 e23d 0249 e13d 1b77 9cbd 0136 c83b
00000210: 092e 03be 23ba 18be 5cc6 72be 4a1b f03d
00000220: 0ad2 263e 204d 0bbc b4c4 61bc cca1 d43e
00000230: d924 ccba bbce 73be d9e2 a63e e6f2 50be
00000240: 88e8 2a3d 6456 d53c c54d a3bd 86d0 d13d
00000250: b422 1cbd 1382 c7bd 3276 d7bc 2920 9a3d
00000260: f4f9 293e 227e 193e 7321 c23d d245 7b3e
00000270: 1e91 b8bd 164f 803e aee7 24be 3f96 babe
00000280: 227b 82be 7687 2e3e f6ae fabd f0c0 23be
00000290: c00d 513c 0492 1abe 1f3c 89bd 2c0a d1bd
000002a0: a938 6bbe 9da6 66bd 5dce a63e d63d 06bd
000002b0: 4556 003d 8327 12be 42c1 2ebd 96a2 953d
000002c0: 0a79 cabd 8c59 873d 60b2 e93d 4490 a7bd
000002d0: 130d d53e e231 383e 4a5f adbd 85c7 adbe
000002e0: e777 c8be 9a18 ee3c 9864 0c3e 1b31 84bd
000002f0: 6201 e23d 8435 b3be b7f4 06bf 1971 adbe
00000300: dd42 583d ace3 c43e 39cc 253e 8c80 59bd
00000310: c6af 30bd bf2e 823e 7958 d1bb 858f 6e3e
00000320: 16dd 773c 30ca 92bd 760a d2bd 5a29 debd
00000330: c881 aebe d370 f6bc fb8f e63d 5570 c3b8
00000340: 769a bebd 5c97 90bc 9c5b 713e 7490 073e
00000350: bee5 aa3e fca0 0dbe d344 3bbe 5283 1e3e
00000360: 9960 5a3d b677 b939 411d b8be 179d 923e
00000370: 604c a9bc f3ad 153c ac79 83be c168 a03c
00000380: d998 26be 8544 2f3e 795b 08be 6cb7 84bd
00000390: ee18 9bbe eb18 2fbd caba 9ebd 94f4 0cbe
000003a0: 1eb0 62be 52c3 703d 7518 c4bd b85a 03be
000003b0: 80f7 89bd 8e63 34be 941b f93d 514f a5be
000003c0: dbe1 d83d c7d6 3ebe 3be5 b4be aeab d0bd
000003d0: 5fc7 33bc ce44 a2bd f78a fcbb 8dc9 563c
000003e0: 5170 0b3c 2d31 95bc 945d 85be ff4f e5bb
000003f0: 5043 a6be 6491 d03e 9b43 ff3c a1c3 89bd
-0.28621885 0.039309464 -0.063734345 -0.45992762 0.07985799 0.010969749 0.13302828 0.19888456
-0.33019245 -0.1954226 0.20969993 -0.13319176 -0.04166827 0.16037597 0.17040475 0.10339281
-0.34406233 -0.05658702 0.04974504 0.31056026 0.050563283 0.027646268 -0.08350266 -0.26736048
-0.13070181 0.010366181 -0.13182463 -0.16437808 0.11986146 -0.42356044 -0.11533139 0.017483206
-0.05084582 0.27918077 -0.16121714 0.009602277 -0.0722993 0.06122535 -0.17559016 0.014439672
0.09922017 -0.07009785 0.31222075 0.10002242 -0.036748067 0.04991332 0.19592376 -0.15403908
0.17028973 0.09610449 -0.047501944 -0.30698377 -0.046842784 -0.033661645 0.19804609 -0.09397517
0.18140063 0.046011906 -0.51934475 -0.16470596 -0.16321784 0.3046705 -0.18332295 -0.022838537
0.02656893 0.12767623 -0.16585581 -0.29387283 0.17261127 -0.045875106 0.12946782 0.41773826
0.10639241 -0.11784282 0.27611613 0.011023637 0.081761 0.10426141 -0.009168779 0.08754832
0.20376435 0.025179934 0.057852864 0.0755473 0.053263642 0.019674292 -0.10793305 -0.21323413
0.19706084 -0.03321383 -0.14497156 -0.025066728 -0.06827822 -0.1393722 0.048360206 0.07458165
0.41397148 0.20893237 0.22275268 -0.38368812 -0.065455385 0.09984921 -0.107245736 -0.13571925
0.23058394 -0.24598552 -0.056822814 -0.14366598 0.017127592 -0.39827687 -0.39864805 -0.06564909
-0.31258324 -0.17282425 -0.12659377 0.3374132 0.026178064 -0.116993904 0.18520196 -0.3153376
0.16489346 -0.3143226 -0.24137704 0.07901397 0.024432529 0.037325185 0.20848002 -0.01815979
0.11037001 0.11000253 -0.07639905 0.0061099534 -0.1281053 -0.14914756 -0.2370848 0.11723955
0.16291061 -0.008502275 -0.013779808 0.4152969 -0.0015574946 -0.2380933 0.32594946 -0.20405158
0.041725665 0.02604217 -0.07973818 0.10244851 -0.038119033 -0.097416066 -0.026301477 0.07525665
0.16599256 0.14989522 0.09479036 0.24538353 -0.09012054 0.25060338 -0.16104004 -0.36442754
-0.25484568 0.17043862 -0.122404024 -0.15991569 0.012759626 -0.15094763 -0.0670092 -0.10207018
-0.22970833 -0.05631124 0.32579318 -0.032773815 0.031332273 -0.14272885 -0.042664774 0.073064014
-0.098863676 0.066088766 0.114109755 -0.08181813 0.41611537 0.17987779 -0.084654406 -0.33941284
-0.39153978 0.029064465 0.13710248 -0.064546786 0.1103542 -0.35001767 -0.52717155 -0.3387535
0.05279814 0.3845495 0.16191186 -0.053101107 -0.04313638 0.2542629 -0.0063887206 0.23296936
0.015128395 -0.071674705 -0.102559015 -0.10847731 -0.3408339 -0.030083096 0.11257931 -9.319248e-05
-0.09306805 -0.017650299 0.23570102 0.13238698 0.33378404 -0.13830942 -0.18287973 0.15479782
0.05331478 0.0003537514 -0.3595982 0.28635475 -0.020666301 0.009135711 -0.25678766 0.0195812
-0.16269244 0.17115982 -0.13316144 -0.064802974 -0.30292457 -0.042748373 -0.07750471 -0.13765174
-0.22137496 0.058780022 -0.09574977 -0.12827575 -0.0673666 -0.17616102 0.12163463 -0.32287076
0.105899535 -0.18636619 -0.3533114 -0.10188995 -0.010972827 -0.0792328 -0.0077069956 0.013109577
0.008510665 -0.018211925 -0.26047957 -0.0069980617 -0.3247323 0.40735924 0.031160166 -0.067267664

bias f4 [30]
00000000: c2f6 bb3c a0b8 50bc a37a 57bd c7fa 643d
00000010: 3167 20bd 9b3e 083b 6bcf 9dbc 7256 34bd
00000020: 9c46 28bd d752 aebb ec43 42bd 57f7 acbc
00000030: 38a3 a33c 8dda 22bd 0c03 5cbd 2c62 49bd
00000040: 34d2 8bbd c50c 963c 31de 4a3d d124 1dbc
00000050: 9320 2a3d 41b2 98b9 f92f 1dbd 4b8f 0e3d
00000060: 4b4b 353c 5471 283d c029 47bb 79e9 d63c
00000070: 2ee7 91bd 49a0 42bb
0.022944812 -0.0127393305 -0.05260719 0.055903222 -0.03916091 0.002078927 -0.019263944 -0.044027753
-0.041082963 -0.005319934 -0.047428057 -0.021114035 0.01997529 -0.039759208 -0.053713843 -0.04916589
-0.068272024 0.018316636 0.049528304 -0.009591297 0.04153497 -0.0002912451 -0.03837583 0.034804624
0.0110653145 0.041123703 -0.0030389875 0.026234375 -0.07124172 -0.0029697588

weight f4 [30, 30]
00000000: 7301 c6bd cca3 d13d 7dee c13e 3e03 90be
00000010: 3645 c7bd c2fe 40be 0a79 7c3e 924a 6fbe
00000020: 86d1 8bbd 024c 223e e5b0 d93e 8a5f 793e
00000030: 97e5 31be a506 f4bc 175b fc3d 7b0d 383e
00000040: 92df 3b3f 2fab 563d 0dee 22bd 871d 893e
00000050: 2330 72be 3c49 3bbd 0294 613d f37e 22be
00000060: 3f5d bf3c 4c58 ef3d aa98 b93c 9815 0fbe
00000070: a629 1e3f 5d3c 51bb 9d60 553d 9574 edbb
00000080: d77c ec3e e522 08be 4971 0fbe 31c0 4f3e
00000090: 4bee 34be d366 0f3e 336d 493e 00cc 3c3e
000000a0: de0f 6a3e 39bf 963e ffc5 a3be 07df f8bd
000000b0: 9ef3 9e3d 214c 8c3d cf00 953e 61a2 1c3e
000000c0: b418 29be 670e 473c bfc4 333e 4ec3 d43d
000000d0: dd5e 5dbe 3593 a6be 9f02 a23e ef54 773e
000000e0: 7e95 20be 8c26 9abe 4952 8f3e f1db 7b3e
000000f0: 3891 82be 8a67 30be 1eac 0b3e 35fc 753e
00000100: 39bc 3e3d 4e87 a83e 560e c03d c0c9 70bc
00000110: 533d 7d3d cedb 8ebd 4a6c 1dba 17cd 57bc
00000120: ddfa 993d bf7d ec3d c6cd bcbe 3140 0a3e
00000130: 8406 4cbe 0e08 0abe af4c de3e 784b 443d
00000140: 1d89 083d 3c60 76be 06ab 17be b80c 923d
00000150: 202a 583e 59a8 efbb 035b db3d 4646 353e
00000160: 08b0 f1bd d06a 35be 90d3 193b 22ab 883e
00000170: 63bc f6bb a057 9d3d fb5b bb3d 02cb 423c
00000180: 5803 16bd 4202 583c 3ab7 04bc 808b e0bc
00000190: a41a 823e 9c83 26be 1457 353a c9e7 183b
000001a0: 8681 913c e1ef ddbd c36e 26bc 24d6 96be
000001b0: 53bf e43c 518a 80be 1320 11bd 5751 9cbe
000001c0: ae8c 5fbd ac73 403d ea4e 003e 9e95 6a3e
000001d0: 132e fa3d 98a2 9fbe 3477 e13d 0dbd 103e
000001e0: c05b 983a f17c 2b3e 7dab 3f3e 5409 1bbe
000001f0: b736 b2bd a1cf c23c afa2 6fbd 42f5 15be
00000200: f72f f13b 3ddc 023e 6bc4 833c 37cf 9b3e
00000210: ef3e a13c f72f 6ebe 81de bebd c899 fd3d
00000220: 1ff2 243e de05 193e ea49 e83d 4b1b 07bd
00000230: 70e2 793e e1d3 063e 35d4 b6be a6a8 aa3d
00000240: 0747 a13d 2ba9 c43e b67f 443e 50f8 163c
00000250: f134 94bd f83f f8bc a54d 7c3e 1d57 8c3e
00000260: b80c 623d 2207 e0bd a114 023d 9c98 e9bd
00000270: e049 143e 934d 5a3e 715a 31bd 9eca 8fba
00000280: 6631 a53d 673b a7be d946 d03e 475f c63d
00000290: fe32 12be c2a0 313e c50a 5abd cfb9 7cbe
000002a0: 8209 543e 7588 30be 39d5 e83d 54ee 77bd
000002b0: 66fe 1d3e a037 0cbf ca9f 8e3c d034 a93d
000002c0: b81a 4bbe f33e dcbc f613 45be 76e9 d5bc
000002d0: a299 923c ee65 e1be e200 073e ce44 c5bd
000002e0: 9308 d43d 7d89 3c3d a751 fd3b 581d 383e
000002f0: 15b4 9e3d f34b 703c 4593 9bbd 7268 11be
00000300: f1e4 e23d db66 43bd 09ce 0dbd 95f6 abbe
00000310: 0d50 7abd 74d3 a5bd 0fc1 203e 39bd 43be
00000320: 2355 ad3e 28da 27be c7bf e83d 9d17 143e
00000330: b4ef 5f3d 74b1 83bb 6340 4e3e ec67 48be
00000340: 3bbe 12bc f4e0 95be 7ce3 023e b978 3e3b
00000350: 7120 9e3d b3c0 643c d7f1 0bbe b6bb a03d
00000360: 1dd3 2e3e 84c5 49be 7442 573e dbae 923d
00000370: f4cd 3abd d5b7 e53d 4a45 813e 9bcf 9dbc
00000380: 6d92 333e 3a01 a1be 0de9 283d c5f9 7f3e
00000390: dfcb 993d 3dfa 00bd e194 003e 975e 3c3d
000003a0: aa9a 5ebe d5b6 663e f7bb 773c a661 22be
000003b0: 2afd 3dbe 26cb 2fbe 8286 1ebd e3b1 34bc
000003c0: 28b6 f4be 7922 a7be 890b 263e b0ae dbbd
000003d0: 6d6d 183e e675 59be 6a26 a8bd 18fe 903e
000003e0: 7e15 1dbd 574a a2be f227 b43e b8aa 543e
000003f0: 1274 31be f8f0 a33c 31db cdbd f7dd db3d
-0.09668245 0.1023632 0.37877265 -0.28127474 -0.09729998 -0.18847182 0.24655548 -0.2336829
-0.06827073 0.15849307 0.42517772 0.24352852 -0.17372738 -0.029788325 0.123220615 0.17973892
0.73388016 0.052409347 -0.039777804 0.2678034 -0.23651175 -0.04572414 0.055072792 -0.1586874
0.023359893 0.11686763 0.022655804 -0.13973081 0.617823 -0.0031926848 0.05209409 -0.0072465637
0.46188995 -0.13294561 -0.14008059 0.20288159 -0.17669027 0.14004068 0.19670562 0.18437195
0.22857615 0.29442766 -0.31986997 -0.12151914 0.0776131 0.06850458 0.2910218 0.15296318
-0.1651333 0.01214943 0.17555521 0.10388814 -0.21618219 -0.32534185 0.31642625 0.24153493
-0.15682027 -0.30107534 0.27992466 0.2459562 -0.25501418 -0.17226997 0.13639876 0.2402199
0.046566222 0.3291573 0.09377734 -0.014696538 0.06182606 -0.06975518 -0.0006005211 -0.013171456
0.075185515 0.11547422 -0.36875743 0.1350105 -0.1992436 -0.13479635 0.4341788 0.047923535
0.033333886 -0.24060148 -0.14811334 0.07131332 0.2110982 -0.00731377 0.107107185 0.17702588
-0.118011534 -0.17716527 0.0023472048 0.26693064 -0.0075297817 0.07682729 0.09148403 0.011889221
-0.036624283 0.013184132 -0.008100325 -0.027410269 0.2541095 -0.16261142 0.00069175777 0.0023331514
0.017761957 -0.10836769 -0.010158244 -0.2946025 0.027923262 -0.25105527 -0.03543098 -0.30530807
-0.054577522 0.046985313 0.12530103 0.22908637 0.12215819 -0.31178737 0.11009064 0.14134617
0.0011624023 0.1674688 0.18717761 -0.15140277 -0.08701842 0.023780646 -0.058504757 -0.1464434
0.007360454 0.12779327 0.01608487 0.3043153 0.01968333 -0.23260485 -0.09319783 0.12382847
0.16107987 0.14943644 0.11342223 -0.032985013 0.24402785 0.13166763 -0.35708776 0.083329484
0.078748755 0.38410315 0.19189343 0.009214476 -0.0723666 -0.03030394 0.24638994 0.27410212
0.05518791 -0.109388605 0.031757955 -0.11406061 0.14481306 0.21318655 -0.043299142 -0.0010970419
0.08066063 -0.32662508 0.40679052 0.096861415 -0.14277264 0.1734648 -0.053232927 -0.24680255
0.20706752 -0.17239554 0.11368794 -0.06053002 0.15429077 -0.54772377 0.017410178 0.08262026
-0.19834411 -0.026885485 -0.19245896 -0.0261123 0.017895523 -0.4402308 0.1318393 -0.09632264
0.10353198 0.046029557 0.007730681 0.17979944 0.07749192 0.014666545 -0.07596449 -0.14199999
0.11078823 -0.047705512 -0.03462032 -0.33586565 -0.0611115 -0.08096972 0.15698646 -0.19115151
0.33854017 -0.16391814 0.113647036 0.14462133 0.054671958 -0.004018957 0.20141749 -0.19570893
-0.008956487 -0.29273188 0.12782091 0.0029063656 0.077210315 0.013961959 -0.13666473 0.07848303
0.17072721 -0.19704252 0.21021444 0.07162257 -0.04560657 0.11216704 0.25248176 -0.019264033
0.17536326 -0.31446248 0.04123788 0.24997623 0.075095885 -0.031488646 0.12556793 0.045988645
-0.21738687 0.22530682 0.015120498 -0.15857562 -0.18553606 -0.17167339 -0.038702495 -0.01102874
-0.47795224 -0.32643488 0.16215338 -0.10726678 0.14885493 -0.21236381 -0.08210452 0.28318858
-0.038350575 -0.31697342 0.35186726 0.20768249 -0.17329434 0.020012364 -0.10051573 0.10735696

bias f4 [30]
00000000: 66ab 9dbd 6ee7 eb3a 3046 1e3c f459 3fbc
00000010: 0f36 ae3c 38ca bdbc 4dfa 48bd e938 22bc
00000020: 7bc4 febc 4ec0 b1bc e160 953c 3438 8d3b
00000030: ba6a 12bd 3661 2e3d 47c2 d6bc ed5c 5a3d
00000040: e485 8a3d 0fae c33c 3836 bf3a 6f8d 603c
00000050: 472f 013c 8fd3 393c 9bc0 3dbb 6ddc efbc
00000060: cecd 71bd e372 87bb 2552 cebc db61 113c
00000070: 26b6 373b 3e9c 19bc
-0.07698707 0.0017998049 0.009660289 -0.011679161 0.021266012 -0.023167714 -0.04906683 -0.009901264
-0.031099549 -0.021698143 0.018234672 0.0043096785 -0.035746314 0.042573176 -0.026215686 0.053311277
0.06763819 0.023886709 0.0014588302 0.013705595 0.007884807 0.011341943 -0.0028953913 -0.029279912
-0.05903416 -0.0041335686 -0.025185654 0.008873428 0.0028032153 -0.00937563

weight f4 [1, 30]
00000000: 104d febe d8e1 94be c01d 88be a129 983e
00000010: 1cdb 3fbe 3a2c 513e 5085 f33c 23c4 0a3e
00000020: 468b 7e3e c13f 043e 2e26 11bf c42e 98be
00000030: fd62 2c3e cd8f cfbe bae8 283e cc2b b4bd
00000040: afaa b53e d300 b7bd f76e b03e c2d2 5cbe
00000050: 1f9b d8be b881 6cbe f796 46be 3b5e fe3e
00000060: d70e 333e 84ab 8d3e e2de 033e 5513 a1be
00000070: 7589 abbd 23cd 45bc
-0.4966817 -0.29078555 -0.26585197 0.2971926 -0.18735927 0.20427027 0.029726654 0.13551383
0.24857816 0.12914945 -0.5669888 -0.2972318 0.16834636 -0.405394 0.16495028 -0.08797416
0.35481784 -0.08935704 0.3445966 -0.21564773 -0.42305848 -0.23096359 -0.19393526 0.49681267
0.1748613 0.2766992 0.12877992 -0.31460062 -0.08375827 -0.012072834

G f4 [100, 1]
00000000: 0000 0000 0000 0000 0000 0000 0000 0000
00000010: 0000 0000 0000 0000 0000 0000 0000 0000
00000020: 0000 0000 0000 0000 0000 0000 0000 0000
00000030: 0000 0000 0000 0000 0000 0000 0000 0000
00000040: 0000 0000 0000 0000 0000 0000 0000 0000
00000050: 0000 0000 0000 0000 0000 0000 0000 0000
00000060: 0000 0000 0000 0000 0000 0000 0000 0000
00000070: 0000 0000 0000 0000 0000 0000 0000 0000
00000080: 0000 0000 0000 0000 0000 0000 0000 0000
00000090: 0000 0000 0000 0000 0000 0000 0000 0000
000000a0: 0000 0000 0000 0000 0000 0000 0000 0000
000000b0: 0000 0000 0000 0000 0000 0000 0000 0000
000000c0: 0000 0000 0000 0000 0000 0000 0000 0000
000000d0: 0000 0000 0000 0000 0000 0000 0000 0000
000000e0: 0000 0000 0000 0000 0000 0000 0000 0000
000000f0: 0000 0000 0000 0000 0000 0000 0000 0000
00000100: 0000 0000 0000 0000 0000 0000 0000 0000
00000110: 0000 0000 0000 0000 0000 0000 0000 0000
00000120: 0000 0000 0000 0000 0000 0000 0000 0000
00000130: 0000 0000 0000 0000 0000 0000 0000 0000
00000140: 0000 0000 0000 0000 0000 0000 0000 0000
00000150: 0000 0000 0000 0000 0000 0000 0000 0000
00000160: 0000 0000 0000 0000 0000 0000 0000 0000
00000170: 0000 0000 0000 0000 0000 0000 0000 0000
00000180: 0000 0000 0000 0000 0000 0000 0000 0000
0.0 0.0 0.0 0.0 0.0 0.0 0.0 0.0
0.0 0.0 0.0 0.0 0.0 0.0 0.0 0.0
0.0 0.0 0.0 0.0 0.0 0.0 0.0 0.0
0.0 0.0 0.0 0.0 0.0 0.0 0.0 0.0
0.0 0.0 0.0 0.0 0.0 0.0 0.0 0.0
0.0 0.0 0.0 0.0 0.0 0.0 0.0 0.0
0.0 0.0 0.0 0.0 0.0 0.0 0.0 0.0
0.0 0.0 0.0 0.0 0.0 0.0 0.0 0.0
0.0 0.0 0.0 0.0 0.0 0.0 0.0 0.0
0.0 0.0 0.0 0.0 0.0 0.0 0.0 0.0
0.0 0.0 0.0 0.0 0.0 0.0 0.0 0.0
0.0 0.0 0.0 0.0 0.0 0.0 0.0 0.0
0.0 0.0 0.0 0.0

exp_avg f4 [30, 2]
00000000: 9e37 e13b 036a 0dbb 98fb 913c 4378 433b
00000010: 5a98 043b 6f62 943a 09e1 503c e6d9 7239
00000020: c75d a6bb 8c9a 03bb da76 81bc f45a 0dbb
00000030: 460f eb3b 2abb 103a 651e 923a bb5c e739
00000040: d0fa 0f3b 00b5 143b bcb6 4ebd 487c d33a
00000050: 3531 fc3b 1b7b ed3a fb21 073b 0046 c1b7
00000060: e9df fabb 7020 db3a bbcb cc3b 6dd7 453a
00000070: ddb8 f63b 70dd 713b ca91 09bc bd4c 0fbb
00000080: 22f5 ff3b 7faf e5ba d492 83ba 35bc 6539
00000090: 2480 4a3a 8edc 20bb 3b7d 0b3b ada3 e3ba
000000a0: fbdc e7b9 57da 013a 524d 27bc 254e 0d3a
000000b0: a782 0eb9 e01a eb3a e61b 44bc 40ed efbb
000000c0: 30e5 17bc 5a10 0dba 3413 0dbc dd2c 0cbb
000000d0: 737f 233b a495 94bb 6e33 383c edf3 9bb9
000000e0: a611 61bc fdc9 a03a 8418 2ebb 9003 36ba
0.006873085 -0.002157808 0.017820165 0.002982632 0.002023241 0.0011320839 0.012748965 0.00023160092
-0.005077097 -0.002008113 -0.015803743 -0.0021569105 0.0071734516 0.00055210537 0.0011147974 0.00044128843
0.0021969564 0.0022690892 -0.050467238 0.0016135061 0.0076962956 0.0018118353 0.002061962 -2.303999e-05
-0.0076560867 0.0016718041 0.0062498725 0.00075470546 0.0075293616 0.0036905669 -0.008396575 -0.0021865808
0.0078112045 -0.0017523615 -0.0010038265 0.00021909254 0.0007724783 -0.0024545523 0.002128436 -0.0017367505
-0.00044224397 0.00049534946 -0.010211306 0.00053903676 -0.00013590847 0.0017937087 -0.011969542 -0.0073219836
-0.009270951 -0.000538116 -0.008610535 -0.0021389045 0.0024947792 -0.00453444 0.011242731 -0.00029745643
-0.013737118 0.0012267228 -0.0026564905 -0.000694328
