pbc_examples/saved_models/convection_beta-1.0_layers-50,50,50,50,1_L-0.1_WD-0_init-normal_batch_size256.pt (torch, 114093 bytes, 36 tensors)

x_u f4 [256, 1]
0	0x00000000	0.0
1	0x3cc90fdb	0.024543693
2	0x3d490fdb	0.049087387
3	0x3d96cbe4	0.07363108
4	0x3dc90fdb	0.09817477
5	0x3dfb53d1	0.12271846
6	0x3e16cbe4	0.14726216
7	0x3e2feddf	0.17180584
8	0x3e490fdb	0.19634955
9	0x3e6231d6	0.22089323
10	0x3e7b53d1	0.24543692
11	0x3e8a3ae6	0.2699806
12	0x3e96cbe4	0.2945243
13	0x3ea35ce2	0.319068
14	0x3eafeddf	0.3436117
15	0x3ebc7edd	0.3681554
16	0x3ec90fdb	0.3926991
17	0x3ed5a0d8	0.41724277
18	0x3ee231d6	0.44178647
19	0x3eeec2d4	0.46633017
20	0x3efb53d1	0.49087384
21	0x3f03f267	0.5154175
22	0x3f0a3ae6	0.5399612
23	0x3f108365	0.5645049
24	0x3f16cbe4	0.5890486
25	0x3f1d1463	0.6135923
26	0x3f235ce2	0.638136
27	0x3f29a560	0.6626797
28	0x3f2feddf	0.6872234
29	0x3f36365e	0.7117671
30	0x3f3c7edd	0.7363108
31	0x3f42c75c	0.7608545
32	0x3f490fdb	0.7853982
33	0x3f4f5859	0.8099418
34	0x3f55a0d8	0.83448553
35	0x3f5be957	0.85902923
36	0x3f6231d6	0.88357294
37	0x3f687a55	0.90811664
38	0x3f6ec2d4	0.93266034
39	0x3f750b52	0.957204
40	0x3f7b53d1	0.9817477
41	0x3f80ce28	1.0062914
42	0x3f83f267	1.030835
43	0x3f8716a7	1.0553788
44	0x3f8a3ae6	1.0799224
45	0x3f8d5f26	1.1044662
46	0x3f908365	1.1290098
47	0x3f93a7a5	1.1535536
48	0x3f96cbe4	1.1780972
49	0x3f99f023	1.2026409
50	0x3f9d1463	1.2271847
51	0x3fa038a2	1.2517283
52	0x3fa35ce2	1.276272
53	0x3fa68121	1.3008157
54	0x3fa9a560	1.3253593
55	0x3facc9a0	1.3499031
56	0x3fafeddf	1.3744467
57	0x3fb3121f	1.3989905
58	0x3fb6365e	1.4235342
59	0x3fb95a9e	1.4480779
60	0x3fbc7edd	1.4726216
61	0x3fbfa31c	1.4971652
62	0x3fc2c75c	1.521709
63	0x3fc5eb9b	1.5462526
64	0x3fc90fdb	1.5707964
65	0x3fcc341a	1.59534
66	0x3fcf5859	1.6198837
67	0x3fd27c99	1.6444274
68	0x3fd5a0d8	1.6689711
69	0x3fd8c518	1.6935148
70	0x3fdbe957	1.7180585
71	0x3fdf0d97	1.7426022
72	0x3fe231d6	1.7671459
73	0x3fe55615	1.7916895
74	0x3fe87a55	1.8162333
75	0x3feb9e94	1.8407769
76	0x3feec2d4	1.8653207
77	0x3ff1e713	1.8898643
78	0x3ff50b52	1.914408
79	0x3ff82f92	1.9389517
80	0x3ffb53d1	1.9634954
81	0x3ffe7811	1.9880391
82	0x4000ce28	2.0125828
83	0x40026048	2.0371265
84	0x4003f267	2.06167
85	0x40058487	2.0862138
86	0x400716a7	2.1107576
87	0x4008a8c7	2.1353014
88	0x400a3ae6	2.1598449
89	0x400bcd06	2.1843886
90	0x400d5f26	2.2089324
91	0x400ef145	2.233476
92	0x40108365	2.2580197
93	0x40121585	2.2825634
94	0x4013a7a5	2.3071072
95	0x401539c4	2.3316507
96	0x4016cbe4	2.3561945
97	0x40185e04	2.3807383
98	0x4019f023	2.4052818
99	0x401b8243	2.4298255
100	0x401d1463	2.4543693
101	0x401ea683	2.478913
102	0x402038a2	2.5034566
103	0x4021cac2	2.5280004
104	0x40235ce2	2.552544
105	0x4024ef01	2.5770876
106	0x40268121	2.6016314
107	0x40281341	2.6261752
108	0x4029a560	2.6507187
109	0x402b3780	2.6752625
110	0x402cc9a0	2.6998062
111	0x402e5bc0	2.72435
112	0x402feddf	2.7488935
113	0x40317fff	2.7734373
114	0x4033121f	2.797981
115	0x4034a43e	2.8225245
116	0x4036365e	2.8470683
117	0x4037c87e	2.871612
118	0x40395a9e	2.8961558
119	0x403aecbd	2.9206994
120	0x403c7edd	2.9452431
121	0x403e10fd	2.969787
122	0x403fa31c	2.9943304
123	0x4041353c	3.0188742
124	0x4042c75c	3.043418
125	0x4044597c	3.0679617
126	0x4045eb9b	3.0925052
127	0x40477dbb	3.117049
128	0x40490fdb	3.1415927
129	0x404aa1fa	3.1661363
130	0x404c341a	3.19068
131	0x404dc63a	3.2152238
132	0x404f5859	3.2397673
133	0x4050ea79	3.264311
134	0x40527c99	3.2888548
135	0x40540eb9	3.3133986
136	0x4055a0d8	3.3379421
137	0x405732f8	3.362486
138	0x4058c518	3.3870296
139	0x405a5737	3.4115732
140	0x405be957	3.436117
141	0x405d7b77	3.4606607
142	0x405f0d97	3.4852045
143	0x40609fb6	3.509748
144	0x406231d6	3.5342917
145	0x4063c3f6	3.5588355
146	0x40655615	3.583379
147	0x4066e835	3.6079228
148	0x40687a55	3.6324666
149	0x406a0c75	3.6570103
150	0x406b9e94	3.6815538
151	0x406d30b4	3.7060976
152	0x406ec2d4	3.7306414
153	0x407054f3	3.755185
154	0x4071e713	3.7797287
155	0x40737933	3.8042724
156	0x40750b52	3.828816
157	0x40769d72	3.8533597
158	0x40782f92	3.8779035
159	0x4079c1b2	3.9024472
160	0x407b53d1	3.9269907
161	0x407ce5f1	3.9515345
162	0x407e7811	3.9760783
163	0x40800518	4.000622
164	0x4080ce28	4.0251656
165	0x40819738	4.0497093
166	0x40826048	4.074253
167	0x40832958	4.098797
168	0x4083f267	4.12334
169	0x4084bb77	4.147884
170	0x40858487	4.1724277
171	0x40864d97	4.1969714
172	0x408716a7	4.221515
173	0x4087dfb7	4.246059
174	0x4088a8c7	4.2706027
175	0x408971d6	4.295146
176	0x408a3ae6	4.3196898
177	0x408b03f6	4.3442335
178	0x408bcd06	4.3687773
179	0x408c9616	4.393321
180	0x408d5f26	4.417865
181	0x408e2836	4.4424086
182	0x408ef145	4.466952
183	0x408fba55	4.4914956
184	0x40908365	4.5160394
185	0x40914c75	4.540583
186	0x40921585	4.565127
187	0x4092de95	4.5896707
188	0x4093a7a5	4.6142144
189	0x409470b4	4.6387577
190	0x409539c4	4.6633015
191	0x409602d4	4.687845
192	0x4096cbe4	4.712389
193	0x409794f4	4.7369328
194	0x40985e04	4.7614765
195	0x40992714	4.7860203
196	0x4099f023	4.8105636
197	0x409ab933	4.8351073
198	0x409b8243	4.859651
199	0x409c4b53	4.884195
200	0x409d1463	4.9087386
201	0x409ddd73	4.9332824
202	0x409ea683	4.957826
203	0x409f6f92	4.9823694
204	0x40a038a2	5.006913
205	0x40a101b2	5.031457
206	0x40a1cac2	5.0560007
207	0x40a293d2	5.0805445
208	0x40a35ce2	5.105088
209	0x40a425f1	5.1296315
210	0x40a4ef01	5.1541753
211	0x40a5b811	5.178719
212	0x40a68121	5.203263
213	0x40a74a31	5.2278066
214	0x40a81341	5.2523503
215	0x40a8dc51	5.276894
216	0x40a9a560	5.3014374
217	0x40aa6e70	5.325981
218	0x40ab3780	5.350525
219	0x40ac0090	5.3750687
220	0x40acc9a0	5.3996124
221	0x40ad92b0	5.424156
222	0x40ae5bc0	5.4487
223	0x40af24cf	5.473243
224	0x40afeddf	5.497787
225	0x40b0b6ef	5.5223308
226	0x40b17fff	5.5468745
227	0x40b2490f	5.5714183
228	0x40b3121f	5.595962
229	0x40b3db2f	5.620506
230	0x40b4a43e	5.645049
231	0x40b56d4e	5.669593
232	0x40b6365e	5.6941366
233	0x40b6ff6e	5.7186804
234	0x40b7c87e	5.743224
235	0x40b8918e	5.767768
236	0x40b95a9e	5.7923117
237	0x40ba23ad	5.816855
238	0x40baecbd	5.8413987
239	0x40bbb5cd	5.8659425
240	0x40bc7edd	5.8904862
241	0x40bd47ed	5.91503
242	0x40be10fd	5.939574
243	0x40beda0d	5.9641175
244	0x40bfa31c	5.988661
245	0x40c06c2c	6.0132046
246	0x40c1353c	6.0377483
247	0x40c1fe4c	6.062292
248	0x40c2c75c	6.086836
249	0x40c3906c	6.1113796
250	0x40c4597c	6.1359234
251	0x40c5228b	6.1604667
252	0x40c5eb9b	6.1850104
253	0x40c6b4ab	6.209554
254	0x40c77dbb	6.234098
255	0x40c846cb	6.2586417

t_u f4 [256, 1]
0	0x00000000	0.0
1	0x00000000	0.0
2	0x00000000	0.0
3	0x00000000	0.0
4	0x00000000	0.0
5	0x00000000	0.0
6	0x00000000	0.0
7	0x00000000	0.0
8	0x00000000	0.0
9	0x00000000	0.0
10	0x00000000	0.0
11	0x00000000	0.0
12	0x00000000	0.0
13	0x00000000	0.0
14	0x00000000	0.0
15	0x00000000	0.0
16	0x00000000	0.0
17	0x00000000	0.0
18	0x00000000	0.0
19	0x00000000	0.0
20	0x00000000	0.0
21	0x00000000	0.0
22	0x00000000	0.0
23	0x00000000	0.0
24	0x00000000	0.0
25	0x00000000	0.0
26	0x00000000	0.0
27	0x00000000	0.0
28	0x00000000	0.0
29	0x00000000	0.0
30	0x00000000	0.0
31	0x00000000	0.0
32	0x00000000	0.0
33	0x00000000	0.0
34	0x00000000	0.0
35	0x00000000	0.0
36	0x00000000	0.0
37	0x00000000	0.0
38	0x00000000	0.0
39	0x00000000	0.0
40	0x00000000	0.0
41	0x00000000	0.0
42	0x00000000	0.0
43	0x00000000	0.0
44	0x00000000	0.0
45	0x00000000	0.0
46	0x00000000	0.0
47	0x00000000	0.0
48	0x00000000	0.0
49	0x00000000	0.0
50	0x00000000	0.0
51	0x00000000	0.0
52	0x00000000	0.0
53	0x00000000	0.0
54	0x00000000	0.0
55	0x00000000	0.0
56	0x00000000	0.0
57	0x00000000	0.0
58	0x00000000	0.0
59	0x00000000	0.0
60	0x00000000	0.0
61	0x00000000	0.0
62	0x00000000	0.0
63	0x00000000	0.0
64	0x00000000	0.0
65	0x00000000	0.0
66	0x00000000	0.0
67	0x00000000	0.0
68	0x00000000	0.0
69	0x00000000	0.0
70	0x00000000	0.0
71	0x00000000	0.0
72	0x00000000	0.0
73	0x00000000	0.0
74	0x00000000	0.0
75	0x00000000	0.0
76	0x00000000	0.0
77	0x00000000	0.0
78	0x00000000	0.0
79	0x00000000	0.0
80	0x00000000	0.0
81	0x00000000	0.0
82	0x00000000	0.0
83	0x00000000	0.0
84	0x00000000	0.0
85	0x00000000	0.0
86	0x00000000	0.0
87	0x00000000	0.0
88	0x00000000	0.0
89	0x00000000	0.0
90	0x00000000	0.0
91	0x00000000	0.0
92	0x00000000	0.0
93	0x00000000	0.0
94	0x00000000	0.0
95	0x00000000	0.0
96	0x00000000	0.0
97	0x00000000	0.0
98	0x00000000	0.0
99	0x00000000	0.0
100	0x00000000	0.0
101	0x00000000	0.0
102	0x00000000	0.0
103	0x00000000	0.0
104	0x00000000	0.0
105	0x00000000	0.0
106	0x00000000	0.0
107	0x00000000	0.0
108	0x00000000	0.0
109	0x00000000	0.0
110	0x00000000	0.0
111	0x00000000	0.0
112	0x00000000	0.0
113	0x00000000	0.0
114	0x00000000	0.0
115	0x00000000	0.0
116	0x00000000	0.0
117	0x00000000	0.0
118	0x00000000	0.0
119	0x00000000	0.0
120	0x00000000	0.0
121	0x00000000	0.0
122	0x00000000	0.0
123	0x00000000	0.0
124	0x00000000	0.0
125	0x00000000	0.0
126	0x00000000	0.0
127	0x00000000	0.0
128	0x00000000	0.0
129	0x00000000	0.0
130	0x00000000	0.0
131	0x00000000	0.0
132	0x00000000	0.0
133	0x00000000	0.0
134	0x00000000	0.0
135	0x00000000	0.0
136	0x00000000	0.0
137	0x00000000	0.0
138	0x00000000	0.0
139	0x00000000	0.0
140	0x00000000	0.0
141	0x00000000	0.0
142	0x00000000	0.0
143	0x00000000	0.0
144	0x00000000	0.0
145	0x00000000	0.0
146	0x00000000	0.0
147	0x00000000	0.0
148	0x00000000	0.0
149	0x00000000	0.0
150	0x00000000	0.0
151	0x00000000	0.0
152	0x00000000	0.0
153	0x00000000	0.0
154	0x00000000	0.0
155	0x00000000	0.0
156	0x00000000	0.0
157	0x00000000	0.0
158	0x00000000	0.0
159	0x00000000	0.0
160	0x00000000	0.0
161	0x00000000	0.0
162	0x00000000	0.0
163	0x00000000	0.0
164	0x00000000	0.0
165	0x00000000	0.0
166	0x00000000	0.0
167	0x00000000	0.0
168	0x00000000	0.0
169	0x00000000	0.0
170	0x00000000	0.0
171	0x00000000	0.0
172	0x00000000	0.0
173	0x00000000	0.0
174	0x00000000	0.0
175	0x00000000	0.0
176	0x00000000	0.0
177	0x00000000	0.0
178	0x00000000	0.0
179	0x00000000	0.0
180	0x00000000	0.0
181	0x00000000	0.0
182	0x00000000	0.0
183	0x00000000	0.0
184	0x00000000	0.0
185	0x00000000	0.0
186	0x00000000	0.0
187	0x00000000	0.0
188	0x00000000	0.0
189	0x00000000	0.0
190	0x00000000	0.0
191	0x00000000	0.0
192	0x00000000	0.0
193	0x00000000	0.0
194	0x00000000	0.0
195	0x00000000	0.0
196	0x00000000	0.0
197	0x00000000	0.0
198	0x00000000	0.0
199	0x00000000	0.0
200	0x00000000	0.0
201	0x00000000	0.0
202	0x00000000	0.0
203	0x00000000	0.0
204	0x00000000	0.0
205	0x00000000	0.0
206	0x00000000	0.0
207	0x00000000	0.0
208	0x00000000	0.0
209	0x00000000	0.0
210	0x00000000	0.0
211	0x00000000	0.0
212	0x00000000	0.0
213	0x00000000	0.0
214	0x00000000	0.0
215	0x00000000	0.0
216	0x00000000	0.0
217	0x00000000	0.0
218	0x00000000	0.0
219	0x00000000	0.0
220	0x00000000	0.0
221	0x00000000	0.0
222	0x00000000	0.0
223	0x00000000	0.0
224	0x00000000	0.0
225	0x00000000	0.0
226	0x00000000	0.0
227	0x00000000	0.0
228	0x00000000	0.0
229	0x00000000	0.0
230	0x00000000	0.0
231	0x00000000	0.0
232	0x00000000	0.0
233	0x00000000	0.0
234	0x00000000	0.0
235	0x00000000	0.0
236	0x00000000	0.0
237	0x00000000	0.0
238	0x00000000	0.0
239	0x00000000	0.0
240	0x00000000	0.0
241	0x00000000	0.0
242	0x00000000	0.0
243	0x00000000	0.0
244	0x00000000	0.0
245	0x00000000	0.0
246	0x00000000	0.0
247	0x00000000	0.0
248	0x00000000	0.0
249	0x00000000	0.0
250	0x00000000	0.0
251	0x00000000	0.0
252	0x00000000	0.0
253	0x00000000	0.0
254	0x00000000	0.0
255	0x00000000	0.0

x_f f4 [100, 1]
0	0x4093a7a5	4.6142144
1	0x3fdf0d97	1.7426022
2	0x4055a0d8	3.3379421
3	0x409c4b53	4.884195
4	0x4044597c	3.0679617
5	0x40b0b6ef	5.5223308
6	0x40ba23ad	5.816855
7	0x40c5eb9b	6.1850104
8	0x40921585	4.565127
9	0x3f99f023	1.2026409
10	0x40992714	4.7860203
11	0x3f108365	0.5645049
12	0x3feb9e94	1.8407769
13	0x3dfb53d1	0.12271846
14	0x409f6f92	4.9823694
15	0x40c2c75c	6.086836
16	0x40b6ff6e	5.7186804
17	0x402cc9a0	2.6998062
18	0x4021cac2	2.5280004
19	0x40c3906c	6.1113796
20	0x402e5bc0	2.72435
21	0x40af24cf	5.473243
22	0x3f8716a7	1.0553788
23	0x40c1fe4c	6.062292
24	0x3ee231d6	0.44178647
25	0x3f36365e	0.7117671
26	0x40864d97	4.1969714
27	0x40c846cb	6.2586417
28	0x40c4597c	6.1359234
29	0x40914c75	4.540583
30	0x40c5eb9b	6.1850104
31	0x4088a8c7	4.2706027
32	0x40af24cf	5.473243
33	0x40268121	2.6016314
34	0x408d5f26	4.417865
35	0x409d1463	4.9087386
36	0x40c06c2c	6.0132046
37	0x3ebc7edd	0.3681554
38	0x3efb53d1	0.49087384
39	0x40a68121	5.203263
40	0x405d7b77	3.4606607
41	0x3ee231d6	0.44178647
42	0x3fcf5859	1.6198837
43	0x4084bb77	4.147884
44	0x3fe87a55	1.8162333
45	0x409ea683	4.957826
46	0x405f0d97	3.4852045
47	0x4058c518	3.3870296
48	0x3f750b52	0.957204
49	0x4013a7a5	2.3071072
50	0x3f29a560	0.6626797
51	0x40a74a31	5.2278066
52	0x3cc90fdb	0.024543693
53	0x40c1fe4c	6.062292
54	0x401539c4	2.3316507
55	0x3ffb53d1	1.9634954
56	0x401539c4	2.3316507
57	0x3f2feddf	0.6872234
58	0x3fcc341a	1.59534
59	0x405a5737	3.4115732
60	0x40b3121f	5.595962
61	0x40b95a9e	5.7923117
62	0x3f8d5f26	1.1044662
63	0x406b9e94	3.6815538
64	0x3f6231d6	0.88357294
65	0x3fdbe957	1.7180585
66	0x401b8243	2.4298255
67	0x4066e835	3.6079228
68	0x3fe55615	1.7916895
69	0x3fcf5859	1.6198837
70	0x408971d6	4.295146
71	0x3ffe7811	1.9880391
72	0x40108365	2.2580197
73	0x402e5bc0	2.72435
74	0x3f490fdb	0.7853982
75	0x4003f267	2.06167
76	0x409ea683	4.957826
77	0x40a425f1	5.1296315
78	0x401b8243	2.4298255
79	0x40914c75	4.540583
80	0x406a0c75	3.6570103
81	0x3f55a0d8	0.83448553
82	0x406d30b4	3.7060976
83	0x3fe55615	1.7916895
84	0x40c2c75c	6.086836
85	0x409f6f92	4.9823694
86	0x409c4b53	4.884195
87	0x3f80ce28	1.0062914
88	0x40afeddf	5.497787
89	0x40baecbd	5.8413987
90	0x40864d97	4.1969714
91	0x4096cbe4	4.712389
92	0x3f6231d6	0.88357294
93	0x3f6ec2d4	0.93266034
94	0x3f9d1463	1.2271847
95	0x40b7c87e	5.743224
96	0x40b2490f	5.5714183
97	0x40c1353c	6.0377483
98	0x405be957	3.436117
99	0x3facc9a0	1.3499031

t_f f4 [100, 1]
0	0x3ec48677	0.3838384
1	0x3f51745d	0.8181818
2	0x3f090cee	0.53535354
3	0x3f4c4867	0.7979798
4	0x3e10cede	0.14141414
5	0x3f350296	0.7070707
6	0x3f2fd6a0	0.68686867
7	0x3f471c72	0.7777778
8	0x3f0ba2e9	0.54545456
9	0x3c257eb5	0.01010101
10	0x3f0e38e4	0.5555556
11	0x3f49b26d	0.7878788
12	0x3ede6243	0.43434343
13	0x3ede6243	0.43434343
14	0x3f7ad40a	0.97979796
15	0x3f800000	1.0
16	0x3f2d40a5	0.67676765
17	0x3f0676f3	0.5252525
18	0x3e9b26ca	0.3030303
19	0x3f540a58	0.82828283
20	0x3f7ad40a	0.97979796
21	0x3f22e8ba	0.6363636
22	0x3eafd6a0	0.34343433
23	0x3ea57eb5	0.32323232
24	0x3ef3121a	0.47474748
25	0x3f6b5029	0.9191919
26	0x3f0e38e4	0.5555556
27	0x3f471c72	0.7777778
28	0x3eba2e8c	0.36363637
29	0x3e638e39	0.22222222
30	0x3e90cede	0.28282827
31	0x3f638e39	0.8888889
32	0x3f68ba2f	0.90909094
33	0x3e1b26ca	0.15151516
34	0x3f2052bf	0.6262626
35	0x3d257eb5	0.04040404
36	0x3e1b26ca	0.15151516
37	0x3f60f83e	0.8787879
38	0x3f15fad4	0.5858586
39	0x3e814afd	0.25252524
40	0x3f4c4867	0.7979798
41	0x3ec48677	0.3838384
42	0x3ed9364e	0.42424244
43	0x3c257eb5	0.01010101
44	0x3e783e10	0.24242425
45	0x3f662434	0.8989899
46	0x3eba2e8c	0.36363637
47	0x3f707c1f	0.93939394
48	0x3f41f07c	0.75757575
49	0x3ea052bf	0.3131313
50	0x3d257eb5	0.04040404
51	0x3eafd6a0	0.34343433
52	0x3ee8ba2f	0.45454547
53	0x3f75a815	0.959596
54	0x3f75a815	0.959596
55	0x3ee8ba2f	0.45454547
56	0x3ee8ba2f	0.45454547
57	0x3f4ede62	0.8080808
58	0x3f0676f3	0.5252525
59	0x3f10cede	0.56565654
60	0x3f60f83e	0.8787879
61	0x3f3cc486	0.7373737
62	0x3d257eb5	0.04040404
63	0x3ef3121a	0.47474748
64	0x3f1364d9	0.57575756
65	0x3f10cede	0.56565654
66	0x3f2d40a5	0.67676765
67	0x3f7d6a05	0.989899
68	0x3f2fd6a0	0.68686867
69	0x3e59364e	0.21212122
70	0x3d4ede62	0.05050505
71	0x3e90cede	0.28282827
72	0x3e814afd	0.25252524
73	0x3f4ede62	0.8080808
74	0x3c257eb5	0.01010101
75	0x3ed40a58	0.41414142
76	0x3f783e10	0.969697
77	0x3f7ad40a	0.97979796
78	0x3e95fad4	0.2929293
79	0x3f03e0f8	0.5151515
80	0x3f56a053	0.83838385
81	0x3f73121a	0.94949496
82	0x3ef3121a	0.47474748
83	0x3f1890cf	0.5959596
84	0x3ec9b26d	0.3939394
85	0x3f2fd6a0	0.68686867
86	0x3f59364e	0.8484849
87	0x3ca57eb5	0.02020202
88	0x3f6b5029	0.9191919
89	0x3ef83e10	0.4848485
90	0x3e0676f3	0.13131313
91	0x3f1b26ca	0.6060606
92	0x3e814afd	0.25252524
93	0x3f783e10	0.969697
94	0x3eafd6a0	0.34343433
95	0x3f56a053	0.83838385
96	0x3ef83e10	0.4848485
97	0x3f4c4867	0.7979798
98	0x3f379891	0.7171717
99	0x3e9b26ca	0.3030303

x_bc_lb f4 [100, 1]
0	0x00000000	0.0
1	0x00000000	0.0
2	0x00000000	0.0
3	0x00000000	0.0
4	0x00000000	0.0
5	0x00000000	0.0
6	0x00000000	0.0
7	0x00000000	0.0
8	0x00000000	0.0
9	0x00000000	0.0
10	0x00000000	0.0
11	0x00000000	0.0
12	0x00000000	0.0
13	0x00000000	0.0
14	0x00000000	0.0
15	0x00000000	0.0
16	0x00000000	0.0
17	0x00000000	0.0
18	0x00000000	0.0
19	0x00000000	0.0
20	0x00000000	0.0
21	0x00000000	0.0
22	0x00000000	0.0
23	0x00000000	0.0
24	0x00000000	0.0
25	0x00000000	0.0
26	0x00000000	0.0
27	0x00000000	0.0
28	0x00000000	0.0
29	0x00000000	0.0
30	0x00000000	0.0
31	0x00000000	0.0
32	0x00000000	0.0
33	0x00000000	0.0
34	0x00000000	0.0
35	0x00000000	0.0
36	0x00000000	0.0
37	0x00000000	0.0
38	0x00000000	0.0
39	0x00000000	0.0
40	0x00000000	0.0
41	0x00000000	0.0
42	0x00000000	0.0
43	0x00000000	0.0
44	0x00000000	0.0
45	0x00000000	0.0
46	0x00000000	0.0
47	0x00000000	0.0
48	0x00000000	0.0
49	0x00000000	0.0
50	0x00000000	0.0
51	0x00000000	0.0
52	0x00000000	0.0
53	0x00000000	0.0
54	0x00000000	0.0
55	0x00000000	0.0
56	0x00000000	0.0
57	0x00000000	0.0
58	0x00000000	0.0
59	0x00000000	0.0
60	0x00000000	0.0
61	0x00000000	0.0
62	0x00000000	0.0
63	0x00000000	0.0
64	0x00000000	0.0
65	0x00000000	0.0
66	0x00000000	0.0
67	0x00000000	0.0
68	0x00000000	0.0
69	0x00000000	0.0
70	0x00000000	0.0
71	0x00000000	0.0
72	0x00000000	0.0
73	0x00000000	0.0
74	0x00000000	0.0
75	0x00000000	0.0
76	0x00000000	0.0
77	0x00000000	0.0
78	0x00000000	0.0
79	0x00000000	0.0
80	0x00000000	0.0
81	0x00000000	0.0
82	0x00000000	0.0
83	0x00000000	0.0
84	0x00000000	0.0
85	0x00000000	0.0
86	0x00000000	0.0
87	0x00000000	0.0
88	0x00000000	0.0
89	0x00000000	0.0
90	0x00000000	0.0
91	0x00000000	0.0
92	0x00000000	0.0
93	0x00000000	0.0
94	0x00000000	0.0
95	0x00000000	0.0
96	0x00000000	0.0
97	0x00000000	0.0
98	0x00000000	0.0
99	0x00000000	0.0

t_bc_lb f4 [100, 1]
0	0x00000000	0.0
1	0x3c257eb5	0.01010101
2	0x3ca57eb5	0.02020202
3	0x3cf83e10	0.030303031
4	0x3d257eb5	0.04040404
5	0x3d4ede62	0.05050505
6	0x3d783e10	0.060606062
7	0x3d90cede	0.07070707
8	0x3da57eb5	0.08080808
9	0x3dba2e8c	0.09090909
10	0x3dcede62	0.1010101
11	0x3de38e39	0.11111111
12	0x3df83e10	0.121212125
13	0x3e0676f3	0.13131313
14	0x3e10cede	0.14141414
15	0x3e1b26ca	0.15151516
16	0x3e257eb5	0.16161616
17	0x3e2fd6a0	0.17171717
18	0x3e3a2e8c	0.18181819
19	0x3e448677	0.1919192
20	0x3e4ede62	0.2020202
21	0x3e59364e	0.21212122
22	0x3e638e39	0.22222222
23	0x3e6de624	0.23232323
24	0x3e783e10	0.24242425
25	0x3e814afd	0.25252524
26	0x3e8676f3	0.26262626
27	0x3e8ba2e9	0.27272728
28	0x3e90cede	0.28282827
29	0x3e95fad4	0.2929293
30	0x3e9b26ca	0.3030303
31	0x3ea052bf	0.3131313
32	0x3ea57eb5	0.32323232
33	0x3eaaaaab	0.33333334
34	0x3eafd6a0	0.34343433
35	0x3eb50296	0.35353535
36	0x3eba2e8c	0.36363637
37	0x3ebf5a81	0.37373737
38	0x3ec48677	0.3838384
39	0x3ec9b26d	0.3939394
40	0x3ecede62	0.4040404
41	0x3ed40a58	0.41414142
42	0x3ed9364e	0.42424244
43	0x3ede6243	0.43434343
44	0x3ee38e39	0.44444445
45	0x3ee8ba2f	0.45454547
46	0x3eede624	0.46464646
47	0x3ef3121a	0.47474748
48	0x3ef83e10	0.4848485
49	0x3efd6a05	0.4949495
50	0x3f014afd	0.5050505
51	0x3f03e0f8	0.5151515
52	0x3f0676f3	0.5252525
53	0x3f090cee	0.53535354
54	0x3f0ba2e9	0.54545456
55	0x3f0e38e4	0.5555556
56	0x3f10cede	0.56565654
57	0x3f1364d9	0.57575756
58	0x3f15fad4	0.5858586
59	0x3f1890cf	0.5959596
60	0x3f1b26ca	0.6060606
61	0x3f1dbcc5	0.61616164
62	0x3f2052bf	0.6262626
63	0x3f22e8ba	0.6363636
64	0x3f257eb5	0.64646465
65	0x3f2814b0	0.65656567
66	0x3f2aaaab	0.6666667
67	0x3f2d40a5	0.67676765
68	0x3f2fd6a0	0.68686867
69	0x3f326c9b	0.6969697
70	0x3f350296	0.7070707
71	0x3f379891	0.7171717
72	0x3f3a2e8c	0.72727275
73	0x3f3cc486	0.7373737
74	0x3f3f5a81	0.74747473
75	0x3f41f07c	0.75757575
76	0x3f448677	0.7676768
77	0x3f471c72	0.7777778
78	0x3f49b26d	0.7878788
79	0x3f4c4867	0.7979798
80	0x3f4ede62	0.8080808
81	0x3f51745d	0.8181818
82	0x3f540a58	0.82828283
83	0x3f56a053	0.83838385
84	0x3f59364e	0.8484849
85	0x3f5bcc48	0.85858583
86	0x3f5e6243	0.86868685
87	0x3f60f83e	0.8787879
88	0x3f638e39	0.8888889
89	0x3f662434	0.8989899
90	0x3f68ba2f	0.90909094
91	0x3f6b5029	0.9191919
92	0x3f6de624	0.9292929
93	0x3f707c1f	0.93939394
94	0x3f73121a	0.94949496
95	0x3f75a815	0.959596
96	0x3f783e10	0.969697
97	0x3f7ad40a	0.97979796
98	0x3f7d6a05	0.989899
99	0x3f800000	1.0

x_bc_ub f4 [100, 1]
0	0x40c90fdb	6.2831855
1	0x40c90fdb	6.2831855
2	0x40c90fdb	6.2831855
3	0x40c90fdb	6.2831855
4	0x40c90fdb	6.2831855
5	0x40c90fdb	6.2831855
6	0x40c90fdb	6.2831855
7	0x40c90fdb	6.2831855
8	0x40c90fdb	6.2831855
9	0x40c90fdb	6.2831855
10	0x40c90fdb	6.2831855
11	0x40c90fdb	6.2831855
12	0x40c90fdb	6.2831855
13	0x40c90fdb	6.2831855
14	0x40c90fdb	6.2831855
15	0x40c90fdb	6.2831855
16	0x40c90fdb	6.2831855
17	0x40c90fdb	6.2831855
18	0x40c90fdb	6.2831855
19	0x40c90fdb	6.2831855
20	0x40c90fdb	6.2831855
21	0x40c90fdb	6.2831855
22	0x40c90fdb	6.2831855
23	0x40c90fdb	6.2831855
24	0x40c90fdb	6.2831855
25	0x40c90fdb	6.2831855
26	0x40c90fdb	6.2831855
27	0x40c90fdb	6.2831855
28	0x40c90fdb	6.2831855
29	0x40c90fdb	6.2831855
30	0x40c90fdb	6.2831855
31	0x40c90fdb	6.2831855
32	0x40c90fdb	6.2831855
33	0x40c90fdb	6.2831855
34	0x40c90fdb	6.2831855
35	0x40c90fdb	6.2831855
36	0x40c90fdb	6.2831855
37	0x40c90fdb	6.2831855
38	0x40c90fdb	6.2831855
39	0x40c90fdb	6.2831855
40	0x40c90fdb	6.2831855
41	0x40c90fdb	6.2831855
42	0x40c90fdb	6.2831855
43	0x40c90fdb	6.2831855
44	0x40c90fdb	6.2831855
45	0x40c90fdb	6.2831855
46	0x40c90fdb	6.2831855
47	0x40c90fdb	6.2831855
48	0x40c90fdb	6.2831855
49	0x40c90fdb	6.2831855
50	0x40c90fdb	6.2831855
51	0x40c90fdb	6.2831855
52	0x40c90fdb	6.2831855
53	0x40c90fdb	6.2831855
54	0x40c90fdb	6.2831855
55	0x40c90fdb	6.2831855
56	0x40c90fdb	6.2831855
57	0x40c90fdb	6.2831855
58	0x40c90fdb	6.2831855
59	0x40c90fdb	6.2831855
60	0x40c90fdb	6.2831855
61	0x40c90fdb	6.2831855
62	0x40c90fdb	6.2831855
63	0x40c90fdb	6.2831855
64	0x40c90fdb	6.2831855
65	0x40c90fdb	6.2831855
66	0x40c90fdb	6.2831855
67	0x40c90fdb	6.2831855
68	0x40c90fdb	6.2831855
69	0x40c90fdb	6.2831855
70	0x40c90fdb	6.2831855
71	0x40c90fdb	6.2831855
72	0x40c90fdb	6.2831855
73	0x40c90fdb	6.2831855
74	0x40c90fdb	6.2831855
75	0x40c90fdb	6.2831855
76	0x40c90fdb	6.2831855
77	0x40c90fdb	6.2831855
78	0x40c90fdb	6.2831855
79	0x40c90fdb	6.2831855
80	0x40c90fdb	6.2831855
81	0x40c90fdb	6.2831855
82	0x40c90fdb	6.2831855
83	0x40c90fdb	6.2831855
84	0x40c90fdb	6.2831855
85	0x40c90fdb	6.2831855
86	0x40c90fdb	6.2831855
87	0x40c90fdb	6.2831855
88	0x40c90fdb	6.2831855
89	0x40c90fdb	6.2831855
90	0x40c90fdb	6.2831855
91	0x40c90fdb	6.2831855
92	0x40c90fdb	6.2831855
93	0x40c90fdb	6.2831855
94	0x40c90fdb	6.2831855
95	0x40c90fdb	6.2831855
96	0x40c90fdb	6.2831855
97	0x40c90fdb	6.2831855
98	0x40c90fdb	6.2831855
99	0x40c90fdb	6.2831855

t_bc_ub f4 [100, 1]
0	0x00000000	0.0
1	0x3c257eb5	0.01010101
2	0x3ca57eb5	0.02020202
3	0x3cf83e10	0.030303031
4	0x3d257eb5	0.04040404
5	0x3d4ede62	0.05050505
6	0x3d783e10	0.060606062
7	0x3d90cede	0.07070707
8	0x3da57eb5	0.08080808
9	0x3dba2e8c	0.09090909
10	0x3dcede62	0.1010101
11	0x3de38e39	0.11111111
12	0x3df83e10	0.121212125
13	0x3e0676f3	0.13131313
14	0x3e10cede	0.14141414
15	0x3e1b26ca	0.15151516
16	0x3e257eb5	0.16161616
17	0x3e2fd6a0	0.17171717
18	0x3e3a2e8c	0.18181819
19	0x3e448677	0.1919192
20	0x3e4ede62	0.2020202
21	0x3e59364e	0.21212122
22	0x3e638e39	0.22222222
23	0x3e6de624	0.23232323
24	0x3e783e10	0.24242425
25	0x3e814afd	0.25252524
26	0x3e8676f3	0.26262626
27	0x3e8ba2e9	0.27272728
28	0x3e90cede	0.28282827
29	0x3e95fad4	0.2929293
30	0x3e9b26ca	0.3030303
31	0x3ea052bf	0.3131313
32	0x3ea57eb5	0.32323232
33	0x3eaaaaab	0.33333334
34	0x3eafd6a0	0.34343433
35	0x3eb50296	0.35353535
36	0x3eba2e8c	0.36363637
37	0x3ebf5a81	0.37373737
38	0x3ec48677	0.3838384
39	0x3ec9b26d	0.3939394
40	0x3ecede62	0.4040404
41	0x3ed40a58	0.41414142
42	0x3ed9364e	0.42424244
43	0x3ede6243	0.43434343
44	0x3ee38e39	0.44444445
45	0x3ee8ba2f	0.45454547
46	0x3eede624	0.46464646
47	0x3ef3121a	0.47474748
48	0x3ef83e10	0.4848485
49	0x3efd6a05	0.4949495
50	0x3f014afd	0.5050505
51	0x3f03e0f8	0.5151515
52	0x3f0676f3	0.5252525
53	0x3f090cee	0.53535354
54	0x3f0ba2e9	0.54545456
55	0x3f0e38e4	0.5555556
56	0x3f10cede	0.56565654
57	0x3f1364d9	0.57575756
58	0x3f15fad4	0.5858586
59	0x3f1890cf	0.5959596
60	0x3f1b26ca	0.6060606
61	0x3f1dbcc5	0.61616164
62	0x3f2052bf	0.6262626
63	0x3f22e8ba	0.6363636
64	0x3f257eb5	0.64646465
65	0x3f2814b0	0.65656567
66	0x3f2aaaab	0.6666667
67	0x3f2d40a5	0.67676765
68	0x3f2fd6a0	0.68686867
69	0x3f326c9b	0.6969697
70	0x3f350296	0.7070707
71	0x3f379891	0.7171717
72	0x3f3a2e8c	0.72727275
73	0x3f3cc486	0.7373737
74	0x3f3f5a81	0.74747473
75	0x3f41f07c	0.75757575
76	0x3f448677	0.7676768
77	0x3f471c72	0.7777778
78	0x3f49b26d	0.7878788
79	0x3f4c4867	0.7979798
80	0x3f4ede62	0.8080808
81	0x3f51745d	0.8181818
82	0x3f540a58	0.82828283
83	0x3f56a053	0.83838385
84	0x3f59364e	0.8484849
85	0x3f5bcc48	0.85858583
86	0x3f5e6243	0.86868685
87	0x3f60f83e	0.8787879
88	0x3f638e39	0.8888889
89	0x3f662434	0.8989899
90	0x3f68ba2f	0.90909094
91	0x3f6b5029	0.9191919
92	0x3f6de624	0.9292929
93	0x3f707c1f	0.93939394
94	0x3f73121a	0.94949496
95	0x3f75a815	0.959596
96	0x3f783e10	0.969697
97	0x3f7ad40a	0.97979796
98	0x3f7d6a05	0.989899
99	0x3f800000	1.0

weight f4 [50, 2]
0	0x3df11909	0.11772353
1	0xbe096cd2	-0.13420418
2	0x3cc33b29	0.02383192
3	0x3d56a9fe	0.05240821
4	0x3f0b0445	0.5430339
5	0xbe70b231	-0.23505475
6	0xbcd0c0e4	-0.025482602
7	0x3d9e9212	0.077427045
8	0xbd583b12	-0.05279071
9	0x3aa38fc2	0.0012478756
10	0xbe7c2768	-0.24624407
11	0x3e591d90	0.21202683
12	0x3dd560e6	0.104188725
13	0xbb916db5	-0.004438127
14	0xbe5034f2	-0.20332697
15	0xbe7faab6	-0.24967465
16	0x3dff3e26	0.12463026
17	0x3cbb1a07	0.02283956
18	0x3dec7cf8	0.115472734
19	0xbe8db95d	-0.27680483
20	0xbed6564d	-0.41862717
21	0x3ce81c99	0.028333949
22	0x3e90d407	0.28286764
23	0xbdffc24c	-0.12488231
24	0xbe7c6719	-0.24648704
25	0xbee0e33d	-0.4392337
26	0xbd5cd480	-0.053913593
27	0x3d4054ed	0.04695599
28	0x3db44527	0.08802252
29	0x3dee6e63	0.11642148
30	0xbdf59449	-0.11991174
31	0x3d22807e	0.03967332
32	0xbe11d2c7	-0.14240561
33	0xbe72fe0c	-0.23729724
34	0xbea34617	-0.31889412
35	0x3e012e31	0.12615277
36	0xbc23b079	-0.009990805
37	0x3e755604	0.23958594
38	0xbeb7ff11	-0.35936788
39	0x3e62a74e	0.22134134
40	0x3e0b0c16	0.13578829
41	0xbdacd301	-0.08438683
42	0x3de463de	0.11151861
43	0xbe0fab57	-0.14030205
44	0x3daf9d86	0.08574967
45	0x3bf8cd45	0.0075928294
46	0x3d8a6e65	0.06759337
47	0xbe61a76d	-0.22036524
48	0xbd1a5f8c	-0.037688777
49	0x3e1724b8	0.14760101
50	0x3ed078a3	0.4071704
51	0xbe2b9ad9	-0.16758288
52	0xbe07254c	-0.13197821
53	0x3e9a2f55	0.30114236
54	0xbd96866d	-0.073498584
55	0x3df97e14	0.121822506
56	0x3e8bc4a5	0.27298465
57	0xbd5a8041	-0.05334497
58	0x3d0041b5	0.031312663
59	0xbe02417f	-0.12720297
60	0xbcb2b4dd	-0.021814758
61	0x3e61c642	0.22048286
62	0xbe891b6f	-0.26778743
63	0x3d87e1d0	0.06634867
64	0x3e558512	0.20851544
65	0xbd8278ca	-0.06370695
66	0xbec18504	-0.37796795
67	0xbe458b9a	-0.19291535
68	0x3d3e3a21	0.046442155
69	0xbe62726f	-0.22113965
70	0xbeea0d7f	-0.45713422
71	0xbdc3c7d4	-0.095595986
72	0xbddf18e9	-0.10893423
73	0xbe48e596	-0.1961883
74	0x3de77bee	0.113029346
75	0xbc7c7225	-0.015408074
76	0xbccd3f53	-0.02505461
77	0xbc31cfc9	-0.0108527625
78	0xbe214c33	-0.15751724
79	0xbd073c33	-0.033016395
80	0xbd7a60ee	-0.061127596
81	0x3c991bb0	0.01868996
82	0x3e00ae12	0.12566403
83	0xbcc8290a	-0.024433631
84	0x3e0df0b7	0.13861357
85	0xbe6d0aca	-0.23148647
86	0x3f019218	0.50613546
87	0xbd0b9660	-0.034078956
88	0x3e2ce4ff	0.1688423
89	0x3e33a600	0.17543793
90	0xbe03c1bc	-0.12866873
91	0xbf0727da	-0.52795184
92	0x3c9c59e3	0.01908583
93	0xbe9c9c2e	-0.30587906
94	0x3e261652	0.16219452
95	0xbeb8e902	-0.3611527
96	0xbe4cb9ba	-0.19992724
97	0xbe4e200e	-0.20129415
98	0x3e3269b3	0.17423134
99	0xbe1ab56c	-0.1510827

bias f4 [50]
0	0xbcf916b7	-0.03040634
1	0xbc4a3583	-0.01234186
2	0xbd1b49a1	-0.037912015
3	0xbd01c8c8	-0.03168562
4	0xbb367a4c	-0.002784389
5	0x3da14ac5	0.07875589
6	0xbdd2d15b	-0.10293838
7	0x3c38c8a8	0.011278309
8	0xbc1b2830	-0.009470031
9	0xbbbb6439	-0.0057187346
10	0xb9be956f	-0.0003635096
11	0xbd8a2f9d	-0.06747363
12	0x3cb7189d	0.022350604
13	0x3b9f5ba3	0.004863219
14	0xbbe20b3c	-0.006898312
15	0x3c879249	0.016549246
16	0xbc9843c2	-0.018586997
17	0x3d00f0d0	0.031479657
18	0x3d592d66	0.05302181
19	0x3ca702bc	0.020387046
20	0xbcc032f0	-0.023461789
21	0xbd3c7ffa	-0.046020485
22	0x3d1d5578	0.038411587
23	0xbcef16b0	-0.029185623
24	0x3cd3b519	0.02584319
25	0xbc8853d8	-0.016641542
26	0x3d57498a	0.052560367
27	0xbcfd4ec3	-0.030921346
28	0xbd49db47	-0.049281385
29	0xbd168035	-0.03674336
30	0x3c59158c	0.013249766
31	0x3c24a9f9	0.01005029
32	0xbdbc4994	-0.091937214
33	0xbc5236da	-0.01283046
34	0x3c96590c	0.018353008
35	0x3cd1cad5	0.025609413
36	0x3c5e91a5	0.013584529
37	0xbcef9a59	-0.029248403
38	0xbb5fa338	-0.0034124386
39	0x3cdb8991	0.026798995
40	0x3c4f2e22	0.012645276
41	0xbd9a72a3	-0.075413965
42	0xbd091e60	-0.033476233
43	0x3cc062ce	0.023484614
44	0xbd6a4845	-0.057197828
45	0x3d36b12c	0.044602558
46	0xbc5b5a94	-0.013388295
47	0x3bdcaca5	0.006734448
48	0x3d33a735	0.043860633
49	0xbce10338	-0.027467355

weight f4 [50, 50]
0	0x3e12ea82	0.1434727
1	0xbda6659c	-0.08124849
2	0xbec14f3a	-0.37755758
3	0x3e0a8a57	0.13529335
4	0xbd2ead6a	-0.04264585
5	0xbd11b226	-0.035570286
6	0xbe41fdc8	-0.18944466
7	0x3da807ba	0.08204599
8	0x3dc46b32	0.095907584
9	0x3da1ff48	0.07910019
10	0x3df1d5ef	0.11808383
11	0xbe8652b8	-0.26234984
12	0xbe6cc05c	-0.23120254
13	0xbda3748a	-0.079812124
14	0x3e54ee85	0.20794113
15	0xbd4df76c	-0.050284788
16	0xbe870b99	-0.26376036
17	0xbc67a1ad	-0.014137668
18	0x3e3ccf66	0.18438491
19	0xbe355ced	-0.1771123
20	0x3cb37496	0.021906178
21	0x3d1aa769	0.03775731
22	0x3e1085c4	0.14113528
23	0x3d8157c1	0.06315566
24	0x3ea65ae8	0.3249123
25	0x3d09e555	0.033665974
26	0x3eae5035	0.34045568
27	0x3d5212cf	0.05128747
28	0x3e4aeeb0	0.19817615
29	0xbea1ee23	-0.31626996
30	0x3e88950e	0.2667622
31	0xbd6f8815	-0.058479387
32	0xbd2efaf6	-0.042719804
33	0xbe6582ea	-0.22413221
34	0x3dd8f0e1	0.10592819
35	0x3d28d440	0.041218042
36	0x3e5c962f	0.21541665
37	0xbb242f69	-0.0025052673
38	0xbcffb757	-0.031215353
39	0x3db8da79	0.09026045
40	0x3d814226	0.06311445
41	0xbe77371a	-0.24142113
42	0xbe08a691	-0.1334479
43	0xbbaed9bc	-0.0053360146
44	0xbc2a8bfd	-0.010409352
45	0x3da70508	0.081552565
46	0xbd48be82	-0.049009807
47	0xbe34b8c5	-0.17648609
48	0x3d9a8820	0.07545495
49	0xbdf3cfbb	-0.11904856
50	0xbe1063f6	-0.14100632
51	0xbe005147	-0.12531005
52	0xbdc28563	-0.09498098
53	0xbdace705	-0.08442501
54	0x3d6f3039	0.058395598
55	0xbcfbbe36	-0.030730348
56	0x3db1bb3e	0.08678292
57	0xbcdba8e0	-0.026813924
58	0x3c7d08f5	0.01544403
59	0x3e31ab4a	0.17350498
60	0xbe05dd75	-0.1307276
61	0xbeb21313	-0.34780177
62	0x3e5cfeac	0.21581525
63	0x3ce7ec8b	0.028311035
64	0xbdd10a5d	-0.10207055
65	0x3e099cfc	0.13438791
66	0x3bcceb8a	0.0062536644
67	0x3e74af80	0.23895073
68	0xbe2dd403	-0.16975407
69	0x3cee757f	0.02910876
70	0x3cd0feb0	0.02551207
71	0x3e0ddefd	0.13854595
72	0xbe414a69	-0.18876041
73	0x3e1b5b5d	0.15171571
74	0x3e272d78	0.16325939
75	0x3ccd87f5	0.025089243
76	0xbdea7e63	-0.114498876
77	0xbcc07386	-0.023492586
78	0xbc6e0880	-0.014528394
79	0x3d3eab98	0.046550363
80	0xbb199288	-0.0023433287
81	0xbc2d4768	-0.010576107
82	0xbafcc7a7	-0.0019285575
83	0xbe8431f7	-0.2581937
84	0xbe59c337	-0.21265875
85	0xbe0d01cf	-0.13770221
86	0xbdd84f85	-0.10562042
87	0xbe0e7c10	-0.13914514
88	0xbe950ca4	-0.29111207
89	0xbdefe793	-0.11714091
90	0x3d563146	0.052293085
91	0xbcf2861b	-0.029604962
92	0xbe7bc9c2	-0.24588683
93	0xbda2d59d	-0.079509
94	0xbda413b4	-0.080115706
95	0xbdfc8321	-0.12329698
96	0x3e1db131	0.15399624
97	0xbe7486f7	-0.2387961
98	0x3dd5dcd7	0.104425125
99	0x3e650978	0.22366893
100	0xbdda598f	-0.10661613
101	0x3d1bb90f	0.038018283
102	0xbda9b769	-0.08286936
103	0x3d3fb509	0.046803508
104	0x3c147d64	0.009063099
105	0x3d7e3e09	0.06207088
106	0xbc7b39af	-0.015333577
107	0x3e5c514b	0.21515386
108	0xbdb12e99	-0.08651466
109	0x3d23fce8	0.040036112
110	0xbe80e918	-0.25177836
111	0xbda0edf7	-0.07857888
112	0x3df2d40a	0.118568495
113	0xbd2c5702	-0.042075165
114	0x3d8d1036	0.068878576
115	0x3d717290	0.058947146
116	0xbdf408a9	-0.11915714
117	0x3dde9ced	0.10869775
118	0x3e2d1b34	0.16904908
119	0x3d3a23fa	0.045444466
120	0x3db09450	0.08622038
121	0xbc9f6d97	-0.019461436
122	0x3c7f2fae	0.015575333
123	0xbdaefc8d	-0.08544264
124	0x3ce3ff5d	0.027831728
125	0xbcd035ef	-0.025416343
126	0xbe12b8a3	-0.14328246
127	0x3e4311b7	0.19049726
128	0x3e8cdead	0.27513638
129	0xbd67a3e9	-0.0565528
130	0x3d02698f	0.03183895
131	0xbe2fb323	-0.17158179
132	0x3d30860e	0.043096595
133	0x3d6a4b99	0.057201
134	0x3d40f38b	0.04710726
135	0x3dce9476	0.100869104
136	0x3ddbb769	0.10728342
137	0xbcb8d1c2	-0.022560958
138	0x3ca13d7d	0.01968264
139	0x3e53a5ae	0.2066867
140	0xbdc1b89d	-0.0945904
141	0x3d4893b0	0.04896897
142	0xbd97c791	-0.07411111
143	0xbc0c7abd	-0.008574185
144	0x3da09929	0.07841713
145	0x3e1b9c5f	0.1519637
146	0x3d1fad02	0.038983352
147	0xbeb06509	-0.34452084
148	0x3cf581b7	0.02996908
149	0x3e1b5330	0.15168452
150	0xbe591777	-0.21200357
151	0x3c94f080	0.018181086
152	0x3e15fe94	0.14647895
153	0xbd0f1c71	-0.034939233
154	0xbc258842	-0.010103287
155	0x3df8af58	0.12142819
156	0x3ea3676a	0.31914836
157	0x3d020c8a	0.03175024
158	0xbdf6db75	-0.12053577
159	0x3d618398	0.05505714
160	0xbdfa3342	-0.12216808
161	0xbbec5dd2	-0.0072133327
162	0x3dfed609	0.12443168
163	0xbcbc36f0	-0.022975415
164	0x3c89aaba	0.016805042
165	0x3dcd3b36	0.10021059
166	0x3ce59c65	0.028028676
167	0xbcabb4f0	-0.020960301
168	0xbe1c00f9	-0.15234746
169	0x3df50b54	0.11965051
170	0xbe2e3442	-0.17012122
171	0x3e4530ab	0.19256847
172	0xbb599bcc	-0.0033204434
173	0x3e9af260	0.30263042
174	0x3e746424	0.23866326
175	0xbd77bca5	-0.06048264
176	0x3d3618c4	0.044457212
177	0x3dc8ef21	0.09811235
178	0x3deb9bdf	0.115043394
179	0x3e6ebff2	0.23315409
180	0xbd6fc6b1	-0.058539096
181	0x3daad4c8	0.08341366
182	0xbe2eb3d7	-0.17060791
183	0xbe461ab0	-0.19346118
184	0xbe3c3167	-0.1837822
185	0xbd0b6fd3	-0.03404219
186	0xbe88e4ab	-0.2673696
187	0xbb8140bf	-0.003944486
188	0x3e593f54	0.21215564
189	0x3d45feab	0.048338573
190	0xbdeff730	-0.11717069
191	0x3c9c4920	0.019077837
192	0xbe0b5728	-0.13607466
193	0x3d87e867	0.06636124
194	0x3e21a56c	0.1578576
195	0xbe33cbda	-0.17558232
196	0xbcece2a6	-0.028916668
197	0x3dd1c5b0	0.10242784
198	0xbde86577	-0.11347478
199	0x3e155237	0.14582144
200	0x3d50e343	0.050997984
201	0xbd0d5f69	-0.03451482
202	0x3d854e54	0.065090805
203	0x3c54c1ff	0.012985705
204	0x3e804a5c	0.25056732
205	0xbe5915c7	-0.21199714
206	0x3e14b2a2	0.14521268
207	0x3e6f2470	0.23353744
208	0xbcc1a64e	-0.02363887
209	0xbe16754b	-0.14693181
210	0x3e79edb1	0.24407078
211	0xbe61f02e	-0.22064278
212	0x3b901a40	0.0043976605
213	0xbdb35785	-0.087569274
214	0x3cebb234	0.028771497
215	0xbd60e978	-0.054910153
216	0xbe1484dd	-0.14503808
217	0x3d84fbf0	0.06493366
218	0xbd91ee13	-0.07125487
219	0xbdbf1875	-0.09330837
220	0xbd2a5df7	-0.041593518
221	0x3da787d0	0.08180201
222	0xbdd3b4cc	-0.10337219
223	0xbe14f55a	-0.14546719
224	0x3df3a819	0.118972965
225	0x3d4e68ab	0.050392788
226	0xbde97d3d	-0.114008404
227	0x3e0b5a4e	0.13608667
228	0xbc94133a	-0.018075574
229	0x3e0498d5	0.12948926
230	0xbcfd9a56	-0.030957382
231	0xbe4fa935	-0.20279391
232	0xbdf17f89	-0.117919035
233	0x3e187dc6	0.14891729
234	0xbe469cac	-0.19395703
235	0x3dd91029	0.105987854
236	0xbdb48266	-0.08813934
237	0x3cdd9ce7	0.027052356
238	0x3da2a681	0.07941914
239	0x3baa4e7c	0.0051973443
240	0xbddbf4a3	-0.1074002
241	0xbe7b4ed9	-0.24541797
242	0xbd24d8b6	-0.040245734
243	0x3e11d783	0.14242367
244	0xbe38ab29	-0.18034042
245	0x3de71c89	0.112847395
246	0x3cd61883	0.026134735
247	0x3dc9f55e	0.09861253
248	0x3dd018d6	0.10160987
249	0x3c820835	0.015873054
250	0xbdd785fa	-0.10523601
251	0xbe33efde	-0.17571971
252	0xbdee1288	-0.11624628
253	0x3e253dad	0.16136809
254	0xbba20379	-0.0049442616
255	0xbd1fe2da	-0.039034702

bias f4 [50]
0	0x3d1f89e6	0.03894987
1	0x3c0aba4b	0.008467267
2	0xbba632dd	-0.0050719813
3	0xbccc052b	-0.024904808
4	0x3c277375	0.010220398
5	0xbc1ff1d4	-0.009762246
6	0x3ba8591f	0.005137577
7	0xbb834b9b	-0.0040068156
8	0xbc65294c	-0.013986897
9	0xbd011064	-0.031509772
10	0x3a6c2376	0.00090079696
11	0x3bb8234a	0.005619441
12	0x3b349f32	0.0027560708
13	0x3b3ce89e	0.0028825174
14	0xbc68dcfb	-0.014212842
15	0xbc71791b	-0.014738346
16	0x3cab9bb5	0.02094827
17	0x3bd5dfbe	0.0065269163
18	0x3c4a6455	0.012353023
19	0x3d26f6a6	0.040762566
20	0x3cff13d4	0.031137384
21	0x3c802c59	0.015646147
22	0xbd288a34	-0.041147426
23	0x3cb8cb0c	0.022557758
24	0xbc067148	-0.008205719
25	0x3d97f4e3	0.07419755
26	0xbda9e615	-0.08295838
27	0xbd5bdd5d	-0.053677905
28	0xbd0d877e	-0.034553044
29	0x3b824915	0.003975997
30	0xbd46fbdd	-0.04858004
31	0x3c33090d	0.010927451
32	0xbcc0acc0	-0.023519874
33	0x3bae3a9e	0.0053170463
34	0x3ac8e69e	0.0015327518
35	0x3c2d0339	0.01055985
36	0x3c119c67	0.008887387
37	0x3d2d3cef	0.04229444
38	0x3cb527cf	0.022113709
39	0x3d03ef1f	0.032210466
40	0xbbc62b6f	-0.006047658
41	0xbaf982d2	-0.001903618
42	0xbb1aa8b1	-0.0023599083
43	0xbc1d7666	-0.009610748
44	0x3c4dd424	0.012562785
45	0xbc0088b9	-0.007845097
46	0x3b08a939	0.0020852818
47	0x3c4030df	0.011730402
48	0x3d2f7f44	0.04284598
49	0xbc5a78b8	-0.013334446

weight f4 [50, 50]
0	0xbe8b9d03	-0.27268228
1	0x3dd22281	0.10260487
2	0xbdd9aeec	-0.10629067
3	0xbde2b0f9	-0.11068911
4	0xbdbeedc0	-0.09322691
5	0x3ea284aa	0.3174184
6	0x3dbb6cd2	0.09151615
7	0x3d1109d2	0.035409756
8	0xbe3a1432	-0.18171766
9	0xbe47c101	-0.19507219
10	0x3e9b39e6	0.3031761
11	0xbe6717da	-0.22567692
12	0x3c913dc9	0.017729657
13	0x3e578320	0.21046114
14	0xbe01856d	-0.12648554
15	0x3ec2d0e4	0.38049996
16	0xbdd4ca84	-0.10390189
17	0xbe6ce243	-0.23133187
18	0x3c0d486d	0.008623225
19	0x3e57bb8e	0.2106764
20	0x3dd325f1	0.10309971
21	0xbde3e7e5	-0.11128215
22	0x3d2b45cc	0.04181461
23	0xbc07df7c	-0.008293029
24	0x3b8ffd6c	0.004394224
25	0x3e26c855	0.16287358
26	0xbd0faa8f	-0.035074767
27	0xbe274678	-0.16335475
28	0x3e7f0815	0.24905427
29	0x3dd4fc6b	0.103997074
30	0x3d2e5b08	0.042567283
31	0xbca399f6	-0.019970875
32	0x3e6e31a7	0.23261128
33	0xbd8cf335	-0.068823256
34	0xbe1ecf3a	-0.15508738
35	0xbd977139	-0.073946424
36	0xbd5dd343	-0.054156553
37	0x3dc64972	0.09681977
38	0x3e4872a8	0.19574988
39	0x3eb03b26	0.34420127
40	0x3dd63c53	0.10460725
41	0x3e08568b	0.13314264
42	0x3e061dcd	0.13097306
43	0xbe387590	-0.18013597
44	0x3dc46be7	0.09590893
45	0x3ebb44ad	0.36575833
46	0xbe00a239	-0.12561883
47	0xbe4c16d0	-0.19930577
48	0xbea5c8bf	-0.3237972
49	0x3d9c1fb4	0.076232344
50	0xbe83e421	-0.25759986
51	0xbc46586d	-0.012106043
52	0xbdf05884	-0.11735633
53	0x3da8612b	0.08221658
54	0x3c354f96	0.011066338
55	0x3dc8c245	0.09802679
56	0xbe9efca8	-0.31052136
57	0x3e7c4033	0.24633865
58	0x3e142a31	0.1446922
59	0x3d9a5165	0.07535056
60	0x3e09779b	0.13424532
61	0x3de382f0	0.11108959
62	0x3e13e05f	0.1444106
63	0x3e151f62	0.14562753
64	0xbd65b984	-0.056085125
65	0x3dd43333	0.10361328
66	0x3d4ad40c	0.04951863
67	0xbc95ed69	-0.018301683
68	0x3e10539c	0.14094394
69	0x3d10d374	0.035357907
70	0x3e8b95d9	0.27262762
71	0xbe2d2beb	-0.16911285
72	0x3cf4c0fc	0.029877178
73	0xbe08347d	-0.13301273
74	0x3d267e40	0.040647745
75	0xbd300e8c	-0.042982623
76	0xbe720878	-0.23636043
77	0xbca6eeae	-0.020377483
78	0x3db89a98	0.090138614
79	0xbcb98174	-0.022644736
80	0xbe17ec42	-0.14836219
81	0x3b8a502d	0.0042209835
82	0xbd47ca05	-0.048776645
83	0x3de5fa8a	0.11229427
84	0x3e4dd775	0.20101722
85	0xbdaa6b61	-0.08321262
86	0x3db8c7ea	0.090225056
87	0xbd05054d	-0.03247576
88	0xbdc90615	-0.09815613
89	0xbde2f144	-0.11081174
90	0xbe860198	-0.2617309
91	0xbdd52210	-0.104068875
92	0x3e4749c3	0.19461732
93	0xbd674c36	-0.056469165
94	0xbe0184ed	-0.12648363
95	0x3e7ab65e	0.2448363
96	0x3d299dc5	0.041410226
97	0xbe93c7fc	-0.28863513
98	0xbd2858ae	-0.041100197
99	0x3da3ef0b	0.08004578
100	0x3e0a97be	0.13534448
101	0x3e56955e	0.20955417
102	0xbc8a3071	-0.016868802
103	0x3c5fc3de	0.013657538
104	0xbd880a35	-0.06642572
105	0xbea87598	-0.32902217
106	0x3c9e45b0	0.019320339
107	0x3d56ac51	0.052410427
108	0xbd1ef937	-0.03881189
109	0x3dfb105d	0.122589804
110	0x3e460e35	0.19341357
111	0x3d3f6544	0.046727434
112	0x3e6f00f2	0.23340204
113	0x3df95db4	0.121760756
114	0x3d9f4c3f	0.07778215
115	0x3dc2a587	0.09504228
116	0x3d79cca1	0.060986165
117	0x3e1d0708	0.15334713
118	0x3dd80220	0.1054728
119	0x3e1fa7ec	0.15591401
120	0x3e0527cb	0.13003461
121	0x3e5b0fd4	0.21392757
122	0xbd88f01c	-0.06686422
123	0x3e853c20	0.26022434
124	0xbe41aa69	-0.18912663
125	0xbdc00457	-0.09375828
126	0xbe090676	-0.13381371
127	0xbded1544	-0.11576322
128	0xbea1c079	-0.31592157
129	0x3e21d348	0.15803254
130	0xbe4649ee	-0.1936414
131	0x3e053fb5	0.13012584
132	0xbcf83708	-0.030299678
133	0xbe076072	-0.13220385
134	0xbe485f34	-0.19567567
135	0x3ce2ae2e	0.027670946
136	0x3e867abc	0.26265514
137	0xbe153739	-0.14571847
138	0xbdb89650	-0.09013045
139	0xbd03eefe	-0.032210343
140	0xbd28fb01	-0.041255
141	0xbe1f6b1b	-0.15568201
142	0x3da62576	0.08112614
143	0xbe8795fc	-0.26481616
144	0xbdc90068	-0.098145306
145	0xbe2b698f	-0.16739486
146	0x3e81b353	0.25332126
147	0xbe00a19a	-0.12561646
148	0x3e5eb8bd	0.2175016
149	0xbe657f16	-0.2241176
150	0xbe92f3ae	-0.28701538
151	0x3e3b66df	0.18300961
152	0x3da6a4d7	0.081369095
153	0x3e1d81a0	0.1538148
154	0x3bd528c1	0.0065051024
155	0x3c8692af	0.016427366
156	0x3bfcfdb9	0.007720676
157	0xbe1160e6	-0.1419712
158	0xbe0ff0fd	-0.14056773
159	0xbd29fc94	-0.041500643
160	0xbd52221f	-0.05130207
161	0xbe022717	-0.12710224
162	0x3e0ff06a	0.14056554
163	0xbe00d8e5	-0.12582739
164	0xbdabeca1	-0.08394743
165	0x3e0a3710	0.13497567
166	0x3ce51042	0.027961854
167	0x3e26830c	0.16260928
168	0xbe123425	-0.14277704
169	0xbd8ca640	-0.06867647
170	0xbde50252	-0.11182083
171	0x3d0bde67	0.034147646
172	0xbd9154d0	-0.07096255
173	0x3dcdd74e	0.10050832
174	0xbdd9135c	-0.10599396
175	0xbdb1aeb6	-0.086759016
176	0x3dd73743	0.10508587
177	0xbdd4984f	-0.10380613
178	0x3c88e862	0.016712371
179	0xbcb24f8c	-0.021766447
180	0x3d753fa7	0.059875157
181	0xbe848c5c	-0.25888336
182	0x3d70eb2e	0.058818035
183	0x3e921767	0.2853348
184	0xbe4e25b3	-0.20131569
185	0x3d13fb04	0.03612806
186	0xbe3ec057	-0.1862806
187	0x3d0c6e74	0.034285024
188	0x3db07010	0.08615124
189	0x3e420112	0.18945721
190	0x3e68289c	0.22671741
191	0xbd4db82a	-0.05022446
192	0xbd5d9324	-0.054095402
193	0xbea1bd16	-0.31589574
194	0x3df5a64d	0.1199461
195	0xbe65e3e8	-0.2245022
196	0x3e359371	0.17732026
197	0xbcd1d906	-0.02561618
198	0xbd0660d2	-0.03280718
199	0xbe5f73ff	-0.21821593
200	0x3c95cfcc	0.018287562
201	0xbddb4715	-0.10706917
202	0xbdc4ef3e	-0.09615944
203	0x3cf1f6b2	0.029536579
204	0xbe7c4dfc	-0.24639124
205	0x3ddac795	0.106825985
206	0xbd695348	-0.05696419
207	0xbca84c68	-0.020544246
208	0x3d291c9d	0.041287053
209	0x3dc73829	0.097275086
210	0xbe1b5f18	-0.15172994
211	0xbdb7f65b	-0.089825355
212	0xbe5eb825	-0.21749933
213	0x3e164d92	0.14678028
214	0x3db86741	0.09004069
215	0xbdc30de3	-0.09524133
216	0x3df86d26	0.121301934
217	0xbde9f84a	-0.114243105
218	0x3e4ed228	0.20197356
219	0xbc709a5a	-0.014685238
220	0x3e97ebd5	0.29672113
221	0x3d5a4eeb	0.05329792
222	0xbe9a723f	-0.30165288
223	0x3ddcd025	0.10781888
224	0x3e368b14	0.17826492
225	0xbda4d0b2	-0.08047618
226	0xbe900c97	-0.28134605
227	0x3e84fa94	0.25972426
228	0x3e0a8a12	0.13529232
229	0x3dcb9c4a	0.09941919
230	0x3d1900b6	0.037354194
231	0x3d8408b9	0.06446976
232	0xbe2b8341	-0.16749288
233	0xbe5e60de	-0.2171664
234	0xbcd1efff	-0.025627134
235	0x3db98dc9	0.090602465
236	0x3de5f061	0.11227489
237	0x3dafe548	0.08588654
238	0xbe5a149c	-0.21296924
239	0xbe2c7d3a	-0.16844645
240	0xbd823cfe	-0.063592896
241	0xbc396e72	-0.011317836
242	0xbdec032d	-0.11524043
243	0xbe3bc8c5	-0.18338306
244	0xbd649c0f	-0.05581289
245	0x3e19ceee	0.15020344
246	0x3e134424	0.14381462
247	0xbe3a5512	-0.18196514
248	0x3c83de69	0.016097264
249	0x3c0fdc86	0.008780604
250	0x3e80e53f	0.251749
251	0x3e330d48	0.17485535
252	0x3dac0a60	0.084004164
253	0x3e15375d	0.145719
254	0xbe51dbf1	-0.20494057
255	0xbdf8f87c	-0.1215677

bias f4 [50]
0	0x3b052dc0	0.0020321459
1	0xbb8107c3	-0.003937693
2	0x3d80f575	0.06296817
3	0x3cbcee6b	0.023062905
4	0xbd17f9a3	-0.037103307
5	0xbbfb35ff	-0.007666349
6	0xbc2c69ca	-0.010523269
7	0x3aca70c2	0.0015444981
8	0x3d07f7e7	0.033195402
9	0x3c6c9b43	0.014441314
10	0xbc41a465	-0.01181898
11	0x3b5a1ce9	0.0033281392
12	0x3cac6037	0.021041973
13	0x3d0efc2b	0.034908455
14	0xbc123315	-0.008923312
15	0x398edb44	0.00027247716
16	0xbd3beef3	-0.045882177
17	0x3c1402de	0.009033887
18	0x3bb2333d	0.005438237
19	0x3ba84dd6	0.005136232
20	0x392a6f37	0.00016253894
21	0x3b297a03	0.0025860078
22	0x3b66595f	0.0035148484
23	0x3bb80487	0.005615774
24	0x3cb70586	0.022341501
25	0x3c847906	0.01617099
26	0x3b15b0cb	0.0022840973
27	0xbadde9f6	-0.0016930688
28	0xbbf34797	-0.0074243057
29	0x3bf37691	0.0074299057
30	0xbc2452c1	-0.010029496
31	0xbc39a8fb	-0.011331792
32	0xba7bf78c	-0.00096117775
33	0x3b9e80cd	0.0048371316
34	0xbc4bb087	-0.012432224
35	0x3bf60e1a	0.0075090053
36	0x3bb04c77	0.005380209
37	0x3c1054e5	0.008809303
38	0x3c2c1a32	0.010504292
39	0xbd01b6db	-0.031668525
40	0x3ce0b1f3	0.027428603
41	0xbc8e6a30	-0.017384619
42	0xbd1a26d1	-0.037634674
43	0xbc108b90	-0.008822337
44	0xbb0a81ad	-0.0021134422
45	0xba440244	-0.0007477144
46	0x3bf8122e	0.0075705266
47	0xbcb889a4	-0.02252657
48	0xbc8ca545	-0.01716865
49	0x3c839795	0.01606349
