pbc_examples/saved_models/convection_beta-1.0_layers-70,70,70,70,1_L-2.0_WD-0_init-normal_seed0.pt (torch, 201773 bytes, 36 tensors)

x_u f4 [256, 1]
0	0x00000000	0.0
1	0x3cc90fdb	0.024543693
2	0x3d490fdb	0.049087387
3	0x3d96cbe4	0.07363108
4	0x3dc90fdb	0.09817477
5	0x3dfb53d1	0.12271846
6	0x3e16cbe4	0.14726216
7	0x3e2feddf	0.17180584
8	0x3e490fdb	0.19634955
9	0x3e6231d6	0.22089323
10	0x3e7b53d1	0.24543692
11	0x3e8a3ae6	0.2699806
12	0x3e96cbe4	0.2945243
13	0x3ea35ce2	0.319068
14	0x3eafeddf	0.3436117
15	0x3ebc7edd	0.3681554
16	0x3ec90fdb	0.3926991
17	0x3ed5a0d8	0.41724277
18	0x3ee231d6	0.44178647
19	0x3eeec2d4	0.46633017
20	0x3efb53d1	0.49087384
21	0x3f03f267	0.5154175
22	0x3f0a3ae6	0.5399612
23	0x3f108365	0.5645049
24	0x3f16cbe4	0.5890486
25	0x3f1d1463	0.6135923
26	0x3f235ce2	0.638136
27	0x3f29a560	0.6626797
28	0x3f2feddf	0.6872234
29	0x3f36365e	0.7117671
30	0x3f3c7edd	0.7363108
31	0x3f42c75c	0.7608545
32	0x3f490fdb	0.7853982
33	0x3f4f5859	0.8099418
34	0x3f55a0d8	0.83448553
35	0x3f5be957	0.85902923
36	0x3f6231d6	0.88357294
37	0x3f687a55	0.90811664
38	0x3f6ec2d4	0.93266034
39	0x3f750b52	0.957204
40	0x3f7b53d1	0.9817477
41	0x3f80ce28	1.0062914
42	0x3f83f267	1.030835
43	0x3f8716a7	1.0553788
44	0x3f8a3ae6	1.0799224
45	0x3f8d5f26	1.1044662
46	0x3f908365	1.1290098
47	0x3f93a7a5	1.1535536
48	0x3f96cbe4	1.1780972
49	0x3f99f023	1.2026409
50	0x3f9d1463	1.2271847
51	0x3fa038a2	1.2517283
52	0x3fa35ce2	1.276272
53	0x3fa68121	1.3008157
54	0x3fa9a560	1.3253593
55	0x3facc9a0	1.3499031
56	0x3fafeddf	1.3744467
57	0x3fb3121f	1.3989905
58	0x3fb6365e	1.4235342
59	0x3fb95a9e	1.4480779
60	0x3fbc7edd	1.4726216
61	0x3fbfa31c	1.4971652
62	0x3fc2c75c	1.521709
63	0x3fc5eb9b	1.5462526
64	0x3fc90fdb	1.5707964
65	0x3fcc341a	1.59534
66	0x3fcf5859	1.6198837
67	0x3fd27c99	1.6444274
68	0x3fd5a0d8	1.6689711
69	0x3fd8c518	1.6935148
70	0x3fdbe957	1.7180585
71	0x3fdf0d97	1.7426022
72	0x3fe231d6	1.7671459
73	0x3fe55615	1.7916895
74	0x3fe87a55	1.8162333
75	0x3feb9e94	1.8407769
76	0x3feec2d4	1.8653207
77	0x3ff1e713	1.8898643
78	0x3ff50b52	1.914408
79	0x3ff82f92	1.9389517
80	0x3ffb53d1	1.9634954
81	0x3ffe7811	1.9880391
82	0x4000ce28	2.0125828
83	0x40026048	2.0371265
84	0x4003f267	2.06167
85	0x40058487	2.0862138
86	0x400716a7	2.1107576
87	0x4008a8c7	2.1353014
88	0x400a3ae6	2.1598449
89	0x400bcd06	2.1843886
90	0x400d5f26	2.2089324
91	0x400ef145	2.233476
92	0x40108365	2.2580197
93	0x40121585	2.2825634
94	0x4013a7a5	2.3071072
95	0x401539c4	2.3316507
96	0x4016cbe4	2.3561945
97	0x40185e04	2.3807383
98	0x4019f023	2.4052818
99	0x401b8243	2.4298255
100	0x401d1463	2.4543693
101	0x401ea683	2.478913
102	0x402038a2	2.5034566
103	0x4021cac2	2.5280004
104	0x40235ce2	2.552544
105	0x4024ef01	2.5770876
106	0x40268121	2.6016314
107	0x40281341	2.6261752
108	0x4029a560	2.6507187
109	0x402b3780	2.6752625
110	0x402cc9a0	2.6998062
111	0x402e5bc0	2.72435
112	0x402feddf	2.7488935
113	0x40317fff	2.7734373
114	0x4033121f	2.797981
115	0x4034a43e	2.8225245
116	0x4036365e	2.8470683
117	0x4037c87e	2.871612
118	0x40395a9e	2.8961558
119	0x403aecbd	2.9206994
120	0x403c7edd	2.9452431
121	0x403e10fd	2.969787
122	0x403fa31c	2.9943304
123	0x4041353c	3.0188742
124	0x4042c75c	3.043418
125	0x4044597c	3.0679617
126	0x4045eb9b	3.0925052
127	0x40477dbb	3.117049
128	0x40490fdb	3.1415927
129	0x404aa1fa	3.1661363
130	0x404c341a	3.19068
131	0x404dc63a	3.2152238
132	0x404f5859	3.2397673
133	0x4050ea79	3.264311
134	0x40527c99	3.2888548
135	0x40540eb9	3.3133986
136	0x4055a0d8	3.3379421
137	0x405732f8	3.362486
138	0x4058c518	3.3870296
139	0x405a5737	3.4115732
140	0x405be957	3.436117
141	0x405d7b77	3.4606607
142	0x405f0d97	3.4852045
143	0x40609fb6	3.509748
144	0x406231d6	3.5342917
145	0x4063c3f6	3.5588355
146	0x40655615	3.583379
147	0x4066e835	3.6079228
148	0x40687a55	3.6324666
149	0x406a0c75	3.6570103
150	0x406b9e94	3.6815538
151	0x406d30b4	3.7060976
152	0x406ec2d4	3.7306414
153	0x407054f3	3.755185
154	0x4071e713	3.7797287
155	0x40737933	3.8042724
156	0x40750b52	3.828816
157	0x40769d72	3.8533597
158	0x40782f92	3.8779035
159	0x4079c1b2	3.9024472
160	0x407b53d1	3.9269907
161	0x407ce5f1	3.9515345
162	0x407e7811	3.9760783
163	0x40800518	4.000622
164	0x4080ce28	4.0251656
165	0x40819738	4.0497093
166	0x40826048	4.074253
167	0x40832958	4.098797
168	0x4083f267	4.12334
169	0x4084bb77	4.147884
170	0x40858487	4.1724277
171	0x40864d97	4.1969714
172	0x408716a7	4.221515
173	0x4087dfb7	4.246059
174	0x4088a8c7	4.2706027
175	0x408971d6	4.295146
176	0x408a3ae6	4.3196898
177	0x408b03f6	4.3442335
178	0x408bcd06	4.3687773
179	0x408c9616	4.393321
180	0x408d5f26	4.417865
181	0x408e2836	4.4424086
182	0x408ef145	4.466952
183	0x408fba55	4.4914956
184	0x40908365	4.5160394
185	0x40914c75	4.540583
186	0x40921585	4.565127
187	0x4092de95	4.5896707
188	0x4093a7a5	4.6142144
189	0x409470b4	4.6387577
190	0x409539c4	4.6633015
191	0x409602d4	4.687845
192	0x4096cbe4	4.712389
193	0x409794f4	4.7369328
194	0x40985e04	4.7614765
195	0x40992714	4.7860203
196	0x4099f023	4.8105636
197	0x409ab933	4.8351073
198	0x409b8243	4.859651
199	0x409c4b53	4.884195
200	0x409d1463	4.9087386
201	0x409ddd73	4.9332824
202	0x409ea683	4.957826
203	0x409f6f92	4.9823694
204	0x40a038a2	5.006913
205	0x40a101b2	5.031457
206	0x40a1cac2	5.0560007
207	0x40a293d2	5.0805445
208	0x40a35ce2	5.105088
209	0x40a425f1	5.1296315
210	0x40a4ef01	5.1541753
211	0x40a5b811	5.178719
212	0x40a68121	5.203263
213	0x40a74a31	5.2278066
214	0x40a81341	5.2523503
215	0x40a8dc51	5.276894
216	0x40a9a560	5.3014374
217	0x40aa6e70	5.325981
218	0x40ab3780	5.350525
219	0x40ac0090	5.3750687
220	0x40acc9a0	5.3996124
221	0x40ad92b0	5.424156
222	0x40ae5bc0	5.4487
223	0x40af24cf	5.473243
224	0x40afeddf	5.497787
225	0x40b0b6ef	5.5223308
226	0x40b17fff	5.5468745
227	0x40b2490f	5.5714183
228	0x40b3121f	5.595962
229	0x40b3db2f	5.620506
230	0x40b4a43e	5.645049
231	0x40b56d4e	5.669593
232	0x40b6365e	5.6941366
233	0x40b6ff6e	5.7186804
234	0x40b7c87e	5.743224
235	0x40b8918e	5.767768
236	0x40b95a9e	5.7923117
237	0x40ba23ad	5.816855
238	0x40baecbd	5.8413987
239	0x40bbb5cd	5.8659425
240	0x40bc7edd	5.8904862
241	0x40bd47ed	5.91503
242	0x40be10fd	5.939574
243	0x40beda0d	5.9641175
244	0x40bfa31c	5.988661
245	0x40c06c2c	6.0132046
246	0x40c1353c	6.0377483
247	0x40c1fe4c	6.062292
248	0x40c2c75c	6.086836
249	0x40c3906c	6.1113796
250	0x40c4597c	6.1359234
251	0x40c5228b	6.1604667
252	0x40c5eb9b	6.1850104
253	0x40c6b4ab	6.209554
254	0x40c77dbb	6.234098
255	0x40c846cb	6.2586417

t_u f4 [256, 1]
0	0x00000000	0.0
1	0x00000000	0.0
2	0x00000000	0.0
3	0x00000000	0.0
4	0x00000000	0.0
5	0x00000000	0.0
6	0x00000000	0.0
7	0x00000000	0.0
8	0x00000000	0.0
9	0x00000000	0.0
10	0x00000000	0.0
11	0x00000000	0.0
12	0x00000000	0.0
13	0x00000000	0.0
14	0x00000000	0.0
15	0x00000000	0.0
16	0x00000000	0.0
17	0x00000000	0.0
18	0x00000000	0.0
19	0x00000000	0.0
20	0x00000000	0.0
21	0x00000000	0.0
22	0x00000000	0.0
23	0x00000000	0.0
24	0x00000000	0.0
25	0x00000000	0.0
26	0x00000000	0.0
27	0x00000000	0.0
28	0x00000000	0.0
29	0x00000000	0.0
30	0x00000000	0.0
31	0x00000000	0.0
32	0x00000000	0.0
33	0x00000000	0.0
34	0x00000000	0.0
35	0x00000000	0.0
36	0x00000000	0.0
37	0x00000000	0.0
38	0x00000000	0.0
39	0x00000000	0.0
40	0x00000000	0.0
41	0x00000000	0.0
42	0x00000000	0.0
43	0x00000000	0.0
44	0x00000000	0.0
45	0x00000000	0.0
46	0x00000000	0.0
47	0x00000000	0.0
48	0x00000000	0.0
49	0x00000000	0.0
50	0x00000000	0.0
51	0x00000000	0.0
52	0x00000000	0.0
53	0x00000000	0.0
54	0x00000000	0.0
55	0x00000000	0.0
56	0x00000000	0.0
57	0x00000000	0.0
58	0x00000000	0.0
59	0x00000000	0.0
60	0x00000000	0.0
61	0x00000000	0.0
62	0x00000000	0.0
63	0x00000000	0.0
64	0x00000000	0.0
65	0x00000000	0.0
66	0x00000000	0.0
67	0x00000000	0.0
68	0x00000000	0.0
69	0x00000000	0.0
70	0x00000000	0.0
71	0x00000000	0.0
72	0x00000000	0.0
73	0x00000000	0.0
74	0x00000000	0.0
75	0x00000000	0.0
76	0x00000000	0.0
77	0x00000000	0.0
78	0x00000000	0.0
79	0x00000000	0.0
80	0x00000000	0.0
81	0x00000000	0.0
82	0x00000000	0.0
83	0x00000000	0.0
84	0x00000000	0.0
85	0x00000000	0.0
86	0x00000000	0.0
87	0x00000000	0.0
88	0x00000000	0.0
89	0x00000000	0.0
90	0x00000000	0.0
91	0x00000000	0.0
92	0x00000000	0.0
93	0x00000000	0.0
94	0x00000000	0.0
95	0x00000000	0.0
96	0x00000000	0.0
97	0x00000000	0.0
98	0x00000000	0.0
99	0x00000000	0.0
100	0x00000000	0.0
101	0x00000000	0.0
102	0x00000000	0.0
103	0x00000000	0.0
104	0x00000000	0.0
105	0x00000000	0.0
106	0x00000000	0.0
107	0x00000000	0.0
108	0x00000000	0.0
109	0x00000000	0.0
110	0x00000000	0.0
111	0x00000000	0.0
112	0x00000000	0.0
113	0x00000000	0.0
114	0x00000000	0.0
115	0x00000000	0.0
116	0x00000000	0.0
117	0x00000000	0.0
118	0x00000000	0.0
119	0x00000000	0.0
120	0x00000000	0.0
121	0x00000000	0.0
122	0x00000000	0.0
123	0x00000000	0.0
124	0x00000000	0.0
125	0x00000000	0.0
126	0x00000000	0.0
127	0x00000000	0.0
128	0x00000000	0.0
129	0x00000000	0.0
130	0x00000000	0.0
131	0x00000000	0.0
132	0x00000000	0.0
133	0x00000000	0.0
134	0x00000000	0.0
135	0x00000000	0.0
136	0x00000000	0.0
137	0x00000000	0.0
138	0x00000000	0.0
139	0x00000000	0.0
140	0x00000000	0.0
141	0x00000000	0.0
142	0x00000000	0.0
143	0x00000000	0.0
144	0x00000000	0.0
145	0x00000000	0.0
146	0x00000000	0.0
147	0x00000000	0.0
148	0x00000000	0.0
149	0x00000000	0.0
150	0x00000000	0.0
151	0x00000000	0.0
152	0x00000000	0.0
153	0x00000000	0.0
154	0x00000000	0.0
155	0x00000000	0.0
156	0x00000000	0.0
157	0x00000000	0.0
158	0x00000000	0.0
159	0x00000000	0.0
160	0x00000000	0.0
161	0x00000000	0.0
162	0x00000000	0.0
163	0x00000000	0.0
164	0x00000000	0.0
165	0x00000000	0.0
166	0x00000000	0.0
167	0x00000000	0.0
168	0x00000000	0.0
169	0x00000000	0.0
170	0x00000000	0.0
171	0x00000000	0.0
172	0x00000000	0.0
173	0x00000000	0.0
174	0x00000000	0.0
175	0x00000000	0.0
176	0x00000000	0.0
177	0x00000000	0.0
178	0x00000000	0.0
179	0x00000000	0.0
180	0x00000000	0.0
181	0x00000000	0.0
182	0x00000000	0.0
183	0x00000000	0.0
184	0x00000000	0.0
185	0x00000000	0.0
186	0x00000000	0.0
187	0x00000000	0.0
188	0x00000000	0.0
189	0x00000000	0.0
190	0x00000000	0.0
191	0x00000000	0.0
192	0x00000000	0.0
193	0x00000000	0.0
194	0x00000000	0.0
195	0x00000000	0.0
196	0x00000000	0.0
197	0x00000000	0.0
198	0x00000000	0.0
199	0x00000000	0.0
200	0x00000000	0.0
201	0x00000000	0.0
202	0x00000000	0.0
203	0x00000000	0.0
204	0x00000000	0.0
205	0x00000000	0.0
206	0x00000000	0.0
207	0x00000000	0.0
208	0x00000000	0.0
209	0x00000000	0.0
210	0x00000000	0.0
211	0x00000000	0.0
212	0x00000000	0.0
213	0x00000000	0.0
214	0x00000000	0.0
215	0x00000000	0.0
216	0x00000000	0.0
217	0x00000000	0.0
218	0x00000000	0.0
219	0x00000000	0.0
220	0x00000000	0.0
221	0x00000000	0.0
222	0x00000000	0.0
223	0x00000000	0.0
224	0x00000000	0.0
225	0x00000000	0.0
226	0x00000000	0.0
227	0x00000000	0.0
228	0x00000000	0.0
229	0x00000000	0.0
230	0x00000000	0.0
231	0x00000000	0.0
232	0x00000000	0.0
233	0x00000000	0.0
234	0x00000000	0.0
235	0x00000000	0.0
236	0x00000000	0.0
237	0x00000000	0.0
238	0x00000000	0.0
239	0x00000000	0.0
240	0x00000000	0.0
241	0x00000000	0.0
242	0x00000000	0.0
243	0x00000000	0.0
244	0x00000000	0.0
245	0x00000000	0.0
246	0x00000000	0.0
247	0x00000000	0.0
248	0x00000000	0.0
249	0x00000000	0.0
250	0x00000000	0.0
251	0x00000000	0.0
252	0x00000000	0.0
253	0x00000000	0.0
254	0x00000000	0.0
255	0x00000000	0.0

x_f f4 [100, 1]
0	0x4093a7a5	4.6142144
1	0x3fdf0d97	1.7426022
2	0x4055a0d8	3.3379421
3	0x409c4b53	4.884195
4	0x4044597c	3.0679617
5	0x40b0b6ef	5.5223308
6	0x40ba23ad	5.816855
7	0x40c5eb9b	6.1850104
8	0x40921585	4.565127
9	0x3f99f023	1.2026409
10	0x40992714	4.7860203
11	0x3f108365	0.5645049
12	0x3feb9e94	1.8407769
13	0x3dfb53d1	0.12271846
14	0x409f6f92	4.9823694
15	0x40c2c75c	6.086836
16	0x40b6ff6e	5.7186804
17	0x402cc9a0	2.6998062
18	0x4021cac2	2.5280004
19	0x40c3906c	6.1113796
20	0x402e5bc0	2.72435
21	0x40af24cf	5.473243
22	0x3f8716a7	1.0553788
23	0x40c1fe4c	6.062292
24	0x3ee231d6	0.44178647
25	0x3f36365e	0.7117671
26	0x40864d97	4.1969714
27	0x40c846cb	6.2586417
28	0x40c4597c	6.1359234
29	0x40914c75	4.540583
30	0x40c5eb9b	6.1850104
31	0x4088a8c7	4.2706027
32	0x40af24cf	5.473243
33	0x40268121	2.6016314
34	0x408d5f26	4.417865
35	0x409d1463	4.9087386
36	0x40c06c2c	6.0132046
37	0x3ebc7edd	0.3681554
38	0x3efb53d1	0.49087384
39	0x40a68121	5.203263
40	0x405d7b77	3.4606607
41	0x3ee231d6	0.44178647
42	0x3fcf5859	1.6198837
43	0x4084bb77	4.147884
44	0x3fe87a55	1.8162333
45	0x409ea683	4.957826
46	0x405f0d97	3.4852045
47	0x4058c518	3.3870296
48	0x3f750b52	0.957204
49	0x4013a7a5	2.3071072
50	0x3f29a560	0.6626797
51	0x40a74a31	5.2278066
52	0x3cc90fdb	0.024543693
53	0x40c1fe4c	6.062292
54	0x401539c4	2.3316507
55	0x3ffb53d1	1.9634954
56	0x401539c4	2.3316507
57	0x3f2feddf	0.6872234
58	0x3fcc341a	1.59534
59	0x405a5737	3.4115732
60	0x40b3121f	5.595962
61	0x40b95a9e	5.7923117
62	0x3f8d5f26	1.1044662
63	0x406b9e94	3.6815538
64	0x3f6231d6	0.88357294
65	0x3fdbe957	1.7180585
66	0x401b8243	2.4298255
67	0x4066e835	3.6079228
68	0x3fe55615	1.7916895
69	0x3fcf5859	1.6198837
70	0x408971d6	4.295146
71	0x3ffe7811	1.9880391
72	0x40108365	2.2580197
73	0x402e5bc0	2.72435
74	0x3f490fdb	0.7853982
75	0x4003f267	2.06167
76	0x409ea683	4.957826
77	0x40a425f1	5.1296315
78	0x401b8243	2.4298255
79	0x40914c75	4.540583
80	0x406a0c75	3.6570103
81	0x3f55a0d8	0.83448553
82	0x406d30b4	3.7060976
83	0x3fe55615	1.7916895
84	0x40c2c75c	6.086836
85	0x409f6f92	4.9823694
86	0x409c4b53	4.884195
87	0x3f80ce28	1.0062914
88	0x40afeddf	5.497787
89	0x40baecbd	5.8413987
90	0x40864d97	4.1969714
91	0x4096cbe4	4.712389
92	0x3f6231d6	0.88357294
93	0x3f6ec2d4	0.93266034
94	0x3f9d1463	1.2271847
95	0x40b7c87e	5.743224
96	0x40b2490f	5.5714183
97	0x40c1353c	6.0377483
98	0x405be957	3.436117
99	0x3facc9a0	1.3499031

t_f f4 [100, 1]
0	0x3ec48677	0.3838384
1	0x3f51745d	0.8181818
2	0x3f090cee	0.53535354
3	0x3f4c4867	0.7979798
4	0x3e10cede	0.14141414
5	0x3f350296	0.7070707
6	0x3f2fd6a0	0.68686867
7	0x3f471c72	0.7777778
8	0x3f0ba2e9	0.54545456
9	0x3c257eb5	0.01010101
10	0x3f0e38e4	0.5555556
11	0x3f49b26d	0.7878788
12	0x3ede6243	0.43434343
13	0x3ede6243	0.43434343
14	0x3f7ad40a	0.97979796
15	0x3f800000	1.0
16	0x3f2d40a5	0.67676765
17	0x3f0676f3	0.5252525
18	0x3e9b26ca	0.3030303
19	0x3f540a58	0.82828283
20	0x3f7ad40a	0.97979796
21	0x3f22e8ba	0.6363636
22	0x3eafd6a0	0.34343433
23	0x3ea57eb5	0.32323232
24	0x3ef3121a	0.47474748
25	0x3f6b5029	0.9191919
26	0x3f0e38e4	0.5555556
27	0x3f471c72	0.7777778
28	0x3eba2e8c	0.36363637
29	0x3e638e39	0.22222222
30	0x3e90cede	0.28282827
31	0x3f638e39	0.8888889
32	0x3f68ba2f	0.90909094
33	0x3e1b26ca	0.15151516
34	0x3f2052bf	0.6262626
35	0x3d257eb5	0.04040404
36	0x3e1b26ca	0.15151516
37	0x3f60f83e	0.8787879
38	0x3f15fad4	0.5858586
39	0x3e814afd	0.25252524
40	0x3f4c4867	0.7979798
41	0x3ec48677	0.3838384
42	0x3ed9364e	0.42424244
43	0x3c257eb5	0.01010101
44	0x3e783e10	0.24242425
45	0x3f662434	0.8989899
46	0x3eba2e8c	0.36363637
47	0x3f707c1f	0.93939394
48	0x3f41f07c	0.75757575
49	0x3ea052bf	0.3131313
50	0x3d257eb5	0.04040404
51	0x3eafd6a0	0.34343433
52	0x3ee8ba2f	0.45454547
53	0x3f75a815	0.959596
54	0x3f75a815	0.959596
55	0x3ee8ba2f	0.45454547
56	0x3ee8ba2f	0.45454547
57	0x3f4ede62	0.8080808
58	0x3f0676f3	0.5252525
59	0x3f10cede	0.56565654
60	0x3f60f83e	0.8787879
61	0x3f3cc486	0.7373737
62	0x3d257eb5	0.04040404
63	0x3ef3121a	0.47474748
64	0x3f1364d9	0.57575756
65	0x3f10cede	0.56565654
66	0x3f2d40a5	0.67676765
67	0x3f7d6a05	0.989899
68	0x3f2fd6a0	0.68686867
69	0x3e59364e	0.21212122
70	0x3d4ede62	0.05050505
71	0x3e90cede	0.28282827
72	0x3e814afd	0.25252524
73	0x3f4ede62	0.8080808
74	0x3c257eb5	0.01010101
75	0x3ed40a58	0.41414142
76	0x3f783e10	0.969697
77	0x3f7ad40a	0.97979796
78	0x3e95fad4	0.2929293
79	0x3f03e0f8	0.5151515
80	0x3f56a053	0.83838385
81	0x3f73121a	0.94949496
82	0x3ef3121a	0.47474748
83	0x3f1890cf	0.5959596
84	0x3ec9b26d	0.3939394
85	0x3f2fd6a0	0.68686867
86	0x3f59364e	0.8484849
87	0x3ca57eb5	0.02020202
88	0x3f6b5029	0.9191919
89	0x3ef83e10	0.4848485
90	0x3e0676f3	0.13131313
91	0x3f1b26ca	0.6060606
92	0x3e814afd	0.25252524
93	0x3f783e10	0.969697
94	0x3eafd6a0	0.34343433
95	0x3f56a053	0.83838385
96	0x3ef83e10	0.4848485
97	0x3f4c4867	0.7979798
98	0x3f379891	0.7171717
99	0x3e9b26ca	0.3030303

x_bc_lb f4 [100, 1]
0	0x00000000	0.0
1	0x00000000	0.0
2	0x00000000	0.0
3	0x00000000	0.0
4	0x00000000	0.0
5	0x00000000	0.0
6	0x00000000	0.0
7	0x00000000	0.0
8	0x00000000	0.0
9	0x00000000	0.0
10	0x00000000	0.0
11	0x00000000	0.0
12	0x00000000	0.0
13	0x00000000	0.0
14	0x00000000	0.0
15	0x00000000	0.0
16	0x00000000	0.0
17	0x00000000	0.0
18	0x00000000	0.0
19	0x00000000	0.0
20	0x00000000	0.0
21	0x00000000	0.0
22	0x00000000	0.0
23	0x00000000	0.0
24	0x00000000	0.0
25	0x00000000	0.0
26	0x00000000	0.0
27	0x00000000	0.0
28	0x00000000	0.0
29	0x00000000	0.0
30	0x00000000	0.0
31	0x00000000	0.0
32	0x00000000	0.0
33	0x00000000	0.0
34	0x00000000	0.0
35	0x00000000	0.0
36	0x00000000	0.0
37	0x00000000	0.0
38	0x00000000	0.0
39	0x00000000	0.0
40	0x00000000	0.0
41	0x00000000	0.0
42	0x00000000	0.0
43	0x00000000	0.0
44	0x00000000	0.0
45	0x00000000	0.0
46	0x00000000	0.0
47	0x00000000	0.0
48	0x00000000	0.0
49	0x00000000	0.0
50	0x00000000	0.0
51	0x00000000	0.0
52	0x00000000	0.0
53	0x00000000	0.0
54	0x00000000	0.0
55	0x00000000	0.0
56	0x00000000	0.0
57	0x00000000	0.0
58	0x00000000	0.0
59	0x00000000	0.0
60	0x00000000	0.0
61	0x00000000	0.0
62	0x00000000	0.0
63	0x00000000	0.0
64	0x00000000	0.0
65	0x00000000	0.0
66	0x00000000	0.0
67	0x00000000	0.0
68	0x00000000	0.0
69	0x00000000	0.0
70	0x00000000	0.0
71	0x00000000	0.0
72	0x00000000	0.0
73	0x00000000	0.0
74	0x00000000	0.0
75	0x00000000	0.0
76	0x00000000	0.0
77	0x00000000	0.0
78	0x00000000	0.0
79	0x00000000	0.0
80	0x00000000	0.0
81	0x00000000	0.0
82	0x00000000	0.0
83	0x00000000	0.0
84	0x00000000	0.0
85	0x00000000	0.0
86	0x00000000	0.0
87	0x00000000	0.0
88	0x00000000	0.0
89	0x00000000	0.0
90	0x00000000	0.0
91	0x00000000	0.0
92	0x00000000	0.0
93	0x00000000	0.0
94	0x00000000	0.0
95	0x00000000	0.0
96	0x00000000	0.0
97	0x00000000	0.0
98	0x00000000	0.0
99	0x00000000	0.0

t_bc_lb f4 [100, 1]
0	0x00000000	0.0
1	0x3c257eb5	0.01010101
2	0x3ca57eb5	0.02020202
3	0x3cf83e10	0.030303031
4	0x3d257eb5	0.04040404
5	0x3d4ede62	0.05050505
6	0x3d783e10	0.060606062
7	0x3d90cede	0.07070707
8	0x3da57eb5	0.08080808
9	0x3dba2e8c	0.09090909
10	0x3dcede62	0.1010101
11	0x3de38e39	0.11111111
12	0x3df83e10	0.121212125
13	0x3e0676f3	0.13131313
14	0x3e10cede	0.14141414
15	0x3e1b26ca	0.15151516
16	0x3e257eb5	0.16161616
17	0x3e2fd6a0	0.17171717
18	0x3e3a2e8c	0.18181819
19	0x3e448677	0.1919192
20	0x3e4ede62	0.2020202
21	0x3e59364e	0.21212122
22	0x3e638e39	0.22222222
23	0x3e6de624	0.23232323
24	0x3e783e10	0.24242425
25	0x3e814afd	0.25252524
26	0x3e8676f3	0.26262626
27	0x3e8ba2e9	0.27272728
28	0x3e90cede	0.28282827
29	0x3e95fad4	0.2929293
30	0x3e9b26ca	0.3030303
31	0x3ea052bf	0.3131313
32	0x3ea57eb5	0.32323232
33	0x3eaaaaab	0.33333334
34	0x3eafd6a0	0.34343433
35	0x3eb50296	0.35353535
36	0x3eba2e8c	0.36363637
37	0x3ebf5a81	0.37373737
38	0x3ec48677	0.3838384
39	0x3ec9b26d	0.3939394
40	0x3ecede62	0.4040404
41	0x3ed40a58	0.41414142
42	0x3ed9364e	0.42424244
43	0x3ede6243	0.43434343
44	0x3ee38e39	0.44444445
45	0x3ee8ba2f	0.45454547
46	0x3eede624	0.46464646
47	0x3ef3121a	0.47474748
48	0x3ef83e10	0.4848485
49	0x3efd6a05	0.4949495
50	0x3f014afd	0.5050505
51	0x3f03e0f8	0.5151515
52	0x3f0676f3	0.5252525
53	0x3f090cee	0.53535354
54	0x3f0ba2e9	0.54545456
55	0x3f0e38e4	0.5555556
56	0x3f10cede	0.56565654
57	0x3f1364d9	0.57575756
58	0x3f15fad4	0.5858586
59	0x3f1890cf	0.5959596
60	0x3f1b26ca	0.6060606
61	0x3f1dbcc5	0.61616164
62	0x3f2052bf	0.6262626
63	0x3f22e8ba	0.6363636
64	0x3f257eb5	0.64646465
65	0x3f2814b0	0.65656567
66	0x3f2aaaab	0.6666667
67	0x3f2d40a5	0.67676765
68	0x3f2fd6a0	0.68686867
69	0x3f326c9b	0.6969697
70	0x3f350296	0.7070707
71	0x3f379891	0.7171717
72	0x3f3a2e8c	0.72727275
73	0x3f3cc486	0.7373737
74	0x3f3f5a81	0.74747473
75	0x3f41f07c	0.75757575
76	0x3f448677	0.7676768
77	0x3f471c72	0.7777778
78	0x3f49b26d	0.7878788
79	0x3f4c4867	0.7979798
80	0x3f4ede62	0.8080808
81	0x3f51745d	0.8181818
82	0x3f540a58	0.82828283
83	0x3f56a053	0.83838385
84	0x3f59364e	0.8484849
85	0x3f5bcc48	0.85858583
86	0x3f5e6243	0.86868685
87	0x3f60f83e	0.8787879
88	0x3f638e39	0.8888889
89	0x3f662434	0.8989899
90	0x3f68ba2f	0.90909094
91	0x3f6b5029	0.9191919
92	0x3f6de624	0.9292929
93	0x3f707c1f	0.93939394
94	0x3f73121a	0.94949496
95	0x3f75a815	0.959596
96	0x3f783e10	0.969697
97	0x3f7ad40a	0.97979796
98	0x3f7d6a05	0.989899
99	0x3f800000	1.0

x_bc_ub f4 [100, 1]
0	0x40c90fdb	6.2831855
1	0x40c90fdb	6.2831855
2	0x40c90fdb	6.2831855
3	0x40c90fdb	6.2831855
4	0x40c90fdb	6.2831855
5	0x40c90fdb	6.2831855
6	0x40c90fdb	6.2831855
7	0x40c90fdb	6.2831855
8	0x40c90fdb	6.2831855
9	0x40c90fdb	6.2831855
10	0x40c90fdb	6.2831855
11	0x40c90fdb	6.2831855
12	0x40c90fdb	6.2831855
13	0x40c90fdb	6.2831855
14	0x40c90fdb	6.2831855
15	0x40c90fdb	6.2831855
16	0x40c90fdb	6.2831855
17	0x40c90fdb	6.2831855
18	0x40c90fdb	6.2831855
19	0x40c90fdb	6.2831855
20	0x40c90fdb	6.2831855
21	0x40c90fdb	6.2831855
22	0x40c90fdb	6.2831855
23	0x40c90fdb	6.2831855
24	0x40c90fdb	6.2831855
25	0x40c90fdb	6.2831855
26	0x40c90fdb	6.2831855
27	0x40c90fdb	6.2831855
28	0x40c90fdb	6.2831855
29	0x40c90fdb	6.2831855
30	0x40c90fdb	6.2831855
31	0x40c90fdb	6.2831855
32	0x40c90fdb	6.2831855
33	0x40c90fdb	6.2831855
34	0x40c90fdb	6.2831855
35	0x40c90fdb	6.2831855
36	0x40c90fdb	6.2831855
37	0x40c90fdb	6.2831855
38	0x40c90fdb	6.2831855
39	0x40c90fdb	6.2831855
40	0x40c90fdb	6.2831855
41	0x40c90fdb	6.2831855
42	0x40c90fdb	6.2831855
43	0x40c90fdb	6.2831855
44	0x40c90fdb	6.2831855
45	0x40c90fdb	6.2831855
46	0x40c90fdb	6.2831855
47	0x40c90fdb	6.2831855
48	0x40c90fdb	6.2831855
49	0x40c90fdb	6.2831855
50	0x40c90fdb	6.2831855
51	0x40c90fdb	6.2831855
52	0x40c90fdb	6.2831855
53	0x40c90fdb	6.2831855
54	0x40c90fdb	6.2831855
55	0x40c90fdb	6.2831855
56	0x40c90fdb	6.2831855
57	0x40c90fdb	6.2831855
58	0x40c90fdb	6.2831855
59	0x40c90fdb	6.2831855
60	0x40c90fdb	6.2831855
61	0x40c90fdb	6.2831855
62	0x40c90fdb	6.2831855
63	0x40c90fdb	6.2831855
64	0x40c90fdb	6.2831855
65	0x40c90fdb	6.2831855
66	0x40c90fdb	6.2831855
67	0x40c90fdb	6.2831855
68	0x40c90fdb	6.2831855
69	0x40c90fdb	6.2831855
70	0x40c90fdb	6.2831855
71	0x40c90fdb	6.2831855
72	0x40c90fdb	6.2831855
73	0x40c90fdb	6.2831855
74	0x40c90fdb	6.2831855
75	0x40c90fdb	6.2831855
76	0x40c90fdb	6.2831855
77	0x40c90fdb	6.2831855
78	0x40c90fdb	6.2831855
79	0x40c90fdb	6.2831855
80	0x40c90fdb	6.2831855
81	0x40c90fdb	6.2831855
82	0x40c90fdb	6.2831855
83	0x40c90fdb	6.2831855
84	0x40c90fdb	6.2831855
85	0x40c90fdb	6.2831855
86	0x40c90fdb	6.2831855
87	0x40c90fdb	6.2831855
88	0x40c90fdb	6.2831855
89	0x40c90fdb	6.2831855
90	0x40c90fdb	6.2831855
91	0x40c90fdb	6.2831855
92	0x40c90fdb	6.2831855
93	0x40c90fdb	6.2831855
94	0x40c90fdb	6.2831855
95	0x40c90fdb	6.2831855
96	0x40c90fdb	6.2831855
97	0x40c90fdb	6.2831855
98	0x40c90fdb	6.2831855
99	0x40c90fdb	6.2831855

t_bc_ub f4 [100, 1]
0	0x00000000	0.0
1	0x3c257eb5	0.01010101
2	0x3ca57eb5	0.02020202
3	0x3cf83e10	0.030303031
4	0x3d257eb5	0.04040404
5	0x3d4ede62	0.05050505
6	0x3d783e10	0.060606062
7	0x3d90cede	0.07070707
8	0x3da57eb5	0.08080808
9	0x3dba2e8c	0.09090909
10	0x3dcede62	0.1010101
11	0x3de38e39	0.11111111
12	0x3df83e10	0.121212125
13	0x3e0676f3	0.13131313
14	0x3e10cede	0.14141414
15	0x3e1b26ca	0.15151516
16	0x3e257eb5	0.16161616
17	0x3e2fd6a0	0.17171717
18	0x3e3a2e8c	0.18181819
19	0x3e448677	0.1919192
20	0x3e4ede62	0.2020202
21	0x3e59364e	0.21212122
22	0x3e638e39	0.22222222
23	0x3e6de624	0.23232323
24	0x3e783e10	0.24242425
25	0x3e814afd	0.25252524
26	0x3e8676f3	0.26262626
27	0x3e8ba2e9	0.27272728
28	0x3e90cede	0.28282827
29	0x3e95fad4	0.2929293
30	0x3e9b26ca	0.3030303
31	0x3ea052bf	0.3131313
32	0x3ea57eb5	0.32323232
33	0x3eaaaaab	0.33333334
34	0x3eafd6a0	0.34343433
35	0x3eb50296	0.35353535
36	0x3eba2e8c	0.36363637
37	0x3ebf5a81	0.37373737
38	0x3ec48677	0.3838384
39	0x3ec9b26d	0.3939394
40	0x3ecede62	0.4040404
41	0x3ed40a58	0.41414142
42	0x3ed9364e	0.42424244
43	0x3ede6243	0.43434343
44	0x3ee38e39	0.44444445
45	0x3ee8ba2f	0.45454547
46	0x3eede624	0.46464646
47	0x3ef3121a	0.47474748
48	0x3ef83e10	0.4848485
49	0x3efd6a05	0.4949495
50	0x3f014afd	0.5050505
51	0x3f03e0f8	0.5151515
52	0x3f0676f3	0.5252525
53	0x3f090cee	0.53535354
54	0x3f0ba2e9	0.54545456
55	0x3f0e38e4	0.5555556
56	0x3f10cede	0.56565654
57	0x3f1364d9	0.57575756
58	0x3f15fad4	0.5858586
59	0x3f1890cf	0.5959596
60	0x3f1b26ca	0.6060606
61	0x3f1dbcc5	0.61616164
62	0x3f2052bf	0.6262626
63	0x3f22e8ba	0.6363636
64	0x3f257eb5	0.64646465
65	0x3f2814b0	0.65656567
66	0x3f2aaaab	0.6666667
67	0x3f2d40a5	0.67676765
68	0x3f2fd6a0	0.68686867
69	0x3f326c9b	0.6969697
70	0x3f350296	0.7070707
71	0x3f379891	0.7171717
72	0x3f3a2e8c	0.72727275
73	0x3f3cc486	0.7373737
74	0x3f3f5a81	0.74747473
75	0x3f41f07c	0.75757575
76	0x3f448677	0.7676768
77	0x3f471c72	0.7777778
78	0x3f49b26d	0.7878788
79	0x3f4c4867	0.7979798
80	0x3f4ede62	0.8080808
81	0x3f51745d	0.8181818
82	0x3f540a58	0.82828283
83	0x3f56a053	0.83838385
84	0x3f59364e	0.8484849
85	0x3f5bcc48	0.85858583
86	0x3f5e6243	0.86868685
87	0x3f60f83e	0.8787879
88	0x3f638e39	0.8888889
89	0x3f662434	0.8989899
90	0x3f68ba2f	0.90909094
91	0x3f6b5029	0.9191919
92	0x3f6de624	0.9292929
93	0x3f707c1f	0.93939394
94	0x3f73121a	0.94949496
95	0x3f75a815	0.959596
96	0x3f783e10	0.969697
97	0x3f7ad40a	0.97979796
98	0x3f7d6a05	0.989899
99	0x3f800000	1.0

weight f4 [70, 2]
0	0xbd1650a0	-0.036697984
1	0xbd82f741	-0.06394816
2	0xbc285497	-0.010274074
3	0xbe82bd7f	-0.255352
4	0x3ca2679c	0.019824795
5	0x3e36d510	0.17854714
6	0x3d8e4316	0.069463894
7	0x3db5d7d4	0.088790566
8	0xbe15ff30	-0.14648128
9	0xbe019135	-0.12653048
10	0x3e09ddf3	0.13463573
11	0x3e146855	0.14492925
12	0xbe483c27	-0.19554196
13	0x3d6ac03b	0.05731223
14	0xbea04179	-0.31299952
15	0xbe675ba6	-0.22593555
16	0xbe77ca21	-0.241982
17	0xbe9dda95	-0.30830827
18	0x3e795b9e	0.24351355
19	0xbe392202	-0.18079379
20	0x3db0ea26	0.0863841
21	0xbe0810bc	-0.13287634
22	0x3af02981	0.0018322916
23	0xbdbb4b70	-0.09145248
24	0xbdaabb45	-0.083365
25	0x3e32cd0a	0.17461029
26	0x3ec890ce	0.39172977
27	0xbe3594dc	-0.17732567
28	0x3dc187be	0.09449719
29	0xbd633412	-0.05546958
30	0xbe8b7023	-0.2723399
31	0x3e051f47	0.13000213
32	0x3d0bfbf0	0.034175813
33	0x3d04d48b	0.03242926
34	0xbe0a6052	-0.13513306
35	0x3e2626ca	0.16225734
36	0xbebfca4c	-0.37459028
37	0xbcd6984a	-0.026195664
38	0x3eb58eb6	0.35460442
39	0xbe00d133	-0.12579803
40	0x3e3f4725	0.18679483
41	0xbe58aeb7	-0.21160398
42	0xbe19844e	-0.14991876
43	0x3e44e00b	0.1922609
44	0xbd8517ad	-0.064986564
45	0x3d189bbf	0.037257906
46	0xbe56a5e6	-0.20961723
47	0x3f1599b0	0.58437634
48	0x3ce7eae6	0.02831025
49	0xbe8b276b	-0.2717851
50	0x3c8ddda0	0.017317593
51	0xbdbc9646	-0.0920835
52	0xbd482ac4	-0.04886891
53	0x3e51336d	0.20429774
54	0xbe4633ed	-0.19355746
55	0x3e4f90a4	0.2027002
56	0x3e0e42b3	0.13892631
57	0xbe7df7eb	-0.24801604
58	0xbdc64b29	-0.096823044
59	0x3d698f90	0.057021677
60	0xbea314dc	-0.31851852
61	0x3e62f4b2	0.22163656
62	0xbe199aca	-0.15000454
63	0xbd6e4ce2	-0.05817879
64	0x3d974d01	0.07387734
65	0xbe84490b	-0.25836977
66	0x3dc86784	0.09785369
67	0xbe2ad7a2	-0.1668382
68	0xbe42ffb5	-0.19042857
69	0xbe370853	-0.17874269
70	0xbe4c547e	-0.19954106
71	0x3dfc9d7f	0.123347275
72	0xbe3391c3	-0.17536072
73	0xbea0cd0b	-0.31406435
74	0x3e117166	0.14203414
75	0xbdd7fec6	-0.10546641
76	0xbdf359ff	-0.118824
77	0xbe84818e	-0.25880092
78	0x3d9f7b26	0.077871606
79	0xbdb9d05a	-0.09072943
80	0xbda32a52	-0.07967056
81	0x3dd042cc	0.101689905
82	0xbda06570	-0.07831848
83	0xbc20a128	-0.009804048
84	0x3e255ac8	0.16147912
85	0x3d1d354b	0.038380902
86	0x3e395f5d	0.18102784
87	0x3e0cb06f	0.13739179
88	0x3d5bc378	0.05365321
89	0x3d4629bb	0.04837964
90	0xbe78ca9c	-0.2429604
91	0x3dd24007	0.102661185
92	0xbd1b2a10	-0.03788191
93	0xbd639ae1	-0.055567626
94	0xbdca5d5f	-0.098810904
95	0xbd6e4f55	-0.058181126
96	0xbec5404a	-0.3852561
97	0x3e882c71	0.26596406
98	0xbe6f9963	-0.23398356
99	0xbdb71f1d	-0.08941481
100	0xbd59912c	-0.053116962
101	0xbd1426ea	-0.036169924
102	0xbd417bdc	-0.047237262
103	0x3df14908	0.11781508
104	0x3e0b636b	0.13612144
105	0x3c11cf07	0.008899457
106	0xbdeabdec	-0.11462006
107	0x3d876b41	0.06612254
108	0x3e57792d	0.21042319
109	0x3d6b72fa	0.057482697
110	0x3e16d40d	0.14729328
111	0xbe2f573d	-0.17123123
112	0x3e067192	0.13129261
113	0x3d28bc4b	0.041195195
114	0x3e0bf24f	0.13666652
115	0xbd3f83c9	-0.04675654
116	0x3dbb280b	0.09138497
117	0x3e34cdb2	0.17656592
118	0xbdb36238	-0.08758968
119	0xbe2e106d	-0.16998453
120	0x3dd2090f	0.10255634
121	0x3e09fb29	0.13474716
122	0x3c57b0a2	0.013164671
123	0x3e187645	0.14888866
124	0x3e1c3a53	0.15256624
125	0xbd491196	-0.049089037
126	0x3e31cb43	0.17362694
127	0x3d268a7f	0.040659424
128	0xbe13a94c	-0.1442005
129	0x3e0cdef8	0.13756931
130	0x3daceea4	0.084439546
131	0xbd0928c9	-0.03348616
132	0x3e71e745	0.23623379
133	0x3d9f8c84	0.07790473
134	0x3d5aef03	0.053450596
135	0xbe32f757	-0.17477165
136	0xbeca5c0f	-0.3952336
137	0x3df7412d	0.12072978
138	0x3ea863ea	0.32888728
139	0xbe571048	-0.21002305

bias f4 [70]
0	0x3d8a3ccb	0.067498766
1	0xbd4391bb	-0.0477464
2	0x3cf7c938	0.030247316
3	0xbd087339	-0.03331301
4	0x3d2ebda6	0.04266133
5	0x3ca2eb15	0.019887486
6	0x3c0fb1bd	0.008770403
7	0xbd327ec1	-0.043577913
8	0xbd03effc	-0.03221129
9	0xbd8fe665	-0.07026366
10	0xbdd5fd48	-0.104487
11	0xbc73a91f	-0.014871865
12	0x3d23c57a	0.03998325
13	0xbc9c1092	-0.01905087
14	0xbd73cf28	-0.05952373
15	0x3c49b493	0.012311119
16	0xbca49ce6	-0.020094346
17	0x3d465a6d	0.04842608
18	0xbd5d0966	-0.05396404
19	0x3cd999c4	0.026562579
20	0xbd8b1f02	-0.06793024
21	0x3b830e51	0.0039995094
22	0x3da8a506	0.08234601
23	0x3d9f9511	0.07792104
24	0xbd3d4dd8	-0.046216816
25	0x3cc5b217	0.024132771
26	0x3d375346	0.04475715
27	0x3d1c2bd1	0.038127724
28	0xbd5d9ea3	-0.054106366
29	0x3de4d76b	0.111739
30	0x3d807cd6	0.062738106
31	0x3d6709f9	0.056405995
32	0xbd423fbd	-0.047424067
33	0xbd6c4096	-0.05767878
34	0x3d046071	0.032318536
35	0x3d633217	0.05546769
36	0x3d1ccbdb	0.03828035
37	0xbd459e00	-0.048246384
38	0xbd6a3936	-0.057183467
39	0xbd630292	-0.055422373
40	0x3d0fa7ea	0.035072245
41	0x3d7ccbea	0.061717905
42	0xbd128998	-0.03577575
43	0x3c5f1fc1	0.013618411
44	0xbd387251	-0.045030896
45	0xbd33c68b	-0.043890517
46	0xbc0fb2af	-0.008770629
47	0x3d6d352e	0.057912044
48	0xbd41c30d	-0.047305156
49	0x3c9d31e5	0.01918883
50	0xbc459946	-0.012060469
51	0x3cb3fb29	0.021970348
52	0xbd48ad31	-0.048993293
53	0x3dab4e80	0.08364582
54	0x3c53c2e0	0.01292488
55	0xbcbffb6d	-0.023435319
56	0xbdcd7a67	-0.10033112
57	0xbcda78d2	-0.02666894
58	0x3c725593	0.01479091
59	0x3cf1f530	0.02953586
60	0xbca2e7bc	-0.01988589
61	0x3c210988	0.009828933
62	0xbd410f2d	-0.047133613
63	0xbd592a63	-0.05301894
64	0x3d793abf	0.06084704
65	0xbd2ef451	-0.042713467
66	0xbccdb132	-0.025108907
67	0xbc444a54	-0.011980612
68	0xbd0ae894	-0.03391321
69	0x3c8c46a4	0.017123528

weight f4 [70, 70]
0	0x3cce2589	0.025164383
1	0xbe411df2	-0.1885908
2	0x3ce81bcc	0.028333567
3	0xbdb006ae	-0.08595024
4	0x3d46f76a	0.048575796
5	0xbc918132	-0.0177618
6	0xbdcd5907	-0.10026746
7	0xbe1858e1	-0.14877655
8	0xbe72e06f	-0.23718427
9	0x3e1e97e7	0.15487634
10	0x3df58dc6	0.11989932
11	0xbe122e33	-0.14275436
12	0xbe861079	-0.26184443
13	0xbc9d1606	-0.01917554
14	0xbd229152	-0.03968937
15	0xbe0f5484	-0.13997084
16	0xbdc0de2b	-0.09417375
17	0x3d25dd7b	0.040494423
18	0xbd0dfd5d	-0.034665454
19	0x3e4da26b	0.20081489
20	0xbc7bdebd	-0.015372929
21	0x3dfa1159	0.1221034
22	0x3e70790e	0.23483679
23	0xbd9892d5	-0.07449881
24	0xbd24cceb	-0.040234488
25	0xba70c8fd	-0.0009185223
26	0x3d1cf36d	0.038318086
27	0xbe03188a	-0.1280233
28	0xbe0cbdd7	-0.13744293
29	0x3e22b8c7	0.158908
30	0x3d9f70ec	0.0778521
31	0x3d3d8aab	0.046274822
32	0xbd2851d3	-0.04109366
33	0xbe544af7	-0.20731722
34	0x3e00f2f2	0.12592676
35	0x3deeca78	0.116597116
36	0x3eaf50de	0.34241384
37	0x3da5a6f5	0.08088485
38	0xbe43462d	-0.19069739
39	0xbce9f7ec	-0.028560601
40	0x3da657f4	0.081222445
41	0x3c2b8586	0.010468846
42	0xbe5653a9	-0.20930351
43	0x3e4214aa	0.18953195
44	0x3ca57ec1	0.020202043
45	0x3cceae3a	0.025229562
46	0xbe004d23	-0.12529425
47	0xbc55594b	-0.013021777
48	0xbe4fbd91	-0.20287158
49	0x3e57bf60	0.21069098
50	0xbe9441e4	-0.2895652
51	0xbe2c945a	-0.16853467
52	0xbccf6f15	-0.025321523
53	0x3c9aca0a	0.018895168
54	0x3e0ef719	0.13961448
55	0xbd3e8469	-0.046512995
56	0xbe7d27a0	-0.24722147
57	0xbe0133af	-0.12617372
58	0xbe41dd90	-0.18932176
59	0x3e4026e7	0.1876484
60	0x3b0a49c8	0.0021101106
61	0x3c071d0c	0.008246671
62	0xbdda5204	-0.106601745
63	0x3d457678	0.048208684
64	0x3e0b2824	0.13589531
65	0x3e0557e5	0.1302181
66	0xbe01f883	-0.12692456
67	0xbd40f2e7	-0.04710665
68	0x3d7f68aa	0.062355675
69	0xbe294be0	-0.1653285
70	0x3e491c2c	0.19639653
71	0xbce85fbb	-0.02836596
72	0x3e6b6e9f	0.22991417
73	0xbdf23dd7	-0.11828201
74	0x3d8df8a3	0.06932189
75	0x3e5a3759	0.21310176
76	0x3dbc099e	0.09181522
77	0xbc2d076a	-0.01056085
78	0x3debcdc3	0.11513855
79	0x3d11ebf0	0.0356254
80	0xbe87a3eb	-0.26492247
81	0xbeb15949	-0.34638432
82	0x3e9abc0d	0.30221596
83	0xbd9ae482	-0.07563116
84	0xbd1c14da	-0.038105823
85	0xbe0ee3c3	-0.13954072
86	0xbde0680d	-0.10957346
87	0x3daf027c	0.08545396
88	0xbe42af26	-0.19012126
89	0x3e4de6dc	0.20107597
90	0xbd575791	-0.052573744
91	0xbd7231e3	-0.059129607
92	0x3c87dbf5	0.016584376
93	0xbe2483cf	-0.16065906
94	0xbe023a2d	-0.12717505
95	0x3cab179f	0.020885287
96	0x3ddf87bb	0.109145604
97	0xbc96fb12	-0.018430267
98	0xbcab2bf4	-0.020894982
99	0x3dc53833	0.0962986
100	0xbe182b5b	-0.14860289
101	0xbd8e3d3a	-0.06945272
102	0xbe5f2601	-0.21791841
103	0xbd874393	-0.06604686
104	0xbdeaa98a	-0.11458118
105	0xbe30efdd	-0.17279
106	0xbd51cb51	-0.05121929
107	0x3e7aa3c7	0.24476539
108	0x3dd951dc	0.106113166
109	0xbe3259cd	-0.17417069
110	0x3d5d8dde	0.054090373
111	0x3e201c97	0.15635906
112	0xbdde17f6	-0.10844414
113	0xbda3a3b5	-0.07990209
114	0xbe00f2ef	-0.12592672
115	0x3e7df1c6	0.2479926
116	0x3e5ac17e	0.21362874
117	0xbe3b67bf	-0.18301295
118	0x3d5a2478	0.053257436
119	0xbd769fcd	-0.06021099
120	0x3dd3186a	0.10307391
121	0x3e583a73	0.21116047
122	0x3cf04224	0.029328413
123	0x3ed8dbc5	0.4235517
124	0x3d3764ab	0.04477374
125	0x3d893f8f	0.06701576
126	0xbe21a4f3	-0.1578558
127	0xbe40ef23	-0.18841223
128	0xbec00331	-0.37502435
129	0xbd764446	-0.060123704
130	0x3cc426ce	0.023944285
131	0x3e2171f2	0.15766123
132	0x3dd0072a	0.101576164
133	0x3dfe0927	0.124040894
134	0x3b534af5	0.0032240723
135	0x3d0a9e98	0.033842653
136	0x3df25a2f	0.118336074
137	0x3d0eefa2	0.0348965
138	0xbe21de77	-0.1580752
139	0x3cb80d44	0.022467263
140	0x3def2406	0.11676793
141	0x3e527c64	0.20555264
142	0xbc48b8a5	-0.012251054
143	0x3da6b27c	0.08139512
144	0x3dd97924	0.10618809
145	0xbddeae96	-0.108731434
146	0x3cdbfbc4	0.02685345
147	0x3dc6704d	0.096893884
148	0x3d56a5bc	0.05240415
149	0xbe469f8f	-0.19396804
150	0xbe01067d	-0.12600131
151	0xbe34344f	-0.17598079
152	0x3e1f348d	0.1554739
153	0x3d67c74a	0.05658654
154	0x3e12d512	0.14339092
155	0x3e0dd96f	0.13852476
156	0x3dfa9c4c	0.122368425
157	0x3e4b8d4e	0.19878122
158	0xbded9047	-0.11599784
159	0x3dfb4850	0.12269652
160	0xbd9735a0	-0.07383275
161	0x3d91b005	0.07113651
162	0xbc1d0127	-0.009582794
163	0x3e27f63a	0.16402522
164	0xbc34123e	-0.010990677
165	0xbdfc074b	-0.123060785
166	0x3e4ff30f	0.20307563
167	0x38d8687e	0.00010319146
168	0x3c2529f9	0.010080808
169	0xbd190654	-0.03735955
170	0x3e41698f	0.18887924
171	0xbd2fc207	-0.04290965
172	0xbc6ae8ae	-0.014337702
173	0x3dab08e6	0.083513066
174	0x3db9af05	0.090665855
175	0x3ea1f669	0.3163331
176	0xbc3c851f	-0.011506348
177	0xbe2c17a0	-0.16805887
178	0x3e58a3aa	0.21156183
179	0xbe5d1e03	-0.2159348
180	0xbd8e815d	-0.06958268
181	0xbd12c769	-0.035834704
182	0xbca9bdd6	-0.020720404
183	0xbd915c8e	-0.070977315
184	0x3e2d9b6c	0.1695382
185	0x3e1eec7a	0.15519896
186	0x3d2e5a5d	0.042566646
187	0x3e4f9339	0.20271005
188	0xbc70850a	-0.0146801565
189	0x3da5df51	0.08099235
190	0x3e334a2b	0.17508762
191	0x3cb90128	0.02258356
192	0x3d8b89e3	0.06813409
193	0xbd772707	-0.060339954
194	0xbdae6038	-0.08514446
195	0xbdd10e7a	-0.10207839
196	0xbda0f040	-0.07858324
197	0xbdaf2955	-0.08552805
198	0x3d22e62d	0.039770294
199	0xbd7af9c5	-0.061273355
200	0x3c199c50	0.009375647
201	0xbabd1ab0	-0.0014427509
202	0x3ca9ae87	0.020713104
203	0xbdb68fcf	-0.08914148
204	0x3e263a35	0.16233142
205	0xbda9be80	-0.08288288
206	0xbd9d1e17	-0.07671755
207	0xbd6b5a69	-0.05745927
208	0x3dc6da87	0.097096495
209	0xbd45e0ef	-0.048310217
210	0xbda02b1e	-0.07820724
211	0x3ccc9185	0.024971733
212	0xbe3147d6	-0.1731256
213	0xbd30fe8e	-0.043211512
214	0xbdad0487	-0.08448129
215	0x3d7b9eb1	0.061430637
216	0xbe7f1e62	-0.24913934
217	0xbe7dd1c4	-0.2478705
218	0xbdb1ef65	-0.08688239
219	0x3e77ec93	0.2421134
220	0x3bd62058	0.0065346174
221	0x3cf2992f	0.02961406
222	0xbdded69e	-0.10880779
223	0xbe38520a	-0.18000045
224	0x3de65bde	0.11247991
225	0xbe216fbb	-0.15765278
226	0x3c6b0ffa	0.014347071
227	0xbd1e9c3c	-0.038723215
228	0x3e006283	0.12537579
229	0xbe4e3774	-0.20138341
230	0xbdc9e87c	-0.09858796
231	0x3c0e8bb9	0.008700305
232	0xbdbc2021	-0.091858156
233	0x3dbc6248	0.09198433
234	0x3c824add	0.015904838
235	0xbdc9de36	-0.098568365
236	0xbd5854a1	-0.052815083
237	0xbe17270a	-0.14760986
238	0x3d4fd15d	0.050736774
239	0xbdc5e769	-0.096632786
240	0xbdacc1fa	-0.084354356
241	0xbe09f62e	-0.13472816
242	0x3d118467	0.03552666
243	0x3de9aa6c	0.114094585
244	0x3d38b747	0.045096662
245	0xbdbd8219	-0.0925333
246	0x3ca1b309	0.01973869
247	0x3d424d94	0.047437266
248	0xbd666df0	-0.05625719
249	0xbe3aa97c	-0.18228716
250	0xbebe9a8a	-0.3722728
251	0x3d8ebfdc	0.06970188
252	0xbd9ffa40	-0.07811403
253	0xbdb81990	-0.08989251
254	0x3e984db5	0.29746786
255	0x3c78fc3a	0.015196854

bias f4 [70]
0	0x3d0d980b	0.034568828
1	0x3cb8e57e	0.022570368
2	0x3a42b4fd	0.0007427482
3	0xbd3a6121	-0.045502786
4	0x3be98657	0.0071266103
5	0xbd85b1c0	-0.06528044
6	0x3c3ca91f	0.011514931
7	0xbd627c1c	-0.05529414
8	0xbd6f1ef4	-0.05837913
9	0x3c640b8c	0.013918769
10	0x3cffd1e7	0.031228019
11	0xbcd6526a	-0.026162345
12	0x3d6902da	0.056887485
13	0x3c79faf0	0.015257582
14	0xbb034c62	-0.0020034541
15	0xbce59bd9	-0.028028416
16	0xbd27c713	-0.040961336
17	0x3cccfccf	0.025022892
18	0xbc8d2ca2	-0.017233197
19	0xbc0df90b	-0.0086653335
20	0x3b2ff0c6	0.0026846393
21	0x3d4543fc	0.048160538
22	0xbbaf3a2d	-0.0053475113
23	0xbd5e7d13	-0.0543185
24	0xba98cbee	-0.0011657455
25	0xbbfca834	-0.007710481
26	0x3ca0ab85	0.019613037
27	0xbd6f02d4	-0.058352306
28	0x3d004aa7	0.031321194
29	0x3a3a386c	0.00071037444
30	0x3c721861	0.01477632
31	0x3d6b7a14	0.05748947
32	0xbcf5d27d	-0.030007595
33	0xbc64ecf4	-0.01397251
34	0x3b9648c1	0.0045863097
35	0xbd4a94e7	-0.04945841
36	0xbc50aeba	-0.012736971
37	0x3c011e98	0.007880829
38	0xbadabebe	-0.0016688926
39	0xbbeec61b	-0.0072867996
40	0x3c1ca856	0.009561619
41	0x3db82dcc	0.0899311
42	0xbc053a41	-0.008131565
43	0x3bb67d61	0.0055691455
44	0xbc901fe2	-0.017593328
45	0x3d3a2117	0.045441713
46	0x3ba530a5	0.0050411993
47	0x3bf5e510	0.007504113
48	0x3caebaaf	0.021329252
49	0xbc131e11	-0.008979336
50	0xbcca55fa	-0.0246992
51	0x3c630616	0.0138564315
52	0xbd211ba6	-0.03933301
53	0xbb57e9a7	-0.0032945664
54	0x3c89d379	0.01682447
55	0xbcf9e633	-0.030505275
56	0xbb86b116	-0.0041104658
57	0xbd0993a6	-0.033588074
58	0x3ce49db2	0.027907226
59	0xbcddeaee	-0.027089562
60	0xbc35c6ef	-0.011094793
61	0x3cb54b17	0.022130532
62	0xbc151625	-0.009099518
63	0x3d31ba21	0.043390397
64	0xbc1126f2	-0.008859383
65	0x3b917d2d	0.004439971
66	0xba93081e	-0.0011217629
67	0x3c61932b	0.013767998
68	0xbc10fbde	-0.008849112
69	0xbcdcb675	-0.026942471

weight f4 [70, 70]
0	0xbdadbb1d	-0.08482955
1	0x3e3b51a3	0.1829286
2	0xbdb4f913	-0.0883657
3	0x3dffcc5c	0.1249015
4	0x3e838cc0	0.2569332
5	0xbd7bc38e	-0.061465792
6	0x3e07c330	0.13258052
7	0xbe44e77a	-0.19228926
8	0x3daa7a00	0.08324051
9	0x3de493fb	0.111610375
10	0xbc770d42	-0.0150788445
11	0x3ddd1709	0.10795409
12	0x3da3502e	0.079742774
13	0xbe47cf94	-0.19512779
14	0xbe2aedf4	-0.16692334
15	0xbe181a8a	-0.14853874
16	0xbcf98605	-0.030459413
17	0x3e302c9f	0.17204522
18	0xbe27794d	-0.16354866
19	0xbde8398d	-0.11339102
20	0x3d453f52	0.04815609
21	0x3e14f55a	0.14546719
22	0xbd040b31	-0.032237235
23	0x3de451bc	0.11148402
24	0x3d2c58fb	0.042077046
25	0x3ce78ee6	0.028266381
26	0xbe3aeddf	-0.18254803
27	0x3defa141	0.117006786
28	0xbbaafd30	-0.0052181706
29	0xbd0c01e6	-0.034181498
30	0x3d7ccce4	0.061718836
31	0x3db7c4fb	0.08973118
32	0xbe23268f	-0.15932678
33	0x3d5f2a33	0.054483604
34	0xbdabb635	-0.083843626
35	0xbd41b6dd	-0.047293533
36	0xbdd71605	-0.10502247
37	0xbd034977	-0.032052483
38	0xbde4ae65	-0.111660756
39	0x3d15c9dd	0.036569465
40	0x3dfabf6c	0.12243542
41	0xbe868552	-0.2627359
42	0xbcb0e63d	-0.021594161
43	0x3c822b85	0.015889892
44	0xbde3e9f5	-0.11128608
45	0x3ecd1d52	0.40061432
46	0x3ec1f4ee	0.3788218
47	0x3e31e082	0.17370799
48	0x3dc543e3	0.09632089
49	0xbcbdcd1c	-0.023169093
50	0x3e0cd85c	0.1375441
51	0x3d45a0a5	0.048248906
52	0xbe8f08a3	-0.27936277
53	0xbddca364	-0.10773352
54	0x3e4fa65b	0.20278303
55	0x3da1e834	0.07905617
56	0x3dabde27	0.083919816
57	0xbe2b4aac	-0.16727704
58	0x3c3b3a2e	0.011427445
59	0xbe292473	-0.1651781
60	0xbd53178a	-0.05153612
61	0x3daf90a0	0.08572507
62	0x3d20f78b	0.039298575
63	0xbd9a4c7a	-0.07534118
64	0xbd0469f0	-0.032327592
65	0xba91e2dc	-0.0011130231
66	0xbddee0f7	-0.108827524
67	0xbdeb42e2	-0.11487366
68	0xbd5f9ac5	-0.05459096
69	0x3d8f3b08	0.06993681
70	0xbd65784d	-0.05602293
71	0xbecc6b9c	-0.3992585
72	0x3e76b05e	0.24090716
73	0x3e2eafbe	0.17059228
74	0xbd4011d5	-0.046892006
75	0x3e33ba04	0.17551428
76	0xbd59cb9c	-0.053172693
77	0x3e5e9825	0.21737726
78	0x3d6cfcce	0.05785828
79	0xbd4969ba	-0.049173094
80	0x3cce9feb	0.02522274
81	0xbb56d716	-0.003278201
82	0x3d5af9e9	0.05346099
83	0x3dfc51b5	0.12320272
84	0xbaba856b	-0.0014230435
85	0x3d9a05c2	0.075206295
86	0xbe2fec72	-0.1718004
87	0xbd1ba8c5	-0.038002748
88	0x3dcf79db	0.10130664
89	0x3de1a88f	0.11018478
90	0x3d4a9137	0.049454894
91	0x3d144a3b	0.036203604
92	0xbe5529e4	-0.20816761
93	0x3e65b6a2	0.2243295
94	0x3cbc2e06	0.022971164
95	0xbdc205df	-0.09473776
96	0xbd382a1f	-0.044962045
97	0xbe149832	-0.14511183
98	0xbd3a2c4d	-0.045452405
99	0x3d9b16c1	0.07572699
100	0xbd460a68	-0.048349768
101	0xbc896012	-0.016769443
102	0x3e70f907	0.23532496
103	0x3e4e3031	0.20135571
104	0x3e82b21d	0.25526515
105	0x3c0abed5	0.008468349
106	0xbdd22f2b	-0.10262903
107	0x3d7a0c52	0.061046906
108	0xbe57d834	-0.21078569
109	0xbde3063e	-0.11085175
110	0x3d8bc0d5	0.06823889
111	0xbda736a6	-0.0816472
112	0xbe7b37c8	-0.24532998
113	0xbb523410	-0.0032074489
114	0xbe0d0503	-0.13771443
115	0x3e387b7a	0.18015853
116	0xbd9c4d3e	-0.0763192
117	0xbdb23363	-0.087012075
118	0xbdb8ca8a	-0.09023006
119	0x3cb23094	0.02175168
120	0x3e334aaf	0.17508958
121	0xbe59d1d7	-0.21271454
122	0x3cf0c7a9	0.02939208
123	0x3bec646f	0.007214121
124	0xbe07f9b3	-0.13278846
125	0xbdf18901	-0.117937095
126	0xbdff4a06	-0.12465291
127	0xbd206e98	-0.03916797
128	0x3d28ebfb	0.041240674
129	0xbdfff84c	-0.12498531
130	0xbd9e6a9f	-0.0773518
131	0xbd5dbe4f	-0.05413657
132	0x3df3e464	0.119087964
133	0x3dda970d	0.10673342
134	0xbd9d4c0a	-0.07680519
135	0xbe04341a	-0.129105
136	0xbe37bd08	-0.17943203
137	0x3e0db3f7	0.13838182
138	0x3e2e3ae2	0.1701465
139	0x3da2ab7a	0.07942863
140	0xbdca2554	-0.09870401
141	0x3e1ac237	0.1511315
142	0xbe1995f2	-0.14998606
143	0x3c886e1d	0.016654069
144	0xbdc4dfd9	-0.09613008
145	0x39d03d1d	0.00039718385
146	0x3e5707a6	0.20999011
147	0x3df7862d	0.12086139
148	0xbe40e381	-0.18836786
149	0x3dba4784	0.09095672
150	0xbdb46e92	-0.08810152
151	0xbe3ee106	-0.18640527
152	0xbe199e8e	-0.1500189
153	0x3c8e9864	0.01740665
154	0x3dc02ca5	0.09383515
155	0xbe045fd8	-0.12927186
156	0xbcf01099	-0.02930479
157	0xbe9d70f4	-0.3075024
158	0x3d31e6df	0.043433066
159	0x3c5fba13	0.013655203
160	0x3da35f20	0.07977128
161	0x3ba1f2c5	0.0049422705
162	0x3d99cd02	0.07509805
163	0x3e12be16	0.14330325
164	0xbd20f37e	-0.039294712
165	0xbe1f3cd7	-0.15550552
166	0x3dc82a8a	0.09773739
167	0x3df4dac0	0.11955786
168	0xbe5d464c	-0.21608847
169	0x3d1f912f	0.038956817
170	0xbd25291d	-0.04032241
171	0x3c076297	0.008263252
172	0xbd0b9b5e	-0.034083717
173	0x3e51eb44	0.20499903
174	0xbdfa6a3d	-0.122272946
175	0xbe0187af	-0.12649415
176	0x3d916c4c	0.07100734
177	0xbe298d83	-0.16557889
178	0x3c9c8b77	0.01910947
179	0x3c4a64e8	0.0123531595
180	0x3e0f494d	0.13992806
181	0xbe1bb8ad	-0.15207167
182	0xbdbd887c	-0.09254548
183	0xbe6bd130	-0.23029017
184	0x3df0c183	0.117556594
185	0xbcf846ef	-0.030307261
186	0xbd9f45a5	-0.077769555
187	0x3e448936	0.19192967
188	0xbda9933b	-0.08280035
189	0x3cf53589	0.029932754
190	0x3e18b350	0.14912152
191	0x3c6d9233	0.014500189
192	0x3dd80442	0.10547687
193	0x3de5d4e8	0.11222249
194	0xbde5f815	-0.112289585
195	0x3e0fe82e	0.14053413
196	0x3de01aab	0.109425865
197	0x3e5fe55e	0.2186484
198	0xbe48c081	-0.19604684
199	0x3d8e2c0c	0.06941995
200	0x3c92d608	0.017924324
201	0x3d899a8e	0.06718932
202	0x3e09f9f9	0.13474263
203	0xbc13aabc	-0.009012874
204	0xbe5ddc29	-0.21666016
205	0x3d9a7da0	0.07543492
206	0xbdca0933	-0.09865036
207	0xbd28d881	-0.0412221
208	0x3e650bf2	0.22367838
209	0x3c94691d	0.018116528
210	0x3dba307c	0.09091279
211	0xbd45cf18	-0.048293203
212	0xbe5cec7e	-0.2157459
213	0xbd0f222d	-0.034944702
214	0x3e1c170f	0.15243171
215	0xbcba966e	-0.022776809
216	0xbdb3c276	-0.08777325
217	0xbe527895	-0.20553811
218	0x3df3b687	0.11900049
219	0x3e432c6a	0.19059911
220	0xbe1c432b	-0.15259998
221	0xbba950b9	-0.0051670936
222	0x3e074b30	0.13212276
223	0x3d97c9fa	0.07411571
224	0x3ac3a767	0.0014927209
225	0xbb1de6cf	-0.0024093871
226	0x3dd8665b	0.10566398
227	0x3d2bf7b4	0.041984275
228	0xbd84a61d	-0.06476996
229	0xbe481689	-0.19539846
230	0x3da9aa4c	0.08284435
231	0xbc4d3f05	-0.012527232
232	0x3e4cafb7	0.19988905
233	0x3df21bb0	0.11821687
234	0xbd80df91	-0.06292642
235	0x3bb839a3	0.005622105
236	0xbd4f1d5a	-0.0505651
237	0xbda671df	-0.08127188
238	0xbe299d8a	-0.16564003
239	0xbd441f19	-0.04788122
240	0x3b5127b4	0.0031914534
241	0x3cde87c5	0.02716435
242	0xbe815b4b	-0.25264964
243	0xbb1b61d3	-0.002370943
244	0xbda596e2	-0.08085419
245	0xbda38063	-0.07983472
246	0xbd39a744	-0.045325533
247	0x3e3edf5c	0.18639892
248	0xbd31833c	-0.043338045
249	0x3d47a324	0.048739567
250	0x3d8c0483	0.06836798
251	0x3cb9125a	0.022591759
252	0xbbb83b7c	-0.0056223255
253	0xbbee4100	-0.007270932
254	0xbcb8cabf	-0.022557614
255	0x3df8c1b1	0.12146319

bias f4 [70]
0	0x3c0d6e73	0.00863229
1	0xbc75f8b4	-0.015012909
2	0xbd13c14a	-0.036073007
3	0xbc2ead59	-0.0106614465
4	0xbc6e4175	-0.014541973
5	0xbb9b535a	-0.004740161
6	0x3b96933f	0.00459519
7	0x3c63d011	0.013904587
8	0xbc57df53	-0.013175803
9	0x3ab538c3	0.001382612
10	0xbc428d43	-0.0118745
11	0xbcc0ca87	-0.023534073
12	0xbbc3e500	-0.0059782267
13	0x3b4c9031	0.0031213874
14	0x3cc843a3	0.024446314
15	0xbbbb26ac	-0.005711397
16	0xbbe88d1e	-0.0070969006
17	0x3cb24dee	0.021765675
18	0x3cd1dc43	0.025617724
19	0xbca7de32	-0.020491693
20	0xbc19c163	-0.009384486
21	0x3ce17c76	0.027525168
22	0x3c8ff3dc	0.017572336
23	0x390cda8f	0.0001343286
24	0x39c6f6ad	0.0003794929
25	0xbc681d12	-0.014167087
26	0x3c16e857	0.009210668
27	0xbcc363f1	-0.023851367
28	0xbca9026a	-0.020631034
29	0xbc9eb95a	-0.019375492
30	0x3b77dea9	0.0037821925
31	0x3c948159	0.018128084
32	0x3bff174a	0.0077847587
33	0x3b702c5b	0.0036647532
34	0x3aabaa4d	0.0013097018
35	0xbc7ae1f3	-0.01531266
36	0x3d0105ae	0.031499557
37	0x3a860bf2	0.0010226949
38	0xbc2ba004	-0.010475162
39	0xbbb07925	-0.0053855353
40	0xbb8e3322	-0.0043395916
41	0x3cece42e	0.028917398
42	0x3cc79102	0.024361137
43	0x3c892c62	0.016744796
44	0xbc4c2a2f	-0.012461229
45	0xbd309b39	-0.04311678
46	0xbb987e74	-0.0046537463
47	0x3c7bcd94	0.015368838
48	0x3b6b716e	0.0035925764
49	0x3bd3203a	0.0064430507
50	0x3d89b4b1	0.06723917
51	0x3a719cba	0.00092167745
52	0x3c056c53	0.008143502
53	0xbbb6ceb7	-0.0055788415
54	0xbbaee758	-0.005337637
55	0xbd2c4340	-0.042056322
56	0x3c73197b	0.014837618
57	0xbc88d5a5	-0.016703436
58	0x3c901451	0.017587813
59	0xbd8ee716	-0.0697767
60	0xbb404b8d	-0.0029341907
61	0xbd918c23	-0.07106807
62	0x3c72c228	0.014816798
63	0xbbe0d83c	-0.0068617146
64	0x3b22cbf1	0.0024840797
65	0xbc00de3f	-0.007865488
66	0x3c6c0176	0.014404645
67	0xbb805261	-0.0039160703
68	0x3be16902	0.006878973
69	0x3ba3db41	0.0050005023
