pbc_examples/saved_models/convection_beta-1.0_layers-50,50,50,50,1_L-1e-05_WD-0_init-normal_batch_size256.pt (torch, 114093 bytes, 36 tensors)

x_u f4 [256, 1]
0	0x00000000	0.0
1	0x3cc90fdb	0.024543693
2	0x3d490fdb	0.049087387
3	0x3d96cbe4	0.07363108
4	0x3dc90fdb	0.09817477
5	0x3dfb53d1	0.12271846
6	0x3e16cbe4	0.14726216
7	0x3e2feddf	0.17180584
8	0x3e490fdb	0.19634955
9	0x3e6231d6	0.22089323
10	0x3e7b53d1	0.24543692
11	0x3e8a3ae6	0.2699806
12	0x3e96cbe4	0.2945243
13	0x3ea35ce2	0.319068
14	0x3eafeddf	0.3436117
15	0x3ebc7edd	0.3681554
16	0x3ec90fdb	0.3926991
17	0x3ed5a0d8	0.41724277
18	0x3ee231d6	0.44178647
19	0x3eeec2d4	0.46633017
20	0x3efb53d1	0.49087384
21	0x3f03f267	0.5154175
22	0x3f0a3ae6	0.5399612
23	0x3f108365	0.5645049
24	0x3f16cbe4	0.5890486
25	0x3f1d1463	0.6135923
26	0x3f235ce2	0.638136
27	0x3f29a560	0.6626797
28	0x3f2feddf	0.6872234
29	0x3f36365e	0.7117671
30	0x3f3c7edd	0.7363108
31	0x3f42c75c	0.7608545
32	0x3f490fdb	0.7853982
33	0x3f4f5859	0.8099418
34	0x3f55a0d8	0.83448553
35	0x3f5be957	0.85902923
36	0x3f6231d6	0.88357294
37	0x3f687a55	0.90811664
38	0x3f6ec2d4	0.93266034
39	0x3f750b52	0.957204
40	0x3f7b53d1	0.9817477
41	0x3f80ce28	1.0062914
42	0x3f83f267	1.030835
43	0x3f8716a7	1.0553788
44	0x3f8a3ae6	1.0799224
45	0x3f8d5f26	1.1044662
46	0x3f908365	1.1290098
47	0x3f93a7a5	1.1535536
48	0x3f96cbe4	1.1780972
49	0x3f99f023	1.2026409
50	0x3f9d1463	1.2271847
51	0x3fa038a2	1.2517283
52	0x3fa35ce2	1.276272
53	0x3fa68121	1.3008157
54	0x3fa9a560	1.3253593
55	0x3facc9a0	1.3499031
56	0x3fafeddf	1.3744467
57	0x3fb3121f	1.3989905
58	0x3fb6365e	1.4235342
59	0x3fb95a9e	1.4480779
60	0x3fbc7edd	1.4726216
61	0x3fbfa31c	1.4971652
62	0x3fc2c75c	1.521709
63	0x3fc5eb9b	1.5462526
64	0x3fc90fdb	1.5707964
65	0x3fcc341a	1.59534
66	0x3fcf5859	1.6198837
67	0x3fd27c99	1.6444274
68	0x3fd5a0d8	1.6689711
69	0x3fd8c518	1.6935148
70	0x3fdbe957	1.7180585
71	0x3fdf0d97	1.7426022
72	0x3fe231d6	1.7671459
73	0x3fe55615	1.7916895
74	0x3fe87a55	1.8162333
75	0x3feb9e94	1.8407769
76	0x3feec2d4	1.8653207
77	0x3ff1e713	1.8898643
78	0x3ff50b52	1.914408
79	0x3ff82f92	1.9389517
80	0x3ffb53d1	1.9634954
81	0x3ffe7811	1.9880391
82	0x4000ce28	2.0125828
83	0x40026048	2.0371265
84	0x4003f267	2.06167
85	0x40058487	2.0862138
86	0x400716a7	2.1107576
87	0x4008a8c7	2.1353014
88	0x400a3ae6	2.1598449
89	0x400bcd06	2.1843886
90	0x400d5f26	2.2089324
91	0x400ef145	2.233476
92	0x40108365	2.2580197
93	0x40121585	2.2825634
94	0x4013a7a5	2.3071072
95	0x401539c4	2.3316507
96	0x4016cbe4	2.3561945
97	0x40185e04	2.3807383
98	0x4019f023	2.4052818
99	0x401b8243	2.4298255
100	0x401d1463	2.4543693
101	0x401ea683	2.478913
102	0x402038a2	2.5034566
103	0x4021cac2	2.5280004
104	0x40235ce2	2.552544
105	0x4024ef01	2.5770876
106	0x40268121	2.6016314
107	0x40281341	2.6261752
108	0x4029a560	2.6507187
109	0x402b3780	2.6752625
110	0x402cc9a0	2.6998062
111	0x402e5bc0	2.72435
112	0x402feddf	2.7488935
113	0x40317fff	2.7734373
114	0x4033121f	2.797981
115	0x4034a43e	2.8225245
116	0x4036365e	2.8470683
117	0x4037c87e	2.871612
118	0x40395a9e	2.8961558
119	0x403aecbd	2.9206994
120	0x403c7edd	2.9452431
121	0x403e10fd	2.969787
122	0x403fa31c	2.9943304
123	0x4041353c	3.0188742
124	0x4042c75c	3.043418
125	0x4044597c	3.0679617
126	0x4045eb9b	3.0925052
127	0x40477dbb	3.117049
128	0x40490fdb	3.1415927
129	0x404aa1fa	3.1661363
130	0x404c341a	3.19068
131	0x404dc63a	3.2152238
132	0x404f5859	3.2397673
133	0x4050ea79	3.264311
134	0x40527c99	3.2888548
135	0x40540eb9	3.3133986
136	0x4055a0d8	3.3379421
137	0x405732f8	3.362486
138	0x4058c518	3.3870296
139	0x405a5737	3.4115732
140	0x405be957	3.436117
141	0x405d7b77	3.4606607
142	0x405f0d97	3.4852045
143	0x40609fb6	3.509748
144	0x406231d6	3.5342917
145	0x4063c3f6	3.5588355
146	0x40655615	3.583379
147	0x4066e835	3.6079228
148	0x40687a55	3.6324666
149	0x406a0c75	3.6570103
150	0x406b9e94	3.6815538
151	0x406d30b4	3.7060976
152	0x406ec2d4	3.7306414
153	0x407054f3	3.755185
154	0x4071e713	3.7797287
155	0x40737933	3.8042724
156	0x40750b52	3.828816
157	0x40769d72	3.8533597
158	0x40782f92	3.8779035
159	0x4079c1b2	3.9024472
160	0x407b53d1	3.9269907
161	0x407ce5f1	3.9515345
162	0x407e7811	3.9760783
163	0x40800518	4.000622
164	0x4080ce28	4.0251656
165	0x40819738	4.0497093
166	0x40826048	4.074253
167	0x40832958	4.098797
168	0x4083f267	4.12334
169	0x4084bb77	4.147884
170	0x40858487	4.1724277
171	0x40864d97	4.1969714
172	0x408716a7	4.221515
173	0x4087dfb7	4.246059
174	0x4088a8c7	4.2706027
175	0x408971d6	4.295146
176	0x408a3ae6	4.3196898
177	0x408b03f6	4.3442335
178	0x408bcd06	4.3687773
179	0x408c9616	4.393321
180	0x408d5f26	4.417865
181	0x408e2836	4.4424086
182	0x408ef145	4.466952
183	0x408fba55	4.4914956
184	0x40908365	4.5160394
185	0x40914c75	4.540583
186	0x40921585	4.565127
187	0x4092de95	4.5896707
188	0x4093a7a5	4.6142144
189	0x409470b4	4.6387577
190	0x409539c4	4.6633015
191	0x409602d4	4.687845
192	0x4096cbe4	4.712389
193	0x409794f4	4.7369328
194	0x40985e04	4.7614765
195	0x40992714	4.7860203
196	0x4099f023	4.8105636
197	0x409ab933	4.8351073
198	0x409b8243	4.859651
199	0x409c4b53	4.884195
200	0x409d1463	4.9087386
201	0x409ddd73	4.9332824
202	0x409ea683	4.957826
203	0x409f6f92	4.9823694
204	0x40a038a2	5.006913
205	0x40a101b2	5.031457
206	0x40a1cac2	5.0560007
207	0x40a293d2	5.0805445
208	0x40a35ce2	5.105088
209	0x40a425f1	5.1296315
210	0x40a4ef01	5.1541753
211	0x40a5b811	5.178719
212	0x40a68121	5.203263
213	0x40a74a31	5.2278066
214	0x40a81341	5.2523503
215	0x40a8dc51	5.276894
216	0x40a9a560	5.3014374
217	0x40aa6e70	5.325981
218	0x40ab3780	5.350525
219	0x40ac0090	5.3750687
220	0x40acc9a0	5.3996124
221	0x40ad92b0	5.424156
222	0x40ae5bc0	5.4487
223	0x40af24cf	5.473243
224	0x40afeddf	5.497787
225	0x40b0b6ef	5.5223308
226	0x40b17fff	5.5468745
227	0x40b2490f	5.5714183
228	0x40b3121f	5.595962
229	0x40b3db2f	5.620506
230	0x40b4a43e	5.645049
231	0x40b56d4e	5.669593
232	0x40b6365e	5.6941366
233	0x40b6ff6e	5.7186804
234	0x40b7c87e	5.743224
235	0x40b8918e	5.767768
236	0x40b95a9e	5.7923117
237	0x40ba23ad	5.816855
238	0x40baecbd	5.8413987
239	0x40bbb5cd	5.8659425
240	0x40bc7edd	5.8904862
241	0x40bd47ed	5.91503
242	0x40be10fd	5.939574
243	0x40beda0d	5.9641175
244	0x40bfa31c	5.988661
245	0x40c06c2c	6.0132046
246	0x40c1353c	6.0377483
247	0x40c1fe4c	6.062292
248	0x40c2c75c	6.086836
249	0x40c3906c	6.1113796
250	0x40c4597c	6.1359234
251	0x40c5228b	6.1604667
252	0x40c5eb9b	6.1850104
253	0x40c6b4ab	6.209554
254	0x40c77dbb	6.234098
255	0x40c846cb	6.2586417

t_u f4 [256, 1]
0	0x00000000	0.0
1	0x00000000	0.0
2	0x00000000	0.0
3	0x00000000	0.0
4	0x00000000	0.0
5	0x00000000	0.0
6	0x00000000	0.0
7	0x00000000	0.0
8	0x00000000	0.0
9	0x00000000	0.0
10	0x00000000	0.0
11	0x00000000	0.0
12	0x00000000	0.0
13	0x00000000	0.0
14	0x00000000	0.0
15	0x00000000	0.0
16	0x00000000	0.0
17	0x00000000	0.0
18	0x00000000	0.0
19	0x00000000	0.0
20	0x00000000	0.0
21	0x00000000	0.0
22	0x00000000	0.0
23	0x00000000	0.0
24	0x00000000	0.0
25	0x00000000	0.0
26	0x00000000	0.0
27	0x00000000	0.0
28	0x00000000	0.0
29	0x00000000	0.0
30	0x00000000	0.0
31	0x00000000	0.0
32	0x00000000	0.0
33	0x00000000	0.0
34	0x00000000	0.0
35	0x00000000	0.0
36	0x00000000	0.0
37	0x00000000	0.0
38	0x00000000	0.0
39	0x00000000	0.0
40	0x00000000	0.0
41	0x00000000	0.0
42	0x00000000	0.0
43	0x00000000	0.0
44	0x00000000	0.0
45	0x00000000	0.0
46	0x00000000	0.0
47	0x00000000	0.0
48	0x00000000	0.0
49	0x00000000	0.0
50	0x00000000	0.0
51	0x00000000	0.0
52	0x00000000	0.0
53	0x00000000	0.0
54	0x00000000	0.0
55	0x00000000	0.0
56	0x00000000	0.0
57	0x00000000	0.0
58	0x00000000	0.0
59	0x00000000	0.0
60	0x00000000	0.0
61	0x00000000	0.0
62	0x00000000	0.0
63	0x00000000	0.0
64	0x00000000	0.0
65	0x00000000	0.0
66	0x00000000	0.0
67	0x00000000	0.0
68	0x00000000	0.0
69	0x00000000	0.0
70	0x00000000	0.0
71	0x00000000	0.0
72	0x00000000	0.0
73	0x00000000	0.0
74	0x00000000	0.0
75	0x00000000	0.0
76	0x00000000	0.0
77	0x00000000	0.0
78	0x00000000	0.0
79	0x00000000	0.0
80	0x00000000	0.0
81	0x00000000	0.0
82	0x00000000	0.0
83	0x00000000	0.0
84	0x00000000	0.0
85	0x00000000	0.0
86	0x00000000	0.0
87	0x00000000	0.0
88	0x00000000	0.0
89	0x00000000	0.0
90	0x00000000	0.0
91	0x00000000	0.0
92	0x00000000	0.0
93	0x00000000	0.0
94	0x00000000	0.0
95	0x00000000	0.0
96	0x00000000	0.0
97	0x00000000	0.0
98	0x00000000	0.0
99	0x00000000	0.0
100	0x00000000	0.0
101	0x00000000	0.0
102	0x00000000	0.0
103	0x00000000	0.0
104	0x00000000	0.0
105	0x00000000	0.0
106	0x00000000	0.0
107	0x00000000	0.0
108	0x00000000	0.0
109	0x00000000	0.0
110	0x00000000	0.0
111	0x00000000	0.0
112	0x00000000	0.0
113	0x00000000	0.0
114	0x00000000	0.0
115	0x00000000	0.0
116	0x00000000	0.0
117	0x00000000	0.0
118	0x00000000	0.0
119	0x00000000	0.0
120	0x00000000	0.0
121	0x00000000	0.0
122	0x00000000	0.0
123	0x00000000	0.0
124	0x00000000	0.0
125	0x00000000	0.0
126	0x00000000	0.0
127	0x00000000	0.0
128	0x00000000	0.0
129	0x00000000	0.0
130	0x00000000	0.0
131	0x00000000	0.0
132	0x00000000	0.0
133	0x00000000	0.0
134	0x00000000	0.0
135	0x00000000	0.0
136	0x00000000	0.0
137	0x00000000	0.0
138	0x00000000	0.0
139	0x00000000	0.0
140	0x00000000	0.0
141	0x00000000	0.0
142	0x00000000	0.0
143	0x00000000	0.0
144	0x00000000	0.0
145	0x00000000	0.0
146	0x00000000	0.0
147	0x00000000	0.0
148	0x00000000	0.0
149	0x00000000	0.0
150	0x00000000	0.0
151	0x00000000	0.0
152	0x00000000	0.0
153	0x00000000	0.0
154	0x00000000	0.0
155	0x00000000	0.0
156	0x00000000	0.0
157	0x00000000	0.0
158	0x00000000	0.0
159	0x00000000	0.0
160	0x00000000	0.0
161	0x00000000	0.0
162	0x00000000	0.0
163	0x00000000	0.0
164	0x00000000	0.0
165	0x00000000	0.0
166	0x00000000	0.0
167	0x00000000	0.0
168	0x00000000	0.0
169	0x00000000	0.0
170	0x00000000	0.0
171	0x00000000	0.0
172	0x00000000	0.0
173	0x00000000	0.0
174	0x00000000	0.0
175	0x00000000	0.0
176	0x00000000	0.0
177	0x00000000	0.0
178	0x00000000	0.0
179	0x00000000	0.0
180	0x00000000	0.0
181	0x00000000	0.0
182	0x00000000	0.0
183	0x00000000	0.0
184	0x00000000	0.0
185	0x00000000	0.0
186	0x00000000	0.0
187	0x00000000	0.0
188	0x00000000	0.0
189	0x00000000	0.0
190	0x00000000	0.0
191	0x00000000	0.0
192	0x00000000	0.0
193	0x00000000	0.0
194	0x00000000	0.0
195	0x00000000	0.0
196	0x00000000	0.0
197	0x00000000	0.0
198	0x00000000	0.0
199	0x00000000	0.0
200	0x00000000	0.0
201	0x00000000	0.0
202	0x00000000	0.0
203	0x00000000	0.0
204	0x00000000	0.0
205	0x00000000	0.0
206	0x00000000	0.0
207	0x00000000	0.0
208	0x00000000	0.0
209	0x00000000	0.0
210	0x00000000	0.0
211	0x00000000	0.0
212	0x00000000	0.0
213	0x00000000	0.0
214	0x00000000	0.0
215	0x00000000	0.0
216	0x00000000	0.0
217	0x00000000	0.0
218	0x00000000	0.0
219	0x00000000	0.0
220	0x00000000	0.0
221	0x00000000	0.0
222	0x00000000	0.0
223	0x00000000	0.0
224	0x00000000	0.0
225	0x00000000	0.0
226	0x00000000	0.0
227	0x00000000	0.0
228	0x00000000	0.0
229	0x00000000	0.0
230	0x00000000	0.0
231	0x00000000	0.0
232	0x00000000	0.0
233	0x00000000	0.0
234	0x00000000	0.0
235	0x00000000	0.0
236	0x00000000	0.0
237	0x00000000	0.0
238	0x00000000	0.0
239	0x00000000	0.0
240	0x00000000	0.0
241	0x00000000	0.0
242	0x00000000	0.0
243	0x00000000	0.0
244	0x00000000	0.0
245	0x00000000	0.0
246	0x00000000	0.0
247	0x00000000	0.0
248	0x00000000	0.0
249	0x00000000	0.0
250	0x00000000	0.0
251	0x00000000	0.0
252	0x00000000	0.0
253	0x00000000	0.0
254	0x00000000	0.0
255	0x00000000	0.0

x_f f4 [100, 1]
0	0x4093a7a5	4.6142144
1	0x3fdf0d97	1.7426022
2	0x4055a0d8	3.3379421
3	0x409c4b53	4.884195
4	0x4044597c	3.0679617
5	0x40b0b6ef	5.5223308
6	0x40ba23ad	5.816855
7	0x40c5eb9b	6.1850104
8	0x40921585	4.565127
9	0x3f99f023	1.2026409
10	0x40992714	4.7860203
11	0x3f108365	0.5645049
12	0x3feb9e94	1.8407769
13	0x3dfb53d1	0.12271846
14	0x409f6f92	4.9823694
15	0x40c2c75c	6.086836
16	0x40b6ff6e	5.7186804
17	0x402cc9a0	2.6998062
18	0x4021cac2	2.5280004
19	0x40c3906c	6.1113796
20	0x402e5bc0	2.72435
21	0x40af24cf	5.473243
22	0x3f8716a7	1.0553788
23	0x40c1fe4c	6.062292
24	0x3ee231d6	0.44178647
25	0x3f36365e	0.7117671
26	0x40864d97	4.1969714
27	0x40c846cb	6.2586417
28	0x40c4597c	6.1359234
29	0x40914c75	4.540583
30	0x40c5eb9b	6.1850104
31	0x4088a8c7	4.2706027
32	0x40af24cf	5.473243
33	0x40268121	2.6016314
34	0x408d5f26	4.417865
35	0x409d1463	4.9087386
36	0x40c06c2c	6.0132046
37	0x3ebc7edd	0.3681554
38	0x3efb53d1	0.49087384
39	0x40a68121	5.203263
40	0x405d7b77	3.4606607
41	0x3ee231d6	0.44178647
42	0x3fcf5859	1.6198837
43	0x4084bb77	4.147884
44	0x3fe87a55	1.8162333
45	0x409ea683	4.957826
46	0x405f0d97	3.4852045
47	0x4058c518	3.3870296
48	0x3f750b52	0.957204
49	0x4013a7a5	2.3071072
50	0x3f29a560	0.6626797
51	0x40a74a31	5.2278066
52	0x3cc90fdb	0.024543693
53	0x40c1fe4c	6.062292
54	0x401539c4	2.3316507
55	0x3ffb53d1	1.9634954
56	0x401539c4	2.3316507
57	0x3f2feddf	0.6872234
58	0x3fcc341a	1.59534
59	0x405a5737	3.4115732
60	0x40b3121f	5.595962
61	0x40b95a9e	5.7923117
62	0x3f8d5f26	1.1044662
63	0x406b9e94	3.6815538
64	0x3f6231d6	0.88357294
65	0x3fdbe957	1.7180585
66	0x401b8243	2.4298255
67	0x4066e835	3.6079228
68	0x3fe55615	1.7916895
69	0x3fcf5859	1.6198837
70	0x408971d6	4.295146
71	0x3ffe7811	1.9880391
72	0x40108365	2.2580197
73	0x402e5bc0	2.72435
74	0x3f490fdb	0.7853982
75	0x4003f267	2.06167
76	0x409ea683	4.957826
77	0x40a425f1	5.1296315
78	0x401b8243	2.4298255
79	0x40914c75	4.540583
80	0x406a0c75	3.6570103
81	0x3f55a0d8	0.83448553
82	0x406d30b4	3.7060976
83	0x3fe55615	1.7916895
84	0x40c2c75c	6.086836
85	0x409f6f92	4.9823694
86	0x409c4b53	4.884195
87	0x3f80ce28	1.0062914
88	0x40afeddf	5.497787
89	0x40baecbd	5.8413987
90	0x40864d97	4.1969714
91	0x4096cbe4	4.712389
92	0x3f6231d6	0.88357294
93	0x3f6ec2d4	0.93266034
94	0x3f9d1463	1.2271847
95	0x40b7c87e	5.743224
96	0x40b2490f	5.5714183
97	0x40c1353c	6.0377483
98	0x405be957	3.436117
99	0x3facc9a0	1.3499031

t_f f4 [100, 1]
0	0x3ec48677	0.3838384
1	0x3f51745d	0.8181818
2	0x3f090cee	0.53535354
3	0x3f4c4867	0.7979798
4	0x3e10cede	0.14141414
5	0x3f350296	0.7070707
6	0x3f2fd6a0	0.68686867
7	0x3f471c72	0.7777778
8	0x3f0ba2e9	0.54545456
9	0x3c257eb5	0.01010101
10	0x3f0e38e4	0.5555556
11	0x3f49b26d	0.7878788
12	0x3ede6243	0.43434343
13	0x3ede6243	0.43434343
14	0x3f7ad40a	0.97979796
15	0x3f800000	1.0
16	0x3f2d40a5	0.67676765
17	0x3f0676f3	0.5252525
18	0x3e9b26ca	0.3030303
19	0x3f540a58	0.82828283
20	0x3f7ad40a	0.97979796
21	0x3f22e8ba	0.6363636
22	0x3eafd6a0	0.34343433
23	0x3ea57eb5	0.32323232
24	0x3ef3121a	0.47474748
25	0x3f6b5029	0.9191919
26	0x3f0e38e4	0.5555556
27	0x3f471c72	0.7777778
28	0x3eba2e8c	0.36363637
29	0x3e638e39	0.22222222
30	0x3e90cede	0.28282827
31	0x3f638e39	0.8888889
32	0x3f68ba2f	0.90909094
33	0x3e1b26ca	0.15151516
34	0x3f2052bf	0.6262626
35	0x3d257eb5	0.04040404
36	0x3e1b26ca	0.15151516
37	0x3f60f83e	0.8787879
38	0x3f15fad4	0.5858586
39	0x3e814afd	0.25252524
40	0x3f4c4867	0.7979798
41	0x3ec48677	0.3838384
42	0x3ed9364e	0.42424244
43	0x3c257eb5	0.01010101
44	0x3e783e10	0.24242425
45	0x3f662434	0.8989899
46	0x3eba2e8c	0.36363637
47	0x3f707c1f	0.93939394
48	0x3f41f07c	0.75757575
49	0x3ea052bf	0.3131313
50	0x3d257eb5	0.04040404
51	0x3eafd6a0	0.34343433
52	0x3ee8ba2f	0.45454547
53	0x3f75a815	0.959596
54	0x3f75a815	0.959596
55	0x3ee8ba2f	0.45454547
56	0x3ee8ba2f	0.45454547
57	0x3f4ede62	0.8080808
58	0x3f0676f3	0.5252525
59	0x3f10cede	0.56565654
60	0x3f60f83e	0.8787879
61	0x3f3cc486	0.7373737
62	0x3d257eb5	0.04040404
63	0x3ef3121a	0.47474748
64	0x3f1364d9	0.57575756
65	0x3f10cede	0.56565654
66	0x3f2d40a5	0.67676765
67	0x3f7d6a05	0.989899
68	0x3f2fd6a0	0.68686867
69	0x3e59364e	0.21212122
70	0x3d4ede62	0.05050505
71	0x3e90cede	0.28282827
72	0x3e814afd	0.25252524
73	0x3f4ede62	0.8080808
74	0x3c257eb5	0.01010101
75	0x3ed40a58	0.41414142
76	0x3f783e10	0.969697
77	0x3f7ad40a	0.97979796
78	0x3e95fad4	0.2929293
79	0x3f03e0f8	0.5151515
80	0x3f56a053	0.83838385
81	0x3f73121a	0.94949496
82	0x3ef3121a	0.47474748
83	0x3f1890cf	0.5959596
84	0x3ec9b26d	0.3939394
85	0x3f2fd6a0	0.68686867
86	0x3f59364e	0.8484849
87	0x3ca57eb5	0.02020202
88	0x3f6b5029	0.9191919
89	0x3ef83e10	0.4848485
90	0x3e0676f3	0.13131313
91	0x3f1b26ca	0.6060606
92	0x3e814afd	0.25252524
93	0x3f783e10	0.969697
94	0x3eafd6a0	0.34343433
95	0x3f56a053	0.83838385
96	0x3ef83e10	0.4848485
97	0x3f4c4867	0.7979798
98	0x3f379891	0.7171717
99	0x3e9b26ca	0.3030303

x_bc_lb f4 [100, 1]
0	0x00000000	0.0
1	0x00000000	0.0
2	0x00000000	0.0
3	0x00000000	0.0
4	0x00000000	0.0
5	0x00000000	0.0
6	0x00000000	0.0
7	0x00000000	0.0
8	0x00000000	0.0
9	0x00000000	0.0
10	0x00000000	0.0
11	0x00000000	0.0
12	0x00000000	0.0
13	0x00000000	0.0
14	0x00000000	0.0
15	0x00000000	0.0
16	0x00000000	0.0
17	0x00000000	0.0
18	0x00000000	0.0
19	0x00000000	0.0
20	0x00000000	0.0
21	0x00000000	0.0
22	0x00000000	0.0
23	0x00000000	0.0
24	0x00000000	0.0
25	0x00000000	0.0
26	0x00000000	0.0
27	0x00000000	0.0
28	0x00000000	0.0
29	0x00000000	0.0
30	0x00000000	0.0
31	0x00000000	0.0
32	0x00000000	0.0
33	0x00000000	0.0
34	0x00000000	0.0
35	0x00000000	0.0
36	0x00000000	0.0
37	0x00000000	0.0
38	0x00000000	0.0
39	0x00000000	0.0
40	0x00000000	0.0
41	0x00000000	0.0
42	0x00000000	0.0
43	0x00000000	0.0
44	0x00000000	0.0
45	0x00000000	0.0
46	0x00000000	0.0
47	0x00000000	0.0
48	0x00000000	0.0
49	0x00000000	0.0
50	0x00000000	0.0
51	0x00000000	0.0
52	0x00000000	0.0
53	0x00000000	0.0
54	0x00000000	0.0
55	0x00000000	0.0
56	0x00000000	0.0
57	0x00000000	0.0
58	0x00000000	0.0
59	0x00000000	0.0
60	0x00000000	0.0
61	0x00000000	0.0
62	0x00000000	0.0
63	0x00000000	0.0
64	0x00000000	0.0
65	0x00000000	0.0
66	0x00000000	0.0
67	0x00000000	0.0
68	0x00000000	0.0
69	0x00000000	0.0
70	0x00000000	0.0
71	0x00000000	0.0
72	0x00000000	0.0
73	0x00000000	0.0
74	0x00000000	0.0
75	0x00000000	0.0
76	0x00000000	0.0
77	0x00000000	0.0
78	0x00000000	0.0
79	0x00000000	0.0
80	0x00000000	0.0
81	0x00000000	0.0
82	0x00000000	0.0
83	0x00000000	0.0
84	0x00000000	0.0
85	0x00000000	0.0
86	0x00000000	0.0
87	0x00000000	0.0
88	0x00000000	0.0
89	0x00000000	0.0
90	0x00000000	0.0
91	0x00000000	0.0
92	0x00000000	0.0
93	0x00000000	0.0
94	0x00000000	0.0
95	0x00000000	0.0
96	0x00000000	0.0
97	0x00000000	0.0
98	0x00000000	0.0
99	0x00000000	0.0

t_bc_lb f4 [100, 1]
0	0x00000000	0.0
1	0x3c257eb5	0.01010101
2	0x3ca57eb5	0.02020202
3	0x3cf83e10	0.030303031
4	0x3d257eb5	0.04040404
5	0x3d4ede62	0.05050505
6	0x3d783e10	0.060606062
7	0x3d90cede	0.07070707
8	0x3da57eb5	0.08080808
9	0x3dba2e8c	0.09090909
10	0x3dcede62	0.1010101
11	0x3de38e39	0.11111111
12	0x3df83e10	0.121212125
13	0x3e0676f3	0.13131313
14	0x3e10cede	0.14141414
15	0x3e1b26ca	0.15151516
16	0x3e257eb5	0.16161616
17	0x3e2fd6a0	0.17171717
18	0x3e3a2e8c	0.18181819
19	0x3e448677	0.1919192
20	0x3e4ede62	0.2020202
21	0x3e59364e	0.21212122
22	0x3e638e39	0.22222222
23	0x3e6de624	0.23232323
24	0x3e783e10	0.24242425
25	0x3e814afd	0.25252524
26	0x3e8676f3	0.26262626
27	0x3e8ba2e9	0.27272728
28	0x3e90cede	0.28282827
29	0x3e95fad4	0.2929293
30	0x3e9b26ca	0.3030303
31	0x3ea052bf	0.3131313
32	0x3ea57eb5	0.32323232
33	0x3eaaaaab	0.33333334
34	0x3eafd6a0	0.34343433
35	0x3eb50296	0.35353535
36	0x3eba2e8c	0.36363637
37	0x3ebf5a81	0.37373737
38	0x3ec48677	0.3838384
39	0x3ec9b26d	0.3939394
40	0x3ecede62	0.4040404
41	0x3ed40a58	0.41414142
42	0x3ed9364e	0.42424244
43	0x3ede6243	0.43434343
44	0x3ee38e39	0.44444445
45	0x3ee8ba2f	0.45454547
46	0x3eede624	0.46464646
47	0x3ef3121a	0.47474748
48	0x3ef83e10	0.4848485
49	0x3efd6a05	0.4949495
50	0x3f014afd	0.5050505
51	0x3f03e0f8	0.5151515
52	0x3f0676f3	0.5252525
53	0x3f090cee	0.53535354
54	0x3f0ba2e9	0.54545456
55	0x3f0e38e4	0.5555556
56	0x3f10cede	0.56565654
57	0x3f1364d9	0.57575756
58	0x3f15fad4	0.5858586
59	0x3f1890cf	0.5959596
60	0x3f1b26ca	0.6060606
61	0x3f1dbcc5	0.61616164
62	0x3f2052bf	0.6262626
63	0x3f22e8ba	0.6363636
64	0x3f257eb5	0.64646465
65	0x3f2814b0	0.65656567
66	0x3f2aaaab	0.6666667
67	0x3f2d40a5	0.67676765
68	0x3f2fd6a0	0.68686867
69	0x3f326c9b	0.6969697
70	0x3f350296	0.7070707
71	0x3f379891	0.7171717
72	0x3f3a2e8c	0.72727275
73	0x3f3cc486	0.7373737
74	0x3f3f5a81	0.74747473
75	0x3f41f07c	0.75757575
76	0x3f448677	0.7676768
77	0x3f471c72	0.7777778
78	0x3f49b26d	0.7878788
79	0x3f4c4867	0.7979798
80	0x3f4ede62	0.8080808
81	0x3f51745d	0.8181818
82	0x3f540a58	0.82828283
83	0x3f56a053	0.83838385
84	0x3f59364e	0.8484849
85	0x3f5bcc48	0.85858583
86	0x3f5e6243	0.86868685
87	0x3f60f83e	0.8787879
88	0x3f638e39	0.8888889
89	0x3f662434	0.8989899
90	0x3f68ba2f	0.90909094
91	0x3f6b5029	0.9191919
92	0x3f6de624	0.9292929
93	0x3f707c1f	0.93939394
94	0x3f73121a	0.94949496
95	0x3f75a815	0.959596
96	0x3f783e10	0.969697
97	0x3f7ad40a	0.97979796
98	0x3f7d6a05	0.989899
99	0x3f800000	1.0

x_bc_ub f4 [100, 1]
0	0x40c90fdb	6.2831855
1	0x40c90fdb	6.2831855
2	0x40c90fdb	6.2831855
3	0x40c90fdb	6.2831855
4	0x40c90fdb	6.2831855
5	0x40c90fdb	6.2831855
6	0x40c90fdb	6.2831855
7	0x40c90fdb	6.2831855
8	0x40c90fdb	6.2831855
9	0x40c90fdb	6.2831855
10	0x40c90fdb	6.2831855
11	0x40c90fdb	6.2831855
12	0x40c90fdb	6.2831855
13	0x40c90fdb	6.2831855
14	0x40c90fdb	6.2831855
15	0x40c90fdb	6.2831855
16	0x40c90fdb	6.2831855
17	0x40c90fdb	6.2831855
18	0x40c90fdb	6.2831855
19	0x40c90fdb	6.2831855
20	0x40c90fdb	6.2831855
21	0x40c90fdb	6.2831855
22	0x40c90fdb	6.2831855
23	0x40c90fdb	6.2831855
24	0x40c90fdb	6.2831855
25	0x40c90fdb	6.2831855
26	0x40c90fdb	6.2831855
27	0x40c90fdb	6.2831855
28	0x40c90fdb	6.2831855
29	0x40c90fdb	6.2831855
30	0x40c90fdb	6.2831855
31	0x40c90fdb	6.2831855
32	0x40c90fdb	6.2831855
33	0x40c90fdb	6.2831855
34	0x40c90fdb	6.2831855
35	0x40c90fdb	6.2831855
36	0x40c90fdb	6.2831855
37	0x40c90fdb	6.2831855
38	0x40c90fdb	6.2831855
39	0x40c90fdb	6.2831855
40	0x40c90fdb	6.2831855
41	0x40c90fdb	6.2831855
42	0x40c90fdb	6.2831855
43	0x40c90fdb	6.2831855
44	0x40c90fdb	6.2831855
45	0x40c90fdb	6.2831855
46	0x40c90fdb	6.2831855
47	0x40c90fdb	6.2831855
48	0x40c90fdb	6.2831855
49	0x40c90fdb	6.2831855
50	0x40c90fdb	6.2831855
51	0x40c90fdb	6.2831855
52	0x40c90fdb	6.2831855
53	0x40c90fdb	6.2831855
54	0x40c90fdb	6.2831855
55	0x40c90fdb	6.2831855
56	0x40c90fdb	6.2831855
57	0x40c90fdb	6.2831855
58	0x40c90fdb	6.2831855
59	0x40c90fdb	6.2831855
60	0x40c90fdb	6.2831855
61	0x40c90fdb	6.2831855
62	0x40c90fdb	6.2831855
63	0x40c90fdb	6.2831855
64	0x40c90fdb	6.2831855
65	0x40c90fdb	6.2831855
66	0x40c90fdb	6.2831855
67	0x40c90fdb	6.2831855
68	0x40c90fdb	6.2831855
69	0x40c90fdb	6.2831855
70	0x40c90fdb	6.2831855
71	0x40c90fdb	6.2831855
72	0x40c90fdb	6.2831855
73	0x40c90fdb	6.2831855
74	0x40c90fdb	6.2831855
75	0x40c90fdb	6.2831855
76	0x40c90fdb	6.2831855
77	0x40c90fdb	6.2831855
78	0x40c90fdb	6.2831855
79	0x40c90fdb	6.2831855
80	0x40c90fdb	6.2831855
81	0x40c90fdb	6.2831855
82	0x40c90fdb	6.2831855
83	0x40c90fdb	6.2831855
84	0x40c90fdb	6.2831855
85	0x40c90fdb	6.2831855
86	0x40c90fdb	6.2831855
87	0x40c90fdb	6.2831855
88	0x40c90fdb	6.2831855
89	0x40c90fdb	6.2831855
90	0x40c90fdb	6.2831855
91	0x40c90fdb	6.2831855
92	0x40c90fdb	6.2831855
93	0x40c90fdb	6.2831855
94	0x40c90fdb	6.2831855
95	0x40c90fdb	6.2831855
96	0x40c90fdb	6.2831855
97	0x40c90fdb	6.2831855
98	0x40c90fdb	6.2831855
99	0x40c90fdb	6.2831855

t_bc_ub f4 [100, 1]
0	0x00000000	0.0
1	0x3c257eb5	0.01010101
2	0x3ca57eb5	0.02020202
3	0x3cf83e10	0.030303031
4	0x3d257eb5	0.04040404
5	0x3d4ede62	0.05050505
6	0x3d783e10	0.060606062
7	0x3d90cede	0.07070707
8	0x3da57eb5	0.08080808
9	0x3dba2e8c	0.09090909
10	0x3dcede62	0.1010101
11	0x3de38e39	0.11111111
12	0x3df83e10	0.121212125
13	0x3e0676f3	0.13131313
14	0x3e10cede	0.14141414
15	0x3e1b26ca	0.15151516
16	0x3e257eb5	0.16161616
17	0x3e2fd6a0	0.17171717
18	0x3e3a2e8c	0.18181819
19	0x3e448677	0.1919192
20	0x3e4ede62	0.2020202
21	0x3e59364e	0.21212122
22	0x3e638e39	0.22222222
23	0x3e6de624	0.23232323
24	0x3e783e10	0.24242425
25	0x3e814afd	0.25252524
26	0x3e8676f3	0.26262626
27	0x3e8ba2e9	0.27272728
28	0x3e90cede	0.28282827
29	0x3e95fad4	0.2929293
30	0x3e9b26ca	0.3030303
31	0x3ea052bf	0.3131313
32	0x3ea57eb5	0.32323232
33	0x3eaaaaab	0.33333334
34	0x3eafd6a0	0.34343433
35	0x3eb50296	0.35353535
36	0x3eba2e8c	0.36363637
37	0x3ebf5a81	0.37373737
38	0x3ec48677	0.3838384
39	0x3ec9b26d	0.3939394
40	0x3ecede62	0.4040404
41	0x3ed40a58	0.41414142
42	0x3ed9364e	0.42424244
43	0x3ede6243	0.43434343
44	0x3ee38e39	0.44444445
45	0x3ee8ba2f	0.45454547
46	0x3eede624	0.46464646
47	0x3ef3121a	0.47474748
48	0x3ef83e10	0.4848485
49	0x3efd6a05	0.4949495
50	0x3f014afd	0.5050505
51	0x3f03e0f8	0.5151515
52	0x3f0676f3	0.5252525
53	0x3f090cee	0.53535354
54	0x3f0ba2e9	0.54545456
55	0x3f0e38e4	0.5555556
56	0x3f10cede	0.56565654
57	0x3f1364d9	0.57575756
58	0x3f15fad4	0.5858586
59	0x3f1890cf	0.5959596
60	0x3f1b26ca	0.6060606
61	0x3f1dbcc5	0.61616164
62	0x3f2052bf	0.6262626
63	0x3f22e8ba	0.6363636
64	0x3f257eb5	0.64646465
65	0x3f2814b0	0.65656567
66	0x3f2aaaab	0.6666667
67	0x3f2d40a5	0.67676765
68	0x3f2fd6a0	0.68686867
69	0x3f326c9b	0.6969697
70	0x3f350296	0.7070707
71	0x3f379891	0.7171717
72	0x3f3a2e8c	0.72727275
73	0x3f3cc486	0.7373737
74	0x3f3f5a81	0.74747473
75	0x3f41f07c	0.75757575
76	0x3f448677	0.7676768
77	0x3f471c72	0.7777778
78	0x3f49b26d	0.7878788
79	0x3f4c4867	0.7979798
80	0x3f4ede62	0.8080808
81	0x3f51745d	0.8181818
82	0x3f540a58	0.82828283
83	0x3f56a053	0.83838385
84	0x3f59364e	0.8484849
85	0x3f5bcc48	0.85858583
86	0x3f5e6243	0.86868685
87	0x3f60f83e	0.8787879
88	0x3f638e39	0.8888889
89	0x3f662434	0.8989899
90	0x3f68ba2f	0.90909094
91	0x3f6b5029	0.9191919
92	0x3f6de624	0.9292929
93	0x3f707c1f	0.93939394
94	0x3f73121a	0.94949496
95	0x3f75a815	0.959596
96	0x3f783e10	0.969697
97	0x3f7ad40a	0.97979796
98	0x3f7d6a05	0.989899
99	0x3f800000	1.0

weight f4 [50, 2]
0	0x3de854e9	0.1134432
1	0xbdbeb465	-0.09311751
2	0x3cb9602c	0.022628866
3	0x3da46c82	0.08028509
4	0x3f0bf98e	0.54677665
5	0xbe371991	-0.17880847
6	0xbccac5c8	-0.024752513
7	0x3de84053	0.11340394
8	0xbd5aec42	-0.05344797
9	0x3c09efc4	0.008418981
10	0xbe7d52b4	-0.2473858
11	0x3dcf2fcf	0.10116541
12	0x3dda0c2b	0.10646852
13	0x3d8d22b1	0.068913825
14	0xbe5a3d7e	-0.2131252
15	0xbe7f76f4	-0.24947721
16	0x3df8dadd	0.1215112
17	0x3c30c026	0.010787999
18	0x3dda586b	0.10661396
19	0xbe8661dc	-0.26246536
20	0xbed6060c	-0.41801488
21	0x3cde0328	0.027101114
22	0x3e91bfea	0.2846673
23	0xbdbd970a	-0.09257324
24	0xbe719d3b	-0.23595135
25	0xbed8620e	-0.4226231
26	0xbd5892fe	-0.052874558
27	0x3dfd201f	0.12359642
28	0x3db9de47	0.09075599
29	0x3df7bc6a	0.12096484
30	0xbdfcb370	-0.123389125
31	0x3c8ed137	0.017433746
32	0xbe0f1977	-0.13974558
33	0xbe70cba2	-0.2351518
34	0xbea51717	-0.3224418
35	0x3dd68f06	0.10476498
36	0xbc2780ab	-0.010223548
37	0x3e59a6e3	0.21255068
38	0xbeb98f56	-0.3624217
39	0x3e272a8c	0.16324824
40	0x3e0cd0a8	0.13751471
41	0xbdaaf12e	-0.083467826
42	0x3df246c2	0.11829902
43	0xbd996190	-0.07489312
44	0x3db2b3ea	0.08725722
45	0xbcc53184	-0.024071462
46	0x3d6d12de	0.05787932
47	0xbe51d250	-0.20490384
48	0xbd1a8b33	-0.037730407
49	0x3db3d345	0.08780531
50	0x3ed06801	0.4070435
51	0xbe15fce9	-0.14647259
52	0xbe0abf92	-0.13549641
53	0x3e787f97	0.24267422
54	0xbd9cd68c	-0.07658109
55	0x3e03d3b1	0.12873723
56	0x3e8bf10b	0.2733234
57	0xbd10d4da	-0.03535924
58	0x3d005517	0.031331148
59	0xbdb98b2f	-0.0905975
60	0xbcb04530	-0.021517366
61	0x3e4b91ab	0.19879787
62	0xbe8a93cc	-0.27065885
63	0x3d67b9ca	0.056573667
64	0x3e55d0aa	0.2088038
65	0x3b279852	0.0025572968
66	0xbebfa45f	-0.37430093
67	0xbe66af49	-0.22527803
68	0x3d4b1c1a	0.049587347
69	0xbe4a5533	-0.19759063
70	0xbeece37e	-0.46267313
71	0xbe2447a8	-0.1604296
72	0xbde4e835	-0.111771025
73	0xbe42bf3b	-0.19018261
74	0x3de63e5e	0.11242364
75	0xbce694c9	-0.028147118
76	0xbcd8259f	-0.026385127
77	0xbce0f48a	-0.027460355
78	0xbe1e2ce2	-0.15446809
79	0xbd103f64	-0.035216704
80	0xbd7a246a	-0.061069883
81	0x3c88a10b	0.016678354
82	0x3e00b654	0.12569553
83	0x3cae6ee4	0.021293111
84	0x3e0c38b7	0.1369351
85	0xbe4d4f2a	-0.2004973
86	0x3f021e8b	0.50827855
87	0x394e0663	0.0001964807
88	0x3e2c883b	0.16848843
89	0x3e8614c5	0.2618772
90	0xbe07a462	-0.13246301
91	0xbf076f63	-0.5290434
92	0x3ca2d211	0.019875558
93	0xbe592771	-0.21206452
94	0x3e23e19b	0.1600403
95	0xbeba2849	-0.3635886
96	0xbe4cd449	-0.20002855
97	0xbe700820	-0.234406
98	0x3e32da7e	0.1746616
99	0xbe1584e6	-0.14601478

bias f4 [50]
0	0xbc915b55	-0.017743746
1	0xbc8fe93b	-0.017567268
2	0xbd09bb4f	-0.033625897
3	0xbccbfdc0	-0.02490127
4	0xbad6ba40	-0.0016382411
5	0x3d8a1e6c	0.06744084
6	0xbdc15e69	-0.094418354
7	0x3ca521a3	0.02015764
8	0xbc278452	-0.010224419
9	0xbc63ffeb	-0.013915996
10	0x3bee7224	0.00727679
11	0xbd76dd30	-0.060269535
12	0x3cfc0445	0.030763755
13	0x3be75f1c	0.0070608985
14	0xbc36d5d5	-0.01115938
15	0x3c39e76d	0.01134668
16	0xbc6279c0	-0.013822973
17	0x3d08f376	0.033435307
18	0x3d349cc0	0.0440948
19	0xba923f74	-0.0011157827
20	0xbcc90b1e	-0.024541434
21	0xbc7399cd	-0.014868212
22	0x3d0baa26	0.034097813
23	0xbcd36d87	-0.025809063
24	0x3c7e6ba9	0.015528598
25	0xbc896123	-0.016769951
26	0x3d186daf	0.037213977
27	0xbd032378	-0.032016248
28	0xbd370354	-0.04468091
29	0xbcfbfcd0	-0.030760199
30	0x3bc66b55	0.0060552754
31	0x3bc19076	0.0059071137
32	0xbda4723a	-0.080295995
33	0xbab36e0e	-0.0013689415
34	0x3cd2a7f2	0.025714848
35	0x3ce956e0	0.028483808
36	0x3c857787	0.016292347
37	0xbd0733e2	-0.033008464
38	0xba9e97b6	-0.0012099657
39	0x3cc08608	0.023501411
40	0x3c577baf	0.013152047
41	0xbd7bd38a	-0.061481036
42	0xbce39727	-0.027782036
43	0x3b6a9a88	0.0035797674
44	0xbd3c3dee	-0.0459575
45	0x3d4d1baa	0.05007521
46	0xbc278a80	-0.010225892
47	0x3c1da0c7	0.009620852
48	0x3d64ac2e	0.055828266
49	0xbc916a49	-0.017750876

weight f4 [50, 50]
0	0x3e188088	0.14892781
1	0xbdb7981c	-0.089645594
2	0xbec16957	-0.3777568
3	0x3e0207b2	0.12698248
4	0xbd369821	-0.044578675
5	0xbd2ccf23	-0.04218973
6	0xbe3e29e2	-0.18570665
7	0x3daeb523	0.08530643
8	0x3dc5eebe	0.09664677
9	0x3daf5add	0.08562253
10	0x3df5c0f7	0.11999696
11	0xbe85575d	-0.26043215
12	0xbe63f9d1	-0.22263266
13	0xbdaad9d4	-0.08342329
14	0x3e533398	0.2062515
15	0xbd5bc5e0	-0.053655505
16	0xbe84a7d2	-0.25909287
17	0xbc851337	-0.016244514
18	0x3e26cbec	0.16288728
19	0xbe38aee8	-0.18035471
20	0x3cd38a2a	0.025822718
21	0x3d3a541f	0.04549038
22	0x3e121dc1	0.14269163
23	0x3daf6063	0.08563306
24	0x3ea0e38f	0.31423613
25	0x3d0f3d2e	0.034970455
26	0x3ea9d683	0.33171472
27	0x3d372d44	0.044720903
28	0x3e4c6cb2	0.19963339
29	0xbe9975dc	-0.29972732
30	0x3e7ab7a4	0.24484116
31	0xbd76b6ac	-0.060232803
32	0xbd231965	-0.03981914
33	0xbe605f5f	-0.21911381
34	0x3dee7a20	0.11644387
35	0x3d3e24c3	0.046421777
36	0x3e5fadf1	0.21843697
37	0xba613f2a	-0.0008592481
38	0xbd00b0f0	-0.03141874
39	0x3db68c11	0.08913434
40	0x3d764398	0.060123056
41	0xbe73d29b	-0.23810808
42	0xbe01c393	-0.12672262
43	0xbc0d54e3	-0.008626196
44	0xbc5735d5	-0.013135393
45	0x3dc00b29	0.09377129
46	0xbcb1f2bb	-0.021722188
47	0xbe2cf192	-0.16889027
48	0x3da38912	0.079851285
49	0xbdea3408	-0.114357054
50	0xbe0e3532	-0.1388748
51	0xbe0003df	-0.12501477
52	0xbdbdb75c	-0.09263489
53	0xbdb18607	-0.08668142
54	0x3d6a3a51	0.05718452
55	0xbd08621b	-0.033296686
56	0x3db58c95	0.088647045
57	0xbcdb2ceb	-0.026754817
58	0x3c8661ed	0.016404117
59	0x3e33f71f	0.17574738
60	0xbe073097	-0.1320213
61	0xbeb1364c	-0.34611738
62	0x3e5e33bb	0.21699421
63	0x3cdc81f6	0.026917439
64	0xbdcfa379	-0.10138602
65	0x3e07e30a	0.13270202
66	0x3bcddc5a	0.0062823715
67	0x3e72c011	0.2370608
68	0xbe31121d	-0.17292066
69	0x3cd9412a	0.02652033
70	0x3cde88da	0.027164865
71	0x3e109901	0.14120866
72	0xbe400651	-0.1875241
73	0x3e26a7bb	0.16274922
74	0x3e22fd62	0.1591697
75	0x3cdf4b11	0.027257474
76	0xbdf0461d	-0.11732123
77	0xbcd4db24	-0.0259834
78	0xbc565034	-0.013080645
79	0x3d5ee237	0.054414954
80	0xbc78cb81	-0.015185238
81	0xbc47b1bf	-0.012188374
82	0xb9b56397	-0.0003459721
83	0xbe845973	-0.25849494
84	0xbe562789	-0.20913519
85	0xbe0d9961	-0.1382804
86	0xbdd8c9f5	-0.10585395
87	0xbe0d4804	-0.13797003
88	0xbe959dd4	-0.29221976
89	0xbdf205fd	-0.118175484
90	0x3d4fde6d	0.05074923
91	0xbce4be0b	-0.02792265
92	0xbe7959c7	-0.24350654
93	0xbda031a0	-0.07821965
94	0xbda344d1	-0.0797211
95	0xbdf92c6e	-0.121666774
96	0x3e2b167e	0.16707799
97	0xbe71c3f9	-0.23609914
98	0x3dd5e439	0.10443921
99	0x3e67010a	0.2255899
100	0xbddbbe93	-0.107297085
101	0x3d3354f9	0.043782208
102	0xbdab45d1	-0.08362926
103	0x3d498c54	0.049206093
104	0x3c13ce5e	0.00902137
105	0x3d815254	0.06314531
106	0xbc7498d1	-0.014929012
107	0x3e5b7c93	0.2143424
108	0xbdb0fe67	-0.086422734
109	0x3d1c3fd9	0.038146827
110	0xbe8098f7	-0.25116703
111	0xbda24fab	-0.07925352
112	0x3df19c04	0.11797336
113	0xbd280c07	-0.041027095
114	0x3d900cd2	0.07033695
115	0x3d7182a1	0.058962468
116	0xbdf74126	-0.12072973
117	0x3de01acb	0.1094261
118	0x3e38f10a	0.18060699
119	0x3d3de5f0	0.046361864
120	0x3daf68cf	0.085649125
121	0xbca4defc	-0.020125858
122	0x3c8001c4	0.015625842
123	0xbdf6f4cd	-0.12058411
124	0x3cfa3c75	0.030546406
125	0xbcd635c8	-0.026148692
126	0xbe10ec4b	-0.14152639
127	0x3e44ad5d	0.19206758
128	0x3e8c9718	0.27459025
129	0xbd984c83	-0.074364685
130	0x3d2dc253	0.04242165
131	0xbe2f1de7	-0.1710125
132	0x3d2e8316	0.042605482
133	0x3d6b1b83	0.057399284
134	0x3d345a1d	0.04403125
135	0x3dcfe5b9	0.10151238
136	0x3dd8615f	0.10565447
137	0xbcb94c67	-0.02261944
138	0x3c9c3da2	0.019072358
139	0x3e53a38a	0.20667854
140	0xbdc16b87	-0.09444337
141	0x3d493c20	0.049129605
142	0xbd9a91aa	-0.075473145
143	0xbc1710bf	-0.009220301
144	0x3da3b8da	0.07994242
145	0x3e16a5d9	0.14711703
146	0x3cb296b7	0.021800382
147	0xbeb157a1	-0.34637168
148	0x3cefddde	0.0292806
149	0x3e1a8cf0	0.15092826
150	0xbe59645d	-0.21229692
151	0x3c31fd77	0.010863653
152	0x3e17257c	0.14760393
153	0xbd12ece7	-0.03587046
154	0xbc1d4107	-0.009598023
155	0x3df824c7	0.1211639
156	0x3ea2b735	0.317804
157	0x3cf380a6	0.02972443
158	0xbdf6a2e6	-0.12042789
159	0x3d65ac4b	0.056072515
160	0xbdff8ac3	-0.124776386
161	0xbbcd4866	-0.006264734
162	0x3df3ca6d	0.11903844
163	0xbcbdd803	-0.023174291
164	0x3c803c53	0.015653765
165	0x3dce0ba4	0.10060814
166	0x3ce0c6e6	0.027438592
167	0xbcb49713	-0.022044694
168	0xbe245116	-0.16046557
169	0x3df38c04	0.1189194
170	0xbe2e308c	-0.17010707
171	0x3e445e99	0.19176711
172	0xbb667ac8	-0.0035168398
173	0x3e9f5e14	0.31126463
174	0x3e736967	0.23770677
175	0xbd73d2ab	-0.05952708
176	0x3d354039	0.0442507
177	0x3dc6d1b7	0.09707969
178	0x3dee5839	0.11637921
179	0x3e7bd3ba	0.24592486
180	0xbd84a3b8	-0.064765394
181	0x3da820df	0.08209395
182	0xbe2db2b4	-0.16962701
183	0xbe4b11dc	-0.19831032
184	0xbe3a22fb	-0.18177406
185	0xbd21eaa6	-0.03953042
186	0xbe888843	-0.2666646
187	0xbb877759	-0.0041341004
188	0x3e59e955	0.21280415
189	0x3d43f882	0.047844417
190	0xbdeec54b	-0.116587244
191	0x3c977bea	0.018491704
192	0xbe0b121e	-0.1358113
193	0x3d8ee1ae	0.06976639
194	0x3e226f68	0.1586281
195	0xbe323ec3	-0.17406754
196	0xbc930c35	-0.017950157
197	0x3dd31327	0.103063874
198	0xbdee5e2a	-0.11639054
199	0x3e157a5f	0.14597462
200	0x3d534c5a	0.051586486
201	0xbd24115a	-0.04005561
202	0x3d856383	0.06513121
203	0x3c3a153a	0.0113576
204	0x3e804fae	0.2506079
205	0xbe59837e	-0.21241567
206	0x3e14ab9b	0.14518587
207	0x3e6f00d8	0.23340166
208	0xbcc1e82a	-0.023670275
209	0xbe153b7a	-0.1457347
210	0x3e798eb0	0.24370837
211	0xbe61abbc	-0.22038168
212	0x3b78c37e	0.003795832
213	0xbdb57833	-0.08860817
214	0x3ce2ea01	0.027699472
215	0xbd614f0a	-0.05500702
216	0xbe1396e9	-0.14413036
217	0x3d84a953	0.064776085
218	0xbdad6bcd	-0.08467827
219	0xbdbf41fb	-0.09338757
220	0xbd2921cc	-0.041291997
221	0x3da925e8	0.08259183
222	0xbdd3dcf9	-0.103448816
223	0xbe03668c	-0.12832087
224	0x3deee0fd	0.11664007
225	0x3d4e3f10	0.05035311
226	0xbdec0ebf	-0.1152625
227	0x3e0a186d	0.1348588
228	0xbc9208d0	-0.017826468
229	0x3e10c8c5	0.14139087
230	0xbd1b9a24	-0.037988797
231	0xbe4fe23d	-0.20301147
232	0xbdf0c711	-0.11756719
233	0x3e180d0a	0.14848724
234	0xbe4435c7	-0.1916114
235	0x3dd6cdb8	0.104884565
236	0xbdb25f28	-0.08709556
237	0x3cde116a	0.027107913
238	0x3da3d7d8	0.08000153
239	0x3ba9f074	0.005186135
240	0xbddc6014	-0.10760513
241	0xbe7b442c	-0.24537724
242	0xbd218162	-0.03943003
243	0x3e1261e2	0.14295152
244	0xbe394922	-0.18094304
245	0x3dede0a6	0.11615114
246	0x3d135e52	0.035978623
247	0x3dcbd5fc	0.09952924
248	0x3dd0318d	0.10165701
249	0x3c849b43	0.016187316
250	0xbdd91ade	-0.10600828
251	0xbe27b117	-0.16376148
252	0xbdeb6a0d	-0.11494837
253	0x3e26ced3	0.16289835
254	0xbbbbb5da	-0.0057284655
255	0xbd1a9e69	-0.037748728

bias f4 [50]
0	0x3d0ba516	0.034092985
1	0x3c0b77ce	0.00851245
2	0xbb6b8ea3	-0.0035943172
3	0xbcb55877	-0.02213691
4	0x3c0fcb68	0.008776523
5	0xbba6fa8a	-0.0050957846
6	0x3b73ec6b	0.0037219774
7	0xbbb00aa1	-0.005372361
8	0xbc334781	-0.010942341
9	0xbd0afc05	-0.03393175
10	0xbb87588d	-0.004130429
11	0x3bde5cf0	0.0067859814
12	0x3b8e79f3	0.0043480336
13	0x3ba9954f	0.0051752697
14	0xbc898842	-0.016788606
15	0xbc27ac08	-0.010233887
16	0x3c872585	0.016497383
17	0x3b9d3323	0.0047973557
18	0x3bace44c	0.0052762385
19	0x3d5bf205	0.053697605
20	0x3cdecbd0	0.027196795
21	0x3c594f01	0.013263465
22	0xbd050301	-0.032473568
23	0x3cc3981a	0.023876239
24	0xbc159be7	-0.009131408
25	0x3d84a78b	0.06477269
26	0xbd9627ff	-0.073318474
27	0xbd6b21c9	-0.057405267
28	0xbccf45f7	-0.025301917
29	0xbb23a48d	-0.0024969906
30	0xbd0993e4	-0.033588305
31	0x3b640ab0	0.003479641
32	0xbc3b9ab6	-0.01145046
33	0x3c0a2d86	0.008433705
34	0xba189972	-0.0005821205
35	0xbacec997	-0.0015776631
36	0xb86a1a81	-5.581463e-05
37	0x3d0c59fe	0.03426551
38	0x3cdb0ea3	0.026740378
39	0x3d0c06d9	0.034186218
40	0xbbd7e6f6	-0.006588812
41	0x3b8b81d3	0.0042574196
42	0xbb874a1d	-0.004128708
43	0xb900d166	-0.00012285038
44	0x3c900b15	0.01758341
45	0xbc383a14	-0.011244316
46	0x3ade1601	0.0016943814
47	0x3c258f12	0.010104911
48	0x3d090675	0.033453424
49	0xbc84053a	-0.016115773

weight f4 [50, 50]
0	0xbe8901f3	-0.267593
1	0x3dcc764b	0.099835
2	0xbdd57db0	-0.104243636
3	0xbdfa1db4	-0.12212697
4	0xbdb6d2af	-0.089269035
5	0x3ea381f0	0.31935072
6	0x3dc140b6	0.09436171
7	0x3d24f747	0.040274885
8	0xbe3ec24c	-0.18628806
9	0xbe4157e5	-0.18881185
10	0x3e9c31c5	0.3050672
11	0xbe5e9705	-0.21737297
12	0x3cc22afd	0.023702139
13	0x3e550f4a	0.20806614
14	0xbe11c640	-0.14235783
15	0x3ec66a18	0.38752818
16	0xbdde5b22	-0.10857226
17	0xbe68b3c3	-0.22724824
18	0xbba0199f	-0.004885867
19	0x3e6481b5	0.22315104
20	0x3dd1ad72	0.1023816
21	0xbdebd93b	-0.11516043
22	0x3d2d020d	0.042238284
23	0xbb39f5e8	-0.0028375331
24	0x3aef53e3	0.0018259253
25	0x3e2b32de	0.16718623
26	0xbd1ee0ee	-0.03878873
27	0xbe327aa6	-0.17429599
28	0x3e6eb822	0.23312429
29	0x3dd0584f	0.101730935
30	0x3d212a27	0.03934684
31	0xbc53b0c5	-0.012920563
32	0x3e6a8ed3	0.22906046
33	0xbd88bea7	-0.06676989
34	0xbe19f7e9	-0.15035976
35	0xbd8bc89f	-0.06825375
36	0xbd6a057a	-0.05713413
37	0x3dc27f5d	0.09496949
38	0x3e4f5cf0	0.20250297
39	0x3eafd6b9	0.34343508
40	0x3dc6f9ef	0.0971564
41	0x3de69747	0.112593226
42	0x3e06d0bf	0.13165568
43	0xbe3809b3	-0.1797245
44	0x3dd08020	0.10180688
45	0x3eb9e9b6	0.3631112
46	0xbdfc210d	-0.123109914
47	0xbe4bc608	-0.19899762
48	0xbea66937	-0.32502148
49	0x3da7cc1b	0.08193227
50	0xbe84958c	-0.25895345
51	0xbc4469db	-0.011988129
52	0xbdf2bb5b	-0.118521415
53	0x3dac2994	0.08406368
54	0x3c2962c1	0.010338486
55	0x3dc9309b	0.09823724
56	0xbea1923c	-0.3155688
57	0x3e7a0d4d	0.24419136
58	0x3e146818	0.14492834
59	0x3d983563	0.07432058
60	0x3e086dc4	0.13323122
61	0x3de198a1	0.1101544
62	0x3e138486	0.14406022
63	0x3e10b698	0.14132154
64	0xbd56d0d2	-0.05244524
65	0x3dd44323	0.10364368
66	0x3d4a541b	0.049396615
67	0xbc9f0886	-0.019413244
68	0x3e101465	0.1407028
69	0x3d047470	0.032337606
70	0x3e8b63dd	0.27224627
71	0xbe2e6728	-0.17031538
72	0x3cfa2a11	0.030537637
73	0xbe0950a5	-0.1340967
74	0x3d24d5cf	0.040242966
75	0xbd3491c8	-0.04408434
76	0xbe711175	-0.23541816
77	0xbc98d423	-0.018655842
78	0x3dc7ffdb	0.097655974
79	0xbcc04944	-0.023472436
80	0xbe17a793	-0.14810018
81	0x3b495a6d	0.0030724064
82	0xbd477933	-0.04869957
83	0x3de6b54a	0.11265047
84	0x3e4e303f	0.20135592
85	0xbdaa4bd8	-0.08315247
86	0x3db7930a	0.08963592
87	0xbd05f4cd	-0.032704163
88	0xbdccec66	-0.10006027
89	0xbde29101	-0.110628136
90	0xbe85af2e	-0.26110214
91	0xbdd376c9	-0.10325391
92	0x3e4715d5	0.19441922
93	0xbd5dee9c	-0.054182634
94	0xbe018f4d	-0.12652321
95	0x3e799a1e	0.24375197
96	0x3d2a41ec	0.041566774
97	0xbe947936	-0.28998727
98	0xbd29ec5b	-0.04148517
99	0x3dc08415	0.09400193
100	0x3dd575a7	0.10422831
101	0x3e523373	0.20527439
102	0xbc770a44	-0.015078131
103	0xbc8b3ab3	-0.016995763
104	0xbd39935d	-0.045306552
105	0xbea1a174	-0.3156849
106	0xbcb62b15	-0.02223734
107	0x3cead11d	0.028664166
108	0xbd061589	-0.03273538
109	0x3dffa813	0.124832295
110	0x3e271a48	0.16318619
111	0x3d66c6cd	0.056341935
112	0x3e819d17	0.25315163
113	0x3d6ef639	0.058340285
114	0x3d8c6201	0.0685463
115	0x3deec022	0.1165774
116	0x3d553731	0.052054588
117	0x3e13f022	0.14447072
118	0x3d8ea133	0.0696434
119	0x3e2e31e2	0.17011216
120	0x3e1521ba	0.14563647
121	0x3e3087bd	0.1723928
122	0xbd6a71a5	-0.057237286
123	0x3e889722	0.26677805
124	0xbe659058	-0.22418344
125	0xbddf7f0a	-0.10912903
126	0xbe0619b2	-0.1309574
127	0xbdfe3953	-0.124132775
128	0xbea63640	-0.32463264
129	0x3e10f467	0.14155732
130	0xbe48d18d	-0.19611187
131	0x3e0ec050	0.13940549
132	0xbcbb60b7	-0.022873266
133	0xbdc67acd	-0.09691391
134	0xbe32b30d	-0.17451115
135	0x3ce9c708	0.028537288
136	0x3e7f0385	0.24903686
137	0xbe23f768	-0.16012347
138	0xbdb60bf0	-0.08888996
139	0xbdc9fea0	-0.09863019
140	0xbd919955	-0.07109324
141	0xbe447ca5	-0.19188173
142	0x3da5a864	0.080887586
143	0xbe79ae06	-0.24382791
144	0xbcb96987	-0.022633327
145	0xbe814124	-0.2524501
146	0x3e858a91	0.2608228
147	0xbe0b73c9	-0.13618387
148	0x3e4957e7	0.19662438
149	0xbdfa92f4	-0.1223506
150	0xbe932c92	-0.28744942
151	0x3e38d6fe	0.18050763
152	0x3da7213e	0.08160637
153	0x3e1d349f	0.15352105
154	0x3be292e3	0.006914483
155	0x3c78d413	0.015187281
156	0x3c490869	0.012270072
157	0xbe0e2caa	-0.13884225
158	0xbe0e0a17	-0.13871036
159	0xbd21851d	-0.039433587
160	0xbd4632b0	-0.048388183
161	0xbe017f6b	-0.12646262
162	0x3e0f721d	0.14008375
163	0xbdf31f93	-0.11871257
164	0xbdb3a645	-0.08771948
165	0x3e0ae315	0.13563187
166	0x3cdc6439	0.026903259
167	0x3e27f979	0.1640376
168	0xbe122113	-0.1427043
169	0xbd82076e	-0.06349073
170	0xbde5b3c3	-0.112159275
171	0x3d1184dd	0.0355271
172	0xbd8ea51c	-0.06965086
173	0x3dda312e	0.106539115
174	0xbdd2d58e	-0.102946386
175	0xbdb20dfc	-0.086940736
176	0x3dd62eb0	0.10458124
177	0xbdda998f	-0.1067382
178	0x3c8c9631	0.01716146
179	0xbcb3f1ea	-0.02196594
180	0x3d746e90	0.059675753
181	0xbe84c9ff	-0.2593536
182	0x3d7712a5	0.060320515
183	0x3e91f4b1	0.28506997
184	0xbe4dd044	-0.20098978
185	0x3d083af9	0.033259366
186	0xbe3eb2cf	-0.18622898
187	0x3cf200f4	0.02954147
188	0x3db6dafc	0.08928487
189	0x3e404721	0.18777134
190	0x3e683f4e	0.22680399
191	0xbd4f547e	-0.050617687
192	0xbd6326ee	-0.055457048
193	0xbea19406	-0.31558245
194	0x3dfcb92f	0.123400085
195	0xbe6471d9	-0.22309054
196	0x3e36e1a3	0.17859511
197	0xbcc9c412	-0.024629626
198	0xbd12277f	-0.035682198
199	0xbe7c32b0	-0.24628711
200	0x3bfd8143	0.0077363565
201	0xbdd0341e	-0.101661906
202	0xbdc52c98	-0.09627646
203	0x3cde6f1a	0.027152587
204	0xbe7b6cdf	-0.2455325
205	0x3de98a0e	0.11403285
206	0xbd8717d2	-0.0659634
207	0xbcfdf371	-0.030999871
208	0x3d1c2a25	0.03812613
209	0x3dc196f8	0.09452623
210	0xbe2cb371	-0.16865326
211	0xbdbea08f	-0.09307968
212	0xbe598b3c	-0.2124452
213	0x3dfa0c58	0.12209386
214	0x3dd8459e	0.105601534
215	0xbdc225e3	-0.094798826
216	0x3dfa3bf3	0.12218466
217	0xbdfa6aea	-0.122274235
218	0x3e4abc6f	0.19798444
219	0xbcab2da2	-0.020895783
220	0x3e990586	0.29887027
221	0x3d2dbe3f	0.04241776
222	0xbe99b2f9	-0.30019358
223	0x3dd11525	0.10209111
224	0x3e24d999	0.16098632
225	0xbdb0b20c	-0.0862771
226	0xbe8e0306	-0.27736682
227	0x3e877798	0.2645843
228	0x3e0c29ba	0.13687792
229	0x3dc83490	0.097756505
230	0x3d1fe5d4	0.03903754
231	0x3d88a66a	0.06672366
232	0xbe2d6318	-0.16932333
233	0xbe56bc36	-0.20970234
234	0xbcb0876b	-0.021548947
235	0x3dc489a6	0.09596567
236	0x3de22032	0.11041297
237	0x3db36712	0.087598935
238	0xbe5e2199	-0.21692504
239	0xbe33a13c	-0.17541975
240	0xbd8a4cae	-0.06752907
241	0xbc3d6ec6	-0.011562055
242	0xbde6df9a	-0.11273117
243	0xbe38573c	-0.18002027
244	0xbd60043a	-0.05469153
245	0x3e140b9a	0.1445755
246	0x3e101cac	0.14073437
247	0xbe3e61cd	-0.18591996
248	0x3c92e4fb	0.017931452
249	0x3da732d3	0.08163991
250	0x3e829287	0.25502416
251	0x3e33bcd8	0.17552507
252	0x3dabb81b	0.08384725
253	0x3e16a8e9	0.14712872
254	0xbe527916	-0.20554003
255	0xbdf91b81	-0.12163449

bias f4 [50]
0	0x3aca761e	0.0015446579
1	0xbbae0e2e	-0.005311749
2	0x3d40c84a	0.04706601
3	0x3cc70ed7	0.024299068
4	0xbd3a5f6f	-0.04550117
5	0xbbcdce98	-0.0062807314
6	0xbc32bce6	-0.010909295
7	0x3a45c6db	0.00075445854
8	0x3d0c3a7e	0.03423547
9	0xbc356ce0	-0.011073321
10	0xbbcbd110	-0.0062199906
11	0x3c9d3f73	0.019195294
12	0x3cb006c1	0.021487596
13	0x3cc47032	0.02397928
14	0xbc22c89c	-0.009935524
15	0x3abd0272	0.0014420284
16	0xbd218bba	-0.039439894
17	0x3cd2f7d4	0.02575294
18	0x3c262c36	0.010142377
19	0x3bdbfc07	0.0067133936
20	0x3b18a333	0.0023290634
21	0x3b57fed9	0.0032958298
22	0x3b055581	0.0020345154
23	0x3bdfaa49	0.0068257195
24	0x3c9723bb	0.018449655
25	0x3c6068b3	0.013696837
26	0xbab3f2be	-0.0013728959
27	0xbb20c176	-0.0024529374
28	0xbc504c10	-0.012713447
29	0x3bba3fd5	0.005683879
30	0xbc22a999	-0.009928131
31	0xbc22a9c8	-0.009928174
32	0xb9bceec8	-0.0003603606
33	0x3b7816de	0.0037855427
34	0xbc449dfe	-0.012000559
35	0x3c2e6668	0.010644533
36	0x3bad1445	0.0052819573
37	0x3c35e00a	0.011100778
38	0x3bf1b293	0.007376024
39	0xbcc6d1d9	-0.024269985
40	0x3ca3c319	0.01999049
41	0xbc6348b2	-0.013872312
42	0xbd0ee361	-0.034884814
43	0xbc2d9076	-0.010593524
44	0xbb2cc590	-0.0026362874
45	0x3a540c9a	0.0008089036
46	0x3bd5bb7c	0.006522594
47	0xbcb435f2	-0.02199838
48	0xbc76320c	-0.015026581
49	0x3c45fa2a	0.01208357
