pbc_examples/saved_models/convection_beta-1.0_layers-50,50,50,50,1_L-2.0_WD-0.8_init-normal_batch_size256.pt (torch, 114093 bytes, 36 tensors)

x_u f4 [256, 1]
0.0 0.024543693 0.049087387 0.07363108 0.09817477 0.12271846 0.14726216 0.17180584
0.19634955 0.22089323 0.24543692 0.2699806 0.2945243 0.319068 0.3436117 0.3681554
0.3926991 0.41724277 0.44178647 0.46633017 0.49087384 0.5154175 0.5399612 0.5645049
0.5890486 0.6135923 0.638136 0.6626797 0.6872234 0.7117671 0.7363108 0.7608545
0.7853982 0.8099418 0.83448553 0.85902923 0.88357294 0.90811664 0.93266034 0.957204
0.9817477 1.0062914 1.030835 1.0553788 1.0799224 1.1044662 1.1290098 1.1535536
1.1780972 1.2026409 1.2271847 1.2517283 1.276272 1.3008157 1.3253593 1.3499031
1.3744467 1.3989905 1.4235342 1.4480779 1.4726216 1.4971652 1.521709 1.5462526
1.5707964 1.59534 1.6198837 1.6444274 1.6689711 1.6935148 1.7180585 1.7426022
1.7671459 1.7916895 1.8162333 1.8407769 1.8653207 1.8898643 1.914408 1.9389517
1.9634954 1.9880391 2.0125828 2.0371265 2.06167 2.0862138 2.1107576 2.1353014
2.1598449 2.1843886 2.2089324 2.233476 2.2580197 2.2825634 2.3071072 2.3316507
2.3561945 2.3807383 2.4052818 2.4298255 2.4543693 2.478913 2.5034566 2.5280004
2.552544 2.5770876 2.6016314 2.6261752 2.6507187 2.6752625 2.6998062 2.72435
2.7488935 2.7734373 2.797981 2.8225245 2.8470683 2.871612 2.8961558 2.9206994
2.9452431 2.969787 2.9943304 3.0188742 3.043418 3.0679617 3.0925052 3.117049
3.1415927 3.1661363 3.19068 3.2152238 3.2397673 3.264311 3.2888548 3.3133986
3.3379421 3.362486 3.3870296 3.4115732 3.436117 3.4606607 3.4852045 3.509748
3.5342917 3.5588355 3.583379 3.6079228 3.6324666 3.6570103 3.6815538 3.7060976
3.7306414 3.755185 3.7797287 3.8042724 3.828816 3.8533597 3.8779035 3.9024472
3.9269907 3.9515345 3.9760783 4.000622 4.0251656 4.0497093 4.074253 4.098797
4.12334 4.147884 4.1724277 4.1969714 4.221515 4.246059 4.2706027 4.295146
4.3196898 4.3442335 4.3687773 4.393321 4.417865 4.4424086 4.466952 4.4914956
4.5160394 4.540583 4.565127 4.5896707 4.6142144 4.6387577 4.6633015 4.687845
4.712389 4.7369328 4.7614765 4.7860203 4.8105636 4.8351073 4.859651 4.884195
4.9087386 4.9332824 4.957826 4.9823694 5.006913 5.031457 5.0560007 5.0805445
5.105088 5.1296315 5.1541753 5.178719 5.203263 5.2278066 5.2523503 5.276894
5.3014374 5.325981 5.350525 5.3750687 5.3996124 5.424156 5.4487 5.473243
5.497787 5.5223308 5.5468745 5.5714183 5.595962 5.620506 5.645049 5.669593
5.6941366 5.7186804 5.743224 5.767768 5.7923117 5.816855 5.8413987 5.8659425
5.8904862 5.91503 5.939574 5.9641175 5.988661 6.0132046 6.0377483 6.062292
6.086836 6.1113796 6.1359234 6.1604667 6.1850104 6.209554 6.234098 6.2586417
00000000: 0000 0000 db0f c93c db0f 493d e4cb 963d
00000010: db0f c93d d153 fb3d e4cb 163e dfed 2f3e
00000020: db0f 493e d631 623e d153 7b3e e63a 8a3e
00000030: e4cb 963e e25c a33e dfed af3e dd7e bc3e
00000040: db0f c93e d8a0 d53e d631 e23e d4c2 ee3e
00000050: d153 fb3e 67f2 033f e63a 0a3f 6583 103f
00000060: e4cb 163f 6314 1d3f e25c 233f 60a5 293f
00000070: dfed 2f3f 5e36 363f dd7e 3c3f 5cc7 423f
00000080: db0f 493f 5958 4f3f d8a0 553f 57e9 5b3f
00000090: d631 623f 557a 683f d4c2 6e3f 520b 753f
000000a0: d153 7b3f 28ce 803f 67f2 833f a716 873f
000000b0: e63a 8a3f 265f 8d3f 6583 903f a5a7 933f
000000c0: e4cb 963f 23f0 993f 6314 9d3f a238 a03f
000000d0: e25c a33f 2181 a63f 60a5 a93f a0c9 ac3f
000000e0: dfed af3f 1f12 b33f 5e36 b63f 9e5a b93f
000000f0: dd7e bc3f 1ca3 bf3f 5cc7 c23f 9beb c53f
00000100: db0f c93f 1a34 cc3f 5958 cf3f 997c d23f
00000110: d8a0 d53f 18c5 d83f 57e9 db3f 970d df3f
00000120: d631 e23f 1556 e53f 557a e83f 949e eb3f
00000130: d4c2 ee3f 13e7 f13f 520b f53f 922f f83f
00000140: d153 fb3f 1178 fe3f 28ce 0040 4860 0240
00000150: 67f2 0340 8784 0540 a716 0740 c7a8 0840
00000160: e63a 0a40 06cd 0b40 265f 0d40 45f1 0e40
00000170: 6583 1040 8515 1240 a5a7 1340 c439 1540
00000180: e4cb 1640 045e 1840 23f0 1940 4382 1b40
00000190: 6314 1d40 83a6 1e40 a238 2040 c2ca 2140
000001a0: e25c 2340 01ef 2440 2181 2640 4113 2840
000001b0: 60a5 2940 8037 2b40 a0c9 2c40 c05b 2e40
000001c0: dfed 2f40 ff7f 3140 1f12 3340 3ea4 3440
000001d0: 5e36 3640 7ec8 3740 9e5a 3940 bdec 3a40
000001e0: dd7e 3c40 fd10 3e40 1ca3 3f40 3c35 4140
000001f0: 5cc7 4240 7c59 4440 9beb 4540 bb7d 4740
00000200: db0f 4940 faa1 4a40 1a34 4c40 3ac6 4d40
00000210: 5958 4f40 79ea 5040 997c 5240 b90e 5440
00000220: d8a0 5540 f832 5740 18c5 5840 3757 5a40
00000230: 57e9 5b40 777b 5d40 970d 5f40 b69f 6040
00000240: d631 6240 f6c3 6340 1556 6540 35e8 6640
00000250: 557a 6840 750c 6a40 949e 6b40 b430 6d40
00000260: d4c2 6e40 f354 7040 13e7 7140 3379 7340
00000270: 520b 7540 729d 7640 922f 7840 b2c1 7940
00000280: d153 7b40 f1e5 7c40 1178 7e40 1805 8040
00000290: 28ce 8040 3897 8140 4860 8240 5829 8340
000002a0: 67f2 8340 77bb 8440 8784 8540 974d 8640
000002b0: a716 8740 b7df 8740 c7a8 8840 d671 8940
000002c0: e63a 8a40 f603 8b40 06cd 8b40 1696 8c40
000002d0: 265f 8d40 3628 8e40 45f1 8e40 55ba 8f40
000002e0: 6583 9040 754c 9140 8515 9240 95de 9240
000002f0: a5a7 9340 b470 9440 c439 9540 d402 9640
00000300: e4cb 9640 f494 9740 045e 9840 1427 9940
00000310: 23f0 9940 33b9 9a40 4382 9b40 534b 9c40
00000320: 6314 9d40 73dd 9d40 83a6 9e40 926f 9f40
00000330: a238 a040 b201 a140 c2ca a140 d293 a240
00000340: e25c a340 f125 a440 01ef a440 11b8 a540
00000350: 2181 a640 314a a740 4113 a840 51dc a840
00000360: 60a5 a940 706e aa40 8037 ab40 9000 ac40
00000370: a0c9 ac40 b092 ad40 c05b ae40 cf24 af40
00000380: dfed af40 efb6 b040 ff7f b140 0f49 b240
00000390: 1f12 b340 2fdb b340 3ea4 b440 4e6d b540
000003a0: 5e36 b640 6eff b640 7ec8 b740 8e91 b840
000003b0: 9e5a b940 ad23 ba40 bdec ba40 cdb5 bb40
000003c0: dd7e bc40 ed47 bd40 fd10 be40 0dda be40
000003d0: 1ca3 bf40 2c6c c040 3c35 c140 4cfe c140
000003e0: 5cc7 c240 6c90 c340 7c59 c440 8b22 c540
000003f0: 9beb c540 abb4 c640 bb7d c740 cb46 c840

t_u f4 [256, 1]
0.0 0.0 0.0 0.0 0.0 0.0 0.0 0.0
0.0 0.0 0.0 0.0 0.0 0.0 0.0 0.0
0.0 0.0 0.0 0.0 0.0 0.0 0.0 0.0
0.0 0.0 0.0 0.0 0.0 0.0 0.0 0.0
0.0 0.0 0.0 0.0 0.0 0.0 0.0 0.0
0.0 0.0 0.0 0.0 0.0 0.0 0.0 0.0
0.0 0.0 0.0 0.0 0.0 0.0 0.0 0.0
0.0 0.0 0.0 0.0 0.0 0.0 0.0 0.0
0.0 0.0 0.0 0.0 0.0 0.0 0.0 0.0
0.0 0.0 0.0 0.0 0.0 0.0 0.0 0.0
0.0 0.0 0.0 0.0 0.0 0.0 0.0 0.0
0.0 0.0 0.0 0.0 0.0 0.0 0.0 0.0
0.0 0.0 0.0 0.0 0.0 0.0 0.0 0.0
0.0 0.0 0.0 0.0 0.0 0.0 0.0 0.0
0.0 0.0 0.0 0.0 0.0 0.0 0.0 0.0
0.0 0.0 0.0 0.0 0.0 0.0 0.0 0.0
0.0 0.0 0.0 0.0 0.0 0.0 0.0 0.0
0.0 0.0 0.0 0.0 0.0 0.0 0.0 0.0
0.0 0.0 0.0 0.0 0.0 0.0 0.0 0.0
0.0 0.0 0.0 0.0 0.0 0.0 0.0 0.0
0.0 0.0 0.0 0.0 0.0 0.0 0.0 0.0
0.0 0.0 0.0 0.0 0.0 0.0 0.0 0.0
0.0 0.0 0.0 0.0 0.0 0.0 0.0 0.0
0.0 0.0 0.0 0.0 0.0 0.0 0.0 0.0
0.0 0.0 0.0 0.0 0.0 0.0 0.0 0.0
0.0 0.0 0.0 0.0 0.0 0.0 0.0 0.0
0.0 0.0 0.0 0.0 0.0 0.0 0.0 0.0
0.0 0.0 0.0 0.0 0.0 0.0 0.0 0.0
0.0 0.0 0.0 0.0 0.0 0.0 0.0 0.0
0.0 0.0 0.0 0.0 0.0 0.0 0.0 0.0
0.0 0.0 0.0 0.0 0.0 0.0 0.0 0.0
0.0 0.0 0.0 0.0 0.0 0.0 0.0 0.0
00000000: 0000 0000 0000 0000 0000 0000 0000 0000
00000010: 0000 0000 0000 0000 0000 0000 0000 0000
00000020: 0000 0000 0000 0000 0000 0000 0000 0000
00000030: 0000 0000 0000 0000 0000 0000 0000 0000
00000040: 0000 0000 0000 0000 0000 0000 0000 0000
00000050: 0000 0000 0000 0000 0000 0000 0000 0000
00000060: 0000 0000 0000 0000 0000 0000 0000 0000
00000070: 0000 0000 0000 0000 0000 0000 0000 0000
00000080: 0000 0000 0000 0000 0000 0000 0000 0000
00000090: 0000 0000 0000 0000 0000 0000 0000 0000
000000a0: 0000 0000 0000 0000 0000 0000 0000 0000
000000b0: 0000 0000 0000 0000 0000 0000 0000 0000
000000c0: 0000 0000 0000 0000 0000 0000 0000 0000
000000d0: 0000 0000 0000 0000 0000 0000 0000 0000
000000e0: 0000 0000 0000 0000 0000 0000 0000 0000
000000f0: 0000 0000 0000 0000 0000 0000 0000 0000
00000100: 0000 0000 0000 0000 0000 0000 0000 0000
00000110: 0000 0000 0000 0000 0000 0000 0000 0000
00000120: 0000 0000 0000 0000 0000 0000 0000 0000
00000130: 0000 0000 0000 0000 0000 0000 0000 0000
00000140: 0000 0000 0000 0000 0000 0000 0000 0000
00000150: 0000 0000 0000 0000 0000 0000 0000 0000
00000160: 0000 0000 0000 0000 0000 0000 0000 0000
00000170: 0000 0000 0000 0000 0000 0000 0000 0000
00000180: 0000 0000 0000 0000 0000 0000 0000 0000
00000190: 0000 0000 0000 0000 0000 0000 0000 0000
000001a0: 0000 0000 0000 0000 0000 0000 0000 0000
000001b0: 0000 0000 0000 0000 0000 0000 0000 0000
000001c0: 0000 0000 0000 0000 0000 0000 0000 0000
000001d0: 0000 0000 0000 0000 0000 0000 0000 0000
000001e0: 0000 0000 0000 0000 0000 0000 0000 0000
000001f0: 0000 0000 0000 0000 0000 0000 0000 0000
00000200: 0000 0000 0000 0000 0000 0000 0000 0000
00000210: 0000 0000 0000 0000 0000 0000 0000 0000
00000220: 0000 0000 0000 0000 0000 0000 0000 0000
00000230: 0000 0000 0000 0000 0000 0000 0000 0000
00000240: 0000 0000 0000 0000 0000 0000 0000 0000
00000250: 0000 0000 0000 0000 0000 0000 0000 0000
00000260: 0000 0000 0000 0000 0000 0000 0000 0000
00000270: 0000 0000 0000 0000 0000 0000 0000 0000
00000280: 0000 0000 0000 0000 0000 0000 0000 0000
00000290: 0000 0000 0000 0000 0000 0000 0000 0000
000002a0: 0000 0000 0000 0000 0000 0000 0000 0000
000002b0: 0000 0000 0000 0000 0000 0000 0000 0000
000002c0: 0000 0000 0000 0000 0000 0000 0000 0000
000002d0: 0000 0000 0000 0000 0000 0000 0000 0000
000002e0: 0000 0000 0000 0000 0000 0000 0000 0000
000002f0: 0000 0000 0000 0000 0000 0000 0000 0000
00000300: 0000 0000 0000 0000 0000 0000 0000 0000
00000310: 0000 0000 0000 0000 0000 0000 0000 0000
00000320: 0000 0000 0000 0000 0000 0000 0000 0000
00000330: 0000 0000 0000 0000 0000 0000 0000 0000
00000340: 0000 0000 0000 0000 0000 0000 0000 0000
00000350: 0000 0000 0000 0000 0000 0000 0000 0000
00000360: 0000 0000 0000 0000 0000 0000 0000 0000
00000370: 0000 0000 0000 0000 0000 0000 0000 0000
00000380: 0000 0000 0000 0000 0000 0000 0000 0000
00000390: 0000 0000 0000 0000 0000 0000 0000 0000
000003a0: 0000 0000 0000 0000 0000 0000 0000 0000
000003b0: 0000 0000 0000 0000 0000 0000 0000 0000
000003c0: 0000 0000 0000 0000 0000 0000 0000 0000
000003d0: 0000 0000 0000 0000 0000 0000 0000 0000
000003e0: 0000 0000 0000 0000 0000 0000 0000 0000
000003f0: 0000 0000 0000 0000 0000 0000 0000 0000

x_f f4 [100, 1]
4.6142144 1.7426022 3.3379421 4.884195 3.0679617 5.5223308 5.816855 6.1850104
4.565127 1.2026409 4.7860203 0.5645049 1.8407769 0.12271846 4.9823694 6.086836
5.7186804 2.6998062 2.5280004 6.1113796 2.72435 5.473243 1.0553788 6.062292
0.44178647 0.7117671 4.1969714 6.2586417 6.1359234 4.540583 6.1850104 4.2706027
5.473243 2.6016314 4.417865 4.9087386 6.0132046 0.3681554 0.49087384 5.203263
3.4606607 0.44178647 1.6198837 4.147884 1.8162333 4.957826 3.4852045 3.3870296
0.957204 2.3071072 0.6626797 5.2278066 0.024543693 6.062292 2.3316507 1.9634954
2.3316507 0.6872234 1.59534 3.4115732 5.595962 5.7923117 1.1044662 3.6815538
0.88357294 1.7180585 2.4298255 3.6079228 1.7916895 1.6198837 4.295146 1.9880391
2.2580197 2.72435 0.7853982 2.06167 4.957826 5.1296315 2.4298255 4.540583
3.6570103 0.83448553 3.7060976 1.7916895 6.086836 4.9823694 4.884195 1.0062914
5.497787 5.8413987 4.1969714 4.712389 0.88357294 0.93266034 1.2271847 5.743224
5.5714183 6.0377483 3.436117 1.3499031
00000000: a5a7 9340 970d df3f d8a0 5540 534b 9c40
00000010: 7c59 4440 efb6 b040 ad23 ba40 9beb c540
00000020: 8515 9240 23f0 993f 1427 9940 6583 103f
00000030: 949e eb3f d153 fb3d 926f 9f40 5cc7 c240
00000040: 6eff b640 a0c9 2c40 c2ca 2140 6c90 c340
00000050: c05b 2e40 cf24 af40 a716 873f 4cfe c140
00000060: d631 e23e 5e36 363f 974d 8640 cb46 c840
00000070: 7c59 c440 754c 9140 9beb c540 c7a8 8840
00000080: cf24 af40 2181 2640 265f 8d40 6314 9d40
00000090: 2c6c c040 dd7e bc3e d153 fb3e 2181 a640
000000a0: 777b 5d40 d631 e23e 5958 cf3f 77bb 8440
000000b0: 557a e83f 83a6 9e40 970d 5f40 18c5 5840
000000c0: 520b 753f a5a7 1340 60a5 293f 314a a740
000000d0: db0f c93c 4cfe c140 c439 1540 d153 fb3f
000000e0: c439 1540 dfed 2f3f 1a34 cc3f 3757 5a40
000000f0: 1f12 b340 9e5a b940 265f 8d3f 949e 6b40
00000100: d631 623f 57e9 db3f 4382 1b40 35e8 6640
00000110: 1556 e53f 5958 cf3f d671 8940 1178 fe3f
00000120: 6583 1040 c05b 2e40 db0f 493f 67f2 0340
00000130: 83a6 9e40 f125 a440 4382 1b40 754c 9140
00000140: 750c 6a40 d8a0 553f b430 6d40 1556 e53f
00000150: 5cc7 c240 926f 9f40 534b 9c40 28ce 803f
00000160: dfed af40 bdec ba40 974d 8640 e4cb 9640
00000170: d631 623f d4c2 6e3f 6314 9d3f 7ec8 b740
00000180: 0f49 b240 3c35 c140 57e9 5b40 a0c9 ac3f

t_f f4 [100, 1]
0.3838384 0.8181818 0.53535354 0.7979798 0.14141414 0.7070707 0.68686867 0.7777778
0.54545456 0.01010101 0.5555556 0.7878788 0.43434343 0.43434343 0.97979796 1.0
0.67676765 0.5252525 0.3030303 0.82828283 0.97979796 0.6363636 0.34343433 0.32323232
0.47474748 0.9191919 0.5555556 0.7777778 0.36363637 0.22222222 0.28282827 0.8888889
0.90909094 0.15151516 0.6262626 0.04040404 0.15151516 0.8787879 0.5858586 0.25252524
0.7979798 0.3838384 0.42424244 0.01010101 0.24242425 0.8989899 0.36363637 0.93939394
0.75757575 0.3131313 0.04040404 0.34343433 0.45454547 0.959596 0.959596 0.45454547
0.45454547 0.8080808 0.5252525 0.56565654 0.8787879 0.7373737 0.04040404 0.47474748
0.57575756 0.56565654 0.67676765 0.989899 0.68686867 0.21212122 0.05050505 0.28282827
0.25252524 0.8080808 0.01010101 0.41414142 0.969697 0.97979796 0.2929293 0.5151515
0.83838385 0.94949496 0.47474748 0.5959596 0.3939394 0.68686867 0.8484849 0.02020202
0.9191919 0.4848485 0.13131313 0.6060606 0.25252524 0.969697 0.34343433 0.83838385
0.4848485 0.7979798 0.7171717 0.3030303
00000000: 7786 c43e 5d74 513f ee0c 093f 6748 4c3f
00000010: dece 103e 9602 353f a0d6 2f3f 721c 473f
00000020: e9a2 0b3f b57e 253c e438 0e3f 6db2 493f
00000030: 4362 de3e 4362 de3e 0ad4 7a3f 0000 803f
00000040: a540 2d3f f376 063f ca26 9b3e 580a 543f
00000050: 0ad4 7a3f bae8 223f a0d6 af3e b57e a53e
00000060: 1a12 f33e 2950 6b3f e438 0e3f 721c 473f
00000070: 8c2e ba3e 398e 633e dece 903e 398e 633f
00000080: 2fba 683f ca26 1b3e bf52 203f b57e 253d
00000090: ca26 1b3e 3ef8 603f d4fa 153f fd4a 813e
000000a0: 6748 4c3f 7786 c43e 4e36 d93e b57e 253c
000000b0: 103e 783e 3424 663f 8c2e ba3e 1f7c 703f
000000c0: 7cf0 413f bf52 a03e b57e 253d a0d6 af3e
000000d0: 2fba e83e 15a8 753f 15a8 753f 2fba e83e
000000e0: 2fba e83e 62de 4e3f f376 063f dece 103f
000000f0: 3ef8 603f 86c4 3c3f b57e 253d 1a12 f33e
00000100: d964 133f dece 103f a540 2d3f 056a 7d3f
00000110: a0d6 2f3f 4e36 593e 62de 4e3d dece 903e
00000120: fd4a 813e 62de 4e3f b57e 253c 580a d43e
00000130: 103e 783f 0ad4 7a3f d4fa 953e f8e0 033f
00000140: 53a0 563f 1a12 733f 1a12 f33e cf90 183f
00000150: 6db2 c93e a0d6 2f3f 4e36 593f b57e a53c
00000160: 2950 6b3f 103e f83e f376 063e ca26 1b3f
00000170: fd4a 813e 103e 783f a0d6 af3e 53a0 563f
00000180: 103e f83e 6748 4c3f 9198 373f ca26 9b3e

x_bc_lb f4 [100, 1]
0.0 0.0 0.0 0.0 0.0 0.0 0.0 0.0
0.0 0.0 0.0 0.0 0.0 0.0 0.0 0.0
0.0 0.0 0.0 0.0 0.0 0.0 0.0 0.0
0.0 0.0 0.0 0.0 0.0 0.0 0.0 0.0
0.0 0.0 0.0 0.0 0.0 0.0 0.0 0.0
0.0 0.0 0.0 0.0 0.0 0.0 0.0 0.0
0.0 0.0 0.0 0.0 0.0 0.0 0.0 0.0
0.0 0.0 0.0 0.0 0.0 0.0 0.0 0.0
0.0 0.0 0.0 0.0 0.0 0.0 0.0 0.0
0.0 0.0 0.0 0.0 0.0 0.0 0.0 0.0
0.0 0.0 0.0 0.0 0.0 0.0 0.0 0.0
0.0 0.0 0.0 0.0 0.0 0.0 0.0 0.0
0.0 0.0 0.0 0.0
00000000: 0000 0000 0000 0000 0000 0000 0000 0000
00000010: 0000 0000 0000 0000 0000 0000 0000 0000
00000020: 0000 0000 0000 0000 0000 0000 0000 0000
00000030: 0000 0000 0000 0000 0000 0000 0000 0000
00000040: 0000 0000 0000 0000 0000 0000 0000 0000
00000050: 0000 0000 0000 0000 0000 0000 0000 0000
00000060: 0000 0000 0000 0000 0000 0000 0000 0000
00000070: 0000 0000 0000 0000 0000 0000 0000 0000
00000080: 0000 0000 0000 0000 0000 0000 0000 0000
00000090: 0000 0000 0000 0000 0000 0000 0000 0000
000000a0: 0000 0000 0000 0000 0000 0000 0000 0000
000000b0: 0000 0000 0000 0000 0000 0000 0000 0000
000000c0: 0000 0000 0000 0000 0000 0000 0000 0000
000000d0: 0000 0000 0000 0000 0000 0000 0000 0000
000000e0: 0000 0000 0000 0000 0000 0000 0000 0000
000000f0: 0000 0000 0000 0000 0000 0000 0000 0000
00000100: 0000 0000 0000 0000 0000 0000 0000 0000
00000110: 0000 0000 0000 0000 0000 0000 0000 0000
00000120: 0000 0000 0000 0000 0000 0000 0000 0000
00000130: 0000 0000 0000 0000 0000 0000 0000 0000
00000140: 0000 0000 0000 0000 0000 0000 0000 0000
00000150: 0000 0000 0000 0000 0000 0000 0000 0000
00000160: 0000 0000 0000 0000 0000 0000 0000 0000
00000170: 0000 0000 0000 0000 0000 0000 0000 0000
00000180: 0000 0000 0000 0000 0000 0000 0000 0000

t_bc_lb f4 [100, 1]
0.0 0.01010101 0.02020202 0.030303031 0.04040404 0.05050505 0.060606062 0.07070707
0.08080808 0.09090909 0.1010101 0.11111111 0.121212125 0.13131313 0.14141414 0.15151516
0.16161616 0.17171717 0.18181819 0.1919192 0.2020202 0.21212122 0.22222222 0.23232323
0.24242425 0.25252524 0.26262626 0.27272728 0.28282827 0.2929293 0.3030303 0.3131313
0.32323232 0.33333334 0.34343433 0.35353535 0.36363637 0.37373737 0.3838384 0.3939394
0.4040404 0.41414142 0.42424244 0.43434343 0.44444445 0.45454547 0.46464646 0.47474748
0.4848485 0.4949495 0.5050505 0.5151515 0.5252525 0.53535354 0.54545456 0.5555556
0.56565654 0.57575756 0.5858586 0.5959596 0.6060606 0.61616164 0.6262626 0.6363636
0.64646465 0.65656567 0.6666667 0.67676765 0.68686867 0.6969697 0.7070707 0.7171717
0.72727275 0.7373737 0.74747473 0.75757575 0.7676768 0.7777778 0.7878788 0.7979798
0.8080808 0.8181818 0.82828283 0.83838385 0.8484849 0.85858583 0.86868685 0.8787879
0.8888889 0.8989899 0.90909094 0.9191919 0.9292929 0.93939394 0.94949496 0.959596
0.969697 0.97979796 0.989899 1.0
00000000: 0000 0000 b57e 253c b57e a53c 103e f83c
00000010: b57e 253d 62de 4e3d 103e 783d dece 903d
00000020: b57e a53d 8c2e ba3d 62de ce3d 398e e33d
00000030: 103e f83d f376 063e dece 103e ca26 1b3e
00000040: b57e 253e a0d6 2f3e 8c2e 3a3e 7786 443e
00000050: 62de 4e3e 4e36 593e 398e 633e 24e6 6d3e
00000060: 103e 783e fd4a 813e f376 863e e9a2 8b3e
00000070: dece 903e d4fa 953e ca26 9b3e bf52 a03e
00000080: b57e a53e abaa aa3e a0d6 af3e 9602 b53e
00000090: 8c2e ba3e 815a bf3e 7786 c43e 6db2 c93e
000000a0: 62de ce3e 580a d43e 4e36 d93e 4362 de3e
000000b0: 398e e33e 2fba e83e 24e6 ed3e 1a12 f33e
000000c0: 103e f83e 056a fd3e fd4a 013f f8e0 033f
000000d0: f376 063f ee0c 093f e9a2 0b3f e438 0e3f
000000e0: dece 103f d964 133f d4fa 153f cf90 183f
000000f0: ca26 1b3f c5bc 1d3f bf52 203f bae8 223f
00000100: b57e 253f b014 283f abaa 2a3f a540 2d3f
00000110: a0d6 2f3f 9b6c 323f 9602 353f 9198 373f
00000120: 8c2e 3a3f 86c4 3c3f 815a 3f3f 7cf0 413f
00000130: 7786 443f 721c 473f 6db2 493f 6748 4c3f
00000140: 62de 4e3f 5d74 513f 580a 543f 53a0 563f
00000150: 4e36 593f 48cc 5b3f 4362 5e3f 3ef8 603f
00000160: 398e 633f 3424 663f 2fba 683f 2950 6b3f
00000170: 24e6 6d3f 1f7c 703f 1a12 733f 15a8 753f
00000180: 103e 783f 0ad4 7a3f 056a 7d3f 0000 803f

x_bc_ub f4 [100, 1]
6.2831855 6.2831855 6.2831855 6.2831855 6.2831855 6.2831855 6.2831855 6.2831855
6.2831855 6.2831855 6.2831855 6.2831855 6.2831855 6.2831855 6.2831855 6.2831855
6.2831855 6.2831855 6.2831855 6.2831855 6.2831855 6.2831855 6.2831855 6.2831855
6.2831855 6.2831855 6.2831855 6.2831855 6.2831855 6.2831855 6.2831855 6.2831855
6.2831855 6.2831855 6.2831855 6.2831855 6.2831855 6.2831855 6.2831855 6.2831855
6.2831855 6.2831855 6.2831855 6.2831855 6.2831855 6.2831855 6.2831855 6.2831855
6.2831855 6.2831855 6.2831855 6.2831855 6.2831855 6.2831855 6.2831855 6.2831855
6.2831855 6.2831855 6.2831855 6.2831855 6.2831855 6.2831855 6.2831855 6.2831855
6.2831855 6.2831855 6.2831855 6.2831855 6.2831855 6.2831855 6.2831855 6.2831855
6.2831855 6.2831855 6.2831855 6.2831855 6.2831855 6.2831855 6.2831855 6.2831855
6.2831855 6.2831855 6.2831855 6.2831855 6.2831855 6.2831855 6.2831855 6.2831855
6.2831855 6.2831855 6.2831855 6.2831855 6.2831855 6.2831855 6.2831855 6.2831855
6.2831855 6.2831855 6.2831855 6.2831855
00000000: db0f c940 db0f c940 db0f c940 db0f c940
00000010: db0f c940 db0f c940 db0f c940 db0f c940
00000020: db0f c940 db0f c940 db0f c940 db0f c940
00000030: db0f c940 db0f c940 db0f c940 db0f c940
00000040: db0f c940 db0f c940 db0f c940 db0f c940
00000050: db0f c940 db0f c940 db0f c940 db0f c940
00000060: db0f c940 db0f c940 db0f c940 db0f c940
00000070: db0f c940 db0f c940 db0f c940 db0f c940
00000080: db0f c940 db0f c940 db0f c940 db0f c940
00000090: db0f c940 db0f c940 db0f c940 db0f c940
000000a0: db0f c940 db0f c940 db0f c940 db0f c940
000000b0: db0f c940 db0f c940 db0f c940 db0f c940
000000c0: db0f c940 db0f c940 db0f c940 db0f c940
000000d0: db0f c940 db0f c940 db0f c940 db0f c940
000000e0: db0f c940 db0f c940 db0f c940 db0f c940
000000f0: db0f c940 db0f c940 db0f c940 db0f c940
00000100: db0f c940 db0f c940 db0f c940 db0f c940
00000110: db0f c940 db0f c940 db0f c940 db0f c940
00000120: db0f c940 db0f c940 db0f c940 db0f c940
00000130: db0f c940 db0f c940 db0f c940 db0f c940
00000140: db0f c940 db0f c940 db0f c940 db0f c940
00000150: db0f c940 db0f c940 db0f c940 db0f c940
00000160: db0f c940 db0f c940 db0f c940 db0f c940
00000170: db0f c940 db0f c940 db0f c940 db0f c940
00000180: db0f c940 db0f c940 db0f c940 db0f c940

t_bc_ub f4 [100, 1]
0.0 0.01010101 0.02020202 0.030303031 0.04040404 0.05050505 0.060606062 0.07070707
0.08080808 0.09090909 0.1010101 0.11111111 0.121212125 0.13131313 0.14141414 0.15151516
0.16161616 0.17171717 0.18181819 0.1919192 0.2020202 0.21212122 0.22222222 0.23232323
0.24242425 0.25252524 0.26262626 0.27272728 0.28282827 0.2929293 0.3030303 0.3131313
0.32323232 0.33333334 0.34343433 0.35353535 0.36363637 0.37373737 0.3838384 0.3939394
0.4040404 0.41414142 0.42424244 0.43434343 0.44444445 0.45454547 0.46464646 0.47474748
0.4848485 0.4949495 0.5050505 0.5151515 0.5252525 0.53535354 0.54545456 0.5555556
0.56565654 0.57575756 0.5858586 0.5959596 0.6060606 0.61616164 0.6262626 0.6363636
0.64646465 0.65656567 0.6666667 0.67676765 0.68686867 0.6969697 0.7070707 0.7171717
0.72727275 0.7373737 0.74747473 0.75757575 0.7676768 0.7777778 0.7878788 0.7979798
0.8080808 0.8181818 0.82828283 0.83838385 0.8484849 0.85858583 0.86868685 0.8787879
0.8888889 0.8989899 0.90909094 0.9191919 0.9292929 0.93939394 0.94949496 0.959596
0.969697 0.97979796 0.989899 1.0
00000000: 0000 0000 b57e 253c b57e a53c 103e f83c
00000010: b57e 253d 62de 4e3d 103e 783d dece 903d
00000020: b57e a53d 8c2e ba3d 62de ce3d 398e e33d
00000030: 103e f83d f376 063e dece 103e ca26 1b3e
00000040: b57e 253e a0d6 2f3e 8c2e 3a3e 7786 443e
00000050: 62de 4e3e 4e36 593e 398e 633e 24e6 6d3e
00000060: 103e 783e fd4a 813e f376 863e e9a2 8b3e
00000070: dece 903e d4fa 953e ca26 9b3e bf52 a03e
00000080: b57e a53e abaa aa3e a0d6 af3e 9602 b53e
00000090: 8c2e ba3e 815a bf3e 7786 c43e 6db2 c93e
000000a0: 62de ce3e 580a d43e 4e36 d93e 4362 de3e
000000b0: 398e e33e 2fba e83e 24e6 ed3e 1a12 f33e
000000c0: 103e f83e 056a fd3e fd4a 013f f8e0 033f
000000d0: f376 063f ee0c 093f e9a2 0b3f e438 0e3f
000000e0: dece 103f d964 133f d4fa 153f cf90 183f
000000f0: ca26 1b3f c5bc 1d3f bf52 203f bae8 223f
00000100: b57e 253f b014 283f abaa 2a3f a540 2d3f
00000110: a0d6 2f3f 9b6c 323f 9602 353f 9198 373f
00000120: 8c2e 3a3f 86c4 3c3f 815a 3f3f 7cf0 413f
00000130: 7786 443f 721c 473f 6db2 493f 6748 4c3f
00000140: 62de 4e3f 5d74 513f 580a 543f 53a0 563f
00000150: 4e36 593f 48cc 5b3f 4362 5e3f 3ef8 603f
00000160: 398e 633f 3424 663f 2fba 683f 2950 6b3f
00000170: 24e6 6d3f 1f7c 703f 1a12 733f 15a8 753f
00000180: 103e 783f 0ad4 7a3f 056a 7d3f 0000 803f

weight f4 [50, 2]
0.035911106 -0.0011188815 0.020903012 0.014947927 0.37140962 -0.081302635 -0.002954001 0.025654675
-0.021953057 0.0021965683 -0.090722844 0.04963917 0.010675065 0.016405752 -0.11558588 -0.14874826
0.067971274 0.0004078329 0.050104517 -0.16303779 -0.34266096 -0.00492362 0.27323815 -0.01759056
-0.16367124 -0.30741316 -0.05221052 0.021828664 0.026082622 0.04346483 -0.021328246 0.0010611191
-0.07539029 -0.1290578 -0.23631433 0.035901733 -0.0048073386 0.10075251 -0.19083028 0.06387429
0.08371892 -0.02016412 0.028946636 -0.021941196 0.029660722 0.0006429048 0.01615516 -0.108334355
-0.0062806588 0.018735753 0.29693267 -0.0745259 -0.06310411 0.15960011 -0.009861864 0.05822005
0.21851063 0.00057665195 0.011556567 -0.0089452565 -0.018306846 0.097245105 -0.17607738 0.0053391703
0.11039322 -2.5412994e-05 -0.22908683 -0.104990736 0.011635124 -0.12886582 -0.2842743 -0.047879934
-0.050004043 -0.10368377 0.06061106 0.0013015368 -0.0014911033 0.002902082 -0.09763563 0.000250068
-0.052369345 -0.0014975163 0.03880918 0.0140381 0.072233945 -0.09353696 0.32762334 0.0014762747
0.0496265 0.16460918 -0.0438185 -0.4109834 -0.011565828 -0.11387656 0.116251 -0.25381884
-0.05801935 -0.14043808 0.11771517 -0.061952658
00000000: 8617 133d 6fa7 92ba cb3c ab3c 26e8 743c
00000010: 6729 be3e ff81 a6bd ea97 41bb c129 d23c
00000020: e6d6 b3bc 4df4 0f3b e6cc b9bd 7152 4b3d
00000030: 78e6 2e3c 5b65 863c 4ab8 ecbd 7751 18be
00000040: 8634 8b3d 68d2 d539 653a 4d3d 61f3 26be
00000050: 4271 afbe 5156 a1bb dfe5 8b3e 141a 90bc
00000060: 6f99 27be 4265 9dbe b3da 55bd 07d2 b23c
00000070: 39ab d53c 2d08 323d 93b8 aebc 4015 8b3a
00000080: 3966 9abd ba27 04be 62fc 71be b20d 133d
00000090: e186 9dbb 5557 ce3d 0369 43be 86d0 823d
000000a0: d374 ab3d 392f a5bc 7f21 ed3c 06be b3bc
000000b0: 0bfb f23c 9c88 283a d357 843c 67de ddbd
000000c0: fccd cdbb b97b 993c 8f07 983e 09a1 98bd
000000d0: ba3c 81bd 366e 233e a893 21bc 2678 6e3d
000000e0: 40c1 5f3e 752a 173a c157 3d3c 208f 12bc
000000f0: 3df8 95bc 7128 c73d a14d 34be 35f4 ae3b
00000100: d715 e23d fd2d d5b7 bd95 6abe 6205 d7bd
00000110: 3fa1 3e3c 67f5 03be 678c 91be c01d 44bd
00000120: 0ad1 4cbd 2858 d4bd 4e43 783d 5498 aa3a
00000130: 2071 c3ba db30 3e3b 30f5 c7bd 8f1b 8339
00000140: 3d81 56bd 4f48 c4ba 60f6 1e3d 0f00 663c
00000150: 64ef 933d 4e90 bfbd 3fbe a73e 8f7f c13a
00000160: 2845 4b3d 4f8f 283e 077b 33bd 6b6c d2be
00000170: 997e 3dbc 1d38 e9bd 0115 ee3d 8bf4 81be
00000180: b3a5 6dbd 00cf 0fbe a714 f13d 12c2 7dbd

bias f4 [50]
0.00048275237 0.0014599174 -0.00027632498 -2.8986859e-05 0.0018510286 0.00073833007 -0.0008580937 0.00071847497
0.0002184003 -0.0020970132 0.0026141056 -0.0029965946 -0.0003360932 -0.0036945986 0.00088415464 0.0010739787
0.0016852252 0.0036466673 -0.0010231712 0.0004988719 -0.0010388904 -0.00023487424 0.0007543364 0.0017822332
0.0020782044 -0.0034020357 0.0034954068 0.00026981576 -0.0011829236 0.00072806224 -0.0011161529 -0.005498218
0.0011766454 -6.932246e-05 -0.0014139407 -0.00042013082 0.00012931306 0.00065086863 0.0021063276 0.0017413375
-0.0018452061 0.00043962797 0.0008589827 -0.0008582435 0.00019381256 -1.589391e-05 -0.0018454464 0.00382024
0.00012419546 -0.0025594828
00000000: ed19 fd39 b35a bf3a b6df 90b9 ce28 f3b7
00000010: 379e f23a 7e8c 413a b2f1 60ba 0a58 3c3a
00000020: 6202 6539 0b6e 09bb 6a51 2b3b 8462 44bb
00000030: aa35 b0b9 1421 72bb 9dc6 673a bfc4 8c3a
00000040: c6e2 dc3a edfc 6e3b ee1b 86ba bac6 023a
00000050: 612b 88ba 9348 76b9 a9be 453a d399 e93a
00000060: 7c32 083b b0f4 5ebb 3213 653b 0f76 8d39
00000070: 540c 9bba 6edb 3e3a e04b 92ba 652a b4bb
00000080: ab39 9a3a 3661 91b8 fa53 b9ba 0145 dcb9
00000090: 3698 0739 0e9f 2a3a 500a 0a3b 973d e43a
000000a0: d8da f1ba de7d e639 5a2d 613a bffb 60ba
000000b0: 2a3a 4b39 e953 85b7 e8e2 f1ba fe5c 7a3b
000000c0: 773a 0239 ffbc 27bb

weight f4 [50, 50]
0.08222055 -0.006170019 -0.25883022 0.030323442 -0.005800473 -0.003447969 -0.07220063 0.008844425
0.03535892 0.031004408 0.02315912 -0.15383787 -0.13852763 -0.03139993 0.13531157 -0.008544489
-0.17822492 -0.0014207267 0.06539651 -0.1052008 0.0014439983 0.006713211 0.07355107 0.06870394
0.18871316 0.0048210723 0.21772845 7.310802e-05 0.12226013 -0.11862551 0.10631843 -0.01051273
0.0007384663 -0.13822941 0.059722356 -0.00144718 0.11349476 0.00049263693 -0.0021081048 0.0074129966
-0.00040174235 -0.12862225 -0.028746212 0.0017924719 0.000751078 0.0122795515 -0.00031963538 -0.0660834
0.005959117 -0.022571893 -0.05031197 -0.043415703 -0.015898002 -0.01789762 0.0014231238 -0.0019557306
0.022406802 -0.0009068062 6.848043e-05 0.094833285 -0.066765286 -0.2415812 0.12163245 -0.00012298473
-0.021826176 0.045653246 0.00027387246 0.13702247 -0.08735265 0.0011011431 0.00076898927 0.062380537
-0.09563694 0.08011822 0.06932478 0.003038015 -0.044630673 -0.0001775215 -0.0009089153 0.020131672
-0.00015336006 -0.00010702355 -0.00026172138 -0.17548807 -0.11579716 -0.07066304 -0.034736108 -0.04970947
-0.20141023 -0.046446446 0.00050180906 -9.732739e-05 -0.14680392 -0.010527778 -0.010573722 -0.0456025
0.1104082 -0.13872024 0.025672505 0.14142378 -0.02543873 0.00076942 -0.022468396 0.00019292368
0.00033013706 0.0076395767 -0.0003068025 0.119940944 -0.014311281 0.002719004 -0.17372179 -0.018398404
0.036964897 -0.0008901228 0.0120389275 0.0029976398 -0.04690518 0.032309048 0.08900279 0.007974738
0.023481935 -0.00041868613 -0.0006140354 -0.0086794915 3.123185e-06 -0.00976826 -0.06568353 0.09871717
0.19098757 -0.0013068973 -0.00014840846 -0.094321504 0.003477784 0.010149328 0.0021996845 0.026970617
0.024803353 -0.0013917722 6.8655004e-06 0.11129636 -0.026236039 0.004155012 -0.009197932 -0.00841385
0.017472634 0.05893579 0.0006531986 -0.24635822 0.002302258 0.075229764 -0.13419154 0.00014893385
0.047140673 -1.0057603e-06 -0.00019579244 0.0483874 0.206576 0.0005525075 -0.051647604 0.0023741007
-0.037485335 0.0037466153 0.0474205 -0.00034270837 0.00032436426 0.03636543 0.0005376012 -0.0059299753
-0.07052448 0.053804792 -0.09394718 0.090050064 0.00039614266 0.14803894 0.16495034 -0.017268179
0.005482502 0.03511077 0.037320014 0.101587616 -0.00040044443 0.0238568 -0.08933555 -0.10249649
-0.10800467 -0.0070006247 -0.16341314 0.0007961677 0.13825321 0.006309052 -0.023180868 0.00053898693
-0.06460387 0.012463274 0.065390505 -0.07662479 -0.0004749747 0.024118148 -0.036121696 0.05769793
0.003504299 0.00058253395 0.028416645 2.1084412e-05 0.16466337 -0.114828266 0.054940056 0.15262805
0.0012263664 -0.07337709 0.17814662 -0.1510701 -0.0044584763 -0.012424965 0.0013587729 -0.003572397
-0.055904314 0.020794123 -0.011255907 -0.025643563 -0.0033695602 0.010902242 -0.036192562 -0.06527759
0.043062065 0.021417521 -0.031546373 0.05979058 0.003379531 0.046161804 3.35718e-05 -0.10334679
-0.052493997 0.085591346 -0.11064302 0.05523949 -0.015341615 0.0033633534 0.0155305145 -0.004124177
-0.02445948 -0.16012159 -0.0032166159 0.05270677 -0.09908541 0.039890856 -0.0009031713 0.024346784
0.035860773 0.006385995 -0.038166944 -0.08192983 -0.06372477 0.08307036 -0.00041745274 -0.002414137
00000000: 3f63 a83d df2d cabb 6585 84be de68 f83c
00000010: e511 bebb 52f7 61bb eddd 93bd 35e8 103c
00000020: 84d4 103d f5fc fd3c 32b8 bd3c ad87 1dbe
00000030: 30da 0dbe 379d 00bd 1e8f 0a3e 2ffe 0bbc
00000040: 9880 36be ad37 baba 9bee 853d 8473 d7bd
00000050: 8b44 bd3a 7ffa db3b f2a1 963d a7b4 8c3d
00000060: 063e 413e 16fa 9d3b 35f4 5e3e 9251 9938
00000070: 8563 fa3d eef1 f2bd 7abd d93d 963d 2cbc
00000080: a295 413a 038c 0dbe 6e9f 743d 4eaf bdba
00000090: f16f e83d 4e24 013a 2128 0abb b9e8 f23b
000000a0: f2a0 d2b9 8db5 03be 2d7d ebbc 60f1 ea3a
000000b0: fee3 443a 2c30 493c bc94 a7b9 bc56 87bd
000000c0: b244 c33b b1e8 b8bc ed13 4ebd aad4 31bd
000000d0: 873c 82bc 089e 92bc 1c88 ba3a b72b 00bb
000000e0: 788e b73c bcb6 6dba 279d 8f38 f437 c23d
000000f0: 3dbc 88bd 1061 77be 6f1a f93d 76f5 00b9
00000100: cfcc b2bc e6fe 3a3d 8a96 8f39 9e4f 0c3e
00000110: f2e5 b2bd 3b54 903a ff95 493a bc82 7f3d
00000120: 4ddd c3bd 0515 a43d 26fa 8d3d 6f19 473b
00000130: a7ce 36bd 1125 3ab9 4644 6eba 2deb a43c
00000140: 47cf 20b9 d571 e0b8 a637 89b9 25b3 33be
00000150: 1027 edbd c9b7 90bd 7347 0ebd 289c 4bbd
00000160: 7c3e 4ebe a13e 3ebd d68b 033a 3f1c ccb8
00000170: c453 16be b47c 2cbc 683d 2dbc b0c9 3abd
00000180: b21d e23d ae0c 0ebe 254f d23c 65d1 103e
00000190: e264 d0bc e7b2 493a a40f b8bc 8e4b 4a39
000001a0: 3f16 ad39 6a55 fa3b 56da a0b9 99a3 f53d
000001b0: dd79 6abc 5131 323b 20e4 31be 40b8 96bc
000001c0: 8168 173d 2157 69ba ec3e 453c 0d74 443b
000001d0: a51f 40bd 7e56 043d 1847 b63d 7aa8 023c
000001e0: 305d c03c 1a83 dbb9 38f7 20ba 6d34 0ebc
000001f0: e997 5136 0d0b 20bc 1685 86bd 3a2c ca3d
00000200: 3f92 433e 324c abba 189e 1bb9 a22b c1bd
00000210: 89eb 633b 5e49 263c 9528 103b 7cf1 dc3c
00000220: 6730 cb3c 206c b6ba 335e e636 59ef e33d
00000230: f6ec d6bc c426 883b ecb2 16bc 3fda 09bc
00000240: c522 8f3c a866 713d 6a3b 2b3a 5445 7cbe
00000250: 7be1 163b 1012 9a3d 8269 09be 202b 1c39
00000260: 9416 413d a9fd 86b5 a24d 4db9 de31 463d
00000270: a988 533e 27d6 103a 708c 53bd cd96 1b3b
00000280: 398a 19bd c689 753b 003c 423d 8aad b3b9
00000290: 6f0f aa39 ebf3 143d ceed 0c3a 3d50 c2bb
000002a0: 236f 90bd 6a62 5c3d 6167 c0bd 2b6c b83d
000002b0: 5eb1 cf39 8597 173e bee8 283e ff75 8dbc
000002c0: 8fa6 b33b 50d0 0f3d dfdc 183d 2b0d d03d
000002d0: bef2 d1b9 566f c33c 8ff5 b6bd aee9 d1bd
000002e0: 8d31 ddbd 7f65 e5bb c655 27be e9b5 503a
000002f0: 4092 0d3e 2abc ce3b cee5 bdbc cd4a 0d3a
00000300: 094f 84bd c332 4c3c 75eb 853d 75ed 9cbd
00000310: 0606 f9b9 6c93 c53c 58f4 13bd aa54 6c3d
00000320: 62a8 653b 31b5 183a 06ca e83c 6ede b037
00000330: 849d 283e 152b ebbd d308 613d 874a 1c3e
00000340: 07be a03a ba46 96bd 116c 363e 1fb2 1abe
00000350: 6918 92bb 1592 4bbc da18 b23a e01e 6abb
00000360: ecfb 64bd 7058 aa3c b26a 38bc 7312 d2bc
00000370: d7d3 5cbb 519f 323c a73e 14bd 42b0 85bd
00000380: d961 303d cc73 af3c c536 01bd f8e6 743d
00000390: 1f7b 5d3b 2914 3d3d 72cf 0c38 7ba7 d3bd
000003a0: f203 57bd 844a af3d cf98 e2bd ce42 623d
000003b0: 665b 7bbc b56b 5c3b b373 7e3c 1b24 87bb
000003c0: 3f5f c8bc eaf6 23be dccd 52bb 0ee3 573d
000003d0: 4bed cabd 9864 233d cdc2 6cba e872 c73c
000003e0: bfe2 123d 9c41 d13b f154 1cbd d4ca a7bd
000003f0: 2282 82bd cb20 aa3d 8fdd dab9 7f36 1ebb

bias f4 [50]
0.0013894751 -0.00027440867 -0.0024804114 0.00117132 0.004213385 0.00290305 -0.0056600375 0.009364231
-0.0011999714 0.0003139342 -0.002259522 0.0006067403 0.0019926229 -0.0013152364 -0.00037098222 -0.00048704163
0.002856938 0.0036560372 0.004127646 -0.00018093355 0.0027826333 -0.0024903696 -0.0016900143 0.0015761304
0.0008390181 0.0003429413 -0.0012203912 8.052062e-06 0.0041345456 -0.0036861717 0.0009657079 -0.0033870905
-0.0035141294 -7.707973e-05 -0.002674912 -0.001988798 0.00074302504 -0.0029301322 0.00040217885 0.0019346826
-0.00074370066 0.0008507475 0.00012552 0.0007090043 -0.0014867634 0.0007386131 -0.0037589166 -0.0038007884
-0.0023822743 0.0038316317
00000000: 0c1f b63a 82de 8fb9 668e 22bb fa86 993a
00000010: 6f10 8a3b 1941 3e3b d677 b9bb 6e6c 193c
00000020: 5c48 9dba 8997 a439 7d14 14bb a70d 1f3a
00000030: aa96 023b 0364 acba 6480 c2b9 9f59 ffb9
00000040: 773b 3b3b 209a 6f3b 3441 873b fbb8 3db9
00000050: d75c 363b 7835 23bb 7883 ddba 2996 ce3a
00000060: 8df1 5b3a cdcc b339 89f5 9fba 5817 0737
00000070: 157b 873b b393 71bb 8f27 7d3a f3f9 5dbb
00000080: 4f4d 66bb dda5 a1b8 944d 2fbb 7e56 02bb
00000090: 91c7 423a 7607 40bb 88db d239 2d95 fd3a
000000a0: e8f4 42ba b304 5f3a 059e 0339 79dc 393a
000000b0: 80df c2ba 7c9f 413a 2858 76bb a616 79bb
000000c0: ee1f 1cbb 1d1c 7b3b

weight f4 [50, 50]
-0.23172046 0.026615592 -0.02845446 -0.013948915 -0.017959127 0.21295813 0.035435267 0.0010837726
-0.06904414 -0.13765173 0.22194012 -0.1451472 0.0004328328 0.1345382 -0.024343489 0.26097226
-0.013176931 -0.17491779 6.629127e-05 0.08524475 0.035055697 -0.0239785 -5.5281023e-05 -0.0008445071
-9.737892e-05 0.06282571 -0.00020876645 -0.045579158 0.19417599 0.031902194 4.747347e-05 8.029406e-05
0.16775373 -0.008124317 -0.036381956 -0.011509218 3.0139898e-05 0.022827892 0.076720774 0.1982083
0.03325218 0.025009673 0.045047924 -0.052544214 0.00023059479 0.3113464 -0.028051075 -0.14203641
-0.25913888 0.007998911 -0.1393239 -0.0020184915 -0.034953088 0.0022304058 -0.0035316483 0.032747712
-0.23797333 0.15417306 0.043714035 0.017408775 0.042511694 0.042830434 0.07934345 0.061062817
-0.014478443 0.035782512 0.0031048488 -0.0027376951 0.0597408 0.00898421 0.18410154 -0.08213793
0.00074941147 -0.02940845 0.0021133032 -0.011538717 -0.15423489 -0.0015104453 0.00216062 -0.0011048595
-0.051387012 -0.0026469512 -0.010050342 0.047882423 0.09198364 -0.008144976 0.017538108 -0.0005996997
-0.0028431306 -0.007897795 -0.17686227 -0.013916719 0.11319036 -0.007139084 -0.013700846 0.12052225
0.0007594757 -0.1777171 -0.0050644227 0.010735858 0.0019221331 0.08166176 -0.0016031719 0.0006015057
-0.013970831 -0.2501179 -0.0011371272 2.567029e-06 0.00019344682 0.028430672 0.10002738 -0.00011495693
0.12023304 0.0014484839 0.038793243 0.06651891 -0.00011039363 0.025884157 0.0006476118 0.0343292
0.034412116 0.05784339 3.1424268e-05 0.20026127 -0.09360848 -0.06514338 -0.017801134 -0.008979997
-0.15562016 0.030324154 -0.07321778 0.015841367 0.00018974108 -0.051173862 -0.05290138 -6.457578e-05
0.122645855 -0.12713625 3.2094864e-05 -0.02896719 5.8675076e-05 -0.10922624 1.05865665e-05 -0.09681795
-7.561638e-05 -0.12656797 0.2020126 -0.093699835 0.065017976 -0.06527139 -0.21701652 0.09697185
0.017357832 0.08840632 0.0054570404 0.0024933042 -0.00046970107 -0.049977835 -0.046123587 -8.9677276e-05
-0.011559627 -0.05437774 0.051755097 -0.036722176 -0.013942297 0.033223435 0.009151881 0.06545434
-0.04735959 -0.03074014 -0.03536401 -0.00014154278 -0.020002803 0.00593669 -0.026606122 -0.033948388
0.033222277 -0.029787647 -0.0005911357 0.0016007773 0.0008769184 -0.16828379 0.012235545 0.18422514
-0.10279992 0.002066929 -0.08162924 0.005790106 -0.0010443348 0.054154284 0.13674575 -0.0034468782
-0.0010967389 -0.24507992 0.0041827643 -0.09424226 0.09437794 0.002942754 0.001085135 -0.123133846
-0.00021920599 -0.058295384 -0.05113749 0.0006354553 -0.18609506 0.0324614 -0.03780485 -0.0049890233
0.0012478761 0.032014918 -0.079325706 -0.012311996 -0.10905822 0.024523817 0.0058964835 -0.0003165205
0.006598959 -0.02947113 0.05975408 -0.00175191 0.16170205 0.00030716078 -0.14311512 0.09070465
0.094261356 -0.010581055 -0.15182292 0.11312755 0.11214328 0.0010463251 0.02081319 -2.3238792e-05
-0.08957304 -0.12601654 0.00040946176 0.0038283274 0.001674155 -0.0001296866 -0.04758401 -0.031010218
-0.000625907 -0.00048279087 -0.06907316 -0.048310127 -0.00053114846 0.008352376 0.070362486 -0.11857187
-0.0010166898 0.0011281973 0.1834152 0.09590618 0.02005877 0.047288343 -0.1097338 -0.03586197
00000000: 2148 6dbe f108 da3c 5419 e9bc fd89 64bc
00000010: 051f 93bc b211 5a3e 9224 113d 600d 8e3a
00000020: 0467 8dbd 93f4 0cbe 4544 633e 78a1 14be
00000030: d6ed e239 62c4 093e ff6b c7bc 289e 853e
00000040: 0ee4 57bc a61d 33be db05 8b38 cd94 ae3d
00000050: 9096 0f3d 8f6e c4bc 8cdd 67b8 ea61 5dba
00000060: e937 ccb8 c4aa 803d 51e8 5ab9 36b1 3abd
00000070: 12d6 463e e0ab 023d 401e 4738 8c63 a838
00000080: a2c7 2b3e db1b 05bc 3f05 15bd 2991 3cbc
00000090: f0d4 fc37 8f01 bb3c c81f 9d3d 1ef7 4a3e
000000a0: 7033 083d 16e1 cc3c 2c84 383d 9a38 57bd
000000b0: d1cb 7139 cc68 9f3e 5ecb e5bc fe71 11be
000000c0: daad 84be dd0d 033c edaa 0ebe ab48 04bb
000000d0: f82a 0fbd 002c 123b 3a73 67bb 7722 063d
000000e0: 48af 73be 8bdf 1d3e 7d0d 333d d99c 8e3c
000000f0: be20 2e3d f76e 2f3d d27e a23d 011d 7a3d
00000100: fe36 6dbc af90 123d b87a 4b3b e76a 33bb
00000110: c5b2 743d 8232 133c 1d85 3c3e ee37 a8bd
00000120: 2774 443a fde9 f0bc 587f 0a3b e30c 3dbc
00000130: c0ef 1dbe 22fa c5ba 3099 0d3b efd0 90ba
00000140: 307b 52bd 7978 2dbb 31aa 24bc 5c20 443d
00000150: eb61 bc3d 8172 05bc 14ac 8f3c 2a35 1dba
00000160: d153 3abb c165 01bc 621b 35be f302 64bc
00000170: 59d0 e73d faee e9bb 8379 60bc 5fd4 f63d
00000180: 8d17 473a 79fb 35be 75f3 a5bb 74e5 2f3c
00000190: 16f0 fb3a 483e a73d 8621 d2ba 5dae 1d3a
000001a0: eae5 64bc 740f 80be a80b 95ba 3945 2c36
000001b0: fcd7 4a39 71e7 e83c 28db cc3d 0815 f1b8
000001c0: bd3c f63d 0edb bd3a aae5 1e3d 113b 883d
000001d0: 2183 e7b8 030b d43c 7ec4 293a c69c 0c3d
000001e0: b8f3 0c3d 31ed 6c3d 8dcd 0338 4a11 4d3e
000001f0: ceb5 bfbd e469 85bd afd3 91bc d620 13bc
00000200: e45a 1fbe 5c6a f83c 34f3 95bd c1c5 813c
00000210: 3cf5 4639 af9b 51bd 1eaf 58bd dc6c 87b8
00000220: c02d fb3d 0130 02be 999d 0638 9a4c edbc
00000230: e219 7638 02b2 dfbd f59c 3137 7d48 c6bd
00000240: 3c94 9eb8 099b 01be 64dc 4e3e b3e5 bfbd
00000250: 2528 853d 02ad 85bd 9439 5ebe 2d99 c63d
00000260: 0332 8e3c 5f0e b53d f9d0 b23b b466 233b
00000270: 3642 f6b9 8fb5 4cbd 16ec 3cbd 1f11 bcb8
00000280: 9764 3dbc 31bb 5ebd 27fd 533d fe69 16bd
00000290: 3b6e 64bc 4c15 083d c5f1 153c ed0c 863d
000002a0: 21fc 41bd bfd2 fbbc dad9 10bd 1a6b 14b9
000002b0: ebdc a3bc 9188 c23b 15f5 d9bc 770d 0bbd
000002c0: 1514 083d 3905 f4bc 72f6 1aba 2cd1 d13a
000002d0: ffe0 653a 9652 2cbe 9877 483c 84a5 3c3e
000002e0: c488 d2bd 5075 073b 3b2d a7bd eeba bd3b
000002f0: 10e2 88ba e2d0 5d3d 1407 0c3e 05e5 61bb
00000300: 73c0 8fba 3bf6 7abe 920f 893b 1602 c1bd
00000310: 3949 c13d 38db 403b 173b 8e3a 992d fcbd
00000320: a9da 65b9 24c7 6ebd 8b75 51bd af94 263a
00000330: b48f 3ebe 3ff6 043d 42d9 1abd f67a a3bb
00000340: c68f a33a 1322 033d 8475 a2bd 41b8 49bc
00000350: eb59 dfbd 2ce6 c83c 4a37 c13b aaf2 a5b9
00000360: 153c d83b 706d f1bc b2c0 743d 58a0 e5ba
00000370: 3995 253e 6c0a a139 c58c 12be 5cc3 b93d
00000380: 190c c13d 295c 2dbc 7877 1bbe 6baf e73d
00000390: 60ab e53d d824 893a 6c80 aa3c edf0 c2b7
000003a0: 1272 b7bd 7b0a 01be 07ad d639 ade4 7a3b
000003b0: 526f db3a 7bfc 07b9 73e7 42bd 2409 febc
000003c0: e813 24ba 181f fdb9 3b76 8dbd d7e0 45bd
000003d0: c53c 0bba 67d8 083c 351a 903d cfd5 f2bd
000003e0: 7342 85ba 05e0 933a 32d1 3b3e 766a c43d
000003f0: 4a52 a43c 6cb1 413d 1dbc e0bd 00e4 12bd

bias f4 [50]
-0.00034021324 0.0043630204 0.00025128067 -0.005968024 0.001502675 0.004778616 0.0038119454 -0.004666591
0.001056702 -0.0011244038 -0.004695623 0.004582852 -0.0019867024 -0.0069403998 0.006090973 0.0048869355
-0.0013822394 0.002860596 0.003908019 -0.0021154273 0.00994382 -0.0046277945 -4.6645036e-05 -0.004321198
0.0010656506 -0.0056948927 -0.0039941953 0.0005326982 -0.001968685 -0.011272462 0.006485176 0.0012690236
-0.004042969 -0.004885282 0.0052687586 -0.0024129883 -0.010213688 -0.0007161406 0.0059202076 1.9823226e-05
0.0011373115 0.0014356715 0.0009610263 -0.00021625786 -0.0011767537 -0.0012729963 0.00085559563 0.007953279
0.0033895953 -0.001360622
00000000: a65e b2b9 abf7 8e3b 52be 8339 6a8f c3bb
00000010: 68f5 c43a f095 9c3b d5d1 793b 34ea 98bb
00000020: 0981 8a3a bb60 93ba bedd 99bb c02b 963b
00000030: 5633 02bb 4b6c e3bb c996 c73b 9622 a03b
00000040: 422c b5ba d678 3b3b d70e 803b fba2 0abb
00000050: 67eb 223c c1a4 97bb baa4 43b8 d698 8dbb
00000060: 4dad 8b3a 399c babb bde1 82bb c5a4 0b3a
00000070: 0e05 01bb 22b0 38bc 9981 d43b 5e55 a63a
00000080: e27a 84bb b714 a0bb 8da5 ac3b 3a23 1ebb
00000090: 5057 27bc 62bb 3bba 4dfe c13b 0e4a a637
000000a0: d711 953a 242d bc3a 62ed 7b3a 47c3 62b9
000000b0: 4d3d 9aba abda a6ba 0d4a 603a 784e 023c
000000c0: f923 5e3b e656 b2ba

weight f4 [50, 50]
-0.02483541 0.00044636347 -0.14937271 0.013982783 -0.0062318034 -0.0033513024 -0.00033693935 -0.039351042
-0.00066343654 -0.009056062 -0.00028401124 -8.9379246e-05 0.0027787953 -0.06456496 -0.0004115567 0.0032036838
-0.18767634 0.005240793 0.06895946 -0.0010410221 -0.022863869 -0.00026688518 0.10535179 -0.22668435
0.03500026 0.1710421 -0.0009763334 0.023535531 0.009348674 0.0062017026 -0.042271324 -0.09891588
-0.0002919198 0.011003032 0.03476963 -0.00015423076 0.2891674 -0.07590516 0.009792762 -0.00082953507
-0.0009297232 0.27554443 -0.13602677 0.122735515 -0.15182053 0.03265989 -0.012049972 0.038918816
-0.00022978419 0.0018575779 0.009242416 -0.06633497 6.8448935e-05 -0.0011935835 -0.011905049 -0.12196888
0.11288103 0.1856244 0.09455304 -0.00019355332 0.02196192 -0.02362146 0.10788912 0.1374649
-0.23430349 0.0010908366 -0.00041774832 0.0921146 0.003487596 -0.043446667 -9.324167e-05 -0.0014799711
-0.021622257 -0.029147029 0.00026955054 -0.00049296167 0.00069746334 6.744092e-05 -0.0050051613 0.004344577
-0.013111266 0.01866856 0.175517 -0.00083909003 6.506645e-06 -0.023862038 -0.008336135 -0.017400138
-0.11841269 0.0851246 -0.1064243 -0.1334078 0.09583691 -0.00029070608 -0.050148923 -0.21074535
0.057096437 0.00016566312 0.07608257 -0.067056 0.022327157 0.11345669 -0.0701288 -0.032307263
0.0006228256 0.07974726 0.10346048 0.012832022 0.0005121683 0.11612554 -0.14417288 0.00031828246
0.017061006 -0.0018473275 0.0002055817 -0.041927848 0.00029031758 -0.055368792 -0.00031318385 0.0005164443
0.04269387 -0.09837972 -0.116705544 -0.15774819 -0.06383202 0.0061598844 0.0005565412 -5.007092e-05
-0.017303025 0.0008635541 0.001054211 -0.15226458 -0.0011916532 0.0019538628 0.1443476 0.019361366
-0.03088793 0.06455775 0.015043872 -0.042669993 -0.19721209 0.021041956 -0.13780315 -0.15375648
0.05836789 -6.644735e-05 -0.0036879359 0.11446743 0.0010405144 -0.006141725 0.005064233 0.020334084
-0.00904248 -0.0031265365 0.010688047 -0.0932842 0.07751073 0.0486038 -0.007159917 0.012301731
-0.17550445 0.16863348 -0.08291398 -0.019777723 -0.13216938 0.052270867 0.0073090172 -0.0078877555
0.12522824 0.007228835 0.007230238 0.0072938963 0.100074776 -0.00023408534 -0.050984826 -0.22706188
-0.09734761 -0.0017628579 0.012983104 -0.15716678 -0.114828266 -0.0025257505 -0.124160066 -0.047443297
0.015436389 0.011006242 -0.10443871 -0.010816121 0.17644939 -0.043530077 -0.0011076045 0.10715917
0.052520826 0.00541265 -0.051572785 0.053094815 -0.16283141 0.26488575 0.14634757 0.13127044
0.01037508 0.15530826 0.3421231 3.71875e-05 -0.056305017 0.09240841 0.01752244 0.024268676
-5.1416377e-05 -2.9989427e-05 0.004189101 0.18774141 -0.04180354 0.17843625 -0.014468567 -0.0015011256
0.007978962 0.016889384 0.014861194 0.0043044277 -1.4890748e-05 0.14213137 0.031374227 0.00056113384
0.017521001 0.077505134 -9.553424e-05 -0.034632888 -0.18229835 0.1137554 0.08189576 0.06945254
-8.628701e-05 -0.00017171126 0.004668513 -0.0025186734 0.10853668 0.20780405 -0.005835305 -0.034200586
0.076817214 -0.027187057 0.013970727 -0.028614817 0.13467547 0.10926573 0.013003564 -0.016127128
-0.004933637 -0.20317645 0.09113956 -0.14983582 -6.686518e-05 -0.038181882 -0.108316116 0.13160506
00000000: a173 cbbc e405 ea39 29f5 18be 0b18 653c
00000010: 2834 ccbb 86a1 5bbb 3ca7 b0b9 8f2e 21bd
00000020: 79ea 2dba e15f 14bc 58e7 94b9 1e71 bbb8
00000030: 731c 363b a23a 84bd 35c6 d7b9 e5f4 513b
00000040: 3a2e 40be f5ba ab3b 9e3a 8d3d e872 88ba
00000050: 024d bbbc b9ec 8bb9 aec2 d73d f11f 68be
00000060: 6f5c 0f3d a925 2f3e a0f0 7fba 96cd c03c
00000070: 2e2b 193c a737 cb3b b224 2dbd 6994 cabd
00000080: d00c 99b9 1046 343c 996a 0e3d 01b9 21b9
00000090: c00d 943e 2a74 9bbd d271 203c 2875 59ba
000000a0: abb8 73ba 2914 8d3e 9a4a 0bbe c25c fb3d
000000b0: d776 1bbe 60c6 053d 3f6d 45bc 5669 1f3d
000000c0: 39f2 70b9 f979 f33a 816d 173c a1da 87bd
000000d0: 3e8c 8f38 0472 9cba 650d 43bc d2ca f9bd
000000e0: 2b2e e73d 5314 3e3e 06a5 c13d 93f4 4ab9
000000f0: 7ce9 b33c cb81 c1bc f9f4 dc3d 99c3 0c3e
00000100: 41ed 6fbe 67fa 8e3a 3b05 dbb9 94a6 bc3d
00000110: 2790 643b 22f5 31bd be8a c3b8 97fb c1ba
00000120: 2921 b1bc c0c5 eebc 7652 8d39 193a 01ba
00000130: f9d5 363a 116f 8d38 5602 a4bb f45c 8e3b
00000140: a3d0 56bc cfee 983c baba 333e 61f6 5bba
00000150: a853 da36 527a c3bc 4994 08bc bc8a 8ebc
00000160: 5a82 f2bd ce55 ae3d fcf4 d9bd 0e9c 08be
00000170: 2446 c43d e969 98b9 f568 4dbd a1cd 57be
00000180: f4dd 693d dbb5 2d39 2ed1 9b3d a854 89bd
00000190: 71e7 b63c fb5b e83d b09f 8fbd 9f54 04bd
000001a0: 1e45 233a 8852 a33d 17e3 d33d 673d 523c
000001b0: 0843 063a 3ad3 ed3d 0ea2 13be 26df a639
000001c0: 86c3 8b3c 0622 f2ba 6b91 5739 89bc 2bbd
000001d0: c435 9839 63ca 62bd d332 a4b9 fe61 073a
000001e0: c4df 2e3d 4e7b c9bd 5103 efbd be88 21be
000001f0: 5dba 82bd dbd8 c93b d9e4 113a 3e03 52b8
00000200: 13bf 8dbc 2260 623a 742d 8a3a 3feb 1bbe
00000210: 3f31 9cba 610c 003b dbcf 133e ba9b 9e3c
00000220: af08 fdbc db36 843d 937a 763c bbc6 2ebd
00000230: f7f1 49be 2e60 ac3c 451c 0dbe 5772 1dbe
00000240: 2b13 6f3d a659 8bb8 4cb1 71bb e66d ea3d
00000250: df61 883a 8640 c9bb def1 a53b aa93 a63c
00000260: e926 14bc 94e6 4cbb eb1c 2f3c c90b bfbd
00000270: f2bd 9e3d c714 473d bd9d eabb 338d 493c
00000280: 70b7 33be 41ae 2c3e cece a9bd e404 a2bc
00000290: 6957 07be fa19 563d 7b80 ef3b a53b 01bc
000002a0: d53b 003e dddf ec3b a2eb ec3b a301 ef3b
000002b0: 01f4 cc3d ce74 75b9 77d5 50bd e982 68be
000002c0: 2f5e c7bd b20f e7ba 16b7 543c 54f0 20be
000002d0: 152b ebbd 1087 25bb a247 febd e753 42bd
000002e0: e8e8 7c3c 8653 343c f6e3 d5bd 1936 31bc
000002f0: 26af 343e 984c 32bd 0a2d 91ba 4476 db3d
00000300: 1420 573d 995c b13b fc3d 53bd f379 593d
00000310: 47bd 26be 1b9f 873e 23dc 153e c26b 063e
00000320: 3dfc 293c 2109 1f3e c22a af3e c6f9 1b38
00000330: 17a0 66bd 9f40 bd3d 388b 8f3c 1acf c63c
00000340: eaa7 57b8 ce91 fbb7 ba44 893b 493f 403e
00000350: 303a 2bbd feb7 363e 920d 6dbc 6bc1 c4ba
00000360: 31ba 023c 9b5b 8a3c 5e7c 733c 280c 8d3b
00000370: 47d3 79b7 e38a 113e 4382 003d 0e19 133a
00000380: 3488 8f3c 03bb 9e3d 8e59 c8b8 37db 0dbd
00000390: 6bac 3abe 97f8 e83d f7b8 a73d 223d 8e3d
000003a0: fcf4 b4b8 640d 34b9 53fa 983b 5410 25bb
000003b0: 7b48 de3d 96ca 543e 1636 bfbb ea15 0cbd
000003c0: 5852 9d3d 64b7 debc 7ae5 643c 9f69 eabc
000003d0: 5ee8 093e b6c6 df3d e70c 553c 0a1d 84bc
000003e0: 59aa a1bb 7d0d 50be 61a7 ba3d 906e 19be
000003f0: f839 8cb8 9b64 1cbd d7d4 ddbd 7ac3 063e

bias f4 [50]
-0.0018048628 -0.0011963507 0.0010935738 0.019492175 -0.00024802148 0.0015899232 -0.00065600564 0.005140178
-0.0048884586 -0.0130913835 -0.0067794234 -0.008179788 0.0021239237 0.005088845 -0.00012335472 0.0031358306
0.0008275158 -0.0013044322 -9.295666e-05 -0.0004025024 -0.009328831 0.001188098 0.0021188478 0.0056670834
0.0053824014 0.007854973 0.00057579787 0.006917678 -0.0010186782 0.006132221 0.0041695926 0.005773979
6.5079576e-06 0.008558353 0.009254808 0.0025894763 -0.0042009642 0.0054071527 -0.006815596 0.0015473071
0.0058529708 -0.010259053 0.00022742989 0.002376267 0.008610276 -0.00750427 0.0073831123 0.012349094
-0.00354681 0.005465936
00000000: 2591 ecba dece 9cba 3f56 8f3a 0eae 9f3c
00000010: e108 82b9 f864 d03a cbf7 2bba f06e a83b
00000020: 5d2f a0bb 3e7d 56bc ed25 debb 8404 06bc
00000030: 8731 0b3b 53c0 a63b c858 01b9 8282 4d3b
00000040: a5ed 583a 7bf9 aaba baf1 c2b8 f506 d3b9
00000050: f4d7 18bc f4b9 9b3a 5edc 0a3b f1b2 b93b
00000060: db5e b03b 25b2 003c 24f1 163a b0ad e23b
00000070: 2b85 85ba ccf0 c83b 14a1 883b a533 bd3b
00000080: ee5e da36 5638 0c3c 7aa1 173c 34b4 293b
00000090: 3ea8 89bb 7c2e b13b 5d55 dfbb 03cf ca3a
000000a0: 47ca bf3b 9615 28bc 3f7a 6e39 25bb 1b3b
000000b0: 1d12 0d3c 61e6 f5bb 09ee f13b db53 4a3c
000000c0: 9971 68bb 981b b33b
