pbc_examples/saved_models/convection_beta-1.0_layers-30,30,30,30,1_L-2.0_WD-0_init-normal_seed0.pt (torch, 53933 bytes, 36 tensors)

x_u f4 [256, 1]
000000 00 00 00 00 db 0f c9 3c db 0f 49 3d e4 cb 96 3d
       0.0 0.024543693 0.049087387 0.07363108
000010 db 0f c9 3d d1 53 fb 3d e4 cb 16 3e df ed 2f 3e
       0.09817477 0.12271846 0.14726216 0.17180584
000020 db 0f 49 3e d6 31 62 3e d1 53 7b 3e e6 3a 8a 3e
       0.19634955 0.22089323 0.24543692 0.2699806
000030 e4 cb 96 3e e2 5c a3 3e df ed af 3e dd 7e bc 3e
       0.2945243 0.319068 0.3436117 0.3681554
000040 db 0f c9 3e d8 a0 d5 3e d6 31 e2 3e d4 c2 ee 3e
       0.3926991 0.41724277 0.44178647 0.46633017
000050 d1 53 fb 3e 67 f2 03 3f e6 3a 0a 3f 65 83 10 3f
       0.49087384 0.5154175 0.5399612 0.5645049
000060 e4 cb 16 3f 63 14 1d 3f e2 5c 23 3f 60 a5 29 3f
       0.5890486 0.6135923 0.638136 0.6626797
000070 df ed 2f 3f 5e 36 36 3f dd 7e 3c 3f 5c c7 42 3f
       0.6872234 0.7117671 0.7363108 0.7608545
000080 db 0f 49 3f 59 58 4f 3f d8 a0 55 3f 57 e9 5b 3f
       0.7853982 0.8099418 0.83448553 0.85902923
000090 d6 31 62 3f 55 7a 68 3f d4 c2 6e 3f 52 0b 75 3f
       0.88357294 0.90811664 0.93266034 0.957204
0000a0 d1 53 7b 3f 28 ce 80 3f 67 f2 83 3f a7 16 87 3f
       0.9817477 1.0062914 1.030835 1.0553788
0000b0 e6 3a 8a 3f 26 5f 8d 3f 65 83 90 3f a5 a7 93 3f
       1.0799224 1.1044662 1.1290098 1.1535536
0000c0 e4 cb 96 3f 23 f0 99 3f 63 14 9d 3f a2 38 a0 3f
       1.1780972 1.2026409 1.2271847 1.2517283
0000d0 e2 5c a3 3f 21 81 a6 3f 60 a5 a9 3f a0 c9 ac 3f
       1.276272 1.3008157 1.3253593 1.3499031
0000e0 df ed af 3f 1f 12 b3 3f 5e 36 b6 3f 9e 5a b9 3f
       1.3744467 1.3989905 1.4235342 1.4480779
0000f0 dd 7e bc 3f 1c a3 bf 3f 5c c7 c2 3f 9b eb c5 3f
       1.4726216 1.4971652 1.521709 1.5462526
000100 db 0f c9 3f 1a 34 cc 3f 59 58 cf 3f 99 7c d2 3f
       1.5707964 1.59534 1.6198837 1.6444274
000110 d8 a0 d5 3f 18 c5 d8 3f 57 e9 db 3f 97 0d df 3f
       1.6689711 1.6935148 1.7180585 1.7426022
000120 d6 31 e2 3f 15 56 e5 3f 55 7a e8 3f 94 9e eb 3f
       1.7671459 1.7916895 1.8162333 1.8407769
000130 d4 c2 ee 3f 13 e7 f1 3f 52 0b f5 3f 92 2f f8 3f
       1.8653207 1.8898643 1.914408 1.9389517
000140 d1 53 fb 3f 11 78 fe 3f 28 ce 00 40 48 60 02 40
       1.9634954 1.9880391 2.0125828 2.0371265
000150 67 f2 03 40 87 84 05 40 a7 16 07 40 c7 a8 08 40
       2.06167 2.0862138 2.1107576 2.1353014
000160 e6 3a 0a 40 06 cd 0b 40 26 5f 0d 40 45 f1 0e 40
       2.1598449 2.1843886 2.2089324 2.233476
000170 65 83 10 40 85 15 12 40 a5 a7 13 40 c4 39 15 40
       2.2580197 2.2825634 2.3071072 2.3316507
000180 e4 cb 16 40 04 5e 18 40 23 f0 19 40 43 82 1b 40
       2.3561945 2.3807383 2.4052818 2.4298255
000190 63 14 1d 40 83 a6 1e 40 a2 38 20 40 c2 ca 21 40
       2.4543693 2.478913 2.5034566 2.5280004
0001a0 e2 5c 23 40 01 ef 24 40 21 81 26 40 41 13 28 40
       2.552544 2.5770876 2.6016314 2.6261752
0001b0 60 a5 29 40 80 37 2b 40 a0 c9 2c 40 c0 5b 2e 40
       2.6507187 2.6752625 2.6998062 2.72435
0001c0 df ed 2f 40 ff 7f 31 40 1f 12 33 40 3e a4 34 40
       2.7488935 2.7734373 2.797981 2.8225245
0001d0 5e 36 36 40 7e c8 37 40 9e 5a 39 40 bd ec 3a 40
       2.8470683 2.871612 2.8961558 2.9206994
0001e0 dd 7e 3c 40 fd 10 3e 40 1c a3 3f 40 3c 35 41 40
       2.9452431 2.969787 2.9943304 3.0188742
0001f0 5c c7 42 40 7c 59 44 40 9b eb 45 40 bb 7d 47 40
       3.043418 3.0679617 3.0925052 3.117049
000200 db 0f 49 40 fa a1 4a 40 1a 34 4c 40 3a c6 4d 40
       3.1415927 3.1661363 3.19068 3.2152238
000210 59 58 4f 40 79 ea 50 40 99 7c 52 40 b9 0e 54 40
       3.2397673 3.264311 3.2888548 3.3133986
000220 d8 a0 55 40 f8 32 57 40 18 c5 58 40 37 57 5a 40
       3.3379421 3.362486 3.3870296 3.4115732
000230 57 e9 5b 40 77 7b 5d 40 97 0d 5f 40 b6 9f 60 40
       3.436117 3.4606607 3.4852045 3.509748
000240 d6 31 62 40 f6 c3 63 40 15 56 65 40 35 e8 66 40
       3.5342917 3.5588355 3.583379 3.6079228
000250 55 7a 68 40 75 0c 6a 40 94 9e 6b 40 b4 30 6d 40
       3.6324666 3.6570103 3.6815538 3.7060976
000260 d4 c2 6e 40 f3 54 70 40 13 e7 71 40 33 79 73 40
       3.7306414 3.755185 3.7797287 3.8042724
000270 52 0b 75 40 72 9d 76 40 92 2f 78 40 b2 c1 79 40
       3.828816 3.8533597 3.8779035 3.9024472
000280 d1 53 7b 40 f1 e5 7c 40 11 78 7e 40 18 05 80 40
       3.9269907 3.9515345 3.9760783 4.000622
000290 28 ce 80 40 38 97 81 40 48 60 82 40 58 29 83 40
       4.0251656 4.0497093 4.074253 4.098797
0002a0 67 f2 83 40 77 bb 84 40 87 84 85 40 97 4d 86 40
       4.12334 4.147884 4.1724277 4.1969714
0002b0 a7 16 87 40 b7 df 87 40 c7 a8 88 40 d6 71 89 40
       4.221515 4.246059 4.2706027 4.295146
0002c0 e6 3a 8a 40 f6 03 8b 40 06 cd 8b 40 16 96 8c 40
       4.3196898 4.3442335 4.3687773 4.393321
0002d0 26 5f 8d 40 36 28 8e 40 45 f1 8e 40 55 ba 8f 40
       4.417865 4.4424086 4.466952 4.4914956
0002e0 65 83 90 40 75 4c 91 40 85 15 92 40 95 de 92 40
       4.5160394 4.540583 4.565127 4.5896707
0002f0 a5 a7 93 40 b4 70 94 40 c4 39 95 40 d4 02 96 40
       4.6142144 4.6387577 4.6633015 4.687845
000300 e4 cb 96 40 f4 94 97 40 04 5e 98 40 14 27 99 40
       4.712389 4.7369328 4.7614765 4.7860203
000310 23 f0 99 40 33 b9 9a 40 43 82 9b 40 53 4b 9c 40
       4.8105636 4.8351073 4.859651 4.884195
000320 63 14 9d 40 73 dd 9d 40 83 a6 9e 40 92 6f 9f 40
       4.9087386 4.9332824 4.957826 4.9823694
000330 a2 38 a0 40 b2 01 a1 40 c2 ca a1 40 d2 93 a2 40
       5.006913 5.031457 5.0560007 5.0805445
000340 e2 5c a3 40 f1 25 a4 40 01 ef a4 40 11 b8 a5 40
       5.105088 5.1296315 5.1541753 5.178719
000350 21 81 a6 40 31 4a a7 40 41 13 a8 40 51 dc a8 40
       5.203263 5.2278066 5.2523503 5.276894
000360 60 a5 a9 40 70 6e aa 40 80 37 ab 40 90 00 ac 40
       5.3014374 5.325981 5.350525 5.3750687
000370 a0 c9 ac 40 b0 92 ad 40 c0 5b ae 40 cf 24 af 40
       5.3996124 5.424156 5.4487 5.473243
000380 df ed af 40 ef b6 b0 40 ff 7f b1 40 0f 49 b2 40
       5.497787 5.5223308 5.5468745 5.5714183
000390 1f 12 b3 40 2f db b3 40 3e a4 b4 40 4e 6d b5 40
       5.595962 5.620506 5.645049 5.669593
0003a0 5e 36 b6 40 6e ff b6 40 7e c8 b7 40 8e 91 b8 40
       5.6941366 5.7186804 5.743224 5.767768
0003b0 9e 5a b9 40 ad 23 ba 40 bd ec ba 40 cd b5 bb 40
       5.7923117 5.816855 5.8413987 5.8659425
0003c0 dd 7e bc 40 ed 47 bd 40 fd 10 be 40 0d da be 40
       5.8904862 5.91503 5.939574 5.9641175
0003d0 1c a3 bf 40 2c 6c c0 40 3c 35 c1 40 4c fe c1 40
       5.988661 6.0132046 6.0377483 6.062292
0003e0 5c c7 c2 40 6c 90 c3 40 7c 59 c4 40 8b 22 c5 40
       6.086836 6.1113796 6.1359234 6.1604667
0003f0 9b eb c5 40 ab b4 c6 40 bb 7d c7 40 cb 46 c8 40
       6.1850104 6.209554 6.234098 6.2586417

t_u f4 [256, 1]
000000 00 00 00 00 00 00 00 00 00 00 00 00 00 00 00 00
       0.0 0.0 0.0 0.0
000010 00 00 00 00 00 00 00 00 00 00 00 00 00 00 00 00
       0.0 0.0 0.0 0.0
000020 00 00 00 00 00 00 00 00 00 00 00 00 00 00 00 00
       0.0 0.0 0.0 0.0
000030 00 00 00 00 00 00 00 00 00 00 00 00 00 00 00 00
       0.0 0.0 0.0 0.0
000040 00 00 00 00 00 00 00 00 00 00 00 00 00 00 00 00
       0.0 0.0 0.0 0.0
000050 00 00 00 00 00 00 00 00 00 00 00 00 00 00 00 00
       0.0 0.0 0.0 0.0
000060 00 00 00 00 00 00 00 00 00 00 00 00 00 00 00 00
       0.0 0.0 0.0 0.0
000070 00 00 00 00 00 00 00 00 00 00 00 00 00 00 00 00
       0.0 0.0 0.0 0.0
000080 00 00 00 00 00 00 00 00 00 00 00 00 00 00 00 00
       0.0 0.0 0.0 0.0
000090 00 00 00 00 00 00 00 00 00 00 00 00 00 00 00 00
       0.0 0.0 0.0 0.0
0000a0 00 00 00 00 00 00 00 00 00 00 00 00 00 00 00 00
       0.0 0.0 0.0 0.0
0000b0 00 00 00 00 00 00 00 00 00 00 00 00 00 00 00 00
       0.0 0.0 0.0 0.0
0000c0 00 00 00 00 00 00 00 00 00 00 00 00 00 00 00 00
       0.0 0.0 0.0 0.0
0000d0 00 00 00 00 00 00 00 00 00 00 00 00 00 00 00 00
       0.0 0.0 0.0 0.0
0000e0 00 00 00 00 00 00 00 00 00 00 00 00 00 00 00 00
       0.0 0.0 0.0 0.0
0000f0 00 00 00 00 00 00 00 00 00 00 00 00 00 00 00 00
       0.0 0.0 0.0 0.0
000100 00 00 00 00 00 00 00 00 00 00 00 00 00 00 00 00
       0.0 0.0 0.0 0.0
000110 00 00 00 00 00 00 00 00 00 00 00 00 00 00 00 00
       0.0 0.0 0.0 0.0
000120 00 00 00 00 00 00 00 00 00 00 00 00 00 00 00 00
       0.0 0.0 0.0 0.0
000130 00 00 00 00 00 00 00 00 00 00 00 00 00 00 00 00
       0.0 0.0 0.0 0.0
000140 00 00 00 00 00 00 00 00 00 00 00 00 00 00 00 00
       0.0 0.0 0.0 0.0
000150 00 00 00 00 00 00 00 00 00 00 00 00 00 00 00 00
       0.0 0.0 0.0 0.0
000160 00 00 00 00 00 00 00 00 00 00 00 00 00 00 00 00
       0.0 0.0 0.0 0.0
000170 00 00 00 00 00 00 00 00 00 00 00 00 00 00 00 00
       0.0 0.0 0.0 0.0
000180 00 00 00 00 00 00 00 00 00 00 00 00 00 00 00 00
       0.0 0.0 0.0 0.0
000190 00 00 00 00 00 00 00 00 00 00 00 00 00 00 00 00
       0.0 0.0 0.0 0.0
0001a0 00 00 00 00 00 00 00 00 00 00 00 00 00 00 00 00
       0.0 0.0 0.0 0.0
0001b0 00 00 00 00 00 00 00 00 00 00 00 00 00 00 00 00
       0.0 0.0 0.0 0.0
0001c0 00 00 00 00 00 00 00 00 00 00 00 00 00 00 00 00
       0.0 0.0 0.0 0.0
0001d0 00 00 00 00 00 00 00 00 00 00 00 00 00 00 00 00
       0.0 0.0 0.0 0.0
0001e0 00 00 00 00 00 00 00 00 00 00 00 00 00 00 00 00
       0.0 0.0 0.0 0.0
0001f0 00 00 00 00 00 00 00 00 00 00 00 00 00 00 00 00
       0.0 0.0 0.0 0.0
000200 00 00 00 00 00 00 00 00 00 00 00 00 00 00 00 00
       0.0 0.0 0.0 0.0
000210 00 00 00 00 00 00 00 00 00 00 00 00 00 00 00 00
       0.0 0.0 0.0 0.0
000220 00 00 00 00 00 00 00 00 00 00 00 00 00 00 00 00
       0.0 0.0 0.0 0.0
000230 00 00 00 00 00 00 00 00 00 00 00 00 00 00 00 00
       0.0 0.0 0.0 0.0
000240 00 00 00 00 00 00 00 00 00 00 00 00 00 00 00 00
       0.0 0.0 0.0 0.0
000250 00 00 00 00 00 00 00 00 00 00 00 00 00 00 00 00
       0.0 0.0 0.0 0.0
000260 00 00 00 00 00 00 00 00 00 00 00 00 00 00 00 00
       0.0 0.0 0.0 0.0
000270 00 00 00 00 00 00 00 00 00 00 00 00 00 00 00 00
       0.0 0.0 0.0 0.0
000280 00 00 00 00 00 00 00 00 00 00 00 00 00 00 00 00
       0.0 0.0 0.0 0.0
000290 00 00 00 00 00 00 00 00 00 00 00 00 00 00 00 00
       0.0 0.0 0.0 0.0
0002a0 00 00 00 00 00 00 00 00 00 00 00 00 00 00 00 00
       0.0 0.0 0.0 0.0
0002b0 00 00 00 00 00 00 00 00 00 00 00 00 00 00 00 00
       0.0 0.0 0.0 0.0
0002c0 00 00 00 00 00 00 00 00 00 00 00 00 00 00 00 00
       0.0 0.0 0.0 0.0
0002d0 00 00 00 00 00 00 00 00 00 00 00 00 00 00 00 00
       0.0 0.0 0.0 0.0
0002e0 00 00 00 00 00 00 00 00 00 00 00 00 00 00 00 00
       0.0 0.0 0.0 0.0
0002f0 00 00 00 00 00 00 00 00 00 00 00 00 00 00 00 00
       0.0 0.0 0.0 0.0
000300 00 00 00 00 00 00 00 00 00 00 00 00 00 00 00 00
       0.0 0.0 0.0 0.0
000310 00 00 00 00 00 00 00 00 00 00 00 00 00 00 00 00
       0.0 0.0 0.0 0.0
000320 00 00 00 00 00 00 00 00 00 00 00 00 00 00 00 00
       0.0 0.0 0.0 0.0
000330 00 00 00 00 00 00 00 00 00 00 00 00 00 00 00 00
       0.0 0.0 0.0 0.0
000340 00 00 00 00 00 00 00 00 00 00 00 00 00 00 00 00
       0.0 0.0 0.0 0.0
000350 00 00 00 00 00 00 00 00 00 00 00 00 00 00 00 00
       0.0 0.0 0.0 0.0
000360 00 00 00 00 00 00 00 00 00 00 00 00 00 00 00 00
       0.0 0.0 0.0 0.0
000370 00 00 00 00 00 00 00 00 00 00 00 00 00 00 00 00
       0.0 0.0 0.0 0.0
000380 00 00 00 00 00 00 00 00 00 00 00 00 00 00 00 00
       0.0 0.0 0.0 0.0
000390 00 00 00 00 00 00 00 00 00 00 00 00 00 00 00 00
       0.0 0.0 0.0 0.0
0003a0 00 00 00 00 00 00 00 00 00 00 00 00 00 00 00 00
       0.0 0.0 0.0 0.0
0003b0 00 00 00 00 00 00 00 00 00 00 00 00 00 00 00 00
       0.0 0.0 0.0 0.0
0003c0 00 00 00 00 00 00 00 00 00 00 00 00 00 00 00 00
       0.0 0.0 0.0 0.0
0003d0 00 00 00 00 00 00 00 00 00 00 00 00 00 00 00 00
       0.0 0.0 0.0 0.0
0003e0 00 00 00 00 00 00 00 00 00 00 00 00 00 00 00 00
       0.0 0.0 0.0 0.0
0003f0 00 00 00 00 00 00 00 00 00 00 00 00 00 00 00 00
       0.0 0.0 0.0 0.0

x_f f4 [100, 1]
000000 a5 a7 93 40 97 0d df 3f d8 a0 55 40 53 4b 9c 40
       4.6142144 1.7426022 3.3379421 4.884195
000010 7c 59 44 40 ef b6 b0 40 ad 23 ba 40 9b eb c5 40
       3.0679617 5.5223308 5.816855 6.1850104
000020 85 15 92 40 23 f0 99 3f 14 27 99 40 65 83 10 3f
       4.565127 1.2026409 4.7860203 0.5645049
000030 94 9e eb 3f d1 53 fb 3d 92 6f 9f 40 5c c7 c2 40
       1.8407769 0.12271846 4.9823694 6.086836
000040 6e ff b6 40 a0 c9 2c 40 c2 ca 21 40 6c 90 c3 40
       5.7186804 2.6998062 2.5280004 6.1113796
000050 c0 5b 2e 40 cf 24 af 40 a7 16 87 3f 4c fe c1 40
       2.72435 5.473243 1.0553788 6.062292
000060 d6 31 e2 3e 5e 36 36 3f 97 4d 86 40 cb 46 c8 40
       0.44178647 0.7117671 4.1969714 6.2586417
000070 7c 59 c4 40 75 4c 91 40 9b eb c5 40 c7 a8 88 40
       6.1359234 4.540583 6.1850104 4.2706027
000080 cf 24 af 40 21 81 26 40 26 5f 8d 40 63 14 9d 40
       5.473243 2.6016314 4.417865 4.9087386
000090 2c 6c c0 40 dd 7e bc 3e d1 53 fb 3e 21 81 a6 40
       6.0132046 0.3681554 0.49087384 5.203263
0000a0 77 7b 5d 40 d6 31 e2 3e 59 58 cf 3f 77 bb 84 40
       3.4606607 0.44178647 1.6198837 4.147884
0000b0 55 7a e8 3f 83 a6 9e 40 97 0d 5f 40 18 c5 58 40
       1.8162333 4.957826 3.4852045 3.3870296
0000c0 52 0b 75 3f a5 a7 13 40 60 a5 29 3f 31 4a a7 40
       0.957204 2.3071072 0.6626797 5.2278066
0000d0 db 0f c9 3c 4c fe c1 40 c4 39 15 40 d1 53 fb 3f
       0.024543693 6.062292 2.3316507 1.9634954
0000e0 c4 39 15 40 df ed 2f 3f 1a 34 cc 3f 37 57 5a 40
       2.3316507 0.6872234 1.59534 3.4115732
0000f0 1f 12 b3 40 9e 5a b9 40 26 5f 8d 3f 94 9e 6b 40
       5.595962 5.7923117 1.1044662 3.6815538
000100 d6 31 62 3f 57 e9 db 3f 43 82 1b 40 35 e8 66 40
       0.88357294 1.7180585 2.4298255 3.6079228
000110 15 56 e5 3f 59 58 cf 3f d6 71 89 40 11 78 fe 3f
       1.7916895 1.6198837 4.295146 1.9880391
000120 65 83 10 40 c0 5b 2e 40 db 0f 49 3f 67 f2 03 40
       2.2580197 2.72435 0.7853982 2.06167
000130 83 a6 9e 40 f1 25 a4 40 43 82 1b 40 75 4c 91 40
       4.957826 5.1296315 2.4298255 4.540583
000140 75 0c 6a 40 d8 a0 55 3f b4 30 6d 40 15 56 e5 3f
       3.6570103 0.83448553 3.7060976 1.7916895
000150 5c c7 c2 40 92 6f 9f 40 53 4b 9c 40 28 ce 80 3f
       6.086836 4.9823694 4.884195 1.0062914
000160 df ed af 40 bd ec ba 40 97 4d 86 40 e4 cb 96 40
       5.497787 5.8413987 4.1969714 4.712389
000170 d6 31 62 3f d4 c2 6e 3f 63 14 9d 3f 7e c8 b7 40
       0.88357294 0.93266034 1.2271847 5.743224
000180 0f 49 b2 40 3c 35 c1 40 57 e9 5b 40 a0 c9 ac 3f
       5.5714183 6.0377483 3.436117 1.3499031

t_f f4 [100, 1]
000000 77 86 c4 3e 5d 74 51 3f ee 0c 09 3f 67 48 4c 3f
       0.3838384 0.8181818 0.53535354 0.7979798
000010 de ce 10 3e 96 02 35 3f a0 d6 2f 3f 72 1c 47 3f
       0.14141414 0.7070707 0.68686867 0.7777778
000020 e9 a2 0b 3f b5 7e 25 3c e4 38 0e 3f 6d b2 49 3f
       0.54545456 0.01010101 0.5555556 0.7878788
000030 43 62 de 3e 43 62 de 3e 0a d4 7a 3f 00 00 80 3f
       0.43434343 0.43434343 0.97979796 1.0
000040 a5 40 2d 3f f3 76 06 3f ca 26 9b 3e 58 0a 54 3f
       0.67676765 0.5252525 0.3030303 0.82828283
000050 0a d4 7a 3f ba e8 22 3f a0 d6 af 3e b5 7e a5 3e
       0.97979796 0.6363636 0.34343433 0.32323232
000060 1a 12 f3 3e 29 50 6b 3f e4 38 0e 3f 72 1c 47 3f
       0.47474748 0.9191919 0.5555556 0.7777778
000070 8c 2e ba 3e 39 8e 63 3e de ce 90 3e 39 8e 63 3f
       0.36363637 0.22222222 0.28282827 0.8888889
000080 2f ba 68 3f ca 26 1b 3e bf 52 20 3f b5 7e 25 3d
       0.90909094 0.15151516 0.6262626 0.04040404
000090 ca 26 1b 3e 3e f8 60 3f d4 fa 15 3f fd 4a 81 3e
       0.15151516 0.8787879 0.5858586 0.25252524
0000a0 67 48 4c 3f 77 86 c4 3e 4e 36 d9 3e b5 7e 25 3c
       0.7979798 0.3838384 0.42424244 0.01010101
0000b0 10 3e 78 3e 34 24 66 3f 8c 2e ba 3e 1f 7c 70 3f
       0.24242425 0.8989899 0.36363637 0.93939394
0000c0 7c f0 41 3f bf 52 a0 3e b5 7e 25 3d a0 d6 af 3e
       0.75757575 0.3131313 0.04040404 0.34343433
0000d0 2f ba e8 3e 15 a8 75 3f 15 a8 75 3f 2f ba e8 3e
       0.45454547 0.959596 0.959596 0.45454547
0000e0 2f ba e8 3e 62 de 4e 3f f3 76 06 3f de ce 10 3f
       0.45454547 0.8080808 0.5252525 0.56565654
0000f0 3e f8 60 3f 86 c4 3c 3f b5 7e 25 3d 1a 12 f3 3e
       0.8787879 0.7373737 0.04040404 0.47474748
000100 d9 64 13 3f de ce 10 3f a5 40 2d 3f 05 6a 7d 3f
       0.57575756 0.56565654 0.67676765 0.989899
000110 a0 d6 2f 3f 4e 36 59 3e 62 de 4e 3d de ce 90 3e
       0.68686867 0.21212122 0.05050505 0.28282827
000120 fd 4a 81 3e 62 de 4e 3f b5 7e 25 3c 58 0a d4 3e
       0.25252524 0.8080808 0.01010101 0.41414142
000130 10 3e 78 3f 0a d4 7a 3f d4 fa 95 3e f8 e0 03 3f
       0.969697 0.97979796 0.2929293 0.5151515
000140 53 a0 56 3f 1a 12 73 3f 1a 12 f3 3e cf 90 18 3f
       0.83838385 0.94949496 0.47474748 0.5959596
000150 6d b2 c9 3e a0 d6 2f 3f 4e 36 59 3f b5 7e a5 3c
       0.3939394 0.68686867 0.8484849 0.02020202
000160 29 50 6b 3f 10 3e f8 3e f3 76 06 3e ca 26 1b 3f
       0.9191919 0.4848485 0.13131313 0.6060606
000170 fd 4a 81 3e 10 3e 78 3f a0 d6 af 3e 53 a0 56 3f
       0.25252524 0.969697 0.34343433 0.83838385
000180 10 3e f8 3e 67 48 4c 3f 91 98 37 3f ca 26 9b 3e
       0.4848485 0.7979798 0.7171717 0.3030303

x_bc_lb f4 [100, 1]
000000 00 00 00 00 00 00 00 00 00 00 00 00 00 00 00 00
       0.0 0.0 0.0 0.0
000010 00 00 00 00 00 00 00 00 00 00 00 00 00 00 00 00
       0.0 0.0 0.0 0.0
000020 00 00 00 00 00 00 00 00 00 00 00 00 00 00 00 00
       0.0 0.0 0.0 0.0
000030 00 00 00 00 00 00 00 00 00 00 00 00 00 00 00 00
       0.0 0.0 0.0 0.0
000040 00 00 00 00 00 00 00 00 00 00 00 00 00 00 00 00
       0.0 0.0 0.0 0.0
000050 00 00 00 00 00 00 00 00 00 00 00 00 00 00 00 00
       0.0 0.0 0.0 0.0
000060 00 00 00 00 00 00 00 00 00 00 00 00 00 00 00 00
       0.0 0.0 0.0 0.0
000070 00 00 00 00 00 00 00 00 00 00 00 00 00 00 00 00
       0.0 0.0 0.0 0.0
000080 00 00 00 00 00 00 00 00 00 00 00 00 00 00 00 00
       0.0 0.0 0.0 0.0
000090 00 00 00 00 00 00 00 00 00 00 00 00 00 00 00 00
       0.0 0.0 0.0 0.0
0000a0 00 00 00 00 00 00 00 00 00 00 00 00 00 00 00 00
       0.0 0.0 0.0 0.0
0000b0 00 00 00 00 00 00 00 00 00 00 00 00 00 00 00 00
       0.0 0.0 0.0 0.0
0000c0 00 00 00 00 00 00 00 00 00 00 00 00 00 00 00 00
       0.0 0.0 0.0 0.0
0000d0 00 00 00 00 00 00 00 00 00 00 00 00 00 00 00 00
       0.0 0.0 0.0 0.0
0000e0 00 00 00 00 00 00 00 00 00 00 00 00 00 00 00 00
       0.0 0.0 0.0 0.0
0000f0 00 00 00 00 00 00 00 00 00 00 00 00 00 00 00 00
       0.0 0.0 0.0 0.0
000100 00 00 00 00 00 00 00 00 00 00 00 00 00 00 00 00
       0.0 0.0 0.0 0.0
000110 00 00 00 00 00 00 00 00 00 00 00 00 00 00 00 00
       0.0 0.0 0.0 0.0
000120 00 00 00 00 00 00 00 00 00 00 00 00 00 00 00 00
       0.0 0.0 0.0 0.0
000130 00 00 00 00 00 00 00 00 00 00 00 00 00 00 00 00
       0.0 0.0 0.0 0.0
000140 00 00 00 00 00 00 00 00 00 00 00 00 00 00 00 00
       0.0 0.0 0.0 0.0
000150 00 00 00 00 00 00 00 00 00 00 00 00 00 00 00 00
       0.0 0.0 0.0 0.0
000160 00 00 00 00 00 00 00 00 00 00 00 00 00 00 00 00
       0.0 0.0 0.0 0.0
000170 00 00 00 00 00 00 00 00 00 00 00 00 00 00 00 00
       0.0 0.0 0.0 0.0
000180 00 00 00 00 00 00 00 00 00 00 00 00 00 00 00 00
       0.0 0.0 0.0 0.0

t_bc_lb f4 [100, 1]
000000 00 00 00 00 b5 7e 25 3c b5 7e a5 3c 10 3e f8 3c
       0.0 0.01010101 0.02020202 0.030303031
000010 b5 7e 25 3d 62 de 4e 3d 10 3e 78 3d de ce 90 3d
       0.04040404 0.05050505 0.060606062 0.07070707
000020 b5 7e a5 3d 8c 2e ba 3d 62 de ce 3d 39 8e e3 3d
       0.08080808 0.09090909 0.1010101 0.11111111
000030 10 3e f8 3d f3 76 06 3e de ce 10 3e ca 26 1b 3e
       0.121212125 0.13131313 0.14141414 0.15151516
000040 b5 7e 25 3e a0 d6 2f 3e 8c 2e 3a 3e 77 86 44 3e
       0.16161616 0.17171717 0.18181819 0.1919192
000050 62 de 4e 3e 4e 36 59 3e 39 8e 63 3e 24 e6 6d 3e
       0.2020202 0.21212122 0.22222222 0.23232323
000060 10 3e 78 3e fd 4a 81 3e f3 76 86 3e e9 a2 8b 3e
       0.24242425 0.25252524 0.26262626 0.27272728
000070 de ce 90 3e d4 fa 95 3e ca 26 9b 3e bf 52 a0 3e
       0.28282827 0.2929293 0.3030303 0.3131313
000080 b5 7e a5 3e ab aa aa 3e a0 d6 af 3e 96 02 b5 3e
       0.32323232 0.33333334 0.34343433 0.35353535
000090 8c 2e ba 3e 81 5a bf 3e 77 86 c4 3e 6d b2 c9 3e
       0.36363637 0.37373737 0.3838384 0.3939394
0000a0 62 de ce 3e 58 0a d4 3e 4e 36 d9 3e 43 62 de 3e
       0.4040404 0.41414142 0.42424244 0.43434343
0000b0 39 8e e3 3e 2f ba e8 3e 24 e6 ed 3e 1a 12 f3 3e
       0.44444445 0.45454547 0.46464646 0.47474748
0000c0 10 3e f8 3e 05 6a fd 3e fd 4a 01 3f f8 e0 03 3f
       0.4848485 0.4949495 0.5050505 0.5151515
0000d0 f3 76 06 3f ee 0c 09 3f e9 a2 0b 3f e4 38 0e 3f
       0.5252525 0.53535354 0.54545456 0.5555556
0000e0 de ce 10 3f d9 64 13 3f d4 fa 15 3f cf 90 18 3f
       0.56565654 0.57575756 0.5858586 0.5959596
0000f0 ca 26 1b 3f c5 bc 1d 3f bf 52 20 3f ba e8 22 3f
       0.6060606 0.61616164 0.6262626 0.6363636
000100 b5 7e 25 3f b0 14 28 3f ab aa 2a 3f a5 40 2d 3f
       0.64646465 0.65656567 0.6666667 0.67676765
000110 a0 d6 2f 3f 9b 6c 32 3f 96 02 35 3f 91 98 37 3f
       0.68686867 0.6969697 0.7070707 0.7171717
000120 8c 2e 3a 3f 86 c4 3c 3f 81 5a 3f 3f 7c f0 41 3f
       0.72727275 0.7373737 0.74747473 0.75757575
000130 77 86 44 3f 72 1c 47 3f 6d b2 49 3f 67 48 4c 3f
       0.7676768 0.7777778 0.7878788 0.7979798
000140 62 de 4e 3f 5d 74 51 3f 58 0a 54 3f 53 a0 56 3f
       0.8080808 0.8181818 0.82828283 0.83838385
000150 4e 36 59 3f 48 cc 5b 3f 43 62 5e 3f 3e f8 60 3f
       0.8484849 0.85858583 0.86868685 0.8787879
000160 39 8e 63 3f 34 24 66 3f 2f ba 68 3f 29 50 6b 3f
       0.8888889 0.8989899 0.90909094 0.9191919
000170 24 e6 6d 3f 1f 7c 70 3f 1a 12 73 3f 15 a8 75 3f
       0.9292929 0.93939394 0.94949496 0.959596
000180 10 3e 78 3f 0a d4 7a 3f 05 6a 7d 3f 00 00 80 3f
       0.969697 0.97979796 0.989899 1.0

x_bc_ub f4 [100, 1]
000000 db 0f c9 40 db 0f c9 40 db 0f c9 40 db 0f c9 40
       6.2831855 6.2831855 6.2831855 6.2831855
000010 db 0f c9 40 db 0f c9 40 db 0f c9 40 db 0f c9 40
       6.2831855 6.2831855 6.2831855 6.2831855
000020 db 0f c9 40 db 0f c9 40 db 0f c9 40 db 0f c9 40
       6.2831855 6.2831855 6.2831855 6.2831855
000030 db 0f c9 40 db 0f c9 40 db 0f c9 40 db 0f c9 40
       6.2831855 6.2831855 6.2831855 6.2831855
000040 db 0f c9 40 db 0f c9 40 db 0f c9 40 db 0f c9 40
       6.2831855 6.2831855 6.2831855 6.2831855
000050 db 0f c9 40 db 0f c9 40 db 0f c9 40 db 0f c9 40
       6.2831855 6.2831855 6.2831855 6.2831855
000060 db 0f c9 40 db 0f c9 40 db 0f c9 40 db 0f c9 40
       6.2831855 6.2831855 6.2831855 6.2831855
000070 db 0f c9 40 db 0f c9 40 db 0f c9 40 db 0f c9 40
       6.2831855 6.2831855 6.2831855 6.2831855
000080 db 0f c9 40 db 0f c9 40 db 0f c9 40 db 0f c9 40
       6.2831855 6.2831855 6.2831855 6.2831855
000090 db 0f c9 40 db 0f c9 40 db 0f c9 40 db 0f c9 40
       6.2831855 6.2831855 6.2831855 6.2831855
0000a0 db 0f c9 40 db 0f c9 40 db 0f c9 40 db 0f c9 40
       6.2831855 6.2831855 6.2831855 6.2831855
0000b0 db 0f c9 40 db 0f c9 40 db 0f c9 40 db 0f c9 40
       6.2831855 6.2831855 6.2831855 6.2831855
0000c0 db 0f c9 40 db 0f c9 40 db 0f c9 40 db 0f c9 40
       6.2831855 6.2831855 6.2831855 6.2831855
0000d0 db 0f c9 40 db 0f c9 40 db 0f c9 40 db 0f c9 40
       6.2831855 6.2831855 6.2831855 6.2831855
0000e0 db 0f c9 40 db 0f c9 40 db 0f c9 40 db 0f c9 40
       6.2831855 6.2831855 6.2831855 6.2831855
0000f0 db 0f c9 40 db 0f c9 40 db 0f c9 40 db 0f c9 40
       6.2831855 6.2831855 6.2831855 6.2831855
000100 db 0f c9 40 db 0f c9 40 db 0f c9 40 db 0f c9 40
       6.2831855 6.2831855 6.2831855 6.2831855
000110 db 0f c9 40 db 0f c9 40 db 0f c9 40 db 0f c9 40
       6.2831855 6.2831855 6.2831855 6.2831855
000120 db 0f c9 40 db 0f c9 40 db 0f c9 40 db 0f c9 40
       6.2831855 6.2831855 6.2831855 6.2831855
000130 db 0f c9 40 db 0f c9 40 db 0f c9 40 db 0f c9 40
       6.2831855 6.2831855 6.2831855 6.2831855
000140 db 0f c9 40 db 0f c9 40 db 0f c9 40 db 0f c9 40
       6.2831855 6.2831855 6.2831855 6.2831855
000150 db 0f c9 40 db 0f c9 40 db 0f c9 40 db 0f c9 40
       6.2831855 6.2831855 6.2831855 6.2831855
000160 db 0f c9 40 db 0f c9 40 db 0f c9 40 db 0f c9 40
       6.2831855 6.2831855 6.2831855 6.2831855
000170 db 0f c9 40 db 0f c9 40 db 0f c9 40 db 0f c9 40
       6.2831855 6.2831855 6.2831855 6.2831855
000180 db 0f c9 40 db 0f c9 40 db 0f c9 40 db 0f c9 40
       6.2831855 6.2831855 6.2831855 6.2831855

t_bc_ub f4 [100, 1]
000000 00 00 00 00 b5 7e 25 3c b5 7e a5 3c 10 3e f8 3c
       0.0 0.01010101 0.02020202 0.030303031
000010 b5 7e 25 3d 62 de 4e 3d 10 3e 78 3d de ce 90 3d
       0.04040404 0.05050505 0.060606062 0.07070707
000020 b5 7e a5 3d 8c 2e ba 3d 62 de ce 3d 39 8e e3 3d
       0.08080808 0.09090909 0.1010101 0.11111111
000030 10 3e f8 3d f3 76 06 3e de ce 10 3e ca 26 1b 3e
       0.121212125 0.13131313 0.14141414 0.15151516
000040 b5 7e 25 3e a0 d6 2f 3e 8c 2e 3a 3e 77 86 44 3e
       0.16161616 0.17171717 0.18181819 0.1919192
000050 62 de 4e 3e 4e 36 59 3e 39 8e 63 3e 24 e6 6d 3e
       0.2020202 0.21212122 0.22222222 0.23232323
000060 10 3e 78 3e fd 4a 81 3e f3 76 86 3e e9 a2 8b 3e
       0.24242425 0.25252524 0.26262626 0.27272728
000070 de ce 90 3e d4 fa 95 3e ca 26 9b 3e bf 52 a0 3e
       0.28282827 0.2929293 0.3030303 0.3131313
000080 b5 7e a5 3e ab aa aa 3e a0 d6 af 3e 96 02 b5 3e
       0.32323232 0.33333334 0.34343433 0.35353535
000090 8c 2e ba 3e 81 5a bf 3e 77 86 c4 3e 6d b2 c9 3e
       0.36363637 0.37373737 0.3838384 0.3939394
0000a0 62 de ce 3e 58 0a d4 3e 4e 36 d9 3e 43 62 de 3e
       0.4040404 0.41414142 0.42424244 0.43434343
0000b0 39 8e e3 3e 2f ba e8 3e 24 e6 ed 3e 1a 12 f3 3e
       0.44444445 0.45454547 0.46464646 0.47474748
0000c0 10 3e f8 3e 05 6a fd 3e fd 4a 01 3f f8 e0 03 3f
       0.4848485 0.4949495 0.5050505 0.5151515
0000d0 f3 76 06 3f ee 0c 09 3f e9 a2 0b 3f e4 38 0e 3f
       0.5252525 0.53535354 0.54545456 0.5555556
0000e0 de ce 10 3f d9 64 13 3f d4 fa 15 3f cf 90 18 3f
       0.56565654 0.57575756 0.5858586 0.5959596
0000f0 ca 26 1b 3f c5 bc 1d 3f bf 52 20 3f ba e8 22 3f
       0.6060606 0.61616164 0.6262626 0.6363636
000100 b5 7e 25 3f b0 14 28 3f ab aa 2a 3f a5 40 2d 3f
       0.64646465 0.65656567 0.6666667 0.67676765
000110 a0 d6 2f 3f 9b 6c 32 3f 96 02 35 3f 91 98 37 3f
       0.68686867 0.6969697 0.7070707 0.7171717
000120 8c 2e 3a 3f 86 c4 3c 3f 81 5a 3f 3f 7c f0 41 3f
       0.72727275 0.7373737 0.74747473 0.75757575
000130 77 86 44 3f 72 1c 47 3f 6d b2 49 3f 67 48 4c 3f
       0.7676768 0.7777778 0.7878788 0.7979798
000140 62 de 4e 3f 5d 74 51 3f 58 0a 54 3f 53 a0 56 3f
       0.8080808 0.8181818 0.82828283 0.83838385
000150 4e 36 59 3f 48 cc 5b 3f 43 62 5e 3f 3e f8 60 3f
       0.8484849 0.85858583 0.86868685 0.8787879
000160 39 8e 63 3f 34 24 66 3f 2f ba 68 3f 29 50 6b 3f
       0.8888889 0.8989899 0.90909094 0.9191919
000170 24 e6 6d 3f 1f 7c 70 3f 1a 12 73 3f 15 a8 75 3f
       0.9292929 0.93939394 0.94949496 0.959596
000180 10 3e 78 3f 0a d4 7a 3f 05 6a 7d 3f 00 00 80 3f
       0.969697 0.97979796 0.989899 1.0

weight f4 [30, 2]
000000 a5 ab f2 bd 09 18 96 3d 68 0d de bd 87 17 d3 3e
       -0.11849145 0.07328803 -0.10842401 0.41228887
000010 4a 5d dd bd a3 8e 6a bd 80 7c 6e 3e 36 27 a6 bd
       -0.10808809 -0.057264935 0.2328968 -0.08112948
000020 6a 43 f3 3d a4 e5 c7 be 19 db c1 3d ee 11 01 be
       0.118780926 -0.3904239 0.09465618 -0.12604496
000030 d7 36 cd 3e c9 7e 28 3d c8 36 19 3f 3a 0f 87 3d
       0.40080902 0.041136537 0.59849215 0.06594701
000040 43 b4 1c 3f 9b c1 c5 3e 4d 2d 7c 3d 0c 31 3d 3c
       0.6121256 0.38624272 0.06156664 0.011547338
000050 37 36 fd bd 26 24 9f 3e 4e f8 f9 bd a8 ae ae bd
       -0.12363856 0.31082267 -0.122055635 -0.08529407
000060 84 57 09 3f 42 9c b4 be a1 29 a9 be 16 34 93 be
       0.53649163 -0.35275465 -0.33039573 -0.28750676
000070 bc d8 aa bd ab 47 f4 3e 15 e5 45 be 48 3a e4 bc
       -0.0834212 0.47710928 -0.19325669 -0.027859822
000080 15 02 ec be a5 df ee 3d 4e 8d 36 3e 4c a2 0b 3f
       -0.46095338 0.116637506 0.17827341 0.5454452
000090 8a 84 69 3e fc 05 87 be 8a ee e6 bd 43 45 00 be
       0.22804466 -0.26371753 -0.112759665 -0.12526421
0000a0 52 aa cd 3d 4f e7 36 be ef 01 3c 3e 53 41 3d be
       0.10042252 -0.17861675 0.18360113 -0.1848195
0000b0 44 a5 5c 3e 20 87 36 bd ea 8b 04 3e 79 0c 79 be
       0.21547419 -0.04456246 0.12943998 -0.24321164
0000c0 52 28 79 3e 21 2f f3 3e d6 19 f6 bd 18 60 ac be
       0.24331787 0.47496894 -0.120166466 -0.33667064
0000d0 47 19 e8 be 94 f6 19 bc b2 68 cd be d5 b1 00 3e
       -0.45331785 -0.009397168 -0.4011894 0.12567838
0000e0 d0 f5 af 3d 4a f6 83 3d 5b 88 32 be 79 fb 94 3d
       0.08591807 0.0644346 -0.17434828 0.07274527

bias f4 [30]
000000 6c 17 c1 3d 4d f2 e7 3d 67 58 5a 3c 0a c4 e0 bd
       0.094282955 0.11325512 0.013326741 -0.109748915
000010 06 2d 84 bd b9 41 96 bd b5 7c e7 bc 60 af d6 bb
       -0.064539 -0.07336754 -0.028257707 -0.006551668
000020 f8 7d ca ba 4f e0 c4 bd 21 4f 18 3e bf bc 16 3e
       -0.0015448919 -0.09613096 0.14873935 0.14720438
000030 c9 76 60 bd 88 44 fc 3c 15 6a af 3d 74 06 bf 3d
       -0.054800782 0.030794397 0.085651554 0.09327403
000040 2e 27 88 3c c6 a1 4f bd 27 62 9f bd 72 b1 0a 3e
       0.016620245 -0.05069139 -0.07782393 0.13544253
000050 06 03 3f 3d 25 7c 50 3d af 29 d7 bd a1 6f d4 bd
       0.046633743 0.050899643 -0.105059974 -0.10372854
000060 86 c3 72 3d 45 2e 0f 3d b9 95 50 3c 07 a3 a2 bd
       0.059268497 0.034956235 0.012731009 -0.07941251
000070 24 fb 3e bd 93 59 c9 3d
       -0.046626225 0.09831538

weight f4 [30, 30]
000000 a8 ee 55 3e 46 b0 88 3e 12 19 5f 3d 3f a8 d2 bd
       0.20891821 0.26696986 0.05446727 -0.10285997
000010 d6 57 9c 3d 66 bd 91 be e3 c3 d6 3b 6e 3a bb 3d
       0.07633941 -0.28464812 0.0065541132 0.09142004
000020 48 07 5b 3e e1 91 8d be 9d 6f 0f 3f 86 ae e2 3e
       0.21389496 -0.2765036 0.56029683 0.44273776
000030 ec e7 59 3e bd f5 d4 3d 87 ab 08 3e fe d3 b9 3e
       0.21279877 0.10398433 0.13346682 0.3629455
000040 7b e6 f3 be d9 11 e2 bd 23 ec 4c bd f2 c4 96 3e
       -0.4763678 -0.110385604 -0.050029885 0.29447132
000050 53 1b 20 3e 18 10 e4 3e d7 b9 52 be 32 c0 68 be
       0.15635423 0.4454353 -0.20578705 -0.22729567
000060 f2 7a d2 3d 05 d7 a4 3e 87 42 3f be 3b b5 37 bd
       0.10277356 0.32195297 -0.18677722 -0.04485057
000070 7b cb 73 be 26 e7 b3 3d 1f eb ca 3d e4 77 bb be
       -0.2380809 0.087843224 0.09908127 -0.36614907
000080 b9 5f 36 be d0 ea 33 be e6 57 05 be 27 92 17 3d
       -0.17809953 -0.17570043 -0.13021812 0.037004616
000090 b9 ef 28 be 73 b6 3c 3c 9a 19 bf bd b2 10 d0 3d
       -0.16497697 0.011518109 -0.09331055 0.101594344
0000a0 a8 ba 19 3f 6c fc 5f be e6 6f 40 3e da 48 97 be
       0.6005044 -0.21873635 0.18792686 -0.2954777
0000b0 05 50 79 bd 51 3e 90 be be 84 e8 3d f1 58 d5 3e
       -0.06086733 -0.28172544 0.113534436 0.4166942
0000c0 cb 72 c2 bd 26 f1 ad bd 23 30 ce bc ca d4 4b 3e
       -0.09494551 -0.08493261 -0.025169438 0.19905391
0000d0 ec cc 13 bd 1a 2b 55 3d 73 e3 ef 3d 2b c9 7d be
       -0.0360841 0.052043058 0.11713304 -0.2478377
0000e0 5f a9 85 3e 9c 4e fa 3d 9a 2e a7 3d a1 40 85 be
       0.26105782 0.12222025 0.081631854 -0.2602587
0000f0 98 bb 9d bd f4 67 18 3e 68 cf 3a 3e cf 8a 41 bd
       -0.07701796 0.14883405 0.18243182 -0.04725152
000100 3e 33 61 be 5b 89 2c 3e e1 3f 80 bd f9 0c de be
       -0.21992204 0.16849272 -0.06262184 -0.43369272
000110 2c 8e da bd 1e 41 47 3e f8 e3 d3 3c 65 24 35 3e
       -0.106716484 0.19458434 0.02586554 0.17689665
000120 7b 38 44 be 01 4b ba bd ea c0 9e 3e bb 51 95 bd
       -0.1916217 -0.09096337 0.31006557 -0.072909795
000130 f0 f3 94 3e 60 26 09 3e 06 31 a9 be 67 df 67 bd
       0.2909236 0.13393545 -0.33045214 -0.056609537
000140 c6 11 5e bd 4d 54 4e 3c ca b3 11 3d 36 e4 72 be
       -0.05421617 0.012593341 0.03557185 -0.23719868
000150 ed 9a d8 bd a4 ca b0 be 43 51 da 3c 23 99 67 3b
       -0.10576425 -0.34529603 0.026650077 0.003533908
000160 2f dd ba 3d d4 a4 83 be 87 4d 1e 3e 07 e7 75 be
       0.09124219 -0.2571169 0.15459262 -0.24013911
000170 c2 11 41 3e 61 c6 77 be d4 91 9c be a7 e2 1a 3d
       0.1885443 -0.2419677 -0.30580008 0.03781381
000180 68 d6 6b 3e 6b 53 8c 3c c2 22 c9 be bc 7f 75 3e
       0.23031008 0.01712962 -0.3928433 0.23974508
000190 cb 18 7a be 67 8b 14 be 88 69 ab be f2 f5 f0 bc
       -0.2442352 -0.14506303 -0.3347895 -0.02941415
0001a0 00 c1 a7 be 2d 00 7c be d1 f7 7b 3d 52 25 2e 3e
       -0.32764435 -0.24609442 0.061515633 0.17006424
0001b0 44 f0 61 3c 27 5c 21 bd e0 1d 85 be c2 38 6d 3e
       0.013790194 -0.039394524 -0.25999355 0.23166183
0001c0 9d f6 84 3e 1c e6 75 3d fe 61 6d 3d c5 b4 c1 bc
       0.259694 0.060033903 0.05795478 -0.023645768
0001d0 6e 7a ca 3d 27 ac e4 bd bf 15 10 bd 7b 6d ea bd
       0.09886633 -0.11165648 -0.03517699 -0.11446663
0001e0 10 13 d1 be 25 f5 c5 bd db 89 6e be 5c 8f 58 3e
       -0.40834856 -0.09665898 -0.23294775 0.21148437
0001f0 ea 8e 88 3e 25 f9 e9 3e 4a 02 d5 bd 2f 69 13 be
       0.26671535 0.45697895 -0.10400827 -0.14395593
000200 7c cf 0a 3d 98 5d 7f 3e e2 5b 39 3d 80 31 67 be
       0.03388928 0.24938047 0.045253642 -0.22577477
000210 81 b8 14 be 05 e3 10 3f 31 ad 20 be 59 54 ee 3d
       -0.14523508 0.56596404 -0.15691067 0.11637182
000220 7f a0 24 3e b7 7e ce bd d6 ee 1a 3e ec 82 09 bf
       0.1607685 -0.10082763 0.15130171 -0.53715396
000230 b4 b2 49 3e 69 77 c4 3c 99 18 d2 bc e0 18 05 3e
       0.19697076 0.02398272 -0.025646495 0.1299777
000240 34 0d 23 be 23 f5 ba bd ec 5a d1 3d 1b 32 96 3e
       -0.15923005 -0.09128787 0.1022242 0.29335102
000250 e8 5e 1d 3d 54 97 0a be fa c5 fb 3d ba 0a 51 bd
       0.038420588 -0.1353429 0.122936204 -0.05103562
000260 01 23 81 be 60 f9 8d 3e ec 20 ae 3d 5c 27 5f bc
       -0.25222018 0.2772932 0.08502373 -0.013620224
000270 b2 8e 15 bf 1b d0 03 3e 8d d0 99 bd f8 2f 53 3e
       -0.5842086 0.12872355 -0.07510481 0.20623767
000280 aa 72 b5 be c4 29 37 bd 4d fc a7 bd 30 44 7d 3e
       -0.35439044 -0.044717565 -0.082024194 0.24733043
000290 3c 90 29 3e e4 23 31 bd 5d a7 13 3d 5f ea 91 bd
       0.16558927 -0.04324712 0.036048282 -0.07124781
0002a0 8b 86 0a 3f d4 4d ab bd 55 db 37 3d 28 c5 23 3e
       0.54111546 -0.08364454 0.044886906 0.15993178
0002b0 cf 5f 19 3e 16 c8 cd 3d c0 fd 94 bc ad 9c 67 3e
       0.14977954 0.10047929 -0.018187404 0.22618361
0002c0 84 0d 1f be c0 b2 e6 bd 40 a2 03 3e 16 c7 08 bd
       -0.155325 -0.112645626 0.12854862 -0.03339299
0002d0 ac 22 55 3d c1 5a da bd 9f 1e ad be 4e cb a9 bb
       0.05203502 -0.10661841 -0.33812425 -0.0051817065
0002e0 86 83 0a 3e 6c 4a 0f bd 19 53 a5 3e 9c 7d 6b be
       0.13526735 -0.034983084 0.3228996 -0.22997135
0002f0 a9 b8 fc 3d a0 ad cc bd 67 8f 15 be 27 f2 99 bd
       0.12339909 -0.09994054 -0.14605485 -0.0751689
000300 98 6e b7 3c 9a 09 6b bd 68 08 86 be bb ef de bd
       0.022391602 -0.057382204 -0.26178288 -0.10885569
000310 0d 72 56 3e 05 ea d0 3d 8c 76 9f 3e f8 b2 a7 3c
       0.20941944 0.10200886 0.31145132 0.020471081
000320 94 81 31 3d 8d 56 8a 3e 6a 84 84 3e e6 9d 14 bd
       0.043336466 0.27019158 0.25882274 -0.036283396
000330 b1 39 aa bc 27 b3 bd bd e3 43 b6 be 20 ef 63 be
       -0.020779463 -0.09262686 -0.35598668 -0.22259188
000340 0c 00 b2 3e fb 1e 6e 3d 07 2d 8d be a3 5d 6e be
       0.3476566 0.058135014 -0.27573416 -0.23277907
000350 af 15 86 3d b2 99 09 be 28 f6 3d 3d c2 d5 44 3e
       0.065471046 -0.13437536 0.04637733 0.19222167
000360 11 9e e9 3d ad 29 fe 3d e9 b6 70 3d 99 ff 2c 3e
       0.11407102 0.12410293 0.058768187 0.16894378
000370 23 4b 10 3b 9f 9c 1f be f5 a7 29 be 3e 39 99 bd
       0.0022017441 -0.1558709 -0.16567977 -0.07481621
000380 15 6c 2a 3a f4 4b 50 3c 76 7c de 3d 34 c0 c8 3d
       0.0006501091 0.012713421 0.10863583 0.09802285
000390 8d 6a 73 be f6 85 3f 3e d0 88 d8 3d 02 2a 51 be
       -0.23771115 0.18703446 0.1057297 -0.20426181
0003a0 7b f3 d1 be 41 2a 1a 3e b7 36 0a be df 8d 0f be
       -0.41006073 0.15055181 -0.13497435 -0.14018963
0003b0 3f ff a9 bd 5a 7d f9 3d 3a ee 8d 3e 5f 25 80 be
       -0.083006375 0.12182112 0.27720815 -0.25028512
0003c0 06 4a 8c bd f2 f1 0a bf ff 91 91 3d 61 7c fd 3c
       -0.06850056 -0.5427543 0.07107925 0.030943098
0003d0 d2 5e c1 bd 3c 0c 94 be 5a 0b 9e 3d 45 fa 92 bc
       -0.09441914 -0.28915584 0.07717009 -0.017941603
0003e0 47 be 56 3e d5 99 2f bd fe 8e b5 be bf 47 68 be
       0.20971023 -0.042871315 -0.35460657 -0.22683619
0003f0 8c 2c 54 3e 9a 10 61 3d 19 40 b7 3d 53 ad aa be
       0.20720118 0.054947473 0.089477725 -0.3333536

bias f4 [30]
000000 73 2c 0c 3e 86 34 bf bc ad ff 73 ba 75 e5 88 bd
       0.13688831 -0.023340475 -0.0009307813 -0.066843905
000010 22 e0 55 bd 9f 09 bb bd fa 4b 61 3c bb b6 fb bc
       -0.052215703 -0.091326945 0.013751024 -0.030726781
000020 10 8f f6 bc ba 84 8b 3b 91 33 af 3c d4 72 0c bd
       -0.030097514 0.0042577656 0.021386893 -0.034289196
000030 a2 4e 1b bc 59 f2 75 bd 83 27 f9 bc 5e b5 2a bd
       -0.009479197 -0.060045574 -0.030414348 -0.04167687
000040 4a e5 8b bd 71 9e 18 3d 42 6d b7 b9 e2 84 fa bc
       -0.06830843 0.037260476 -0.00034985883 -0.030580942
000050 51 c6 c5 bd a9 27 cd bd 7e 1f 35 bd 81 3a 89 3d
       -0.096569665 -0.1001733 -0.044219486 0.06700612
000060 aa 56 76 3d ba 11 85 bd f0 b4 5c bd 77 b1 27 bd
       0.060141243 -0.06497522 -0.053883493 -0.040940728
000070 4a 33 87 bc 57 b7 22 3d
       -0.016503949 0.039725628

weight f4 [30, 30]
000000 82 75 a2 be 17 74 6f 3d b5 4c 99 bd 7f e1 e5 be
       -0.31730276 0.05846032 -0.07485334 -0.44898602
000010 cb 6e 12 3e 22 20 df 3c b0 ae 15 3e 37 ba 62 3e
       0.14300077 0.027237002 0.14617419 0.22141348
000020 0a 79 a1 be d6 a3 58 be ac 52 4e 3e 01 f1 fc bd
       -0.31537658 -0.21156248 0.20148724 -0.12350655
000030 27 71 24 bd 6e e5 21 3e 41 61 32 3e 09 1c fd 3d
       -0.040146973 0.15810177 0.17419912 0.12358863
000040 49 67 a3 be cf 80 86 bd 27 f0 ad 3d 94 6a 9f 3e
       -0.31914738 -0.06567537 0.08493071 0.31136
000050 23 7f ac 3d e8 f3 54 3d a1 f3 90 bd 22 5d 99 be
       0.08422687 0.05199042 -0.070777185 -0.29953867
000060 90 be d9 bd 4a 44 98 3c 9a 32 f2 bd 45 96 0b be
       -0.1063205 0.01858725 -0.11826058 -0.13631542
000070 98 d4 cb 3d a2 66 df be 57 2e 1a be ac c9 de 3c
       0.099526584 -0.4363299 -0.1505674 0.027195774
000080 59 b5 0e bd e9 3d 9a 3e ca 6a ec bd 03 30 f0 3c
       -0.034840915 0.3012536 -0.11543806 0.029319769
000090 28 c8 9b bd 2e a6 c3 3d 23 d9 39 be 29 b9 26 3c
       -0.07606536 0.09553181 -0.18149237 0.010175982
0000a0 ed 1d dc 3d 98 22 94 bd b8 53 aa 3e 92 f6 fa 3d
       0.107478954 -0.07233161 0.33266997 0.12254061
0000b0 71 f9 07 bd d3 3a 8f 3d e2 59 66 3e b0 65 1e be
       -0.03319687 0.06993642 0.22495225 -0.15468478
0000c0 08 86 46 3e 70 77 d3 3d 5e 80 33 bc 97 21 8c be
       0.19387066 0.10325515 -0.010955898 -0.27369377
0000d0 ec 5f 50 bd f9 11 61 bd 2e bc 56 3e f8 0d c2 bd
       -0.05087273 -0.05494878 0.20970222 -0.094753206
0000e0 dd 50 39 3e 84 5c 94 3d 62 e7 09 bf 64 bc 2f be
       0.18097253 0.072442085 -0.5386869 -0.17161709
0000f0 51 02 37 be 0c a7 9e 3e 80 64 3f be da 91 87 bc
       -0.17871977 0.30986822 -0.18690681 -0.01654904
000100 13 08 02 3c 9c f4 0a 3e 8c a4 28 be 9e 97 9c be
       0.007936495 0.13569874 -0.1646902 -0.30584425
000110 34 23 33 3e 01 0c 49 bd f5 61 03 3e a8 e5 d9 3e
       0.17493898 -0.049083713 0.12830336 0.42558026
000120 fb 28 d8 3d 01 f6 ef bd 1a 64 90 3e 54 55 e1 3c
       0.105546914 -0.117168434 0.2820137 0.027506508
000130 80 53 c6 3d a9 de d1 3d 93 f7 01 3c bb 25 a4 3d
       0.09683895 0.10247547 0.007932561 0.08015009
000140 69 13 54 3e 19 52 1f 3d 04 56 71 3d 0c 0d 97 3d
       0.2071053 0.038896654 0.05891992 0.07375535
000150 cf aa 6b 3d 27 ca a8 3c 8d 31 d5 bd 9a b6 56 be
       0.057535943 0.020604206 -0.10409842 -0.20968094
000160 d5 8d 41 3e 49 83 fe bc a5 64 de bd 59 2d 3b bd
       0.18901761 -0.031068461 -0.1085904 -0.045697544
000170 a1 b5 c8 bd 71 2c 27 be 4f e9 b4 3c 1f e3 8b 3d
       -0.09800268 -0.16325547 0.022083906 0.06830429
000180 3c b3 de 3e 41 04 37 3e 7b 27 7f 3e d5 94 cf be
       0.4349612 0.17872716 0.24917404 -0.40543237
000190 06 b3 b4 bd b4 5a 00 3e cd c4 07 be b8 e4 1f be
       -0.088232085 0.125346 -0.13258667 -0.15614593
0001a0 76 0e 79 3e 6f 33 7c be 9c 89 51 bd 65 9d 20 be
       0.24321923 -0.24628995 -0.051156625 -0.15685041
0001b0 e8 11 b6 bc 83 ac ba be 1c 0a de be de ac c0 bd
       -0.022225335 -0.3645974 -0.43367088 -0.09407972
0001c0 ec 26 95 be 15 f6 43 be 4c eb ae bd e2 40 b5 3e
       -0.29131258 -0.19136842 -0.08540973 0.35401064
0001d0 81 fc 46 3d f7 7a fd bd 86 e5 5e 3e f4 17 a0 be
       0.04858065 -0.12376969 0.21767244 -0.31268275
0001e0 77 db 22 3e 4d cd 99 be 89 fd 70 be 3e 63 a3 3d
       0.15904032 -0.30039445 -0.23534216 0.07977913
0001f0 92 55 3d 3d 8a 72 0b 3d 7e 6f 53 3e 22 86 0c bb
       0.046224184 0.03404478 0.20648 -0.0021442254
000200 bd 01 da 3d bb 04 e4 3d 6d ef 94 bd 68 90 a8 ba
       0.10644863 0.11133715 -0.07272229 -0.0012860419
000210 c4 7a f5 bd 53 83 14 be 4c d6 7b be 39 c2 d5 3d
       -0.11986306 -0.14503221 -0.24593467 0.10437436
000220 f0 7a 1d 3e 55 00 de bb ae 7b aa bb f7 0e d0 3e
       0.15378928 -0.006774942 -0.005202732 0.40636417
000230 2b 69 f6 3b 15 06 75 be a9 7e a5 3e 2b f5 4f be
       0.007519861 -0.23928101 0.32323197 -0.20308368
000240 1a e9 1d 3d 91 aa c8 3c 3d 6f aa bd 8a d7 dd 3d
       0.03855238 0.024495395 -0.08321998 0.108321264
000250 bc 19 37 bd df 26 da bd 3f 84 18 bd 6c 8e a1 3d
       -0.044702277 -0.10651945 -0.037235495 0.07888493
000260 56 ea 30 3e 34 4a 1d 3e 9c 95 0f 3e 8c 8e 7c 3e
       0.17276892 0.15360337 0.14021915 0.24663752
000270 99 5b bd bd bc 97 8b 3e 80 a4 29 be 57 51 ba be
       -0.092459865 0.27264202 -0.16566658 -0.36390182
000280 58 e9 80 be d6 3b 28 3e 23 70 ea bd e0 93 1d be
       -0.25178027 0.16429076 -0.1144717 -0.15388441
000290 63 86 26 3c 09 ce 1b be b2 33 81 bd aa 70 d0 bd
       0.010163876 -0.15215315 -0.06308688 -0.10177739
0002a0 54 5e 5f be a7 16 6a bd 00 8a b2 3e 7f 43 06 bd
       -0.21813327 -0.05715051 0.3487091 -0.032779213
0002b0 7a e0 e7 3c d0 d1 15 be 6f 34 23 bd 0d 4e 92 3d
       0.028305281 -0.14630818 -0.039844926 0.07143793
0002c0 fd 76 cb bd ca dc a1 3d a0 40 e1 3d 4f 14 b8 bd
       -0.099348046 0.0790344 0.10998654 -0.089882486
0002d0 78 73 eb 3e 09 2f 2e 3e 8c 80 b8 bd 5b 9b b5 be
       0.45986533 0.1701013 -0.09008893 -0.3547009
0002e0 66 cc e0 be d9 34 94 3c 09 08 11 3e 5c e5 d6 bd
       -0.43905944 0.018091606 0.14163221 -0.104929656
0002f0 96 42 f0 3d fe 4a b2 be 2b bd 08 bf f4 86 aa be
       0.1173145 -0.3482284 -0.5341365 -0.33306086
000300 2e 4d 1b 3d 7f 45 c0 3e 1f 61 28 3e c4 fc 8b bd
       0.0379154 0.3755302 0.16443299 -0.068353206
000310 be 34 73 bd b8 65 81 3e ba e5 17 bd fe 47 67 3e
       -0.05937647 0.25272918 -0.03708432 0.22586057
000320 9d b6 ef bc 3e ed d0 bd da a1 ca bd ff e2 ce bd
       -0.029261881 -0.102015 -0.09894152 -0.1010189
000330 53 ca ac be 9a 79 ee bc ac 95 f6 3d b0 52 b3 bc
       -0.3374811 -0.029110719 0.120402664 -0.021890014
000340 ca 15 98 bd e9 3d 8c bb f4 05 6b 3e 86 99 fe 3d
       -0.07426031 -0.004279841 0.2295149 0.12431626
000350 f3 54 ae 3e 23 83 01 be f3 84 2a be 9e 1e 26 3e
       0.34049186 -0.12647681 -0.16652279 0.16222617
000360 12 f3 46 3d 32 36 72 3b f9 2b ba be a5 96 94 3e
       0.048571654 0.0036958572 -0.36361673 0.29021183
000370 e2 e2 40 bc ef 45 77 3c 4d 63 7d be 99 6f e0 3c
       -0.011772843 0.015092357 -0.24744911 0.027396964
000380 b0 8c 1f be ee 0b 3a 3e f0 2d 00 be 85 db 7f bd
       -0.15581012 0.18168613 -0.12517524 -0.06246521
000390 8c 0e 9d be f9 aa 05 bd bd 15 6e bd f2 8f 04 be
       -0.3067516 -0.032633755 -0.0581262 -0.12945536
0003a0 85 dc 67 be a8 ba 5b 3d 4a c5 b6 bd fe a9 00 be
       -0.22642715 0.053644806 -0.08924349 -0.12564847
0003b0 be 37 83 bd 88 55 32 be 37 9d 03 3e e7 6f a2 be
       -0.06407116 -0.1741544 0.12852941 -0.31726
0003c0 e8 e5 c0 3d fa 6b 3c be b4 8b af be 2c 5f c2 bd
       0.09418851 -0.18400565 -0.34286273 -0.09490809
0003d0 c5 8c 44 3c 2f 2b ac bd 8e c7 bd bc 0f 3e 99 3c
       0.011996453 -0.08406674 -0.023166444 0.01870635
0003e0 d3 eb f1 bb ff 1f 13 bc 6a 49 7c be c4 b6 9a bc
       -0.0073828488 -0.008979796 -0.2463738 -0.018885978
0003f0 30 d3 9d be f2 89 d5 3e 00 ce df 3c 3e c5 93 bd
       -0.30825186 0.41706806 0.027319908 -0.07215355

bias f4 [30]
000000 1b 50 d7 3c 74 3e c4 bc 5a 84 7f bd 8a d1 3f 3d
       0.026283314 -0.023955561 -0.06238208 0.04683069
000010 79 79 c0 bc d4 40 70 3c 15 08 ec bc 2a c0 7e bd
       -0.023495423 0.014663894 -0.028812448 -0.06219498
000020 dd f7 f5 bc 03 19 b3 bb 60 68 75 bd 1e 45 09 bd
       -0.030025417 -0.005465628 -0.059913993 -0.03351318
000030 2b c2 82 3c 35 65 f6 bc 68 7d 9e bd 44 b6 df bc
       0.015961727 -0.030077556 -0.07738763 -0.02730859
000040 ea dc 9d bd f8 fd 42 3c ae 00 26 3d 99 b4 37 3c
       -0.07708152 0.011901371 0.040527992 0.011212491
000050 02 bc a8 3c ef 72 8e bc 8e 66 81 bd e7 fe 7d 3d
       0.020597462 -0.017388789 -0.06318389 0.062010672
000060 4a 79 89 ba 4e c7 39 3d a9 65 95 bc 56 8f 3f 3d
       -0.0010488417 0.045356087 -0.018236952 0.046767555
000070 18 87 a2 bd 9a d1 d9 3c
       -0.07935923 0.026589204
