pbc_examples/saved_models/convection_beta-30.0_layers-50,50,50,50,1_L-2.0_WD-0_init-normal_batch_size256.pt (torch, 114093 bytes, 36 tensors)

x_u f4 [256, 1]
0	0x00000000	0.0
1	0x3cc90fdb	0.024543693
2	0x3d490fdb	0.049087387
3	0x3d96cbe4	0.07363108
4	0x3dc90fdb	0.09817477
5	0x3dfb53d1	0.12271846
6	0x3e16cbe4	0.14726216
7	0x3e2feddf	0.17180584
8	0x3e490fdb	0.19634955
9	0x3e6231d6	0.22089323
10	0x3e7b53d1	0.24543692
11	0x3e8a3ae6	0.2699806
12	0x3e96cbe4	0.2945243
13	0x3ea35ce2	0.319068
14	0x3eafeddf	0.3436117
15	0x3ebc7edd	0.3681554
16	0x3ec90fdb	0.3926991
17	0x3ed5a0d8	0.41724277
18	0x3ee231d6	0.44178647
19	0x3eeec2d4	0.46633017
20	0x3efb53d1	0.49087384
21	0x3f03f267	0.5154175
22	0x3f0a3ae6	0.5399612
23	0x3f108365	0.5645049
24	0x3f16cbe4	0.5890486
25	0x3f1d1463	0.6135923
26	0x3f235ce2	0.638136
27	0x3f29a560	0.6626797
28	0x3f2feddf	0.6872234
29	0x3f36365e	0.7117671
30	0x3f3c7edd	0.7363108
31	0x3f42c75c	0.7608545
32	0x3f490fdb	0.7853982
33	0x3f4f5859	0.8099418
34	0x3f55a0d8	0.83448553
35	0x3f5be957	0.85902923
36	0x3f6231d6	0.88357294
37	0x3f687a55	0.90811664
38	0x3f6ec2d4	0.93266034
39	0x3f750b52	0.957204
40	0x3f7b53d1	0.9817477
41	0x3f80ce28	1.0062914
42	0x3f83f267	1.030835
43	0x3f8716a7	1.0553788
44	0x3f8a3ae6	1.0799224
45	0x3f8d5f26	1.1044662
46	0x3f908365	1.1290098
47	0x3f93a7a5	1.1535536
48	0x3f96cbe4	1.1780972
49	0x3f99f023	1.2026409
50	0x3f9d1463	1.2271847
51	0x3fa038a2	1.2517283
52	0x3fa35ce2	1.276272
53	0x3fa68121	1.3008157
54	0x3fa9a560	1.3253593
55	0x3facc9a0	1.3499031
56	0x3fafeddf	1.3744467
57	0x3fb3121f	1.3989905
58	0x3fb6365e	1.4235342
59	0x3fb95a9e	1.4480779
60	0x3fbc7edd	1.4726216
61	0x3fbfa31c	1.4971652
62	0x3fc2c75c	1.521709
63	0x3fc5eb9b	1.5462526
64	0x3fc90fdb	1.5707964
65	0x3fcc341a	1.59534
66	0x3fcf5859	1.6198837
67	0x3fd27c99	1.6444274
68	0x3fd5a0d8	1.6689711
69	0x3fd8c518	1.6935148
70	0x3fdbe957	1.7180585
71	0x3fdf0d97	1.7426022
72	0x3fe231d6	1.7671459
73	0x3fe55615	1.7916895
74	0x3fe87a55	1.8162333
75	0x3feb9e94	1.8407769
76	0x3feec2d4	1.8653207
77	0x3ff1e713	1.8898643
78	0x3ff50b52	1.914408
79	0x3ff82f92	1.9389517
80	0x3ffb53d1	1.9634954
81	0x3ffe7811	1.9880391
82	0x4000ce28	2.0125828
83	0x40026048	2.0371265
84	0x4003f267	2.06167
85	0x40058487	2.0862138
86	0x400716a7	2.1107576
87	0x4008a8c7	2.1353014
88	0x400a3ae6	2.1598449
89	0x400bcd06	2.1843886
90	0x400d5f26	2.2089324
91	0x400ef145	2.233476
92	0x40108365	2.2580197
93	0x40121585	2.2825634
94	0x4013a7a5	2.3071072
95	0x401539c4	2.3316507
96	0x4016cbe4	2.3561945
97	0x40185e04	2.3807383
98	0x4019f023	2.4052818
99	0x401b8243	2.4298255
100	0x401d1463	2.4543693
101	0x401ea683	2.478913
102	0x402038a2	2.5034566
103	0x4021cac2	2.5280004
104	0x40235ce2	2.552544
105	0x4024ef01	2.5770876
106	0x40268121	2.6016314
107	0x40281341	2.6261752
108	0x4029a560	2.6507187
109	0x402b3780	2.6752625
110	0x402cc9a0	2.6998062
111	0x402e5bc0	2.72435
112	0x402feddf	2.7488935
113	0x40317fff	2.7734373
114	0x4033121f	2.797981
115	0x4034a43e	2.8225245
116	0x4036365e	2.8470683
117	0x4037c87e	2.871612
118	0x40395a9e	2.8961558
119	0x403aecbd	2.9206994
120	0x403c7edd	2.9452431
121	0x403e10fd	2.969787
122	0x403fa31c	2.9943304
123	0x4041353c	3.0188742
124	0x4042c75c	3.043418
125	0x4044597c	3.0679617
126	0x4045eb9b	3.0925052
127	0x40477dbb	3.117049
128	0x40490fdb	3.1415927
129	0x404aa1fa	3.1661363
130	0x404c341a	3.19068
131	0x404dc63a	3.2152238
132	0x404f5859	3.2397673
133	0x4050ea79	3.264311
134	0x40527c99	3.2888548
135	0x40540eb9	3.3133986
136	0x4055a0d8	3.3379421
137	0x405732f8	3.362486
138	0x4058c518	3.3870296
139	0x405a5737	3.4115732
140	0x405be957	3.436117
141	0x405d7b77	3.4606607
142	0x405f0d97	3.4852045
143	0x40609fb6	3.509748
144	0x406231d6	3.5342917
145	0x4063c3f6	3.5588355
146	0x40655615	3.583379
147	0x4066e835	3.6079228
148	0x40687a55	3.6324666
149	0x406a0c75	3.6570103
150	0x406b9e94	3.6815538
151	0x406d30b4	3.7060976
152	0x406ec2d4	3.7306414
153	0x407054f3	3.755185
154	0x4071e713	3.7797287
155	0x40737933	3.8042724
156	0x40750b52	3.828816
157	0x40769d72	3.8533597
158	0x40782f92	3.8779035
159	0x4079c1b2	3.9024472
160	0x407b53d1	3.9269907
161	0x407ce5f1	3.9515345
162	0x407e7811	3.9760783
163	0x40800518	4.000622
164	0x4080ce28	4.0251656
165	0x40819738	4.0497093
166	0x40826048	4.074253
167	0x40832958	4.098797
168	0x4083f267	4.12334
169	0x4084bb77	4.147884
170	0x40858487	4.1724277
171	0x40864d97	4.1969714
172	0x408716a7	4.221515
173	0x4087dfb7	4.246059
174	0x4088a8c7	4.2706027
175	0x408971d6	4.295146
176	0x408a3ae6	4.3196898
177	0x408b03f6	4.3442335
178	0x408bcd06	4.3687773
179	0x408c9616	4.393321
180	0x408d5f26	4.417865
181	0x408e2836	4.4424086
182	0x408ef145	4.466952
183	0x408fba55	4.4914956
184	0x40908365	4.5160394
185	0x40914c75	4.540583
186	0x40921585	4.565127
187	0x4092de95	4.5896707
188	0x4093a7a5	4.6142144
189	0x409470b4	4.6387577
190	0x409539c4	4.6633015
191	0x409602d4	4.687845
192	0x4096cbe4	4.712389
193	0x409794f4	4.7369328
194	0x40985e04	4.7614765
195	0x40992714	4.7860203
196	0x4099f023	4.8105636
197	0x409ab933	4.8351073
198	0x409b8243	4.859651
199	0x409c4b53	4.884195
200	0x409d1463	4.9087386
201	0x409ddd73	4.9332824
202	0x409ea683	4.957826
203	0x409f6f92	4.9823694
204	0x40a038a2	5.006913
205	0x40a101b2	5.031457
206	0x40a1cac2	5.0560007
207	0x40a293d2	5.0805445
208	0x40a35ce2	5.105088
209	0x40a425f1	5.1296315
210	0x40a4ef01	5.1541753
211	0x40a5b811	5.178719
212	0x40a68121	5.203263
213	0x40a74a31	5.2278066
214	0x40a81341	5.2523503
215	0x40a8dc51	5.276894
216	0x40a9a560	5.3014374
217	0x40aa6e70	5.325981
218	0x40ab3780	5.350525
219	0x40ac0090	5.3750687
220	0x40acc9a0	5.3996124
221	0x40ad92b0	5.424156
222	0x40ae5bc0	5.4487
223	0x40af24cf	5.473243
224	0x40afeddf	5.497787
225	0x40b0b6ef	5.5223308
226	0x40b17fff	5.5468745
227	0x40b2490f	5.5714183
228	0x40b3121f	5.595962
229	0x40b3db2f	5.620506
230	0x40b4a43e	5.645049
231	0x40b56d4e	5.669593
232	0x40b6365e	5.6941366
233	0x40b6ff6e	5.7186804
234	0x40b7c87e	5.743224
235	0x40b8918e	5.767768
236	0x40b95a9e	5.7923117
237	0x40ba23ad	5.816855
238	0x40baecbd	5.8413987
239	0x40bbb5cd	5.8659425
240	0x40bc7edd	5.8904862
241	0x40bd47ed	5.91503
242	0x40be10fd	5.939574
243	0x40beda0d	5.9641175
244	0x40bfa31c	5.988661
245	0x40c06c2c	6.0132046
246	0x40c1353c	6.0377483
247	0x40c1fe4c	6.062292
248	0x40c2c75c	6.086836
249	0x40c3906c	6.1113796
250	0x40c4597c	6.1359234
251	0x40c5228b	6.1604667
252	0x40c5eb9b	6.1850104
253	0x40c6b4ab	6.209554
254	0x40c77dbb	6.234098
255	0x40c846cb	6.2586417

t_u f4 [256, 1]
0	0x00000000	0.0
1	0x00000000	0.0
2	0x00000000	0.0
3	0x00000000	0.0
4	0x00000000	0.0
5	0x00000000	0.0
6	0x00000000	0.0
7	0x00000000	0.0
8	0x00000000	0.0
9	0x00000000	0.0
10	0x00000000	0.0
11	0x00000000	0.0
12	0x00000000	0.0
13	0x00000000	0.0
14	0x00000000	0.0
15	0x00000000	0.0
16	0x00000000	0.0
17	0x00000000	0.0
18	0x00000000	0.0
19	0x00000000	0.0
20	0x00000000	0.0
21	0x00000000	0.0
22	0x00000000	0.0
23	0x00000000	0.0
24	0x00000000	0.0
25	0x00000000	0.0
26	0x00000000	0.0
27	0x00000000	0.0
28	0x00000000	0.0
29	0x00000000	0.0
30	0x00000000	0.0
31	0x00000000	0.0
32	0x00000000	0.0
33	0x00000000	0.0
34	0x00000000	0.0
35	0x00000000	0.0
36	0x00000000	0.0
37	0x00000000	0.0
38	0x00000000	0.0
39	0x00000000	0.0
40	0x00000000	0.0
41	0x00000000	0.0
42	0x00000000	0.0
43	0x00000000	0.0
44	0x00000000	0.0
45	0x00000000	0.0
46	0x00000000	0.0
47	0x00000000	0.0
48	0x00000000	0.0
49	0x00000000	0.0
50	0x00000000	0.0
51	0x00000000	0.0
52	0x00000000	0.0
53	0x00000000	0.0
54	0x00000000	0.0
55	0x00000000	0.0
56	0x00000000	0.0
57	0x00000000	0.0
58	0x00000000	0.0
59	0x00000000	0.0
60	0x00000000	0.0
61	0x00000000	0.0
62	0x00000000	0.0
63	0x00000000	0.0
64	0x00000000	0.0
65	0x00000000	0.0
66	0x00000000	0.0
67	0x00000000	0.0
68	0x00000000	0.0
69	0x00000000	0.0
70	0x00000000	0.0
71	0x00000000	0.0
72	0x00000000	0.0
73	0x00000000	0.0
74	0x00000000	0.0
75	0x00000000	0.0
76	0x00000000	0.0
77	0x00000000	0.0
78	0x00000000	0.0
79	0x00000000	0.0
80	0x00000000	0.0
81	0x00000000	0.0
82	0x00000000	0.0
83	0x00000000	0.0
84	0x00000000	0.0
85	0x00000000	0.0
86	0x00000000	0.0
87	0x00000000	0.0
88	0x00000000	0.0
89	0x00000000	0.0
90	0x00000000	0.0
91	0x00000000	0.0
92	0x00000000	0.0
93	0x00000000	0.0
94	0x00000000	0.0
95	0x00000000	0.0
96	0x00000000	0.0
97	0x00000000	0.0
98	0x00000000	0.0
99	0x00000000	0.0
100	0x00000000	0.0
101	0x00000000	0.0
102	0x00000000	0.0
103	0x00000000	0.0
104	0x00000000	0.0
105	0x00000000	0.0
106	0x00000000	0.0
107	0x00000000	0.0
108	0x00000000	0.0
109	0x00000000	0.0
110	0x00000000	0.0
111	0x00000000	0.0
112	0x00000000	0.0
113	0x00000000	0.0
114	0x00000000	0.0
115	0x00000000	0.0
116	0x00000000	0.0
117	0x00000000	0.0
118	0x00000000	0.0
119	0x00000000	0.0
120	0x00000000	0.0
121	0x00000000	0.0
122	0x00000000	0.0
123	0x00000000	0.0
124	0x00000000	0.0
125	0x00000000	0.0
126	0x00000000	0.0
127	0x00000000	0.0
128	0x00000000	0.0
129	0x00000000	0.0
130	0x00000000	0.0
131	0x00000000	0.0
132	0x00000000	0.0
133	0x00000000	0.0
134	0x00000000	0.0
135	0x00000000	0.0
136	0x00000000	0.0
137	0x00000000	0.0
138	0x00000000	0.0
139	0x00000000	0.0
140	0x00000000	0.0
141	0x00000000	0.0
142	0x00000000	0.0
143	0x00000000	0.0
144	0x00000000	0.0
145	0x00000000	0.0
146	0x00000000	0.0
147	0x00000000	0.0
148	0x00000000	0.0
149	0x00000000	0.0
150	0x00000000	0.0
151	0x00000000	0.0
152	0x00000000	0.0
153	0x00000000	0.0
154	0x00000000	0.0
155	0x00000000	0.0
156	0x00000000	0.0
157	0x00000000	0.0
158	0x00000000	0.0
159	0x00000000	0.0
160	0x00000000	0.0
161	0x00000000	0.0
162	0x00000000	0.0
163	0x00000000	0.0
164	0x00000000	0.0
165	0x00000000	0.0
166	0x00000000	0.0
167	0x00000000	0.0
168	0x00000000	0.0
169	0x00000000	0.0
170	0x00000000	0.0
171	0x00000000	0.0
172	0x00000000	0.0
173	0x00000000	0.0
174	0x00000000	0.0
175	0x00000000	0.0
176	0x00000000	0.0
177	0x00000000	0.0
178	0x00000000	0.0
179	0x00000000	0.0
180	0x00000000	0.0
181	0x00000000	0.0
182	0x00000000	0.0
183	0x00000000	0.0
184	0x00000000	0.0
185	0x00000000	0.0
186	0x00000000	0.0
187	0x00000000	0.0
188	0x00000000	0.0
189	0x00000000	0.0
190	0x00000000	0.0
191	0x00000000	0.0
192	0x00000000	0.0
193	0x00000000	0.0
194	0x00000000	0.0
195	0x00000000	0.0
196	0x00000000	0.0
197	0x00000000	0.0
198	0x00000000	0.0
199	0x00000000	0.0
200	0x00000000	0.0
201	0x00000000	0.0
202	0x00000000	0.0
203	0x00000000	0.0
204	0x00000000	0.0
205	0x00000000	0.0
206	0x00000000	0.0
207	0x00000000	0.0
208	0x00000000	0.0
209	0x00000000	0.0
210	0x00000000	0.0
211	0x00000000	0.0
212	0x00000000	0.0
213	0x00000000	0.0
214	0x00000000	0.0
215	0x00000000	0.0
216	0x00000000	0.0
217	0x00000000	0.0
218	0x00000000	0.0
219	0x00000000	0.0
220	0x00000000	0.0
221	0x00000000	0.0
222	0x00000000	0.0
223	0x00000000	0.0
224	0x00000000	0.0
225	0x00000000	0.0
226	0x00000000	0.0
227	0x00000000	0.0
228	0x00000000	0.0
229	0x00000000	0.0
230	0x00000000	0.0
231	0x00000000	0.0
232	0x00000000	0.0
233	0x00000000	0.0
234	0x00000000	0.0
235	0x00000000	0.0
236	0x00000000	0.0
237	0x00000000	0.0
238	0x00000000	0.0
239	0x00000000	0.0
240	0x00000000	0.0
241	0x00000000	0.0
242	0x00000000	0.0
243	0x00000000	0.0
244	0x00000000	0.0
245	0x00000000	0.0
246	0x00000000	0.0
247	0x00000000	0.0
248	0x00000000	0.0
249	0x00000000	0.0
250	0x00000000	0.0
251	0x00000000	0.0
252	0x00000000	0.0
253	0x00000000	0.0
254	0x00000000	0.0
255	0x00000000	0.0

x_f f4 [100, 1]
0	0x4093a7a5	4.6142144
1	0x3fdf0d97	1.7426022
2	0x4055a0d8	3.3379421
3	0x409c4b53	4.884195
4	0x4044597c	3.0679617
5	0x40b0b6ef	5.5223308
6	0x40ba23ad	5.816855
7	0x40c5eb9b	6.1850104
8	0x40921585	4.565127
9	0x3f99f023	1.2026409
10	0x40992714	4.7860203
11	0x3f108365	0.5645049
12	0x3feb9e94	1.8407769
13	0x3dfb53d1	0.12271846
14	0x409f6f92	4.9823694
15	0x40c2c75c	6.086836
16	0x40b6ff6e	5.7186804
17	0x402cc9a0	2.6998062
18	0x4021cac2	2.5280004
19	0x40c3906c	6.1113796
20	0x402e5bc0	2.72435
21	0x40af24cf	5.473243
22	0x3f8716a7	1.0553788
23	0x40c1fe4c	6.062292
24	0x3ee231d6	0.44178647
25	0x3f36365e	0.7117671
26	0x40864d97	4.1969714
27	0x40c846cb	6.2586417
28	0x40c4597c	6.1359234
29	0x40914c75	4.540583
30	0x40c5eb9b	6.1850104
31	0x4088a8c7	4.2706027
32	0x40af24cf	5.473243
33	0x40268121	2.6016314
34	0x408d5f26	4.417865
35	0x409d1463	4.9087386
36	0x40c06c2c	6.0132046
37	0x3ebc7edd	0.3681554
38	0x3efb53d1	0.49087384
39	0x40a68121	5.203263
40	0x405d7b77	3.4606607
41	0x3ee231d6	0.44178647
42	0x3fcf5859	1.6198837
43	0x4084bb77	4.147884
44	0x3fe87a55	1.8162333
45	0x409ea683	4.957826
46	0x405f0d97	3.4852045
47	0x4058c518	3.3870296
48	0x3f750b52	0.957204
49	0x4013a7a5	2.3071072
50	0x3f29a560	0.6626797
51	0x40a74a31	5.2278066
52	0x3cc90fdb	0.024543693
53	0x40c1fe4c	6.062292
54	0x401539c4	2.3316507
55	0x3ffb53d1	1.9634954
56	0x401539c4	2.3316507
57	0x3f2feddf	0.6872234
58	0x3fcc341a	1.59534
59	0x405a5737	3.4115732
60	0x40b3121f	5.595962
61	0x40b95a9e	5.7923117
62	0x3f8d5f26	1.1044662
63	0x406b9e94	3.6815538
64	0x3f6231d6	0.88357294
65	0x3fdbe957	1.7180585
66	0x401b8243	2.4298255
67	0x4066e835	3.6079228
68	0x3fe55615	1.7916895
69	0x3fcf5859	1.6198837
70	0x408971d6	4.295146
71	0x3ffe7811	1.9880391
72	0x40108365	2.2580197
73	0x402e5bc0	2.72435
74	0x3f490fdb	0.7853982
75	0x4003f267	2.06167
76	0x409ea683	4.957826
77	0x40a425f1	5.1296315
78	0x401b8243	2.4298255
79	0x40914c75	4.540583
80	0x406a0c75	3.6570103
81	0x3f55a0d8	0.83448553
82	0x406d30b4	3.7060976
83	0x3fe55615	1.7916895
84	0x40c2c75c	6.086836
85	0x409f6f92	4.9823694
86	0x409c4b53	4.884195
87	0x3f80ce28	1.0062914
88	0x40afeddf	5.497787
89	0x40baecbd	5.8413987
90	0x40864d97	4.1969714
91	0x4096cbe4	4.712389
92	0x3f6231d6	0.88357294
93	0x3f6ec2d4	0.93266034
94	0x3f9d1463	1.2271847
95	0x40b7c87e	5.743224
96	0x40b2490f	5.5714183
97	0x40c1353c	6.0377483
98	0x405be957	3.436117
99	0x3facc9a0	1.3499031

t_f f4 [100, 1]
0	0x3ec48677	0.3838384
1	0x3f51745d	0.8181818
2	0x3f090cee	0.53535354
3	0x3f4c4867	0.7979798
4	0x3e10cede	0.14141414
5	0x3f350296	0.7070707
6	0x3f2fd6a0	0.68686867
7	0x3f471c72	0.7777778
8	0x3f0ba2e9	0.54545456
9	0x3c257eb5	0.01010101
10	0x3f0e38e4	0.5555556
11	0x3f49b26d	0.7878788
12	0x3ede6243	0.43434343
13	0x3ede6243	0.43434343
14	0x3f7ad40a	0.97979796
15	0x3f800000	1.0
16	0x3f2d40a5	0.67676765
17	0x3f0676f3	0.5252525
18	0x3e9b26ca	0.3030303
19	0x3f540a58	0.82828283
20	0x3f7ad40a	0.97979796
21	0x3f22e8ba	0.6363636
22	0x3eafd6a0	0.34343433
23	0x3ea57eb5	0.32323232
24	0x3ef3121a	0.47474748
25	0x3f6b5029	0.9191919
26	0x3f0e38e4	0.5555556
27	0x3f471c72	0.7777778
28	0x3eba2e8c	0.36363637
29	0x3e638e39	0.22222222
30	0x3e90cede	0.28282827
31	0x3f638e39	0.8888889
32	0x3f68ba2f	0.90909094
33	0x3e1b26ca	0.15151516
34	0x3f2052bf	0.6262626
35	0x3d257eb5	0.04040404
36	0x3e1b26ca	0.15151516
37	0x3f60f83e	0.8787879
38	0x3f15fad4	0.5858586
39	0x3e814afd	0.25252524
40	0x3f4c4867	0.7979798
41	0x3ec48677	0.3838384
42	0x3ed9364e	0.42424244
43	0x3c257eb5	0.01010101
44	0x3e783e10	0.24242425
45	0x3f662434	0.8989899
46	0x3eba2e8c	0.36363637
47	0x3f707c1f	0.93939394
48	0x3f41f07c	0.75757575
49	0x3ea052bf	0.3131313
50	0x3d257eb5	0.04040404
51	0x3eafd6a0	0.34343433
52	0x3ee8ba2f	0.45454547
53	0x3f75a815	0.959596
54	0x3f75a815	0.959596
55	0x3ee8ba2f	0.45454547
56	0x3ee8ba2f	0.45454547
57	0x3f4ede62	0.8080808
58	0x3f0676f3	0.5252525
59	0x3f10cede	0.56565654
60	0x3f60f83e	0.8787879
61	0x3f3cc486	0.7373737
62	0x3d257eb5	0.04040404
63	0x3ef3121a	0.47474748
64	0x3f1364d9	0.57575756
65	0x3f10cede	0.56565654
66	0x3f2d40a5	0.67676765
67	0x3f7d6a05	0.989899
68	0x3f2fd6a0	0.68686867
69	0x3e59364e	0.21212122
70	0x3d4ede62	0.05050505
71	0x3e90cede	0.28282827
72	0x3e814afd	0.25252524
73	0x3f4ede62	0.8080808
74	0x3c257eb5	0.01010101
75	0x3ed40a58	0.41414142
76	0x3f783e10	0.969697
77	0x3f7ad40a	0.97979796
78	0x3e95fad4	0.2929293
79	0x3f03e0f8	0.5151515
80	0x3f56a053	0.83838385
81	0x3f73121a	0.94949496
82	0x3ef3121a	0.47474748
83	0x3f1890cf	0.5959596
84	0x3ec9b26d	0.3939394
85	0x3f2fd6a0	0.68686867
86	0x3f59364e	0.8484849
87	0x3ca57eb5	0.02020202
88	0x3f6b5029	0.9191919
89	0x3ef83e10	0.4848485
90	0x3e0676f3	0.13131313
91	0x3f1b26ca	0.6060606
92	0x3e814afd	0.25252524
93	0x3f783e10	0.969697
94	0x3eafd6a0	0.34343433
95	0x3f56a053	0.83838385
96	0x3ef83e10	0.4848485
97	0x3f4c4867	0.7979798
98	0x3f379891	0.7171717
99	0x3e9b26ca	0.3030303

x_bc_lb f4 [100, 1]
0	0x00000000	0.0
1	0x00000000	0.0
2	0x00000000	0.0
3	0x00000000	0.0
4	0x00000000	0.0
5	0x00000000	0.0
6	0x00000000	0.0
7	0x00000000	0.0
8	0x00000000	0.0
9	0x00000000	0.0
10	0x00000000	0.0
11	0x00000000	0.0
12	0x00000000	0.0
13	0x00000000	0.0
14	0x00000000	0.0
15	0x00000000	0.0
16	0x00000000	0.0
17	0x00000000	0.0
18	0x00000000	0.0
19	0x00000000	0.0
20	0x00000000	0.0
21	0x00000000	0.0
22	0x00000000	0.0
23	0x00000000	0.0
24	0x00000000	0.0
25	0x00000000	0.0
26	0x00000000	0.0
27	0x00000000	0.0
28	0x00000000	0.0
29	0x00000000	0.0
30	0x00000000	0.0
31	0x00000000	0.0
32	0x00000000	0.0
33	0x00000000	0.0
34	0x00000000	0.0
35	0x00000000	0.0
36	0x00000000	0.0
37	0x00000000	0.0
38	0x00000000	0.0
39	0x00000000	0.0
40	0x00000000	0.0
41	0x00000000	0.0
42	0x00000000	0.0
43	0x00000000	0.0
44	0x00000000	0.0
45	0x00000000	0.0
46	0x00000000	0.0
47	0x00000000	0.0
48	0x00000000	0.0
49	0x00000000	0.0
50	0x00000000	0.0
51	0x00000000	0.0
52	0x00000000	0.0
53	0x00000000	0.0
54	0x00000000	0.0
55	0x00000000	0.0
56	0x00000000	0.0
57	0x00000000	0.0
58	0x00000000	0.0
59	0x00000000	0.0
60	0x00000000	0.0
61	0x00000000	0.0
62	0x00000000	0.0
63	0x00000000	0.0
64	0x00000000	0.0
65	0x00000000	0.0
66	0x00000000	0.0
67	0x00000000	0.0
68	0x00000000	0.0
69	0x00000000	0.0
70	0x00000000	0.0
71	0x00000000	0.0
72	0x00000000	0.0
73	0x00000000	0.0
74	0x00000000	0.0
75	0x00000000	0.0
76	0x00000000	0.0
77	0x00000000	0.0
78	0x00000000	0.0
79	0x00000000	0.0
80	0x00000000	0.0
81	0x00000000	0.0
82	0x00000000	0.0
83	0x00000000	0.0
84	0x00000000	0.0
85	0x00000000	0.0
86	0x00000000	0.0
87	0x00000000	0.0
88	0x00000000	0.0
89	0x00000000	0.0
90	0x00000000	0.0
91	0x00000000	0.0
92	0x00000000	0.0
93	0x00000000	0.0
94	0x00000000	0.0
95	0x00000000	0.0
96	0x00000000	0.0
97	0x00000000	0.0
98	0x00000000	0.0
99	0x00000000	0.0

t_bc_lb f4 [100, 1]
0	0x00000000	0.0
1	0x3c257eb5	0.01010101
2	0x3ca57eb5	0.02020202
3	0x3cf83e10	0.030303031
4	0x3d257eb5	0.04040404
5	0x3d4ede62	0.05050505
6	0x3d783e10	0.060606062
7	0x3d90cede	0.07070707
8	0x3da57eb5	0.08080808
9	0x3dba2e8c	0.09090909
10	0x3dcede62	0.1010101
11	0x3de38e39	0.11111111
12	0x3df83e10	0.121212125
13	0x3e0676f3	0.13131313
14	0x3e10cede	0.14141414
15	0x3e1b26ca	0.15151516
16	0x3e257eb5	0.16161616
17	0x3e2fd6a0	0.17171717
18	0x3e3a2e8c	0.18181819
19	0x3e448677	0.1919192
20	0x3e4ede62	0.2020202
21	0x3e59364e	0.21212122
22	0x3e638e39	0.22222222
23	0x3e6de624	0.23232323
24	0x3e783e10	0.24242425
25	0x3e814afd	0.25252524
26	0x3e8676f3	0.26262626
27	0x3e8ba2e9	0.27272728
28	0x3e90cede	0.28282827
29	0x3e95fad4	0.2929293
30	0x3e9b26ca	0.3030303
31	0x3ea052bf	0.3131313
32	0x3ea57eb5	0.32323232
33	0x3eaaaaab	0.33333334
34	0x3eafd6a0	0.34343433
35	0x3eb50296	0.35353535
36	0x3eba2e8c	0.36363637
37	0x3ebf5a81	0.37373737
38	0x3ec48677	0.3838384
39	0x3ec9b26d	0.3939394
40	0x3ecede62	0.4040404
41	0x3ed40a58	0.41414142
42	0x3ed9364e	0.42424244
43	0x3ede6243	0.43434343
44	0x3ee38e39	0.44444445
45	0x3ee8ba2f	0.45454547
46	0x3eede624	0.46464646
47	0x3ef3121a	0.47474748
48	0x3ef83e10	0.4848485
49	0x3efd6a05	0.4949495
50	0x3f014afd	0.5050505
51	0x3f03e0f8	0.5151515
52	0x3f0676f3	0.5252525
53	0x3f090cee	0.53535354
54	0x3f0ba2e9	0.54545456
55	0x3f0e38e4	0.5555556
56	0x3f10cede	0.56565654
57	0x3f1364d9	0.57575756
58	0x3f15fad4	0.5858586
59	0x3f1890cf	0.5959596
60	0x3f1b26ca	0.6060606
61	0x3f1dbcc5	0.61616164
62	0x3f2052bf	0.6262626
63	0x3f22e8ba	0.6363636
64	0x3f257eb5	0.64646465
65	0x3f2814b0	0.65656567
66	0x3f2aaaab	0.6666667
67	0x3f2d40a5	0.67676765
68	0x3f2fd6a0	0.68686867
69	0x3f326c9b	0.6969697
70	0x3f350296	0.7070707
71	0x3f379891	0.7171717
72	0x3f3a2e8c	0.72727275
73	0x3f3cc486	0.7373737
74	0x3f3f5a81	0.74747473
75	0x3f41f07c	0.75757575
76	0x3f448677	0.7676768
77	0x3f471c72	0.7777778
78	0x3f49b26d	0.7878788
79	0x3f4c4867	0.7979798
80	0x3f4ede62	0.8080808
81	0x3f51745d	0.8181818
82	0x3f540a58	0.82828283
83	0x3f56a053	0.83838385
84	0x3f59364e	0.8484849
85	0x3f5bcc48	0.85858583
86	0x3f5e6243	0.86868685
87	0x3f60f83e	0.8787879
88	0x3f638e39	0.8888889
89	0x3f662434	0.8989899
90	0x3f68ba2f	0.90909094
91	0x3f6b5029	0.9191919
92	0x3f6de624	0.9292929
93	0x3f707c1f	0.93939394
94	0x3f73121a	0.94949496
95	0x3f75a815	0.959596
96	0x3f783e10	0.969697
97	0x3f7ad40a	0.97979796
98	0x3f7d6a05	0.989899
99	0x3f800000	1.0

x_bc_ub f4 [100, 1]
0	0x40c90fdb	6.2831855
1	0x40c90fdb	6.2831855
2	0x40c90fdb	6.2831855
3	0x40c90fdb	6.2831855
4	0x40c90fdb	6.2831855
5	0x40c90fdb	6.2831855
6	0x40c90fdb	6.2831855
7	0x40c90fdb	6.2831855
8	0x40c90fdb	6.2831855
9	0x40c90fdb	6.2831855
10	0x40c90fdb	6.2831855
11	0x40c90fdb	6.2831855
12	0x40c90fdb	6.2831855
13	0x40c90fdb	6.2831855
14	0x40c90fdb	6.2831855
15	0x40c90fdb	6.2831855
16	0x40c90fdb	6.2831855
17	0x40c90fdb	6.2831855
18	0x40c90fdb	6.2831855
19	0x40c90fdb	6.2831855
20	0x40c90fdb	6.2831855
21	0x40c90fdb	6.2831855
22	0x40c90fdb	6.2831855
23	0x40c90fdb	6.2831855
24	0x40c90fdb	6.2831855
25	0x40c90fdb	6.2831855
26	0x40c90fdb	6.2831855
27	0x40c90fdb	6.2831855
28	0x40c90fdb	6.2831855
29	0x40c90fdb	6.2831855
30	0x40c90fdb	6.2831855
31	0x40c90fdb	6.2831855
32	0x40c90fdb	6.2831855
33	0x40c90fdb	6.2831855
34	0x40c90fdb	6.2831855
35	0x40c90fdb	6.2831855
36	0x40c90fdb	6.2831855
37	0x40c90fdb	6.2831855
38	0x40c90fdb	6.2831855
39	0x40c90fdb	6.2831855
40	0x40c90fdb	6.2831855
41	0x40c90fdb	6.2831855
42	0x40c90fdb	6.2831855
43	0x40c90fdb	6.2831855
44	0x40c90fdb	6.2831855
45	0x40c90fdb	6.2831855
46	0x40c90fdb	6.2831855
47	0x40c90fdb	6.2831855
48	0x40c90fdb	6.2831855
49	0x40c90fdb	6.2831855
50	0x40c90fdb	6.2831855
51	0x40c90fdb	6.2831855
52	0x40c90fdb	6.2831855
53	0x40c90fdb	6.2831855
54	0x40c90fdb	6.2831855
55	0x40c90fdb	6.2831855
56	0x40c90fdb	6.2831855
57	0x40c90fdb	6.2831855
58	0x40c90fdb	6.2831855
59	0x40c90fdb	6.2831855
60	0x40c90fdb	6.2831855
61	0x40c90fdb	6.2831855
62	0x40c90fdb	6.2831855
63	0x40c90fdb	6.2831855
64	0x40c90fdb	6.2831855
65	0x40c90fdb	6.2831855
66	0x40c90fdb	6.2831855
67	0x40c90fdb	6.2831855
68	0x40c90fdb	6.2831855
69	0x40c90fdb	6.2831855
70	0x40c90fdb	6.2831855
71	0x40c90fdb	6.2831855
72	0x40c90fdb	6.2831855
73	0x40c90fdb	6.2831855
74	0x40c90fdb	6.2831855
75	0x40c90fdb	6.2831855
76	0x40c90fdb	6.2831855
77	0x40c90fdb	6.2831855
78	0x40c90fdb	6.2831855
79	0x40c90fdb	6.2831855
80	0x40c90fdb	6.2831855
81	0x40c90fdb	6.2831855
82	0x40c90fdb	6.2831855
83	0x40c90fdb	6.2831855
84	0x40c90fdb	6.2831855
85	0x40c90fdb	6.2831855
86	0x40c90fdb	6.2831855
87	0x40c90fdb	6.2831855
88	0x40c90fdb	6.2831855
89	0x40c90fdb	6.2831855
90	0x40c90fdb	6.2831855
91	0x40c90fdb	6.2831855
92	0x40c90fdb	6.2831855
93	0x40c90fdb	6.2831855
94	0x40c90fdb	6.2831855
95	0x40c90fdb	6.2831855
96	0x40c90fdb	6.2831855
97	0x40c90fdb	6.2831855
98	0x40c90fdb	6.2831855
99	0x40c90fdb	6.2831855

t_bc_ub f4 [100, 1]
0	0x00000000	0.0
1	0x3c257eb5	0.01010101
2	0x3ca57eb5	0.02020202
3	0x3cf83e10	0.030303031
4	0x3d257eb5	0.04040404
5	0x3d4ede62	0.05050505
6	0x3d783e10	0.060606062
7	0x3d90cede	0.07070707
8	0x3da57eb5	0.08080808
9	0x3dba2e8c	0.09090909
10	0x3dcede62	0.1010101
11	0x3de38e39	0.11111111
12	0x3df83e10	0.121212125
13	0x3e0676f3	0.13131313
14	0x3e10cede	0.14141414
15	0x3e1b26ca	0.15151516
16	0x3e257eb5	0.16161616
17	0x3e2fd6a0	0.17171717
18	0x3e3a2e8c	0.18181819
19	0x3e448677	0.1919192
20	0x3e4ede62	0.2020202
21	0x3e59364e	0.21212122
22	0x3e638e39	0.22222222
23	0x3e6de624	0.23232323
24	0x3e783e10	0.24242425
25	0x3e814afd	0.25252524
26	0x3e8676f3	0.26262626
27	0x3e8ba2e9	0.27272728
28	0x3e90cede	0.28282827
29	0x3e95fad4	0.2929293
30	0x3e9b26ca	0.3030303
31	0x3ea052bf	0.3131313
32	0x3ea57eb5	0.32323232
33	0x3eaaaaab	0.33333334
34	0x3eafd6a0	0.34343433
35	0x3eb50296	0.35353535
36	0x3eba2e8c	0.36363637
37	0x3ebf5a81	0.37373737
38	0x3ec48677	0.3838384
39	0x3ec9b26d	0.3939394
40	0x3ecede62	0.4040404
41	0x3ed40a58	0.41414142
42	0x3ed9364e	0.42424244
43	0x3ede6243	0.43434343
44	0x3ee38e39	0.44444445
45	0x3ee8ba2f	0.45454547
46	0x3eede624	0.46464646
47	0x3ef3121a	0.47474748
48	0x3ef83e10	0.4848485
49	0x3efd6a05	0.4949495
50	0x3f014afd	0.5050505
51	0x3f03e0f8	0.5151515
52	0x3f0676f3	0.5252525
53	0x3f090cee	0.53535354
54	0x3f0ba2e9	0.54545456
55	0x3f0e38e4	0.5555556
56	0x3f10cede	0.56565654
57	0x3f1364d9	0.57575756
58	0x3f15fad4	0.5858586
59	0x3f1890cf	0.5959596
60	0x3f1b26ca	0.6060606
61	0x3f1dbcc5	0.61616164
62	0x3f2052bf	0.6262626
63	0x3f22e8ba	0.6363636
64	0x3f257eb5	0.64646465
65	0x3f2814b0	0.65656567
66	0x3f2aaaab	0.6666667
67	0x3f2d40a5	0.67676765
68	0x3f2fd6a0	0.68686867
69	0x3f326c9b	0.6969697
70	0x3f350296	0.7070707
71	0x3f379891	0.7171717
72	0x3f3a2e8c	0.72727275
73	0x3f3cc486	0.7373737
74	0x3f3f5a81	0.74747473
75	0x3f41f07c	0.75757575
76	0x3f448677	0.7676768
77	0x3f471c72	0.7777778
78	0x3f49b26d	0.7878788
79	0x3f4c4867	0.7979798
80	0x3f4ede62	0.8080808
81	0x3f51745d	0.8181818
82	0x3f540a58	0.82828283
83	0x3f56a053	0.83838385
84	0x3f59364e	0.8484849
85	0x3f5bcc48	0.85858583
86	0x3f5e6243	0.86868685
87	0x3f60f83e	0.8787879
88	0x3f638e39	0.8888889
89	0x3f662434	0.8989899
90	0x3f68ba2f	0.90909094
91	0x3f6b5029	0.9191919
92	0x3f6de624	0.9292929
93	0x3f707c1f	0.93939394
94	0x3f73121a	0.94949496
95	0x3f75a815	0.959596
96	0x3f783e10	0.969697
97	0x3f7ad40a	0.97979796
98	0x3f7d6a05	0.989899
99	0x3f800000	1.0

weight f4 [50, 2]
0	0x3dd55e59	0.10418386
1	0xbd76491f	-0.060128327
2	0x3c78a8e8	0.015176989
3	0x3dbb179a	0.09135361
4	0x3ef60fc7	0.48058912
5	0xbe2b1a04	-0.16709143
6	0xbcfb923f	-0.030709384
7	0x3dcfb2d2	0.10141529
8	0xbd78fb2c	-0.06078641
9	0x3c94e5bf	0.018175958
10	0xbe3413f2	-0.17585734
11	0x3e01e7a1	0.12686016
12	0x3d8e89a1	0.069598444
13	0x3dc80235	0.09766046
14	0xbe5873dc	-0.21137947
15	0xbe793e7f	-0.24340247
16	0x3e0b63a9	0.13612236
17	0x3cdf3b53	0.027249968
18	0x3df5ee1a	0.12008305
19	0xbe840367	-0.25783846
20	0xbed987f6	-0.42486542
21	0x3d1f4fbb	0.038894396
22	0x3eb8c8a2	0.3609057
23	0xbdae7aa4	-0.085194856
24	0xbe89c07a	-0.2690466
25	0xbecf4ed0	-0.40489817
26	0xbd5a04b8	-0.053227156
27	0x3dadac0d	0.08480082
28	0x3d9e8b98	0.07741469
29	0x3df63305	0.1202145
30	0xbdcd8aad	-0.10036216
31	0x3c0e1d34	0.008673955
32	0xbdfdf510	-0.124002576
33	0xbe64b68f	-0.22335266
34	0xbea20bbe	-0.31649584
35	0x3de15cd4	0.11004034
36	0x3cb92d57	0.022604628
37	0x3e4390df	0.19098233
38	0xbe94c0a1	-0.29053214
39	0x3e14fbf1	0.14549233
40	0x3e0cadc5	0.13738163
41	0xbdc8c33c	-0.09802863
42	0x3da7d922	0.08195712
43	0xbdbf2780	-0.09333706
44	0x3db70ec8	0.08938366
45	0xbcc2ee28	-0.023795202
46	0xbb599e93	-0.003320609
47	0xbe4d4b49	-0.2004825
48	0xbcdcbf8b	-0.026946804
49	0x3dbe681b	0.092972
50	0x3ec4b71e	0.38420957
51	0xbe1e9213	-0.1548541
52	0xbdebe0fa	-0.1151752
53	0x3e7dc51e	0.24782225
54	0xbd4c8821	-0.04993451
55	0x3e11012f	0.14160608
56	0x3e99411d	0.2993249
57	0xbd17817b	-0.036988717
58	0x3b2fe639	0.0026840104
59	0xbd9b312a	-0.07577737
60	0xbc278267	-0.010223961
61	0x3e3db85f	0.18527363
62	0xbe85fca7	-0.2616932
63	0x3d430869	0.047615442
64	0x3e4c44b0	0.19948077
65	0x3d109989	0.035302673
66	0xbea42ad6	-0.3206393
67	0xbe4afb5f	-0.19822453
68	0x3d311750	0.043235123
69	0xbe5f1537	-0.21785437
70	0xbec51d5a	-0.38498956
71	0xbe0b6320	-0.13612032
72	0xbdddbc38	-0.108269155
73	0xbe4cc219	-0.19995917
74	0x3df692ce	0.120397195
75	0x3ca072cf	0.019585995
76	0xbcd240d8	-0.025665686
77	0xbc44d5c1	-0.0120138535
78	0xbe2c8d8e	-0.16850874
79	0xbd13e66f	-0.03610843
80	0xbd69bc2c	-0.05706422
81	0x3b92bb06	0.0044778613
82	0x3dd3cd07	0.1034184
83	0x3da446a1	0.08021284
84	0x3e0b7418	0.13618505
85	0xbe39f106	-0.1815835
86	0x3ed9b790	0.4252286
87	0xbcbeb2fd	-0.023278708
88	0x3defa7e2	0.11701943
89	0x3e85301f	0.26013276
90	0xbddc6d88	-0.10763079
91	0xbf0266c4	-0.5093806
92	0x3b86b497	0.0041108835
93	0xbe5be0bb	-0.21472447
94	0x3e28ec9e	0.16496512
95	0xbeb38d15	-0.35068575
96	0xbe298eb4	-0.16558343
97	0xbe6b56c7	-0.22982322
98	0x3e3d5f93	0.1849349
99	0xbe12182a	-0.1426703

bias f4 [50]
0	0xbb222274	-0.0024739774
1	0x3a71900f	0.0009214887
2	0xbb537f61	-0.0032271969
3	0x3b2173e7	0.0024635734
4	0xbad6d7e4	-0.0016391245
5	0x3a4e3c16	0.000786723
6	0xbaf6bc2a	-0.0018824388
7	0xbb647f26	-0.0034865825
8	0x3b9ba152	0.0047494555
9	0x3b46f6f3	0.0030359596
10	0xbaed8300	-0.0018120706
11	0x3b09f680	0.0021051466
12	0xbbd77246	-0.0065749018
13	0xbac0c9f8	-0.0014708629
14	0xbb36936d	-0.0027858869
15	0xbb576890	-0.003286872
16	0xbafd4881	-0.0019323976
17	0xbab1c46e	-0.0013562569
18	0x3b07eb25	0.0020739522
19	0xbb45e596	-0.0030196658
20	0xbb0f2ef0	-0.0021848045
21	0x3b290ea6	0.0025796085
22	0xbaad13a4	-0.0013204706
23	0xbb40e05c	-0.0029430604
24	0xbb10f99f	-0.0022121442
25	0x3b249ed9	0.0025119095
26	0xbac9c124	-0.0015392643
27	0xbb10dbe7	-0.0022103728
28	0x3ab886b2	0.0014078228
29	0xbb232119	-0.0024891554
30	0x3b09aa57	0.0021006071
31	0x3ad73d1f	0.0016421414
32	0xbba0de6b	-0.004909327
33	0xbb43e0be	-0.0029888595
34	0x3b05942c	0.0020382507
35	0xbb69014c	-0.0035553752
36	0xb977ec60	-0.00023643812
37	0x3ad0fbc0	0.0015944168
38	0xbb16b40b	-0.0022995498
39	0xbb13f0f0	-0.002257403
40	0x3accaf67	0.0015616239
41	0xbb62dd8e	-0.003461692
42	0xbb24c3c3	-0.0025141097
43	0x3b39f685	0.0028375697
44	0xbbd29f04	-0.0064276475
45	0xbb0a7514	-0.0021126913
46	0x3be6a955	0.007039229
47	0xbb00f2fa	-0.0019676075
48	0x3a1a2104	0.00058795535
49	0x3b152f64	0.0022763843

weight f4 [50, 50]
0	0x3e28c32b	0.164807
1	0xbd93e7ac	-0.07221922
2	0xbeb834c6	-0.35977763
3	0x3de175e5	0.11008815
4	0xbd7d7390	-0.061877787
5	0xbd457ed8	-0.04821667
6	0xbe256fac	-0.1615588
7	0x3daae2bd	0.08344028
8	0x3ddd05c1	0.10792113
9	0x3dd36789	0.10322482
10	0x3de00542	0.10938503
11	0xbe812a7c	-0.25227726
12	0xbe64371a	-0.22286645
13	0xbdd862fe	-0.10565756
14	0x3e63b08a	0.22235313
15	0xbd888b60	-0.06667209
16	0xbe886a2e	-0.2664351
17	0xbcb641f5	-0.022248248
18	0x3e164f7f	0.14678763
19	0xbe3f51f9	-0.18683614
20	0x3d1e1a4b	0.038599294
21	0x3d81fd9e	0.06347202
22	0x3e1ef997	0.15524898
23	0x3e20f9cf	0.15720294
24	0x3e90e23c	0.28297603
25	0x3d34ed1a	0.04417143
26	0x3ea0cf72	0.31408268
27	0x3cca00b7	0.024658544
28	0x3e520759	0.20510615
29	0xbe511464	-0.20417935
30	0x3e410f09	0.18853392
31	0xbd845897	-0.0646221
32	0xbd07502e	-0.03303545
33	0xbe634624	-0.22194725
34	0x3e10e15f	0.14148472
35	0x3d149c0d	0.036281634
36	0x3e53e1f6	0.20691666
37	0x3c56a3b8	0.013100557
38	0xbd5503ed	-0.052005697
39	0x3da3615c	0.07977554
40	0x3d243c00	0.040096283
41	0xbe63c8cc	-0.22244567
42	0xbde59fad	-0.11212096
43	0x3bb22117	0.0054360735
44	0xbbb54599	-0.0055319783
45	0x3db76623	0.08955028
46	0x3d2ee774	0.0427012
47	0xbe204eaa	-0.15655008
48	0x3d9d659a	0.076853946
49	0xbdd874a2	-0.10569121
50	0xbe0ee6a9	-0.13955177
51	0xbe02d80a	-0.12777725
52	0xbdaf63b4	-0.08563939
53	0xbdb1732b	-0.08664545
54	0x3d6c64a5	0.05771317
55	0xbd051e15	-0.03249939
56	0x3db6008d	0.08886824
57	0xbcc7747a	-0.024347533
58	0x3c76e341	0.01506883
59	0x3e346f84	0.17620665
60	0xbe0afacb	-0.13572232
61	0xbeb040fe	-0.34424585
62	0x3e609f85	0.21935852
63	0x3cd82b48	0.026387826
64	0xbdd2b94f	-0.10289251
65	0x3e096454	0.13417178
66	0x3c117010	0.008876815
67	0x3e71b2a7	0.23603307
68	0xbe36831b	-0.1782345
69	0x3cce33d5	0.0251712
70	0x3cd891b6	0.026436668
71	0x3e10120f	0.14069389
72	0xbe41b346	-0.18916044
73	0x3e2db5fb	0.16963951
74	0x3e20f50b	0.15718476
75	0x3cf6e652	0.030139122
76	0xbdf11430	-0.117714286
77	0xbccf210d	-0.025284315
78	0xbc51d196	-0.012806317
79	0x3dc4b616	0.09605043
80	0xbcfb62ec	-0.030686818
81	0xbc4422ca	-0.011971185
82	0xba9d1a43	-0.0011985976
83	0xbe8453b0	-0.25845098
84	0xbe54c00d	-0.20776387
85	0xbe10c354	-0.14137012
86	0xbdd4ccd0	-0.103906274
87	0xbe0e42fa	-0.13892737
88	0xbe955f76	-0.29174393
89	0xbdef56f1	-0.11686505
90	0x3d519ea3	0.05117668
91	0xbced2936	-0.028950315
92	0xbe7981b4	-0.24365884
93	0xbd96316d	-0.07333646
94	0xbda85739	-0.082197614
95	0xbdf0fcd8	-0.11766976
96	0x3e4ed8f6	0.20199952
97	0xbe71b588	-0.23604405
98	0x3ddb6af7	0.10713761
99	0x3e662b5a	0.22477475
100	0xbddcbe86	-0.10778527
101	0x3d3841f4	0.044984773
102	0xbda147d1	-0.07875026
103	0x3d497577	0.04918429
104	0x3c17c367	0.009262896
105	0x3d871848	0.06596428
106	0xbc6949d3	-0.0142387925
107	0x3e5f5ccc	0.21812743
108	0xbdb3a5ef	-0.08771884
109	0x3d1cc162	0.03827036
110	0xbe818541	-0.25296977
111	0xbda1cfb4	-0.07900944
112	0x3df9969b	0.12186929
113	0xbd2ba2a0	-0.04190314
114	0x3d8ec27c	0.06970689
115	0x3d75f48b	0.060047667
116	0xbdf17d81	-0.11791516
117	0x3de1f808	0.11033636
118	0x3e2feaba	0.17179385
119	0x3d40b463	0.04704703
120	0x3dad06a5	0.08448533
121	0xbca73a5b	-0.020413568
122	0x3c727564	0.014798496
123	0xbd871b40	-0.065969944
124	0x3ce75995	0.028240958
125	0xbcced150	-0.025246292
126	0xbe10a54f	-0.1412556
127	0x3e441549	0.19148745
128	0x3e8be6c6	0.27324504
129	0xbd4f6b7c	-0.050639614
130	0x3d12c2fe	0.03583049
131	0xbe2d36da	-0.16915455
132	0x3d238012	0.03991706
133	0x3d751974	0.059838727
134	0x3d3952f7	0.045245137
135	0x3dce2f12	0.10067572
136	0x3ddba555	0.10724894
137	0xbcc04f04	-0.023475178
138	0x3c99a516	0.018755477
139	0x3e556fd3	0.20843439
140	0xbdc29457	-0.0950095
141	0x3d44f93f	0.048089262
142	0xbd9bc6eb	-0.076063
143	0xbbd03658	-0.0063541345
144	0x3d9cda81	0.07658864
145	0x3e1ae400	0.15126038
146	0x3cffb753	0.031215345
147	0xbeb1ae15	-0.34703127
148	0x3d091411	0.033466402
149	0x3e18eec6	0.14934835
150	0xbe5f2a5e	-0.21793506
151	0xbb33c0cb	-0.0027428146
152	0x3e049738	0.1294831
153	0xbcf7102b	-0.030159077
154	0xbab72f5f	-0.001397591
155	0x3deef189	0.11667163
156	0x3e9c009f	0.30469224
157	0x3cc94ede	0.02457374
158	0xbdfb5660	-0.12272334
159	0x3d4e8ec7	0.05042913
160	0xbdee9409	-0.11649329
161	0xbbee3a48	-0.0072701313
162	0x3de7a05d	0.11309884
163	0xbc51d33e	-0.012806712
164	0x3be52f38	0.0069941543
165	0x3dd6e9a6	0.10493784
166	0x3cec5de1	0.028853359
167	0xbcbbfc72	-0.022947524
168	0xbe133021	-0.14373828
169	0x3df53b67	0.11974221
170	0xbe308f3a	-0.17242137
171	0x3e3cc14c	0.18433112
172	0xbc0bf023	-0.00854114
173	0x3e710d9e	0.23540351
174	0x3e82105b	0.25403103
175	0xbd847b97	-0.064688854
176	0x3d4a5c2d	0.049404312
177	0x3ddc7dfe	0.107662186
178	0x3df34a48	0.118794024
179	0x3e41dafc	0.18931192
180	0xbd371805	-0.04470064
181	0x3da16826	0.07881193
182	0xbe292d5d	-0.16521211
183	0xbe4c63aa	-0.19959894
184	0xbe45df68	-0.19323504
185	0xbcf86fb5	-0.030326704
186	0xbe861c78	-0.26193595
187	0xbc0574b6	-0.008145502
188	0x3e66768b	0.22506158
189	0x3d4517ae	0.048118286
190	0xbdd97c4d	-0.106194116
191	0x3c5905bd	0.013245997
192	0xbe0df264	-0.13861996
193	0x3d639960	0.05556619
194	0x3e220ab4	0.15824395
195	0xbe30cd16	-0.17265734
196	0xbd2dd31c	-0.042437658
197	0x3dd0a234	0.10187188
198	0xbdf96502	-0.12177469
199	0x3e16c2a3	0.14722686
200	0x3d5407a7	0.05176511
201	0xbd045798	-0.0323101
202	0x3d484434	0.04889317
203	0x3c5c61b1	0.013451026
204	0x3e802658	0.25029254
205	0xbe59312a	-0.21210161
206	0x3e168c32	0.14701918
207	0x3e6db3f7	0.23213182
208	0xbcbb6520	-0.022875369
209	0xbe168a75	-0.14701255
210	0x3e828bbd	0.25497237
211	0xbe6811e4	-0.22663075
212	0x3b7f728f	0.0038978194
213	0xbdb317c9	-0.08744771
214	0x3cf49baa	0.029859383
215	0xbd649fd8	-0.0558165
216	0xbe16ac99	-0.14714278
217	0x3d90320a	0.07040794
218	0xbd8f1a4f	-0.0698744
219	0xbdaff997	-0.08592527
220	0xbd285042	-0.041092165
221	0x3da8f6d4	0.08250204
222	0xbdd33673	-0.1031312
223	0xbe214c93	-0.15751867
224	0x3df3507b	0.11880585
225	0x3d273983	0.04082633
226	0xbdea120d	-0.11429224
227	0x3e0bb25e	0.1364226
228	0xbcb0f418	-0.021600768
229	0x3e030c53	0.1279767
230	0xbcf38613	-0.029727018
231	0xbe4c29aa	-0.19937769
232	0xbdf1d01f	-0.11807274
233	0x3e1e6b5d	0.15470643
234	0xbe4728b7	-0.19449125
235	0x3defcf06	0.117094085
236	0xbdb7d7d3	-0.08976712
237	0x3ce4d258	0.027932331
238	0x3da26ce7	0.07930928
239	0x3b90886c	0.004410794
240	0xbddcaa93	-0.10774722
241	0xbe797651	-0.2436154
242	0xbd243055	-0.040085156
243	0x3e03998a	0.12851539
244	0xbe352e99	-0.17693557
245	0x3ddb41cd	0.1070591
246	0x3ccf573a	0.025310148
247	0x3dc7f93a	0.09764333
248	0x3dcb4d8d	0.09926901
249	0x3c7f462d	0.015580696
250	0xbddee16d	-0.1088284
251	0xbe1cf22f	-0.1532676
252	0xbe07c2ea	-0.13257948
253	0x3e2a009f	0.166018
254	0xbb243d92	-0.0025061113
255	0xbd101c4b	-0.035183232

bias f4 [50]
0	0xbb838dc5	-0.004014703
1	0xbb4469ec	-0.002997036
2	0x3a25d36b	0.0006325754
3	0xbb0b8719	-0.0021290241
4	0xbaa8e0e0	-0.0012884401
5	0xbb0ebac3	-0.00217788
6	0x3afea8bb	0.0019428948
7	0xbb113e83	-0.0022162504
8	0x3b16d0f8	0.0023012739
9	0xbb5c8b5b	-0.0033652398
10	0x3b244beb	0.0025069665
11	0xbb039d45	-0.0020082754
12	0xbafcfa66	-0.0019300699
13	0xbb20adff	-0.0024517772
14	0xbb499dfa	-0.0030764327
15	0x3b3c92c7	0.002877401
16	0xbb2038af	-0.0024447849
17	0xbb10fe06	-0.0022124066
18	0xbb11d67a	-0.0022253082
19	0x3b5e85a8	0.0033954177
20	0xbabceb8c	-0.001441346
21	0x3b11663a	0.0022186176
22	0xbbcb9ed9	-0.0062140045
23	0xbb5d2adf	-0.0033747477
24	0x3b56a67e	0.0032753046
25	0xb9e88206	-0.00044347363
26	0x3af22bd8	0.0018476201
27	0x3a854cdd	0.0010170002
28	0xbb10b712	-0.0022081775
29	0xbb66dc87	-0.003522666
30	0x3b50f3e6	0.0031883656
31	0x3a6a1880	0.00089300424
32	0x3b2cff19	0.0026397167
33	0xbb34a140	-0.0027561933
34	0x3af7e4b4	0.0018912763
35	0x3af74ece	0.001886809
36	0x3c0bc0bd	0.008529839
37	0x3b31a044	0.0027103582
38	0xbaf9cebe	-0.0019058806
39	0x3b321c87	0.0027177648
40	0x3c22df3e	0.00994092
41	0xbac87272	-0.0015292896
42	0xbb14329c	-0.0022613173
43	0xbb15a526	-0.0022834032
44	0x3b26d1c4	0.002545462
45	0x3b5914b7	0.003312392
46	0x3b1ddcae	0.0024087834
47	0x3afe7ed0	0.0019416455
48	0x3b6caa33	0.0036112189
49	0xb971ef22	-0.00023072635

weight f4 [50, 50]
0	0xbeac8b61	-0.33700088
1	0x3dc8c149	0.09802491
2	0xbddc0c19	-0.10744495
3	0xbda08d05	-0.07839397
4	0xbdc437b3	-0.09580936
5	0x3e9ab2e2	0.30214602
6	0x3df8df89	0.12152011
7	0x3d382a4f	0.044962224
8	0xbe1717cd	-0.14755173
9	0xbe6eb0a8	-0.23309577
10	0x3ea3fd0c	0.32028997
11	0xbe76db42	-0.24107078
12	0xbb48a83f	-0.003061786
13	0x3e68b09f	0.22723626
14	0xbdbdecc6	-0.092736766
15	0x3eb590d9	0.35462072
16	0xbdb49bb6	-0.08818762
17	0xbe8cb82a	-0.27484256
18	0x3cc34894	0.023838319
19	0x3e28f960	0.16501379
20	0x3dddd24c	0.108311266
21	0xbdc0f48e	-0.09421645
22	0x3ce54c0e	0.027990367
23	0xbd5db0a7	-0.054123547
24	0x3c891761	0.01673478
25	0x3e0e8ea5	0.13921602
26	0xbcf48897	-0.029850287
27	0xbdf1f71f	-0.11814713
28	0x3e951197	0.29114982
29	0x3dda6880	0.10664463
30	0x3c8d3490	0.017236978
31	0xbd37d9fa	-0.044885613
32	0x3e87fec8	0.2656157
33	0xbda68941	-0.08131648
34	0xbddbb34e	-0.10727559
35	0xbdacf606	-0.08445363
36	0xbd183f43	-0.037169706
37	0x3dcc99e7	0.09990292
38	0x3e23b956	0.15988669
39	0x3e946602	0.28984076
40	0x3dee07ce	0.116225824
41	0x3dbef2a1	0.093236215
42	0x3dfa3f65	0.12219123
43	0xbe098c1a	-0.13432351
44	0x3d031671	0.032003824
45	0x3ed2e6ee	0.4119181
46	0xbdcb7600	-0.09934616
47	0xbe73c4fd	-0.23805614
48	0xbeb7ed5e	-0.35923284
49	0x3d8d0e6a	0.06887515
50	0xbe711cbd	-0.23546119
51	0xbc5475c0	-0.012967527
52	0xbdfc8ca2	-0.12331511
53	0x3d794429	0.06085602
54	0x3c028d88	0.007968314
55	0x3dcda524	0.10041264
56	0xbea705b2	-0.32621533
57	0x3e76ef5a	0.24114743
58	0x3e0822bb	0.13294499
59	0x3da9c060	0.08288646
60	0x3e054a85	0.13016708
61	0x3de8d078	0.11367887
62	0x3e1bbd3d	0.15208907
63	0x3e11430d	0.14185734
64	0xbd8ca248	-0.0686689
65	0x3df87c8e	0.12133132
66	0x3d263826	0.04058089
67	0xbbaa10d3	-0.005189994
68	0x3e0be138	0.13660133
69	0x3d705f5f	0.058684703
70	0x3e887ccd	0.26657715
71	0xbe320c53	-0.17387514
72	0x3d1b32d0	0.037890255
73	0xbddd4375	-0.10803882
74	0x3d1e2098	0.038605303
75	0xbd0a0b14	-0.03370197
76	0xbe7170d7	-0.23578201
77	0xbd2e3e21	-0.04253972
78	0x3d7bdd35	0.061490256
79	0xbce65dff	-0.028120993
80	0xbe113f96	-0.14184412
81	0x3c5f26d3	0.013620096
82	0xbd72655e	-0.059178703
83	0x3de9a0b6	0.11407606
84	0x3e3e57cc	0.1858818
85	0xbda503ba	-0.080573514
86	0x3d9e550e	0.07731067
87	0xbcf0f5e3	-0.029414123
88	0xbd86a5aa	-0.06574567
89	0xbd9a5651	-0.07535995
90	0xbe85bb2b	-0.2611936
91	0xbdb51b81	-0.088431366
92	0x3e488ee3	0.19585757
93	0xbd842ad2	-0.0645348
94	0xbdb8be3d	-0.0902066
95	0x3e5f3ee1	0.2180133
96	0x3d0bdae2	0.03414429
97	0xbe8d57da	-0.27606088
98	0xbcfd042a	-0.030885775
99	0x3d8cca5c	0.068745345
100	0x3d556dcc	0.052106664
101	0x3e2ba7c8	0.16763222
102	0xbd5a1896	-0.053246103
103	0x3d44c769	0.048041735
104	0xbdafe1db	-0.085880004
105	0xbeb095ec	-0.3448938
106	0xbd0a6f6c	-0.033797666
107	0x3b8e1baf	0.0043367962
108	0x3c822912	0.015888724
109	0x3dd5ee22	0.10445811
110	0x3e42b8d5	0.1901582
111	0x3c875b95	0.016523162
112	0x3e54afd9	0.20770206
113	0x3d588e5c	0.05287014
114	0x3df7fef1	0.12109173
115	0x3e1971ab	0.14984767
116	0x3ce0f04a	0.027458329
117	0x3dcbfb9c	0.099601
118	0x3d3b2a6b	0.04569475
119	0x3de101b4	0.10986653
120	0x3de34a49	0.11098153
121	0x3e129826	0.14315853
122	0xbb2c7574	-0.0026315125
123	0x3e91fc30	0.28512716
124	0xbe38d791	-0.18050982
125	0xbe1c9438	-0.15290916
126	0xbdb47f5a	-0.08813353
127	0xbd8e523a	-0.06949277
128	0xbe7cc8d1	-0.2468598
129	0x3ddc5e13	0.10760131
130	0xbe24c50c	-0.16090792
131	0x3dae90b5	0.085236944
132	0x3cb5b7a5	0.022182295
133	0xbe0b5d8a	-0.13609901
134	0xbe08df57	-0.13366447
135	0xbcb16f94	-0.02165965
136	0x3e5a30d0	0.21307683
137	0xbe5d7179	-0.21625318
138	0xbcd17eba	-0.025573123
139	0xbde6ff7d	-0.11279199
140	0xbcb2d68a	-0.021830816
141	0xbe4cfaa8	-0.20017493
142	0x3d0f702e	0.035019092
143	0xbe3e6027	-0.18591367
144	0xbab58978	-0.0013850173
145	0xbe5b857c	-0.21437639
146	0x3e9781df	0.2959127
147	0xbe3ad795	-0.182463
148	0x3e17bfbf	0.14819239
149	0xbe1aa371	-0.1510141
150	0xbe9c40d8	-0.30518222
151	0x3e46351a	0.19356194
152	0x3dc64883	0.09681799
153	0x3e2cd390	0.1687758
154	0x3c9566bb	0.018237462
155	0x3c8ec63f	0.017428515
156	0x3d04d176	0.03242632
157	0xbe01c03a	-0.12670985
158	0xbe09175d	-0.13387819
159	0xbd2411fe	-0.04005622
160	0xbd491176	-0.049088918
161	0xbe0262b9	-0.12732972
162	0x3e0c5e31	0.13707806
163	0xbde87af8	-0.113515794
164	0xbda1363d	-0.07871673
165	0x3dcefe6f	0.10107123
166	0x3d41e1de	0.047334544
167	0x3e217bc6	0.15769872
168	0xbdf90e75	-0.121609606
169	0xbdb9bab9	-0.09068818
170	0xbdc3b3ce	-0.095557794
171	0x3d42d01b	0.047561746
172	0xbdcdd202	-0.100498214
173	0x3d8495e7	0.06473904
174	0xbde11c74	-0.10991755
175	0xbdb89fc8	-0.09014851
176	0x3dbf5f08	0.09344298
177	0xbda5d3b6	-0.08097021
178	0xbcb36863	-0.021900361
179	0xbb55f590	-0.0032647587
180	0x3d1ca692	0.03824479
181	0xbe818e3e	-0.25303835
182	0x3d7e8b36	0.06214448
183	0x3e92cf01	0.28673556
184	0xbe4a008d	-0.19726773
185	0x3d36eab0	0.04465741
186	0xbe24070e	-0.16018316
187	0x3d6876cb	0.056753915
188	0x3cf48f8a	0.029853601
189	0x3e116640	0.14199162
190	0x3e5f8189	0.21826757
191	0xbd70f2e9	-0.058825407
192	0xbd2b82c2	-0.041872747
193	0xbeaeb969	-0.34125832
194	0x3d82f5c0	0.06394529
195	0xbe4346db	-0.19069998
196	0x3e342261	0.1759124
197	0xbc9e29b6	-0.019306999
198	0xbd093980	-0.033502102
199	0xbe546fa4	-0.20745713
200	0x3d265a58	0.040613502
201	0xbe14abdf	-0.14518689
202	0xbe0a7cbc	-0.13524145
203	0xbcc11cef	-0.023573367
204	0xbe9062c8	-0.28200364
205	0x3ddbc1b4	0.10730305
206	0xbddcf680	-0.10789204
207	0xbd8b906a	-0.06814654
208	0x3caae843	0.020862704
209	0x3ddc5f7d	0.107604004
210	0xbe25099a	-0.16116944
211	0xbdad7c5e	-0.08470987
212	0xbe4fbe66	-0.20287475
213	0x3dccbaa3	0.09996536
214	0x3d934ae0	0.07192016
215	0xbce05771	-0.027385445
216	0x3d868505	0.0656834
217	0xbde1ed01	-0.11031533
218	0x3e116ac0	0.14200878
219	0x3d1f7020	0.03892529
220	0x3e7f678c	0.24941844
221	0x3b52e268	0.0032178406
222	0xbe6d6e48	-0.231866
223	0x3e319d67	0.173452
224	0x3e3e5fcd	0.18591233
225	0xbdaba18e	-0.083804235
226	0xbe756712	-0.239651
227	0x3e54cee4	0.20782048
228	0x3e52b5f7	0.20577227
229	0x3d472a8c	0.04862456
230	0x3dbb17a6	0.0913537
231	0x3d2c46fa	0.042059876
232	0xbe312c4c	-0.17302054
233	0xbe62e0cc	-0.22156066
234	0xbc844703	-0.016147142
235	0x3d7315f2	0.0593471
236	0x3d5465e3	0.05185498
237	0x3cf60460	0.030031383
238	0xbe0a3066	-0.13495025
239	0xbde6f503	-0.11277201
240	0xbd392ca0	-0.045208573
241	0xbc88fec7	-0.01672305
242	0xbe20de26	-0.15709743
243	0xbe044c32	-0.12919691
244	0x3ccc5b30	0.024945825
245	0x3da2d756	0.07951228
246	0x3e224a89	0.15848745
247	0xbe581cdd	-0.2110476
248	0x3b72133f	0.003693774
249	0x3d2afb78	0.041743726
250	0x3e8ab301	0.27089694
251	0x3e33bb88	0.17552006
252	0x3da9cd6c	0.08291134
253	0x3e0c3e10	0.1369555
254	0xbe5351f1	-0.20636727
255	0xbdf980cd	-0.1218277

bias f4 [50]
0	0x3b7b7fcf	0.003837574
1	0xbae475d4	-0.0017430135
2	0xbb33ba46	-0.002742426
3	0x3b34e1b7	0.0027600357
4	0xbb17bba9	-0.0023152626
5	0xbaa09c3b	-0.0012253592
6	0xbb07528c	-0.0020648567
7	0x3a3844ca	0.00070292933
8	0x3b4d26d8	0.003130367
9	0xbb27f06f	-0.0025625487
10	0x3b4c501e	0.0031175683
11	0xbb107dc7	-0.0022047625
12	0x3b54f355	0.003249367
13	0x3b35f543	0.0027764596
14	0x3ada1b15	0.0016640151
15	0xbb0b216a	-0.0021229633
16	0x3b232ab5	0.0024897282
17	0xba9ec18f	-0.0012112128
18	0xbb20820e	-0.002449158
19	0x3b1d7e8f	0.0024031734
20	0x3b522de1	0.0032070803
21	0x3b490d32	0.003067803
22	0xbb5914fc	-0.003312408
23	0xbbb084b7	-0.0053869146
24	0x3b150eb9	0.002274437
25	0x3b1944e4	0.002338701
26	0x3b0df868	0.0021662954
27	0x3b29c75f	0.0025906188
28	0xbb949dd7	-0.0045354175
29	0x3b029bca	0.0019929283
30	0xbb161bad	-0.002290468
31	0x3b698862	0.003563427
32	0x3b093b00	0.0020939708
33	0x3b1b8197	0.0023728365
34	0xbb1b55a7	-0.0023702176
35	0x3a4f7e79	0.0007915269
36	0x3b253a8c	0.0025211899
37	0xbb261f03	-0.0025348074
38	0xbb10121a	-0.0021983446
39	0x3b06b73b	0.0020555991
40	0x39a273db	0.00030985367
41	0xbafc2d25	-0.0019239528
42	0xbb0485ec	-0.0020221425
43	0x3a357335	0.0006921769
44	0x3b1caad9	0.0023905544
45	0xbb0e840e	-0.0021746191
46	0x3b2eb39f	0.0026657355
47	0xbb228c91	-0.0024803022
48	0xbb2d1799	-0.002641177
49	0x3b0114fd	0.0019696348
