pbc_examples/saved_models/convection_beta-10.0_layers-50,50,50,50,1_L-2.0_WD-0_init-normal_batch_size256.pt (torch, 114093 bytes, 36 tensors)

x_u f4 [256, 1]
0.0 0.024543693 0.049087387 0.07363108 0.09817477 0.12271846 0.14726216 0.17180584
0.19634955 0.22089323 0.24543692 0.2699806 0.2945243 0.319068 0.3436117 0.3681554
0.3926991 0.41724277 0.44178647 0.46633017 0.49087384 0.5154175 0.5399612 0.5645049
0.5890486 0.6135923 0.638136 0.6626797 0.6872234 0.7117671 0.7363108 0.7608545
0.7853982 0.8099418 0.83448553 0.85902923 0.88357294 0.90811664 0.93266034 0.957204
0.9817477 1.0062914 1.030835 1.0553788 1.0799224 1.1044662 1.1290098 1.1535536
1.1780972 1.2026409 1.2271847 1.2517283 1.276272 1.3008157 1.3253593 1.3499031
1.3744467 1.3989905 1.4235342 1.4480779 1.4726216 1.4971652 1.521709 1.5462526
1.5707964 1.59534 1.6198837 1.6444274 1.6689711 1.6935148 1.7180585 1.7426022
1.7671459 1.7916895 1.8162333 1.8407769 1.8653207 1.8898643 1.914408 1.9389517
1.9634954 1.9880391 2.0125828 2.0371265 2.06167 2.0862138 2.1107576 2.1353014
2.1598449 2.1843886 2.2089324 2.233476 2.2580197 2.2825634 2.3071072 2.3316507
2.3561945 2.3807383 2.4052818 2.4298255 2.4543693 2.478913 2.5034566 2.5280004
2.552544 2.5770876 2.6016314 2.6261752 2.6507187 2.6752625 2.6998062 2.72435
2.7488935 2.7734373 2.797981 2.8225245 2.8470683 2.871612 2.8961558 2.9206994
2.9452431 2.969787 2.9943304 3.0188742 3.043418 3.0679617 3.0925052 3.117049
3.1415927 3.1661363 3.19068 3.2152238 3.2397673 3.264311 3.2888548 3.3133986
3.3379421 3.362486 3.3870296 3.4115732 3.436117 3.4606607 3.4852045 3.509748
3.5342917 3.5588355 3.583379 3.6079228 3.6324666 3.6570103 3.6815538 3.7060976
3.7306414 3.755185 3.7797287 3.8042724 3.828816 3.8533597 3.8779035 3.9024472
3.9269907 3.9515345 3.9760783 4.000622 4.0251656 4.0497093 4.074253 4.098797
4.12334 4.147884 4.1724277 4.1969714 4.221515 4.246059 4.2706027 4.295146
4.3196898 4.3442335 4.3687773 4.393321 4.417865 4.4424086 4.466952 4.4914956
4.5160394 4.540583 4.565127 4.5896707 4.6142144 4.6387577 4.6633015 4.687845
4.712389 4.7369328 4.7614765 4.7860203 4.8105636 4.8351073 4.859651 4.884195
4.9087386 4.9332824 4.957826 4.9823694 5.006913 5.031457 5.0560007 5.0805445
5.105088 5.1296315 5.1541753 5.178719 5.203263 5.2278066 5.2523503 5.276894
5.3014374 5.325981 5.350525 5.3750687 5.3996124 5.424156 5.4487 5.473243
5.497787 5.5223308 5.5468745 5.5714183 5.595962 5.620506 5.645049 5.669593
5.6941366 5.7186804 5.743224 5.767768 5.7923117 5.816855 5.8413987 5.8659425
5.8904862 5.91503 5.939574 5.9641175 5.988661 6.0132046 6.0377483 6.062292
6.086836 6.1113796 6.1359234 6.1604667 6.1850104 6.209554 6.234098 6.2586417
00000000: 0000 0000 db0f c93c db0f 493d e4cb 963d
00000010: db0f c93d d153 fb3d e4cb 163e dfed 2f3e
00000020: db0f 493e d631 623e d153 7b3e e63a 8a3e
00000030: e4cb 963e e25c a33e dfed af3e dd7e bc3e
00000040: db0f c93e d8a0 d53e d631 e23e d4c2 ee3e
00000050: d153 fb3e 67f2 033f e63a 0a3f 6583 103f
00000060: e4cb 163f 6314 1d3f e25c 233f 60a5 293f
00000070: dfed 2f3f 5e36 363f dd7e 3c3f 5cc7 423f
00000080: db0f 493f 5958 4f3f d8a0 553f 57e9 5b3f
00000090: d631 623f 557a 683f d4c2 6e3f 520b 753f
000000a0: d153 7b3f 28ce 803f 67f2 833f a716 873f
000000b0: e63a 8a3f 265f 8d3f 6583 903f a5a7 933f
000000c0: e4cb 963f 23f0 993f 6314 9d3f a238 a03f
000000d0: e25c a33f 2181 a63f 60a5 a93f a0c9 ac3f
000000e0: dfed af3f 1f12 b33f 5e36 b63f 9e5a b93f
000000f0: dd7e bc3f 1ca3 bf3f 5cc7 c23f 9beb c53f
00000100: db0f c93f 1a34 cc3f 5958 cf3f 997c d23f
00000110: d8a0 d53f 18c5 d83f 57e9 db3f 970d df3f
00000120: d631 e23f 1556 e53f 557a e83f 949e eb3f
00000130: d4c2 ee3f 13e7 f13f 520b f53f 922f f83f
00000140: d153 fb3f 1178 fe3f 28ce 0040 4860 0240
00000150: 67f2 0340 8784 0540 a716 0740 c7a8 0840
00000160: e63a 0a40 06cd 0b40 265f 0d40 45f1 0e40
00000170: 6583 1040 8515 1240 a5a7 1340 c439 1540
00000180: e4cb 1640 045e 1840 23f0 1940 4382 1b40
00000190: 6314 1d40 83a6 1e40 a238 2040 c2ca 2140
000001a0: e25c 2340 01ef 2440 2181 2640 4113 2840
000001b0: 60a5 2940 8037 2b40 a0c9 2c40 c05b 2e40
000001c0: dfed 2f40 ff7f 3140 1f12 3340 3ea4 3440
000001d0: 5e36 3640 7ec8 3740 9e5a 3940 bdec 3a40
000001e0: dd7e 3c40 fd10 3e40 1ca3 3f40 3c35 4140
000001f0: 5cc7 4240 7c59 4440 9beb 4540 bb7d 4740
00000200: db0f 4940 faa1 4a40 1a34 4c40 3ac6 4d40
00000210: 5958 4f40 79ea 5040 997c 5240 b90e 5440
00000220: d8a0 5540 f832 5740 18c5 5840 3757 5a40
00000230: 57e9 5b40 777b 5d40 970d 5f40 b69f 6040
00000240: d631 6240 f6c3 6340 1556 6540 35e8 6640
00000250: 557a 6840 750c 6a40 949e 6b40 b430 6d40
00000260: d4c2 6e40 f354 7040 13e7 7140 3379 7340
00000270: 520b 7540 729d 7640 922f 7840 b2c1 7940
00000280: d153 7b40 f1e5 7c40 1178 7e40 1805 8040
00000290: 28ce 8040 3897 8140 4860 8240 5829 8340
000002a0: 67f2 8340 77bb 8440 8784 8540 974d 8640
000002b0: a716 8740 b7df 8740 c7a8 8840 d671 8940
000002c0: e63a 8a40 f603 8b40 06cd 8b40 1696 8c40
000002d0: 265f 8d40 3628 8e40 45f1 8e40 55ba 8f40
000002e0: 6583 9040 754c 9140 8515 9240 95de 9240
000002f0: a5a7 9340 b470 9440 c439 9540 d402 9640
00000300: e4cb 9640 f494 9740 045e 9840 1427 9940
00000310: 23f0 9940 33b9 9a40 4382 9b40 534b 9c40
00000320: 6314 9d40 73dd 9d40 83a6 9e40 926f 9f40
00000330: a238 a040 b201 a140 c2ca a140 d293 a240
00000340: e25c a340 f125 a440 01ef a440 11b8 a540
00000350: 2181 a640 314a a740 4113 a840 51dc a840
00000360: 60a5 a940 706e aa40 8037 ab40 9000 ac40
00000370: a0c9 ac40 b092 ad40 c05b ae40 cf24 af40
00000380: dfed af40 efb6 b040 ff7f b140 0f49 b240
00000390: 1f12 b340 2fdb b340 3ea4 b440 4e6d b540
000003a0: 5e36 b640 6eff b640 7ec8 b740 8e91 b840
000003b0: 9e5a b940 ad23 ba40 bdec ba40 cdb5 bb40
000003c0: dd7e bc40 ed47 bd40 fd10 be40 0dda be40
000003d0: 1ca3 bf40 2c6c c040 3c35 c140 4cfe c140
000003e0: 5cc7 c240 6c90 c340 7c59 c440 8b22 c540
000003f0: 9beb c540 abb4 c640 bb7d c740 cb46 c840

t_u f4 [256, 1]
0.0 0.0 0.0 0.0 0.0 0.0 0.0 0.0
0.0 0.0 0.0 0.0 0.0 0.0 0.0 0.0
0.0 0.0 0.0 0.0 0.0 0.0 0.0 0.0
0.0 0.0 0.0 0.0 0.0 0.0 0.0 0.0
0.0 0.0 0.0 0.0 0.0 0.0 0.0 0.0
0.0 0.0 0.0 0.0 0.0 0.0 0.0 0.0
0.0 0.0 0.0 0.0 0.0 0.0 0.0 0.0
0.0 0.0 0.0 0.0 0.0 0.0 0.0 0.0
0.0 0.0 0.0 0.0 0.0 0.0 0.0 0.0
0.0 0.0 0.0 0.0 0.0 0.0 0.0 0.0
0.0 0.0 0.0 0.0 0.0 0.0 0.0 0.0
0.0 0.0 0.0 0.0 0.0 0.0 0.0 0.0
0.0 0.0 0.0 0.0 0.0 0.0 0.0 0.0
0.0 0.0 0.0 0.0 0.0 0.0 0.0 0.0
0.0 0.0 0.0 0.0 0.0 0.0 0.0 0.0
0.0 0.0 0.0 0.0 0.0 0.0 0.0 0.0
0.0 0.0 0.0 0.0 0.0 0.0 0.0 0.0
0.0 0.0 0.0 0.0 0.0 0.0 0.0 0.0
0.0 0.0 0.0 0.0 0.0 0.0 0.0 0.0
0.0 0.0 0.0 0.0 0.0 0.0 0.0 0.0
0.0 0.0 0.0 0.0 0.0 0.0 0.0 0.0
0.0 0.0 0.0 0.0 0.0 0.0 0.0 0.0
0.0 0.0 0.0 0.0 0.0 0.0 0.0 0.0
0.0 0.0 0.0 0.0 0.0 0.0 0.0 0.0
0.0 0.0 0.0 0.0 0.0 0.0 0.0 0.0
0.0 0.0 0.0 0.0 0.0 0.0 0.0 0.0
0.0 0.0 0.0 0.0 0.0 0.0 0.0 0.0
0.0 0.0 0.0 0.0 0.0 0.0 0.0 0.0
0.0 0.0 0.0 0.0 0.0 0.0 0.0 0.0
0.0 0.0 0.0 0.0 0.0 0.0 0.0 0.0
0.0 0.0 0.0 0.0 0.0 0.0 0.0 0.0
0.0 0.0 0.0 0.0 0.0 0.0 0.0 0.0
00000000: 0000 0000 0000 0000 0000 0000 0000 0000
00000010: 0000 0000 0000 0000 0000 0000 0000 0000
00000020: 0000 0000 0000 0000 0000 0000 0000 0000
00000030: 0000 0000 0000 0000 0000 0000 0000 0000
00000040: 0000 0000 0000 0000 0000 0000 0000 0000
00000050: 0000 0000 0000 0000 0000 0000 0000 0000
00000060: 0000 0000 0000 0000 0000 0000 0000 0000
00000070: 0000 0000 0000 0000 0000 0000 0000 0000
00000080: 0000 0000 0000 0000 0000 0000 0000 0000
00000090: 0000 0000 0000 0000 0000 0000 0000 0000
000000a0: 0000 0000 0000 0000 0000 0000 0000 0000
000000b0: 0000 0000 0000 0000 0000 0000 0000 0000
000000c0: 0000 0000 0000 0000 0000 0000 0000 0000
000000d0: 0000 0000 0000 0000 0000 0000 0000 0000
000000e0: 0000 0000 0000 0000 0000 0000 0000 0000
000000f0: 0000 0000 0000 0000 0000 0000 0000 0000
00000100: 0000 0000 0000 0000 0000 0000 0000 0000
00000110: 0000 0000 0000 0000 0000 0000 0000 0000
00000120: 0000 0000 0000 0000 0000 0000 0000 0000
00000130: 0000 0000 0000 0000 0000 0000 0000 0000
00000140: 0000 0000 0000 0000 0000 0000 0000 0000
00000150: 0000 0000 0000 0000 0000 0000 0000 0000
00000160: 0000 0000 0000 0000 0000 0000 0000 0000
00000170: 0000 0000 0000 0000 0000 0000 0000 0000
00000180: 0000 0000 0000 0000 0000 0000 0000 0000
00000190: 0000 0000 0000 0000 0000 0000 0000 0000
000001a0: 0000 0000 0000 0000 0000 0000 0000 0000
000001b0: 0000 0000 0000 0000 0000 0000 0000 0000
000001c0: 0000 0000 0000 0000 0000 0000 0000 0000
000001d0: 0000 0000 0000 0000 0000 0000 0000 0000
000001e0: 0000 0000 0000 0000 0000 0000 0000 0000
000001f0: 0000 0000 0000 0000 0000 0000 0000 0000
00000200: 0000 0000 0000 0000 0000 0000 0000 0000
00000210: 0000 0000 0000 0000 0000 0000 0000 0000
00000220: 0000 0000 0000 0000 0000 0000 0000 0000
00000230: 0000 0000 0000 0000 0000 0000 0000 0000
00000240: 0000 0000 0000 0000 0000 0000 0000 0000
00000250: 0000 0000 0000 0000 0000 0000 0000 0000
00000260: 0000 0000 0000 0000 0000 0000 0000 0000
00000270: 0000 0000 0000 0000 0000 0000 0000 0000
00000280: 0000 0000 0000 0000 0000 0000 0000 0000
00000290: 0000 0000 0000 0000 0000 0000 0000 0000
000002a0: 0000 0000 0000 0000 0000 0000 0000 0000
000002b0: 0000 0000 0000 0000 0000 0000 0000 0000
000002c0: 0000 0000 0000 0000 0000 0000 0000 0000
000002d0: 0000 0000 0000 0000 0000 0000 0000 0000
000002e0: 0000 0000 0000 0000 0000 0000 0000 0000
000002f0: 0000 0000 0000 0000 0000 0000 0000 0000
00000300: 0000 0000 0000 0000 0000 0000 0000 0000
00000310: 0000 0000 0000 0000 0000 0000 0000 0000
00000320: 0000 0000 0000 0000 0000 0000 0000 0000
00000330: 0000 0000 0000 0000 0000 0000 0000 0000
00000340: 0000 0000 0000 0000 0000 0000 0000 0000
00000350: 0000 0000 0000 0000 0000 0000 0000 0000
00000360: 0000 0000 0000 0000 0000 0000 0000 0000
00000370: 0000 0000 0000 0000 0000 0000 0000 0000
00000380: 0000 0000 0000 0000 0000 0000 0000 0000
00000390: 0000 0000 0000 0000 0000 0000 0000 0000
000003a0: 0000 0000 0000 0000 0000 0000 0000 0000
000003b0: 0000 0000 0000 0000 0000 0000 0000 0000
000003c0: 0000 0000 0000 0000 0000 0000 0000 0000
000003d0: 0000 0000 0000 0000 0000 0000 0000 0000
000003e0: 0000 0000 0000 0000 0000 0000 0000 0000
000003f0: 0000 0000 0000 0000 0000 0000 0000 0000

x_f f4 [100, 1]
4.6142144 1.7426022 3.3379421 4.884195 3.0679617 5.5223308 5.816855 6.1850104
4.565127 1.2026409 4.7860203 0.5645049 1.8407769 0.12271846 4.9823694 6.086836
5.7186804 2.6998062 2.5280004 6.1113796 2.72435 5.473243 1.0553788 6.062292
0.44178647 0.7117671 4.1969714 6.2586417 6.1359234 4.540583 6.1850104 4.2706027
5.473243 2.6016314 4.417865 4.9087386 6.0132046 0.3681554 0.49087384 5.203263
3.4606607 0.44178647 1.6198837 4.147884 1.8162333 4.957826 3.4852045 3.3870296
0.957204 2.3071072 0.6626797 5.2278066 0.024543693 6.062292 2.3316507 1.9634954
2.3316507 0.6872234 1.59534 3.4115732 5.595962 5.7923117 1.1044662 3.6815538
0.88357294 1.7180585 2.4298255 3.6079228 1.7916895 1.6198837 4.295146 1.9880391
2.2580197 2.72435 0.7853982 2.06167 4.957826 5.1296315 2.4298255 4.540583
3.6570103 0.83448553 3.7060976 1.7916895 6.086836 4.9823694 4.884195 1.0062914
5.497787 5.8413987 4.1969714 4.712389 0.88357294 0.93266034 1.2271847 5.743224
5.5714183 6.0377483 3.436117 1.3499031
00000000: a5a7 9340 970d df3f d8a0 5540 534b 9c40
00000010: 7c59 4440 efb6 b040 ad23 ba40 9beb c540
00000020: 8515 9240 23f0 993f 1427 9940 6583 103f
00000030: 949e eb3f d153 fb3d 926f 9f40 5cc7 c240
00000040: 6eff b640 a0c9 2c40 c2ca 2140 6c90 c340
00000050: c05b 2e40 cf24 af40 a716 873f 4cfe c140
00000060: d631 e23e 5e36 363f 974d 8640 cb46 c840
00000070: 7c59 c440 754c 9140 9beb c540 c7a8 8840
00000080: cf24 af40 2181 2640 265f 8d40 6314 9d40
00000090: 2c6c c040 dd7e bc3e d153 fb3e 2181 a640
000000a0: 777b 5d40 d631 e23e 5958 cf3f 77bb 8440
000000b0: 557a e83f 83a6 9e40 970d 5f40 18c5 5840
000000c0: 520b 753f a5a7 1340 60a5 293f 314a a740
000000d0: db0f c93c 4cfe c140 c439 1540 d153 fb3f
000000e0: c439 1540 dfed 2f3f 1a34 cc3f 3757 5a40
000000f0: 1f12 b340 9e5a b940 265f 8d3f 949e 6b40
00000100: d631 623f 57e9 db3f 4382 1b40 35e8 6640
00000110: 1556 e53f 5958 cf3f d671 8940 1178 fe3f
00000120: 6583 1040 c05b 2e40 db0f 493f 67f2 0340
00000130: 83a6 9e40 f125 a440 4382 1b40 754c 9140
00000140: 750c 6a40 d8a0 553f b430 6d40 1556 e53f
00000150: 5cc7 c240 926f 9f40 534b 9c40 28ce 803f
00000160: dfed af40 bdec ba40 974d 8640 e4cb 9640
00000170: d631 623f d4c2 6e3f 6314 9d3f 7ec8 b740
00000180: 0f49 b240 3c35 c140 57e9 5b40 a0c9 ac3f

t_f f4 [100, 1]
0.3838384 0.8181818 0.53535354 0.7979798 0.14141414 0.7070707 0.68686867 0.7777778
0.54545456 0.01010101 0.5555556 0.7878788 0.43434343 0.43434343 0.97979796 1.0
0.67676765 0.5252525 0.3030303 0.82828283 0.97979796 0.6363636 0.34343433 0.32323232
0.47474748 0.9191919 0.5555556 0.7777778 0.36363637 0.22222222 0.28282827 0.8888889
0.90909094 0.15151516 0.6262626 0.04040404 0.15151516 0.8787879 0.5858586 0.25252524
0.7979798 0.3838384 0.42424244 0.01010101 0.24242425 0.8989899 0.36363637 0.93939394
0.75757575 0.3131313 0.04040404 0.34343433 0.45454547 0.959596 0.959596 0.45454547
0.45454547 0.8080808 0.5252525 0.56565654 0.8787879 0.7373737 0.04040404 0.47474748
0.57575756 0.56565654 0.67676765 0.989899 0.68686867 0.21212122 0.05050505 0.28282827
0.25252524 0.8080808 0.01010101 0.41414142 0.969697 0.97979796 0.2929293 0.5151515
0.83838385 0.94949496 0.47474748 0.5959596 0.3939394 0.68686867 0.8484849 0.02020202
0.9191919 0.4848485 0.13131313 0.6060606 0.25252524 0.969697 0.34343433 0.83838385
0.4848485 0.7979798 0.7171717 0.3030303
00000000: 7786 c43e 5d74 513f ee0c 093f 6748 4c3f
00000010: dece 103e 9602 353f a0d6 2f3f 721c 473f
00000020: e9a2 0b3f b57e 253c e438 0e3f 6db2 493f
00000030: 4362 de3e 4362 de3e 0ad4 7a3f 0000 803f
00000040: a540 2d3f f376 063f ca26 9b3e 580a 543f
00000050: 0ad4 7a3f bae8 223f a0d6 af3e b57e a53e
00000060: 1a12 f33e 2950 6b3f e438 0e3f 721c 473f
00000070: 8c2e ba3e 398e 633e dece 903e 398e 633f
00000080: 2fba 683f ca26 1b3e bf52 203f b57e 253d
00000090: ca26 1b3e 3ef8 603f d4fa 153f fd4a 813e
000000a0: 6748 4c3f 7786 c43e 4e36 d93e b57e 253c
000000b0: 103e 783e 3424 663f 8c2e ba3e 1f7c 703f
000000c0: 7cf0 413f bf52 a03e b57e 253d a0d6 af3e
000000d0: 2fba e83e 15a8 753f 15a8 753f 2fba e83e
000000e0: 2fba e83e 62de 4e3f f376 063f dece 103f
000000f0: 3ef8 603f 86c4 3c3f b57e 253d 1a12 f33e
00000100: d964 133f dece 103f a540 2d3f 056a 7d3f
00000110: a0d6 2f3f 4e36 593e 62de 4e3d dece 903e
00000120: fd4a 813e 62de 4e3f b57e 253c 580a d43e
00000130: 103e 783f 0ad4 7a3f d4fa 953e f8e0 033f
00000140: 53a0 563f 1a12 733f 1a12 f33e cf90 183f
00000150: 6db2 c93e a0d6 2f3f 4e36 593f b57e a53c
00000160: 2950 6b3f 103e f83e f376 063e ca26 1b3f
00000170: fd4a 813e 103e 783f a0d6 af3e 53a0 563f
00000180: 103e f83e 6748 4c3f 9198 373f ca26 9b3e

x_bc_lb f4 [100, 1]
0.0 0.0 0.0 0.0 0.0 0.0 0.0 0.0
0.0 0.0 0.0 0.0 0.0 0.0 0.0 0.0
0.0 0.0 0.0 0.0 0.0 0.0 0.0 0.0
0.0 0.0 0.0 0.0 0.0 0.0 0.0 0.0
0.0 0.0 0.0 0.0 0.0 0.0 0.0 0.0
0.0 0.0 0.0 0.0 0.0 0.0 0.0 0.0
0.0 0.0 0.0 0.0 0.0 0.0 0.0 0.0
0.0 0.0 0.0 0.0 0.0 0.0 0.0 0.0
0.0 0.0 0.0 0.0 0.0 0.0 0.0 0.0
0.0 0.0 0.0 0.0 0.0 0.0 0.0 0.0
0.0 0.0 0.0 0.0 0.0 0.0 0.0 0.0
0.0 0.0 0.0 0.0 0.0 0.0 0.0 0.0
0.0 0.0 0.0 0.0
00000000: 0000 0000 0000 0000 0000 0000 0000 0000
00000010: 0000 0000 0000 0000 0000 0000 0000 0000
00000020: 0000 0000 0000 0000 0000 0000 0000 0000
00000030: 0000 0000 0000 0000 0000 0000 0000 0000
00000040: 0000 0000 0000 0000 0000 0000 0000 0000
00000050: 0000 0000 0000 0000 0000 0000 0000 0000
00000060: 0000 0000 0000 0000 0000 0000 0000 0000
00000070: 0000 0000 0000 0000 0000 0000 0000 0000
00000080: 0000 0000 0000 0000 0000 0000 0000 0000
00000090: 0000 0000 0000 0000 0000 0000 0000 0000
000000a0: 0000 0000 0000 0000 0000 0000 0000 0000
000000b0: 0000 0000 0000 0000 0000 0000 0000 0000
000000c0: 0000 0000 0000 0000 0000 0000 0000 0000
000000d0: 0000 0000 0000 0000 0000 0000 0000 0000
000000e0: 0000 0000 0000 0000 0000 0000 0000 0000
000000f0: 0000 0000 0000 0000 0000 0000 0000 0000
00000100: 0000 0000 0000 0000 0000 0000 0000 0000
00000110: 0000 0000 0000 0000 0000 0000 0000 0000
00000120: 0000 0000 0000 0000 0000 0000 0000 0000
00000130: 0000 0000 0000 0000 0000 0000 0000 0000
00000140: 0000 0000 0000 0000 0000 0000 0000 0000
00000150: 0000 0000 0000 0000 0000 0000 0000 0000
00000160: 0000 0000 0000 0000 0000 0000 0000 0000
00000170: 0000 0000 0000 0000 0000 0000 0000 0000
00000180: 0000 0000 0000 0000 0000 0000 0000 0000

t_bc_lb f4 [100, 1]
0.0 0.01010101 0.02020202 0.030303031 0.04040404 0.05050505 0.060606062 0.07070707
0.08080808 0.09090909 0.1010101 0.11111111 0.121212125 0.13131313 0.14141414 0.15151516
0.16161616 0.17171717 0.18181819 0.1919192 0.2020202 0.21212122 0.22222222 0.23232323
0.24242425 0.25252524 0.26262626 0.27272728 0.28282827 0.2929293 0.3030303 0.3131313
0.32323232 0.33333334 0.34343433 0.35353535 0.36363637 0.37373737 0.3838384 0.3939394
0.4040404 0.41414142 0.42424244 0.43434343 0.44444445 0.45454547 0.46464646 0.47474748
0.4848485 0.4949495 0.5050505 0.5151515 0.5252525 0.53535354 0.54545456 0.5555556
0.56565654 0.57575756 0.5858586 0.5959596 0.6060606 0.61616164 0.6262626 0.6363636
0.64646465 0.65656567 0.6666667 0.67676765 0.68686867 0.6969697 0.7070707 0.7171717
0.72727275 0.7373737 0.74747473 0.75757575 0.7676768 0.7777778 0.7878788 0.7979798
0.8080808 0.8181818 0.82828283 0.83838385 0.8484849 0.85858583 0.86868685 0.8787879
0.8888889 0.8989899 0.90909094 0.9191919 0.9292929 0.93939394 0.94949496 0.959596
0.969697 0.97979796 0.989899 1.0
00000000: 0000 0000 b57e 253c b57e a53c 103e f83c
00000010: b57e 253d 62de 4e3d 103e 783d dece 903d
00000020: b57e a53d 8c2e ba3d 62de ce3d 398e e33d
00000030: 103e f83d f376 063e dece 103e ca26 1b3e
00000040: b57e 253e a0d6 2f3e 8c2e 3a3e 7786 443e
00000050: 62de 4e3e 4e36 593e 398e 633e 24e6 6d3e
00000060: 103e 783e fd4a 813e f376 863e e9a2 8b3e
00000070: dece 903e d4fa 953e ca26 9b3e bf52 a03e
00000080: b57e a53e abaa aa3e a0d6 af3e 9602 b53e
00000090: 8c2e ba3e 815a bf3e 7786 c43e 6db2 c93e
000000a0: 62de ce3e 580a d43e 4e36 d93e 4362 de3e
000000b0: 398e e33e 2fba e83e 24e6 ed3e 1a12 f33e
000000c0: 103e f83e 056a fd3e fd4a 013f f8e0 033f
000000d0: f376 063f ee0c 093f e9a2 0b3f e438 0e3f
000000e0: dece 103f d964 133f d4fa 153f cf90 183f
000000f0: ca26 1b3f c5bc 1d3f bf52 203f bae8 223f
00000100: b57e 253f b014 283f abaa 2a3f a540 2d3f
00000110: a0d6 2f3f 9b6c 323f 9602 353f 9198 373f
00000120: 8c2e 3a3f 86c4 3c3f 815a 3f3f 7cf0 413f
00000130: 7786 443f 721c 473f 6db2 493f 6748 4c3f
00000140: 62de 4e3f 5d74 513f 580a 543f 53a0 563f
00000150: 4e36 593f 48cc 5b3f 4362 5e3f 3ef8 603f
00000160: 398e 633f 3424 663f 2fba 683f 2950 6b3f
00000170: 24e6 6d3f 1f7c 703f 1a12 733f 15a8 753f
00000180: 103e 783f 0ad4 7a3f 056a 7d3f 0000 803f

x_bc_ub f4 [100, 1]
6.2831855 6.2831855 6.2831855 6.2831855 6.2831855 6.2831855 6.2831855 6.2831855
6.2831855 6.2831855 6.2831855 6.2831855 6.2831855 6.2831855 6.2831855 6.2831855
6.2831855 6.2831855 6.2831855 6.2831855 6.2831855 6.2831855 6.2831855 6.2831855
6.2831855 6.2831855 6.2831855 6.2831855 6.2831855 6.2831855 6.2831855 6.2831855
6.2831855 6.2831855 6.2831855 6.2831855 6.2831855 6.2831855 6.2831855 6.2831855
6.2831855 6.2831855 6.2831855 6.2831855 6.2831855 6.2831855 6.2831855 6.2831855
6.2831855 6.2831855 6.2831855 6.2831855 6.2831855 6.2831855 6.2831855 6.2831855
6.2831855 6.2831855 6.2831855 6.2831855 6.2831855 6.2831855 6.2831855 6.2831855
6.2831855 6.2831855 6.2831855 6.2831855 6.2831855 6.2831855 6.2831855 6.2831855
6.2831855 6.2831855 6.2831855 6.2831855 6.2831855 6.2831855 6.2831855 6.2831855
6.2831855 6.2831855 6.2831855 6.2831855 6.2831855 6.2831855 6.2831855 6.2831855
6.2831855 6.2831855 6.2831855 6.2831855 6.2831855 6.2831855 6.2831855 6.2831855
6.2831855 6.2831855 6.2831855 6.2831855
00000000: db0f c940 db0f c940 db0f c940 db0f c940
00000010: db0f c940 db0f c940 db0f c940 db0f c940
00000020: db0f c940 db0f c940 db0f c940 db0f c940
00000030: db0f c940 db0f c940 db0f c940 db0f c940
00000040: db0f c940 db0f c940 db0f c940 db0f c940
00000050: db0f c940 db0f c940 db0f c940 db0f c940
00000060: db0f c940 db0f c940 db0f c940 db0f c940
00000070: db0f c940 db0f c940 db0f c940 db0f c940
00000080: db0f c940 db0f c940 db0f c940 db0f c940
00000090: db0f c940 db0f c940 db0f c940 db0f c940
000000a0: db0f c940 db0f c940 db0f c940 db0f c940
000000b0: db0f c940 db0f c940 db0f c940 db0f c940
000000c0: db0f c940 db0f c940 db0f c940 db0f c940
000000d0: db0f c940 db0f c940 db0f c940 db0f c940
000000e0: db0f c940 db0f c940 db0f c940 db0f c940
000000f0: db0f c940 db0f c940 db0f c940 db0f c940
00000100: db0f c940 db0f c940 db0f c940 db0f c940
00000110: db0f c940 db0f c940 db0f c940 db0f c940
00000120: db0f c940 db0f c940 db0f c940 db0f c940
00000130: db0f c940 db0f c940 db0f c940 db0f c940
00000140: db0f c940 db0f c940 db0f c940 db0f c940
00000150: db0f c940 db0f c940 db0f c940 db0f c940
00000160: db0f c940 db0f c940 db0f c940 db0f c940
00000170: db0f c940 db0f c940 db0f c940 db0f c940
00000180: db0f c940 db0f c940 db0f c940 db0f c940

t_bc_ub f4 [100, 1]
0.0 0.01010101 0.02020202 0.030303031 0.04040404 0.05050505 0.060606062 0.07070707
0.08080808 0.09090909 0.1010101 0.11111111 0.121212125 0.13131313 0.14141414 0.15151516
0.16161616 0.17171717 0.18181819 0.1919192 0.2020202 0.21212122 0.22222222 0.23232323
0.24242425 0.25252524 0.26262626 0.27272728 0.28282827 0.2929293 0.3030303 0.3131313
0.32323232 0.33333334 0.34343433 0.35353535 0.36363637 0.37373737 0.3838384 0.3939394
0.4040404 0.41414142 0.42424244 0.43434343 0.44444445 0.45454547 0.46464646 0.47474748
0.4848485 0.4949495 0.5050505 0.5151515 0.5252525 0.53535354 0.54545456 0.5555556
0.56565654 0.57575756 0.5858586 0.5959596 0.6060606 0.61616164 0.6262626 0.6363636
0.64646465 0.65656567 0.6666667 0.67676765 0.68686867 0.6969697 0.7070707 0.7171717
0.72727275 0.7373737 0.74747473 0.75757575 0.7676768 0.7777778 0.7878788 0.7979798
0.8080808 0.8181818 0.82828283 0.83838385 0.8484849 0.85858583 0.86868685 0.8787879
0.8888889 0.8989899 0.90909094 0.9191919 0.9292929 0.93939394 0.94949496 0.959596
0.969697 0.97979796 0.989899 1.0
00000000: 0000 0000 b57e 253c b57e a53c 103e f83c
00000010: b57e 253d 62de 4e3d 103e 783d dece 903d
00000020: b57e a53d 8c2e ba3d 62de ce3d 398e e33d
00000030: 103e f83d f376 063e dece 103e ca26 1b3e
00000040: b57e 253e a0d6 2f3e 8c2e 3a3e 7786 443e
00000050: 62de 4e3e 4e36 593e 398e 633e 24e6 6d3e
00000060: 103e 783e fd4a 813e f376 863e e9a2 8b3e
00000070: dece 903e d4fa 953e ca26 9b3e bf52 a03e
00000080: b57e a53e abaa aa3e a0d6 af3e 9602 b53e
00000090: 8c2e ba3e 815a bf3e 7786 c43e 6db2 c93e
000000a0: 62de ce3e 580a d43e 4e36 d93e 4362 de3e
000000b0: 398e e33e 2fba e83e 24e6 ed3e 1a12 f33e
000000c0: 103e f83e 056a fd3e fd4a 013f f8e0 033f
000000d0: f376 063f ee0c 093f e9a2 0b3f e438 0e3f
000000e0: dece 103f d964 133f d4fa 153f cf90 183f
000000f0: ca26 1b3f c5bc 1d3f bf52 203f bae8 223f
00000100: b57e 253f b014 283f abaa 2a3f a540 2d3f
00000110: a0d6 2f3f 9b6c 323f 9602 353f 9198 373f
00000120: 8c2e 3a3f 86c4 3c3f 815a 3f3f 7cf0 413f
00000130: 7786 443f 721c 473f 6db2 493f 6748 4c3f
00000140: 62de 4e3f 5d74 513f 580a 543f 53a0 563f
00000150: 4e36 593f 48cc 5b3f 4362 5e3f 3ef8 603f
00000160: 398e 633f 3424 663f 2fba 683f 2950 6b3f
00000170: 24e6 6d3f 1f7c 703f 1a12 733f 15a8 753f
00000180: 103e 783f 0ad4 7a3f 056a 7d3f 0000 803f

weight f4 [50, 2]
0.098145 -0.084305085 0.016725115 0.09489843 0.4818789 -0.20227076 -0.029501043 0.09777225
-0.060765713 0.021800587 -0.17613523 0.1323846 0.06387969 0.07299464 -0.19999242 -0.24259855
0.13596456 0.025743708 0.11962316 -0.2514066 -0.42388493 0.02817085 0.3531186 -0.083157286
-0.26731116 -0.40394074 -0.054114744 0.074395806 0.07974196 0.11898989 -0.10145989 0.014034627
-0.12615706 -0.22267602 -0.3157189 0.10354271 0.026174834 0.21133849 -0.29054734 0.16095084
0.1361126 -0.091037445 0.081644 -0.090060525 0.08857003 -0.016458334 0.0006942301 -0.20335649
-0.026839998 0.15297157 0.38410357 -0.15503539 -0.11134106 0.28555015 -0.048369355 0.15512154
0.29692656 -0.03143315 0.0010022664 -0.096815065 -0.0103874635 0.19409887 -0.26218662 0.0566432
0.20328774 0.038463637 -0.32486936 -0.20018667 0.042280305 -0.23260176 -0.3803245 -0.14564522
-0.103708036 -0.21334812 0.12157852 0.023307644 -0.027350657 -0.00054726045 -0.16761607 -0.03611082
-0.05572993 -0.043276314 0.10688931 0.07696991 0.13655423 -0.1889124 0.4456971 -0.027432846
0.11975651 0.25253597 -0.102090016 -0.5153705 0.004105597 -0.25979105 0.16824618 -0.3667944
-0.18062557 -0.22659186 0.1844357 -0.14235151
00000000: 3f00 c93d 25a8 acbd 1c03 893c 1c5a c23d
00000010: d5b8 f63e 1120 4fbe 2cac f1bc d13c c83d
00000020: 78e5 78bd 2597 b23c cb5c 34be d48f 073e
00000030: 5bd3 823d 377e 953d d0ca 4cbe c16b 78be
00000040: 4b3a 0b3e 78e4 d23c fdfc f43d 5eb8 80be
00000050: 7207 d9be 8ec6 e63c f6cb b43e 5e4e aabd
00000060: 02dd 88be 52d1 cebe 6ca7 5dbd d45c 983d
00000070: c14f a33d f9b0 f33d 34ca cfbd 7ef1 653c
00000080: 512f 01be 2f05 64be e8a5 a1be 330e d43d
00000090: 9b6c d63c 1e69 583e 9fc2 94be 4cd0 243e
000000a0: 1a61 0b3e d771 babd f834 a73d a771 b8bd
000000b0: 3464 b53d a1d3 86bc fefc 353a af3c 50be
000000c0: 8edf dbbc 94a4 1c3e 39a9 c43e 99c1 1ebe
000000d0: c806 e4bd a133 923e f21e 46bd 2ed8 1e3e
000000e0: c206 983e 0cc0 00bd 7b5e 833a fa46 c6bd
000000f0: 2e30 2abc dbc1 463e 533d 86be b302 683d
00000100: a92a 503e 0c8c 1d3d 4755 a6be bcfd 4cbe
00000110: 1d2e 2d3d 282f 6ebe e5b9 c2be 0524 15be
00000120: e164 d4bd ee77 5abe 29fe f83d acef be3c
00000130: 7c0e e0bc 0776 0fba 8ca3 2bbe f0e8 13bd
00000140: 1145 64bd 8142 31bd c8e8 da3d 66a2 9d3d
00000150: dfd4 0b3e 4172 41be 6932 e43e d9ba e0bc
00000160: e742 f53d 654c 813e 9214 d1bd 52ef 03bf
00000170: 3e88 863b 5503 85be ba48 2c3e 7acc bbbe
00000180: e9f5 38be b207 68be b6dc 3c3e 98c4 11be

bias f4 [50]
-0.0094783865 0.001639812 -0.0046729306 0.0021688822 -0.00029891526 0.005426154 -0.009926867 -0.003653935
0.004791061 0.007325612 -0.0018500122 0.00014514556 -0.0032245223 -0.03152654 -0.002477948 -0.0018110245
-0.0010602945 -0.0011590649 0.004196576 0.00060153916 -0.008218117 0.0031308462 0.00059743307 -0.0033180641
0.00041503712 0.002495978 0.0050621964 -0.000107115215 -0.0005033108 -0.004159312 0.0018304592 0.00094708597
-0.009687825 -0.0058295988 -0.00036086724 -0.0028702698 -0.0016426801 0.0036047627 -0.002043345 -0.0008654922
6.2469095e-05 -0.004237514 -0.0020112963 0.0053053508 -0.012384442 -0.001221972 0.0022959646 0.000566622
-0.0034142088 0.0006231779
00000000: 3c4b 1bbc f6ee d63a 621f 99bb ce23 0e3b
00000010: bab7 9cb9 e1cd b13b 4ca4 22bc db76 6fbb
00000020: 55fe 9c3b b00b f03b 1c7c f2ba 3732 1839
00000030: 8252 53bb f921 01bd 1265 22bb e65f edba
00000040: 94f9 8aba c4eb 97ba 6e83 893b 9cb0 1d3a
00000050: 48a5 06bc e22e 4d3b 0e9d 1c3a e173 59bb
00000060: 5799 d939 9093 233b c8e0 a53b 0ba3 e0b8
00000070: 9ef0 03ba d74a 88bb 05ec ef3a dd45 783a
00000080: afb9 1ebc 3806 bfbb c832 bdb9 231b 3cbb
00000090: 334f d7ba e23d 6c3b a4e9 05bb 33e2 62ba
000000a0: d701 8338 d8da 8abb f4cf 03bb 82d8 ad3b
000000b0: 1de8 4abc 942a a0ba e577 163b 5c89 143a
000000c0: ebc0 5fbb c35c 233a

weight f4 [50, 50]
0.16619714 -0.069160484 -0.35955414 0.109195754 -0.06351772 -0.049157925 -0.1596153 0.08148337
0.10960357 0.103779264 0.108812325 -0.25171816 -0.22494139 -0.10737536 0.22459017 -0.068380095
-0.2687033 -0.022836912 0.1498172 -0.18736385 0.039771937 0.06481697 0.15692253 0.15387894
0.2829612 0.04451386 0.31372103 0.023926752 0.2059522 -0.20962706 0.19636308 -0.065547675
-0.031593595 -0.22331434 0.14116815 0.03525415 0.20465279 0.014830879 -0.053875577 0.0782329
0.03803952 -0.22046196 -0.111222275 0.0060378383 -0.0031690018 0.0866921 0.03702978 -0.15657084
0.07447584 -0.10482631 -0.1392684 -0.12874523 -0.08628055 -0.089302815 0.057365365 -0.03244783
0.08895561 -0.02562609 0.015612246 0.17610557 -0.13566521 -0.3443943 0.21767405 0.025470626
-0.102683134 0.1337725 0.008107211 0.23622058 -0.17933871 0.025577664 0.026637372 0.14115748
-0.18877028 0.1715669 0.15481035 0.029633893 -0.117566854 -0.026639067 -0.0126169035 0.09857945
-0.03419859 -0.012145542 -0.0005388253 -0.25942808 -0.20341665 -0.14194883 -0.10444003 -0.13842864
-0.29185402 -0.11748369 0.050843846 -0.028479138 -0.24374029 -0.07338001 -0.08150696 -0.11812653
0.20515522 -0.23734595 0.10588298 0.2246617 -0.107831545 0.040667366 -0.0803031 0.0465545
0.009360539 0.066489644 -0.015044312 0.21780387 -0.08794542 0.038363833 -0.25190547 -0.08005132
0.121173784 -0.04237821 0.068758264 0.060280316 -0.11755449 0.111349754 0.16688797 0.04819928
0.08428765 -0.020170303 0.014643828 -0.0587312 0.025031611 -0.026607156 -0.14152916 0.18978548
0.27256152 -0.015755013 -0.019247914 -0.16851574 0.039756462 0.059911825 0.04907521 0.10117984
0.10790464 -0.023724409 0.019324893 0.20859352 -0.09451826 0.047685526 -0.076317325 -0.007440479
0.07608326 0.15267055 0.07242917 -0.3479537 0.03335186 0.14875326 -0.21962906 0.0075451476
0.13069393 -0.023677494 -0.00010917093 0.11763938 0.30536088 0.025767839 -0.12357791 0.04785114
-0.11711053 -0.0068800803 0.11478506 -0.009914171 0.008191148 0.105980285 0.0285281 -0.023153024
-0.13214071 0.119534954 -0.17379524 0.18206662 -0.009703715 0.17846343 0.26246843 -0.063897185
0.0524759 0.11280242 0.1186044 0.1453478 -0.017395373 0.07921206 -0.16620049 -0.1988733
-0.20174651 -0.03026083 -0.26288924 -0.00895966 0.22534987 0.049046896 -0.10617322 0.012996178
-0.14033471 0.056228675 0.1590477 -0.17694281 -0.08482212 0.10058282 -0.12085952 0.14639415
0.05204827 -0.030442642 0.05026148 0.01433957 0.2500747 -0.21281964 0.14738347 0.23271906
-0.02272315 -0.14634165 0.25402677 -0.22565636 0.0048329933 -0.08759167 0.030217675 -0.056075905
-0.14693281 0.069426015 -0.06797813 -0.087080166 -0.040664658 0.08269838 -0.10289379 -0.1651831
0.11998122 0.04209236 -0.114897296 0.13686426 -0.020951964 0.08687433 -0.018206164 -0.200011
-0.117959805 0.15472089 -0.19575791 0.116666384 -0.08978824 0.02811336 0.078876264 0.004313251
-0.108122766 -0.24348247 -0.03939504 0.12947825 -0.17714688 0.10721168 -0.0101816915 0.09919774
0.099835515 0.016359504 -0.108681336 -0.15513533 -0.13188452 0.1663353 -0.0025804413 -0.03564388
00000000: 952f 2a3e 03a4 8dbd 7b17 b8be 06a2 df3d
00000010: 9415 82bd d259 49bd 3172 23be c1e0 a63d
00000020: d677 e03d 398a d43d ffd8 de3d 34e1 80be
00000030: 0957 66be 9de7 dbbd f7fa 653e dd0a 8cbd
00000040: 7b93 89be 7a14 bbbc ae69 193e 4fdc 3fbe
00000050: e6e7 223d c2be 843d 4db0 203e 7192 1d3e
00000060: 4ae0 903e 2a54 363d 0ba0 a03e 0902 c43c
00000070: 22e5 523e 7aa8 56be 6713 493e dc3d 86bd
00000080: 4968 01bd 84ac 64be 628e 103e a866 103d
00000090: 8090 513e 37fd 723c a3ac 5cbd 9238 a03d
000000a0: 54cf 1b3d c8c0 61be 81c8 e3bd 0fd9 c53b
000000b0: 07af 4fbb a18b b13d 8aac 173d 1b54 20be
000000c0: ca86 983d 2daf d6bd 609c 0ebe cad5 03be
000000d0: dbb3 b0bd 65e4 b6bd f2f7 6a3d 04e8 04bd
000000e0: 5c2e b63d ceed d1bc 81ca 7f3c 0555 343e
000000f0: d2eb 0abe 7354 b0be f2e5 5e3e c6a7 d03c
00000100: 894b d2bd a9fb 083e 1cd4 043c cfe3 713e
00000110: 91a4 37be 4088 d13c 9e36 da3c 968b 103e
00000120: ff4c 41be 3caf 2f3e 9b86 1e3e c7c2 f23c
00000130: e4c6 f0bd 2c3a dabc 21b7 4ebc 06e4 c93d
00000140: d213 0cbd 18fe 46bc f43f 0dba c2d3 84be
00000150: 744c 50be 095b 11be a8e4 d5bd 3dc0 0dbe
00000160: e46d 95be 4a9b f0bd a341 503d 154d e9bc
00000170: 0e97 79be 4248 96bd 1fed a6bd 52ec f1bd
00000180: 3614 523e d10a 73be 2dd9 d83d b70d 663e
00000190: c9d6 dcbd d392 263d f475 a4bd eeaf 3e3d
000001a0: f25c 193c b92b 883d 6b7c 76bc fa07 5f3e
000001b0: ba1c b4bd 6523 1d3d c1f9 80be f2f1 a3bd
000001c0: f629 f83d c694 2dbd 22d1 8c3d 7ee8 763d
000001d0: 69c0 f0bd 570b e43d aee4 2a3e 9c6c 453d
000001e0: 019f ac3d 313c a5bc abec 6f3c 2090 70bd
000001f0: 180f cd3c 40f7 d9bc 05ed 10be 2057 423e
00000200: 2f8d 8b3e a810 81bc cdad 9dbc 648f 2cbe
00000210: acd7 223d 1a66 753d 1603 493d 6037 cf3d
00000220: 1cfd dc3d b159 c2bc 3d4f 9e3c 8a99 553e
00000230: ca92 c1bd e651 433d 424c 9cbd 43cf f3bb
00000240: 8ad1 9b3d ab55 1c3e bf55 943d fd26 b2be
00000250: f69b 083d c652 183e 71e6 60be 493d f73b
00000260: a1d4 053e 4ef7 c1bc b2f2 e4b8 eaec f03d
00000270: 4358 9c3e 1317 d33c 6a16 fdbd 8fff 433d
00000280: a5d7 efbd 4c72 e1bb 6e14 eb3d 0c6f 22bc
00000290: 2a34 063c 310c d93d c3b3 e93c 69ab bdbc
000002a0: e54f 07be bece f43d 61f7 31be ac6f 3a3e
000002b0: 55fc 1ebc 1ebf 363e 4362 863e 87dc 82bd
000002c0: f8f0 563d f504 e73d dde6 f23d 0ed6 143e
000002d0: be80 8ebc ef39 a23d 7630 2abe 71a5 4bbe
000002e0: a396 4ebe 8fe5 f7bc 6b99 86be 8acb 12bc
000002f0: 1ec2 663e 66e5 483d 5871 d9bd eced 543c
00000300: e7b3 0fbe 0a50 663d 66dd 223e 7f30 35be
00000310: 38b7 adbd 5efe cd3d 3285 f7bd 59e8 153e
00000320: 9130 553d d962 f9bc fbde 4d3d 84f0 6a3c
00000330: cb09 803e 64ed 59be b1eb 163e e84d 6e3e
00000340: e625 babc 96da 15be cc0f 823e 7612 67be
00000350: 165e 9e3b 4363 b3bd 0f8b f73c d9af 65bd
00000360: 8e75 16be 3a2f 8e3d 1e38 8bbd 1657 b2bd
00000370: fc8f 26bd c55d a93d fbb9 d2bd c225 29be
00000380: b7b8 f53d 0a69 2c3d 464f ebbd 2526 0c3e
00000390: 74a3 abbc 2beb b13d 1825 95bc afcf 4cbe
000003a0: e994 f1bd 276f 1e3e c374 48be c9ee ee3d
000003b0: e6e2 b7bd fd4d e63c e189 a13d 2c56 8d3b
000003c0: 786f ddbd 7853 79be b25c 21bd f295 043e
000003d0: fe65 35be cc91 db3d 1cd1 26bc 2f28 cb3d
000003e0: 9076 cc3d 5e04 863c 5294 debd ccdb 1ebe
000003f0: bc0c 07be cd53 2a3e 9f1c 29bb 51ff 11bd

bias f4 [50]
0.0028462224 -0.0020135206 -0.0041521243 0.00018118315 0.0012067398 -0.0014605832 0.001107721 -9.1866554e-05
0.0014140594 -0.0022712226 0.0025442091 0.0014968952 -0.0013955174 -0.014681486 -0.002679758 0.00232961
-0.0019359603 -0.0015218242 -0.0009250488 0.0025681818 0.000536481 0.0013352976 -0.008823204 -0.004422479
0.0010044078 0.0029230402 -0.0019696294 0.001694606 -0.00078720844 -0.002762026 0.00018058936 0.0013253166
0.0023277497 -0.0021419441 0.0036389246 0.0011666828 0.039762124 0.0021417376 -0.0001706183 0.0033855636
0.015149303 -0.0002959046 -0.0008157565 -0.0021330013 -0.00096783164 0.00590091 0.0009175314 0.0012851913
0.005531475 0.030661074
00000000: b087 3a3b 45f5 03bb 8b0e 88bb fbfb 3d39
00000010: 782b 9e3a 0a71 bfba f330 913a 7ba8 c0b8
00000020: f657 b93a cbd8 14bb bfbc 263b 7833 c43a
00000030: cbe9 b6ba 9e8a 70bc e19e 2fbb 5fac 183b
00000040: 0cc0 fdba f277 c7ba f97e 72ba f14e 283b
00000050: a1a2 0c3a 2705 af3a 338f 10bc 71ea 90bb
00000060: 55a6 833a 7a90 3f3b e614 01bb 8b1d de3a
00000070: aa5c 4eba 1b03 35bb 965c 3d39 3fb6 ad3a
00000080: 298d 183b dc5f 0cbb 067b 6e3b 61eb 983a
00000090: 9cdd 223d 655c 0c3b 00e8 32b9 55e0 5d3b
000000a0: c834 783c a523 9bb9 7ed8 55ba d3c9 0bbb
000000b0: 15b6 7dba 6c5c c13b 7d86 703a dd73 a83a
000000c0: 6041 b53b ef2c fb3c

weight f4 [50, 50]
-0.34733024 0.093719624 -0.10646802 -0.07009165 -0.09755232 0.2996914 0.14246191 0.05873574
-0.14186059 -0.23239945 0.3243823 -0.24104582 -0.0077125374 0.23768094 -0.089679554 0.35200167
-0.08997412 -0.2780051 0.025988223 0.16011491 0.10619983 -0.093834065 0.03006381 -0.059898444
0.021587182 0.13447034 -0.028358903 -0.11299613 0.29824707 0.10783311 0.019165402 -0.050410092
0.27039862 -0.08404414 -0.09873495 -0.09101713 -0.032329336 0.0947558 0.16530691 0.28745773
0.11909439 0.08761711 0.11783922 -0.14942405 0.02269421 0.42052206 -0.09726404 -0.24221663
-0.3629562 0.0641049 -0.23790249 -0.013745821 -0.12232203 0.06298421 0.008362255 0.10011304
-0.30324155 0.24334317 0.13397916 0.08305938 0.13074474 0.11420336 0.15137161 0.14435494
-0.068357155 0.119618274 0.04050213 -0.0058387495 0.13541 0.057958513 0.266731 -0.17475948
0.038069367 -0.10841895 0.039348297 -0.034514833 -0.23582472 -0.041884687 0.062487453 -0.027419569
-0.14237864 0.012863799 -0.05833841 0.11385783 0.18730146 -0.08246745 0.07888606 -0.032336812
-0.064975746 -0.08500249 -0.26141676 -0.089731105 0.19511138 -0.0658652 -0.09218365 0.22041929
0.034455374 -0.27640215 -0.03187006 0.07077837 0.05207312 0.16964443 -0.04867944 0.04771519
-0.08323415 -0.34313378 -0.018266711 0.009038602 0.0144720245 0.10840686 0.18874621 0.019356413
0.20935799 0.07082316 0.11951149 0.14489414 0.02973962 0.10146643 0.047452245 0.11188383
0.11337573 0.14694951 -0.004214984 0.28281546 -0.18189469 -0.15139401 -0.09105754 -0.07117244
-0.24965757 0.11172291 -0.16000044 0.08700213 0.020693747 -0.13382243 -0.13446513 -0.020828594
0.21703562 -0.22064424 -0.029507585 -0.13392432 -0.024484977 -0.20003884 0.036618154 -0.19398561
-0.0012553772 -0.21413401 0.2941034 -0.17973107 0.14976862 -0.15130927 -0.3022162 0.19425517
0.09493322 0.16648564 0.017073607 0.017383065 0.0065974286 -0.13130711 -0.13482828 -0.041523904
-0.049361687 -0.1287541 0.13737848 -0.122445144 -0.078389235 0.10376356 0.046962444 0.15750374
-0.12029929 -0.09065201 -0.096339226 0.049205024 -0.100496516 0.062842906 -0.11057316 -0.08965002
0.09425735 -0.080995336 -0.021919841 -0.0050252834 0.03882121 -0.25270844 0.06162651 0.28627014
-0.19845858 0.047119655 -0.16247326 0.061408028 0.024351258 0.1728335 0.21909252 -0.058016576
-0.041319624 -0.3374503 0.064961895 -0.19319712 0.17630552 -0.020050319 -0.0326177 -0.20769885
0.04041451 -0.14289653 -0.12833446 -0.0216928 -0.27803764 0.10964892 -0.07859941 -0.059511002
0.0195016 0.113117546 -0.16257358 -0.0801845 -0.20132765 0.11472966 0.069989726 -0.035724893
0.06890568 -0.10806137 0.1439415 0.040795274 0.25279385 0.007600852 -0.23417208 0.1704251
0.18479219 -0.08220821 -0.24383803 0.20612985 0.20382589 0.05471975 0.09244353 0.04373712
-0.17469525 -0.21900925 -0.016582513 0.05909365 0.058921758 0.021772545 -0.13770227 -0.12708528
-0.049032353 -0.016453663 -0.15530686 -0.1394965 0.021658488 0.08226702 0.15565617 -0.20779178
0.005493684 0.04198053 0.26917422 0.17595467 0.08517464 0.13753514 -0.2050601 -0.12126343
00000000: 45d5 b1be 13f0 bf3d e80b dabd 368c 8fbd
00000010: 83c9 c7bd 2771 993e 89e1 113e e394 703d
00000020: e743 11be 1ffa 6dbe 7015 a63e b7d4 76be
00000030: 74b9 fcbb a262 733e eaa9 b7bd 9039 b43e
00000040: 5a44 b8bd af56 8ebe 41e5 d43c 2af5 233e
00000050: 4c7f d93d 132c c0bd 6148 f63c 1258 75bd
00000060: 9ad7 b03c 98b2 093e ee50 e8bc 846a e7bd
00000070: d7b3 983e 9bd7 dc3d c300 9d3c d07a 4ebd
00000080: b071 8a3e 561f acbd 8d35 cabd 3067 babd
00000090: c46b 04bd 540f c23d 3746 293e a92d 933e
000000a0: c2e7 f33d 9970 b33d b055 f13d 9e02 19be
000000b0: 35e9 b93c ab4e d73e 5e32 c7bd a307 78be
000000c0: 65d5 b9be 6e49 833d b69c 73be 2736 61bc
000000d0: f983 fabd defd 803d d701 093c 1108 cd3d
000000e0: 7a42 9bbe f42e 793e d531 093e 091b aa3d
000000f0: f3e1 053e 74e3 e93d 2901 1b3e c8d1 133e
00000100: d6fe 8bbd 6dfa f43d 90e5 253d fb52 bfbb
00000110: eba8 0a3e e865 6d3d f790 883e 26f4 32be
00000120: a0ee 1b3d c10a debd ae2b 213d 6d5f 0dbd
00000130: 097c 71be 478f 2bbd d8f2 7f3d 019f e0bc
00000140: b5cb 11be afc2 523c 42f4 6ebd 4b2e e93d
00000150: f4cb 3f3e b2e4 a8bd 048f a13d 9b73 04bd
00000160: 0112 85bd c915 aebd 6bd8 85be f1c4 b7bd
00000170: 47cb 473e 55e4 86bd c8ca bcbd 98b5 613e
00000180: 1421 0d3d 9584 8dbe 2e8a 02bd 40f4 903d
00000190: a04a 553d 45b7 2d3e 1864 47bd 0171 433d
000001a0: ab76 aabd 3baf afbe 12a4 95bc a516 143c
000001b0: 121c 6d3c 6a04 de3d b046 413e 5791 9e3c
000001c0: f161 563e bc0b 913d 71c2 f43d 215f 143e
000001d0: 81a0 f33c a2cd cf3d 495d 423d 5923 e53d
000001e0: 8931 e83d ef79 163e d91d 8abb 30cd 903e
000001f0: 9a42 3abe 0807 1bbe 607c babd dbc2 91bd
00000200: 3ca6 7fbe fbce e43d 28d7 23be 2c2e b23d
00000210: ef85 a93c bf08 09be 3ab1 09be baa0 aabc
00000220: 963e 5e3e 90f0 61be e4b9 f1bc 7523 09be
00000230: b894 c8bc fbd6 4cbe ebfc 153d 2aa4 46be
00000240: 788b a4ba f245 5bbe b994 963e 6c0b 38be
00000250: f25c 193e d1f0 1abe 15bc 9abe d4ea 463e
00000260: 596c c23d 367b 2a3e f3dd 8b3c ee66 8e3c
00000270: 3e2f d83b 5f75 06be 6d10 0abe f814 2abd
00000280: 7b2f 4abd 1dd8 03be f2ac 0c3e 85c4 fabd
00000290: 898a a0bd fd81 d43d b15b 403d a948 213e
000002a0: 795f f6bd c3a7 b9bd 804d c5bd 358b 493d
000002b0: 1ed1 cdbd c8b3 803d 2e74 e2bd 6e9a b7bd
000002c0: ff09 c13d e2e0 a5bd 3d91 b3bc 22ab a4bb
000002d0: fd02 1f3d 0063 81be 146c 7c3d 0092 923e
000002e0: ba38 4bbe 8a00 413d 645f 26be fc86 7b3d
000002f0: 4a7c c73c 44fb 303e ca59 603e caa2 6dbd
00000300: c43e 29bd 49c6 acbe be0a 853d 77d5 45be
00000310: 6f89 343e 9140 a4bc 239a 05bd 02af 54be
00000320: af89 253d 7853 12be 1c6a 03be 19b5 b1bc
00000330: f35a 8ebe 9d8f e03d baf8 a0bd cfc1 73bd
00000340: d2c1 9f3c 2caa e73d b079 26be c537 a4bd
00000350: d628 4ebe 62f7 ea3d c656 8f3d 4454 12bd
00000360: 6c1e 8d3d 484f ddbd 6765 133e f218 273d
00000370: 326e 813e 9110 f93b ceca 6fbe eb83 2e3e
00000380: 2a3a 3d3e c75c a8bd adb0 79be b413 533e
00000390: bcb7 503e d121 603d 0953 bd3d b225 333d
000003a0: 50e3 32be f643 60be 0dd8 87bc 2f0c 723d
000003b0: f157 713d 565c b23c d301 0dbe a522 02be
000003c0: 26d6 48bd d5c9 86bc c308 1fbe 2cd8 0ebe
000003d0: 246d b13c 9d7b a83d 5564 1f3e 5ec7 54be
000003e0: 5d04 b43b c7f3 2b3d 34d1 893e 762d 343e
000003f0: 0b70 ae3d 03d6 0c3e 46fb 51be f658 f8bd

bias f4 [50]
0.0069994694 0.00082786515 -0.008271969 0.00014757278 -0.0033788818 -0.0017526324 -0.0015452434 -0.008738286
0.006352252 0.002264471 0.0028074705 -0.0026924368 0.0016470945 0.002189311 0.0013450977 -0.0012851717
-0.011082394 -0.001336143 -0.0030048476 -0.004746942 0.008568746 0.00024607542 -0.0033651711 -0.015168378
0.0034970797 0.0010054832 0.0012493663 0.003302901 -0.0010635413 0.0012786329 -0.0024380835 0.0044049844
-0.00039349997 0.0015878285 -0.0028921408 -0.0054445127 0.0027647729 -0.0041977516 0.0013661972 -0.0012791144
-0.0013287805 -0.00059398374 0.0016202778 0.002185366 0.0020721226 -0.0026929064 0.0025856849 -0.00072115153
-0.0024151609 0.0019330892
00000000: ce5b e53b 1705 593a 2787 07bc c4bd 1a39
00000010: 3b70 5dbb 96b8 e5ba c489 caba 072b 0fbc
00000020: 8d26 d03b 8567 143b 8afd 373b 9873 30bb
00000030: 52e3 d73a 8b7a 0f3b fd4d b03a 3573 a8ba
00000040: ee92 35bc 8521 afba faec 44bb 3c8c 9bbb
00000050: ed63 0c3c af03 8139 348a 5cbb ca84 78bc
00000060: 432f 653b 6bca 833a c7c1 a33a 7c75 583b
00000070: 8666 8bba cd97 a73a 41c8 1fbb b057 903b
00000080: ac4e ceb9 af1e d03a 128a 3dbb e267 b2bb
00000090: 3131 353b 4b8d 89bb f911 b33a f5a7 a7ba
000000a0: 7a2a aeba 93b5 1bba 805f d43a 5b38 0f3b
000000b0: 73cc 073b 797b 30bb 9874 293b a90b 3dba
000000c0: ad47 1ebb b65f fd3a

weight f4 [50, 50]
-0.107880026 0.0133764 -0.23713358 0.100286074 -0.07802325 -0.04910994 0.003260353 -0.12489247
-0.043728318 -0.07155291 -0.014977132 0.0147328535 0.0508837 -0.13670279 0.008406869 0.052344088
-0.28036973 0.07263442 0.15979408 -0.041306946 -0.10575933 0.029338056 0.18415403 -0.3092021
0.11821663 0.25732362 -0.00555142 0.089352764 0.07145291 0.051948916 -0.1336182 -0.18283138
-0.020209875 0.061867062 0.12215592 0.037259266 0.37780854 -0.15391263 0.08179016 0.019434404
-0.012453096 0.36711353 -0.24333557 0.20537916 -0.24816056 0.117406294 -0.07200628 0.110820994
0.03433389 -0.009617037 0.06742829 -0.14601381 -0.017117 -0.035868388 -0.0875985 -0.20568964
0.19720899 0.2723554 0.18170215 -0.029156629 0.08872565 -0.07430451 0.20386001 0.23611234
-0.33289504 -0.012441187 -0.036037028 0.1847097 0.065451115 -0.12915996 -0.002536849 -0.060046483
-0.10377968 -0.0952926 0.039956156 0.019480217 0.03661009 0.01716902 -0.06869152 0.051878832
-0.09364289 0.09616325 0.24914792 0.02360894 0.034237977 -0.10420227 -0.079617806 -0.08074095
-0.20195636 0.16436791 -0.20130728 -0.22723828 0.16543844 -0.028534304 -0.13857923 -0.2983302
0.14645168 -0.017819867 0.1584155 -0.14385398 0.10442158 0.19821098 -0.1589732 -0.12696533
0.048058186 0.1593604 0.19673127 0.08726488 0.04353904 0.20295973 -0.23021477 0.013186311
0.077433385 0.013936159 0.0045202905 -0.1310974 0.017356051 -0.14456053 0.014231749 0.019324288
0.12975791 -0.18082525 -0.19613406 -0.2597916 -0.15141119 0.07489238 0.034145467 -0.01028381
-0.08567465 -0.008353096 0.050260246 -0.24689049 -0.032304294 0.05391582 0.2299062 0.09818717
-0.10186465 0.14211072 0.07553195 -0.11370635 -0.28502327 0.09914066 -0.21171574 -0.23842688
0.14810628 -0.005512276 -0.06947994 0.21224396 0.050566893 -0.07489599 -0.034743942 0.07839105
-0.08778583 -0.022716362 -0.010521679 -0.19223408 0.17645293 0.1332352 -0.080592304 0.0727664
-0.2567702 0.24653634 -0.18183598 0.015793283 -0.21382119 0.11727956 0.05130012 -0.028696809
0.20970145 -0.037926972 0.06350143 0.068056405 0.19749798 0.019570693 -0.14189054 -0.31115606
-0.1702367 -0.04448931 0.08658685 -0.23521635 -0.19008674 -0.04403041 -0.20102322 -0.11002937
0.06857127 -0.009555401 -0.18644835 -0.06873007 0.25673217 -0.10502032 -0.04216072 0.20389612
0.15813127 -0.023804303 -0.119992055 0.1096845 -0.26392442 0.36008495 0.24724184 0.20725696
0.07057366 0.24952656 0.43973193 0.007170175 -0.14570343 0.1858249 0.0839073 0.09365623
-0.033610374 -0.012724372 0.05505101 0.31177068 -0.11474884 0.27703944 -0.09051451 -0.040500015
0.071995415 0.09463975 0.09129438 0.058000036 -0.01495181 0.22788629 0.09732739 0.05890793
0.0925333 0.15883029 -0.0084672645 -0.1255188 -0.27745166 0.19724064 0.1616474 0.1581219
-0.05683197 -0.022778291 0.07254005 -0.06316234 0.19090573 0.30553448 -0.05826857 -0.12145149
0.15746504 -0.10691509 0.06359872 -0.11322834 0.22167453 0.20447794 0.08859856 -0.09736653
-0.06933957 -0.29081827 0.18396647 -0.24487567 -0.0029301164 -0.13430583 -0.19134986 0.21578215
00000000: 34f0 dcbd b028 5b3c 25d3 72be c962 cd3d
00000010: a7ca 9fbd 8127 49bd a6ab 553b a0c7 ffbd
00000020: 771c 33bd 558a 92bd a562 75bc 1162 713c
00000030: 6d6b 503d d1fb 0bbe f7bc 093c c166 563d
00000040: 9f8c 8fbe 5bc1 943d 0fa1 233e 7931 29bd
00000050: 5998 d8bd 5d56 f03c e092 3c3e bd4f 9ebe
00000060: 8f1b f23d ecbf 833e b0e8 b5bb 95fe b63d
00000070: e755 923d 63c8 543d 36d3 08be 2638 3bbe
00000080: 2e8f a5bc 5168 7d3d e22c fa3d 2c9d 183d
00000090: 1f70 c13e 469b 1dbe 9981 a73d e634 9f3c
000000a0: 1208 4cbc 4ef6 bb3e f62c 79be ea4e 523e
000000b0: cd1d 7ebe b672 f03d 0778 93bd 1ef6 e23d
000000c0: b1a1 0c3d c790 1dbc d817 8a3d a584 15be
000000d0: f338 8cbc bbea 12bd d866 b3bd 4ea0 52be
000000e0: 27f1 493e 2b72 8b3e 2110 3a3e e2d9 eebc
000000f0: cbb5 b53d f72c 98bd aec0 503e 6fc7 713e
00000100: 3871 aabe 1fd6 4bbc 909b 13bd 8a24 3d3e
00000110: 3c0b 863d 8242 04be 4341 26bb 4df3 75bd
00000120: 718a d4bd c428 c3bd 11a9 233d fa94 9f3c
00000130: 76f4 153d 0ba6 8c3c 24ae 8cbd e67e 543d
00000140: d8c7 bfbd 3df1 c43d a220 7f3e 8967 c13c
00000150: 1f3d 0c3d 0068 d5bd a90e a3bd 835b a5bd
00000160: a6cd 4ebe 1050 283e 7f23 4ebe 27b1 68be
00000170: b268 293e c6c0 e9bc b7e7 0dbe bcbe 98be
00000180: 6ef7 153e f8fa 91bc ac37 223e 754e 13be
00000190: fbda d53d d2f7 4a3e dfc9 22be 3303 02be
000001a0: a9d8 443d 5f2f 233e ec73 493e eeb7 b23d
000001b0: fe55 323d add4 4f3e 6cbd 6bbe 660b 583c
000001c0: 6595 9e3d 7d54 643c f21e 943b 663e 06be
000001d0: 472e 8e3c ad07 14be 482c 693c f84d 9e3c
000001e0: 42df 043e 412a 39be 5ed7 48be 6803 85be
000001f0: 890b 1bbe 2d61 993d 1edc 0b3d 6d7d 28bc
00000200: 3176 afbd 6ddb 08bc b0dd 4d3d dcd0 7cbe
00000210: 8251 04bd d6d6 5c3d 886c 6b3e 5b16 c93d
00000220: 6a9e d0bd 7985 113e 7fb0 9a3d e0de e8bd
00000230: 92ee 91be 420a cb3d 03cc 58be 2d26 74be
00000240: 2ca9 173e 53a0 b4bb 804b 8ebd 7b56 593e
00000250: 3b1f 4f3d 1263 99bd aa4f 0ebd 7d8b a03d
00000260: 0fc9 b3bd aa17 babc 1f63 2cbc 03d9 44be
00000270: 14b0 343e cf6e 083e 940d a5bd 8d06 953d
00000280: 6277 83be 0674 7c3e 3633 3abe ea60 813c
00000290: f1f3 5abe 4430 f03d 1320 523d 9215 ebbc
000002a0: fabb 563e 5059 1bbd 0a0d 823d 2861 8b3d
000002b0: e93c 4a3e b852 a03c c14b 11be d94f 9fbe
000002c0: 8852 2ebe 6c3a 36bd 7254 b13d 8edc 70be
000002d0: 19a6 42be 3b59 34bd 08d9 4dbe 1457 e1bd
000002e0: 186f 8c3d 428e 1cbc 51ec 3ebe 5ac2 8cbd
000002f0: 6672 833e e514 d7bd b8b0 2cbd 25ca 503e
00000300: 2aed 213e 3e01 c3bc 65be f5bd 44a2 e03d
00000310: 1a21 87be 0e5d b83e f72c 7d3e 2b3b 543e
00000320: ec88 903d e483 7f3e 8b24 e13e caf3 ea3b
00000330: 4833 15be e248 3e3e 97d7 ab3d d6ce bf3d
00000340: 08ab 09bd e279 50bc 2b7d 613d 68a0 9f3e
00000350: 7101 ebbd 1dd8 8d3e ac5f b9bd 58e3 25bd
00000360: 5572 933d 7cd2 c13d 8cf8 ba3d 7291 6d3d
00000370: 70f8 74bc 065b 693e 9553 c73d 7149 713d
00000380: 1982 bd3d 68a4 223e 48ba 0abc 0088 00be
00000390: 250e 8ebe 73f9 493e e586 253e b5ea 213e
000003a0: a4c8 68bd 8a99 babc e18f 943d 425b 81bd
000003b0: cb7c 433e 046f 9c3e 06ab 6ebd 8fbb f8bd
000003c0: 843e 213e 4cf6 dabd 0c40 823d 43e4 e7bd
000003d0: a6fe 623e aa62 513e 2973 b53d 1a68 c7bd
000003e0: e801 8ebd 22e6 94be b561 3c3e b0c0 7abe
000003f0: 3207 40bb 7887 09be 38f1 43be fff5 5c3e

bias f4 [50]
-0.00891732 -0.012737717 0.0073630176 -0.0013446971 -0.009447595 0.006594352 -0.011120136 -0.0027004133
-0.008258808 -0.007923733 0.0013837676 0.0058051306 -0.0020744142 0.02868371 -0.0040263855 -0.0022261615
0.016060555 -0.0103611965 0.012379318 -0.0072833286 -0.023771191 0.00035922785 0.019220721 0.0063150334
0.0092730485 0.0020105275 0.009204759 -0.009089152 -0.012343694 0.0042222356 0.006684581 0.008891212
0.010379971 0.013538873 0.0066618677 0.006520231 -0.018133981 0.0026698413 -0.005279147 0.014340414
0.0010535754 -0.00036864734 0.026223026 0.00856928 -0.004714721 -0.009222852 -0.0020757192 0.0053488794
-0.0014075818 0.008891063
00000000: f319 12bc dbb1 50bc 7845 f13b 8c40 b0ba
00000010: 16ca 1abc 6f15 d83b 3b31 36bc 6bf9 30bb
00000020: f44f 07bc 8cd2 01bc 895f b53a f738 be3b
00000030: e5f2 07bb 1afa ea3c c5ef 83bb cbe4 11bb
00000040: 6d91 833c 02c2 29bc 9fd2 4a3c fda8 eebb
00000050: cdbb c2bc bf56 bc39 c674 9d3c 57ee ce3b
00000060: fced 173c 0ec3 033b 8fcf 163c abea 14bc
00000070: 353d 4abc ae5a 8a3b 540a db3b 72ac 113c
00000080: c110 2a3c 26d2 5d3c cc4b da3b a9a7 d53b
00000090: b78d 94bc 81f8 2e3b b2fc acbb 0ef4 6a3c
000000a0: 2018 8a3a 0247 c1b9 acd1 d63c 2a66 0c3c
000000b0: f27d 9abb 721b 17bc ca08 08bb a745 af3b
000000c0: 9c7e b8ba d2ab 113c
