pbc_examples/saved_models/convection_beta-1.0_layers-50,50,1_L-2.0_WD-0_init-normal_seed0.pt (torch, 48913 bytes, 24 tensors)

x_u f4 [256, 1]
00000000: 0000 0000 db0f c93c db0f 493d e4cb 963d
00000010: db0f c93d d153 fb3d e4cb 163e dfed 2f3e
00000020: db0f 493e d631 623e d153 7b3e e63a 8a3e
00000030: e4cb 963e e25c a33e dfed af3e dd7e bc3e
00000040: db0f c93e d8a0 d53e d631 e23e d4c2 ee3e
00000050: d153 fb3e 67f2 033f e63a 0a3f 6583 103f
00000060: e4cb 163f 6314 1d3f e25c 233f 60a5 293f
00000070: dfed 2f3f 5e36 363f dd7e 3c3f 5cc7 423f
00000080: db0f 493f 5958 4f3f d8a0 553f 57e9 5b3f
00000090: d631 623f 557a 683f d4c2 6e3f 520b 753f
000000a0: d153 7b3f 28ce 803f 67f2 833f a716 873f
000000b0: e63a 8a3f 265f 8d3f 6583 903f a5a7 933f
000000c0: e4cb 963f 23f0 993f 6314 9d3f a238 a03f
000000d0: e25c a33f 2181 a63f 60a5 a93f a0c9 ac3f
000000e0: dfed af3f 1f12 b33f 5e36 b63f 9e5a b93f
000000f0: dd7e bc3f 1ca3 bf3f 5cc7 c23f 9beb c53f
00000100: db0f c93f 1a34 cc3f 5958 cf3f 997c d23f
00000110: d8a0 d53f 18c5 d83f 57e9 db3f 970d df3f
00000120: d631 e23f 1556 e53f 557a e83f 949e eb3f
00000130: d4c2 ee3f 13e7 f13f 520b f53f 922f f83f
00000140: d153 fb3f 1178 fe3f 28ce 0040 4860 0240
00000150: 67f2 0340 8784 0540 a716 0740 c7a8 0840
00000160: e63a 0a40 06cd 0b40 265f 0d40 45f1 0e40
00000170: 6583 1040 8515 1240 a5a7 1340 c439 1540
00000180: e4cb 1640 045e 1840 23f0 1940 4382 1b40
00000190: 6314 1d40 83a6 1e40 a238 2040 c2ca 2140
000001a0: e25c 2340 01ef 2440 2181 2640 4113 2840
000001b0: 60a5 2940 8037 2b40 a0c9 2c40 c05b 2e40
000001c0: dfed 2f40 ff7f 3140 1f12 3340 3ea4 3440
000001d0: 5e36 3640 7ec8 3740 9e5a 3940 bdec 3a40
000001e0: dd7e 3c40 fd10 3e40 1ca3 3f40 3c35 4140
000001f0: 5cc7 4240 7c59 4440 9beb 4540 bb7d 4740
00000200: db0f 4940 faa1 4a40 1a34 4c40 3ac6 4d40
00000210: 5958 4f40 79ea 5040 997c 5240 b90e 5440
00000220: d8a0 5540 f832 5740 18c5 5840 3757 5a40
00000230: 57e9 5b40 777b 5d40 970d 5f40 b69f 6040
00000240: d631 6240 f6c3 6340 1556 6540 35e8 6640
00000250: 557a 6840 750c 6a40 949e 6b40 b430 6d40
00000260: d4c2 6e40 f354 7040 13e7 7140 3379 7340
00000270: 520b 7540 729d 7640 922f 7840 b2c1 7940
00000280: d153 7b40 f1e5 7c40 1178 7e40 1805 8040
00000290: 28ce 8040 3897 8140 4860 8240 5829 8340
000002a0: 67f2 8340 77bb 8440 8784 8540 974d 8640
000002b0: a716 8740 b7df 8740 c7a8 8840 d671 8940
000002c0: e63a 8a40 f603 8b40 06cd 8b40 1696 8c40
000002d0: 265f 8d40 3628 8e40 45f1 8e40 55ba 8f40
000002e0: 6583 9040 754c 9140 8515 9240 95de 9240
000002f0: a5a7 9340 b470 9440 c439 9540 d402 9640
00000300: e4cb 9640 f494 9740 045e 9840 1427 9940
00000310: 23f0 9940 33b9 9a40 4382 9b40 534b 9c40
00000320: 6314 9d40 73dd 9d40 83a6 9e40 926f 9f40
00000330: a238 a040 b201 a140 c2ca a140 d293 a240
00000340: e25c a340 f125 a440 01ef a440 11b8 a540
00000350: 2181 a640 314a a740 4113 a840 51dc a840
00000360: 60a5 a940 706e aa40 8037 ab40 9000 ac40
00000370: a0c9 ac40 b092 ad40 c05b ae40 cf24 af40
00000380: dfed af40 efb6 b040 ff7f b140 0f49 b240
00000390: 1f12 b340 2fdb b340 3ea4 b440 4e6d b540
000003a0: 5e36 b640 6eff b640 7ec8 b740 8e91 b840
000003b0: 9e5a b940 ad23 ba40 bdec ba40 cdb5 bb40
000003c0: dd7e bc40 ed47 bd40 fd10 be40 0dda be40
000003d0: 1ca3 bf40 2c6c c040 3c35 c140 4cfe c140
000003e0: 5cc7 c240 6c90 c340 7c59 c440 8b22 c540
000003f0: 9beb c540 abb4 c640 bb7d c740 cb46 c840
0.0 0.024543693 0.049087387 0.07363108 0.09817477 0.12271846 0.14726216 0.17180584
0.19634955 0.22089323 0.24543692 0.2699806 0.2945243 0.319068 0.3436117 0.3681554
0.3926991 0.41724277 0.44178647 0.46633017 0.49087384 0.5154175 0.5399612 0.5645049
0.5890486 0.6135923 0.638136 0.6626797 0.6872234 0.7117671 0.7363108 0.7608545
0.7853982 0.8099418 0.83448553 0.85902923 0.88357294 0.90811664 0.93266034 0.957204
0.9817477 1.0062914 1.030835 1.0553788 1.0799224 1.1044662 1.1290098 1.1535536
1.1780972 1.2026409 1.2271847 1.2517283 1.276272 1.3008157 1.3253593 1.3499031
1.3744467 1.3989905 1.4235342 1.4480779 1.4726216 1.4971652 1.521709 1.5462526
1.5707964 1.59534 1.6198837 1.6444274 1.6689711 1.6935148 1.7180585 1.7426022
1.7671459 1.7916895 1.8162333 1.8407769 1.8653207 1.8898643 1.914408 1.9389517
1.9634954 1.9880391 2.0125828 2.0371265 2.06167 2.0862138 2.1107576 2.1353014
2.1598449 2.1843886 2.2089324 2.233476 2.2580197 2.2825634 2.3071072 2.3316507
2.3561945 2.3807383 2.4052818 2.4298255 2.4543693 2.478913 2.5034566 2.5280004
2.552544 2.5770876 2.6016314 2.6261752 2.6507187 2.6752625 2.6998062 2.72435
2.7488935 2.7734373 2.797981 2.8225245 2.8470683 2.871612 2.8961558 2.9206994
2.9452431 2.969787 2.9943304 3.0188742 3.043418 3.0679617 3.0925052 3.117049
3.1415927 3.1661363 3.19068 3.2152238 3.2397673 3.264311 3.2888548 3.3133986
3.3379421 3.362486 3.3870296 3.4115732 3.436117 3.4606607 3.4852045 3.509748
3.5342917 3.5588355 3.583379 3.6079228 3.6324666 3.6570103 3.6815538 3.7060976
3.7306414 3.755185 3.7797287 3.8042724 3.828816 3.8533597 3.8779035 3.9024472
3.9269907 3.9515345 3.9760783 4.000622 4.0251656 4.0497093 4.074253 4.098797
4.12334 4.147884 4.1724277 4.1969714 4.221515 4.246059 4.2706027 4.295146
4.3196898 4.3442335 4.3687773 4.393321 4.417865 4.4424086 4.466952 4.4914956
4.5160394 4.540583 4.565127 4.5896707 4.6142144 4.6387577 4.6633015 4.687845
4.712389 4.7369328 4.7614765 4.7860203 4.8105636 4.8351073 4.859651 4.884195
4.9087386 4.9332824 4.957826 4.9823694 5.006913 5.031457 5.0560007 5.0805445
5.105088 5.1296315 5.1541753 5.178719 5.203263 5.2278066 5.2523503 5.276894
5.3014374 5.325981 5.350525 5.3750687 5.3996124 5.424156 5.4487 5.473243
5.497787 5.5223308 5.5468745 5.5714183 5.595962 5.620506 5.645049 5.669593
5.6941366 5.7186804 5.743224 5.767768 5.7923117 5.816855 5.8413987 5.8659425
5.8904862 5.91503 5.939574 5.9641175 5.988661 6.0132046 6.0377483 6.062292
6.086836 6.1113796 6.1359234 6.1604667 6.1850104 6.209554 6.234098 6.2586417

t_u f4 [256, 1]
00000000: 0000 0000 0000 0000 0000 0000 0000 0000
00000010: 0000 0000 0000 0000 0000 0000 0000 0000
00000020: 0000 0000 0000 0000 0000 0000 0000 0000
00000030: 0000 0000 0000 0000 0000 0000 0000 0000
00000040: 0000 0000 0000 0000 0000 0000 0000 0000
00000050: 0000 0000 0000 0000 0000 0000 0000 0000
00000060: 0000 0000 0000 0000 0000 0000 0000 0000
00000070: 0000 0000 0000 0000 0000 0000 0000 0000
00000080: 0000 0000 0000 0000 0000 0000 0000 0000
00000090: 0000 0000 0000 0000 0000 0000 0000 0000
000000a0: 0000 0000 0000 0000 0000 0000 0000 0000
000000b0: 0000 0000 0000 0000 0000 0000 0000 0000
000000c0: 0000 0000 0000 0000 0000 0000 0000 0000
000000d0: 0000 0000 0000 0000 0000 0000 0000 0000
000000e0: 0000 0000 0000 0000 0000 0000 0000 0000
000000f0: 0000 0000 0000 0000 0000 0000 0000 0000
00000100: 0000 0000 0000 0000 0000 0000 0000 0000
00000110: 0000 0000 0000 0000 0000 0000 0000 0000
00000120: 0000 0000 0000 0000 0000 0000 0000 0000
00000130: 0000 0000 0000 0000 0000 0000 0000 0000
00000140: 0000 0000 0000 0000 0000 0000 0000 0000
00000150: 0000 0000 0000 0000 0000 0000 0000 0000
00000160: 0000 0000 0000 0000 0000 0000 0000 0000
00000170: 0000 0000 0000 0000 0000 0000 0000 0000
00000180: 0000 0000 0000 0000 0000 0000 0000 0000
00000190: 0000 0000 0000 0000 0000 0000 0000 0000
000001a0: 0000 0000 0000 0000 0000 0000 0000 0000
000001b0: 0000 0000 0000 0000 0000 0000 0000 0000
000001c0: 0000 0000 0000 0000 0000 0000 0000 0000
000001d0: 0000 0000 0000 0000 0000 0000 0000 0000
000001e0: 0000 0000 0000 0000 0000 0000 0000 0000
000001f0: 0000 0000 0000 0000 0000 0000 0000 0000
00000200: 0000 0000 0000 0000 0000 0000 0000 0000
00000210: 0000 0000 0000 0000 0000 0000 0000 0000
00000220: 0000 0000 0000 0000 0000 0000 0000 0000
00000230: 0000 0000 0000 0000 0000 0000 0000 0000
00000240: 0000 0000 0000 0000 0000 0000 0000 0000
00000250: 0000 0000 0000 0000 0000 0000 0000 0000
00000260: 0000 0000 0000 0000 0000 0000 0000 0000
00000270: 0000 0000 0000 0000 0000 0000 0000 0000
00000280: 0000 0000 0000 0000 0000 0000 0000 0000
00000290: 0000 0000 0000 0000 0000 0000 0000 0000
000002a0: 0000 0000 0000 0000 0000 0000 0000 0000
000002b0: 0000 0000 0000 0000 0000 0000 0000 0000
000002c0: 0000 0000 0000 0000 0000 0000 0000 0000
000002d0: 0000 0000 0000 0000 0000 0000 0000 0000
000002e0: 0000 0000 0000 0000 0000 0000 0000 0000
000002f0: 0000 0000 0000 0000 0000 0000 0000 0000
00000300: 0000 0000 0000 0000 0000 0000 0000 0000
00000310: 0000 0000 0000 0000 0000 0000 0000 0000
00000320: 0000 0000 0000 0000 0000 0000 0000 0000
00000330: 0000 0000 0000 0000 0000 0000 0000 0000
00000340: 0000 0000 0000 0000 0000 0000 0000 0000
00000350: 0000 0000 0000 0000 0000 0000 0000 0000
00000360: 0000 0000 0000 0000 0000 0000 0000 0000
00000370: 0000 0000 0000 0000 0000 0000 0000 0000
00000380: 0000 0000 0000 0000 0000 0000 0000 0000
00000390: 0000 0000 0000 0000 0000 0000 0000 0000
000003a0: 0000 0000 0000 0000 0000 0000 0000 0000
000003b0: 0000 0000 0000 0000 0000 0000 0000 0000
000003c0: 0000 0000 0000 0000 0000 0000 0000 0000
000003d0: 0000 0000 0000 0000 0000 0000 0000 0000
000003e0: 0000 0000 0000 0000 0000 0000 0000 0000
000003f0: 0000 0000 0000 0000 0000 0000 0000 0000
0.0 0.0 0.0 0.0 0.0 0.0 0.0 0.0
0.0 0.0 0.0 0.0 0.0 0.0 0.0 0.0
0.0 0.0 0.0 0.0 0.0 0.0 0.0 0.0
0.0 0.0 0.0 0.0 0.0 0.0 0.0 0.0
0.0 0.0 0.0 0.0 0.0 0.0 0.0 0.0
0.0 0.0 0.0 0.0 0.0 0.0 0.0 0.0
0.0 0.0 0.0 0.0 0.0 0.0 0.0 0.0
0.0 0.0 0.0 0.0 0.0 0.0 0.0 0.0
0.0 0.0 0.0 0.0 0.0 0.0 0.0 0.0
0.0 0.0 0.0 0.0 0.0 0.0 0.0 0.0
0.0 0.0 0.0 0.0 0.0 0.0 0.0 0.0
0.0 0.0 0.0 0.0 0.0 0.0 0.0 0.0
0.0 0.0 0.0 0.0 0.0 0.0 0.0 0.0
0.0 0.0 0.0 0.0 0.0 0.0 0.0 0.0
0.0 0.0 0.0 0.0 0.0 0.0 0.0 0.0
0.0 0.0 0.0 0.0 0.0 0.0 0.0 0.0
0.0 0.0 0.0 0.0 0.0 0.0 0.0 0.0
0.0 0.0 0.0 0.0 0.0 0.0 0.0 0.0
0.0 0.0 0.0 0.0 0.0 0.0 0.0 0.0
0.0 0.0 0.0 0.0 0.0 0.0 0.0 0.0
0.0 0.0 0.0 0.0 0.0 0.0 0.0 0.0
0.0 0.0 0.0 0.0 0.0 0.0 0.0 0.0
0.0 0.0 0.0 0.0 0.0 0.0 0.0 0.0
0.0 0.0 0.0 0.0 0.0 0.0 0.0 0.0
0.0 0.0 0.0 0.0 0.0 0.0 0.0 0.0
0.0 0.0 0.0 0.0 0.0 0.0 0.0 0.0
0.0 0.0 0.0 0.0 0.0 0.0 0.0 0.0
0.0 0.0 0.0 0.0 0.0 0.0 0.0 0.0
0.0 0.0 0.0 0.0 0.0 0.0 0.0 0.0
0.0 0.0 0.0 0.0 0.0 0.0 0.0 0.0
0.0 0.0 0.0 0.0 0.0 0.0 0.0 0.0
0.0 0.0 0.0 0.0 0.0 0.0 0.0 0.0

x_f f4 [100, 1]
00000000: a5a7 9340 970d df3f d8a0 5540 534b 9c40
00000010: 7c59 4440 efb6 b040 ad23 ba40 9beb c540
00000020: 8515 9240 23f0 993f 1427 9940 6583 103f
00000030: 949e eb3f d153 fb3d 926f 9f40 5cc7 c240
00000040: 6eff b640 a0c9 2c40 c2ca 2140 6c90 c340
00000050: c05b 2e40 cf24 af40 a716 873f 4cfe c140
00000060: d631 e23e 5e36 363f 974d 8640 cb46 c840
00000070: 7c59 c440 754c 9140 9beb c540 c7a8 8840
00000080: cf24 af40 2181 2640 265f 8d40 6314 9d40
00000090: 2c6c c040 dd7e bc3e d153 fb3e 2181 a640
000000a0: 777b 5d40 d631 e23e 5958 cf3f 77bb 8440
000000b0: 557a e83f 83a6 9e40 970d 5f40 18c5 5840
000000c0: 520b 753f a5a7 1340 60a5 293f 314a a740
000000d0: db0f c93c 4cfe c140 c439 1540 d153 fb3f
000000e0: c439 1540 dfed 2f3f 1a34 cc3f 3757 5a40
000000f0: 1f12 b340 9e5a b940 265f 8d3f 949e 6b40
00000100: d631 623f 57e9 db3f 4382 1b40 35e8 6640
00000110: 1556 e53f 5958 cf3f d671 8940 1178 fe3f
00000120: 6583 1040 c05b 2e40 db0f 493f 67f2 0340
00000130: 83a6 9e40 f125 a440 4382 1b40 754c 9140
00000140: 750c 6a40 d8a0 553f b430 6d40 1556 e53f
00000150: 5cc7 c240 926f 9f40 534b 9c40 28ce 803f
00000160: dfed af40 bdec ba40 974d 8640 e4cb 9640
00000170: d631 623f d4c2 6e3f 6314 9d3f 7ec8 b740
00000180: 0f49 b240 3c35 c140 57e9 5b40 a0c9 ac3f
4.6142144 1.7426022 3.3379421 4.884195 3.0679617 5.5223308 5.816855 6.1850104
4.565127 1.2026409 4.7860203 0.5645049 1.8407769 0.12271846 4.9823694 6.086836
5.7186804 2.6998062 2.5280004 6.1113796 2.72435 5.473243 1.0553788 6.062292
0.44178647 0.7117671 4.1969714 6.2586417 6.1359234 4.540583 6.1850104 4.2706027
5.473243 2.6016314 4.417865 4.9087386 6.0132046 0.3681554 0.49087384 5.203263
3.4606607 0.44178647 1.6198837 4.147884 1.8162333 4.957826 3.4852045 3.3870296
0.957204 2.3071072 0.6626797 5.2278066 0.024543693 6.062292 2.3316507 1.9634954
2.3316507 0.6872234 1.59534 3.4115732 5.595962 5.7923117 1.1044662 3.6815538
0.88357294 1.7180585 2.4298255 3.6079228 1.7916895 1.6198837 4.295146 1.9880391
2.2580197 2.72435 0.7853982 2.06167 4.957826 5.1296315 2.4298255 4.540583
3.6570103 0.83448553 3.7060976 1.7916895 6.086836 4.9823694 4.884195 1.0062914
5.497787 5.8413987 4.1969714 4.712389 0.88357294 0.93266034 1.2271847 5.743224
5.5714183 6.0377483 3.436117 1.3499031

t_f f4 [100, 1]
00000000: 7786 c43e 5d74 513f ee0c 093f 6748 4c3f
00000010: dece 103e 9602 353f a0d6 2f3f 721c 473f
00000020: e9a2 0b3f b57e 253c e438 0e3f 6db2 493f
00000030: 4362 de3e 4362 de3e 0ad4 7a3f 0000 803f
00000040: a540 2d3f f376 063f ca26 9b3e 580a 543f
00000050: 0ad4 7a3f bae8 223f a0d6 af3e b57e a53e
00000060: 1a12 f33e 2950 6b3f e438 0e3f 721c 473f
00000070: 8c2e ba3e 398e 633e dece 903e 398e 633f
00000080: 2fba 683f ca26 1b3e bf52 203f b57e 253d
00000090: ca26 1b3e 3ef8 603f d4fa 153f fd4a 813e
000000a0: 6748 4c3f 7786 c43e 4e36 d93e b57e 253c
000000b0: 103e 783e 3424 663f 8c2e ba3e 1f7c 703f
000000c0: 7cf0 413f bf52 a03e b57e 253d a0d6 af3e
000000d0: 2fba e83e 15a8 753f 15a8 753f 2fba e83e
000000e0: 2fba e83e 62de 4e3f f376 063f dece 103f
000000f0: 3ef8 603f 86c4 3c3f b57e 253d 1a12 f33e
00000100: d964 133f dece 103f a540 2d3f 056a 7d3f
00000110: a0d6 2f3f 4e36 593e 62de 4e3d dece 903e
00000120: fd4a 813e 62de 4e3f b57e 253c 580a d43e
00000130: 103e 783f 0ad4 7a3f d4fa 953e f8e0 033f
00000140: 53a0 563f 1a12 733f 1a12 f33e cf90 183f
00000150: 6db2 c93e a0d6 2f3f 4e36 593f b57e a53c
00000160: 2950 6b3f 103e f83e f376 063e ca26 1b3f
00000170: fd4a 813e 103e 783f a0d6 af3e 53a0 563f
00000180: 103e f83e 6748 4c3f 9198 373f ca26 9b3e
0.3838384 0.8181818 0.53535354 0.7979798 0.14141414 0.7070707 0.68686867 0.7777778
0.54545456 0.01010101 0.5555556 0.7878788 0.43434343 0.43434343 0.97979796 1.0
0.67676765 0.5252525 0.3030303 0.82828283 0.97979796 0.6363636 0.34343433 0.32323232
0.47474748 0.9191919 0.5555556 0.7777778 0.36363637 0.22222222 0.28282827 0.8888889
0.90909094 0.15151516 0.6262626 0.04040404 0.15151516 0.8787879 0.5858586 0.25252524
0.7979798 0.3838384 0.42424244 0.01010101 0.24242425 0.8989899 0.36363637 0.93939394
0.75757575 0.3131313 0.04040404 0.34343433 0.45454547 0.959596 0.959596 0.45454547
0.45454547 0.8080808 0.5252525 0.56565654 0.8787879 0.7373737 0.04040404 0.47474748
0.57575756 0.56565654 0.67676765 0.989899 0.68686867 0.21212122 0.05050505 0.28282827
0.25252524 0.8080808 0.01010101 0.41414142 0.969697 0.97979796 0.2929293 0.5151515
0.83838385 0.94949496 0.47474748 0.5959596 0.3939394 0.68686867 0.8484849 0.02020202
0.9191919 0.4848485 0.13131313 0.6060606 0.25252524 0.969697 0.34343433 0.83838385
0.4848485 0.7979798 0.7171717 0.3030303

x_bc_lb f4 [100, 1]
00000000: 0000 0000 0000 0000 0000 0000 0000 0000
00000010: 0000 0000 0000 0000 0000 0000 0000 0000
00000020: 0000 0000 0000 0000 0000 0000 0000 0000
00000030: 0000 0000 0000 0000 0000 0000 0000 0000
00000040: 0000 0000 0000 0000 0000 0000 0000 0000
00000050: 0000 0000 0000 0000 0000 0000 0000 0000
00000060: 0000 0000 0000 0000 0000 0000 0000 0000
00000070: 0000 0000 0000 0000 0000 0000 0000 0000
00000080: 0000 0000 0000 0000 0000 0000 0000 0000
00000090: 0000 0000 0000 0000 0000 0000 0000 0000
000000a0: 0000 0000 0000 0000 0000 0000 0000 0000
000000b0: 0000 0000 0000 0000 0000 0000 0000 0000
000000c0: 0000 0000 0000 0000 0000 0000 0000 0000
000000d0: 0000 0000 0000 0000 0000 0000 0000 0000
000000e0: 0000 0000 0000 0000 0000 0000 0000 0000
000000f0: 0000 0000 0000 0000 0000 0000 0000 0000
00000100: 0000 0000 0000 0000 0000 0000 0000 0000
00000110: 0000 0000 0000 0000 0000 0000 0000 0000
00000120: 0000 0000 0000 0000 0000 0000 0000 0000
00000130: 0000 0000 0000 0000 0000 0000 0000 0000
00000140: 0000 0000 0000 0000 0000 0000 0000 0000
00000150: 0000 0000 0000 0000 0000 0000 0000 0000
00000160: 0000 0000 0000 0000 0000 0000 0000 0000
00000170: 0000 0000 0000 0000 0000 0000 0000 0000
00000180: 0000 0000 0000 0000 0000 0000 0000 0000
0.0 0.0 0.0 0.0 0.0 0.0 0.0 0.0
0.0 0.0 0.0 0.0 0.0 0.0 0.0 0.0
0.0 0.0 0.0 0.0 0.0 0.0 0.0 0.0
0.0 0.0 0.0 0.0 0.0 0.0 0.0 0.0
0.0 0.0 0.0 0.0 0.0 0.0 0.0 0.0
0.0 0.0 0.0 0.0 0.0 0.0 0.0 0.0
0.0 0.0 0.0 0.0 0.0 0.0 0.0 0.0
0.0 0.0 0.0 0.0 0.0 0.0 0.0 0.0
0.0 0.0 0.0 0.0 0.0 0.0 0.0 0.0
0.0 0.0 0.0 0.0 0.0 0.0 0.0 0.0
0.0 0.0 0.0 0.0 0.0 0.0 0.0 0.0
0.0 0.0 0.0 0.0 0.0 0.0 0.0 0.0
0.0 0.0 0.0 0.0

t_bc_lb f4 [100, 1]
00000000: 0000 0000 b57e 253c b57e a53c 103e f83c
00000010: b57e 253d 62de 4e3d 103e 783d dece 903d
00000020: b57e a53d 8c2e ba3d 62de ce3d 398e e33d
00000030: 103e f83d f376 063e dece 103e ca26 1b3e
00000040: b57e 253e a0d6 2f3e 8c2e 3a3e 7786 443e
00000050: 62de 4e3e 4e36 593e 398e 633e 24e6 6d3e
00000060: 103e 783e fd4a 813e f376 863e e9a2 8b3e
00000070: dece 903e d4fa 953e ca26 9b3e bf52 a03e
00000080: b57e a53e abaa aa3e a0d6 af3e 9602 b53e
00000090: 8c2e ba3e 815a bf3e 7786 c43e 6db2 c93e
000000a0: 62de ce3e 580a d43e 4e36 d93e 4362 de3e
000000b0: 398e e33e 2fba e83e 24e6 ed3e 1a12 f33e
000000c0: 103e f83e 056a fd3e fd4a 013f f8e0 033f
000000d0: f376 063f ee0c 093f e9a2 0b3f e438 0e3f
000000e0: dece 103f d964 133f d4fa 153f cf90 183f
000000f0: ca26 1b3f c5bc 1d3f bf52 203f bae8 223f
00000100: b57e 253f b014 283f abaa 2a3f a540 2d3f
00000110: a0d6 2f3f 9b6c 323f 9602 353f 9198 373f
00000120: 8c2e 3a3f 86c4 3c3f 815a 3f3f 7cf0 413f
00000130: 7786 443f 721c 473f 6db2 493f 6748 4c3f
00000140: 62de 4e3f 5d74 513f 580a 543f 53a0 563f
00000150: 4e36 593f 48cc 5b3f 4362 5e3f 3ef8 603f
00000160: 398e 633f 3424 663f 2fba 683f 2950 6b3f
00000170: 24e6 6d3f 1f7c 703f 1a12 733f 15a8 753f
00000180: 103e 783f 0ad4 7a3f 056a 7d3f 0000 803f
0.0 0.01010101 0.02020202 0.030303031 0.04040404 0.05050505 0.060606062 0.07070707
0.08080808 0.09090909 0.1010101 0.11111111 0.121212125 0.13131313 0.14141414 0.15151516
0.16161616 0.17171717 0.18181819 0.1919192 0.2020202 0.21212122 0.22222222 0.23232323
0.24242425 0.25252524 0.26262626 0.27272728 0.28282827 0.2929293 0.3030303 0.3131313
0.32323232 0.33333334 0.34343433 0.35353535 0.36363637 0.37373737 0.3838384 0.3939394
0.4040404 0.41414142 0.42424244 0.43434343 0.44444445 0.45454547 0.46464646 0.47474748
0.4848485 0.4949495 0.5050505 0.5151515 0.5252525 0.53535354 0.54545456 0.5555556
0.56565654 0.57575756 0.5858586 0.5959596 0.6060606 0.61616164 0.6262626 0.6363636
0.64646465 0.65656567 0.6666667 0.67676765 0.68686867 0.6969697 0.7070707 0.7171717
0.72727275 0.7373737 0.74747473 0.75757575 0.7676768 0.7777778 0.7878788 0.7979798
0.8080808 0.8181818 0.82828283 0.83838385 0.8484849 0.85858583 0.86868685 0.8787879
0.8888889 0.8989899 0.90909094 0.9191919 0.9292929 0.93939394 0.94949496 0.959596
0.969697 0.97979796 0.989899 1.0

x_bc_ub f4 [100, 1]
00000000: db0f c940 db0f c940 db0f c940 db0f c940
00000010: db0f c940 db0f c940 db0f c940 db0f c940
00000020: db0f c940 db0f c940 db0f c940 db0f c940
00000030: db0f c940 db0f c940 db0f c940 db0f c940
00000040: db0f c940 db0f c940 db0f c940 db0f c940
00000050: db0f c940 db0f c940 db0f c940 db0f c940
00000060: db0f c940 db0f c940 db0f c940 db0f c940
00000070: db0f c940 db0f c940 db0f c940 db0f c940
00000080: db0f c940 db0f c940 db0f c940 db0f c940
00000090: db0f c940 db0f c940 db0f c940 db0f c940
000000a0: db0f c940 db0f c940 db0f c940 db0f c940
000000b0: db0f c940 db0f c940 db0f c940 db0f c940
000000c0: db0f c940 db0f c940 db0f c940 db0f c940
000000d0: db0f c940 db0f c940 db0f c940 db0f c940
000000e0: db0f c940 db0f c940 db0f c940 db0f c940
000000f0: db0f c940 db0f c940 db0f c940 db0f c940
00000100: db0f c940 db0f c940 db0f c940 db0f c940
00000110: db0f c940 db0f c940 db0f c940 db0f c940
00000120: db0f c940 db0f c940 db0f c940 db0f c940
00000130: db0f c940 db0f c940 db0f c940 db0f c940
00000140: db0f c940 db0f c940 db0f c940 db0f c940
00000150: db0f c940 db0f c940 db0f c940 db0f c940
00000160: db0f c940 db0f c940 db0f c940 db0f c940
00000170: db0f c940 db0f c940 db0f c940 db0f c940
00000180: db0f c940 db0f c940 db0f c940 db0f c940
6.2831855 6.2831855 6.2831855 6.2831855 6.2831855 6.2831855 6.2831855 6.2831855
6.2831855 6.2831855 6.2831855 6.2831855 6.2831855 6.2831855 6.2831855 6.2831855
6.2831855 6.2831855 6.2831855 6.2831855 6.2831855 6.2831855 6.2831855 6.2831855
6.2831855 6.2831855 6.2831855 6.2831855 6.2831855 6.2831855 6.2831855 6.2831855
6.2831855 6.2831855 6.2831855 6.2831855 6.2831855 6.2831855 6.2831855 6.2831855
6.2831855 6.2831855 6.2831855 6.2831855 6.2831855 6.2831855 6.2831855 6.2831855
6.2831855 6.2831855 6.2831855 6.2831855 6.2831855 6.2831855 6.2831855 6.2831855
6.2831855 6.2831855 6.2831855 6.2831855 6.2831855 6.2831855 6.2831855 6.2831855
6.2831855 6.2831855 6.2831855 6.2831855 6.2831855 6.2831855 6.2831855 6.2831855
6.2831855 6.2831855 6.2831855 6.2831855 6.2831855 6.2831855 6.2831855 6.2831855
6.2831855 6.2831855 6.2831855 6.2831855 6.2831855 6.2831855 6.2831855 6.2831855
6.2831855 6.2831855 6.2831855 6.2831855 6.2831855 6.2831855 6.2831855 6.2831855
6.2831855 6.2831855 6.2831855 6.2831855

t_bc_ub f4 [100, 1]
00000000: 0000 0000 b57e 253c b57e a53c 103e f83c
00000010: b57e 253d 62de 4e3d 103e 783d dece 903d
00000020: b57e a53d 8c2e ba3d 62de ce3d 398e e33d
00000030: 103e f83d f376 063e dece 103e ca26 1b3e
00000040: b57e 253e a0d6 2f3e 8c2e 3a3e 7786 443e
00000050: 62de 4e3e 4e36 593e 398e 633e 24e6 6d3e
00000060: 103e 783e fd4a 813e f376 863e e9a2 8b3e
00000070: dece 903e d4fa 953e ca26 9b3e bf52 a03e
00000080: b57e a53e abaa aa3e a0d6 af3e 9602 b53e
00000090: 8c2e ba3e 815a bf3e 7786 c43e 6db2 c93e
000000a0: 62de ce3e 580a d43e 4e36 d93e 4362 de3e
000000b0: 398e e33e 2fba e83e 24e6 ed3e 1a12 f33e
000000c0: 103e f83e 056a fd3e fd4a 013f f8e0 033f
000000d0: f376 063f ee0c 093f e9a2 0b3f e438 0e3f
000000e0: dece 103f d964 133f d4fa 153f cf90 183f
000000f0: ca26 1b3f c5bc 1d3f bf52 203f bae8 223f
00000100: b57e 253f b014 283f abaa 2a3f a540 2d3f
00000110: a0d6 2f3f 9b6c 323f 9602 353f 9198 373f
00000120: 8c2e 3a3f 86c4 3c3f 815a 3f3f 7cf0 413f
00000130: 7786 443f 721c 473f 6db2 493f 6748 4c3f
00000140: 62de 4e3f 5d74 513f 580a 543f 53a0 563f
00000150: 4e36 593f 48cc 5b3f 4362 5e3f 3ef8 603f
00000160: 398e 633f 3424 663f 2fba 683f 2950 6b3f
00000170: 24e6 6d3f 1f7c 703f 1a12 733f 15a8 753f
00000180: 103e 783f 0ad4 7a3f 056a 7d3f 0000 803f
0.0 0.01010101 0.02020202 0.030303031 0.04040404 0.05050505 0.060606062 0.07070707
0.08080808 0.09090909 0.1010101 0.11111111 0.121212125 0.13131313 0.14141414 0.15151516
0.16161616 0.17171717 0.18181819 0.1919192 0.2020202 0.21212122 0.22222222 0.23232323
0.24242425 0.25252524 0.26262626 0.27272728 0.28282827 0.2929293 0.3030303 0.3131313
0.32323232 0.33333334 0.34343433 0.35353535 0.36363637 0.37373737 0.3838384 0.3939394
0.4040404 0.41414142 0.42424244 0.43434343 0.44444445 0.45454547 0.46464646 0.47474748
0.4848485 0.4949495 0.5050505 0.5151515 0.5252525 0.53535354 0.54545456 0.5555556
0.56565654 0.57575756 0.5858586 0.5959596 0.6060606 0.61616164 0.6262626 0.6363636
0.64646465 0.65656567 0.6666667 0.67676765 0.68686867 0.6969697 0.7070707 0.7171717
0.72727275 0.7373737 0.74747473 0.75757575 0.7676768 0.7777778 0.7878788 0.7979798
0.8080808 0.8181818 0.82828283 0.83838385 0.8484849 0.85858583 0.86868685 0.8787879
0.8888889 0.8989899 0.90909094 0.9191919 0.9292929 0.93939394 0.94949496 0.959596
0.969697 0.97979796 0.989899 1.0

weight f4 [50, 2]
00000000: aa53 9bbe e12f 4c3c 2009 3a3e 1bc6 dbbd
00000010: 0987 103f 56e3 8ebe 607a 6dbe 72f1 bc3c
00000020: ce4f b339 39a1 97be f867 673d bbb2 01be
00000030: 0bfb 023f 5cd3 45be 8f98 513e 587e b9bd
00000040: 1e04 943e 00a2 963e 0f04 1c3e d26d 8abe
00000050: c83b 3dbd 4c7f 653e 1232 a13e c695 4fbe
00000060: 1a75 cbbe 1e78 64be 3549 75be 8b1f ac3d
00000070: da9a aabe 6063 463e 107d 4fbe 67d8 753e
00000080: 5606 70be 72a5 183e ccc9 1e3e 5d00 323d
00000090: 445f cb3e 9936 7ebd b420 e03c 157c 963e
000000a0: 40ac 28be 8702 713e cf80 e23b 5a4a 3d3e
000000b0: 960d 09be 9d7f 633e acc1 6dbe c8cd 9dbe
000000c0: b90a eebd cd9d 45bd 1b26 e9bd 2662 25be
000000d0: f1b9 38be b375 debd 9338 773e 2474 a2be
000000e0: 0c09 603e 3694 2ebe d26b f9bd f0b0 183e
000000f0: e74e 00be 167a 213e e850 19be 5a99 fd3d
00000100: bd88 fdbd 9c38 0d3e 5d52 37bd 27db f43d
00000110: 0b75 73be b670 31bd 8519 bdbc 32c0 93be
00000120: 2d41 46be bfd4 73bd d9a9 033e 721d 123e
00000130: d71e 343e 5997 9fbd 4ca7 d93e 71f5 443d
00000140: 6462 3abe 4957 d3bd 586b 073f 7d89 893e
00000150: 04e6 963e 2433 83be 2acc 183c 245d bfbd
00000160: 1ae3 68be d86c 16be e380 1abd d826 5a3e
00000170: 67c2 6abe 0f75 9e3d 179b aebe 49c3 b23e
00000180: 3299 4abe 2239 86be 9fc5 f43d c51f c2be
-0.30337268 0.012462587 0.18167543 -0.10731145 0.5645605 -0.2790782 -0.23191214 0.023064349
0.00034201 -0.2961519 0.056495637 -0.12665837 0.5116431 -0.19318908 0.20468353 -0.09057301
0.2890939 0.2942047 0.15235923 -0.2703691 -0.04619959 0.22411841 0.31483513 -0.20271978
-0.3973778 -0.22311446 -0.23953708 0.08404454 -0.33321267 0.19373846 -0.20262551 0.24008332
-0.23439917 0.14906862 0.15506667 0.043457378 0.3972112 -0.062063787 0.027359344 0.29391542
-0.16471958 0.2353612 0.006912328 0.18485394 -0.13384089 0.2221665 -0.23218411 -0.3082106
-0.11623139 -0.048246194 -0.11384221 -0.16150722 -0.18039681 -0.10862293 0.24142675 -0.31729233
0.21878451 -0.17048725 -0.12178768 0.14911246 -0.12530099 0.15769228 -0.1497227 0.12382765
-0.123795964 0.13791126 -0.044756282 0.119558625 -0.23775117 -0.04332038 -0.023083458 -0.2885757
-0.193608 -0.059529062 0.1285776 0.14269045 0.1758989 -0.07792539 0.4251045 0.048085634
-0.18201596 -0.10319383 0.5289817 0.26862708 0.29472363 -0.25624955 0.00932602 -0.09343937
-0.22742882 -0.14689958 -0.037720572 0.2130388 -0.22925721 0.07737171 -0.341027 0.34914616
-0.19785002 -0.26215464 0.11951756 -0.37914863

bias f4 [50]
00000000: c501 e63c 7086 8fbd b2a6 c4bc ff5b 963d
00000010: 81c5 a8bc 9cf7 11bd 0e0f d1ba a76c d0bc
00000020: b854 4a3d b6bc cfbc d16e da3c 5aad 903c
00000030: 5519 f73c 3018 08bc 1996 dd3d b6c7 5d3d
00000040: 65b6 193d 2e12 d4bd 7ea6 c5bd 1dbf 78bc
00000050: 4656 493d 48f8 333d d627 07bd eb75 2b3c
00000060: d4f3 f5bb 091d 44bc 01d0 a83c c341 8bbd
00000070: 6362 7dbd 7266 403d 305f 393c 0cae aa3d
00000080: 2f36 32bd 194f f53c ecda 1c3e 8de7 82bc
00000090: db96 ef3c bd8c a83c 87ec 3e3c 371b e8ba
000000a0: 0629 903c b38e a1bb dd1f bfbd 6989 74bc
000000b0: a75a 41bc ebdb 2c3c 9b8b 173e 9641 b93c
000000c0: ac19 203c 4f1b 3b3c
0.028077016 -0.07008064 -0.024005268 0.073417656 -0.02060199 -0.03563653 -0.0015949921 -0.025442434
0.0493972 -0.02535854 0.02666417 0.017660785 0.030163446 -0.008306548 0.108196445 0.054145537
0.03752746 -0.1035503 -0.096508965 -0.015182284 0.049154542 0.04393795 -0.032996975 0.010465126
-0.007505873 -0.011969813 0.020606996 -0.067996524 -0.061861407 0.0469727 0.011314198 0.08333978
-0.043508705 0.029944943 0.15317887 -0.015979553 0.029246738 0.020574922 0.011653072 -0.0017708306
0.017597686 -0.004930341 -0.09332249 -0.014925339 -0.011801398 0.010550479 0.14799349 0.022614282
0.009771746 0.011420085

weight f4 [50, 50]
00000000: 6120 853c 81a1 e2bd 495e bebd 922a 19bd
00000010: e70a be3d 1030 71bc 1ab1 1cbe 7f37 b6bc
00000020: 46dd e93c f547 683c a455 1b3d b26a a8bd
00000030: 2b83 533d 704f 673c a52f fabd f29e 1bbe
00000040: d641 d43c 5e82 2bbe d2b7 d03d 58a7 04be
00000050: 7d99 3d3e 2289 abbe 398e 103c a2be 053e
00000060: 58f9 37be e076 b63d 58f6 16bf c638 1cbb
00000070: 51c9 2ebe 799f ffbc 7868 093d 665b 15be
00000080: 3251 dd3d 5ca8 a5be 5747 f3bd 93e0 4bbe
00000090: d075 463e 3d60 913d 3796 163e 1e05 11bd
000000a0: 9ca6 1e3e 6aec eebc d889 383e d4a5 00bd
000000b0: 460f 143e a931 42be c708 a43c 8451 48be
000000c0: 259c 77bd 483c d9bc c02b 1d3e ad50 7fba
000000d0: 2d32 093e db54 263e cab8 eabd 21a9 a6be
000000e0: 76d5 833e a334 c53c e572 a23e e7b4 a63d
000000f0: 2a61 89bc c76b 26be 3f98 0abd 0e3b c2bd
00000100: bc2e 6dbd f10d 163e c592 43bd d259 d3bd
00000110: 5b7f edbc 5c3b 64be 14da e3bc c2c9 553e
00000120: 4160 cbbc 26b4 713e 5e5c 17be 6a76 38bd
00000130: 1cf0 83bd cca4 663e ef4a 743e ebcb 0fbe
00000140: f7e5 d03d 208a 00be e124 67bd 4c7c e5bd
00000150: 67bb 893d fcc9 0c3e aca7 d5ba 990f 91be
00000160: 0665 30be 5ea9 893b b913 263e f5a6 a5bd
00000170: 5607 133e 3618 54be 5fb8 673d fec9 50be
00000180: 204d a2bb d4a9 573e 1d16 87be 42eb 06be
00000190: e433 b5bb 42c9 0f3e df6c 33be 38d1 6bbe
000001a0: 3a64 02bd b393 a83d 7f46 a2bd 37f4 7b3e
000001b0: 214e 2c3e 0c37 5bbe 9e43 ce3d f350 04be
000001c0: 869f d83d 3719 3cbd 6c5a 6f3e ab28 333d
000001d0: 092d 19bd 2b51 08bd b237 b13d 0841 54bc
000001e0: 8734 7d3e 9fec 83be 97b0 76bd c929 07be
000001f0: 1ce4 db3c 52af d4bb 146d 483e 01c2 2dbe
00000200: de24 0a3d ceef 8f3d 103f e73d b2f1 d9bd
00000210: b30b a9bc 77c4 113e c38f d4bd 3acd 583c
00000220: fb32 3ebd 7b44 8bbe 77fd 033d 0e63 113d
00000230: 46aa 2dbd b8fa 73bc ef95 cc3d 7031 f8bd
00000240: d058 2c3e 39ee 6dbd e5d2 9dbd c008 92bc
00000250: a478 a4bd 0b47 cdbe 43b8 e23c cf54 3b3e
00000260: 038d 0c3c 1ae2 afbd 031c 88be 2538 5bbd
00000270: bb61 9d3e e085 c8be 9eea f53d 6313 eabd
00000280: 0e94 d6bc 67e2 e73c 0370 f53d ae17 8dbd
00000290: 298f 7e3d 4da2 a0bd 95c7 abbd 871a d8bd
000002a0: f7f1 ebbd 53d2 473e 428b b13d 10dc 57be
000002b0: 3512 333e c513 763e bc2a d83d ceb1 51bc
000002c0: 931f 60bd 4723 0bbe 9626 a83c 6d5b 823e
000002d0: be74 e3bd 40d9 30bd b945 0a3d 1608 8dbd
000002e0: 436c babd e037 e7bc 02fe f3bd 5dc9 10be
000002f0: 065d 35be 1b2a d1bd 4885 87bd badf 123e
00000300: 722e 2a3c 36b3 0fbe 11c9 47bd 1e7b 14bd
00000310: fd31 0b3d b892 9d3d 4ae2 403e 3242 883e
00000320: 766f 6e3e cf40 acbe 51b1 29be bcef f9bd
00000330: d69d 80be f61a a0bd 17c5 70be 1462 873d
00000340: ac28 913d 8f89 9cbe ad5a de3d cbc3 28be
00000350: 3565 b1bc f7d2 283e 21c2 963e 215e 6bbd
00000360: ac30 0cbd 0ede 5f3d 3887 24be 23c5 edbc
00000370: 0c69 303e 105a 8f3e 5d86 d63b 2788 0c3e
00000380: 3b34 553e af34 3c3e c342 c4bd 4a29 fabd
00000390: a154 6ebe 9bc6 213e b308 4cbd 051b 193e
000003a0: 107f 0cbe 30cc 403e 240a 1b3e f340 24be
000003b0: ff33 e0bc b856 79bc cd79 003e 6015 b43c
000003c0: d16b a53d 0276 73be dc26 9abe 0a4d aebb
000003d0: 37ae d4bc 4963 6c3e b6a9 e73d 2f83 923c
000003e0: 5cac 673e a4af 87bc 50eb 023e fd2e 8cbc
000003f0: 20e7 903d cc89 a4bc 4cd4 473e 3297 543e
0.016250791 -0.11065961 -0.09295327 -0.037394114 0.09279423 -0.014720932 -0.15301934 -0.02224326
0.028547894 0.014177312 0.03792347 -0.082234755 0.051638763 0.0141180605 -0.12216119 -0.15197352
0.0259103 -0.1674895 0.10191311 -0.12954462 0.18515582 -0.33503062 0.008822971 0.13061002
-0.17966211 0.08909392 -0.5896964 -0.002383755 -0.17068984 -0.031203972 0.033546895 -0.14585647
0.108065024 -0.3235501 -0.11878841 -0.19909887 0.1938088 0.07098434 0.1470574 -0.03540527
0.15493244 -0.029165465 0.18021333 -0.031408146 0.14458951 -0.18964256 0.020023717 -0.19562346
-0.060451645 -0.026518002 0.1534872 -0.00097394997 0.13398047 0.16243307 -0.11461027 -0.3255091
0.25748795 0.02407295 0.31728283 0.08139973 -0.016769964 -0.16252051 -0.0338366 -0.0948392
-0.057905897 0.14653756 -0.047747392 -0.10319866 -0.028991392 -0.22288269 -0.027813949 0.20877746
-0.02482617 0.23603877 -0.14781329 -0.045034803 -0.064422816 0.22523803 0.2385671 -0.14042632
0.10200112 -0.1255269 -0.056431655 -0.11205348 0.06725197 0.13748926 -0.001630058 -0.28332213
-0.17226037 0.0042010983 0.16218461 -0.08088485 0.14358267 -0.2071236 0.056572314 -0.20389554
-0.0049530417 0.21060878 -0.2638406 -0.13175681 -0.0055298675 0.14041618 -0.17522 -0.2302903
-0.031833865 0.082312964 -0.07923602 0.2460488 0.16826679 -0.21407717 0.10071491 -0.12921505
0.10577302 -0.045922484 0.23374337 0.043739956 -0.037396464 -0.033280533 0.08653201 -0.012954958
0.24727069 -0.25766465 -0.060227003 -0.13199534 0.02684217 -0.0064906264 0.1957286 -0.16968538
0.033726566 0.07028161 0.11291325 -0.10641803 -0.020635461 0.14235102 -0.10378983 0.013232524
-0.046435338 -0.27200684 0.032224145 0.035494857 -0.042398714 -0.014891319 0.09989535 -0.121188045
0.16830754 -0.058088515 -0.077062406 -0.017826438 -0.08030823 -0.40093264 0.027675753 0.1829407
0.008578542 -0.08588047 -0.2658387 -0.05352034 0.30738625 -0.3916464 0.1200764 -0.11429479
-0.026193645 0.0283062 0.11984255 -0.06889282 0.062148247 -0.078434564 -0.083876766 -0.10551935
-0.115207605 0.19513826 0.086691394 -0.21080041 0.17487414 0.24030979 0.10555026 -0.01279874
-0.05471761 -0.13587676 0.020526212 0.25460377 -0.11106251 -0.043175936 0.0337579 -0.06886308
-0.091026805 -0.028224885 -0.119136825 -0.14139314 -0.17711267 -0.10213109 -0.06617218 0.14343157
0.01038705 -0.14033207 -0.048775736 -0.036250226 0.03398322 0.07694 0.18836322 0.26613003
0.23284706 -0.33643195 -0.16571547 -0.12203929 -0.2512042 -0.078176424 -0.23512684 0.06610504
0.07087836 -0.305737 0.10857139 -0.16480939 -0.021654705 0.16486727 0.29444984 -0.057462815
-0.034226105 0.054655127 -0.16067207 -0.029024666 0.17227572 0.279984 0.006546779 0.13723813
0.20820706 0.18379472 -0.09583046 -0.122149065 -0.23274471 0.15798418 -0.049812984 0.14951713
-0.13720345 0.18827891 0.15140587 -0.16040401 -0.027368544 -0.015218429 0.12546463 0.021982849
0.08077205 -0.23775485 -0.30107772 -0.0053192424 -0.025961978 0.2308475 0.11311667 0.017884819
0.22624344 -0.016563244 0.12785077 -0.01711225 0.070753336 -0.020085238 0.19514579 0.20760801

bias f4 [50]
00000000: b4ea d03c 4d8b 8d3c b218 79bc c1c5 c5bc
00000010: 5460 0f3d 5874 ea3c d147 ee3c e79e a03c
00000020: 79da ae3c dbfe e5bc e212 8dbc 3dac f73c
00000030: 1055 66bc 1149 283d ff2c ffbc 00b9 043a
00000040: bb5d 903c d486 b8bc 34a6 443d f685 acbc
00000050: 5263 cb3c e3f8 e2bc ffd6 fa3b a7f7 c93c
00000060: 093a 573b a923 fdba 7098 fbbc 08a1 433c
00000070: c276 ea3c 6624 ab3c 7d1e 793d c534 0a3d
00000080: aeb1 ce3c 16a9 bebc 927c e9bc febd 853c
00000090: a998 99bc 9d79 b93b e86c f8bc 87cf 143d
000000a0: 5509 57bd 8df7 ecbc bab5 00bd 20bc 693d
000000b0: 4995 d83c adc2 c33c 6db2 89bd c74c 4b3c
000000c0: f798 c43c fe09 cbbc
0.02550254 0.017278338 -0.015203642 -0.024142148 0.035003975 0.02861993 0.02908698 0.01960702
0.02134441 -0.028075626 -0.017220918 0.030233497 -0.014058366 0.041085307 -0.031149385 0.00050629675
0.01762282 -0.022525229 0.048010066 -0.021059971 0.024827633 -0.027706569 0.007655024 0.024654223
0.0032840988 -0.0019312996 -0.030712336 0.011940248 0.028621081 0.02089138 0.06082009 0.03374173
0.025231209 -0.023273986 -0.028501783 0.016325947 -0.018749552 0.0056602494 -0.030325368 0.036330726
-0.052499134 -0.028926635 -0.031423308 0.057064176 0.026438372 0.02389654 -0.06723485 0.012408442
0.02399872 -0.024785038

weight f4 [1, 50]
00000000: b530 a2bd 5dfb 2bbe 3116 9d3d fe9c c43e
00000010: 5f37 a9be 3a86 12be b15d bfbe f181 5ebe
00000020: f24d 683e e108 113e 89b0 b53e 0b64 0bbe
00000030: 3d0e 293e fb12 4bbe eb81 a83d ea19 3f3b
00000040: 2037 1b3e 2a4c 49be 32b3 9bbc 0ccd ad3d
00000050: b2a9 b5be efe5 0e3d e3ee 8dbe f2e3 1bbe
00000060: 1037 2abc e19a 11be 8188 82bd 4c2d 05be
00000070: 85fc 66be 1ce3 8bbd 62c1 11bd 6e36 6ebe
00000080: e8e7 61be ab47 d33d f42d c5bc be8a af3e
00000090: b7c9 c7bd d658 a1bd f739 043e 8388 45bc
000000a0: 4d64 163e a4e4 0f3e f482 bf3d f7f6 4e3c
000000b0: 69ad ea3e db4e 80be 3070 9f3d 1efc 19be
000000c0: 4105 25bd 0935 fd3d
-0.079194464 -0.16795106 0.07670248 0.38401026 -0.33050057 -0.14309016 -0.37376168 -0.21729256
0.22685984 0.14163543 0.35486248 -0.13612382 0.16509338 -0.19831459 0.08227905 0.0029159733
0.15157747 -0.1965796 -0.019006345 0.08486375 -0.3548103 0.03488725 -0.2772132 -0.15223673
-0.0103891045 -0.14219238 -0.06373692 -0.1300556 -0.22557266 -0.06830427 -0.035584815 -0.23262951
-0.22061121 0.10316404 -0.024069764 0.3428554 -0.09755271 -0.07878272 0.12912737 -0.012056473
0.14686699 0.14052063 0.09351149 0.012632123 0.45835426 -0.25060162 0.0778507 -0.15037581
-0.040288214 0.12363631

G f4 [100, 1]
00000000: 0000 0000 0000 0000 0000 0000 0000 0000
00000010: 0000 0000 0000 0000 0000 0000 0000 0000
00000020: 0000 0000 0000 0000 0000 0000 0000 0000
00000030: 0000 0000 0000 0000 0000 0000 0000 0000
00000040: 0000 0000 0000 0000 0000 0000 0000 0000
00000050: 0000 0000 0000 0000 0000 0000 0000 0000
00000060: 0000 0000 0000 0000 0000 0000 0000 0000
00000070: 0000 0000 0000 0000 0000 0000 0000 0000
00000080: 0000 0000 0000 0000 0000 0000 0000 0000
00000090: 0000 0000 0000 0000 0000 0000 0000 0000
000000a0: 0000 0000 0000 0000 0000 0000 0000 0000
000000b0: 0000 0000 0000 0000 0000 0000 0000 0000
000000c0: 0000 0000 0000 0000 0000 0000 0000 0000
000000d0: 0000 0000 0000 0000 0000 0000 0000 0000
000000e0: 0000 0000 0000 0000 0000 0000 0000 0000
000000f0: 0000 0000 0000 0000 0000 0000 0000 0000
00000100: 0000 0000 0000 0000 0000 0000 0000 0000
00000110: 0000 0000 0000 0000 0000 0000 0000 0000
00000120: 0000 0000 0000 0000 0000 0000 0000 0000
00000130: 0000 0000 0000 0000 0000 0000 0000 0000
00000140: 0000 0000 0000 0000 0000 0000 0000 0000
00000150: 0000 0000 0000 0000 0000 0000 0000 0000
00000160: 0000 0000 0000 0000 0000 0000 0000 0000
00000170: 0000 0000 0000 0000 0000 0000 0000 0000
00000180: 0000 0000 0000 0000 0000 0000 0000 0000
0.0 0.0 0.0 0.0 0.0 0.0 0.0 0.0
0.0 0.0 0.0 0.0 0.0 0.0 0.0 0.0
0.0 0.0 0.0 0.0 0.0 0.0 0.0 0.0
0.0 0.0 0.0 0.0 0.0 0.0 0.0 0.0
0.0 0.0 0.0 0.0 0.0 0.0 0.0 0.0
0.0 0.0 0.0 0.0 0.0 0.0 0.0 0.0
0.0 0.0 0.0 0.0 0.0 0.0 0.0 0.0
0.0 0.0 0.0 0.0 0.0 0.0 0.0 0.0
0.0 0.0 0.0 0.0 0.0 0.0 0.0 0.0
0.0 0.0 0.0 0.0 0.0 0.0 0.0 0.0
0.0 0.0 0.0 0.0 0.0 0.0 0.0 0.0
0.0 0.0 0.0 0.0 0.0 0.0 0.0 0.0
0.0 0.0 0.0 0.0

exp_avg f4 [50, 2]
00000000: 0d26 a03b 4883 2dbc 9bdf 5c3c af85 723b
00000010: 27e7 d6bc 3bfb 863c 6ed8 8d39 75fa bfbb
00000020: f2ff 7bba 271c 983b 2634 72bc 569f 4d3c
00000030: 6cd7 aabc f0dc 193c dbf7 32bc 94da d13b
00000040: ea64 fa39 bd1d 9cba 52d8 31bd 5d42 9a3c
00000050: db90 693c 9376 97bb 16f7 acbc 869f cd3b
00000060: 6f29 ffba 29b6 59bb 83e3 fb3b 2dce d2bb
00000070: ed83 04b9 a9ec 83bc 2ade 363c 6f03 86bb
00000080: 465c e239 0501 cebb 2963 f039 441a 443a
00000090: cb0d 083a ca4f 5a3c 6e10 c2bc 5cbb f2bb
000000a0: bdee e93c 0b23 80bc 24ef 523c c447 24bc
000000b0: 499c 663c 3cac 70bb 0efc 1a3c 0eaa 8fbb
000000c0: 54c2 7c3c 75e7 2bbc d1bf 53bb 8520 7cbb
000000d0: 8f00 b73b 8bb7 adbb a01f f5bb 640d 813c
000000e0: c608 2ebc bbf3 953c feec 3a3c 418b 49bc
000000f0: 6c56 283c 0354 e6b9 42e0 c7bb 48ad 07bb
00000100: 2891 643c 2388 45bb f6d4 ce3c cb35 79bc
00000110: 05b5 103c 6f9f 72bc 1d56 943b de60 ab3b
00000120: b4f4 c43b f5bc 90bb e0f2 e9ba 3234 c33a
00000130: a6a8 37bc 6ebf a93b c917 61bb 4185 543b
00000140: 0930 12bc 9718 4d3a 62eb 64bc 0a8e c13b
00000150: 397a 34bb 1481 5b3c fe34 74bc 88d7 b13b
00000160: 3599 55bb 758f e53a e892 8e3c 775a 21bc
00000170: 6005 3b3c 381c 74bc 3de9 3c3c a795 2bbc
00000180: 2720 353c 0bd3 06bc df59 473c 4603 103c
0.0048873485 -0.010590382 0.013481046 0.003700595 -0.026233269 0.016477218 0.00027054868 -0.005858714
-0.0009613029 0.004642028 -0.014782941 0.012550196 -0.020854674 0.0093910545 -0.010923351 0.0064042304
0.00047758903 -0.0011910718 -0.04341919 0.018830473 0.014255728 -0.0046222894 -0.021113914 0.00627512
-0.0019467304 -0.0033220148 0.0076870336 -0.0064332695 -0.00012637647 -0.01610406 0.0111613665 -0.004089765
0.00043174828 -0.0062867426 0.00045850247 0.00074807205 0.00051900436 0.013324687 -0.023689475 -0.007407589
0.028556222 -0.01564171 0.012874398 -0.010026876 0.014075347 -0.0036723753 0.009459509 -0.004384286
0.015427191 -0.010492195 -0.0032310376 -0.0038471532 0.0055847834 -0.005301421 -0.0074805766 0.015753455
-0.010622209 0.018304696 0.011409042 -0.012301267 0.010274511 -0.00043931612 -0.0060997317 -0.002070265
0.013950624 -0.0030140958 0.025248032 -0.015210579 0.008832221 -0.01480852 0.004526867 0.0052300533
0.006010616 -0.0044170567 -0.0017848872 0.0014892875 -0.0112096425 0.005180291 -0.0034346452 0.0032428058
-0.008922585 0.00078237936 -0.013972135 0.005906825 -0.002753867 0.013397474 -0.014905212 0.0054273047
-0.003259254 0.0017514067 0.017404035 -0.009848229 0.011414856 -0.014899306 0.011530218 -0.010472692
0.011055029 -0.0082290275 0.012167423 0.008789843

exp_avg_sq f4 [50, 2]
00000000: b8b4 3d39 dd26 af38 d7a2 9a3a 2101 0237
00000010: 5919 a63a 6238 b039 f900 8738 b4dd ba37
00000020: 493a 033b 360f 5f37 2e9c 283d f6e8 1939
00000030: 6037 573a 1100 1739 2649 583b 404b 8a38
00000040: e17a 0238 0e8b f134 56ac 3a3b 6055 8f39
00000050: da0e 2c3c 3cb0 4b38 31ef 173b 89ea 2539
00000060: 81fd 8639 84c2 6c38 ac16 dc3a acb2 e838
00000070: 7f3c ce37 20ef 0039 3cf8 9639 4719 5237
00000080: 5a0d 9939 baa3 4b38 1e72 9e3a 1a91 a235
00000090: 1b1b 9137 e623 c538 99f0 133d e5b0 8e38
000000a0: 414f 963a 8499 1739 5f3f 213d b1a3 a938
000000b0: f958 133a 1b08 ed36 6687 193a c0fd 5f38
000000c0: b82e 013c 3c7d bb38 f4fd c339 a0a9 f537
000000d0: db17 a63a 80fb 4038 7baf 2e3b 968f 1839
000000e0: 8e8f bc39 7b06 5b39 3f81 113a dc39 a638
000000f0: 59f4 b73a 6ebd 2c37 83c7 6b3a fef2 bc35
00000100: ce92 e73a 2ad8 2d37 3f36 a83b e3d2 1d39
00000110: a162 4f39 a1d7 e438 a77a 9c38 a885 9237
00000120: d33d a339 b875 fc37 23cb 4e39 da7e 4f36
00000130: 19d3 d339 58cc 8937 e410 8f38 d021 8337
00000140: 4ef8 e63a cfac 9637 6df4 3a3a ccb0 4439
00000150: fbe6 9b37 afee d938 7c74 283b f947 8237
00000160: a9cc 993a 8479 c337 57c8 923b e1e8 c138
00000170: e9d9 763a d795 e938 91ef ba39 1db0 bd38
00000180: 4b44 b33b c4c3 8a38 766c b93c dc12 8a38
0.00018091768 8.351889e-05 0.0011797798 7.748867e-06 0.0012672349 0.00033611344 6.437483e-05 2.2276166e-05
0.0020023754 1.3295377e-05 0.04116457 0.00014678002 0.00082098506 0.00014400507 0.0033002584 6.594369e-05
3.1108855e-05 4.4990924e-07 0.0028484068 0.00027338695 0.010501588 4.8563103e-05 0.002318334 0.00015822997
0.00025747347 5.644794e-05 0.0016791425 0.00011095902 2.4585284e-05 0.00012296112 0.00028795179 1.2522861e-05
0.00029192382 4.8551454e-05 0.0012088453 1.2112171e-06 1.7297969e-05 9.4003786e-05 0.036118124 6.804037e-05
0.0011467711 0.00014457671 0.039367076 8.089038e-05 0.0005620863 7.064094e-06 0.0005856663 5.3403666e-05
0.007884674 8.9401816e-05 0.00037382508 2.9285264e-05 0.0012671904 4.6010595e-05 0.0026654887 0.0001454934
0.0003596511 0.00020887882 0.000555057 7.926274e-05 0.0014034613 1.0296104e-05 0.0008994268 1.4077812e-06
0.0017667653 1.0361933e-05 0.0051334198 0.00015051248 0.000197778 0.00010912051 7.4615054e-05 1.7466795e-05
0.00031135845 3.0095558e-05 0.00019721365 3.091924e-06 0.00040402336 1.6426828e-05 6.8219175e-05 1.5632162e-05
0.0017621608 1.7961864e-05 0.0007131759 0.00018757879 1.8584999e-05 0.000103918246 0.0025704196 1.5530723e-05
0.0011733967 2.3302397e-05 0.004479449 9.246334e-05 0.00094166264 0.000111382156 0.00035655175 9.045026e-05
0.0054707876 6.616817e-05 0.022634726 6.5838656e-05

exp_avg f4 [50]
00000000: 66ac 08bc 5ad7 be3b 93a4 013c b992 d4bb
00000010: a159 6d3b 0716 cf3b 71ed 413b d757 693b
00000020: f05b 74ba c7d5 453c c36c 8fbb cf43 803a
00000030: d036 8dbb 27da 64bb ebf6 60bc 0ac9 ccba
00000040: 21a8 c6bb 723f 1a3b 5546 3b3c 3a0b d3bb
00000050: bf32 25bc 396d bdbb 6d67 b7ba 95de caba
00000060: 18c7 95bb 3db7 afba 200c 52bb 9182 703c
00000070: 9145 733c 2a4b 0abc 2d43 e339 878b e3ba
00000080: 1ace ceb9 1f4a 23bc 9cad 43bc 49d3 8f3b
00000090: dcb2 4cbb fafc b9b6 d94d 1b3b b9f2 2f3b
000000a0: c6a8 08bb 4b05 3f3b 23fa 3c3c d43b 0f3b
000000b0: 6b7b fbb9 0965 cabb 778c 3bbc 873d 00bc
000000c0: d729 cfba 7d56 d83b
-0.008341884 0.0058240118 0.007912773 -0.0064872173 0.0036216753 0.0063197645 0.002959099 0.0035605335
-0.0009321561 0.012074894 -0.004376979 0.0009785834 -0.0043095127 -0.0034920068 -0.013730745 -0.0015623879
-0.006062523 0.0023536352 0.011430343 -0.0064405473 -0.0100829 -0.0057808426 -0.0013992615 -0.0015477712
-0.004570853 -0.001340605 -0.0032050684 0.014679567 0.014848129 -0.008440772 0.00043346864 -0.0017360308
-0.0003944494 -0.009966402 -0.011943247 0.004389201 -0.0031234538 -5.54288e-06 0.0023697524 0.0026847555
-0.002085255 0.0029147442 0.011534247 0.0021855729 -0.00047966404 -0.006176595 -0.011447064 -0.007827169
-0.0015805316 0.006602107

exp_avg_sq f4 [50]
00000000: 3a29 0739 d438 2838 014f 2839 0a45 2538
00000010: 2e00 e636 f8ee 1c39 f1f5 af38 2b67 5039
00000020: 635d 3236 7ed4 4e39 0541 1d38 1ac7 cd39
00000030: a0b4 3b39 bb20 8f39 49c3 f938 6347 6536
00000040: 3d20 1a39 a52a 9136 77c7 ca38 e853 5f38
00000050: 27b6 9538 25d7 d638 e108 e036 e5b9 9338
00000060: 9d9f c338 0eeb 7138 7f12 af38 5508 073a
00000070: 1ff1 3439 e747 3938 b375 8a38 06e2 1936
00000080: 25bb 0138 1a00 ac38 0c81 b838 3c77 1737
00000090: 324a 9238 f189 0537 74ef 8537 cb1a 1e38
000000a0: 6b3b 9e38 203f dc39 2326 d738 360f 3e38
000000b0: 8ff6 e738 7037 a238 c521 9c38 a087 af38
000000c0: 43b3 6a38 50d9 5838
0.00012889961 4.0107247e-05 0.0001605116 3.9403363e-05 6.854555e-06 0.00014966342 8.3904604e-05 0.00019874859
2.6578425e-06 0.0001972485 3.749227e-05 0.0003924899 0.00017900998 0.00027299472 0.0001190962 3.4165212e-06
0.00014698594 4.326301e-06 9.669264e-05 5.3245487e-05 7.138802e-05 0.00010244389 6.676754e-06 7.044132e-05
9.328055e-05 5.767779e-05 8.3480954e-05 0.0005151083 0.00017255962 4.41744e-05 6.602276e-05 2.293034e-06
3.093029e-05 8.201618e-05 8.7978406e-05 9.028063e-06 6.9756425e-05 7.959535e-06 1.596634e-05 3.769509e-05
7.5450946e-05 0.00042008702 0.000102591024 4.5313696e-05 0.000110608635 7.735088e-05 7.44495e-05 8.3699124e-05
5.5956898e-05 5.17008e-05
