pbc_examples/saved_models/convection_beta-1.0_layers-50,50,50,50,1_L-2.0_WD-0_init-uniform_batch_size256.pt (torch, 114093 bytes, 36 tensors)

x_u f4 [256, 1]
0	0x00000000	0.0
1	0x3cc90fdb	0.024543693
2	0x3d490fdb	0.049087387
3	0x3d96cbe4	0.07363108
4	0x3dc90fdb	0.09817477
5	0x3dfb53d1	0.12271846
6	0x3e16cbe4	0.14726216
7	0x3e2feddf	0.17180584
8	0x3e490fdb	0.19634955
9	0x3e6231d6	0.22089323
10	0x3e7b53d1	0.24543692
11	0x3e8a3ae6	0.2699806
12	0x3e96cbe4	0.2945243
13	0x3ea35ce2	0.319068
14	0x3eafeddf	0.3436117
15	0x3ebc7edd	0.3681554
16	0x3ec90fdb	0.3926991
17	0x3ed5a0d8	0.41724277
18	0x3ee231d6	0.44178647
19	0x3eeec2d4	0.46633017
20	0x3efb53d1	0.49087384
21	0x3f03f267	0.5154175
22	0x3f0a3ae6	0.5399612
23	0x3f108365	0.5645049
24	0x3f16cbe4	0.5890486
25	0x3f1d1463	0.6135923
26	0x3f235ce2	0.638136
27	0x3f29a560	0.6626797
28	0x3f2feddf	0.6872234
29	0x3f36365e	0.7117671
30	0x3f3c7edd	0.7363108
31	0x3f42c75c	0.7608545
32	0x3f490fdb	0.7853982
33	0x3f4f5859	0.8099418
34	0x3f55a0d8	0.83448553
35	0x3f5be957	0.85902923
36	0x3f6231d6	0.88357294
37	0x3f687a55	0.90811664
38	0x3f6ec2d4	0.93266034
39	0x3f750b52	0.957204
40	0x3f7b53d1	0.9817477
41	0x3f80ce28	1.0062914
42	0x3f83f267	1.030835
43	0x3f8716a7	1.0553788
44	0x3f8a3ae6	1.0799224
45	0x3f8d5f26	1.1044662
46	0x3f908365	1.1290098
47	0x3f93a7a5	1.1535536
48	0x3f96cbe4	1.1780972
49	0x3f99f023	1.2026409
50	0x3f9d1463	1.2271847
51	0x3fa038a2	1.2517283
52	0x3fa35ce2	1.276272
53	0x3fa68121	1.3008157
54	0x3fa9a560	1.3253593
55	0x3facc9a0	1.3499031
56	0x3fafeddf	1.3744467
57	0x3fb3121f	1.3989905
58	0x3fb6365e	1.4235342
59	0x3fb95a9e	1.4480779
60	0x3fbc7edd	1.4726216
61	0x3fbfa31c	1.4971652
62	0x3fc2c75c	1.521709
63	0x3fc5eb9b	1.5462526
64	0x3fc90fdb	1.5707964
65	0x3fcc341a	1.59534
66	0x3fcf5859	1.6198837
67	0x3fd27c99	1.6444274
68	0x3fd5a0d8	1.6689711
69	0x3fd8c518	1.6935148
70	0x3fdbe957	1.7180585
71	0x3fdf0d97	1.7426022
72	0x3fe231d6	1.7671459
73	0x3fe55615	1.7916895
74	0x3fe87a55	1.8162333
75	0x3feb9e94	1.8407769
76	0x3feec2d4	1.8653207
77	0x3ff1e713	1.8898643
78	0x3ff50b52	1.914408
79	0x3ff82f92	1.9389517
80	0x3ffb53d1	1.9634954
81	0x3ffe7811	1.9880391
82	0x4000ce28	2.0125828
83	0x40026048	2.0371265
84	0x4003f267	2.06167
85	0x40058487	2.0862138
86	0x400716a7	2.1107576
87	0x4008a8c7	2.1353014
88	0x400a3ae6	2.1598449
89	0x400bcd06	2.1843886
90	0x400d5f26	2.2089324
91	0x400ef145	2.233476
92	0x40108365	2.2580197
93	0x40121585	2.2825634
94	0x4013a7a5	2.3071072
95	0x401539c4	2.3316507
96	0x4016cbe4	2.3561945
97	0x40185e04	2.3807383
98	0x4019f023	2.4052818
99	0x401b8243	2.4298255
100	0x401d1463	2.4543693
101	0x401ea683	2.478913
102	0x402038a2	2.5034566
103	0x4021cac2	2.5280004
104	0x40235ce2	2.552544
105	0x4024ef01	2.5770876
106	0x40268121	2.6016314
107	0x40281341	2.6261752
108	0x4029a560	2.6507187
109	0x402b3780	2.6752625
110	0x402cc9a0	2.6998062
111	0x402e5bc0	2.72435
112	0x402feddf	2.7488935
113	0x40317fff	2.7734373
114	0x4033121f	2.797981
115	0x4034a43e	2.8225245
116	0x4036365e	2.8470683
117	0x4037c87e	2.871612
118	0x40395a9e	2.8961558
119	0x403aecbd	2.9206994
120	0x403c7edd	2.9452431
121	0x403e10fd	2.969787
122	0x403fa31c	2.9943304
123	0x4041353c	3.0188742
124	0x4042c75c	3.043418
125	0x4044597c	3.0679617
126	0x4045eb9b	3.0925052
127	0x40477dbb	3.117049
128	0x40490fdb	3.1415927
129	0x404aa1fa	3.1661363
130	0x404c341a	3.19068
131	0x404dc63a	3.2152238
132	0x404f5859	3.2397673
133	0x4050ea79	3.264311
134	0x40527c99	3.2888548
135	0x40540eb9	3.3133986
136	0x4055a0d8	3.3379421
137	0x405732f8	3.362486
138	0x4058c518	3.3870296
139	0x405a5737	3.4115732
140	0x405be957	3.436117
141	0x405d7b77	3.4606607
142	0x405f0d97	3.4852045
143	0x40609fb6	3.509748
144	0x406231d6	3.5342917
145	0x4063c3f6	3.5588355
146	0x40655615	3.583379
147	0x4066e835	3.6079228
148	0x40687a55	3.6324666
149	0x406a0c75	3.6570103
150	0x406b9e94	3.6815538
151	0x406d30b4	3.7060976
152	0x406ec2d4	3.7306414
153	0x407054f3	3.755185
154	0x4071e713	3.7797287
155	0x40737933	3.8042724
156	0x40750b52	3.828816
157	0x40769d72	3.8533597
158	0x40782f92	3.8779035
159	0x4079c1b2	3.9024472
160	0x407b53d1	3.9269907
161	0x407ce5f1	3.9515345
162	0x407e7811	3.9760783
163	0x40800518	4.000622
164	0x4080ce28	4.0251656
165	0x40819738	4.0497093
166	0x40826048	4.074253
167	0x40832958	4.098797
168	0x4083f267	4.12334
169	0x4084bb77	4.147884
170	0x40858487	4.1724277
171	0x40864d97	4.1969714
172	0x408716a7	4.221515
173	0x4087dfb7	4.246059
174	0x4088a8c7	4.2706027
175	0x408971d6	4.295146
176	0x408a3ae6	4.3196898
177	0x408b03f6	4.3442335
178	0x408bcd06	4.3687773
179	0x408c9616	4.393321
180	0x408d5f26	4.417865
181	0x408e2836	4.4424086
182	0x408ef145	4.466952
183	0x408fba55	4.4914956
184	0x40908365	4.5160394
185	0x40914c75	4.540583
186	0x40921585	4.565127
187	0x4092de95	4.5896707
188	0x4093a7a5	4.6142144
189	0x409470b4	4.6387577
190	0x409539c4	4.6633015
191	0x409602d4	4.687845
192	0x4096cbe4	4.712389
193	0x409794f4	4.7369328
194	0x40985e04	4.7614765
195	0x40992714	4.7860203
196	0x4099f023	4.8105636
197	0x409ab933	4.8351073
198	0x409b8243	4.859651
199	0x409c4b53	4.884195
200	0x409d1463	4.9087386
201	0x409ddd73	4.9332824
202	0x409ea683	4.957826
203	0x409f6f92	4.9823694
204	0x40a038a2	5.006913
205	0x40a101b2	5.031457
206	0x40a1cac2	5.0560007
207	0x40a293d2	5.0805445
208	0x40a35ce2	5.105088
209	0x40a425f1	5.1296315
210	0x40a4ef01	5.1541753
211	0x40a5b811	5.178719
212	0x40a68121	5.203263
213	0x40a74a31	5.2278066
214	0x40a81341	5.2523503
215	0x40a8dc51	5.276894
216	0x40a9a560	5.3014374
217	0x40aa6e70	5.325981
218	0x40ab3780	5.350525
219	0x40ac0090	5.3750687
220	0x40acc9a0	5.3996124
221	0x40ad92b0	5.424156
222	0x40ae5bc0	5.4487
223	0x40af24cf	5.473243
224	0x40afeddf	5.497787
225	0x40b0b6ef	5.5223308
226	0x40b17fff	5.5468745
227	0x40b2490f	5.5714183
228	0x40b3121f	5.595962
229	0x40b3db2f	5.620506
230	0x40b4a43e	5.645049
231	0x40b56d4e	5.669593
232	0x40b6365e	5.6941366
233	0x40b6ff6e	5.7186804
234	0x40b7c87e	5.743224
235	0x40b8918e	5.767768
236	0x40b95a9e	5.7923117
237	0x40ba23ad	5.816855
238	0x40baecbd	5.8413987
239	0x40bbb5cd	5.8659425
240	0x40bc7edd	5.8904862
241	0x40bd47ed	5.91503
242	0x40be10fd	5.939574
243	0x40beda0d	5.9641175
244	0x40bfa31c	5.988661
245	0x40c06c2c	6.0132046
246	0x40c1353c	6.0377483
247	0x40c1fe4c	6.062292
248	0x40c2c75c	6.086836
249	0x40c3906c	6.1113796
250	0x40c4597c	6.1359234
251	0x40c5228b	6.1604667
252	0x40c5eb9b	6.1850104
253	0x40c6b4ab	6.209554
254	0x40c77dbb	6.234098
255	0x40c846cb	6.2586417

t_u f4 [256, 1]
0	0x00000000	0.0
1	0x00000000	0.0
2	0x00000000	0.0
3	0x00000000	0.0
4	0x00000000	0.0
5	0x00000000	0.0
6	0x00000000	0.0
7	0x00000000	0.0
8	0x00000000	0.0
9	0x00000000	0.0
10	0x00000000	0.0
11	0x00000000	0.0
12	0x00000000	0.0
13	0x00000000	0.0
14	0x00000000	0.0
15	0x00000000	0.0
16	0x00000000	0.0
17	0x00000000	0.0
18	0x00000000	0.0
19	0x00000000	0.0
20	0x00000000	0.0
21	0x00000000	0.0
22	0x00000000	0.0
23	0x00000000	0.0
24	0x00000000	0.0
25	0x00000000	0.0
26	0x00000000	0.0
27	0x00000000	0.0
28	0x00000000	0.0
29	0x00000000	0.0
30	0x00000000	0.0
31	0x00000000	0.0
32	0x00000000	0.0
33	0x00000000	0.0
34	0x00000000	0.0
35	0x00000000	0.0
36	0x00000000	0.0
37	0x00000000	0.0
38	0x00000000	0.0
39	0x00000000	0.0
40	0x00000000	0.0
41	0x00000000	0.0
42	0x00000000	0.0
43	0x00000000	0.0
44	0x00000000	0.0
45	0x00000000	0.0
46	0x00000000	0.0
47	0x00000000	0.0
48	0x00000000	0.0
49	0x00000000	0.0
50	0x00000000	0.0
51	0x00000000	0.0
52	0x00000000	0.0
53	0x00000000	0.0
54	0x00000000	0.0
55	0x00000000	0.0
56	0x00000000	0.0
57	0x00000000	0.0
58	0x00000000	0.0
59	0x00000000	0.0
60	0x00000000	0.0
61	0x00000000	0.0
62	0x00000000	0.0
63	0x00000000	0.0
64	0x00000000	0.0
65	0x00000000	0.0
66	0x00000000	0.0
67	0x00000000	0.0
68	0x00000000	0.0
69	0x00000000	0.0
70	0x00000000	0.0
71	0x00000000	0.0
72	0x00000000	0.0
73	0x00000000	0.0
74	0x00000000	0.0
75	0x00000000	0.0
76	0x00000000	0.0
77	0x00000000	0.0
78	0x00000000	0.0
79	0x00000000	0.0
80	0x00000000	0.0
81	0x00000000	0.0
82	0x00000000	0.0
83	0x00000000	0.0
84	0x00000000	0.0
85	0x00000000	0.0
86	0x00000000	0.0
87	0x00000000	0.0
88	0x00000000	0.0
89	0x00000000	0.0
90	0x00000000	0.0
91	0x00000000	0.0
92	0x00000000	0.0
93	0x00000000	0.0
94	0x00000000	0.0
95	0x00000000	0.0
96	0x00000000	0.0
97	0x00000000	0.0
98	0x00000000	0.0
99	0x00000000	0.0
100	0x00000000	0.0
101	0x00000000	0.0
102	0x00000000	0.0
103	0x00000000	0.0
104	0x00000000	0.0
105	0x00000000	0.0
106	0x00000000	0.0
107	0x00000000	0.0
108	0x00000000	0.0
109	0x00000000	0.0
110	0x00000000	0.0
111	0x00000000	0.0
112	0x00000000	0.0
113	0x00000000	0.0
114	0x00000000	0.0
115	0x00000000	0.0
116	0x00000000	0.0
117	0x00000000	0.0
118	0x00000000	0.0
119	0x00000000	0.0
120	0x00000000	0.0
121	0x00000000	0.0
122	0x00000000	0.0
123	0x00000000	0.0
124	0x00000000	0.0
125	0x00000000	0.0
126	0x00000000	0.0
127	0x00000000	0.0
128	0x00000000	0.0
129	0x00000000	0.0
130	0x00000000	0.0
131	0x00000000	0.0
132	0x00000000	0.0
133	0x00000000	0.0
134	0x00000000	0.0
135	0x00000000	0.0
136	0x00000000	0.0
137	0x00000000	0.0
138	0x00000000	0.0
139	0x00000000	0.0
140	0x00000000	0.0
141	0x00000000	0.0
142	0x00000000	0.0
143	0x00000000	0.0
144	0x00000000	0.0
145	0x00000000	0.0
146	0x00000000	0.0
147	0x00000000	0.0
148	0x00000000	0.0
149	0x00000000	0.0
150	0x00000000	0.0
151	0x00000000	0.0
152	0x00000000	0.0
153	0x00000000	0.0
154	0x00000000	0.0
155	0x00000000	0.0
156	0x00000000	0.0
157	0x00000000	0.0
158	0x00000000	0.0
159	0x00000000	0.0
160	0x00000000	0.0
161	0x00000000	0.0
162	0x00000000	0.0
163	0x00000000	0.0
164	0x00000000	0.0
165	0x00000000	0.0
166	0x00000000	0.0
167	0x00000000	0.0
168	0x00000000	0.0
169	0x00000000	0.0
170	0x00000000	0.0
171	0x00000000	0.0
172	0x00000000	0.0
173	0x00000000	0.0
174	0x00000000	0.0
175	0x00000000	0.0
176	0x00000000	0.0
177	0x00000000	0.0
178	0x00000000	0.0
179	0x00000000	0.0
180	0x00000000	0.0
181	0x00000000	0.0
182	0x00000000	0.0
183	0x00000000	0.0
184	0x00000000	0.0
185	0x00000000	0.0
186	0x00000000	0.0
187	0x00000000	0.0
188	0x00000000	0.0
189	0x00000000	0.0
190	0x00000000	0.0
191	0x00000000	0.0
192	0x00000000	0.0
193	0x00000000	0.0
194	0x00000000	0.0
195	0x00000000	0.0
196	0x00000000	0.0
197	0x00000000	0.0
198	0x00000000	0.0
199	0x00000000	0.0
200	0x00000000	0.0
201	0x00000000	0.0
202	0x00000000	0.0
203	0x00000000	0.0
204	0x00000000	0.0
205	0x00000000	0.0
206	0x00000000	0.0
207	0x00000000	0.0
208	0x00000000	0.0
209	0x00000000	0.0
210	0x00000000	0.0
211	0x00000000	0.0
212	0x00000000	0.0
213	0x00000000	0.0
214	0x00000000	0.0
215	0x00000000	0.0
216	0x00000000	0.0
217	0x00000000	0.0
218	0x00000000	0.0
219	0x00000000	0.0
220	0x00000000	0.0
221	0x00000000	0.0
222	0x00000000	0.0
223	0x00000000	0.0
224	0x00000000	0.0
225	0x00000000	0.0
226	0x00000000	0.0
227	0x00000000	0.0
228	0x00000000	0.0
229	0x00000000	0.0
230	0x00000000	0.0
231	0x00000000	0.0
232	0x00000000	0.0
233	0x00000000	0.0
234	0x00000000	0.0
235	0x00000000	0.0
236	0x00000000	0.0
237	0x00000000	0.0
238	0x00000000	0.0
239	0x00000000	0.0
240	0x00000000	0.0
241	0x00000000	0.0
242	0x00000000	0.0
243	0x00000000	0.0
244	0x00000000	0.0
245	0x00000000	0.0
246	0x00000000	0.0
247	0x00000000	0.0
248	0x00000000	0.0
249	0x00000000	0.0
250	0x00000000	0.0
251	0x00000000	0.0
252	0x00000000	0.0
253	0x00000000	0.0
254	0x00000000	0.0
255	0x00000000	0.0

x_f f4 [100, 1]
0	0x4093a7a5	4.6142144
1	0x3fdf0d97	1.7426022
2	0x4055a0d8	3.3379421
3	0x409c4b53	4.884195
4	0x4044597c	3.0679617
5	0x40b0b6ef	5.5223308
6	0x40ba23ad	5.816855
7	0x40c5eb9b	6.1850104
8	0x40921585	4.565127
9	0x3f99f023	1.2026409
10	0x40992714	4.7860203
11	0x3f108365	0.5645049
12	0x3feb9e94	1.8407769
13	0x3dfb53d1	0.12271846
14	0x409f6f92	4.9823694
15	0x40c2c75c	6.086836
16	0x40b6ff6e	5.7186804
17	0x402cc9a0	2.6998062
18	0x4021cac2	2.5280004
19	0x40c3906c	6.1113796
20	0x402e5bc0	2.72435
21	0x40af24cf	5.473243
22	0x3f8716a7	1.0553788
23	0x40c1fe4c	6.062292
24	0x3ee231d6	0.44178647
25	0x3f36365e	0.7117671
26	0x40864d97	4.1969714
27	0x40c846cb	6.2586417
28	0x40c4597c	6.1359234
29	0x40914c75	4.540583
30	0x40c5eb9b	6.1850104
31	0x4088a8c7	4.2706027
32	0x40af24cf	5.473243
33	0x40268121	2.6016314
34	0x408d5f26	4.417865
35	0x409d1463	4.9087386
36	0x40c06c2c	6.0132046
37	0x3ebc7edd	0.3681554
38	0x3efb53d1	0.49087384
39	0x40a68121	5.203263
40	0x405d7b77	3.4606607
41	0x3ee231d6	0.44178647
42	0x3fcf5859	1.6198837
43	0x4084bb77	4.147884
44	0x3fe87a55	1.8162333
45	0x409ea683	4.957826
46	0x405f0d97	3.4852045
47	0x4058c518	3.3870296
48	0x3f750b52	0.957204
49	0x4013a7a5	2.3071072
50	0x3f29a560	0.6626797
51	0x40a74a31	5.2278066
52	0x3cc90fdb	0.024543693
53	0x40c1fe4c	6.062292
54	0x401539c4	2.3316507
55	0x3ffb53d1	1.9634954
56	0x401539c4	2.3316507
57	0x3f2feddf	0.6872234
58	0x3fcc341a	1.59534
59	0x405a5737	3.4115732
60	0x40b3121f	5.595962
61	0x40b95a9e	5.7923117
62	0x3f8d5f26	1.1044662
63	0x406b9e94	3.6815538
64	0x3f6231d6	0.88357294
65	0x3fdbe957	1.7180585
66	0x401b8243	2.4298255
67	0x4066e835	3.6079228
68	0x3fe55615	1.7916895
69	0x3fcf5859	1.6198837
70	0x408971d6	4.295146
71	0x3ffe7811	1.9880391
72	0x40108365	2.2580197
73	0x402e5bc0	2.72435
74	0x3f490fdb	0.7853982
75	0x4003f267	2.06167
76	0x409ea683	4.957826
77	0x40a425f1	5.1296315
78	0x401b8243	2.4298255
79	0x40914c75	4.540583
80	0x406a0c75	3.6570103
81	0x3f55a0d8	0.83448553
82	0x406d30b4	3.7060976
83	0x3fe55615	1.7916895
84	0x40c2c75c	6.086836
85	0x409f6f92	4.9823694
86	0x409c4b53	4.884195
87	0x3f80ce28	1.0062914
88	0x40afeddf	5.497787
89	0x40baecbd	5.8413987
90	0x40864d97	4.1969714
91	0x4096cbe4	4.712389
92	0x3f6231d6	0.88357294
93	0x3f6ec2d4	0.93266034
94	0x3f9d1463	1.2271847
95	0x40b7c87e	5.743224
96	0x40b2490f	5.5714183
97	0x40c1353c	6.0377483
98	0x405be957	3.436117
99	0x3facc9a0	1.3499031

t_f f4 [100, 1]
0	0x3ec48677	0.3838384
1	0x3f51745d	0.8181818
2	0x3f090cee	0.53535354
3	0x3f4c4867	0.7979798
4	0x3e10cede	0.14141414
5	0x3f350296	0.7070707
6	0x3f2fd6a0	0.68686867
7	0x3f471c72	0.7777778
8	0x3f0ba2e9	0.54545456
9	0x3c257eb5	0.01010101
10	0x3f0e38e4	0.5555556
11	0x3f49b26d	0.7878788
12	0x3ede6243	0.43434343
13	0x3ede6243	0.43434343
14	0x3f7ad40a	0.97979796
15	0x3f800000	1.0
16	0x3f2d40a5	0.67676765
17	0x3f0676f3	0.5252525
18	0x3e9b26ca	0.3030303
19	0x3f540a58	0.82828283
20	0x3f7ad40a	0.97979796
21	0x3f22e8ba	0.6363636
22	0x3eafd6a0	0.34343433
23	0x3ea57eb5	0.32323232
24	0x3ef3121a	0.47474748
25	0x3f6b5029	0.9191919
26	0x3f0e38e4	0.5555556
27	0x3f471c72	0.7777778
28	0x3eba2e8c	0.36363637
29	0x3e638e39	0.22222222
30	0x3e90cede	0.28282827
31	0x3f638e39	0.8888889
32	0x3f68ba2f	0.90909094
33	0x3e1b26ca	0.15151516
34	0x3f2052bf	0.6262626
35	0x3d257eb5	0.04040404
36	0x3e1b26ca	0.15151516
37	0x3f60f83e	0.8787879
38	0x3f15fad4	0.5858586
39	0x3e814afd	0.25252524
40	0x3f4c4867	0.7979798
41	0x3ec48677	0.3838384
42	0x3ed9364e	0.42424244
43	0x3c257eb5	0.01010101
44	0x3e783e10	0.24242425
45	0x3f662434	0.8989899
46	0x3eba2e8c	0.36363637
47	0x3f707c1f	0.93939394
48	0x3f41f07c	0.75757575
49	0x3ea052bf	0.3131313
50	0x3d257eb5	0.04040404
51	0x3eafd6a0	0.34343433
52	0x3ee8ba2f	0.45454547
53	0x3f75a815	0.959596
54	0x3f75a815	0.959596
55	0x3ee8ba2f	0.45454547
56	0x3ee8ba2f	0.45454547
57	0x3f4ede62	0.8080808
58	0x3f0676f3	0.5252525
59	0x3f10cede	0.56565654
60	0x3f60f83e	0.8787879
61	0x3f3cc486	0.7373737
62	0x3d257eb5	0.04040404
63	0x3ef3121a	0.47474748
64	0x3f1364d9	0.57575756
65	0x3f10cede	0.56565654
66	0x3f2d40a5	0.67676765
67	0x3f7d6a05	0.989899
68	0x3f2fd6a0	0.68686867
69	0x3e59364e	0.21212122
70	0x3d4ede62	0.05050505
71	0x3e90cede	0.28282827
72	0x3e814afd	0.25252524
73	0x3f4ede62	0.8080808
74	0x3c257eb5	0.01010101
75	0x3ed40a58	0.41414142
76	0x3f783e10	0.969697
77	0x3f7ad40a	0.97979796
78	0x3e95fad4	0.2929293
79	0x3f03e0f8	0.5151515
80	0x3f56a053	0.83838385
81	0x3f73121a	0.94949496
82	0x3ef3121a	0.47474748
83	0x3f1890cf	0.5959596
84	0x3ec9b26d	0.3939394
85	0x3f2fd6a0	0.68686867
86	0x3f59364e	0.8484849
87	0x3ca57eb5	0.02020202
88	0x3f6b5029	0.9191919
89	0x3ef83e10	0.4848485
90	0x3e0676f3	0.13131313
91	0x3f1b26ca	0.6060606
92	0x3e814afd	0.25252524
93	0x3f783e10	0.969697
94	0x3eafd6a0	0.34343433
95	0x3f56a053	0.83838385
96	0x3ef83e10	0.4848485
97	0x3f4c4867	0.7979798
98	0x3f379891	0.7171717
99	0x3e9b26ca	0.3030303

x_bc_lb f4 [100, 1]
0	0x00000000	0.0
1	0x00000000	0.0
2	0x00000000	0.0
3	0x00000000	0.0
4	0x00000000	0.0
5	0x00000000	0.0
6	0x00000000	0.0
7	0x00000000	0.0
8	0x00000000	0.0
9	0x00000000	0.0
10	0x00000000	0.0
11	0x00000000	0.0
12	0x00000000	0.0
13	0x00000000	0.0
14	0x00000000	0.0
15	0x00000000	0.0
16	0x00000000	0.0
17	0x00000000	0.0
18	0x00000000	0.0
19	0x00000000	0.0
20	0x00000000	0.0
21	0x00000000	0.0
22	0x00000000	0.0
23	0x00000000	0.0
24	0x00000000	0.0
25	0x00000000	0.0
26	0x00000000	0.0
27	0x00000000	0.0
28	0x00000000	0.0
29	0x00000000	0.0
30	0x00000000	0.0
31	0x00000000	0.0
32	0x00000000	0.0
33	0x00000000	0.0
34	0x00000000	0.0
35	0x00000000	0.0
36	0x00000000	0.0
37	0x00000000	0.0
38	0x00000000	0.0
39	0x00000000	0.0
40	0x00000000	0.0
41	0x00000000	0.0
42	0x00000000	0.0
43	0x00000000	0.0
44	0x00000000	0.0
45	0x00000000	0.0
46	0x00000000	0.0
47	0x00000000	0.0
48	0x00000000	0.0
49	0x00000000	0.0
50	0x00000000	0.0
51	0x00000000	0.0
52	0x00000000	0.0
53	0x00000000	0.0
54	0x00000000	0.0
55	0x00000000	0.0
56	0x00000000	0.0
57	0x00000000	0.0
58	0x00000000	0.0
59	0x00000000	0.0
60	0x00000000	0.0
61	0x00000000	0.0
62	0x00000000	0.0
63	0x00000000	0.0
64	0x00000000	0.0
65	0x00000000	0.0
66	0x00000000	0.0
67	0x00000000	0.0
68	0x00000000	0.0
69	0x00000000	0.0
70	0x00000000	0.0
71	0x00000000	0.0
72	0x00000000	0.0
73	0x00000000	0.0
74	0x00000000	0.0
75	0x00000000	0.0
76	0x00000000	0.0
77	0x00000000	0.0
78	0x00000000	0.0
79	0x00000000	0.0
80	0x00000000	0.0
81	0x00000000	0.0
82	0x00000000	0.0
83	0x00000000	0.0
84	0x00000000	0.0
85	0x00000000	0.0
86	0x00000000	0.0
87	0x00000000	0.0
88	0x00000000	0.0
89	0x00000000	0.0
90	0x00000000	0.0
91	0x00000000	0.0
92	0x00000000	0.0
93	0x00000000	0.0
94	0x00000000	0.0
95	0x00000000	0.0
96	0x00000000	0.0
97	0x00000000	0.0
98	0x00000000	0.0
99	0x00000000	0.0

t_bc_lb f4 [100, 1]
0	0x00000000	0.0
1	0x3c257eb5	0.01010101
2	0x3ca57eb5	0.02020202
3	0x3cf83e10	0.030303031
4	0x3d257eb5	0.04040404
5	0x3d4ede62	0.05050505
6	0x3d783e10	0.060606062
7	0x3d90cede	0.07070707
8	0x3da57eb5	0.08080808
9	0x3dba2e8c	0.09090909
10	0x3dcede62	0.1010101
11	0x3de38e39	0.11111111
12	0x3df83e10	0.121212125
13	0x3e0676f3	0.13131313
14	0x3e10cede	0.14141414
15	0x3e1b26ca	0.15151516
16	0x3e257eb5	0.16161616
17	0x3e2fd6a0	0.17171717
18	0x3e3a2e8c	0.18181819
19	0x3e448677	0.1919192
20	0x3e4ede62	0.2020202
21	0x3e59364e	0.21212122
22	0x3e638e39	0.22222222
23	0x3e6de624	0.23232323
24	0x3e783e10	0.24242425
25	0x3e814afd	0.25252524
26	0x3e8676f3	0.26262626
27	0x3e8ba2e9	0.27272728
28	0x3e90cede	0.28282827
29	0x3e95fad4	0.2929293
30	0x3e9b26ca	0.3030303
31	0x3ea052bf	0.3131313
32	0x3ea57eb5	0.32323232
33	0x3eaaaaab	0.33333334
34	0x3eafd6a0	0.34343433
35	0x3eb50296	0.35353535
36	0x3eba2e8c	0.36363637
37	0x3ebf5a81	0.37373737
38	0x3ec48677	0.3838384
39	0x3ec9b26d	0.3939394
40	0x3ecede62	0.4040404
41	0x3ed40a58	0.41414142
42	0x3ed9364e	0.42424244
43	0x3ede6243	0.43434343
44	0x3ee38e39	0.44444445
45	0x3ee8ba2f	0.45454547
46	0x3eede624	0.46464646
47	0x3ef3121a	0.47474748
48	0x3ef83e10	0.4848485
49	0x3efd6a05	0.4949495
50	0x3f014afd	0.5050505
51	0x3f03e0f8	0.5151515
52	0x3f0676f3	0.5252525
53	0x3f090cee	0.53535354
54	0x3f0ba2e9	0.54545456
55	0x3f0e38e4	0.5555556
56	0x3f10cede	0.56565654
57	0x3f1364d9	0.57575756
58	0x3f15fad4	0.5858586
59	0x3f1890cf	0.5959596
60	0x3f1b26ca	0.6060606
61	0x3f1dbcc5	0.61616164
62	0x3f2052bf	0.6262626
63	0x3f22e8ba	0.6363636
64	0x3f257eb5	0.64646465
65	0x3f2814b0	0.65656567
66	0x3f2aaaab	0.6666667
67	0x3f2d40a5	0.67676765
68	0x3f2fd6a0	0.68686867
69	0x3f326c9b	0.6969697
70	0x3f350296	0.7070707
71	0x3f379891	0.7171717
72	0x3f3a2e8c	0.72727275
73	0x3f3cc486	0.7373737
74	0x3f3f5a81	0.74747473
75	0x3f41f07c	0.75757575
76	0x3f448677	0.7676768
77	0x3f471c72	0.7777778
78	0x3f49b26d	0.7878788
79	0x3f4c4867	0.7979798
80	0x3f4ede62	0.8080808
81	0x3f51745d	0.8181818
82	0x3f540a58	0.82828283
83	0x3f56a053	0.83838385
84	0x3f59364e	0.8484849
85	0x3f5bcc48	0.85858583
86	0x3f5e6243	0.86868685
87	0x3f60f83e	0.8787879
88	0x3f638e39	0.8888889
89	0x3f662434	0.8989899
90	0x3f68ba2f	0.90909094
91	0x3f6b5029	0.9191919
92	0x3f6de624	0.9292929
93	0x3f707c1f	0.93939394
94	0x3f73121a	0.94949496
95	0x3f75a815	0.959596
96	0x3f783e10	0.969697
97	0x3f7ad40a	0.97979796
98	0x3f7d6a05	0.989899
99	0x3f800000	1.0

x_bc_ub f4 [100, 1]
0	0x40c90fdb	6.2831855
1	0x40c90fdb	6.2831855
2	0x40c90fdb	6.2831855
3	0x40c90fdb	6.2831855
4	0x40c90fdb	6.2831855
5	0x40c90fdb	6.2831855
6	0x40c90fdb	6.2831855
7	0x40c90fdb	6.2831855
8	0x40c90fdb	6.2831855
9	0x40c90fdb	6.2831855
10	0x40c90fdb	6.2831855
11	0x40c90fdb	6.2831855
12	0x40c90fdb	6.2831855
13	0x40c90fdb	6.2831855
14	0x40c90fdb	6.2831855
15	0x40c90fdb	6.2831855
16	0x40c90fdb	6.2831855
17	0x40c90fdb	6.2831855
18	0x40c90fdb	6.2831855
19	0x40c90fdb	6.2831855
20	0x40c90fdb	6.2831855
21	0x40c90fdb	6.2831855
22	0x40c90fdb	6.2831855
23	0x40c90fdb	6.2831855
24	0x40c90fdb	6.2831855
25	0x40c90fdb	6.2831855
26	0x40c90fdb	6.2831855
27	0x40c90fdb	6.2831855
28	0x40c90fdb	6.2831855
29	0x40c90fdb	6.2831855
30	0x40c90fdb	6.2831855
31	0x40c90fdb	6.2831855
32	0x40c90fdb	6.2831855
33	0x40c90fdb	6.2831855
34	0x40c90fdb	6.2831855
35	0x40c90fdb	6.2831855
36	0x40c90fdb	6.2831855
37	0x40c90fdb	6.2831855
38	0x40c90fdb	6.2831855
39	0x40c90fdb	6.2831855
40	0x40c90fdb	6.2831855
41	0x40c90fdb	6.2831855
42	0x40c90fdb	6.2831855
43	0x40c90fdb	6.2831855
44	0x40c90fdb	6.2831855
45	0x40c90fdb	6.2831855
46	0x40c90fdb	6.2831855
47	0x40c90fdb	6.2831855
48	0x40c90fdb	6.2831855
49	0x40c90fdb	6.2831855
50	0x40c90fdb	6.2831855
51	0x40c90fdb	6.2831855
52	0x40c90fdb	6.2831855
53	0x40c90fdb	6.2831855
54	0x40c90fdb	6.2831855
55	0x40c90fdb	6.2831855
56	0x40c90fdb	6.2831855
57	0x40c90fdb	6.2831855
58	0x40c90fdb	6.2831855
59	0x40c90fdb	6.2831855
60	0x40c90fdb	6.2831855
61	0x40c90fdb	6.2831855
62	0x40c90fdb	6.2831855
63	0x40c90fdb	6.2831855
64	0x40c90fdb	6.2831855
65	0x40c90fdb	6.2831855
66	0x40c90fdb	6.2831855
67	0x40c90fdb	6.2831855
68	0x40c90fdb	6.2831855
69	0x40c90fdb	6.2831855
70	0x40c90fdb	6.2831855
71	0x40c90fdb	6.2831855
72	0x40c90fdb	6.2831855
73	0x40c90fdb	6.2831855
74	0x40c90fdb	6.2831855
75	0x40c90fdb	6.2831855
76	0x40c90fdb	6.2831855
77	0x40c90fdb	6.2831855
78	0x40c90fdb	6.2831855
79	0x40c90fdb	6.2831855
80	0x40c90fdb	6.2831855
81	0x40c90fdb	6.2831855
82	0x40c90fdb	6.2831855
83	0x40c90fdb	6.2831855
84	0x40c90fdb	6.2831855
85	0x40c90fdb	6.2831855
86	0x40c90fdb	6.2831855
87	0x40c90fdb	6.2831855
88	0x40c90fdb	6.2831855
89	0x40c90fdb	6.2831855
90	0x40c90fdb	6.2831855
91	0x40c90fdb	6.2831855
92	0x40c90fdb	6.2831855
93	0x40c90fdb	6.2831855
94	0x40c90fdb	6.2831855
95	0x40c90fdb	6.2831855
96	0x40c90fdb	6.2831855
97	0x40c90fdb	6.2831855
98	0x40c90fdb	6.2831855
99	0x40c90fdb	6.2831855

t_bc_ub f4 [100, 1]
0	0x00000000	0.0
1	0x3c257eb5	0.01010101
2	0x3ca57eb5	0.02020202
3	0x3cf83e10	0.030303031
4	0x3d257eb5	0.04040404
5	0x3d4ede62	0.05050505
6	0x3d783e10	0.060606062
7	0x3d90cede	0.07070707
8	0x3da57eb5	0.08080808
9	0x3dba2e8c	0.09090909
10	0x3dcede62	0.1010101
11	0x3de38e39	0.11111111
12	0x3df83e10	0.121212125
13	0x3e0676f3	0.13131313
14	0x3e10cede	0.14141414
15	0x3e1b26ca	0.15151516
16	0x3e257eb5	0.16161616
17	0x3e2fd6a0	0.17171717
18	0x3e3a2e8c	0.18181819
19	0x3e448677	0.1919192
20	0x3e4ede62	0.2020202
21	0x3e59364e	0.21212122
22	0x3e638e39	0.22222222
23	0x3e6de624	0.23232323
24	0x3e783e10	0.24242425
25	0x3e814afd	0.25252524
26	0x3e8676f3	0.26262626
27	0x3e8ba2e9	0.27272728
28	0x3e90cede	0.28282827
29	0x3e95fad4	0.2929293
30	0x3e9b26ca	0.3030303
31	0x3ea052bf	0.3131313
32	0x3ea57eb5	0.32323232
33	0x3eaaaaab	0.33333334
34	0x3eafd6a0	0.34343433
35	0x3eb50296	0.35353535
36	0x3eba2e8c	0.36363637
37	0x3ebf5a81	0.37373737
38	0x3ec48677	0.3838384
39	0x3ec9b26d	0.3939394
40	0x3ecede62	0.4040404
41	0x3ed40a58	0.41414142
42	0x3ed9364e	0.42424244
43	0x3ede6243	0.43434343
44	0x3ee38e39	0.44444445
45	0x3ee8ba2f	0.45454547
46	0x3eede624	0.46464646
47	0x3ef3121a	0.47474748
48	0x3ef83e10	0.4848485
49	0x3efd6a05	0.4949495
50	0x3f014afd	0.5050505
51	0x3f03e0f8	0.5151515
52	0x3f0676f3	0.5252525
53	0x3f090cee	0.53535354
54	0x3f0ba2e9	0.54545456
55	0x3f0e38e4	0.5555556
56	0x3f10cede	0.56565654
57	0x3f1364d9	0.57575756
58	0x3f15fad4	0.5858586
59	0x3f1890cf	0.5959596
60	0x3f1b26ca	0.6060606
61	0x3f1dbcc5	0.61616164
62	0x3f2052bf	0.6262626
63	0x3f22e8ba	0.6363636
64	0x3f257eb5	0.64646465
65	0x3f2814b0	0.65656567
66	0x3f2aaaab	0.6666667
67	0x3f2d40a5	0.67676765
68	0x3f2fd6a0	0.68686867
69	0x3f326c9b	0.6969697
70	0x3f350296	0.7070707
71	0x3f379891	0.7171717
72	0x3f3a2e8c	0.72727275
73	0x3f3cc486	0.7373737
74	0x3f3f5a81	0.74747473
75	0x3f41f07c	0.75757575
76	0x3f448677	0.7676768
77	0x3f471c72	0.7777778
78	0x3f49b26d	0.7878788
79	0x3f4c4867	0.7979798
80	0x3f4ede62	0.8080808
81	0x3f51745d	0.8181818
82	0x3f540a58	0.82828283
83	0x3f56a053	0.83838385
84	0x3f59364e	0.8484849
85	0x3f5bcc48	0.85858583
86	0x3f5e6243	0.86868685
87	0x3f60f83e	0.8787879
88	0x3f638e39	0.8888889
89	0x3f662434	0.8989899
90	0x3f68ba2f	0.90909094
91	0x3f6b5029	0.9191919
92	0x3f6de624	0.9292929
93	0x3f707c1f	0.93939394
94	0x3f73121a	0.94949496
95	0x3f75a815	0.959596
96	0x3f783e10	0.969697
97	0x3f7ad40a	0.97979796
98	0x3f7d6a05	0.989899
99	0x3f800000	1.0

weight f4 [50, 2]
0	0xbe66d3c1	-0.22541715
1	0xbe9939e2	-0.29926974
2	0xbe0f3722	-0.13985875
3	0xbdb6e7e8	-0.08930951
4	0x3ea5f1f3	0.32411155
5	0xbe1dafb5	-0.15399058
6	0xbda9dd84	-0.08294204
7	0x3dd4363a	0.103619054
8	0x3e9f60b2	0.3112846
9	0xbd79af24	-0.060958043
10	0x3e35e10c	0.1776163
11	0xbe8492ae	-0.25893158
12	0xbec3c789	-0.3823817
13	0x3d0f5b4c	0.034999177
14	0x3e3cfc00	0.18455505
15	0x3e46aabd	0.19401069
16	0x3de00c3c	0.109398335
17	0x3ea5d111	0.32386068
18	0xbe662dd8	-0.22478426
19	0x3e1b79e4	0.15183216
20	0x3e9ecfbd	0.31017867
21	0xbe7165b4	-0.23573953
22	0x3e8984a4	0.2685901
23	0xbe9235c3	-0.28556642
24	0x3e7eab93	0.24870138
25	0x3dfc830f	0.12329685
26	0x3e99cdcc	0.30039823
27	0xbd1c3ff2	-0.03814692
28	0xbcc6a387	-0.024247898
29	0xbe7d2d13	-0.24724226
30	0x3eae3fcd	0.3403305
31	0xbd8a0ded	-0.067409374
32	0xbdbae996	-0.09126584
33	0x3d28eb12	0.041239806
34	0x3e459886	0.19296464
35	0xbe506c66	-0.2035385
36	0xbe710f4a	-0.23540989
37	0xbce8a96c	-0.0284011
38	0x3ded8af4	0.11598769
39	0x3c27a48f	0.010232105
40	0xbda9c820	-0.08290124
41	0x3d5973db	0.053089004
42	0xbd6838b8	-0.056694716
43	0x3ea52d1d	0.3226098
44	0xbe443921	-0.19162418
45	0x3ec8b6b5	0.39201894
46	0xbbab5bef	-0.005229465
47	0x3e8a5645	0.27018943
48	0x3e0b7d41	0.13622
49	0xbe95a7b6	-0.29229516
50	0x3e63bde5	0.22240408
51	0xbddb81dc	-0.10718128
52	0xbe966f14	-0.2938162
53	0x3e6afb4b	0.22947423
54	0x3deb61e1	0.11493278
55	0xbe76a5dd	-0.2408671
56	0xbe2c95c4	-0.16854006
57	0x3e9442d7	0.28957245
58	0xbea3f6c9	-0.3202422
59	0x3d8c4466	0.068489835
60	0x3d3cb147	0.046067502
61	0xbeab043a	-0.33401662
62	0x3e35fe64	0.17772824
63	0xbeabb0cf	-0.33533332
64	0xbc89cfbd	-0.01682269
65	0xbd8222c3	-0.063542865
66	0x3e39d708	0.18148434
67	0xbdebbd4d	-0.11510716
68	0xbe95842d	-0.29202405
69	0xbc854cbb	-0.01627194
70	0x3e948119	0.29004744
71	0xbe656b19	-0.22404136
72	0x3ea8a674	0.32939494
73	0x3dff3ab9	0.12462372
74	0xbd38f86e	-0.045158796
75	0xbd1a993b	-0.03774379
76	0x3e9742da	0.2954319
77	0xbd13647b	-0.035984498
78	0x3d92e277	0.07172101
79	0xbc4ed169	-0.012623169
80	0x3ceef38a	0.029168863
81	0xbe917bc7	-0.28414747
82	0xbe4788cd	-0.19485779
83	0x3eaa0093	0.33203563
84	0x3e48c347	0.19605742
85	0x3cd32fce	0.025779631
86	0x3eb5bdfb	0.35496506
87	0xbe533e4f	-0.20629238
88	0x3e1361d3	0.14392786
89	0xbe26e61c	-0.16298717
90	0x3e982937	0.29718944
91	0x3e201d03	0.15636067
92	0x3e0de141	0.13855459
93	0xbd85dd73	-0.06536379
94	0x3e81205a	0.25219995
95	0x3e03577b	0.1282634
96	0x3e2eeeb4	0.17083246
97	0xbdf1942b	-0.11795839
98	0x3c6caaf1	0.0144450525
99	0xbdafda26	-0.085865304

bias f4 [50]
0	0x3ccdad2c	0.025106989
1	0x3da54fa1	0.08071829
2	0xbd99ff71	-0.07519425
3	0x3d893a7c	0.06700608
4	0xbb95e6b0	-0.0045746192
5	0xbd6c6920	-0.057717443
6	0x3da24996	0.07924192
7	0x3c3c7d58	0.011504494
8	0xbc18c06e	-0.009323223
9	0x3d6cafe3	0.057784926
10	0xbb781ef6	-0.003786025
11	0x3d2bc323	0.041934144
12	0xbd26b7ae	-0.040702514
13	0xbbc1562e	-0.005900166
14	0xbd91b4bc	-0.071145505
15	0xbd883c99	-0.06652183
16	0x3d015a88	0.031580478
17	0xbd9d8712	-0.07691778
18	0x3d54f266	0.05198898
19	0xbd484bbc	-0.04890035
20	0x3a5216c9	0.00080142595
21	0x3d412f12	0.04716403
22	0x3d8107b9	0.06300301
23	0x3d8a8a14	0.067646176
24	0xbd8e4b0a	-0.06947906
25	0xbb6a8340	-0.0035783798
26	0x3d3a5738	0.045493335
27	0xbdb9bab0	-0.09068811
28	0x3c9fa927	0.019489838
29	0x3d06ffa1	0.03295863
30	0xbd687e5d	-0.056761134
31	0xbd858d1b	-0.06521054
32	0x3cbb410f	0.02285817
33	0xbd8966d5	-0.06709067
34	0x3d28cf98	0.0412136
35	0xbcd5581b	-0.026042989
36	0xbd800a16	-0.06251924
37	0xbc9743b6	-0.018464904
38	0xbd74a5f3	-0.059728574
39	0xbd0bf09f	-0.03416502
40	0x3ca37b3e	0.019956227
41	0x3d7dd934	0.06197472
42	0xbc3c4f50	-0.011493519
43	0xbd9ac2c8	-0.07556683
44	0xbd181164	-0.03712596
45	0xbc60bc01	-0.013716699
46	0xbd52df71	-0.05148262
47	0xbd5e7994	-0.054315165
48	0xbb8b67d4	-0.0042543206
49	0xbd44d25a	-0.04805217

weight f4 [50, 50]
0	0xbe2033af	-0.15644716
1	0x3db6038c	0.08887395
2	0x3e6167ca	0.22012249
3	0x3e2c57b0	0.16830325
4	0xbd6af2e5	-0.05736055
5	0x3e025114	0.12726241
6	0xbd267bfb	-0.04064558
7	0x3e6b144b	0.2295696
8	0xbe732e5e	-0.23748156
9	0x3d9d41ee	0.07678591
10	0xbe569725	-0.20956095
11	0x3deef1a8	0.11667186
12	0x3e38dcf8	0.18053043
13	0x3e499187	0.1968442
14	0xbdab6432	-0.0836872
15	0x3d0ef122	0.03489793
16	0x3da9625e	0.08270715
17	0xbdca886f	-0.09889304
18	0x3e689160	0.22711706
19	0x3e138dfa	0.14409629
20	0x3e0b0268	0.13575137
21	0xbdbe5458	-0.09293431
22	0x3e39f9ad	0.1816165
23	0xbdf3ee66	-0.11910705
24	0xbe59eeeb	-0.21282546
25	0xbda4b5dd	-0.080425
26	0xbcb0810a	-0.021545906
27	0x3e0b0df6	0.13579544
28	0x3de4ed80	0.11178112
29	0x3d9a0c96	0.07521932
30	0xbda85af3	-0.08220472
31	0x3e35431a	0.17701378
32	0x3e8187cd	0.2529892
33	0xbe679f6b	-0.22619407
34	0x3e580b33	0.21098022
35	0x3d4a4291	0.04937989
36	0x3dddb21c	0.10824987
37	0x3de939ca	0.113879755
38	0x3e16a6f7	0.1471213
39	0xbce17ba1	-0.027524771
40	0xbd81f314	-0.063451916
41	0xbd973e97	-0.07384985
42	0xbe28b8eb	-0.1647679
43	0x3b5f68c7	0.0034089552
44	0xbe1af940	-0.15134144
45	0x3e2b8805	0.16751106
46	0xbe494000	-0.1965332
47	0x3e5fda18	0.2186054
48	0xbe68eb7d	-0.22746082
49	0x3e43d83e	0.19125459
50	0x3cc311f4	0.023812272
51	0xbe83ae32	-0.25718838
52	0x3d93ede1	0.07223106
53	0xbe3b6017	-0.18298374
54	0xbe473582	-0.19454005
55	0x3cf25d0b	0.029585382
56	0xbd7abf4b	-0.061217587
57	0x3d980c1a	0.07424183
58	0x3e4f5689	0.20247854
59	0xbe756289	-0.2396337
60	0x3e79c287	0.24390613
61	0xbe04eb60	-0.12980413
62	0xbd20cf67	-0.039260294
63	0x3e237cfc	0.15965647
64	0xbdb9f174	-0.09079257
65	0xbe01065c	-0.12600082
66	0xbda04a17	-0.078266315
67	0x3de9d0f0	0.11416805
68	0xbc8ad697	-0.016948028
69	0x3e7c360a	0.2462999
70	0x3db124ac	0.08649573
71	0xbe776bbd	-0.24162193
72	0xbe4333cf	-0.19062732
73	0x3b278751	0.0025562833
74	0x3c0e7d2b	0.008696835
75	0xbd84cd8c	-0.064845175
76	0x3d9613c6	0.0732799
77	0x3e027d50	0.12743115
78	0xbe22034a	-0.15821567
79	0xbd39b395	-0.04533728
80	0x3dde15a4	0.10843971
81	0x3ddadbf4	0.10686484
82	0xbd5e5daf	-0.054288562
83	0x3e101570	0.14070678
84	0x3db18b3a	0.086691335
85	0xbe665504	-0.22493368
86	0xbe7366c8	-0.23769677
87	0xbc343337	-0.010998539
88	0x3db53808	0.08848578
89	0xbe1337f6	-0.14376816
90	0xbdeb0fc1	-0.11477614
91	0xbe7eff49	-0.24902071
92	0x3d7738b9	0.06035683
93	0x3e315b58	0.17320001
94	0x3e70b473	0.23506336
95	0xbe4de06c	-0.20105141
96	0x3e58f8f3	0.21188717
97	0xbdb828da	-0.08992167
98	0xbe4caeba	-0.19988528
99	0x3e3814e3	0.17976718
100	0x3e458cb1	0.19291951
101	0xbb7518eb	-0.0037398885
102	0xbd8f804e	-0.07006894
103	0x3d784c23	0.060619485
104	0x3df5037f	0.119635575
105	0x3db6c021	0.089233644
106	0xbe0a3b5a	-0.13499203
107	0x3c6410be	0.013920007
108	0x3d9cf27d	0.076634385
109	0x3d4b31a8	0.049607903
110	0x3d454915	0.0481654
111	0x3d393a15	0.045221407
112	0x3d8d5489	0.069008894
113	0x3e0b2a7b	0.13590424
114	0xbe159d96	-0.14610896
115	0x3e54d65b	0.20784895
116	0xbd4225a0	-0.047399163
117	0xbe64756a	-0.22310415
118	0x3e25f815	0.16207917
119	0xbe2c8f39	-0.1685151
120	0xbe6a065d	-0.2285399
121	0x3c59abf9	0.01328563
122	0x3e86062e	0.2617659
123	0xbe2197ff	-0.15780638
124	0x3ccfec4c	0.02538123
125	0xbe4bc584	-0.19899565
126	0x3ddfedd6	0.109340355
127	0x3e03693d	0.12833114
128	0xbc745dc9	-0.014914938
129	0xbe64fc39	-0.2236184
130	0xbe5b6e92	-0.21428898
131	0xbe383b1f	-0.17991303
132	0xbdaea132	-0.08526839
133	0xbe092529	-0.13393082
134	0x3dd4e242	0.10394718
135	0x3d4384d0	0.04773408
136	0xbe3b9b6e	-0.1832101
137	0x3d19ec32	0.03757877
138	0xbe694e3b	-0.22783749
139	0x3e21fe68	0.15819705
140	0xbd2010e6	-0.039078616
141	0x3e82417e	0.25440592
142	0x3e3ddd56	0.18541464
143	0xbe0d1b65	-0.13779981
144	0x3e2bc9d4	0.1677621
145	0xbe490471	-0.196306
146	0xbe7a4efe	-0.24444196
147	0x3e2c9ee4	0.16857487
148	0xbe106eef	-0.14104818
149	0xbe63432d	-0.22193594
150	0xbe20db64	-0.15708691
151	0xbe0d74c6	-0.13814077
152	0xbe6a1cb6	-0.22862515
153	0x3d2b1c1f	0.041774865
154	0xbe616723	-0.22012
155	0xbd9e4c09	-0.07729346
156	0x3e2a5332	0.16633299
157	0xbe432318	-0.19056356
158	0x3e2b3fba	0.16723529
159	0x3e803a61	0.2504454
160	0xbd4ab8ea	-0.049492754
161	0xbd2618a3	-0.04055084
162	0xbe73430e	-0.23756048
163	0x3e5f3c15	0.21800263
164	0x3e3073cc	0.17231673
165	0xbd17f4a6	-0.03709855
166	0x3e1bdd6d	0.15221186
167	0xbe655216	-0.22394595
168	0xbe222762	-0.15835336
169	0x3e66aa93	0.22526006
170	0xbe7241ef	-0.23657964
171	0xbc03bfc7	-0.008041329
172	0xbdf5b2c9	-0.11996991
173	0xbe52d337	-0.20588385
174	0x3cf8de1f	0.030379353
175	0xbdebba34	-0.11510125
176	0x3d711030	0.05885333
177	0xbdd428cd	-0.10359345
178	0x3db9a589	0.090647765
179	0x3d325a19	0.043542955
180	0xbe88e51d	-0.267373
181	0x3e15e2ce	0.146373
182	0x3e1185a9	0.14211144
183	0xbe473792	-0.19454792
184	0x3da7d74f	0.08195364
185	0xbe019781	-0.1265545
186	0x3e24d21b	0.16095774
187	0xbde8ba33	-0.1136364
188	0x3e14766d	0.14498301
189	0xbe2654a3	-0.16243224
190	0xbe16ffa8	-0.14745963
191	0x3ddfc6d9	0.10926599
192	0x3d7b8307	0.061404254
193	0xbe0032a1	-0.12519313
194	0x3e303ee3	0.1721149
195	0x3d24fc56	0.04027971
196	0x3de2868f	0.11060821
197	0xbe19d0a0	-0.1502099
198	0x3d55e943	0.05222441
199	0x3d28c87d	0.041206826
200	0x3e1c46c7	0.15261374
201	0x3e6b8803	0.23001103
202	0x3e0bf0f1	0.1366613
203	0x3e7e8726	0.24856243
204	0xbdfedb5f	-0.124441855
205	0xbe5a9f5e	-0.21349856
206	0x3d80c37f	0.06287288
207	0xbc3b70aa	-0.011440435
208	0xbd244755	-0.04010709
209	0xbe3dde4f	-0.18541835
210	0xbce773df	-0.028253494
211	0xbc33b2ac	-0.010967892
212	0x3e0eba4b	0.13938253
213	0x3dd01df1	0.10161961
214	0x3d0d4cc6	0.034497045
215	0x3e1e267f	0.15444373
216	0xbca015c1	-0.019541623
217	0x3e3ef4c7	0.18648063
218	0xbe576422	-0.21034291
219	0xbc4e350d	-0.0125858905
220	0xbdcf44c8	-0.10120541
221	0x3e35acbf	0.17741679
222	0xbd5d9b82	-0.054103382
223	0xbe1e2f3f	-0.1544771
224	0xbd5df6de	-0.05419051
225	0xbc568415	-0.013093014
226	0x3e3a1e7c	0.18175691
227	0x3dfa3d8b	0.1221877
228	0xbe554bed	-0.20829745
229	0xbdaf5db3	-0.085627936
230	0xbe08e1b5	-0.1336735
231	0xbcd5a44a	-0.026079316
232	0x3dd1e81f	0.10249352
233	0xbd3a0f4f	-0.045424756
234	0x3e7398c8	0.2378875
235	0x3c21e4c7	0.009881205
236	0x3df753d0	0.12076533
237	0xbd610026	-0.054931782
238	0x3e029d19	0.1275524
239	0x3dbb1c06	0.091362044
240	0xbc2e4d8f	-0.010638609
241	0x3b9b8ec9	0.004747246
242	0x3dcb09c6	0.099139735
243	0x3c5b4050	0.0133820325
244	0xbe290f1e	-0.16509673
245	0xbdb7f884	-0.089829475
246	0xbe2c21c7	-0.1680976
247	0x3d41ec4c	0.04734449
248	0x3e31d171	0.17365052
249	0xbe24d871	-0.16098191
250	0x3da39b55	0.079886116
251	0xbe3e970d	-0.18612309
252	0x3ddec591	0.108775266
253	0xbe6217ed	-0.2207944
254	0xbdb73979	-0.08946509
255	0xbaf54288	-0.0018711844

bias f4 [50]
0	0x3ce11450	0.027475506
1	0xbd40eeff	-0.047102924
2	0x3cfa3526	0.030542921
3	0x3b8770dd	0.0041333274
4	0xbb83d178	-0.0040227734
5	0x3b28c96a	0.0025754818
6	0xba38e635	-0.00070533465
7	0xbd2e5a66	-0.04256668
8	0xbcb5fb4c	-0.022214554
9	0xbcbd0909	-0.023075597
10	0x3cbe056d	0.023195947
11	0xbd924582	-0.07142164
12	0x3d39641e	0.045261495
13	0x3c3edbcc	0.011649083
14	0xbcf17624	-0.02947528
15	0xbc0c7756	-0.008573374
16	0x3d267a94	0.040644243
17	0x3d6ee13b	0.058320265
18	0x3d2527ea	0.04032127
19	0xbce48650	-0.027896076
20	0xbc7cea56	-0.015436729
21	0x3b12b70f	0.0022386943
22	0x3c0868e7	0.008325792
23	0xbc6c3c57	-0.014418683
24	0xbc0df23d	-0.008663711
25	0x3ca3a6d3	0.019977009
26	0x3c974744	0.0184666
27	0xbd665a34	-0.05623837
28	0xbc7e9037	-0.015537313
29	0x3d307aa7	0.04308572
30	0xbc49053e	-0.012269316
31	0x3cccac1c	0.024984412
32	0xbc699217	-0.014256022
33	0xb93baf65	-0.00017899049
34	0x3c9d7869	0.019222455
35	0x3a62498a	0.0008632174
36	0x395b3484	0.00020905031
37	0x3d2f8ec8	0.042860776
38	0x3c6a62fd	0.014305827
39	0x3d0ea983	0.034829628
40	0xbbdca61d	-0.0067336694
41	0x3cfb9c5a	0.030714203
42	0x3c8dfea4	0.017333336
43	0xbd1f65ed	-0.038915563
44	0x3ca6783e	0.020321008
45	0xbcc7457e	-0.024325129
46	0x3cba7db9	0.022765027
47	0xbc9d103a	-0.019172776
48	0xbc7e54a6	-0.015523111
49	0x3d887fe2	0.06665017

weight f4 [50, 50]
0	0x3e3ba3ee	0.18324253
1	0x3e1fb766	0.15597305
2	0x3e74ea07	0.239174
3	0x3d8f5e94	0.07000461
4	0xbe3ace03	-0.1824265
5	0xbe688078	-0.22705257
6	0x3e1d5af2	0.15366724
7	0x3e3ec8bf	0.18631266
8	0x3e721c06	0.23643503
9	0xbe31dc4a	-0.1736919
10	0x3e5ef99c	0.21774906
11	0xbdcc7283	-0.09982779
12	0x3d87828c	0.06616697
13	0x3e4ddf9a	0.20104828
14	0xbe470904	-0.19437033
15	0xbe7a53fb	-0.24446099
16	0x3e239cd1	0.1597779
17	0xbe676b21	-0.2259946
18	0x3dd58871	0.10426415
19	0x3e0c0fcc	0.13677901
20	0x3e3377c0	0.1752615
21	0x3c4bc176	0.012436261
22	0xbd82c83a	-0.063858464
23	0x3c8979e9	0.016781764
24	0xbd0251fb	-0.031816464
25	0xbe661c9a	-0.22471848
26	0x3d83ef26	0.06442098
27	0xbe22b762	-0.15890267
28	0x3e361627	0.17781888
29	0xbddfc63e	-0.109264836
30	0xbd37cdad	-0.044873882
31	0xbe43d948	-0.19125855
32	0x3e5eb6c0	0.21749401
33	0x3e118bb8	0.14213455
34	0x3e5f0145	0.21777828
35	0x3e122758	0.14272821
36	0xbe155917	-0.14584766
37	0x3e6f5667	0.23372804
38	0xbce220bd	-0.027603501
39	0x3e6c2893	0.23062353
40	0x3d060bbf	0.032726046
41	0x3e2ac1ea	0.16675535
42	0xbdad8827	-0.084732346
43	0x3dc5115d	0.096224524
44	0xbbb5e5c5	-0.0055510723
45	0xbe5b6b71	-0.21427704
46	0x3e4b7172	0.19867495
47	0xbe131b62	-0.14365914
48	0xbe2e9cbd	-0.17051978
49	0x3e532cd8	0.20622575
50	0xbe67d8ec	-0.22641343
51	0x3dee7938	0.116442144
52	0x3e30b6e7	0.17257272
53	0xbd842658	-0.06452626
54	0xbe5aa0c2	-0.21350387
55	0xbe46df78	-0.19421184
56	0xbc4fa7ff	-0.012674331
57	0xbcea0869	-0.028568463
58	0x3e41cba5	0.1892534
59	0x3e5b042e	0.21388313
60	0xbe595f70	-0.21227813
61	0xbd50d0f3	-0.05098052
62	0xbe44a0b3	-0.19201927
63	0x3d6f481d	0.058418382
64	0x3e468c89	0.19389547
65	0xbd7245b8	-0.05914852
66	0xbc1477c5	-0.009061758
67	0xbd2f399a	-0.042779543
68	0xbe5d7e89	-0.216303
69	0x3e85b756	0.26116437
70	0x3dad924b	0.08475169
71	0x3e5c952c	0.2154128
72	0xbe5e3f6a	-0.21703878
73	0xbcded565	-0.027201364
74	0xbdea7780	-0.11448574
75	0x3d6ab073	0.05729718
76	0xbdbb0bfd	-0.09133146
77	0xbe09f507	-0.13472377
78	0x3e56f456	0.20991644
79	0x3e2a08fc	0.1660499
80	0x3e866aa8	0.26253247
81	0x3e324828	0.17410338
82	0x3e3e8621	0.18605854
83	0xbe219863	-0.15780787
84	0xbcfdd72b	-0.03098639
85	0xbda39c1e	-0.07988761
86	0xbd3de4ad	-0.04636066
87	0x3b9ee67e	0.004849254
88	0x3cbda353	0.023149168
89	0xbe2fac37	-0.17155538
90	0xbccc8c39	-0.024969207
91	0xbe17ee3f	-0.14836977
92	0xbde1e3ed	-0.110298015
93	0xbe157c98	-0.1459831
94	0xbde6457d	-0.112437226
95	0xbdea1a16	-0.11430757
96	0xbe5b3688	-0.21407521
97	0x394f6cbd	0.00019781567
98	0xbe41970b	-0.18905275
99	0xbe8f2f18	-0.27965617
100	0x3e336de5	0.1752239
101	0xbe41fe5b	-0.18944685
102	0x3e3ceb34	0.18449098
103	0x3c8bf838	0.017086133
104	0xbd1ff6c6	-0.0390537
105	0x3e4f4d96	0.2024444
106	0xbe634d93	-0.22197561
107	0x3e08f179	0.13373365
108	0x3e213745	0.1574374
109	0x3e4a0a9e	0.19730613
110	0xbe3fd568	-0.18733752
111	0x3cef3e1a	0.029204417
112	0xbd84f02e	-0.06491123
113	0xbe2efe3e	-0.17089173
114	0x3e24d2be	0.16096017
115	0xbd2f8071	-0.0428471
116	0x3e53605d	0.20642228
117	0xbe0ba37d	-0.13636585
118	0xbdbaf259	-0.091282554
119	0x3db09d9b	0.08623811
120	0x3cd224c6	0.0256523
121	0x3e1ef3eb	0.15522735
122	0x3dcf58df	0.10124373
123	0x3e68a10e	0.22717687
124	0xbe3896a2	-0.18026212
125	0x3d797238	0.060899943
126	0x3e46e85e	0.19424579
127	0xbdb6cd7c	-0.08925912
128	0xbe1ff215	-0.1561969
129	0x3e810f10	0.25206804
130	0xbe65d244	-0.22443491
131	0xbe4b8ca1	-0.19877864
132	0xbe5444c8	-0.20729363
133	0x3d97d1ca	0.07413061
134	0x3d71c7bd	0.059028376
135	0xbe69e3d0	-0.2284081
136	0x3e212dd8	0.15740144
137	0x3dad6939	0.08467335
138	0x3dd6994b	0.10478457
139	0xbe676abd	-0.22599311
140	0xbe7adf4c	-0.24499243
141	0xbe484aaa	-0.19559732
142	0xbd9ab236	-0.07553522
143	0xbe78d9f7	-0.24301897
144	0x3dfb6016	0.12274186
145	0xbd0d89ec	-0.03455536
146	0xbd3b248b	-0.045689147
147	0x3e64e7f2	0.22354105
148	0x3d107d2f	0.035275634
149	0x3d54f660	0.051992774
150	0xbe0d94f4	-0.13826352
151	0xbd9809e5	-0.07423762
152	0xbe4c3199	-0.19940795
153	0xbe084282	-0.1330662
154	0x3e6fa36a	0.23402181
155	0xbe46a19b	-0.19397585
156	0x3e0f0bbd	0.13969322
157	0x3e0e212d	0.13879843
158	0x3e18b824	0.14913994
159	0x3e328748	0.17434418
160	0x3e638d89	0.2222196
161	0x3dccbc60	0.09996867
162	0x3a866506	0.0010253496
163	0xbd740c06	-0.05958178
164	0xbe848e47	-0.258898
165	0x3de3eeaa	0.11129506
166	0xbd8f004c	-0.069824785
167	0x3c94990c	0.018139385
168	0xbd879c0e	-0.06621562
169	0x3e19db1a	0.15024987
170	0xbc2f6eb0	-0.010707542
171	0x3e419d68	0.18907702
172	0x3e22499d	0.15848394
173	0x3d81b185	0.06332687
174	0xbcd11a44	-0.02552522
175	0x3df79b3c	0.120901555
176	0xbe0dc9d8	-0.13846529
177	0x3e1081b8	0.14111984
178	0x3e31aa22	0.17350057
179	0x3d2fd955	0.042931873
180	0xbcd1f642	-0.02563012
181	0x3d87f0f1	0.06637753
182	0x3e5284b5	0.20558436
183	0x3d886e4f	0.06661665
184	0xbde7e107	-0.113222174
185	0xbcf4f523	-0.029902047
186	0xbe71d90c	-0.23617953
187	0xbb0f1811	-0.0021834413
188	0xbe66a5b6	-0.22524151
189	0x3d8eb99f	0.06968998
190	0x3d1a9d54	0.037747696
191	0x3e8157ee	0.25262398
192	0xbd8add86	-0.067805335
193	0x3ae73f3a	0.0017642744
194	0xbc4af117	-0.012386582
195	0xbdcff179	-0.10153479
196	0xbdad74e6	-0.08469562
197	0xbe035b88	-0.12827885
198	0xbe0352b9	-0.12824525
199	0x3cfe9161	0.031075181
200	0x3dce5ac4	0.10075906
201	0x3d808eaf	0.06277215
202	0x3e383a82	0.17991069
203	0xbd357a82	-0.044306286
204	0x3da30b01	0.07961083
205	0xbe58a767	-0.21157609
206	0x3e3386dc	0.17531914
207	0x3e556f9a	0.20843354
208	0x3dd5bb44	0.10436109
209	0xbe134bab	-0.14384334
210	0xbda4435f	-0.080206625
211	0xbe51ae8b	-0.20476739
212	0xbe48083f	-0.19534396
213	0x3e5f5453	0.21809511
214	0x3e01a407	0.12660228
215	0x3e4a09be	0.19730279
216	0x3e058d2f	0.13042139
217	0xbcc6ed0e	-0.024282958
218	0x3da99664	0.08280638
219	0xbddc2681	-0.107495315
220	0xbe3bb415	-0.18330415
221	0xbd5f66c5	-0.054541368
222	0xbe08bef9	-0.133541
223	0x3e4c9c04	0.1998139
224	0xbe52970a	-0.2056543
225	0x3e5ff854	0.21872073
226	0xbd707f36	-0.058715068
227	0x3d3961df	0.045259353
228	0x3e64098e	0.2226927
229	0xbe0950ab	-0.13409679
230	0xbd8da370	-0.06915939
231	0x3df908c3	0.12159874
232	0xbd67493a	-0.05646632
233	0x3ca6c5ee	0.020358052
234	0x3e0d094d	0.13773079
235	0x3c13f5d8	0.009030782
236	0x3e21f937	0.15817724
237	0xbdf7a3a0	-0.12091756
238	0x3da47ba5	0.08031396
239	0x3b889a32	0.004168772
240	0xbe35ff17	-0.1777309
241	0xbd6198f6	-0.055077516
242	0x3d6fb266	0.058519743
243	0xbe0a282b	-0.13491885
244	0x3e5cf229	0.21576752
245	0xbdf1128d	-0.117711164
246	0x3db1e5e0	0.08686423
247	0x3d12b39d	0.035815824
248	0xbe0599bc	-0.13046926
249	0x3e239dae	0.15978119
250	0xbd48a0c9	-0.04898146
251	0xbd0cbdae	-0.03436058
252	0xbd9430ff	-0.07235908
253	0xbe7a0f4a	-0.24419895
254	0x3e18895a	0.14896145
255	0xbde995de	-0.11405538

bias f4 [50]
0	0x3c1542bc	0.009110149
1	0xbd1cb55f	-0.038258906
2	0xbc825191	-0.015908035
3	0xbb6c54de	-0.0036061327
4	0x3c92eaaa	0.017934162
5	0xbbba375b	-0.0056828684
6	0xbc64e9f5	-0.013971795
7	0xbc4cbd1e	-0.012496261
8	0x3c91bd1c	0.01779037
9	0xbd2e3777	-0.042533364
10	0x3cd21c71	0.025648328
11	0x3c532dda	0.01288935
12	0x3d1e736e	0.0386843
13	0x3d219801	0.039451603
14	0x3c45e139	0.012077623
15	0xbd3b41d1	-0.045717064
16	0x3b68484b	0.003544348
17	0xbcb43cb3	-0.0220016
18	0x3bdbbc91	0.0067058285
19	0x3b0a8912	0.002113883
20	0xbcc2964b	-0.023753306
21	0x3c984d3f	0.018591521
22	0xbc0a23ee	-0.008431418
23	0x3c59c234	0.013290931
24	0xbbe91f5b	-0.0071143336
25	0x3ca75310	0.02042535
26	0xbbfb05e8	-0.007660616
27	0xba5df5d0	-0.000846711
28	0x39b033ca	0.00033607922
29	0xbb603b16	-0.0034214905
30	0xbb21da8b	-0.0024696912
31	0x3b9d63dc	0.004803164
32	0x3bb344f8	0.005470868
33	0x3ce439ce	0.027859595
34	0xbcbf7012	-0.023368869
35	0x3d2dabc7	0.042400148
36	0x3c6037a3	0.01368514
37	0xbd129fce	-0.035796933
38	0x3c778bf4	0.015109051
39	0x3b043772	0.002017465
40	0x3baab870	0.005209975
41	0xbce6ecf9	-0.02818917
42	0xbb5d8aa0	-0.003380455
43	0x3c3d65de	0.011559932
44	0x3a8da830	0.001080757
45	0xbc9a63c7	-0.018846406
46	0x3c446d45	0.0119889425
47	0xbcd84e9b	-0.02640467
48	0x3c7933cb	0.015210102
49	0xbbe29d29	-0.0069157076
