pbc_examples/saved_models/convection_beta-1.0_layers-50,50,50,50,1_L-1e-06_WD-0_init-normal_batch_size256.pt (torch, 114093 bytes, 36 tensors)

x_u f4 [256, 1]
00000000: 0000 0000 db0f c93c db0f 493d e4cb 963d
00000010: db0f c93d d153 fb3d e4cb 163e dfed 2f3e
00000020: db0f 493e d631 623e d153 7b3e e63a 8a3e
00000030: e4cb 963e e25c a33e dfed af3e dd7e bc3e
00000040: db0f c93e d8a0 d53e d631 e23e d4c2 ee3e
00000050: d153 fb3e 67f2 033f e63a 0a3f 6583 103f
00000060: e4cb 163f 6314 1d3f e25c 233f 60a5 293f
00000070: dfed 2f3f 5e36 363f dd7e 3c3f 5cc7 423f
00000080: db0f 493f 5958 4f3f d8a0 553f 57e9 5b3f
00000090: d631 623f 557a 683f d4c2 6e3f 520b 753f
000000a0: d153 7b3f 28ce 803f 67f2 833f a716 873f
000000b0: e63a 8a3f 265f 8d3f 6583 903f a5a7 933f
000000c0: e4cb 963f 23f0 993f 6314 9d3f a238 a03f
000000d0: e25c a33f 2181 a63f 60a5 a93f a0c9 ac3f
000000e0: dfed af3f 1f12 b33f 5e36 b63f 9e5a b93f
000000f0: dd7e bc3f 1ca3 bf3f 5cc7 c23f 9beb c53f
00000100: db0f c93f 1a34 cc3f 5958 cf3f 997c d23f
00000110: d8a0 d53f 18c5 d83f 57e9 db3f 970d df3f
00000120: d631 e23f 1556 e53f 557a e83f 949e eb3f
00000130: d4c2 ee3f 13e7 f13f 520b f53f 922f f83f
00000140: d153 fb3f 1178 fe3f 28ce 0040 4860 0240
00000150: 67f2 0340 8784 0540 a716 0740 c7a8 0840
00000160: e63a 0a40 06cd 0b40 265f 0d40 45f1 0e40
00000170: 6583 1040 8515 1240 a5a7 1340 c439 1540
00000180: e4cb 1640 045e 1840 23f0 1940 4382 1b40
00000190: 6314 1d40 83a6 1e40 a238 2040 c2ca 2140
000001a0: e25c 2340 01ef 2440 2181 2640 4113 2840
000001b0: 60a5 2940 8037 2b40 a0c9 2c40 c05b 2e40
000001c0: dfed 2f40 ff7f 3140 1f12 3340 3ea4 3440
000001d0: 5e36 3640 7ec8 3740 9e5a 3940 bdec 3a40
000001e0: dd7e 3c40 fd10 3e40 1ca3 3f40 3c35 4140
000001f0: 5cc7 4240 7c59 4440 9beb 4540 bb7d 4740
00000200: db0f 4940 faa1 4a40 1a34 4c40 3ac6 4d40
00000210: 5958 4f40 79ea 5040 997c 5240 b90e 5440
00000220: d8a0 5540 f832 5740 18c5 5840 3757 5a40
00000230: 57e9 5b40 777b 5d40 970d 5f40 b69f 6040
00000240: d631 6240 f6c3 6340 1556 6540 35e8 6640
00000250: 557a 6840 750c 6a40 949e 6b40 b430 6d40
00000260: d4c2 6e40 f354 7040 13e7 7140 3379 7340
00000270: 520b 7540 729d 7640 922f 7840 b2c1 7940
00000280: d153 7b40 f1e5 7c40 1178 7e40 1805 8040
00000290: 28ce 8040 3897 8140 4860 8240 5829 8340
000002a0: 67f2 8340 77bb 8440 8784 8540 974d 8640
000002b0: a716 8740 b7df 8740 c7a8 8840 d671 8940
000002c0: e63a 8a40 f603 8b40 06cd 8b40 1696 8c40
000002d0: 265f 8d40 3628 8e40 45f1 8e40 55ba 8f40
000002e0: 6583 9040 754c 9140 8515 9240 95de 9240
000002f0: a5a7 9340 b470 9440 c439 9540 d402 9640
00000300: e4cb 9640 f494 9740 045e 9840 1427 9940
00000310: 23f0 9940 33b9 9a40 4382 9b40 534b 9c40
00000320: 6314 9d40 73dd 9d40 83a6 9e40 926f 9f40
00000330: a238 a040 b201 a140 c2ca a140 d293 a240
00000340: e25c a340 f125 a440 01ef a440 11b8 a540
00000350: 2181 a640 314a a740 4113 a840 51dc a840
00000360: 60a5 a940 706e aa40 8037 ab40 9000 ac40
00000370: a0c9 ac40 b092 ad40 c05b ae40 cf24 af40
00000380: dfed af40 efb6 b040 ff7f b140 0f49 b240
00000390: 1f12 b340 2fdb b340 3ea4 b440 4e6d b540
000003a0: 5e36 b640 6eff b640 7ec8 b740 8e91 b840
000003b0: 9e5a b940 ad23 ba40 bdec ba40 cdb5 bb40
000003c0: dd7e bc40 ed47 bd40 fd10 be40 0dda be40
000003d0: 1ca3 bf40 2c6c c040 3c35 c140 4cfe c140
000003e0: 5cc7 c240 6c90 c340 7c59 c440 8b22 c540
000003f0: 9beb c540 abb4 c640 bb7d c740 cb46 c840
0.0 0.024543693 0.049087387 0.07363108 0.09817477 0.12271846 0.14726216 0.17180584
0.19634955 0.22089323 0.24543692 0.2699806 0.2945243 0.319068 0.3436117 0.3681554
0.3926991 0.41724277 0.44178647 0.46633017 0.49087384 0.5154175 0.5399612 0.5645049
0.5890486 0.6135923 0.638136 0.6626797 0.6872234 0.7117671 0.7363108 0.7608545
0.7853982 0.8099418 0.83448553 0.85902923 0.88357294 0.90811664 0.93266034 0.957204
0.9817477 1.0062914 1.030835 1.0553788 1.0799224 1.1044662 1.1290098 1.1535536
1.1780972 1.2026409 1.2271847 1.2517283 1.276272 1.3008157 1.3253593 1.3499031
1.3744467 1.3989905 1.4235342 1.4480779 1.4726216 1.4971652 1.521709 1.5462526
1.5707964 1.59534 1.6198837 1.6444274 1.6689711 1.6935148 1.7180585 1.7426022
1.7671459 1.7916895 1.8162333 1.8407769 1.8653207 1.8898643 1.914408 1.9389517
1.9634954 1.9880391 2.0125828 2.0371265 2.06167 2.0862138 2.1107576 2.1353014
2.1598449 2.1843886 2.2089324 2.233476 2.2580197 2.2825634 2.3071072 2.3316507
2.3561945 2.3807383 2.4052818 2.4298255 2.4543693 2.478913 2.5034566 2.5280004
2.552544 2.5770876 2.6016314 2.6261752 2.6507187 2.6752625 2.6998062 2.72435
2.7488935 2.7734373 2.797981 2.8225245 2.8470683 2.871612 2.8961558 2.9206994
2.9452431 2.969787 2.9943304 3.0188742 3.043418 3.0679617 3.0925052 3.117049
3.1415927 3.1661363 3.19068 3.2152238 3.2397673 3.264311 3.2888548 3.3133986
3.3379421 3.362486 3.3870296 3.4115732 3.436117 3.4606607 3.4852045 3.509748
3.5342917 3.5588355 3.583379 3.6079228 3.6324666 3.6570103 3.6815538 3.7060976
3.7306414 3.755185 3.7797287 3.8042724 3.828816 3.8533597 3.8779035 3.9024472
3.9269907 3.9515345 3.9760783 4.000622 4.0251656 4.0497093 4.074253 4.098797
4.12334 4.147884 4.1724277 4.1969714 4.221515 4.246059 4.2706027 4.295146
4.3196898 4.3442335 4.3687773 4.393321 4.417865 4.4424086 4.466952 4.4914956
4.5160394 4.540583 4.565127 4.5896707 4.6142144 4.6387577 4.6633015 4.687845
4.712389 4.7369328 4.7614765 4.7860203 4.8105636 4.8351073 4.859651 4.884195
4.9087386 4.9332824 4.957826 4.9823694 5.006913 5.031457 5.0560007 5.0805445
5.105088 5.1296315 5.1541753 5.178719 5.203263 5.2278066 5.2523503 5.276894
5.3014374 5.325981 5.350525 5.3750687 5.3996124 5.424156 5.4487 5.473243
5.497787 5.5223308 5.5468745 5.5714183 5.595962 5.620506 5.645049 5.669593
5.6941366 5.7186804 5.743224 5.767768 5.7923117 5.816855 5.8413987 5.8659425
5.8904862 5.91503 5.939574 5.9641175 5.988661 6.0132046 6.0377483 6.062292
6.086836 6.1113796 6.1359234 6.1604667 6.1850104 6.209554 6.234098 6.2586417

t_u f4 [256, 1]
00000000: 0000 0000 0000 0000 0000 0000 0000 0000
00000010: 0000 0000 0000 0000 0000 0000 0000 0000
00000020: 0000 0000 0000 0000 0000 0000 0000 0000
00000030: 0000 0000 0000 0000 0000 0000 0000 0000
00000040: 0000 0000 0000 0000 0000 0000 0000 0000
00000050: 0000 0000 0000 0000 0000 0000 0000 0000
00000060: 0000 0000 0000 0000 0000 0000 0000 0000
00000070: 0000 0000 0000 0000 0000 0000 0000 0000
00000080: 0000 0000 0000 0000 0000 0000 0000 0000
00000090: 0000 0000 0000 0000 0000 0000 0000 0000
000000a0: 0000 0000 0000 0000 0000 0000 0000 0000
000000b0: 0000 0000 0000 0000 0000 0000 0000 0000
000000c0: 0000 0000 0000 0000 0000 0000 0000 0000
000000d0: 0000 0000 0000 0000 0000 0000 0000 0000
000000e0: 0000 0000 0000 0000 0000 0000 0000 0000
000000f0: 0000 0000 0000 0000 0000 0000 0000 0000
00000100: 0000 0000 0000 0000 0000 0000 0000 0000
00000110: 0000 0000 0000 0000 0000 0000 0000 0000
00000120: 0000 0000 0000 0000 0000 0000 0000 0000
00000130: 0000 0000 0000 0000 0000 0000 0000 0000
00000140: 0000 0000 0000 0000 0000 0000 0000 0000
00000150: 0000 0000 0000 0000 0000 0000 0000 0000
00000160: 0000 0000 0000 0000 0000 0000 0000 0000
00000170: 0000 0000 0000 0000 0000 0000 0000 0000
00000180: 0000 0000 0000 0000 0000 0000 0000 0000
00000190: 0000 0000 0000 0000 0000 0000 0000 0000
000001a0: 0000 0000 0000 0000 0000 0000 0000 0000
000001b0: 0000 0000 0000 0000 0000 0000 0000 0000
000001c0: 0000 0000 0000 0000 0000 0000 0000 0000
000001d0: 0000 0000 0000 0000 0000 0000 0000 0000
000001e0: 0000 0000 0000 0000 0000 0000 0000 0000
000001f0: 0000 0000 0000 0000 0000 0000 0000 0000
00000200: 0000 0000 0000 0000 0000 0000 0000 0000
00000210: 0000 0000 0000 0000 0000 0000 0000 0000
00000220: 0000 0000 0000 0000 0000 0000 0000 0000
00000230: 0000 0000 0000 0000 0000 0000 0000 0000
00000240: 0000 0000 0000 0000 0000 0000 0000 0000
00000250: 0000 0000 0000 0000 0000 0000 0000 0000
00000260: 0000 0000 0000 0000 0000 0000 0000 0000
00000270: 0000 0000 0000 0000 0000 0000 0000 0000
00000280: 0000 0000 0000 0000 0000 0000 0000 0000
00000290: 0000 0000 0000 0000 0000 0000 0000 0000
000002a0: 0000 0000 0000 0000 0000 0000 0000 0000
000002b0: 0000 0000 0000 0000 0000 0000 0000 0000
000002c0: 0000 0000 0000 0000 0000 0000 0000 0000
000002d0: 0000 0000 0000 0000 0000 0000 0000 0000
000002e0: 0000 0000 0000 0000 0000 0000 0000 0000
000002f0: 0000 0000 0000 0000 0000 0000 0000 0000
00000300: 0000 0000 0000 0000 0000 0000 0000 0000
00000310: 0000 0000 0000 0000 0000 0000 0000 0000
00000320: 0000 0000 0000 0000 0000 0000 0000 0000
00000330: 0000 0000 0000 0000 0000 0000 0000 0000
00000340: 0000 0000 0000 0000 0000 0000 0000 0000
00000350: 0000 0000 0000 0000 0000 0000 0000 0000
00000360: 0000 0000 0000 0000 0000 0000 0000 0000
00000370: 0000 0000 0000 0000 0000 0000 0000 0000
00000380: 0000 0000 0000 0000 0000 0000 0000 0000
00000390: 0000 0000 0000 0000 0000 0000 0000 0000
000003a0: 0000 0000 0000 0000 0000 0000 0000 0000
000003b0: 0000 0000 0000 0000 0000 0000 0000 0000
000003c0: 0000 0000 0000 0000 0000 0000 0000 0000
000003d0: 0000 0000 0000 0000 0000 0000 0000 0000
000003e0: 0000 0000 0000 0000 0000 0000 0000 0000
000003f0: 0000 0000 0000 0000 0000 0000 0000 0000
0.0 0.0 0.0 0.0 0.0 0.0 0.0 0.0
0.0 0.0 0.0 0.0 0.0 0.0 0.0 0.0
0.0 0.0 0.0 0.0 0.0 0.0 0.0 0.0
0.0 0.0 0.0 0.0 0.0 0.0 0.0 0.0
0.0 0.0 0.0 0.0 0.0 0.0 0.0 0.0
0.0 0.0 0.0 0.0 0.0 0.0 0.0 0.0
0.0 0.0 0.0 0.0 0.0 0.0 0.0 0.0
0.0 0.0 0.0 0.0 0.0 0.0 0.0 0.0
0.0 0.0 0.0 0.0 0.0 0.0 0.0 0.0
0.0 0.0 0.0 0.0 0.0 0.0 0.0 0.0
0.0 0.0 0.0 0.0 0.0 0.0 0.0 0.0
0.0 0.0 0.0 0.0 0.0 0.0 0.0 0.0
0.0 0.0 0.0 0.0 0.0 0.0 0.0 0.0
0.0 0.0 0.0 0.0 0.0 0.0 0.0 0.0
0.0 0.0 0.0 0.0 0.0 0.0 0.0 0.0
0.0 0.0 0.0 0.0 0.0 0.0 0.0 0.0
0.0 0.0 0.0 0.0 0.0 0.0 0.0 0.0
0.0 0.0 0.0 0.0 0.0 0.0 0.0 0.0
0.0 0.0 0.0 0.0 0.0 0.0 0.0 0.0
0.0 0.0 0.0 0.0 0.0 0.0 0.0 0.0
0.0 0.0 0.0 0.0 0.0 0.0 0.0 0.0
0.0 0.0 0.0 0.0 0.0 0.0 0.0 0.0
0.0 0.0 0.0 0.0 0.0 0.0 0.0 0.0
0.0 0.0 0.0 0.0 0.0 0.0 0.0 0.0
0.0 0.0 0.0 0.0 0.0 0.0 0.0 0.0
0.0 0.0 0.0 0.0 0.0 0.0 0.0 0.0
0.0 0.0 0.0 0.0 0.0 0.0 0.0 0.0
0.0 0.0 0.0 0.0 0.0 0.0 0.0 0.0
0.0 0.0 0.0 0.0 0.0 0.0 0.0 0.0
0.0 0.0 0.0 0.0 0.0 0.0 0.0 0.0
0.0 0.0 0.0 0.0 0.0 0.0 0.0 0.0
0.0 0.0 0.0 0.0 0.0 0.0 0.0 0.0

x_f f4 [100, 1]
00000000: a5a7 9340 970d df3f d8a0 5540 534b 9c40
00000010: 7c59 4440 efb6 b040 ad23 ba40 9beb c540
00000020: 8515 9240 23f0 993f 1427 9940 6583 103f
00000030: 949e eb3f d153 fb3d 926f 9f40 5cc7 c240
00000040: 6eff b640 a0c9 2c40 c2ca 2140 6c90 c340
00000050: c05b 2e40 cf24 af40 a716 873f 4cfe c140
00000060: d631 e23e 5e36 363f 974d 8640 cb46 c840
00000070: 7c59 c440 754c 9140 9beb c540 c7a8 8840
00000080: cf24 af40 2181 2640 265f 8d40 6314 9d40
00000090: 2c6c c040 dd7e bc3e d153 fb3e 2181 a640
000000a0: 777b 5d40 d631 e23e 5958 cf3f 77bb 8440
000000b0: 557a e83f 83a6 9e40 970d 5f40 18c5 5840
000000c0: 520b 753f a5a7 1340 60a5 293f 314a a740
000000d0: db0f c93c 4cfe c140 c439 1540 d153 fb3f
000000e0: c439 1540 dfed 2f3f 1a34 cc3f 3757 5a40
000000f0: 1f12 b340 9e5a b940 265f 8d3f 949e 6b40
00000100: d631 623f 57e9 db3f 4382 1b40 35e8 6640
00000110: 1556 e53f 5958 cf3f d671 8940 1178 fe3f
00000120: 6583 1040 c05b 2e40 db0f 493f 67f2 0340
00000130: 83a6 9e40 f125 a440 4382 1b40 754c 9140
00000140: 750c 6a40 d8a0 553f b430 6d40 1556 e53f
00000150: 5cc7 c240 926f 9f40 534b 9c40 28ce 803f
00000160: dfed af40 bdec ba40 974d 8640 e4cb 9640
00000170: d631 623f d4c2 6e3f 6314 9d3f 7ec8 b740
00000180: 0f49 b240 3c35 c140 57e9 5b40 a0c9 ac3f
4.6142144 1.7426022 3.3379421 4.884195 3.0679617 5.5223308 5.816855 6.1850104
4.565127 1.2026409 4.7860203 0.5645049 1.8407769 0.12271846 4.9823694 6.086836
5.7186804 2.6998062 2.5280004 6.1113796 2.72435 5.473243 1.0553788 6.062292
0.44178647 0.7117671 4.1969714 6.2586417 6.1359234 4.540583 6.1850104 4.2706027
5.473243 2.6016314 4.417865 4.9087386 6.0132046 0.3681554 0.49087384 5.203263
3.4606607 0.44178647 1.6198837 4.147884 1.8162333 4.957826 3.4852045 3.3870296
0.957204 2.3071072 0.6626797 5.2278066 0.024543693 6.062292 2.3316507 1.9634954
2.3316507 0.6872234 1.59534 3.4115732 5.595962 5.7923117 1.1044662 3.6815538
0.88357294 1.7180585 2.4298255 3.6079228 1.7916895 1.6198837 4.295146 1.9880391
2.2580197 2.72435 0.7853982 2.06167 4.957826 5.1296315 2.4298255 4.540583
3.6570103 0.83448553 3.7060976 1.7916895 6.086836 4.9823694 4.884195 1.0062914
5.497787 5.8413987 4.1969714 4.712389 0.88357294 0.93266034 1.2271847 5.743224
5.5714183 6.0377483 3.436117 1.3499031

t_f f4 [100, 1]
00000000: 7786 c43e 5d74 513f ee0c 093f 6748 4c3f
00000010: dece 103e 9602 353f a0d6 2f3f 721c 473f
00000020: e9a2 0b3f b57e 253c e438 0e3f 6db2 493f
00000030: 4362 de3e 4362 de3e 0ad4 7a3f 0000 803f
00000040: a540 2d3f f376 063f ca26 9b3e 580a 543f
00000050: 0ad4 7a3f bae8 223f a0d6 af3e b57e a53e
00000060: 1a12 f33e 2950 6b3f e438 0e3f 721c 473f
00000070: 8c2e ba3e 398e 633e dece 903e 398e 633f
00000080: 2fba 683f ca26 1b3e bf52 203f b57e 253d
00000090: ca26 1b3e 3ef8 603f d4fa 153f fd4a 813e
000000a0: 6748 4c3f 7786 c43e 4e36 d93e b57e 253c
000000b0: 103e 783e 3424 663f 8c2e ba3e 1f7c 703f
000000c0: 7cf0 413f bf52 a03e b57e 253d a0d6 af3e
000000d0: 2fba e83e 15a8 753f 15a8 753f 2fba e83e
000000e0: 2fba e83e 62de 4e3f f376 063f dece 103f
000000f0: 3ef8 603f 86c4 3c3f b57e 253d 1a12 f33e
00000100: d964 133f dece 103f a540 2d3f 056a 7d3f
00000110: a0d6 2f3f 4e36 593e 62de 4e3d dece 903e
00000120: fd4a 813e 62de 4e3f b57e 253c 580a d43e
00000130: 103e 783f 0ad4 7a3f d4fa 953e f8e0 033f
00000140: 53a0 563f 1a12 733f 1a12 f33e cf90 183f
00000150: 6db2 c93e a0d6 2f3f 4e36 593f b57e a53c
00000160: 2950 6b3f 103e f83e f376 063e ca26 1b3f
00000170: fd4a 813e 103e 783f a0d6 af3e 53a0 563f
00000180: 103e f83e 6748 4c3f 9198 373f ca26 9b3e
0.3838384 0.8181818 0.53535354 0.7979798 0.14141414 0.7070707 0.68686867 0.7777778
0.54545456 0.01010101 0.5555556 0.7878788 0.43434343 0.43434343 0.97979796 1.0
0.67676765 0.5252525 0.3030303 0.82828283 0.97979796 0.6363636 0.34343433 0.32323232
0.47474748 0.9191919 0.5555556 0.7777778 0.36363637 0.22222222 0.28282827 0.8888889
0.90909094 0.15151516 0.6262626 0.04040404 0.15151516 0.8787879 0.5858586 0.25252524
0.7979798 0.3838384 0.42424244 0.01010101 0.24242425 0.8989899 0.36363637 0.93939394
0.75757575 0.3131313 0.04040404 0.34343433 0.45454547 0.959596 0.959596 0.45454547
0.45454547 0.8080808 0.5252525 0.56565654 0.8787879 0.7373737 0.04040404 0.47474748
0.57575756 0.56565654 0.67676765 0.989899 0.68686867 0.21212122 0.05050505 0.28282827
0.25252524 0.8080808 0.01010101 0.41414142 0.969697 0.97979796 0.2929293 0.5151515
0.83838385 0.94949496 0.47474748 0.5959596 0.3939394 0.68686867 0.8484849 0.02020202
0.9191919 0.4848485 0.13131313 0.6060606 0.25252524 0.969697 0.34343433 0.83838385
0.4848485 0.7979798 0.7171717 0.3030303

x_bc_lb f4 [100, 1]
00000000: 0000 0000 0000 0000 0000 0000 0000 0000
00000010: 0000 0000 0000 0000 0000 0000 0000 0000
00000020: 0000 0000 0000 0000 0000 0000 0000 0000
00000030: 0000 0000 0000 0000 0000 0000 0000 0000
00000040: 0000 0000 0000 0000 0000 0000 0000 0000
00000050: 0000 0000 0000 0000 0000 0000 0000 0000
00000060: 0000 0000 0000 0000 0000 0000 0000 0000
00000070: 0000 0000 0000 0000 0000 0000 0000 0000
00000080: 0000 0000 0000 0000 0000 0000 0000 0000
00000090: 0000 0000 0000 0000 0000 0000 0000 0000
000000a0: 0000 0000 0000 0000 0000 0000 0000 0000
000000b0: 0000 0000 0000 0000 0000 0000 0000 0000
000000c0: 0000 0000 0000 0000 0000 0000 0000 0000
000000d0: 0000 0000 0000 0000 0000 0000 0000 0000
000000e0: 0000 0000 0000 0000 0000 0000 0000 0000
000000f0: 0000 0000 0000 0000 0000 0000 0000 0000
00000100: 0000 0000 0000 0000 0000 0000 0000 0000
00000110: 0000 0000 0000 0000 0000 0000 0000 0000
00000120: 0000 0000 0000 0000 0000 0000 0000 0000
00000130: 0000 0000 0000 0000 0000 0000 0000 0000
00000140: 0000 0000 0000 0000 0000 0000 0000 0000
00000150: 0000 0000 0000 0000 0000 0000 0000 0000
00000160: 0000 0000 0000 0000 0000 0000 0000 0000
00000170: 0000 0000 0000 0000 0000 0000 0000 0000
00000180: 0000 0000 0000 0000 0000 0000 0000 0000
0.0 0.0 0.0 0.0 0.0 0.0 0.0 0.0
0.0 0.0 0.0 0.0 0.0 0.0 0.0 0.0
0.0 0.0 0.0 0.0 0.0 0.0 0.0 0.0
0.0 0.0 0.0 0.0 0.0 0.0 0.0 0.0
0.0 0.0 0.0 0.0 0.0 0.0 0.0 0.0
0.0 0.0 0.0 0.0 0.0 0.0 0.0 0.0
0.0 0.0 0.0 0.0 0.0 0.0 0.0 0.0
0.0 0.0 0.0 0.0 0.0 0.0 0.0 0.0
0.0 0.0 0.0 0.0 0.0 0.0 0.0 0.0
0.0 0.0 0.0 0.0 0.0 0.0 0.0 0.0
0.0 0.0 0.0 0.0 0.0 0.0 0.0 0.0
0.0 0.0 0.0 0.0 0.0 0.0 0.0 0.0
0.0 0.0 0.0 0.0

t_bc_lb f4 [100, 1]
00000000: 0000 0000 b57e 253c b57e a53c 103e f83c
00000010: b57e 253d 62de 4e3d 103e 783d dece 903d
00000020: b57e a53d 8c2e ba3d 62de ce3d 398e e33d
00000030: 103e f83d f376 063e dece 103e ca26 1b3e
00000040: b57e 253e a0d6 2f3e 8c2e 3a3e 7786 443e
00000050: 62de 4e3e 4e36 593e 398e 633e 24e6 6d3e
00000060: 103e 783e fd4a 813e f376 863e e9a2 8b3e
00000070: dece 903e d4fa 953e ca26 9b3e bf52 a03e
00000080: b57e a53e abaa aa3e a0d6 af3e 9602 b53e
00000090: 8c2e ba3e 815a bf3e 7786 c43e 6db2 c93e
000000a0: 62de ce3e 580a d43e 4e36 d93e 4362 de3e
000000b0: 398e e33e 2fba e83e 24e6 ed3e 1a12 f33e
000000c0: 103e f83e 056a fd3e fd4a 013f f8e0 033f
000000d0: f376 063f ee0c 093f e9a2 0b3f e438 0e3f
000000e0: dece 103f d964 133f d4fa 153f cf90 183f
000000f0: ca26 1b3f c5bc 1d3f bf52 203f bae8 223f
00000100: b57e 253f b014 283f abaa 2a3f a540 2d3f
00000110: a0d6 2f3f 9b6c 323f 9602 353f 9198 373f
00000120: 8c2e 3a3f 86c4 3c3f 815a 3f3f 7cf0 413f
00000130: 7786 443f 721c 473f 6db2 493f 6748 4c3f
00000140: 62de 4e3f 5d74 513f 580a 543f 53a0 563f
00000150: 4e36 593f 48cc 5b3f 4362 5e3f 3ef8 603f
00000160: 398e 633f 3424 663f 2fba 683f 2950 6b3f
00000170: 24e6 6d3f 1f7c 703f 1a12 733f 15a8 753f
00000180: 103e 783f 0ad4 7a3f 056a 7d3f 0000 803f
0.0 0.01010101 0.02020202 0.030303031 0.04040404 0.05050505 0.060606062 0.07070707
0.08080808 0.09090909 0.1010101 0.11111111 0.121212125 0.13131313 0.14141414 0.15151516
0.16161616 0.17171717 0.18181819 0.1919192 0.2020202 0.21212122 0.22222222 0.23232323
0.24242425 0.25252524 0.26262626 0.27272728 0.28282827 0.2929293 0.3030303 0.3131313
0.32323232 0.33333334 0.34343433 0.35353535 0.36363637 0.37373737 0.3838384 0.3939394
0.4040404 0.41414142 0.42424244 0.43434343 0.44444445 0.45454547 0.46464646 0.47474748
0.4848485 0.4949495 0.5050505 0.5151515 0.5252525 0.53535354 0.54545456 0.5555556
0.56565654 0.57575756 0.5858586 0.5959596 0.6060606 0.61616164 0.6262626 0.6363636
0.64646465 0.65656567 0.6666667 0.67676765 0.68686867 0.6969697 0.7070707 0.7171717
0.72727275 0.7373737 0.74747473 0.75757575 0.7676768 0.7777778 0.7878788 0.7979798
0.8080808 0.8181818 0.82828283 0.83838385 0.8484849 0.85858583 0.86868685 0.8787879
0.8888889 0.8989899 0.90909094 0.9191919 0.9292929 0.93939394 0.94949496 0.959596
0.969697 0.97979796 0.989899 1.0

x_bc_ub f4 [100, 1]
00000000: db0f c940 db0f c940 db0f c940 db0f c940
00000010: db0f c940 db0f c940 db0f c940 db0f c940
00000020: db0f c940 db0f c940 db0f c940 db0f c940
00000030: db0f c940 db0f c940 db0f c940 db0f c940
00000040: db0f c940 db0f c940 db0f c940 db0f c940
00000050: db0f c940 db0f c940 db0f c940 db0f c940
00000060: db0f c940 db0f c940 db0f c940 db0f c940
00000070: db0f c940 db0f c940 db0f c940 db0f c940
00000080: db0f c940 db0f c940 db0f c940 db0f c940
00000090: db0f c940 db0f c940 db0f c940 db0f c940
000000a0: db0f c940 db0f c940 db0f c940 db0f c940
000000b0: db0f c940 db0f c940 db0f c940 db0f c940
000000c0: db0f c940 db0f c940 db0f c940 db0f c940
000000d0: db0f c940 db0f c940 db0f c940 db0f c940
000000e0: db0f c940 db0f c940 db0f c940 db0f c940
000000f0: db0f c940 db0f c940 db0f c940 db0f c940
00000100: db0f c940 db0f c940 db0f c940 db0f c940
00000110: db0f c940 db0f c940 db0f c940 db0f c940
00000120: db0f c940 db0f c940 db0f c940 db0f c940
00000130: db0f c940 db0f c940 db0f c940 db0f c940
00000140: db0f c940 db0f c940 db0f c940 db0f c940
00000150: db0f c940 db0f c940 db0f c940 db0f c940
00000160: db0f c940 db0f c940 db0f c940 db0f c940
00000170: db0f c940 db0f c940 db0f c940 db0f c940
00000180: db0f c940 db0f c940 db0f c940 db0f c940
6.2831855 6.2831855 6.2831855 6.2831855 6.2831855 6.2831855 6.2831855 6.2831855
6.2831855 6.2831855 6.2831855 6.2831855 6.2831855 6.2831855 6.2831855 6.2831855
6.2831855 6.2831855 6.2831855 6.2831855 6.2831855 6.2831855 6.2831855 6.2831855
6.2831855 6.2831855 6.2831855 6.2831855 6.2831855 6.2831855 6.2831855 6.2831855
6.2831855 6.2831855 6.2831855 6.2831855 6.2831855 6.2831855 6.2831855 6.2831855
6.2831855 6.2831855 6.2831855 6.2831855 6.2831855 6.2831855 6.2831855 6.2831855
6.2831855 6.2831855 6.2831855 6.2831855 6.2831855 6.2831855 6.2831855 6.2831855
6.2831855 6.2831855 6.2831855 6.2831855 6.2831855 6.2831855 6.2831855 6.2831855
6.2831855 6.2831855 6.2831855 6.2831855 6.2831855 6.2831855 6.2831855 6.2831855
6.2831855 6.2831855 6.2831855 6.2831855 6.2831855 6.2831855 6.2831855 6.2831855
6.2831855 6.2831855 6.2831855 6.2831855 6.2831855 6.2831855 6.2831855 6.2831855
6.2831855 6.2831855 6.2831855 6.2831855 6.2831855 6.2831855 6.2831855 6.2831855
6.2831855 6.2831855 6.2831855 6.2831855

t_bc_ub f4 [100, 1]
00000000: 0000 0000 b57e 253c b57e a53c 103e f83c
00000010: b57e 253d 62de 4e3d 103e 783d dece 903d
00000020: b57e a53d 8c2e ba3d 62de ce3d 398e e33d
00000030: 103e f83d f376 063e dece 103e ca26 1b3e
00000040: b57e 253e a0d6 2f3e 8c2e 3a3e 7786 443e
00000050: 62de 4e3e 4e36 593e 398e 633e 24e6 6d3e
00000060: 103e 783e fd4a 813e f376 863e e9a2 8b3e
00000070: dece 903e d4fa 953e ca26 9b3e bf52 a03e
00000080: b57e a53e abaa aa3e a0d6 af3e 9602 b53e
00000090: 8c2e ba3e 815a bf3e 7786 c43e 6db2 c93e
000000a0: 62de ce3e 580a d43e 4e36 d93e 4362 de3e
000000b0: 398e e33e 2fba e83e 24e6 ed3e 1a12 f33e
000000c0: 103e f83e 056a fd3e fd4a 013f f8e0 033f
000000d0: f376 063f ee0c 093f e9a2 0b3f e438 0e3f
000000e0: dece 103f d964 133f d4fa 153f cf90 183f
000000f0: ca26 1b3f c5bc 1d3f bf52 203f bae8 223f
00000100: b57e 253f b014 283f abaa 2a3f a540 2d3f
00000110: a0d6 2f3f 9b6c 323f 9602 353f 9198 373f
00000120: 8c2e 3a3f 86c4 3c3f 815a 3f3f 7cf0 413f
00000130: 7786 443f 721c 473f 6db2 493f 6748 4c3f
00000140: 62de 4e3f 5d74 513f 580a 543f 53a0 563f
00000150: 4e36 593f 48cc 5b3f 4362 5e3f 3ef8 603f
00000160: 398e 633f 3424 663f 2fba 683f 2950 6b3f
00000170: 24e6 6d3f 1f7c 703f 1a12 733f 15a8 753f
00000180: 103e 783f 0ad4 7a3f 056a 7d3f 0000 803f
0.0 0.01010101 0.02020202 0.030303031 0.04040404 0.05050505 0.060606062 0.07070707
0.08080808 0.09090909 0.1010101 0.11111111 0.121212125 0.13131313 0.14141414 0.15151516
0.16161616 0.17171717 0.18181819 0.1919192 0.2020202 0.21212122 0.22222222 0.23232323
0.24242425 0.25252524 0.26262626 0.27272728 0.28282827 0.2929293 0.3030303 0.3131313
0.32323232 0.33333334 0.34343433 0.35353535 0.36363637 0.37373737 0.3838384 0.3939394
0.4040404 0.41414142 0.42424244 0.43434343 0.44444445 0.45454547 0.46464646 0.47474748
0.4848485 0.4949495 0.5050505 0.5151515 0.5252525 0.53535354 0.54545456 0.5555556
0.56565654 0.57575756 0.5858586 0.5959596 0.6060606 0.61616164 0.6262626 0.6363636
0.64646465 0.65656567 0.6666667 0.67676765 0.68686867 0.6969697 0.7070707 0.7171717
0.72727275 0.7373737 0.74747473 0.75757575 0.7676768 0.7777778 0.7878788 0.7979798
0.8080808 0.8181818 0.82828283 0.83838385 0.8484849 0.85858583 0.86868685 0.8787879
0.8888889 0.8989899 0.90909094 0.9191919 0.9292929 0.93939394 0.94949496 0.959596
0.969697 0.97979796 0.989899 1.0

weight f4 [50, 2]
00000000: 9754 e83d 31ad bebd c55d b93c 1673 a43d
00000010: 92f9 0b3f 3316 37be 77c7 cabc ee4b e83d
00000020: 16ec 5abd e3eb 093c 1053 7dbe 921a cf3d
00000030: 510c da3d 1324 8d3d 4f3e 5abe 7578 7fbe
00000040: 6bda f83d fe8d 303c db56 da3d 7c62 86be
00000050: 0706 d6be d8ff dd3c ebbf 913e d293 bdbd
00000060: 899c 71be d961 d8be b092 58bd e02f fd3d
00000070: 59de b93d 73be f73d c5b3 fcbd 57bc 8e3c
00000080: 1019 0fbe 07cc 70be 1e17 a5be 8a8c d63d
00000090: fb90 27bc 0da8 593e 688f b9be bf27 273e
000000a0: b1d0 0c3e dbef aabd 7247 f23d c157 99bd
000000b0: c7b3 b23d 6840 c5bc 5712 6d3d 5ed5 51be
000000c0: 6d8b 1abd a7c9 b33d f867 d03e d8fb 15be
000000d0: d8bf 0abe 1a7b 783e ded6 9cbd f7d2 033e
000000e0: 04f1 8b3e 9bd1 10bd 2655 003d 418c b9bd
000000f0: df45 b0bc 3d92 4b3e d293 8abe 7ab8 673d
00000100: 94cf 553e 4b0c 293b 3ba4 bfbe aeb1 66be
00000110: 4b1d 4b3d 2452 4abe 96e3 ecbe a84b 24be
00000120: 93e8 e4bd 76bf 42be 303e e63d aca0 e6bc
00000130: 5425 d8bc 2506 e1bc d72c 1ebe 3b40 10bd
00000140: 4824 7abd 35a9 883c 3fb6 003e b085 ae3c
00000150: 5e38 0c3e 3e4e 4dbe 8f1e 023f 8108 5939
00000160: ca87 2c3e b018 863e 2ca4 07be 976f 07bf
00000170: 60d4 a23c da20 59be 47e1 233e b928 babe
00000180: 03d4 4cbe 070c 70be 85da 323e f184 15be
0.11344259 -0.093103774 0.02262772 0.080297634 0.5467769 -0.17879562 -0.024753315 0.113426074
-0.053447805 0.008418056 -0.24738717 0.1011249 0.106468804 0.06891646 -0.21312831 -0.24948294
0.12151035 0.010776041 0.106610976 -0.26247013 -0.41801473 0.027099535 0.28466734 -0.0925671
-0.2359487 -0.42262152 -0.052874267 0.12362647 0.090756126 0.12096872 -0.12338976 0.017423792
-0.13974404 -0.2351533 -0.322442 0.104760244 -0.010227437 0.21255513 -0.36242223 0.16323756
0.13751484 -0.0834653 0.11830033 -0.07487441 0.08725696 -0.024078563 0.05787882 -0.2049155
-0.037730623 0.087786965 0.40704322 -0.14646852 -0.13549745 0.2426571 -0.0765817 0.12873445
0.27332318 -0.035356145 0.031331204 -0.090599544 -0.021517692 0.19880004 -0.27065903 0.056572415
0.20879966 0.002579468 -0.37429985 -0.22528717 0.049588483 -0.19757897 -0.46267384 -0.16044486
-0.111771725 -0.19018349 0.1124233 -0.028152786 -0.026384987 -0.02746875 -0.15446793 -0.035217505
-0.061069757 0.016682247 0.12569521 0.021303982 0.13693377 -0.20049378 0.5082788 0.000206979
0.16848674 0.2619071 -0.1324622 -0.5290465 0.019876659 -0.21203938 0.16003905 -0.36359194
-0.20002751 -0.23442088 0.17466171 -0.14601494

bias f4 [50]
00000000: 435f 91bc a0ec 8fbc 99ba 09bd 7001 ccbc
00000010: 7da8 d6ba d91e 8a3d 715e c1bd f622 a53c
00000020: 0688 27bc b309 64bc be79 ee3b 60dd 76bd
00000030: 520c fc3c 9f61 e73b 14d9 36bc f2ec 393c
00000040: 6970 62bc 5ff4 083d 5b9c 343d 1d97 92ba
00000050: d50e c9bc ca90 73bc faa9 0b3d bf71 d3bc
00000060: a771 7e3c 4761 89bc 526d 183d 8922 03bd
00000070: 0104 37bd 9105 fcbc f671 c63b 3c90 c13b
00000080: ab72 a4bd 1671 b3ba ada8 d23c fd55 e93c
00000090: d974 853c ea34 07bd 8e52 9eba 9887 c03c
000000a0: 497a 573c 78d4 7bbd 7f98 e3bc 50a4 6a3b
000000b0: 8e44 3cbd 321e 4d3d af92 27bc 949e 1d3c
000000c0: 62b0 643d 216b 91bc
-0.01774562 -0.017568886 -0.03362522 -0.02490303 -0.0016377118 0.06744165 -0.094418414 0.020158272
-0.010225302 -0.013918328 0.0072776964 -0.060269713 0.030767594 0.007061198 -0.011160154 0.011347996
-0.013820746 0.033436175 0.044094425 -0.0011183951 -0.024543205 -0.014866063 0.03409765 -0.025811074
0.0155300265 -0.016770018 0.03721363 -0.032015357 -0.044681553 -0.030764373 0.0060560657 0.0059070867
-0.08029684 -0.0013690318 0.025715197 0.028483385 0.016291069 -0.033009447 -0.0012079047 0.023502156
0.013151714 -0.061481923 -0.027782677 0.0035803504 -0.045963816 0.050077625 -0.010227843 0.0096203275
0.055832274 -0.017751278

weight f4 [50, 50]
00000000: a580 183e 1796 b7bd 4669 c1be 0f08 023e
00000010: ba98 36bd ccd0 2cbd 9729 3ebe a6b4 ae3d
00000020: 20ef c53d d05a af3d cac0 f53d 3d57 85be
00000030: b5f9 63be 87d9 aabd de33 533e 14c7 5bbd
00000040: e6a7 84be 9215 85bc 64cd 263e 35af 38be
00000050: f98b d33c 6a55 3a3d fa1d 123e a85e af3d
00000060: 97e3 a03e 373e 0f3d 70d6 a93e 362d 373d
00000070: f06c 4c3e 3176 99be beb8 7a3e cbb7 76bd
00000080: 6e18 23bd 5c5f 60be b579 ee3d 2225 3e3d
00000090: 9ead 5f3e a30f 61ba 10b2 00bd 998b b63d
000000a0: ed42 763d 55d2 73be 6dc3 01be 7054 0dbc
000000b0: ae32 57bc 030b c03d 56fb b1bc 65f1 2cbe
000000c0: c088 a33d 7533 eabd 0035 0ebe a403 00be
000000d0: 0cb7 bdbd 3f86 b1bd c039 6a3d bb62 08bd
000000e0: fc8c b53d 792d dbbc 1963 863c 46f7 333e
000000f0: b430 07be 3f36 b1be bb33 5e3e a980 dc3c
00000100: 21a3 cfbd dbe2 073e 11d9 cd3b f7bf 723e
00000110: 0812 31be 0740 d93c 028a de3c 2c99 103e
00000120: 2606 40be fba7 263e 23fd 223e 364c df3c
00000130: 7a46 f0bd a0dc d4bc 524e 56bc a6e8 5e3d
00000140: bad0 78bc cdb3 47bc 9924 b5b9 7d59 84be
00000150: 5527 56be 7299 0dbe 40ca d8bd d947 0dbe
00000160: ec9d 95be 3006 f2bd b4dd 4f3d 9bbc e4bc
00000170: a059 79be 6c31 a0bd 9f44 a3bd 8e2c f9bd
00000180: 8a17 2b3e d0c3 71be 0ce4 d53d 3901 673e
00000190: 8abe dbbd 3857 333d de45 abbd 018d 493d
000001a0: c8cd 133c 4a52 813d bf96 74bc 867c 5b3e
000001b0: 51fe b0bd 8c3f 1c3d f398 80be af4f a2bd
000001c0: f89b f13d c50b 28bd 1c0d 903d 7682 713d
000001d0: 6041 f7bd ce1a e03d d7f1 383e fee5 3d3d
000001e0: d768 af3d bade a4bc 1a02 803c 99f7 f6bd
000001f0: 193d fa3c ea35 d6bc 3aec 10be 6aad 443e
00000200: 1797 8c3e 444e 98bd bec4 2d3d e81d 2fbe
00000210: 1783 2e3d 9c1b 6b3d 8b59 343d d2e5 cf3d
00000220: 1561 d83d 264c b9bc ce3c 9c3c 7ea3 533e
00000230: 9f6b c1bd 6c3c 493d be91 9abd 6311 17bc
00000240: 07b9 a33d a2a5 163e 978f b23c a757 b1be
00000250: 88dd ef3c ee8c 1a3e 5664 59be efe2 313c
00000260: 7725 173e beef 12bd cf3f 1dbc d424 f83d
00000270: 0bb7 a23e 1381 f33c 16a3 f6bd 8bad 653d
00000280: dd8a ffbd fa48 cdbb 1dca f33d 91da bdbc
00000290: 1439 803c cd0b ce3d ffc8 e03c 0997 b4bc
000002a0: 1154 24be 058c f33d 8e30 2ebe 9c5e 443e
000002b0: 0d7d 66bb 935f 9f3e 0169 733e cbd2 73bd
000002c0: 753f 353d f6d0 c63d 3858 ee3d cbd5 7b3e
000002d0: 37a8 84bd e520 a83d b3b2 2dbe 0a12 4bbe
000002e0: 3b22 3abe 87eb 21bd 0d88 88be 8a79 87bb
000002f0: a2e9 593e dbf8 433d 23c5 eebd 987a 973c
00000300: fd11 0bbe cee1 8e3d 2a6f 223e 3a3e 32be
00000310: a2f4 92bc 9b13 d33d 115e eebd 647a 153e
00000320: 854c 533d 5c14 24bd 8a63 853d 1911 3a3c
00000330: af4f 803e 8283 59be 88ab 143e cf00 6f3e
00000340: 34e8 c1bc 613b 15be a98e 793e b7ab 61be
00000350: 22c0 783b 7d78 b5bd fae8 e23c 144f 61bd
00000360: d496 13be 4ea9 843d 4d6e adbd 0642 bfbd
00000370: b021 29bd fe25 a93d f4dc d3bd ed64 03be
00000380: b7e0 ee3d 203f 4e3d f80e ecbd 5218 0a3e
00000390: b408 92bc bac9 103e 0a9d 1bbd 41e2 4fbe
000003a0: 15c7 f0bd 050d 183e 6e35 44be 9bcd d63d
000003b0: e95e b2bd 7a11 de3c fdd7 a33d bbf0 a93b
000003c0: 1f60 dcbd 3844 7bbe 0e81 21bd ec61 123e
000003d0: 4049 39be 43e1 ed3d cb61 133d 32d6 cb3d
000003e0: 9431 d03d 8c9b 843c c01a d9bd 4cb1 27be
000003f0: fe69 ebbd a9ce 263e 92b8 bbbb 669e 1abd
0.14892824 -0.08964174 -0.3777563 0.12698387 -0.044579245 -0.04219131 -0.18570553 0.0853055
0.0966475 0.08562243 0.11999662 -0.2604312 -0.22263224 -0.08342271 0.20625255 -0.053656653
-0.25909346 -0.016245637 0.16289288 -0.18035586 0.02582358 0.045491613 0.14269248 0.08562976
0.31423637 0.034971442 0.33171415 0.04472085 0.19963431 -0.29972985 0.24484536 -0.060233872
-0.03981822 -0.21911377 0.116443075 0.04642213 0.21843573 -0.0008585399 -0.031419814 0.08913345
0.06012242 -0.23810704 -0.12672205 -0.0086260885 -0.013134642 0.093771 -0.021726292 -0.1688896
0.07985067 -0.11435596 -0.13887405 -0.12501389 -0.09263429 -0.086681835 0.05718398 -0.03329728
0.08864781 -0.026755081 0.016404675 0.17574796 -0.13202173 -0.346117 0.21699421 0.026916819
-0.10138536 0.13270132 0.00628198 0.23706041 -0.17292035 0.026519788 0.027165417 0.1412093
-0.18752345 0.16275017 0.15916876 0.02725802 -0.11732192 -0.025984108 -0.013080196 0.05442109
-0.015186483 -0.012188864 -0.00034550278 -0.25849524 -0.20913441 -0.13828066 -0.10585451 -0.13796939
-0.29222047 -0.118175864 0.050748542 -0.027921965 -0.24350595 -0.078219265 -0.07972073 -0.12166701
0.16708198 -0.23609853 0.10443887 0.2255906 -0.10729702 0.04378435 -0.083629355 0.049206737
0.00902123 0.063145235 -0.014928519 0.2143422 -0.08642257 0.03814654 -0.2511669 -0.07925355
0.11797327 -0.04102685 0.070337504 0.058962308 -0.12073016 0.109426126 0.18061005 0.046361916
0.085649185 -0.020125736 0.015626002 -0.12058944 0.030546712 -0.026148755 -0.14152613 0.19206777
0.27459022 -0.07436803 0.042423956 -0.17101252 0.042605486 0.057399377 0.044030707 0.101512566
0.10565392 -0.022619318 0.019071963 0.20667836 -0.09444355 0.04912989 -0.07547329 -0.009220454
0.079942755 0.14711621 0.021796985 -0.34637186 0.029280439 0.15092823 -0.21229681 0.010857328
0.14760385 -0.035873167 -0.009597733 0.121163994 0.31780276 0.029724633 -0.12042825 0.056073707
-0.12477658 -0.006264803 0.119037844 -0.02317551 0.015652217 0.100608446 0.027439592 -0.022044675
-0.16047694 0.11891941 -0.1701071 0.19176716 -0.003516975 0.31127605 0.23770525 -0.0595272
0.04424997 0.09707825 0.1163792 0.24593274 -0.06477397 0.08209399 -0.169627 -0.198311
-0.1817712 -0.039531257 -0.26666299 -0.0041343616 0.2128053 0.04784475 -0.116586946 0.018491074
-0.1358108 0.069766626 0.15862718 -0.1740655 -0.017938916 0.10306474 -0.116390355 0.1459747
0.051586647 -0.04005848 0.06513126 0.011356615 0.25060794 -0.21241572 0.14518559 0.23340152
-0.023670293 -0.14573433 0.24370827 -0.2203816 0.0037956317 -0.08860872 0.027698983 -0.055007055
-0.14413005 0.06477605 -0.08468304 -0.09338765 -0.041291893 0.082591996 -0.10344878 -0.12831469
0.11663955 0.05035317 -0.115262926 0.1348584 -0.017826416 0.14139453 -0.03799156 -0.20301153
-0.11756722 0.14848717 -0.19161007 0.10488435 -0.08709509 0.027107943 0.08000181 0.005186168
-0.10760521 -0.24537742 -0.039429717 0.14295167 -0.18094349 0.11615231 0.035981935 0.09952964
0.10165706 0.016187452 -0.10600805 -0.16376227 -0.11494826 0.16289772 -0.0057287896 -0.037748717

bias f4 [50]
00000000: 9fa5 0b3d 6678 0b3c 7193 6bbb 8355 b5bc
00000010: f4cd 0f3c a6f5 a6bb 9fef 733b 7d07 b0bb
00000020: 0043 33bc 8bfc 0abd 9356 87bb a162 de3b
00000030: 1080 8e3b 979b a93b aa88 89bc c9ac 27bc
00000040: de27 873c d42f 9d3b d0e3 ac3b c7f3 5b3d
00000050: 22d1 de3c c74e 593c 7f05 05bd 6495 c33c
00000060: 3299 15bc 60a7 843d ef27 96bd a222 6bbd
00000070: 4d45 cfbc 66ad 23bb be96 09bd cc01 643b
00000080: 5299 3bbc f129 0a3c 2963 18ba 70d2 ceba
00000090: 4c0e 65b8 f059 0c3d 8e0c db3c 2d06 0c3d
000000a0: bde1 d7bb 6884 8b3b 5948 87bb af89 00b9
000000b0: bc0a 903c bd37 38bc 6721 de3a d58d 253c
000000c0: fe05 093d e205 84bc
0.034093495 0.008512592 -0.0035946036 -0.022135502 0.00877713 -0.0050952015 0.0037221683 -0.0053719864
-0.010941267 -0.03393225 -0.0041301935 0.00678666 0.0043487623 0.0051760185 -0.0167888 -0.010234066
0.016498502 0.0047969613 0.005276181 0.05369928 0.027199332 0.013263411 -0.032475945 0.023874946
-0.009130763 0.06477237 -0.073318355 -0.057406075 -0.0253016 -0.002497518 -0.033591025 0.003479111
-0.011450129 0.008432851 -0.0005813116 -0.0015779268 -5.461117e-05 0.03426546 0.026739385 0.034185577
-0.0065881894 0.0042577274 -0.0041284976 -0.00012258322 0.017583244 -0.011243758 0.001694721 0.010104616
0.03345298 -0.016116086

weight f4 [50, 50]
00000000: 9d01 89be 2876 cc3d 127c d5bd c71e fabd
00000010: d0d1 b6bd 0882 a33e ca43 c13d c1fb 243d
00000020: 9ec2 3ebe 2957 41be 0832 9c3e 2196 5ebe
00000030: ac2c c23c 2711 553e 0bc7 11be 1e6a c63e
00000040: 5e5b debd a2b3 68be 192b a0bb 4f82 643e
00000050: 92ad d13d dfd8 ebbd f201 2d3d 0b09 3abb
00000060: 9458 ef3a 0b33 2b3e b4e2 1ebd 267b 32be
00000070: 4db7 6e3e 0c59 d03d 6d28 213d 33aa 53bc
00000080: 9d8e 6a3e 4abf 88bd f1f6 19be a1c7 8bbd
00000090: 9304 6abd 9a7f c23d b35c 4f3e 79d6 af3e
000000a0: a9f8 c63d 2b93 e63d dbd0 063e fb09 38be
000000b0: 0180 d03d dde9 b93e 6720 fcbd cfc5 4bbe
000000c0: 4769 a6be a0ca a73d 9c95 84be bd69 44bc
000000d0: abbb f2bd e329 ac3d c661 293c 9a30 c93d
000000e0: 7492 a1be 2b0d 7a3e 2368 143e 1b35 983d
000000f0: bb6d 083e 6b98 e13d 8784 133e 38b6 103e
00000100: efcf 56bd 3843 d43d 1654 4a3d 3309 9fbc
00000110: 6314 103e b073 043d d963 8b3e 3867 2ebe
00000120: 152a fa3c a950 09be bdd5 243d e491 34bd
00000130: 6711 71be 5dd3 98bc c600 c83d fe49 c0bc
00000140: 89a7 17be 4055 493b 1379 47bd 5bb5 e63d
00000150: 3d30 4e3e e44b aabd f392 b73d ecf4 05bd
00000160: 77ec ccbd 0a91 e2bd 1caf 85be a676 d3bd
00000170: ce15 473e dced 5dbd 558f 01be fa99 793e
00000180: f541 2a3d 4f79 94be 6cec 29bd 9c85 c03d
00000190: f772 d53d 0f33 523e 4e0a 77bc 8642 8bbc
000001a0: 2d90 39bd 4ea1 a1be 823b b6bc e6ce ea3c
000001b0: f614 06bd b9a7 ff3d 9319 273e 4ec8 663d
000001c0: 6e9d 813e d7e6 6e3d 5661 8c3d 06c1 ee3d
000001d0: a536 553d d2ef 133e b69d 8e3d 6032 2e3e
000001e0: 6422 153e 6085 303e 6e72 6abd 2897 883e
000001f0: 5e91 65be 2980 dfbd e819 06be da39 febd
00000200: 8836 a6be cef3 103e 30d2 48be c3c0 0e3e
00000210: 935f bbbc e977 c6bd 2eb2 32be 28c9 e93c
00000220: 7903 7f3e a4f7 23be d50c b6bd 5a0c cabd
00000230: 3b9b 91bd 987e 44be 8ba8 a53d 7cad 79be
00000240: 8945 b9bc a542 81be c88a 853e 2774 0bbe
00000250: 3857 493e 0b87 fabd 902c 93be aad6 383e
00000260: 4321 a73d 1135 1d3e fd8f e23b 75d1 783c
00000270: 3e11 493c 7d2c 0ebe cc09 0ebe f284 21bd
00000280: d031 46bd 737f 01be e371 0f3e 491d f3bd
00000290: 67a6 b3bd 2fe3 0a3e d962 dc3c 9ff9 273e
000002a0: 1021 12be 2a07 82bd 1db4 e5bd 1b85 113d
000002b0: 8ba4 8ebd 0e32 da3d 99d4 d2bd 3c0e b2bd
000002c0: c52e d63d 9399 dabd ad99 8c3c 24f2 b3bc
000002d0: 7e6f 743d 2bca 84be 6a13 773d 9df4 913e
000002e0: 41d0 4dbe 4539 083d ebb2 3ebe 9cfc f13c
000002f0: f5db b63d 4d47 403e 783f 683e 4553 4fbd
00000300: 2128 63bd f193 a1be 1cba fc3d 8f71 64be
00000310: c9e1 363e ebc2 c9bc d528 12bd 8f35 7cbe
00000320: 6d7a fd3b f232 d0bd 342d c5bd c86a de3c
00000330: c96c 7bbe 2e8b e93d 041a 87bd 12f9 fdbc
00000340: 3b27 1c3d 3396 c13d a0b4 2cbe 25a1 bebd
00000350: 5a8a 59be 1f06 fa3d 8246 d83d 2226 c2bd
00000360: 683c fa3d a66b fabd 55bc 4a3e 0230 abbc
00000370: ad05 993e 9ebc 2d3d 2ab3 99be a914 d13d
00000380: 26d8 243e 60b1 b0bd 0103 8ebe a777 873e
00000390: 5e29 0c3e 4c34 c83d c0e4 1f3d e8a7 883d
000003a0: ac63 2dbe 69bb 56be c089 b0bc 6a8b c43d
000003b0: 4620 e23d 3c68 b33d fb21 5ebe 75a1 33be
000003c0: 274d 8abd 5072 3dbc 9dde e6bd 9357 38be
000003d0: 7b05 60bd 3d0b 143e 231c 103e 4a62 3ebe
000003e0: 96ec 923c 173c a73d 8e92 823e f3bc 333e
000003f0: 12b8 ab3d e3a8 163e 1379 52be 6f1b f9bd
-0.26759043 0.09983474 -0.10424055 -0.122129016 -0.08926737 0.31935143 0.09436758 0.040279154
-0.18628928 -0.18880905 0.3050692 -0.21736957 0.023702942 0.20807324 -0.14236085 0.38752836
-0.10857271 -0.22724774 -0.00488795 0.22315334 0.10238184 -0.11515974 0.042238183 -0.0028386738
0.0018260651 0.1671869 -0.03879042 -0.1742979 0.23312111 0.10173234 0.039345194 -0.012918997
0.22905965 -0.066771105 -0.15035607 -0.068251856 -0.05713327 0.09496994 0.20250206 0.34343317
0.09715397 0.11258539 0.1316561 -0.17972557 0.10180665 0.36311236 -0.12310868 -0.19899677
-0.32502195 0.081929445 -0.25895393 -0.011988101 -0.11852201 0.08406427 0.010338252 0.09823723
-0.31557047 0.24419086 0.1449285 0.07432004 0.13323109 0.110153995 0.14406024 0.14132011
-0.052444395 0.103643835 0.049396597 -0.019413566 0.14070277 0.03233689 0.27224615 -0.17031562
0.030537644 -0.13409676 0.0402429 -0.044084445 -0.23541795 -0.018655473 0.097657725 -0.023472782
-0.14810003 0.003072098 -0.04869945 0.112650596 0.20135589 -0.08315256 0.08963575 -0.03270428
-0.100060396 -0.1106282 -0.2611016 -0.10325365 0.19441912 -0.05418192 -0.12652333 0.24375144
0.041566808 -0.289988 -0.041485235 0.09400484 0.104223184 0.2052729 -0.01507814 -0.016999494
-0.045303512 -0.31568378 -0.022245172 0.02866311 -0.032734834 0.124831624 0.1631835 0.05634337
0.25315422 0.058325615 0.06854503 0.1165791 0.052054066 0.14446953 0.06963675 0.17011404
0.145639 0.17238379 -0.057238035 0.26677823 -0.22418734 -0.109131165 -0.1309582 -0.12413378
-0.3246348 0.14155504 -0.1961143 0.1394072 -0.022872722 -0.0969084 -0.17450783 0.028538302
0.24903668 -0.16012436 -0.08889166 -0.09865637 -0.07109686 -0.19188917 0.08088788 -0.24382585
-0.022616165 -0.25246158 0.26082444 -0.13618527 0.19662178 -0.12232789 -0.28744936 0.18050638
0.08160641 0.15352274 0.0069141374 0.015186657 0.012272177 -0.13884158 -0.13870925 -0.039433427
-0.04838735 -0.12646274 0.14008288 -0.1187082 -0.08771973 0.13563226 0.026902603 0.16403817
-0.14270425 -0.06349023 -0.112159945 0.03552733 -0.06964978 0.106540784 -0.10294456 -0.08694121
0.10458139 -0.10673823 0.017163122 -0.021966048 0.05967664 -0.25935492 0.06032125 0.28506938
-0.20098974 0.03325774 -0.1862294 0.029539399 0.08928672 0.18777199 0.22680461 -0.05061652
-0.05545819 -0.31558183 0.12340185 -0.22308944 0.17859568 -0.024629077 -0.03568347 -0.24629806
0.0077355416 -0.10165967 -0.096277624 0.027150527 -0.24553217 0.114034995 -0.06596759 -0.031002555
0.03812335 0.09452476 -0.16865778 -0.0930808 -0.21244183 0.12208199 0.10560323 -0.094799295
0.12218553 -0.122275636 0.19798405 -0.020896915 0.29887143 0.042416207 -0.30019504 0.10209019
0.16098079 -0.086275816 -0.27736667 0.26458475 0.13687655 0.097756 0.039036512 0.066726506
-0.16932553 -0.20969929 -0.02155006 0.095969036 0.11041312 0.087601155 -0.2169265 -0.1754206
-0.06752997 -0.011562899 -0.11272929 -0.18002157 -0.054692727 0.14457412 0.14073233 -0.18592182
0.017935079 0.08165758 0.25502437 0.17552547 0.08384718 0.14712863 -0.20553999 -0.12163436

bias f4 [50]
00000000: c934 ca3a 030b aebb bfc7 403d 5e0e c73c
00000010: b15e 3abd d5cd cdbb 9dbd 32bc b5c2 453a
00000020: 5a3b 0c3d ba67 35bc f4cd cbbb 7b3d 9d3c
00000030: 0306 b03c d46f c43c 1bc8 22bc 6b19 bd3a
00000040: 0f8a 21bd cbfa d23c 382c 263c b300 dc3b
00000050: 44a8 183b e3fe 573b 6c52 053b f3a9 df3b
00000060: 4b24 973c 1365 603c 9c2b b4ba f8b9 20bb
00000070: f84e 50bc 3b38 ba3b 79a8 22bc f6a8 22bc
00000080: 9867 bcb9 3c07 783b cc99 44bc ce68 2e3c
00000090: e413 ad3b 17e1 353c ebb1 f13b f4d1 c6bc
000000a0: b1c1 a33c f247 63bc 8fe2 0ebd 5b8e 2dbc
000000b0: d4e7 2cbb 3610 543a a9b7 d53b 9c34 b4bc
000000c0: 4e2f 76bc a1f8 453c
0.0015427108 -0.0053113713 0.047065493 0.024298843 -0.04550046 -0.0062806406 -0.010909465 0.0007543967
0.03423629 -0.011072094 -0.00621962 0.019194355 0.021487242 0.023979105 -0.009935404 0.0014427131
-0.039438304 0.025754353 0.0101423785 0.0067139505 0.0023293654 0.003295832 0.0020343317 0.0068256794
0.018449923 0.013695973 -0.0013745907 -0.0024524909 -0.01271414 0.0056829727 -0.009927862 -0.009927979
-0.00035935338 0.003784611 -0.011999559 0.010645105 0.005281912 0.011101029 0.007375946 -0.024270035
0.01998982 -0.013872134 -0.03488403 -0.010593022 -0.0026383298 0.0008089574 0.006522138 -0.021997742
-0.015025927 0.0120832035

weight f4 [50, 50]
00000000: 9689 c9bd 2102 133c bc9e 67be ae89 f63d
00000010: 3f7d c1bd a41c 3ebd 3897 123c 5a7f 0fbe
00000020: 6568 8cbc f8d9 bebd b431 4ebc bd99 643d
00000030: 55c9 603d 189a 00be ec61 21ba d57f 523d
00000040: 696f 93be fe18 953d 45a5 483e 0d28 31bd
00000050: 0e45 d5bd 422d e43c f360 483e ccf2 9abe
00000060: 8e0a 033e 5e4f 853e bb14 083a 0d54 c23d
00000070: 7b1f 863d 922c 6a3d 1b4d 0ebe 8e1b 38be
00000080: 287e 4abc ab95 803d 9fea f73d 4b9d 403d
00000090: 2d33 bc3e 87f7 1abe 4a57 ad3d 9c9e b23c
000000a0: 5304 d9bb 23bf b63e a550 8bbe 831d 433e
000000b0: a681 76be 4de5 e43d 901b 8bbd d93f d23d
000000c0: bfc6 103d f2d5 19bb dee6 a83d a8cc 1bbe
000000d0: 6a69 673b 7ecc f3bb 43e2 e7bd 3cda 4dbe
000000e0: f7f2 533e c7ff 7a3e 3e4a 633e e7f6 81bd
000000f0: d026 bd3d fc1c 87bc 71e9 573e 5c15 823e
00000100: 37d0 b0be f590 63bc 880c 4abd 51b1 3c3e
00000110: e5af e93d f86c 07be 1bfa 8aba f3cc 7dbd
00000120: 661e b4bd 8339 a5bd a8e4 6d3d acf6 c73c
00000130: 12ae 3d3d b408 c73c 2eb4 98bd 56a6 773d
00000140: 4607 d3bd 3110 cb3d 4906 843e aec8 cc3c
00000150: 9d0c 0a3d fd2e b2bd d114 c0bd 4606 9bbd
00000160: 0a98 49be dacc 2b3e e786 44be 6c7c 7cbe
00000170: 5272 023e 8be0 51bd 15ff 01be 0c4d 9cbe
00000180: 8e60 1b3e 2d1a 16bd 03e7 253e 2d94 06be
00000190: 463f c13d 102a 4e3e 68fc 36be 711b 10be
000001a0: d8eb 873d 6f03 1f3e e24e 423e 536b e03d
000001b0: 2dee 293c 7433 603e d9ff 6cbe 5860 d5bc
000001c0: 9227 933d f758 b0ba 22b1 653c 0a11 06be
000001d0: 888a f83c 313b 13be c9ea adbc b485 a33c
000001e0: 6154 053e ea8e 35be 6b01 5cbe 78b8 87be
000001f0: 59eb 2cbe 229e 933d af56 e63c 283d 99bc
00000200: 25bb b4bd 10f9 61bc d6ab 6f3d 89b5 7dbe
00000210: 7a4a 40bd 6dba 5b3d 11f1 6a3e 9af2 b03d
00000220: 04f9 b5bd 7792 0e3e 6c0b 903d 41f1 ebbd
00000230: 6d7f 95be a8c4 f33d 79b7 3abe 1f20 66be
00000240: 3e5c 103e aecc 383c ea0f 98bd 7a2a 693e
00000250: 2d2f 5d3d 81c9 afbd 790a 79bd 5ea3 be3d
00000260: 1cc8 fbbd 4d85 72bd 5ec4 fc3c ad0c 51be
00000270: 6906 2c3e 3508 283e e800 ffbd 9608 e43d
00000280: 9def 84be 156f 303e b68b 4abe acda 58bc
00000290: d11f 46be 5878 ed3d 9fed 903d e8b5 0abd
000002a0: d952 1c3e 742b eebc e38a 873d 4962 9c3d
000002b0: c7eb 333e b484 183c a2cd 2fbe 9c5a a2be
000002c0: e8c4 3dbe aae6 15bd 90cb ca3d 5cf2 7cbe
000002d0: 0882 2fbe 496a 5bbd 4e1b 3fbe 8e3c dfbd
000002e0: 0f19 953d 0d59 63bd 8c25 2cbe ccf4 a7bd
000002f0: 0268 7b3e e7f9 d9bd 3ce5 66bd 822c 713e
00000300: 4b3a 493e 3533 0e3c c8c3 12be 69b8 1c3e
00000310: 2e95 8ebe 33cd c43e 60b4 803e 02b8 3c3e
00000320: 8b9f c13d 3a36 703e 6d0e f13e 81f8 9b3d
00000330: f5e9 45be 311a 4a3e 47ba b03d f4f2 6d3d
00000340: ebfd 823c 7662 9bbd 089c 813d bc84 c53e
00000350: 3c9f d0bd 5812 9b3e 7cb5 f5bd 9463 30bd
00000360: c9d7 5b3d 9633 d33d 2ed3 263e 2e0c 333d
00000370: d61c 56bc 45ae 683e 9501 cf3d 476e ca3d
00000380: 9cb6 ae3d 084b 293e 2a67 103c 4967 1ebe
00000390: d007 9ebe 98a9 593e 323e 183e 1a3e 373e
000003a0: 6f29 b8bd 5e77 96bc 58a6 733d 04b3 59bd
000003b0: 99c8 333e 8e02 a33e 8b2e 5cbd ed0b ebbd
000003c0: 413b 2d3e 0ea2 fbbd aedd aa3b 25ef 21be
000003d0: bcd3 793e 4d4e 6d3e 8442 d73d 4f7c ffbd
000003e0: 7341 87bd 179d 8bbe 3463 2f3e b3a4 75be
000003f0: cde5 b0bc 9c86 20be 4145 2dbe 5af3 583e
-0.098406956 0.008972676 -0.22619146 0.12037979 -0.09447717 -0.046414033 0.008947186 -0.14013425
-0.017139623 -0.09318918 -0.012585092 0.05581068 0.054879505 -0.12558782 -0.0006156254 0.05139144
-0.28795937 0.072801575 0.19594295 -0.043251086 -0.10413562 0.027853612 0.19568233 -0.30263364
0.12796995 0.26037115 0.00051910774 0.09488688 0.06548973 0.05717141 -0.13896601 -0.17979261
-0.01235918 0.06278547 0.12105297 0.047025006 0.36757794 -0.15133487 0.08463915 0.021804146
-0.00662283 0.356927 -0.27209964 0.19054227 -0.24072894 0.11176548 -0.067923665 0.10266084
0.03534579 -0.0023473469 0.082471594 -0.15214789 0.0035310634 -0.007440149 -0.11322453 -0.20102781
0.20698152 0.24511634 0.2219629 -0.06345921 0.092359185 -0.016493313 0.21085145 0.2540692
-0.34533855 -0.013889541 -0.049328357 0.18427016 0.11410502 -0.13225162 -0.0010603102 -0.061963033
-0.087948605 -0.0806761 0.05807939 0.024409615 0.046308585 0.024296142 -0.074562415 0.060461365
-0.10304122 0.09915198 0.25786045 0.024998035 0.033703435 -0.087003686 -0.093789704 -0.07569556
-0.19686905 0.16777363 -0.19192086 -0.24656838 0.12738922 -0.05123953 -0.12694962 -0.30527532
0.15173551 -0.036646057 0.16201405 -0.13142462 0.094358966 0.20133233 -0.17869723 -0.14072968
0.066367805 0.15528654 0.18975404 0.109579705 0.010371727 0.21894628 -0.23144473 -0.026046917
0.07185282 -0.0013454248 0.014019283 -0.13092437 0.030339494 -0.14378048 -0.021230118 0.019961216
0.13020469 -0.17730299 -0.21484916 -0.26507926 -0.16886653 0.07207896 0.028117506 -0.01870592
-0.088247575 -0.013792291 0.058513485 -0.24776281 -0.046946026 0.053644586 0.22943522 0.086400226
-0.088853866 0.1392306 0.070334285 -0.11520625 -0.2919878 0.119027436 -0.18234052 -0.2247319
0.14097688 0.011279268 -0.0742491 0.2277011 0.05400007 -0.08583356 -0.060801003 0.093085036
-0.12294027 -0.059209157 0.030855354 -0.20414992 0.1679932 0.1640938 -0.12451345 0.1113445
-0.2596406 0.17229874 -0.19779858 -0.013235729 -0.19348074 0.115952194 0.070765726 -0.033864886
0.15265979 -0.029073454 0.066182874 0.07635934 0.1757041 0.009308983 -0.17168286 -0.31709754
-0.18532145 -0.03659693 0.09902108 -0.24701828 -0.17139447 -0.05356816 -0.1866276 -0.10900222
0.0728017 -0.055504847 -0.16811198 -0.08200988 0.24551395 -0.10643368 -0.05637096 0.23552135
0.19651143 0.008679201 -0.14332497 0.15304722 -0.2784819 0.38437805 0.25137615 0.18429568
0.094542585 0.23458186 0.47081318 0.07615758 -0.19327529 0.19736554 0.086292796 0.058093026
0.015990218 -0.07587139 0.06328589 0.3857783 -0.101866215 0.30287433 -0.11997506 -0.043063715
0.053672586 0.103125736 0.16291496 0.043712787 -0.013068398 0.22722729 0.101077236 0.09884315
0.08530924 0.16532528 0.008813659 -0.15469088 -0.30865335 0.21256101 0.14867476 0.17894784
-0.08992278 -0.018367466 0.05948481 -0.05314924 0.1755699 0.31837887 -0.053755324 -0.11476884
0.16917135 -0.12286769 0.0052144146 -0.15813883 0.24397177 0.231744 0.10510734 -0.12474882
-0.0660428 -0.27268288 0.17127687 -0.23988609 -0.021593953 -0.1567635 -0.1692095 0.21186581

bias f4 [50]
00000000: 73af a73b 5fcd 1d3c b5ca d2bb 588f 89bc
00000010: a95e 2b3c d4fa fbbb 8b7e fd3b cd28 2cbc
00000020: 4d90 f03b 5519 b83b 2cd1 b13b 7f70 143c
00000030: d7ec bcbb 9be9 eabb 1ad3 bc3b e3b3 53bc
00000040: aaed 69bc d527 943b 2bff f4bb d97b dc3b
00000050: 5f87 df3b 4e2e 97bb b425 82bb 45be 17bc
00000060: 299a 67ba 1eba 69bb e732 26bc a1b9 25bc
00000070: cbca c73b 3c6e 41bc 9bc9 e6bb fa4e b9bb
00000080: 18aa ddba c1c8 a7bb 7845 d9bb 6192 8bbb
00000090: 20e8 283c 20b0 eebb 7a6b 0b3c 229e 26bc
000000a0: eefe d8bb 9b6e 053c 9b16 06bc 78d1 0abc
000000b0: 16a0 e4bb c501 223b ebc2 abbb e967 b3bb
000000c0: 4539 233c 206c 0ebc
0.0051173507 0.009631484 -0.006432856 -0.016791984 0.01045958 -0.007689813 0.0077360324 -0.010507775
0.0073414207 0.005618254 0.0054265466 0.009060024 -0.005765538 -0.007168961 0.00576247 -0.012921306
-0.014277855 0.00452135 -0.0074767075 0.006728631 0.0068215574 -0.0046136742 -0.0039717797 -0.009261672
-0.00088349223 -0.0035663913 -0.010143972 -0.010115058 0.006097173 -0.011806067 -0.007043076 -0.0056551667
-0.0016911654 -0.0051203673 -0.006630596 -0.004259393 0.010309249 -0.0072841793 0.008509511 -0.010169538
-0.006622187 0.008144046 -0.0081841005 -0.008472793 -0.0069770915 0.0024720293 -0.005241742 -0.0054750335
0.009962385 -0.008692771
