pbc_examples/saved_models/convection_beta-10.0_layers-50,50,50,50,1_L-2.0_WD-0_init-normal_seed0.pt (torch, 114029 bytes, 36 tensors)

x_u f4 [256, 1]
000000 00 00 00 00 db 0f c9 3c db 0f 49 3d e4 cb 96 3d
       0.0 0.024543693 0.049087387 0.07363108
000010 db 0f c9 3d d1 53 fb 3d e4 cb 16 3e df ed 2f 3e
       0.09817477 0.12271846 0.14726216 0.17180584
000020 db 0f 49 3e d6 31 62 3e d1 53 7b 3e e6 3a 8a 3e
       0.19634955 0.22089323 0.24543692 0.2699806
000030 e4 cb 96 3e e2 5c a3 3e df ed af 3e dd 7e bc 3e
       0.2945243 0.319068 0.3436117 0.3681554
000040 db 0f c9 3e d8 a0 d5 3e d6 31 e2 3e d4 c2 ee 3e
       0.3926991 0.41724277 0.44178647 0.46633017
000050 d1 53 fb 3e 67 f2 03 3f e6 3a 0a 3f 65 83 10 3f
       0.49087384 0.5154175 0.5399612 0.5645049
000060 e4 cb 16 3f 63 14 1d 3f e2 5c 23 3f 60 a5 29 3f
       0.5890486 0.6135923 0.638136 0.6626797
000070 df ed 2f 3f 5e 36 36 3f dd 7e 3c 3f 5c c7 42 3f
       0.6872234 0.7117671 0.7363108 0.7608545
000080 db 0f 49 3f 59 58 4f 3f d8 a0 55 3f 57 e9 5b 3f
       0.7853982 0.8099418 0.83448553 0.85902923
000090 d6 31 62 3f 55 7a 68 3f d4 c2 6e 3f 52 0b 75 3f
       0.88357294 0.90811664 0.93266034 0.957204
0000a0 d1 53 7b 3f 28 ce 80 3f 67 f2 83 3f a7 16 87 3f
       0.9817477 1.0062914 1.030835 1.0553788
0000b0 e6 3a 8a 3f 26 5f 8d 3f 65 83 90 3f a5 a7 93 3f
       1.0799224 1.1044662 1.1290098 1.1535536
0000c0 e4 cb 96 3f 23 f0 99 3f 63 14 9d 3f a2 38 a0 3f
       1.1780972 1.2026409 1.2271847 1.2517283
0000d0 e2 5c a3 3f 21 81 a6 3f 60 a5 a9 3f a0 c9 ac 3f
       1.276272 1.3008157 1.3253593 1.3499031
0000e0 df ed af 3f 1f 12 b3 3f 5e 36 b6 3f 9e 5a b9 3f
       1.3744467 1.3989905 1.4235342 1.4480779
0000f0 dd 7e bc 3f 1c a3 bf 3f 5c c7 c2 3f 9b eb c5 3f
       1.4726216 1.4971652 1.521709 1.5462526
000100 db 0f c9 3f 1a 34 cc 3f 59 58 cf 3f 99 7c d2 3f
       1.5707964 1.59534 1.6198837 1.6444274
000110 d8 a0 d5 3f 18 c5 d8 3f 57 e9 db 3f 97 0d df 3f
       1.6689711 1.6935148 1.7180585 1.7426022
000120 d6 31 e2 3f 15 56 e5 3f 55 7a e8 3f 94 9e eb 3f
       1.7671459 1.7916895 1.8162333 1.8407769
000130 d4 c2 ee 3f 13 e7 f1 3f 52 0b f5 3f 92 2f f8 3f
       1.8653207 1.8898643 1.914408 1.9389517
000140 d1 53 fb 3f 11 78 fe 3f 28 ce 00 40 48 60 02 40
       1.9634954 1.9880391 2.0125828 2.0371265
000150 67 f2 03 40 87 84 05 40 a7 16 07 40 c7 a8 08 40
       2.06167 2.0862138 2.1107576 2.1353014
000160 e6 3a 0a 40 06 cd 0b 40 26 5f 0d 40 45 f1 0e 40
       2.1598449 2.1843886 2.2089324 2.233476
000170 65 83 10 40 85 15 12 40 a5 a7 13 40 c4 39 15 40
       2.2580197 2.2825634 2.3071072 2.3316507
000180 e4 cb 16 40 04 5e 18 40 23 f0 19 40 43 82 1b 40
       2.3561945 2.3807383 2.4052818 2.4298255
000190 63 14 1d 40 83 a6 1e 40 a2 38 20 40 c2 ca 21 40
       2.4543693 2.478913 2.5034566 2.5280004
0001a0 e2 5c 23 40 01 ef 24 40 21 81 26 40 41 13 28 40
       2.552544 2.5770876 2.6016314 2.6261752
0001b0 60 a5 29 40 80 37 2b 40 a0 c9 2c 40 c0 5b 2e 40
       2.6507187 2.6752625 2.6998062 2.72435
0001c0 df ed 2f 40 ff 7f 31 40 1f 12 33 40 3e a4 34 40
       2.7488935 2.7734373 2.797981 2.8225245
0001d0 5e 36 36 40 7e c8 37 40 9e 5a 39 40 bd ec 3a 40
       2.8470683 2.871612 2.8961558 2.9206994
0001e0 dd 7e 3c 40 fd 10 3e 40 1c a3 3f 40 3c 35 41 40
       2.9452431 2.969787 2.9943304 3.0188742
0001f0 5c c7 42 40 7c 59 44 40 9b eb 45 40 bb 7d 47 40
       3.043418 3.0679617 3.0925052 3.117049
000200 db 0f 49 40 fa a1 4a 40 1a 34 4c 40 3a c6 4d 40
       3.1415927 3.1661363 3.19068 3.2152238
000210 59 58 4f 40 79 ea 50 40 99 7c 52 40 b9 0e 54 40
       3.2397673 3.264311 3.2888548 3.3133986
000220 d8 a0 55 40 f8 32 57 40 18 c5 58 40 37 57 5a 40
       3.3379421 3.362486 3.3870296 3.4115732
000230 57 e9 5b 40 77 7b 5d 40 97 0d 5f 40 b6 9f 60 40
       3.436117 3.4606607 3.4852045 3.509748
000240 d6 31 62 40 f6 c3 63 40 15 56 65 40 35 e8 66 40
       3.5342917 3.5588355 3.583379 3.6079228
000250 55 7a 68 40 75 0c 6a 40 94 9e 6b 40 b4 30 6d 40
       3.6324666 3.6570103 3.6815538 3.7060976
000260 d4 c2 6e 40 f3 54 70 40 13 e7 71 40 33 79 73 40
       3.7306414 3.755185 3.7797287 3.8042724
000270 52 0b 75 40 72 9d 76 40 92 2f 78 40 b2 c1 79 40
       3.828816 3.8533597 3.8779035 3.9024472
000280 d1 53 7b 40 f1 e5 7c 40 11 78 7e 40 18 05 80 40
       3.9269907 3.9515345 3.9760783 4.000622
000290 28 ce 80 40 38 97 81 40 48 60 82 40 58 29 83 40
       4.0251656 4.0497093 4.074253 4.098797
0002a0 67 f2 83 40 77 bb 84 40 87 84 85 40 97 4d 86 40
       4.12334 4.147884 4.1724277 4.1969714
0002b0 a7 16 87 40 b7 df 87 40 c7 a8 88 40 d6 71 89 40
       4.221515 4.246059 4.2706027 4.295146
0002c0 e6 3a 8a 40 f6 03 8b 40 06 cd 8b 40 16 96 8c 40
       4.3196898 4.3442335 4.3687773 4.393321
0002d0 26 5f 8d 40 36 28 8e 40 45 f1 8e 40 55 ba 8f 40
       4.417865 4.4424086 4.466952 4.4914956
0002e0 65 83 90 40 75 4c 91 40 85 15 92 40 95 de 92 40
       4.5160394 4.540583 4.565127 4.5896707
0002f0 a5 a7 93 40 b4 70 94 40 c4 39 95 40 d4 02 96 40
       4.6142144 4.6387577 4.6633015 4.687845
000300 e4 cb 96 40 f4 94 97 40 04 5e 98 40 14 27 99 40
       4.712389 4.7369328 4.7614765 4.7860203
000310 23 f0 99 40 33 b9 9a 40 43 82 9b 40 53 4b 9c 40
       4.8105636 4.8351073 4.859651 4.884195
000320 63 14 9d 40 73 dd 9d 40 83 a6 9e 40 92 6f 9f 40
       4.9087386 4.9332824 4.957826 4.9823694
000330 a2 38 a0 40 b2 01 a1 40 c2 ca a1 40 d2 93 a2 40
       5.006913 5.031457 5.0560007 5.0805445
000340 e2 5c a3 40 f1 25 a4 40 01 ef a4 40 11 b8 a5 40
       5.105088 5.1296315 5.1541753 5.178719
000350 21 81 a6 40 31 4a a7 40 41 13 a8 40 51 dc a8 40
       5.203263 5.2278066 5.2523503 5.276894
000360 60 a5 a9 40 70 6e aa 40 80 37 ab 40 90 00 ac 40
       5.3014374 5.325981 5.350525 5.3750687
000370 a0 c9 ac 40 b0 92 ad 40 c0 5b ae 40 cf 24 af 40
       5.3996124 5.424156 5.4487 5.473243
000380 df ed af 40 ef b6 b0 40 ff 7f b1 40 0f 49 b2 40
       5.497787 5.5223308 5.5468745 5.5714183
000390 1f 12 b3 40 2f db b3 40 3e a4 b4 40 4e 6d b5 40
       5.595962 5.620506 5.645049 5.669593
0003a0 5e 36 b6 40 6e ff b6 40 7e c8 b7 40 8e 91 b8 40
       5.6941366 5.7186804 5.743224 5.767768
0003b0 9e 5a b9 40 ad 23 ba 40 bd ec ba 40 cd b5 bb 40
       5.7923117 5.816855 5.8413987 5.8659425
0003c0 dd 7e bc 40 ed 47 bd 40 fd 10 be 40 0d da be 40
       5.8904862 5.91503 5.939574 5.9641175
0003d0 1c a3 bf 40 2c 6c c0 40 3c 35 c1 40 4c fe c1 40
       5.988661 6.0132046 6.0377483 6.062292
0003e0 5c c7 c2 40 6c 90 c3 40 7c 59 c4 40 8b 22 c5 40
       6.086836 6.1113796 6.1359234 6.1604667
0003f0 9b eb c5 40 ab b4 c6 40 bb 7d c7 40 cb 46 c8 40
       6.1850104 6.209554 6.234098 6.2586417

t_u f4 [256, 1]
000000 00 00 00 00 00 00 00 00 00 00 00 00 00 00 00 00
       0.0 0.0 0.0 0.0
000010 00 00 00 00 00 00 00 00 00 00 00 00 00 00 00 00
       0.0 0.0 0.0 0.0
000020 00 00 00 00 00 00 00 00 00 00 00 00 00 00 00 00
       0.0 0.0 0.0 0.0
000030 00 00 00 00 00 00 00 00 00 00 00 00 00 00 00 00
       0.0 0.0 0.0 0.0
000040 00 00 00 00 00 00 00 00 00 00 00 00 00 00 00 00
       0.0 0.0 0.0 0.0
000050 00 00 00 00 00 00 00 00 00 00 00 00 00 00 00 00
       0.0 0.0 0.0 0.0
000060 00 00 00 00 00 00 00 00 00 00 00 00 00 00 00 00
       0.0 0.0 0.0 0.0
000070 00 00 00 00 00 00 00 00 00 00 00 00 00 00 00 00
       0.0 0.0 0.0 0.0
000080 00 00 00 00 00 00 00 00 00 00 00 00 00 00 00 00
       0.0 0.0 0.0 0.0
000090 00 00 00 00 00 00 00 00 00 00 00 00 00 00 00 00
       0.0 0.0 0.0 0.0
0000a0 00 00 00 00 00 00 00 00 00 00 00 00 00 00 00 00
       0.0 0.0 0.0 0.0
0000b0 00 00 00 00 00 00 00 00 00 00 00 00 00 00 00 00
       0.0 0.0 0.0 0.0
0000c0 00 00 00 00 00 00 00 00 00 00 00 00 00 00 00 00
       0.0 0.0 0.0 0.0
0000d0 00 00 00 00 00 00 00 00 00 00 00 00 00 00 00 00
       0.0 0.0 0.0 0.0
0000e0 00 00 00 00 00 00 00 00 00 00 00 00 00 00 00 00
       0.0 0.0 0.0 0.0
0000f0 00 00 00 00 00 00 00 00 00 00 00 00 00 00 00 00
       0.0 0.0 0.0 0.0
000100 00 00 00 00 00 00 00 00 00 00 00 00 00 00 00 00
       0.0 0.0 0.0 0.0
000110 00 00 00 00 00 00 00 00 00 00 00 00 00 00 00 00
       0.0 0.0 0.0 0.0
000120 00 00 00 00 00 00 00 00 00 00 00 00 00 00 00 00
       0.0 0.0 0.0 0.0
000130 00 00 00 00 00 00 00 00 00 00 00 00 00 00 00 00
       0.0 0.0 0.0 0.0
000140 00 00 00 00 00 00 00 00 00 00 00 00 00 00 00 00
       0.0 0.0 0.0 0.0
000150 00 00 00 00 00 00 00 00 00 00 00 00 00 00 00 00
       0.0 0.0 0.0 0.0
000160 00 00 00 00 00 00 00 00 00 00 00 00 00 00 00 00
       0.0 0.0 0.0 0.0
000170 00 00 00 00 00 00 00 00 00 00 00 00 00 00 00 00
       0.0 0.0 0.0 0.0
000180 00 00 00 00 00 00 00 00 00 00 00 00 00 00 00 00
       0.0 0.0 0.0 0.0
000190 00 00 00 00 00 00 00 00 00 00 00 00 00 00 00 00
       0.0 0.0 0.0 0.0
0001a0 00 00 00 00 00 00 00 00 00 00 00 00 00 00 00 00
       0.0 0.0 0.0 0.0
0001b0 00 00 00 00 00 00 00 00 00 00 00 00 00 00 00 00
       0.0 0.0 0.0 0.0
0001c0 00 00 00 00 00 00 00 00 00 00 00 00 00 00 00 00
       0.0 0.0 0.0 0.0
0001d0 00 00 00 00 00 00 00 00 00 00 00 00 00 00 00 00
       0.0 0.0 0.0 0.0
0001e0 00 00 00 00 00 00 00 00 00 00 00 00 00 00 00 00
       0.0 0.0 0.0 0.0
0001f0 00 00 00 00 00 00 00 00 00 00 00 00 00 00 00 00
       0.0 0.0 0.0 0.0
000200 00 00 00 00 00 00 00 00 00 00 00 00 00 00 00 00
       0.0 0.0 0.0 0.0
000210 00 00 00 00 00 00 00 00 00 00 00 00 00 00 00 00
       0.0 0.0 0.0 0.0
000220 00 00 00 00 00 00 00 00 00 00 00 00 00 00 00 00
       0.0 0.0 0.0 0.0
000230 00 00 00 00 00 00 00 00 00 00 00 00 00 00 00 00
       0.0 0.0 0.0 0.0
000240 00 00 00 00 00 00 00 00 00 00 00 00 00 00 00 00
       0.0 0.0 0.0 0.0
000250 00 00 00 00 00 00 00 00 00 00 00 00 00 00 00 00
       0.0 0.0 0.0 0.0
000260 00 00 00 00 00 00 00 00 00 00 00 00 00 00 00 00
       0.0 0.0 0.0 0.0
000270 00 00 00 00 00 00 00 00 00 00 00 00 00 00 00 00
       0.0 0.0 0.0 0.0
000280 00 00 00 00 00 00 00 00 00 00 00 00 00 00 00 00
       0.0 0.0 0.0 0.0
000290 00 00 00 00 00 00 00 00 00 00 00 00 00 00 00 00
       0.0 0.0 0.0 0.0
0002a0 00 00 00 00 00 00 00 00 00 00 00 00 00 00 00 00
       0.0 0.0 0.0 0.0
0002b0 00 00 00 00 00 00 00 00 00 00 00 00 00 00 00 00
       0.0 0.0 0.0 0.0
0002c0 00 00 00 00 00 00 00 00 00 00 00 00 00 00 00 00
       0.0 0.0 0.0 0.0
0002d0 00 00 00 00 00 00 00 00 00 00 00 00 00 00 00 00
       0.0 0.0 0.0 0.0
0002e0 00 00 00 00 00 00 00 00 00 00 00 00 00 00 00 00
       0.0 0.0 0.0 0.0
0002f0 00 00 00 00 00 00 00 00 00 00 00 00 00 00 00 00
       0.0 0.0 0.0 0.0
000300 00 00 00 00 00 00 00 00 00 00 00 00 00 00 00 00
       0.0 0.0 0.0 0.0
000310 00 00 00 00 00 00 00 00 00 00 00 00 00 00 00 00
       0.0 0.0 0.0 0.0
000320 00 00 00 00 00 00 00 00 00 00 00 00 00 00 00 00
       0.0 0.0 0.0 0.0
000330 00 00 00 00 00 00 00 00 00 00 00 00 00 00 00 00
       0.0 0.0 0.0 0.0
000340 00 00 00 00 00 00 00 00 00 00 00 00 00 00 00 00
       0.0 0.0 0.0 0.0
000350 00 00 00 00 00 00 00 00 00 00 00 00 00 00 00 00
       0.0 0.0 0.0 0.0
000360 00 00 00 00 00 00 00 00 00 00 00 00 00 00 00 00
       0.0 0.0 0.0 0.0
000370 00 00 00 00 00 00 00 00 00 00 00 00 00 00 00 00
       0.0 0.0 0.0 0.0
000380 00 00 00 00 00 00 00 00 00 00 00 00 00 00 00 00
       0.0 0.0 0.0 0.0
000390 00 00 00 00 00 00 00 00 00 00 00 00 00 00 00 00
       0.0 0.0 0.0 0.0
0003a0 00 00 00 00 00 00 00 00 00 00 00 00 00 00 00 00
       0.0 0.0 0.0 0.0
0003b0 00 00 00 00 00 00 00 00 00 00 00 00 00 00 00 00
       0.0 0.0 0.0 0.0
0003c0 00 00 00 00 00 00 00 00 00 00 00 00 00 00 00 00
       0.0 0.0 0.0 0.0
0003d0 00 00 00 00 00 00 00 00 00 00 00 00 00 00 00 00
       0.0 0.0 0.0 0.0
0003e0 00 00 00 00 00 00 00 00 00 00 00 00 00 00 00 00
       0.0 0.0 0.0 0.0
0003f0 00 00 00 00 00 00 00 00 00 00 00 00 00 00 00 00
       0.0 0.0 0.0 0.0

x_f f4 [100, 1]
000000 a5 a7 93 40 97 0d df 3f d8 a0 55 40 53 4b 9c 40
       4.6142144 1.7426022 3.3379421 4.884195
000010 7c 59 44 40 ef b6 b0 40 ad 23 ba 40 9b eb c5 40
       3.0679617 5.5223308 5.816855 6.1850104
000020 85 15 92 40 23 f0 99 3f 14 27 99 40 65 83 10 3f
       4.565127 1.2026409 4.7860203 0.5645049
000030 94 9e eb 3f d1 53 fb 3d 92 6f 9f 40 5c c7 c2 40
       1.8407769 0.12271846 4.9823694 6.086836
000040 6e ff b6 40 a0 c9 2c 40 c2 ca 21 40 6c 90 c3 40
       5.7186804 2.6998062 2.5280004 6.1113796
000050 c0 5b 2e 40 cf 24 af 40 a7 16 87 3f 4c fe c1 40
       2.72435 5.473243 1.0553788 6.062292
000060 d6 31 e2 3e 5e 36 36 3f 97 4d 86 40 cb 46 c8 40
       0.44178647 0.7117671 4.1969714 6.2586417
000070 7c 59 c4 40 75 4c 91 40 9b eb c5 40 c7 a8 88 40
       6.1359234 4.540583 6.1850104 4.2706027
000080 cf 24 af 40 21 81 26 40 26 5f 8d 40 63 14 9d 40
       5.473243 2.6016314 4.417865 4.9087386
000090 2c 6c c0 40 dd 7e bc 3e d1 53 fb 3e 21 81 a6 40
       6.0132046 0.3681554 0.49087384 5.203263
0000a0 77 7b 5d 40 d6 31 e2 3e 59 58 cf 3f 77 bb 84 40
       3.4606607 0.44178647 1.6198837 4.147884
0000b0 55 7a e8 3f 83 a6 9e 40 97 0d 5f 40 18 c5 58 40
       1.8162333 4.957826 3.4852045 3.3870296
0000c0 52 0b 75 3f a5 a7 13 40 60 a5 29 3f 31 4a a7 40
       0.957204 2.3071072 0.6626797 5.2278066
0000d0 db 0f c9 3c 4c fe c1 40 c4 39 15 40 d1 53 fb 3f
       0.024543693 6.062292 2.3316507 1.9634954
0000e0 c4 39 15 40 df ed 2f 3f 1a 34 cc 3f 37 57 5a 40
       2.3316507 0.6872234 1.59534 3.4115732
0000f0 1f 12 b3 40 9e 5a b9 40 26 5f 8d 3f 94 9e 6b 40
       5.595962 5.7923117 1.1044662 3.6815538
000100 d6 31 62 3f 57 e9 db 3f 43 82 1b 40 35 e8 66 40
       0.88357294 1.7180585 2.4298255 3.6079228
000110 15 56 e5 3f 59 58 cf 3f d6 71 89 40 11 78 fe 3f
       1.7916895 1.6198837 4.295146 1.9880391
000120 65 83 10 40 c0 5b 2e 40 db 0f 49 3f 67 f2 03 40
       2.2580197 2.72435 0.7853982 2.06167
000130 83 a6 9e 40 f1 25 a4 40 43 82 1b 40 75 4c 91 40
       4.957826 5.1296315 2.4298255 4.540583
000140 75 0c 6a 40 d8 a0 55 3f b4 30 6d 40 15 56 e5 3f
       3.6570103 0.83448553 3.7060976 1.7916895
000150 5c c7 c2 40 92 6f 9f 40 53 4b 9c 40 28 ce 80 3f
       6.086836 4.9823694 4.884195 1.0062914
000160 df ed af 40 bd ec ba 40 97 4d 86 40 e4 cb 96 40
       5.497787 5.8413987 4.1969714 4.712389
000170 d6 31 62 3f d4 c2 6e 3f 63 14 9d 3f 7e c8 b7 40
       0.88357294 0.93266034 1.2271847 5.743224
000180 0f 49 b2 40 3c 35 c1 40 57 e9 5b 40 a0 c9 ac 3f
       5.5714183 6.0377483 3.436117 1.3499031

t_f f4 [100, 1]
000000 77 86 c4 3e 5d 74 51 3f ee 0c 09 3f 67 48 4c 3f
       0.3838384 0.8181818 0.53535354 0.7979798
000010 de ce 10 3e 96 02 35 3f a0 d6 2f 3f 72 1c 47 3f
       0.14141414 0.7070707 0.68686867 0.7777778
000020 e9 a2 0b 3f b5 7e 25 3c e4 38 0e 3f 6d b2 49 3f
       0.54545456 0.01010101 0.5555556 0.7878788
000030 43 62 de 3e 43 62 de 3e 0a d4 7a 3f 00 00 80 3f
       0.43434343 0.43434343 0.97979796 1.0
000040 a5 40 2d 3f f3 76 06 3f ca 26 9b 3e 58 0a 54 3f
       0.67676765 0.5252525 0.3030303 0.82828283
000050 0a d4 7a 3f ba e8 22 3f a0 d6 af 3e b5 7e a5 3e
       0.97979796 0.6363636 0.34343433 0.32323232
000060 1a 12 f3 3e 29 50 6b 3f e4 38 0e 3f 72 1c 47 3f
       0.47474748 0.9191919 0.5555556 0.7777778
000070 8c 2e ba 3e 39 8e 63 3e de ce 90 3e 39 8e 63 3f
       0.36363637 0.22222222 0.28282827 0.8888889
000080 2f ba 68 3f ca 26 1b 3e bf 52 20 3f b5 7e 25 3d
       0.90909094 0.15151516 0.6262626 0.04040404
000090 ca 26 1b 3e 3e f8 60 3f d4 fa 15 3f fd 4a 81 3e
       0.15151516 0.8787879 0.5858586 0.25252524
0000a0 67 48 4c 3f 77 86 c4 3e 4e 36 d9 3e b5 7e 25 3c
       0.7979798 0.3838384 0.42424244 0.01010101
0000b0 10 3e 78 3e 34 24 66 3f 8c 2e ba 3e 1f 7c 70 3f
       0.24242425 0.8989899 0.36363637 0.93939394
0000c0 7c f0 41 3f bf 52 a0 3e b5 7e 25 3d a0 d6 af 3e
       0.75757575 0.3131313 0.04040404 0.34343433
0000d0 2f ba e8 3e 15 a8 75 3f 15 a8 75 3f 2f ba e8 3e
       0.45454547 0.959596 0.959596 0.45454547
0000e0 2f ba e8 3e 62 de 4e 3f f3 76 06 3f de ce 10 3f
       0.45454547 0.8080808 0.5252525 0.56565654
0000f0 3e f8 60 3f 86 c4 3c 3f b5 7e 25 3d 1a 12 f3 3e
       0.8787879 0.7373737 0.04040404 0.47474748
000100 d9 64 13 3f de ce 10 3f a5 40 2d 3f 05 6a 7d 3f
       0.57575756 0.56565654 0.67676765 0.989899
000110 a0 d6 2f 3f 4e 36 59 3e 62 de 4e 3d de ce 90 3e
       0.68686867 0.21212122 0.05050505 0.28282827
000120 fd 4a 81 3e 62 de 4e 3f b5 7e 25 3c 58 0a d4 3e
       0.25252524 0.8080808 0.01010101 0.41414142
000130 10 3e 78 3f 0a d4 7a 3f d4 fa 95 3e f8 e0 03 3f
       0.969697 0.97979796 0.2929293 0.5151515
000140 53 a0 56 3f 1a 12 73 3f 1a 12 f3 3e cf 90 18 3f
       0.83838385 0.94949496 0.47474748 0.5959596
000150 6d b2 c9 3e a0 d6 2f 3f 4e 36 59 3f b5 7e a5 3c
       0.3939394 0.68686867 0.8484849 0.02020202
000160 29 50 6b 3f 10 3e f8 3e f3 76 06 3e ca 26 1b 3f
       0.9191919 0.4848485 0.13131313 0.6060606
000170 fd 4a 81 3e 10 3e 78 3f a0 d6 af 3e 53 a0 56 3f
       0.25252524 0.969697 0.34343433 0.83838385
000180 10 3e f8 3e 67 48 4c 3f 91 98 37 3f ca 26 9b 3e
       0.4848485 0.7979798 0.7171717 0.3030303

x_bc_lb f4 [100, 1]
000000 00 00 00 00 00 00 00 00 00 00 00 00 00 00 00 00
       0.0 0.0 0.0 0.0
000010 00 00 00 00 00 00 00 00 00 00 00 00 00 00 00 00
       0.0 0.0 0.0 0.0
000020 00 00 00 00 00 00 00 00 00 00 00 00 00 00 00 00
       0.0 0.0 0.0 0.0
000030 00 00 00 00 00 00 00 00 00 00 00 00 00 00 00 00
       0.0 0.0 0.0 0.0
000040 00 00 00 00 00 00 00 00 00 00 00 00 00 00 00 00
       0.0 0.0 0.0 0.0
000050 00 00 00 00 00 00 00 00 00 00 00 00 00 00 00 00
       0.0 0.0 0.0 0.0
000060 00 00 00 00 00 00 00 00 00 00 00 00 00 00 00 00
       0.0 0.0 0.0 0.0
000070 00 00 00 00 00 00 00 00 00 00 00 00 00 00 00 00
       0.0 0.0 0.0 0.0
000080 00 00 00 00 00 00 00 00 00 00 00 00 00 00 00 00
       0.0 0.0 0.0 0.0
000090 00 00 00 00 00 00 00 00 00 00 00 00 00 00 00 00
       0.0 0.0 0.0 0.0
0000a0 00 00 00 00 00 00 00 00 00 00 00 00 00 00 00 00
       0.0 0.0 0.0 0.0
0000b0 00 00 00 00 00 00 00 00 00 00 00 00 00 00 00 00
       0.0 0.0 0.0 0.0
0000c0 00 00 00 00 00 00 00 00 00 00 00 00 00 00 00 00
       0.0 0.0 0.0 0.0
0000d0 00 00 00 00 00 00 00 00 00 00 00 00 00 00 00 00
       0.0 0.0 0.0 0.0
0000e0 00 00 00 00 00 00 00 00 00 00 00 00 00 00 00 00
       0.0 0.0 0.0 0.0
0000f0 00 00 00 00 00 00 00 00 00 00 00 00 00 00 00 00
       0.0 0.0 0.0 0.0
000100 00 00 00 00 00 00 00 00 00 00 00 00 00 00 00 00
       0.0 0.0 0.0 0.0
000110 00 00 00 00 00 00 00 00 00 00 00 00 00 00 00 00
       0.0 0.0 0.0 0.0
000120 00 00 00 00 00 00 00 00 00 00 00 00 00 00 00 00
       0.0 0.0 0.0 0.0
000130 00 00 00 00 00 00 00 00 00 00 00 00 00 00 00 00
       0.0 0.0 0.0 0.0
000140 00 00 00 00 00 00 00 00 00 00 00 00 00 00 00 00
       0.0 0.0 0.0 0.0
000150 00 00 00 00 00 00 00 00 00 00 00 00 00 00 00 00
       0.0 0.0 0.0 0.0
000160 00 00 00 00 00 00 00 00 00 00 00 00 00 00 00 00
       0.0 0.0 0.0 0.0
000170 00 00 00 00 00 00 00 00 00 00 00 00 00 00 00 00
       0.0 0.0 0.0 0.0
000180 00 00 00 00 00 00 00 00 00 00 00 00 00 00 00 00
       0.0 0.0 0.0 0.0

t_bc_lb f4 [100, 1]
000000 00 00 00 00 b5 7e 25 3c b5 7e a5 3c 10 3e f8 3c
       0.0 0.01010101 0.02020202 0.030303031
000010 b5 7e 25 3d 62 de 4e 3d 10 3e 78 3d de ce 90 3d
       0.04040404 0.05050505 0.060606062 0.07070707
000020 b5 7e a5 3d 8c 2e ba 3d 62 de ce 3d 39 8e e3 3d
       0.08080808 0.09090909 0.1010101 0.11111111
000030 10 3e f8 3d f3 76 06 3e de ce 10 3e ca 26 1b 3e
       0.121212125 0.13131313 0.14141414 0.15151516
000040 b5 7e 25 3e a0 d6 2f 3e 8c 2e 3a 3e 77 86 44 3e
       0.16161616 0.17171717 0.18181819 0.1919192
000050 62 de 4e 3e 4e 36 59 3e 39 8e 63 3e 24 e6 6d 3e
       0.2020202 0.21212122 0.22222222 0.23232323
000060 10 3e 78 3e fd 4a 81 3e f3 76 86 3e e9 a2 8b 3e
       0.24242425 0.25252524 0.26262626 0.27272728
000070 de ce 90 3e d4 fa 95 3e ca 26 9b 3e bf 52 a0 3e
       0.28282827 0.2929293 0.3030303 0.3131313
000080 b5 7e a5 3e ab aa aa 3e a0 d6 af 3e 96 02 b5 3e
       0.32323232 0.33333334 0.34343433 0.35353535
000090 8c 2e ba 3e 81 5a bf 3e 77 86 c4 3e 6d b2 c9 3e
       0.36363637 0.37373737 0.3838384 0.3939394
0000a0 62 de ce 3e 58 0a d4 3e 4e 36 d9 3e 43 62 de 3e
       0.4040404 0.41414142 0.42424244 0.43434343
0000b0 39 8e e3 3e 2f ba e8 3e 24 e6 ed 3e 1a 12 f3 3e
       0.44444445 0.45454547 0.46464646 0.47474748
0000c0 10 3e f8 3e 05 6a fd 3e fd 4a 01 3f f8 e0 03 3f
       0.4848485 0.4949495 0.5050505 0.5151515
0000d0 f3 76 06 3f ee 0c 09 3f e9 a2 0b 3f e4 38 0e 3f
       0.5252525 0.53535354 0.54545456 0.5555556
0000e0 de ce 10 3f d9 64 13 3f d4 fa 15 3f cf 90 18 3f
       0.56565654 0.57575756 0.5858586 0.5959596
0000f0 ca 26 1b 3f c5 bc 1d 3f bf 52 20 3f ba e8 22 3f
       0.6060606 0.61616164 0.6262626 0.6363636
000100 b5 7e 25 3f b0 14 28 3f ab aa 2a 3f a5 40 2d 3f
       0.64646465 0.65656567 0.6666667 0.67676765
000110 a0 d6 2f 3f 9b 6c 32 3f 96 02 35 3f 91 98 37 3f
       0.68686867 0.6969697 0.7070707 0.7171717
000120 8c 2e 3a 3f 86 c4 3c 3f 81 5a 3f 3f 7c f0 41 3f
       0.72727275 0.7373737 0.74747473 0.75757575
000130 77 86 44 3f 72 1c 47 3f 6d b2 49 3f 67 48 4c 3f
       0.7676768 0.7777778 0.7878788 0.7979798
000140 62 de 4e 3f 5d 74 51 3f 58 0a 54 3f 53 a0 56 3f
       0.8080808 0.8181818 0.82828283 0.83838385
000150 4e 36 59 3f 48 cc 5b 3f 43 62 5e 3f 3e f8 60 3f
       0.8484849 0.85858583 0.86868685 0.8787879
000160 39 8e 63 3f 34 24 66 3f 2f ba 68 3f 29 50 6b 3f
       0.8888889 0.8989899 0.90909094 0.9191919
000170 24 e6 6d 3f 1f 7c 70 3f 1a 12 73 3f 15 a8 75 3f
       0.9292929 0.93939394 0.94949496 0.959596
000180 10 3e 78 3f 0a d4 7a 3f 05 6a 7d 3f 00 00 80 3f
       0.969697 0.97979796 0.989899 1.0

x_bc_ub f4 [100, 1]
000000 db 0f c9 40 db 0f c9 40 db 0f c9 40 db 0f c9 40
       6.2831855 6.2831855 6.2831855 6.2831855
000010 db 0f c9 40 db 0f c9 40 db 0f c9 40 db 0f c9 40
       6.2831855 6.2831855 6.2831855 6.2831855
000020 db 0f c9 40 db 0f c9 40 db 0f c9 40 db 0f c9 40
       6.2831855 6.2831855 6.2831855 6.2831855
000030 db 0f c9 40 db 0f c9 40 db 0f c9 40 db 0f c9 40
       6.2831855 6.2831855 6.2831855 6.2831855
000040 db 0f c9 40 db 0f c9 40 db 0f c9 40 db 0f c9 40
       6.2831855 6.2831855 6.2831855 6.2831855
000050 db 0f c9 40 db 0f c9 40 db 0f c9 40 db 0f c9 40
       6.2831855 6.2831855 6.2831855 6.2831855
000060 db 0f c9 40 db 0f c9 40 db 0f c9 40 db 0f c9 40
       6.2831855 6.2831855 6.2831855 6.2831855
000070 db 0f c9 40 db 0f c9 40 db 0f c9 40 db 0f c9 40
       6.2831855 6.2831855 6.2831855 6.2831855
000080 db 0f c9 40 db 0f c9 40 db 0f c9 40 db 0f c9 40
       6.2831855 6.2831855 6.2831855 6.2831855
000090 db 0f c9 40 db 0f c9 40 db 0f c9 40 db 0f c9 40
       6.2831855 6.2831855 6.2831855 6.2831855
0000a0 db 0f c9 40 db 0f c9 40 db 0f c9 40 db 0f c9 40
       6.2831855 6.2831855 6.2831855 6.2831855
0000b0 db 0f c9 40 db 0f c9 40 db 0f c9 40 db 0f c9 40
       6.2831855 6.2831855 6.2831855 6.2831855
0000c0 db 0f c9 40 db 0f c9 40 db 0f c9 40 db 0f c9 40
       6.2831855 6.2831855 6.2831855 6.2831855
0000d0 db 0f c9 40 db 0f c9 40 db 0f c9 40 db 0f c9 40
       6.2831855 6.2831855 6.2831855 6.2831855
0000e0 db 0f c9 40 db 0f c9 40 db 0f c9 40 db 0f c9 40
       6.2831855 6.2831855 6.2831855 6.2831855
0000f0 db 0f c9 40 db 0f c9 40 db 0f c9 40 db 0f c9 40
       6.2831855 6.2831855 6.2831855 6.2831855
000100 db 0f c9 40 db 0f c9 40 db 0f c9 40 db 0f c9 40
       6.2831855 6.2831855 6.2831855 6.2831855
000110 db 0f c9 40 db 0f c9 40 db 0f c9 40 db 0f c9 40
       6.2831855 6.2831855 6.2831855 6.2831855
000120 db 0f c9 40 db 0f c9 40 db 0f c9 40 db 0f c9 40
       6.2831855 6.2831855 6.2831855 6.2831855
000130 db 0f c9 40 db 0f c9 40 db 0f c9 40 db 0f c9 40
       6.2831855 6.2831855 6.2831855 6.2831855
000140 db 0f c9 40 db 0f c9 40 db 0f c9 40 db 0f c9 40
       6.2831855 6.2831855 6.2831855 6.2831855
000150 db 0f c9 40 db 0f c9 40 db 0f c9 40 db 0f c9 40
       6.2831855 6.2831855 6.2831855 6.2831855
000160 db 0f c9 40 db 0f c9 40 db 0f c9 40 db 0f c9 40
       6.2831855 6.2831855 6.2831855 6.2831855
000170 db 0f c9 40 db 0f c9 40 db 0f c9 40 db 0f c9 40
       6.2831855 6.2831855 6.2831855 6.2831855
000180 db 0f c9 40 db 0f c9 40 db 0f c9 40 db 0f c9 40
       6.2831855 6.2831855 6.2831855 6.2831855

t_bc_ub f4 [100, 1]
000000 00 00 00 00 b5 7e 25 3c b5 7e a5 3c 10 3e f8 3c
       0.0 0.01010101 0.02020202 0.030303031
000010 b5 7e 25 3d 62 de 4e 3d 10 3e 78 3d de ce 90 3d
       0.04040404 0.05050505 0.060606062 0.07070707
000020 b5 7e a5 3d 8c 2e ba 3d 62 de ce 3d 39 8e e3 3d
       0.08080808 0.09090909 0.1010101 0.11111111
000030 10 3e f8 3d f3 76 06 3e de ce 10 3e ca 26 1b 3e
       0.121212125 0.13131313 0.14141414 0.15151516
000040 b5 7e 25 3e a0 d6 2f 3e 8c 2e 3a 3e 77 86 44 3e
       0.16161616 0.17171717 0.18181819 0.1919192
000050 62 de 4e 3e 4e 36 59 3e 39 8e 63 3e 24 e6 6d 3e
       0.2020202 0.21212122 0.22222222 0.23232323
000060 10 3e 78 3e fd 4a 81 3e f3 76 86 3e e9 a2 8b 3e
       0.24242425 0.25252524 0.26262626 0.27272728
000070 de ce 90 3e d4 fa 95 3e ca 26 9b 3e bf 52 a0 3e
       0.28282827 0.2929293 0.3030303 0.3131313
000080 b5 7e a5 3e ab aa aa 3e a0 d6 af 3e 96 02 b5 3e
       0.32323232 0.33333334 0.34343433 0.35353535
000090 8c 2e ba 3e 81 5a bf 3e 77 86 c4 3e 6d b2 c9 3e
       0.36363637 0.37373737 0.3838384 0.3939394
0000a0 62 de ce 3e 58 0a d4 3e 4e 36 d9 3e 43 62 de 3e
       0.4040404 0.41414142 0.42424244 0.43434343
0000b0 39 8e e3 3e 2f ba e8 3e 24 e6 ed 3e 1a 12 f3 3e
       0.44444445 0.45454547 0.46464646 0.47474748
0000c0 10 3e f8 3e 05 6a fd 3e fd 4a 01 3f f8 e0 03 3f
       0.4848485 0.4949495 0.5050505 0.5151515
0000d0 f3 76 06 3f ee 0c 09 3f e9 a2 0b 3f e4 38 0e 3f
       0.5252525 0.53535354 0.54545456 0.5555556
0000e0 de ce 10 3f d9 64 13 3f d4 fa 15 3f cf 90 18 3f
       0.56565654 0.57575756 0.5858586 0.5959596
0000f0 ca 26 1b 3f c5 bc 1d 3f bf 52 20 3f ba e8 22 3f
       0.6060606 0.61616164 0.6262626 0.6363636
000100 b5 7e 25 3f b0 14 28 3f ab aa 2a 3f a5 40 2d 3f
       0.64646465 0.65656567 0.6666667 0.67676765
000110 a0 d6 2f 3f 9b 6c 32 3f 96 02 35 3f 91 98 37 3f
       0.68686867 0.6969697 0.7070707 0.7171717
000120 8c 2e 3a 3f 86 c4 3c 3f 81 5a 3f 3f 7c f0 41 3f
       0.72727275 0.7373737 0.74747473 0.75757575
000130 77 86 44 3f 72 1c 47 3f 6d b2 49 3f 67 48 4c 3f
       0.7676768 0.7777778 0.7878788 0.7979798
000140 62 de 4e 3f 5d 74 51 3f 58 0a 54 3f 53 a0 56 3f
       0.8080808 0.8181818 0.82828283 0.83838385
000150 4e 36 59 3f 48 cc 5b 3f 43 62 5e 3f 3e f8 60 3f
       0.8484849 0.85858583 0.86868685 0.8787879
000160 39 8e 63 3f 34 24 66 3f 2f ba 68 3f 29 50 6b 3f
       0.8888889 0.8989899 0.90909094 0.9191919
000170 24 e6 6d 3f 1f 7c 70 3f 1a 12 73 3f 15 a8 75 3f
       0.9292929 0.93939394 0.94949496 0.959596
000180 10 3e 78 3f 0a d4 7a 3f 05 6a 7d 3f 00 00 80 3f
       0.969697 0.97979796 0.989899 1.0

weight f4 [50, 2]
000000 2f c1 b9 3d c4 7c d2 bd 8b 62 8b 3c 26 af b8 3d
       0.0907005 -0.102777034 0.017014762 0.09017782
000010 f2 e6 f7 3e 92 7e 5f be df 14 f3 bc b0 a4 dd 3d
       0.48418385 -0.21825626 -0.029673038 0.10822427
000020 ed 19 80 bd a6 fb 3e 3c b3 1a 36 be 1a 3d 06 3e
       -0.06254945 0.011656677 -0.17783622 0.13109246
000030 fe cc 6d 3d 00 91 8a 3d bb f5 3f be e5 4c 7b be
       0.058056824 0.06765938 -0.18746082 -0.24541052
000040 ea 37 0b 3e 34 6b b3 3c 0f e1 f7 3d dd 5d 82 be
       0.13595548 0.021901704 0.121034734 -0.25462237
000050 48 be d8 be a6 39 c9 3c db a2 b0 3e 74 86 a4 bd
       -0.42332673 0.024563622 0.3449925 -0.080334574
000060 e1 25 89 be 9c 71 d7 be 3a ef 5e bd e8 51 97 3d
       -0.26786712 -0.42078865 -0.054427363 0.07388669
000070 ce c6 a9 3d 15 cf ed 3d aa 05 cd bd 05 d6 97 3c
       0.08289872 0.116117634 -0.10010846 0.01853467
000080 cd 24 02 be 57 be 62 be b5 8b a1 be 90 57 d4 3d
       -0.12709351 -0.22142921 -0.315519 0.10368264
000090 11 4f f3 3c 1a be 72 3e 62 68 91 be 43 ad 2f 3e
       0.029700788 0.2370533 -0.2839995 0.17155938
0000a0 0a 16 0b 3e ac 59 aa bd 27 b0 a7 3d 05 a2 a0 bd
       0.13582626 -0.08317885 0.08187895 -0.07843403
0000b0 f6 3a b7 3d 49 a3 9a bb 44 fd 9f b9 7f be 58 be
       0.08946793 -0.004719172 -0.0003051554 -0.21166418
0000c0 3c f9 d8 bc 0e 72 37 3e c9 e4 c4 3e 07 b9 1f be
       -0.026486032 0.17914602 0.384558 -0.15597926
0000d0 09 03 e0 bd 69 ea 96 3e 95 e8 50 bd d0 20 0e 3e
       -0.10938079 0.29475716 -0.051003058 0.13879704
0000e0 9f f9 96 3e a0 fc ea bc 40 de 85 b9 4e ac f9 bd
       0.2948732 -0.028684914 -0.00025533326 -0.12191068
0000f0 24 0c 27 bc 60 75 5f 3e 66 59 86 be 11 a2 74 3d
       -0.010195766 0.21822119 -0.2624008 0.05972487
000100 d9 08 5c 3e 68 7a 09 3d 8c b7 a6 be ea e3 49 be
       0.2148775 0.033564 -0.3256191 -0.19715849
000110 e2 4b 2b 3d 5b 50 6f be 28 3f bf be 35 36 1f be
       0.041820414 -0.23370497 -0.37352872 -0.15548022
000120 62 9f d0 bd 28 1d 79 be 45 68 fc 3d e5 c0 c0 3c
       -0.1018665 -0.24327528 0.12324575 0.02352948
000130 02 db e5 bc 54 f6 ed 3b 28 98 2a be a5 36 13 bd
       -0.028058533 0.0072620306 -0.16659606 -0.035940785
000140 01 af 61 bd 22 cc 84 bd 83 19 dd 3d 19 73 93 3d
       -0.055098537 -0.06484248 0.107958816 0.071996875
000150 92 36 0b 3e cf a0 67 be 33 44 ed 3e 86 a2 16 bd
       0.13595036 -0.22619937 0.46341094 -0.03677609
000160 fa b8 f4 3d 78 b7 74 3e ff 8f bb bd 28 ee 06 bf
       0.11949344 0.23898113 -0.091583245 -0.5270715
000170 36 bc c8 ba 5c af 98 be 0e b3 2c 3e b8 4b d0 be
       -0.001531488 -0.2982129 0.16865179 -0.4068277
000180 fa f3 35 be 22 f0 5e be 72 3b 3c 3e 93 24 19 be
       -0.17768851 -0.21771291 0.18382052 -0.14955358

bias f4 [50]
000000 b9 e0 98 bc 76 71 3d 3b 01 df 52 bb ca 14 0f 3b
       -0.018661844 0.002890674 -0.0032176378 0.002183246
000010 94 38 b2 b9 b8 9a dc 3b b2 ff 85 bc 4a cb 45 bb
       -0.0003399296 0.006732311 -0.016357277 -0.0030180984
000020 79 57 a2 3b e3 fd 31 3c 42 5b 03 bb 25 87 d2 ba
       0.004954275 0.010863754 -0.0020043408 -0.0016062005
000030 5d ce 0f bb 72 3d 41 bd ae 70 f1 ba 00 02 04 ba
       -0.002194307 -0.04717774 -0.0018420422 -0.00050356984
000040 0d 5f 80 ba c6 6b a3 ba 15 85 06 3c 6b 4b 36 3b
       -0.0009793952 -0.0012468032 0.00821044 0.0027815949
000050 c7 bc 41 bc 24 6c 5c 3b 51 5e c2 3a ef 81 7f bb
       -0.011824793 0.0033633793 0.0014829134 -0.0038987359
000060 09 13 13 3b 44 0d 2e 3b ce 81 1c 3c ea 3b b6 39
       0.0022441766 0.00265582 0.009552432 0.00034758385
000070 f1 5c 08 bb 5d 61 d2 bb a1 41 16 3b ff c2 4e 3a
       -0.002080735 -0.006420298 0.0022927301 0.0007887333
000080 28 db 51 bc c1 ff e6 bb 75 0a ef ba c4 4a 53 39
       -0.012808599 -0.007049531 -0.0018237369 0.0002015038
000090 bf 04 9c 3a 65 42 02 3c 07 fa 07 bb 56 ac af 37
       0.001190327 0.0079504 -0.0020748393 2.0941876e-05
0000a0 3d b1 58 b9 07 6d 97 bb fb 5c 2e bb d5 28 f0 3b
       -0.00020665392 -0.0046211514 -0.0026605714 0.0073290863
0000b0 2a 6a 8a bc 56 0e 3f 3a 5a c8 c6 bc 19 96 be 3a
       -0.016896326 0.0007288208 -0.024265457 0.0014540582
0000c0 c4 92 8f bb 1d ed 2c ba
       -0.0043815095 -0.0006596612

weight f4 [50, 50]
000000 ac 21 2b 3e 55 98 8c bd c0 c9 b7 be ae 23 dc 3d
       0.16712064 -0.068649925 -0.3589611 0.10748993
000010 e4 25 84 bd eb 55 4d bd 96 c3 22 be a0 8b a4 3d
       -0.064525396 -0.050130766 -0.15894923 0.08034444
000020 ed a9 e2 3d b7 7c d6 3d fc 31 dd 3d 1b 77 80 be
       0.11067567 0.10473006 0.108005494 -0.2509087
000030 cd e4 67 be 17 28 df bd e2 e6 66 3e 10 39 8e bd
       -0.22645874 -0.108963184 0.22549012 -0.069444776
000040 ec 0e 8a be 12 0c c2 bc 9b 9a 19 3e 91 ae 40 be
       -0.2696451 -0.023687396 0.15000384 -0.18816592
000050 d8 02 27 3d d6 05 87 3d c0 c5 21 3e 74 15 1e 3e
       0.040774196 0.0659291 0.15798092 0.15437871
000060 92 09 90 3e d2 3c 39 3d e3 34 a0 3e a5 9e b9 3c
       0.28132302 0.04522402 0.3129035 0.022658655
000070 52 e0 53 3e 57 f9 55 be 5c 07 47 3e a0 44 88 bd
       0.2069104 -0.20895897 0.19436401 -0.06653714
000080 f1 60 f9 bc e7 f1 65 be 58 62 12 3e 7e f6 0b 3d
       -0.030441733 -0.2245556 0.14295328 0.03417062
000090 12 c8 50 3e 4c 53 82 3c dc be 60 bd 40 05 9e 3d
       0.20388821 0.01590886 -0.054869518 0.07715845
0000a0 6a e7 17 3d 23 b5 60 be d9 de e1 bd 32 ce e0 3b
       0.037085928 -0.21944098 -0.11028833 0.006860518
0000b0 f8 b7 18 bb 10 2a b1 3d a3 30 1d 3d 4b d2 1f be
       -0.0023303013 0.08650601 0.03837646 -0.15607564
0000c0 e7 a1 95 3d eb c3 d4 bd 1d 87 0e be 7f a6 03 be
       0.07306271 -0.10388931 -0.13918729 -0.12856482
0000d0 7c 26 b1 bd fe 6b b6 bd c9 54 6a 3d 14 07 05 bd
       -0.086499184 -0.089073166 0.057209764 -0.032477453
0000e0 44 5d b6 3d e8 4a d3 bc 9b 86 81 3c 07 bb 33 3e
       0.08904508 -0.025792554 0.015811255 0.17551814
0000f0 7a e8 0a be 09 52 b0 be 33 6e 5e 3e ba e3 cf 3c
       -0.13565245 -0.34437588 0.21721725 0.025377143
000100 9b 49 d2 bd 2f cb 08 3e b8 41 07 3c 38 dc 71 3e
       -0.102679454 0.13358758 0.008255415 0.23619163
000110 b4 11 38 be 91 18 d2 3c bf 26 db 3c 3a a1 10 3e
       -0.17975503 0.02564648 0.026751874 0.14124003
000120 7a 1f 41 be 9d b0 2f 3e e7 1a 1f 3e 44 d6 f1 3c
       -0.18859664 0.17157216 0.15537606 0.029521115
000130 83 1c ef bd 08 f1 d7 bc 69 29 4c bc a6 03 c9 3d
       -0.1167536 -0.02636005 -0.012461045 0.09815149
000140 af 12 0b bd ce 78 49 bc b1 ed 8b b9 af 03 85 be
       -0.033953365 -0.0122968685 -0.0002668924 -0.25979373
000150 11 91 51 be 58 9a 11 be e6 49 d5 bd 02 8f 0d be
       -0.20465495 -0.14219034 -0.10414486 -0.13824084
000160 b3 83 95 be b2 0f f1 bd a7 ac 4f 3d a9 42 e8 bc
       -0.2920204 -0.11770572 0.050701763 -0.028352099
000170 9c d8 79 be 22 68 96 bd e7 7a a7 bd 6f ab ee bd
       -0.24399036 -0.073440805 -0.08177739 -0.11653792
000180 48 ba 52 3e ea 88 74 be 0e 80 d8 3d 80 0d 66 3e
       0.20578873 -0.23880354 0.105712995 0.22466087
000190 6e 97 dc bd ea 9e 22 3d 59 1d a6 bd 6e 24 3c 3d
       -0.107710704 0.039702334 -0.08111066 0.04593318
0001a0 e7 41 18 3c 4b 7b 88 3d 3b fb 78 bc 8d 18 5f 3e
       0.009293056 0.06664141 -0.015196617 0.21786709
0001b0 2f 30 b4 bd 31 1b 1c 3d bb b5 80 be b8 d8 a4 bd
       -0.08798253 0.03811187 -0.2513865 -0.08049148
0001c0 2f 84 f7 3d fd a0 2d bd 56 14 8c 3d b6 ce 76 3d
       0.12085759 -0.04238986 0.06839816 0.06025573
0001d0 17 cb ef bd 22 e7 e4 3d 5c c0 28 3e 75 65 47 3d
       -0.11708658 0.111768976 0.1647963 0.04868074
0001e0 00 a2 ac 3d d7 65 a4 bc 39 56 70 3c 84 fe 64 bd
       0.084293365 -0.020068092 0.014668995 -0.055906788
0001f0 96 41 c5 3c 0c 22 df bc ca b3 10 be af fd 41 3e
       0.024079125 -0.027237915 -0.14131084 0.18944429
000200 6d 6b 8b 3e b8 06 eb bb 92 f7 f3 bc 71 51 2c be
       0.27230397 -0.007172432 -0.029781137 -0.16827942
000210 d6 bd 22 3d 88 5e 75 3d ea c6 4b 3d 68 93 cf 3d
       0.039731823 0.059904605 0.049750246 0.101355374
000220 01 5e de 3d 6c ae c2 bc 9e e9 9d 3c 79 a2 55 3e
       0.108577736 -0.023764811 0.019276436 0.2086276
000230 79 39 c1 bd 91 ce 42 3d c6 a2 9c bd 41 1c 04 bc
       -0.0943479 0.04756028 -0.07648234 -0.008063377
000240 56 90 9a 3d 2a eb 1e 3e a6 8c ae 3d 80 9d b2 be
       0.07547061 0.15519395 0.0852292 -0.34885788
000250 99 26 09 3d 3a 1e 18 3e 9e 41 62 be 25 48 6c 3c
       0.033484075 0.1485528 -0.22095343 0.0144214975
000260 30 c8 06 3e 64 cf a3 bc 69 55 44 3a 70 8c f2 3d
       0.13162303 -0.019996352 0.0007489534 0.118431926
000270 60 a9 9c 3e 9c 41 d4 3c 31 20 fe bd 0f 59 3e 3d
       0.30597973 0.025910191 -0.12408484 0.04647165
000280 0c 81 f0 bd fa ef dd bb 6a d8 ed 3d 28 6f 07 bc
       -0.11743364 -0.006772992 0.11613543 -0.008266248
000290 26 e7 19 3c bc a1 da 3d 7f 60 de 3c f4 a9 bd bc
       0.009393489 0.1067538 0.027145622 -0.023152329
0002a0 b7 c0 f5 bd d5 ca f4 3d 14 fb 32 be d9 fe 38 3e
       -0.11999648 0.1195275 -0.17478591 0.18065967
0002b0 99 f4 2a bc 9c e0 1f 3e a5 42 89 3e 62 e4 81 bd
       -0.010434293 0.15613025 0.26808658 -0.06342389
0002c0 09 bf 5d 3d cd e0 ec 3d ab 50 f2 3d 62 f3 fa 3d
       0.054137263 0.11566315 0.118317924 0.12253453
0002d0 2c da 40 bb 3b 06 a3 3d 77 de 2a be 8a d0 4a be
       -0.0029426916 0.07960173 -0.16686426 -0.19806114
0002e0 a8 38 53 be d6 64 f4 bc 92 ba 87 be 40 91 1a bc
       -0.20627081 -0.029833239 -0.2650953 -0.009434044
0002f0 0a 7e 67 3e fd 16 4b 3d e7 51 da bd bc 06 56 3c
       0.22606674 0.04958247 -0.10660153 0.013063129
000300 cc ed 10 be f5 67 68 3d 3e f6 24 3e 92 dc 3e be
       -0.14153212 0.056739766 0.16109559 -0.18638828
000310 44 f9 dd bd 11 41 cd 3d e5 7b f7 bd 21 32 15 3e
       -0.10838559 0.10022176 -0.12084178 0.14569904
000320 0b b2 53 3d 7c 80 06 bd 7e 27 50 3d 74 fb 66 3c
       0.051683467 -0.032837376 0.050818913 0.014098037
000330 a8 60 80 3e 36 c1 59 be 41 10 16 3e 64 05 6f 3e
       0.25073743 -0.2126511 0.14654638 0.233419
000340 f5 41 bf bc 0c 78 15 be 95 ee 81 3e 6b ea 66 be
       -0.02334688 -0.14596575 0.25377336 -0.22550361
000350 12 35 c2 3b 6f b8 b2 bd fa d7 ef 3c e6 0e 63 bd
       0.0059267366 -0.08726584 0.02927779 -0.05543413
000360 d6 c5 15 be f8 f3 8d 3d 35 1a 8f bd fe b9 b2 bd
       -0.1462625 0.06931299 -0.069874205 -0.087268814
000370 fd 1e 28 bd a1 8f a8 3d 32 18 d4 bd 67 3f 24 be
       -0.041045178 0.0823052 -0.103561774 -0.16039811
000380 11 99 f3 3d c5 e4 2d 3d 5a 82 ec bd 49 f3 0b 3e
       0.118944295 0.0424545 -0.115483 0.13667025
000390 a7 66 ac bc 87 ef e1 3d d3 ad c6 bc d1 ab 4c be
       -0.021045042 0.11032014 -0.024252808 -0.19987418
0003a0 69 a4 f2 bd 4f e8 1e 3e 53 6d 47 be 2b 4d ef 3d
       -0.11847765 0.15518306 -0.19475298 0.116846405
0003b0 ee a2 b6 bd 35 e0 e0 3c 99 1b a3 3d 99 c8 9f 3b
       -0.08917795 0.02745066 0.07964248 0.004876208
0003c0 ce 7d db bd 56 25 7a be 1b fb 20 bd 9f f2 04 3e
       -0.10717355 -0.24428305 -0.039301973 0.12983178
0003d0 ad 0d 36 be f5 04 da 3d 04 4d 6d 3b 91 6a cd 3d
       -0.17778654 0.10645477 0.0036209235 0.100300916
0003e0 5d 4d ce 3d 57 32 85 3c 0f eb de bd 63 38 25 be
       0.100733496 0.016259355 -0.108846776 -0.16134791
0003f0 25 c4 06 be e8 e2 29 3e cf 8d 0c bb 9e 9e 11 bd
       -0.1316076 0.16590464 -0.002144683 -0.03555166

bias f4 [50]
000000 4c 3f 16 3c f1 30 e1 ba 45 af cd bb 21 f3 8b 3a
       0.009170365 -0.0017180723 -0.0062769973 0.0010677316
000010 74 fe c3 3a a9 20 bd ba 07 4c af 3a e1 80 e4 3a
       0.0014953152 -0.0014429289 0.0013374098 0.0017433428
000020 24 70 e0 b9 c5 99 e0 ba 65 71 1c 3b 3e cd 72 3b
       -0.0004280816 -0.0017135671 0.00238713 0.0037048603
000030 f9 77 c6 ba 68 1e 71 bc 8e 71 04 bb a7 64 e4 3a
       -0.0015141956 -0.014716722 -0.0020209285 0.0017425016
000040 e0 a7 b9 ba 70 09 fa ba 99 d7 dd b6 05 f9 4a 3b
       -0.001416441 -0.0019076299 -6.611412e-06 0.003097118
000050 40 9d 97 3a dc 94 9b 3a d5 06 7e bb 4e e9 ae bb
       0.001156725 0.0011869925 -0.0038761396 -0.0053378707
000060 ff 06 5b ba 1e b8 c2 3b 82 bd c3 bb cc 61 12 3b
       -0.00083552295 0.0059423586 -0.005973519 0.0022336124
000070 27 17 f0 b9 ed 35 c4 ba 94 fa e0 ba ea d6 02 3b
       -0.00045793617 -0.0014969684 -0.0017164522 0.0019964525
000080 b3 01 ec 3a da 55 d2 ba 94 cd d5 3b f7 c0 87 3a
       0.0018005878 -0.0016047314 0.006524751 0.0010357191
000090 f9 20 5b 3d 5d 48 d0 3a f2 28 7e 3a 79 2c b4 3b
       0.053498242 0.0015890707 0.00096954324 0.0054984656
0000a0 f5 e7 5d 3c 65 a5 a7 3a 6b 86 c6 b9 f9 5d 1c bb
       0.013544072 0.001279038 -0.00037865652 -0.0023859723
0000b0 82 1a a9 b8 2e d5 0b 3c ed dd 35 39 08 07 11 3b
       -8.0634854e-05 0.008534713 0.00017344179 0.0022129435
0000c0 33 ab 07 3c f3 86 0e 3d
       0.008280563 0.034796666

weight f4 [50, 50]
000000 7f 5f b2 be b1 3d bf 3d c1 80 d4 bd 56 c1 84 bd
       -0.34838483 0.093379386 -0.1037612 -0.064821884
000010 0a 1c c5 bd 23 8b 99 3e 50 8e 22 3e c9 67 9b 3d
       -0.09624489 0.29988965 0.158746 0.07588155
000020 c5 00 0f be 88 e6 64 be e3 e2 a6 3e a6 58 74 be
       -0.13965137 -0.22353566 0.32594976 -0.23861942
000030 4f 14 09 bc 7c b4 7a 3e 24 fd b5 bd 08 6f b1 3e
       -0.008366658 0.24482912 -0.08886173 0.34655023
000040 4c c9 b5 bd 2b 02 8d be 1e 81 14 3d 56 c8 23 3e
       -0.08876285 -0.27540717 0.03625595 0.15994391
000050 15 5a db 3d ee 05 b8 bd 76 05 fa 3c ba 2b 7c bd
       0.10710541 -0.08985506 0.030520182 -0.06156514
000060 dd 7a c7 3c 27 7d 09 3e e6 77 fd bc 22 8a e6 bd
       0.024350578 0.13426648 -0.030940961 -0.112568155
000070 bb 0a 99 3e 54 23 e6 3d c9 42 72 3c e9 c2 51 bd
       0.29891 0.11237207 0.014786431 -0.05121127
000080 c6 84 8a 3e c4 eb ab bd ea e1 c9 bd 25 39 c2 bd
       0.27054423 -0.08394578 -0.09857543 -0.09483556
000090 57 07 d7 bc 88 14 b5 3d 65 f3 27 3e da 35 92 3e
       -0.026248617 0.08841807 0.16401441 0.2855671
0000a0 f7 49 f4 3d 0d d1 b5 3d c4 8d f1 3d 94 ef 31 be
       0.1192817 0.08877764 0.11794618 -0.17376548
0000b0 ea 6a 9b 3c a7 5c d9 3e 3e 9b cc bd 49 4f 76 be
       0.018971879 0.424535 -0.099905476 -0.24053682
0000c0 91 3f b9 be 96 04 7e 3d 46 40 76 be 11 2a 61 bc
       -0.3618131 0.062016092 -0.24047956 -0.01374294
0000d0 1a 69 fa bd 30 5a 84 3d 5c 53 0f 3c ae a4 cc 3d
       -0.12227078 0.064625144 0.008747902 0.09992348
0000e0 e2 3e 95 be 27 72 79 3e bd dc 09 3e e5 23 a8 3d
       -0.29149538 0.24359952 0.13463111 0.08209971
0000f0 ba 2e 06 3e 69 02 ea 3d c8 a7 1a 3e 5c 7d 11 3e
       0.13103762 0.11426241 0.15103066 0.14207977
000100 9c 2a 8b bd c2 12 f2 3d d5 49 26 3d ca 49 cf bb
       -0.067952365 0.11819984 0.040597755 -0.006325935
000110 2b 3f 0a 3e 44 6b 6c 3d 7b c2 88 3e 31 35 33 be
       0.13500659 0.057719484 0.26710877 -0.1750076
000120 82 c1 19 3d a0 a8 dd bd 3f 98 22 3d 30 93 0e bd
       0.03753806 -0.10823178 0.039695974 -0.034808338
000130 a2 81 71 be 95 e7 29 bd 4e a4 7a 3d d5 0e dc bc
       -0.23584607 -0.04148062 0.06119185 -0.026862541
000140 c9 1d 13 be 0c 5e 52 3c 5d 38 6d bd 1f dd e9 3d
       -0.14366831 0.012839805 -0.05791508 0.114191286
000150 b2 04 40 3e d5 08 ac bd 62 92 a3 3d d0 14 0d bd
       0.18751791 -0.08400122 0.07986905 -0.034443676
000160 e0 06 8a bd 7b 3c b8 bd e3 05 86 be 8b bb b9 bd
       -0.067395926 -0.08995911 -0.26176366 -0.09068974
000170 c8 a3 47 3e f6 10 87 bd 1d 3a ba bd b8 22 62 3e
       0.19496071 -0.06595032 -0.090931155 0.22083557
000180 04 2e 0e 3d 31 b9 8d be 52 b1 03 bd ff 48 90 3d
       0.034711853 -0.27680352 -0.032151528 0.07045173
000190 70 3c 4d 3d bf f7 2e 3e e6 ba 44 bd 25 3a 4b 3d
       0.050106466 0.17086695 -0.048029803 0.049615998
0001a0 c6 98 a9 bd d1 8c af be 14 28 f9 bb 78 9a 12 3c
       -0.08281092 -0.34287122 -0.0076036546 0.008947961
0001b0 83 87 6b 3c 83 9f de 3d 2f 62 41 3e c9 c9 9f 3c
       0.01437557 0.10870268 0.1888511 0.019505398
0001c0 6d 11 56 3e bf 43 91 3d 83 76 f6 3d 47 1d 11 3e
       0.20905085 0.07093 0.12034323 0.14171325
0001d0 8b 73 fa 3c db 7e cf 3d dd d6 49 3d 0f 8a e4 3d
       0.030572673 0.10131618 0.049277175 0.11159145
0001e0 f9 4b e9 3d fd 18 1b 3e 76 ab a8 bb 7f 4e 8f 3e
       0.11391444 0.15146251 -0.005147393 0.27989575
0001f0 87 e6 39 be 8c 98 1a be 48 c6 bb bd 51 07 91 bd
       -0.18154345 -0.15097255 -0.091686785 -0.070814736
000200 0a 4b 80 be fb 5d e8 3d af e5 24 be e0 d1 b2 3d
       -0.2505725 0.1134605 -0.16103242 0.08731437
000210 8a 50 a6 3c 47 10 09 be ce cc 0a be 4c 00 b0 bc
       0.020302076 -0.13385116 -0.1355469 -0.021484517
000220 27 32 60 3e 44 0f 64 be 1b 7b 32 bd c7 9c 04 be
       0.21894132 -0.22271448 -0.043574434 -0.12950431
000230 a2 e5 c9 bc 9a 79 4d be 92 f9 18 3d 2d 7a 48 be
       -0.02464563 -0.20065919 0.037347384 -0.19577856
000240 73 9d 14 bb 0e c0 5a be 0c 6d 96 3e 19 5a 38 be
       -0.0022676855 -0.21362326 0.2938007 -0.1800312
000250 11 43 1a 3e 40 f8 1d be df e7 98 be dc 15 47 3e
       0.15064646 -0.15426731 -0.29864404 0.19441932
000260 be e4 c3 3d 9e 57 27 3e 19 1b 8a 3c 3b fd 91 3c
       0.095651135 0.16342017 0.016858624 0.017820945
000270 2a 98 c5 bb 58 67 07 be 53 2b 0b be 55 76 24 bd
       -0.0060301023 -0.13223016 -0.13590746 -0.040151913
000280 9f d2 4c bd 83 bf 03 be e1 6f 0d 3e 3f f5 f2 bd
       -0.05000555 -0.12866025 0.1381221 -0.11863183
000290 39 c4 a1 bd f3 f4 d7 3d 66 69 40 3d cf 97 21 3e
       -0.078987546 0.10544767 0.046975516 0.15780567
0002a0 ca 7b f6 bd d2 ba b8 bd 0c be c5 bd 29 5c 4a 3d
       -0.1203533 -0.09020008 -0.09655389 0.049404297
0002b0 5d e8 cc bd 41 61 79 3d c1 b3 e4 bd 73 e3 b6 bd
       -0.10005257 0.060883764 -0.11167098 -0.08930101
0002c0 1a e9 c0 3d d7 0f a7 bd 97 21 a9 bc d4 c4 be bb
       0.094194606 -0.08157318 -0.0206459 -0.0058218036
0002d0 75 a4 28 3d c0 49 81 be 3f 9f 7a 3d 89 87 92 3e
       0.041172463 -0.2525158 0.061187025 0.2861903
0002e0 be c2 4a be c6 7a 4c 3d 33 63 27 be 7a 01 84 3d
       -0.19800851 0.049921773 -0.16346435 0.06445594
0002f0 23 02 c5 3c 02 c1 36 3e 36 27 60 3e 75 67 6b bd
       0.02404887 0.17847064 0.21889958 -0.05747171
000300 46 3b 28 bd b7 6f ac be 54 ea 81 3d 1c 98 46 be
       -0.041072153 -0.33678982 0.06343523 -0.19393963
000310 88 92 34 3e 62 79 a0 bc 69 1d 05 bd 65 a6 52 be
       0.17634022 -0.01958913 -0.03249875 -0.20571287
000320 23 69 1a 3d 89 43 12 be 56 8f 03 be 76 99 8e bc
       0.037697922 -0.14283575 -0.12847647 -0.01740716
000330 54 5c 8e be 45 aa df 3d a3 85 8a bd 17 13 6f bd
       -0.27804816 0.10921148 -0.067637704 -0.058367815
000340 73 70 a9 3c c9 0f e6 3d 1a 7c 25 be b0 9b a4 bd
       0.020683503 0.112334795 -0.16160622 -0.080375075
000350 48 6d 4f be 96 e9 eb 3d 13 b5 91 3d ec c2 1d bd
       -0.20256531 0.11519162 0.07114615 -0.03851597
000360 e3 66 8d 3d 08 7d de bd 27 79 14 3e 8f ac 22 3d
       0.0690439 -0.108636916 0.14499341 0.039715346
000370 a3 7d 81 3e 89 1c 1b 3c ca 19 70 be 50 f0 2d 3e
       0.25291166 0.0094672525 -0.23447338 0.16986203
000380 aa d3 3e 3e 78 21 a9 bd 93 d2 79 be 00 46 54 3e
       0.18635431 -0.08258337 -0.24396734 0.20729828
000390 e3 99 50 3e 87 b9 64 3d b4 50 b9 3d 7b 73 30 3d
       0.20371203 0.055840995 0.09048596 0.04307888
0003a0 49 64 32 be 3c 88 60 be b4 b7 89 bc f2 10 66 3d
       -0.17421068 -0.2192697 -0.01681123 0.056168504
0003b0 2b 44 79 3d e6 fd 98 3c 0a 49 0f be 05 4e 03 be
       0.060856026 0.018675756 -0.13992706 -0.12822731
0003c0 36 bd 46 bd 21 d2 8b bc 3d 57 1f be c3 a4 10 be
       -0.04852029 -0.01706797 -0.15560623 -0.14125352
0003d0 3e 60 a9 3c 49 f7 ab 3d 27 63 1f 3e 5d 80 55 be
       0.020675775 0.08396775 0.15565167 -0.20849748
0003e0 0d 4d bc 3b b7 0b 17 3d a8 0c 89 3e 44 68 34 3e
       0.00574649 0.036876407 0.26767468 0.17617899
0003f0 9b e2 ae 3d e3 3a 0e 3e 86 9f 51 be 4b 51 f8 bd
       0.08539315 0.13889651 -0.2047101 -0.121248804

bias f4 [50]
000000 81 41 04 3c 8e 5f ab 3a 9e 7b f1 bb 98 f1 e5 ba
       0.008072258 0.0013074742 -0.0073694726 -0.0017543314
000010 7b 80 0a bb 08 56 39 bb 1c 08 36 bb f8 01 13 bc
       -0.002113371 -0.0028280038 -0.002777583 -0.008972637
000020 f3 3a 13 3c 8f 4c 8a 3b 1c 22 37 3b fd 14 8c bb
       0.008986223 0.0042205523 0.0027943915 -0.004274963
000030 75 e6 d7 3a 3b a0 02 3b ac dd b6 3a 93 39 5f ba
       0.001647188 0.001993193 0.0013951561 -0.0008515354
000040 a9 08 b7 bc a5 1e dc ba 6c fd 85 bb 2c 5d e8 bb
       -0.022342997 -0.0016793801 -0.004089048 -0.007091185
000050 61 fd 02 3c f7 cb 1a 3b c8 ed 54 bb f4 a1 ad bc
       0.007994981 0.0023620108 -0.0032490361 -0.02119539
000060 cd 65 a4 3b 70 25 33 3a 7b 38 a0 3a 4f e0 7a 3b
       0.0050170184 0.0006833887 0.0012223864 0.003828067
000070 2a c3 c6 ba ed aa 8a 3a f2 c0 de bb b1 a6 a8 3b
       -0.0015164365 0.0010579504 -0.006797903 0.0051468243
000080 b9 3d a6 b9 42 22 b0 3a 96 d0 76 bb 75 82 a5 bb
       -0.00031707974 0.0013437944 -0.0037660948 -0.005050952
000090 c5 1d 71 3b 6d 22 94 bb 28 3a 84 3b 1a 17 86 bb
       0.0036791426 -0.0045207054 0.004035253 -0.0040921094
0000a0 23 4a 37 bb 4f fd b1 ba b7 ae 99 3a c1 ab 5f 3a
       -0.0027967773 -0.001357952 0.0011725043 0.0008532368
0000b0 90 9e 0b 3b 43 2f 64 bb b3 ad b2 3b 24 7c 1b ba
       0.0021304227 -0.003481821 0.0054528355 -0.0005931279
0000c0 de e5 38 bb 94 1d 09 3b
       -0.0028213183 0.002092217
