pbc_examples/saved_models/convection_beta-1.0_layers-50,50,50,50,50,50,1_L-2.0_WD-0_init-normal_batch_size256.pt (torch, 179145 bytes, 48 tensors)

x_u f4 [256, 1]
00000000: 0000 0000 db0f c93c db0f 493d e4cb 963d
00000010: db0f c93d d153 fb3d e4cb 163e dfed 2f3e
00000020: db0f 493e d631 623e d153 7b3e e63a 8a3e
00000030: e4cb 963e e25c a33e dfed af3e dd7e bc3e
00000040: db0f c93e d8a0 d53e d631 e23e d4c2 ee3e
00000050: d153 fb3e 67f2 033f e63a 0a3f 6583 103f
00000060: e4cb 163f 6314 1d3f e25c 233f 60a5 293f
00000070: dfed 2f3f 5e36 363f dd7e 3c3f 5cc7 423f
00000080: db0f 493f 5958 4f3f d8a0 553f 57e9 5b3f
00000090: d631 623f 557a 683f d4c2 6e3f 520b 753f
000000a0: d153 7b3f 28ce 803f 67f2 833f a716 873f
000000b0: e63a 8a3f 265f 8d3f 6583 903f a5a7 933f
000000c0: e4cb 963f 23f0 993f 6314 9d3f a238 a03f
000000d0: e25c a33f 2181 a63f 60a5 a93f a0c9 ac3f
000000e0: dfed af3f 1f12 b33f 5e36 b63f 9e5a b93f
000000f0: dd7e bc3f 1ca3 bf3f 5cc7 c23f 9beb c53f
00000100: db0f c93f 1a34 cc3f 5958 cf3f 997c d23f
00000110: d8a0 d53f 18c5 d83f 57e9 db3f 970d df3f
00000120: d631 e23f 1556 e53f 557a e83f 949e eb3f
00000130: d4c2 ee3f 13e7 f13f 520b f53f 922f f83f
00000140: d153 fb3f 1178 fe3f 28ce 0040 4860 0240
00000150: 67f2 0340 8784 0540 a716 0740 c7a8 0840
00000160: e63a 0a40 06cd 0b40 265f 0d40 45f1 0e40
00000170: 6583 1040 8515 1240 a5a7 1340 c439 1540
00000180: e4cb 1640 045e 1840 23f0 1940 4382 1b40
00000190: 6314 1d40 83a6 1e40 a238 2040 c2ca 2140
000001a0: e25c 2340 01ef 2440 2181 2640 4113 2840
000001b0: 60a5 2940 8037 2b40 a0c9 2c40 c05b 2e40
000001c0: dfed 2f40 ff7f 3140 1f12 3340 3ea4 3440
000001d0: 5e36 3640 7ec8 3740 9e5a 3940 bdec 3a40
000001e0: dd7e 3c40 fd10 3e40 1ca3 3f40 3c35 4140
000001f0: 5cc7 4240 7c59 4440 9beb 4540 bb7d 4740
00000200: db0f 4940 faa1 4a40 1a34 4c40 3ac6 4d40
00000210: 5958 4f40 79ea 5040 997c 5240 b90e 5440
00000220: d8a0 5540 f832 5740 18c5 5840 3757 5a40
00000230: 57e9 5b40 777b 5d40 970d 5f40 b69f 6040
00000240: d631 6240 f6c3 6340 1556 6540 35e8 6640
00000250: 557a 6840 750c 6a40 949e 6b40 b430 6d40
00000260: d4c2 6e40 f354 7040 13e7 7140 3379 7340
00000270: 520b 7540 729d 7640 922f 7840 b2c1 7940
00000280: d153 7b40 f1e5 7c40 1178 7e40 1805 8040
00000290: 28ce 8040 3897 8140 4860 8240 5829 8340
000002a0: 67f2 8340 77bb 8440 8784 8540 974d 8640
000002b0: a716 8740 b7df 8740 c7a8 8840 d671 8940
000002c0: e63a 8a40 f603 8b40 06cd 8b40 1696 8c40
000002d0: 265f 8d40 3628 8e40 45f1 8e40 55ba 8f40
000002e0: 6583 9040 754c 9140 8515 9240 95de 9240
000002f0: a5a7 9340 b470 9440 c439 9540 d402 9640
00000300: e4cb 9640 f494 9740 045e 9840 1427 9940
00000310: 23f0 9940 33b9 9a40 4382 9b40 534b 9c40
00000320: 6314 9d40 73dd 9d40 83a6 9e40 926f 9f40
00000330: a238 a040 b201 a140 c2ca a140 d293 a240
00000340: e25c a340 f125 a440 01ef a440 11b8 a540
00000350: 2181 a640 314a a740 4113 a840 51dc a840
00000360: 60a5 a940 706e aa40 8037 ab40 9000 ac40
00000370: a0c9 ac40 b092 ad40 c05b ae40 cf24 af40
00000380: dfed af40 efb6 b040 ff7f b140 0f49 b240
00000390: 1f12 b340 2fdb b340 3ea4 b440 4e6d b540
000003a0: 5e36 b640 6eff b640 7ec8 b740 8e91 b840
000003b0: 9e5a b940 ad23 ba40 bdec ba40 cdb5 bb40
000003c0: dd7e bc40 ed47 bd40 fd10 be40 0dda be40
000003d0: 1ca3 bf40 2c6c c040 3c35 c140 4cfe c140
000003e0: 5cc7 c240 6c90 c340 7c59 c440 8b22 c540
000003f0: 9beb c540 abb4 c640 bb7d c740 cb46 c840
0.0 0.024543693 0.049087387 0.07363108 0.09817477 0.12271846 0.14726216 0.17180584
0.19634955 0.22089323 0.24543692 0.2699806 0.2945243 0.319068 0.3436117 0.3681554
0.3926991 0.41724277 0.44178647 0.46633017 0.49087384 0.5154175 0.5399612 0.5645049
0.5890486 0.6135923 0.638136 0.6626797 0.6872234 0.7117671 0.7363108 0.7608545
0.7853982 0.8099418 0.83448553 0.85902923 0.88357294 0.90811664 0.93266034 0.957204
0.9817477 1.0062914 1.030835 1.0553788 1.0799224 1.1044662 1.1290098 1.1535536
1.1780972 1.2026409 1.2271847 1.2517283 1.276272 1.3008157 1.3253593 1.3499031
1.3744467 1.3989905 1.4235342 1.4480779 1.4726216 1.4971652 1.521709 1.5462526
1.5707964 1.59534 1.6198837 1.6444274 1.6689711 1.6935148 1.7180585 1.7426022
1.7671459 1.7916895 1.8162333 1.8407769 1.8653207 1.8898643 1.914408 1.9389517
1.9634954 1.9880391 2.0125828 2.0371265 2.06167 2.0862138 2.1107576 2.1353014
2.1598449 2.1843886 2.2089324 2.233476 2.2580197 2.2825634 2.3071072 2.3316507
2.3561945 2.3807383 2.4052818 2.4298255 2.4543693 2.478913 2.5034566 2.5280004
2.552544 2.5770876 2.6016314 2.6261752 2.6507187 2.6752625 2.6998062 2.72435
2.7488935 2.7734373 2.797981 2.8225245 2.8470683 2.871612 2.8961558 2.9206994
2.9452431 2.969787 2.9943304 3.0188742 3.043418 3.0679617 3.0925052 3.117049
3.1415927 3.1661363 3.19068 3.2152238 3.2397673 3.264311 3.2888548 3.3133986
3.3379421 3.362486 3.3870296 3.4115732 3.436117 3.4606607 3.4852045 3.509748
3.5342917 3.5588355 3.583379 3.6079228 3.6324666 3.6570103 3.6815538 3.7060976
3.7306414 3.755185 3.7797287 3.8042724 3.828816 3.8533597 3.8779035 3.9024472
3.9269907 3.9515345 3.9760783 4.000622 4.0251656 4.0497093 4.074253 4.098797
4.12334 4.147884 4.1724277 4.1969714 4.221515 4.246059 4.2706027 4.295146
4.3196898 4.3442335 4.3687773 4.393321 4.417865 4.4424086 4.466952 4.4914956
4.5160394 4.540583 4.565127 4.5896707 4.6142144 4.6387577 4.6633015 4.687845
4.712389 4.7369328 4.7614765 4.7860203 4.8105636 4.8351073 4.859651 4.884195
4.9087386 4.9332824 4.957826 4.9823694 5.006913 5.031457 5.0560007 5.0805445
5.105088 5.1296315 5.1541753 5.178719 5.203263 5.2278066 5.2523503 5.276894
5.3014374 5.325981 5.350525 5.3750687 5.3996124 5.424156 5.4487 5.473243
5.497787 5.5223308 5.5468745 5.5714183 5.595962 5.620506 5.645049 5.669593
5.6941366 5.7186804 5.743224 5.767768 5.7923117 5.816855 5.8413987 5.8659425
5.8904862 5.91503 5.939574 5.9641175 5.988661 6.0132046 6.0377483 6.062292
6.086836 6.1113796 6.1359234 6.1604667 6.1850104 6.209554 6.234098 6.2586417

t_u f4 [256, 1]
00000000: 0000 0000 0000 0000 0000 0000 0000 0000
00000010: 0000 0000 0000 0000 0000 0000 0000 0000
00000020: 0000 0000 0000 0000 0000 0000 0000 0000
00000030: 0000 0000 0000 0000 0000 0000 0000 0000
00000040: 0000 0000 0000 0000 0000 0000 0000 0000
00000050: 0000 0000 0000 0000 0000 0000 0000 0000
00000060: 0000 0000 0000 0000 0000 0000 0000 0000
00000070: 0000 0000 0000 0000 0000 0000 0000 0000
00000080: 0000 0000 0000 0000 0000 0000 0000 0000
00000090: 0000 0000 0000 0000 0000 0000 0000 0000
000000a0: 0000 0000 0000 0000 0000 0000 0000 0000
000000b0: 0000 0000 0000 0000 0000 0000 0000 0000
000000c0: 0000 0000 0000 0000 0000 0000 0000 0000
000000d0: 0000 0000 0000 0000 0000 0000 0000 0000
000000e0: 0000 0000 0000 0000 0000 0000 0000 0000
000000f0: 0000 0000 0000 0000 0000 0000 0000 0000
00000100: 0000 0000 0000 0000 0000 0000 0000 0000
00000110: 0000 0000 0000 0000 0000 0000 0000 0000
00000120: 0000 0000 0000 0000 0000 0000 0000 0000
00000130: 0000 0000 0000 0000 0000 0000 0000 0000
00000140: 0000 0000 0000 0000 0000 0000 0000 0000
00000150: 0000 0000 0000 0000 0000 0000 0000 0000
00000160: 0000 0000 0000 0000 0000 0000 0000 0000
00000170: 0000 0000 0000 0000 0000 0000 0000 0000
00000180: 0000 0000 0000 0000 0000 0000 0000 0000
00000190: 0000 0000 0000 0000 0000 0000 0000 0000
000001a0: 0000 0000 0000 0000 0000 0000 0000 0000
000001b0: 0000 0000 0000 0000 0000 0000 0000 0000
000001c0: 0000 0000 0000 0000 0000 0000 0000 0000
000001d0: 0000 0000 0000 0000 0000 0000 0000 0000
000001e0: 0000 0000 0000 0000 0000 0000 0000 0000
000001f0: 0000 0000 0000 0000 0000 0000 0000 0000
00000200: 0000 0000 0000 0000 0000 0000 0000 0000
00000210: 0000 0000 0000 0000 0000 0000 0000 0000
00000220: 0000 0000 0000 0000 0000 0000 0000 0000
00000230: 0000 0000 0000 0000 0000 0000 0000 0000
00000240: 0000 0000 0000 0000 0000 0000 0000 0000
00000250: 0000 0000 0000 0000 0000 0000 0000 0000
00000260: 0000 0000 0000 0000 0000 0000 0000 0000
00000270: 0000 0000 0000 0000 0000 0000 0000 0000
00000280: 0000 0000 0000 0000 0000 0000 0000 0000
00000290: 0000 0000 0000 0000 0000 0000 0000 0000
000002a0: 0000 0000 0000 0000 0000 0000 0000 0000
000002b0: 0000 0000 0000 0000 0000 0000 0000 0000
000002c0: 0000 0000 0000 0000 0000 0000 0000 0000
000002d0: 0000 0000 0000 0000 0000 0000 0000 0000
000002e0: 0000 0000 0000 0000 0000 0000 0000 0000
000002f0: 0000 0000 0000 0000 0000 0000 0000 0000
00000300: 0000 0000 0000 0000 0000 0000 0000 0000
00000310: 0000 0000 0000 0000 0000 0000 0000 0000
00000320: 0000 0000 0000 0000 0000 0000 0000 0000
00000330: 0000 0000 0000 0000 0000 0000 0000 0000
00000340: 0000 0000 0000 0000 0000 0000 0000 0000
00000350: 0000 0000 0000 0000 0000 0000 0000 0000
00000360: 0000 0000 0000 0000 0000 0000 0000 0000
00000370: 0000 0000 0000 0000 0000 0000 0000 0000
00000380: 0000 0000 0000 0000 0000 0000 0000 0000
00000390: 0000 0000 0000 0000 0000 0000 0000 0000
000003a0: 0000 0000 0000 0000 0000 0000 0000 0000
000003b0: 0000 0000 0000 0000 0000 0000 0000 0000
000003c0: 0000 0000 0000 0000 0000 0000 0000 0000
000003d0: 0000 0000 0000 0000 0000 0000 0000 0000
000003e0: 0000 0000 0000 0000 0000 0000 0000 0000
000003f0: 0000 0000 0000 0000 0000 0000 0000 0000
0.0 0.0 0.0 0.0 0.0 0.0 0.0 0.0
0.0 0.0 0.0 0.0 0.0 0.0 0.0 0.0
0.0 0.0 0.0 0.0 0.0 0.0 0.0 0.0
0.0 0.0 0.0 0.0 0.0 0.0 0.0 0.0
0.0 0.0 0.0 0.0 0.0 0.0 0.0 0.0
0.0 0.0 0.0 0.0 0.0 0.0 0.0 0.0
0.0 0.0 0.0 0.0 0.0 0.0 0.0 0.0
0.0 0.0 0.0 0.0 0.0 0.0 0.0 0.0
0.0 0.0 0.0 0.0 0.0 0.0 0.0 0.0
0.0 0.0 0.0 0.0 0.0 0.0 0.0 0.0
0.0 0.0 0.0 0.0 0.0 0.0 0.0 0.0
0.0 0.0 0.0 0.0 0.0 0.0 0.0 0.0
0.0 0.0 0.0 0.0 0.0 0.0 0.0 0.0
0.0 0.0 0.0 0.0 0.0 0.0 0.0 0.0
0.0 0.0 0.0 0.0 0.0 0.0 0.0 0.0
0.0 0.0 0.0 0.0 0.0 0.0 0.0 0.0
0.0 0.0 0.0 0.0 0.0 0.0 0.0 0.0
0.0 0.0 0.0 0.0 0.0 0.0 0.0 0.0
0.0 0.0 0.0 0.0 0.0 0.0 0.0 0.0
0.0 0.0 0.0 0.0 0.0 0.0 0.0 0.0
0.0 0.0 0.0 0.0 0.0 0.0 0.0 0.0
0.0 0.0 0.0 0.0 0.0 0.0 0.0 0.0
0.0 0.0 0.0 0.0 0.0 0.0 0.0 0.0
0.0 0.0 0.0 0.0 0.0 0.0 0.0 0.0
0.0 0.0 0.0 0.0 0.0 0.0 0.0 0.0
0.0 0.0 0.0 0.0 0.0 0.0 0.0 0.0
0.0 0.0 0.0 0.0 0.0 0.0 0.0 0.0
0.0 0.0 0.0 0.0 0.0 0.0 0.0 0.0
0.0 0.0 0.0 0.0 0.0 0.0 0.0 0.0
0.0 0.0 0.0 0.0 0.0 0.0 0.0 0.0
0.0 0.0 0.0 0.0 0.0 0.0 0.0 0.0
0.0 0.0 0.0 0.0 0.0 0.0 0.0 0.0

x_f f4 [100, 1]
00000000: a5a7 9340 970d df3f d8a0 5540 534b 9c40
00000010: 7c59 4440 efb6 b040 ad23 ba40 9beb c540
00000020: 8515 9240 23f0 993f 1427 9940 6583 103f
00000030: 949e eb3f d153 fb3d 926f 9f40 5cc7 c240
00000040: 6eff b640 a0c9 2c40 c2ca 2140 6c90 c340
00000050: c05b 2e40 cf24 af40 a716 873f 4cfe c140
00000060: d631 e23e 5e36 363f 974d 8640 cb46 c840
00000070: 7c59 c440 754c 9140 9beb c540 c7a8 8840
00000080: cf24 af40 2181 2640 265f 8d40 6314 9d40
00000090: 2c6c c040 dd7e bc3e d153 fb3e 2181 a640
000000a0: 777b 5d40 d631 e23e 5958 cf3f 77bb 8440
000000b0: 557a e83f 83a6 9e40 970d 5f40 18c5 5840
000000c0: 520b 753f a5a7 1340 60a5 293f 314a a740
000000d0: db0f c93c 4cfe c140 c439 1540 d153 fb3f
000000e0: c439 1540 dfed 2f3f 1a34 cc3f 3757 5a40
000000f0: 1f12 b340 9e5a b940 265f 8d3f 949e 6b40
00000100: d631 623f 57e9 db3f 4382 1b40 35e8 6640
00000110: 1556 e53f 5958 cf3f d671 8940 1178 fe3f
00000120: 6583 1040 c05b 2e40 db0f 493f 67f2 0340
00000130: 83a6 9e40 f125 a440 4382 1b40 754c 9140
00000140: 750c 6a40 d8a0 553f b430 6d40 1556 e53f
00000150: 5cc7 c240 926f 9f40 534b 9c40 28ce 803f
00000160: dfed af40 bdec ba40 974d 8640 e4cb 9640
00000170: d631 623f d4c2 6e3f 6314 9d3f 7ec8 b740
00000180: 0f49 b240 3c35 c140 57e9 5b40 a0c9 ac3f
4.6142144 1.7426022 3.3379421 4.884195 3.0679617 5.5223308 5.816855 6.1850104
4.565127 1.2026409 4.7860203 0.5645049 1.8407769 0.12271846 4.9823694 6.086836
5.7186804 2.6998062 2.5280004 6.1113796 2.72435 5.473243 1.0553788 6.062292
0.44178647 0.7117671 4.1969714 6.2586417 6.1359234 4.540583 6.1850104 4.2706027
5.473243 2.6016314 4.417865 4.9087386 6.0132046 0.3681554 0.49087384 5.203263
3.4606607 0.44178647 1.6198837 4.147884 1.8162333 4.957826 3.4852045 3.3870296
0.957204 2.3071072 0.6626797 5.2278066 0.024543693 6.062292 2.3316507 1.9634954
2.3316507 0.6872234 1.59534 3.4115732 5.595962 5.7923117 1.1044662 3.6815538
0.88357294 1.7180585 2.4298255 3.6079228 1.7916895 1.6198837 4.295146 1.9880391
2.2580197 2.72435 0.7853982 2.06167 4.957826 5.1296315 2.4298255 4.540583
3.6570103 0.83448553 3.7060976 1.7916895 6.086836 4.9823694 4.884195 1.0062914
5.497787 5.8413987 4.1969714 4.712389 0.88357294 0.93266034 1.2271847 5.743224
5.5714183 6.0377483 3.436117 1.3499031

t_f f4 [100, 1]
00000000: 7786 c43e 5d74 513f ee0c 093f 6748 4c3f
00000010: dece 103e 9602 353f a0d6 2f3f 721c 473f
00000020: e9a2 0b3f b57e 253c e438 0e3f 6db2 493f
00000030: 4362 de3e 4362 de3e 0ad4 7a3f 0000 803f
00000040: a540 2d3f f376 063f ca26 9b3e 580a 543f
00000050: 0ad4 7a3f bae8 223f a0d6 af3e b57e a53e
00000060: 1a12 f33e 2950 6b3f e438 0e3f 721c 473f
00000070: 8c2e ba3e 398e 633e dece 903e 398e 633f
00000080: 2fba 683f ca26 1b3e bf52 203f b57e 253d
00000090: ca26 1b3e 3ef8 603f d4fa 153f fd4a 813e
000000a0: 6748 4c3f 7786 c43e 4e36 d93e b57e 253c
000000b0: 103e 783e 3424 663f 8c2e ba3e 1f7c 703f
000000c0: 7cf0 413f bf52 a03e b57e 253d a0d6 af3e
000000d0: 2fba e83e 15a8 753f 15a8 753f 2fba e83e
000000e0: 2fba e83e 62de 4e3f f376 063f dece 103f
000000f0: 3ef8 603f 86c4 3c3f b57e 253d 1a12 f33e
00000100: d964 133f dece 103f a540 2d3f 056a 7d3f
00000110: a0d6 2f3f 4e36 593e 62de 4e3d dece 903e
00000120: fd4a 813e 62de 4e3f b57e 253c 580a d43e
00000130: 103e 783f 0ad4 7a3f d4fa 953e f8e0 033f
00000140: 53a0 563f 1a12 733f 1a12 f33e cf90 183f
00000150: 6db2 c93e a0d6 2f3f 4e36 593f b57e a53c
00000160: 2950 6b3f 103e f83e f376 063e ca26 1b3f
00000170: fd4a 813e 103e 783f a0d6 af3e 53a0 563f
00000180: 103e f83e 6748 4c3f 9198 373f ca26 9b3e
0.3838384 0.8181818 0.53535354 0.7979798 0.14141414 0.7070707 0.68686867 0.7777778
0.54545456 0.01010101 0.5555556 0.7878788 0.43434343 0.43434343 0.97979796 1.0
0.67676765 0.5252525 0.3030303 0.82828283 0.97979796 0.6363636 0.34343433 0.32323232
0.47474748 0.9191919 0.5555556 0.7777778 0.36363637 0.22222222 0.28282827 0.8888889
0.90909094 0.15151516 0.6262626 0.04040404 0.15151516 0.8787879 0.5858586 0.25252524
0.7979798 0.3838384 0.42424244 0.01010101 0.24242425 0.8989899 0.36363637 0.93939394
0.75757575 0.3131313 0.04040404 0.34343433 0.45454547 0.959596 0.959596 0.45454547
0.45454547 0.8080808 0.5252525 0.56565654 0.8787879 0.7373737 0.04040404 0.47474748
0.57575756 0.56565654 0.67676765 0.989899 0.68686867 0.21212122 0.05050505 0.28282827
0.25252524 0.8080808 0.01010101 0.41414142 0.969697 0.97979796 0.2929293 0.5151515
0.83838385 0.94949496 0.47474748 0.5959596 0.3939394 0.68686867 0.8484849 0.02020202
0.9191919 0.4848485 0.13131313 0.6060606 0.25252524 0.969697 0.34343433 0.83838385
0.4848485 0.7979798 0.7171717 0.3030303

x_bc_lb f4 [100, 1]
00000000: 0000 0000 0000 0000 0000 0000 0000 0000
00000010: 0000 0000 0000 0000 0000 0000 0000 0000
00000020: 0000 0000 0000 0000 0000 0000 0000 0000
00000030: 0000 0000 0000 0000 0000 0000 0000 0000
00000040: 0000 0000 0000 0000 0000 0000 0000 0000
00000050: 0000 0000 0000 0000 0000 0000 0000 0000
00000060: 0000 0000 0000 0000 0000 0000 0000 0000
00000070: 0000 0000 0000 0000 0000 0000 0000 0000
00000080: 0000 0000 0000 0000 0000 0000 0000 0000
00000090: 0000 0000 0000 0000 0000 0000 0000 0000
000000a0: 0000 0000 0000 0000 0000 0000 0000 0000
000000b0: 0000 0000 0000 0000 0000 0000 0000 0000
000000c0: 0000 0000 0000 0000 0000 0000 0000 0000
000000d0: 0000 0000 0000 0000 0000 0000 0000 0000
000000e0: 0000 0000 0000 0000 0000 0000 0000 0000
000000f0: 0000 0000 0000 0000 0000 0000 0000 0000
00000100: 0000 0000 0000 0000 0000 0000 0000 0000
00000110: 0000 0000 0000 0000 0000 0000 0000 0000
00000120: 0000 0000 0000 0000 0000 0000 0000 0000
00000130: 0000 0000 0000 0000 0000 0000 0000 0000
00000140: 0000 0000 0000 0000 0000 0000 0000 0000
00000150: 0000 0000 0000 0000 0000 0000 0000 0000
00000160: 0000 0000 0000 0000 0000 0000 0000 0000
00000170: 0000 0000 0000 0000 0000 0000 0000 0000
00000180: 0000 0000 0000 0000 0000 0000 0000 0000
0.0 0.0 0.0 0.0 0.0 0.0 0.0 0.0
0.0 0.0 0.0 0.0 0.0 0.0 0.0 0.0
0.0 0.0 0.0 0.0 0.0 0.0 0.0 0.0
0.0 0.0 0.0 0.0 0.0 0.0 0.0 0.0
0.0 0.0 0.0 0.0 0.0 0.0 0.0 0.0
0.0 0.0 0.0 0.0 0.0 0.0 0.0 0.0
0.0 0.0 0.0 0.0 0.0 0.0 0.0 0.0
0.0 0.0 0.0 0.0 0.0 0.0 0.0 0.0
0.0 0.0 0.0 0.0 0.0 0.0 0.0 0.0
0.0 0.0 0.0 0.0 0.0 0.0 0.0 0.0
0.0 0.0 0.0 0.0 0.0 0.0 0.0 0.0
0.0 0.0 0.0 0.0 0.0 0.0 0.0 0.0
0.0 0.0 0.0 0.0

t_bc_lb f4 [100, 1]
00000000: 0000 0000 b57e 253c b57e a53c 103e f83c
00000010: b57e 253d 62de 4e3d 103e 783d dece 903d
00000020: b57e a53d 8c2e ba3d 62de ce3d 398e e33d
00000030: 103e f83d f376 063e dece 103e ca26 1b3e
00000040: b57e 253e a0d6 2f3e 8c2e 3a3e 7786 443e
00000050: 62de 4e3e 4e36 593e 398e 633e 24e6 6d3e
00000060: 103e 783e fd4a 813e f376 863e e9a2 8b3e
00000070: dece 903e d4fa 953e ca26 9b3e bf52 a03e
00000080: b57e a53e abaa aa3e a0d6 af3e 9602 b53e
00000090: 8c2e ba3e 815a bf3e 7786 c43e 6db2 c93e
000000a0: 62de ce3e 580a d43e 4e36 d93e 4362 de3e
000000b0: 398e e33e 2fba e83e 24e6 ed3e 1a12 f33e
000000c0: 103e f83e 056a fd3e fd4a 013f f8e0 033f
000000d0: f376 063f ee0c 093f e9a2 0b3f e438 0e3f
000000e0: dece 103f d964 133f d4fa 153f cf90 183f
000000f0: ca26 1b3f c5bc 1d3f bf52 203f bae8 223f
00000100: b57e 253f b014 283f abaa 2a3f a540 2d3f
00000110: a0d6 2f3f 9b6c 323f 9602 353f 9198 373f
00000120: 8c2e 3a3f 86c4 3c3f 815a 3f3f 7cf0 413f
00000130: 7786 443f 721c 473f 6db2 493f 6748 4c3f
00000140: 62de 4e3f 5d74 513f 580a 543f 53a0 563f
00000150: 4e36 593f 48cc 5b3f 4362 5e3f 3ef8 603f
00000160: 398e 633f 3424 663f 2fba 683f 2950 6b3f
00000170: 24e6 6d3f 1f7c 703f 1a12 733f 15a8 753f
00000180: 103e 783f 0ad4 7a3f 056a 7d3f 0000 803f
0.0 0.01010101 0.02020202 0.030303031 0.04040404 0.05050505 0.060606062 0.07070707
0.08080808 0.09090909 0.1010101 0.11111111 0.121212125 0.13131313 0.14141414 0.15151516
0.16161616 0.17171717 0.18181819 0.1919192 0.2020202 0.21212122 0.22222222 0.23232323
0.24242425 0.25252524 0.26262626 0.27272728 0.28282827 0.2929293 0.3030303 0.3131313
0.32323232 0.33333334 0.34343433 0.35353535 0.36363637 0.37373737 0.3838384 0.3939394
0.4040404 0.41414142 0.42424244 0.43434343 0.44444445 0.45454547 0.46464646 0.47474748
0.4848485 0.4949495 0.5050505 0.5151515 0.5252525 0.53535354 0.54545456 0.5555556
0.56565654 0.57575756 0.5858586 0.5959596 0.6060606 0.61616164 0.6262626 0.6363636
0.64646465 0.65656567 0.6666667 0.67676765 0.68686867 0.6969697 0.7070707 0.7171717
0.72727275 0.7373737 0.74747473 0.75757575 0.7676768 0.7777778 0.7878788 0.7979798
0.8080808 0.8181818 0.82828283 0.83838385 0.8484849 0.85858583 0.86868685 0.8787879
0.8888889 0.8989899 0.90909094 0.9191919 0.9292929 0.93939394 0.94949496 0.959596
0.969697 0.97979796 0.989899 1.0

x_bc_ub f4 [100, 1]
00000000: db0f c940 db0f c940 db0f c940 db0f c940
00000010: db0f c940 db0f c940 db0f c940 db0f c940
00000020: db0f c940 db0f c940 db0f c940 db0f c940
00000030: db0f c940 db0f c940 db0f c940 db0f c940
00000040: db0f c940 db0f c940 db0f c940 db0f c940
00000050: db0f c940 db0f c940 db0f c940 db0f c940
00000060: db0f c940 db0f c940 db0f c940 db0f c940
00000070: db0f c940 db0f c940 db0f c940 db0f c940
00000080: db0f c940 db0f c940 db0f c940 db0f c940
00000090: db0f c940 db0f c940 db0f c940 db0f c940
000000a0: db0f c940 db0f c940 db0f c940 db0f c940
000000b0: db0f c940 db0f c940 db0f c940 db0f c940
000000c0: db0f c940 db0f c940 db0f c940 db0f c940
000000d0: db0f c940 db0f c940 db0f c940 db0f c940
000000e0: db0f c940 db0f c940 db0f c940 db0f c940
000000f0: db0f c940 db0f c940 db0f c940 db0f c940
00000100: db0f c940 db0f c940 db0f c940 db0f c940
00000110: db0f c940 db0f c940 db0f c940 db0f c940
00000120: db0f c940 db0f c940 db0f c940 db0f c940
00000130: db0f c940 db0f c940 db0f c940 db0f c940
00000140: db0f c940 db0f c940 db0f c940 db0f c940
00000150: db0f c940 db0f c940 db0f c940 db0f c940
00000160: db0f c940 db0f c940 db0f c940 db0f c940
00000170: db0f c940 db0f c940 db0f c940 db0f c940
00000180: db0f c940 db0f c940 db0f c940 db0f c940
6.2831855 6.2831855 6.2831855 6.2831855 6.2831855 6.2831855 6.2831855 6.2831855
6.2831855 6.2831855 6.2831855 6.2831855 6.2831855 6.2831855 6.2831855 6.2831855
6.2831855 6.2831855 6.2831855 6.2831855 6.2831855 6.2831855 6.2831855 6.2831855
6.2831855 6.2831855 6.2831855 6.2831855 6.2831855 6.2831855 6.2831855 6.2831855
6.2831855 6.2831855 6.2831855 6.2831855 6.2831855 6.2831855 6.2831855 6.2831855
6.2831855 6.2831855 6.2831855 6.2831855 6.2831855 6.2831855 6.2831855 6.2831855
6.2831855 6.2831855 6.2831855 6.2831855 6.2831855 6.2831855 6.2831855 6.2831855
6.2831855 6.2831855 6.2831855 6.2831855 6.2831855 6.2831855 6.2831855 6.2831855
6.2831855 6.2831855 6.2831855 6.2831855 6.2831855 6.2831855 6.2831855 6.2831855
6.2831855 6.2831855 6.2831855 6.2831855 6.2831855 6.2831855 6.2831855 6.2831855
6.2831855 6.2831855 6.2831855 6.2831855 6.2831855 6.2831855 6.2831855 6.2831855
6.2831855 6.2831855 6.2831855 6.2831855 6.2831855 6.2831855 6.2831855 6.2831855
6.2831855 6.2831855 6.2831855 6.2831855

t_bc_ub f4 [100, 1]
00000000: 0000 0000 b57e 253c b57e a53c 103e f83c
00000010: b57e 253d 62de 4e3d 103e 783d dece 903d
00000020: b57e a53d 8c2e ba3d 62de ce3d 398e e33d
00000030: 103e f83d f376 063e dece 103e ca26 1b3e
00000040: b57e 253e a0d6 2f3e 8c2e 3a3e 7786 443e
00000050: 62de 4e3e 4e36 593e 398e 633e 24e6 6d3e
00000060: 103e 783e fd4a 813e f376 863e e9a2 8b3e
00000070: dece 903e d4fa 953e ca26 9b3e bf52 a03e
00000080: b57e a53e abaa aa3e a0d6 af3e 9602 b53e
00000090: 8c2e ba3e 815a bf3e 7786 c43e 6db2 c93e
000000a0: 62de ce3e 580a d43e 4e36 d93e 4362 de3e
000000b0: 398e e33e 2fba e83e 24e6 ed3e 1a12 f33e
000000c0: 103e f83e 056a fd3e fd4a 013f f8e0 033f
000000d0: f376 063f ee0c 093f e9a2 0b3f e438 0e3f
000000e0: dece 103f d964 133f d4fa 153f cf90 183f
000000f0: ca26 1b3f c5bc 1d3f bf52 203f bae8 223f
00000100: b57e 253f b014 283f abaa 2a3f a540 2d3f
00000110: a0d6 2f3f 9b6c 323f 9602 353f 9198 373f
00000120: 8c2e 3a3f 86c4 3c3f 815a 3f3f 7cf0 413f
00000130: 7786 443f 721c 473f 6db2 493f 6748 4c3f
00000140: 62de 4e3f 5d74 513f 580a 543f 53a0 563f
00000150: 4e36 593f 48cc 5b3f 4362 5e3f 3ef8 603f
00000160: 398e 633f 3424 663f 2fba 683f 2950 6b3f
00000170: 24e6 6d3f 1f7c 703f 1a12 733f 15a8 753f
00000180: 103e 783f 0ad4 7a3f 056a 7d3f 0000 803f
0.0 0.01010101 0.02020202 0.030303031 0.04040404 0.05050505 0.060606062 0.07070707
0.08080808 0.09090909 0.1010101 0.11111111 0.121212125 0.13131313 0.14141414 0.15151516
0.16161616 0.17171717 0.18181819 0.1919192 0.2020202 0.21212122 0.22222222 0.23232323
0.24242425 0.25252524 0.26262626 0.27272728 0.28282827 0.2929293 0.3030303 0.3131313
0.32323232 0.33333334 0.34343433 0.35353535 0.36363637 0.37373737 0.3838384 0.3939394
0.4040404 0.41414142 0.42424244 0.43434343 0.44444445 0.45454547 0.46464646 0.47474748
0.4848485 0.4949495 0.5050505 0.5151515 0.5252525 0.53535354 0.54545456 0.5555556
0.56565654 0.57575756 0.5858586 0.5959596 0.6060606 0.61616164 0.6262626 0.6363636
0.64646465 0.65656567 0.6666667 0.67676765 0.68686867 0.6969697 0.7070707 0.7171717
0.72727275 0.7373737 0.74747473 0.75757575 0.7676768 0.7777778 0.7878788 0.7979798
0.8080808 0.8181818 0.82828283 0.83838385 0.8484849 0.85858583 0.86868685 0.8787879
0.8888889 0.8989899 0.90909094 0.9191919 0.9292929 0.93939394 0.94949496 0.959596
0.969697 0.97979796 0.989899 1.0

weight f4 [50, 2]
00000000: 8528 d83e 9fa3 ea3e 2f2f cb3e a931 47be
00000010: e999 bdbd 7b96 af3d 7131 fdbd 802d 053e
00000020: 1504 433e 92fc 7cbe c692 c53d 68f2 0c3e
00000030: be15 f1bd 108f 833e 93b3 073e 392c df3d
00000040: 71a7 d7bd 73c0 9bbe cd68 3abe 78db 233e
00000050: ea94 eebd a368 873e 7971 01be d31f babd
00000060: 5758 80be d92f aabe cb42 5dbe 0544 12be
00000070: e5e5 ac3e 35e3 ac3e adec e6be 18e7 a0bd
00000080: 2c46 1fbe f007 87be 9f52 123e 7cf3 dc3e
00000090: 675f a33d dcf8 133e 4a92 a3be a773 0abe
000000a0: 976b 8b3b 621a 7f3e 5b40 2cbe c4b1 073e
000000b0: b253 bb3d 805c 2a3d 2221 20be 1dbb 873d
000000c0: 5c72 0abe 9204 083d 648d b9be 1ed8 123e
000000d0: 98e6 c8bd 974c 98bd d0ed 413d 0809 43be
000000e0: a389 64bd d266 abbd 5717 f9bc bd31 65bc
000000f0: 7f64 c13d de82 50be 4ffb 4e39 30e2 693d
00000100: 7b45 c5be dd34 b73d 84f6 3a3e 614e a1bd
00000110: 3687 0fbe f60e 8b3d 97d3 923e 6873 f0be
00000120: 670c 0e3e 560b c33e 5e05 52bd 938f 273e
00000130: 4a8b fc3d dbf7 233d b6a3 37be 64b3 73be
00000140: 53e6 f1bc 4179 e43d f14c 1c3e bdf1 273d
00000150: 086f 3d3c 0073 9abd c610 02be 00ee 78be
00000160: 5ccc f43d c8ae 96bc 51dd 013e d68d 79be
00000170: 3f88 0a3e e779 16be d9d5 933e 8e9d 9a3e
00000180: 207b 93bd 4040 303e 2073 753d 580d c0bd
0.42218414 0.45827958 0.39684436 -0.19452538 -0.09257872 0.08573624 -0.12362946 0.13005638
0.19044526 -0.24705723 0.096471354 0.13764346 -0.11771725 0.25695086 0.13252096 0.10897107
-0.10529984 -0.30420265 -0.18204041 0.1600169 -0.11649497 0.2644702 -0.12640943 -0.09088101
-0.25067398 -0.3323963 -0.21607511 -0.1428376 0.33769146 0.33767095 -0.45102444 -0.07856578
-0.15554112 -0.26373243 0.1428933 0.43154514 0.07977181 0.14450401 -0.31947547 -0.1352068
0.004254769 0.24912408 -0.16821425 0.13251406 0.09146823 0.04159212 -0.15637639 0.06627486
-0.13520187 0.033207484 -0.36240685 0.14340255 -0.09809607 -0.07436483 0.047345936 -0.19046414
-0.055795323 -0.08369221 -0.030406637 -0.013988909 0.09442996 -0.20362422 0.0001973931 0.057100475
-0.38529572 0.0894563 0.18258101 -0.07876278 -0.14016423 0.06789963 0.28677055 -0.46963048
0.13871919 0.38094586 -0.05127465 0.16363363 0.12331255 0.040031295 -0.17933545 -0.23798901
-0.029528772 0.1115594 0.15263726 0.041002024 0.011562116 -0.07541466 -0.12701711 -0.2430954
0.11953041 -0.01839389 0.12682082 -0.24370512 0.13528536 -0.1469494 0.2887409 0.3019833
-0.072012186 0.1721201 0.059924245 -0.09377545

bias f4 [50]
00000000: a1d9 193d 57c6 09bb 3b4e 4c3c 037b 7b3d
00000010: 33db fabc b653 75bd e19c 9e3c 7140 623c
00000020: 2da6 313d 3a29 2f3d 7e4f 043c 9c76 5e3d
00000030: ee8e 643a 6370 adbc 74e0 a2bc 61e0 813b
00000040: ed15 023c 7bf7 90bc d993 823c fdf5 d6bc
00000050: 4af3 c83c 72ff 37b9 9143 c5bc 9b04 b13c
00000060: 4678 873d 1c85 48bc 9574 13bb 9205 55bd
00000070: abaf 493b 8415 8c3c fa07 3bbd 83fc 9b3c
00000080: 0528 a8bb 94ef 15bd b11a 353c 3233 c4bc
00000090: 17eb 6bbc 49f9 113d f8c1 d0bc c2bb 1e3c
000000a0: ddf6 4d3c 3b15 4bbd 2e01 67bd 1c00 0c3d
000000b0: fadc 08bd bac4 d0bc 053b 06bd 6d03 3ebc
000000c0: b1cc 6f3d ebad d3bb
0.037561063 -0.002102276 0.0124698235 0.06139661 -0.0306221 -0.059894286 0.019361915 0.013809309
0.04337137 0.042763926 0.008075593 0.054312333 0.0008718808 -0.021171754 -0.019882418 0.0039635156
0.007939798 -0.017696133 0.01593964 -0.026240343 0.024530072 -0.00017547401 -0.02408007 0.021608641
0.06614737 -0.012238767 -0.0022499908 -0.052007265 0.0030774872 0.017100103 -0.045661904 0.019041305
-0.005131724 -0.036605433 0.011053727 -0.023950193 -0.0143993115 0.035638127 -0.025483117 0.00968832
0.012571064 -0.049580794 -0.05639761 0.03417979 -0.033413865 -0.025484432 -0.03277113 -0.011597496
0.05854482 -0.0064599416

weight f4 [50, 50]
00000000: d2bd 8f3d 438a f2bd 3169 2b3c 574a 42bd
00000010: 1fba 35bd 0329 44be 7262 0a3e e015 2abc
00000020: c87e 383d a3a7 f53c 9f52 68bd 8a51 823d
00000030: 72db 31be c3f3 09be 492e 38bd 3079 1bbd
00000040: 08ef 0d3d 3643 d2bd dc80 a6bd c97d b4bd
00000050: e384 32be 5ccf a4bd 8301 a13d bb9f 6fbe
00000060: 2ed7 443e ab3d f4bc 4a9a 03be 5fce a9be
00000070: 6a59 d53d 0c75 ea3c d787 9abe 0f07 0ebc
00000080: dda4 c03d 8ec7 473e c309 19be 7c79 debd
00000090: eddb 2fbd c2b7 6ebd 43dd 58bd df72 c83d
000000a0: d42d a73d 2abe 4b3e df59 72be 7f37 403d
000000b0: e7a2 173c 2714 74bd 99e8 94bd ad3b e3bd
000000c0: f14e 0c3d 0d80 1dbe 8057 c53c 6ba4 c43c
000000d0: 0271 aebd 1449 63be 96f4 d03d 5990 1b3e
000000e0: 8f90 29be 3d6c c03d bb85 73bc d6ec 09bd
000000f0: fc0f 223d 6d70 ca3d 61ed 513e 5fb7 45be
00000100: 8b57 41bd 6116 3d3d d49e 503e fb47 043e
00000110: c741 1cbe b1c6 d33d c659 7a3d a341 c63d
00000120: 041f 80be 23b1 a03d 400b 7ebe f173 80be
00000130: bdce 1dbd c7bb 913c 0ee6 443c e642 45be
00000140: 0930 873d 0451 35bd bb29 3cbd 22ca c33d
00000150: 22bf 8d3e 4c69 e03d bfff edbd 7d38 533e
00000160: 3ca6 4b3e 85bf d83d 8f39 d0bd 79a8 c13d
00000170: a189 0fbe 4f94 7cbe f974 87bd 2ff4 463e
00000180: 5e47 4ebe 759c 043e a74f f03c 5bf2 61bb
00000190: 82ab d7bd bae2 c63e 3df5 e3bd b011 31bc
000001a0: e55d 643e 0259 e33c 6577 36be 6c27 98be
000001b0: a1d7 8bbd dfae e83d 351f 2ebe 125a ddbd
000001c0: 1567 54be e61e 81bd c5f2 4cbe e86a 0dbe
000001d0: 95cf 18be 1df9 073d d034 823e b707 13be
000001e0: a7e7 5b3e 1123 0fbe 75eb d4bc d550 2c3e
000001f0: dc48 af3c 2e50 52be 2cb4 d2bc d6bf 393e
00000200: 2fba 86be b9a0 ad3e e5c3 8d3e c84b 3e3e
00000210: e11d e43b ed26 833d e0c1 7cbc 84e7 a73e
00000220: 18c9 14be d0e2 003e 832c e03d 684c b83d
00000230: 70f1 47bc 670c 033e 45bd 083e 44f2 99be
00000240: c50e c0bd cc9e 9f3e 5765 58bd 9dd0 e4bc
00000250: f49d 49bc dd6a a1bd 88d0 083e 3e65 f9bb
00000260: 712a 37bc 11a8 703e a17a ca3d 7c9e e93d
00000270: 062f 063e 906b 983d 9bf4 6b3b 07c6 123d
00000280: 7a7d 86be 93b2 ec3d 9e6f c13d 139f b43d
00000290: fc44 8abe 774c 913e d2df 0abe 7557 0a3e
000002a0: b5da 813e a8c6 7a3e 9300 06bd 6c73 f3bd
000002b0: cdfb 833c ff31 5bbe 59bd bdbd 856a 34be
000002c0: b8eb 1c3e 05c2 383e 6669 1c3c 117a c5bd
000002d0: 2963 a53e 6aa2 18be e737 3fbc c688 56be
000002e0: 09ad 06bc 1568 07be c231 11be 9377 713e
000002f0: 13ef 583d 7e78 43be 018b de3d 4d94 893d
00000300: 28c4 363e 0a88 bebd 267c a1bd 2fc0 51be
00000310: 5fa0 0dbe de27 8c3d 186d fdbd c2af 213e
00000320: 8ed1 493e 2e18 f03c 823a 13be 1ce2 82be
00000330: 2e3c 603d 3b30 d9bd 22d0 9dbc a53c cabd
00000340: de08 05be b639 ddbd 4854 a83d 7d2f 98be
00000350: f50c d03b 7fab 793d 914d c53d 09b4 513d
00000360: 3ee5 5f3e dfe2 57bd 36c7 7abd eda5 2cbe
00000370: d91f 29be cb0c 06be a8da 333e b4eb 863d
00000380: a10b db3d a178 7ebd f022 e73d ed49 8c3d
00000390: e8f2 3a3d 630c 44be a11c a73e 076f 2a3e
000003a0: 841c 85bd 97c5 7c3e 5349 a1bd 60f0 153e
000003b0: eab6 25bd 81f7 a6bd b172 033d e208 52bd
000003c0: 9f7f a33d 4ccc e1bd e99f 11be 3553 003e
000003d0: 25ec 123e cb9b 193e 7f49 e03d bfe6 783e
000003e0: dbea e7bd c696 17bc d24c ab3a 0d05 ef3d
000003f0: 19e3 3e3d 6327 e03d 4b28 403d ed8c 013e
0.07018627 -0.118427776 0.010462091 -0.047434177 -0.044366952 -0.1915627 0.13514116 -0.010381192
0.045042783 0.029987162 -0.05671942 0.063632086 -0.17368868 -0.13471894 -0.044966016 -0.03795737
0.034651786 -0.10266726 -0.08130047 -0.08813054 -0.17433505 -0.08047363 0.078616165 -0.23400776
0.1922271 -0.029814562 -0.12851825 -0.3316526 0.10417445 0.028620265 -0.30181763 -0.008668675
0.09406445 0.19509718 -0.1494513 -0.10863015 -0.042934347 -0.058280714 -0.052945387 0.09787535
0.08163038 0.1989676 -0.23667096 0.046927925 0.009255148 -0.05958953 -0.07270927 -0.110953666
0.034254972 -0.15380879 0.024089575 0.024004182 -0.08517648 -0.22195846 0.10202901 0.15191783
-0.16559051 0.09395645 -0.014863427 -0.03367313 0.039566025 0.09884725 0.20500709 -0.19308232
-0.047202628 0.04616392 0.20373088 0.12918083 -0.15259467 0.10340632 0.06112077 0.09680488
-0.25023663 0.07846286 -0.24808979 -0.25088456 -0.03852724 0.017789735 0.01201774 -0.19263801
0.06600959 -0.044266716 -0.045938235 0.09560038 0.27684885 0.10957584 -0.11621045 0.20627017
0.19887632 0.105834045 -0.101672284 0.09455962 -0.14017345 -0.2466595 -0.06614108 0.19429086
-0.20144412 0.12950309 0.029334856 -0.003447673 -0.105307594 0.38844854 -0.1113076 -0.01080744
0.22301443 0.027752403 -0.17818983 -0.29717577 -0.06828237 0.11361479 -0.17004092 -0.10808195
-0.20742448 -0.063047215 -0.20014484 -0.13810313 -0.14922936 0.033196557 0.25430918 -0.14358412
0.21475087 -0.1397822 -0.02599118 0.1682771 0.021397047 -0.20538399 -0.025720678 0.18139586
-0.26313922 0.33911684 0.27688518 0.18583596 0.0069615697 0.06403909 -0.015427083 0.3279382
-0.14529836 0.12586522 0.1094599 0.08998948 -0.012203559 0.127977 0.1335345 -0.30067647
-0.09377817 0.3117584 -0.05283102 -0.027931506 -0.012305725 -0.07881711 0.13360798 -0.007610946
-0.011179552 0.23501612 0.09886671 0.114071816 0.13103876 0.07442391 0.003600395 0.035833385
-0.26267606 0.11557498 0.094451174 0.088194035 -0.27005756 0.2837865 -0.13561943 0.13509925
0.25362173 0.24489844 -0.03271539 -0.11887249 0.016111279 -0.21405791 -0.09264631 -0.17618759
0.15324295 0.18042763 0.009546613 -0.09642423 0.32302216 -0.14905706 -0.011671043 -0.20950612
-0.008219966 -0.13223298 -0.14179137 0.2358077 0.052962374 -0.19088933 0.10866357 0.06717739
0.17848265 -0.09303291 -0.078850076 -0.20483468 -0.13830708 0.068435416 -0.123743236 0.15789703
0.19708845 0.029308405 -0.14377788 -0.25563133 0.05474489 -0.10604902 -0.019264285 -0.09874848
-0.12991664 -0.10802023 0.082192004 -0.2972373 0.006349201 0.060954567 0.09633935 0.051197086
0.21864793 -0.052706596 -0.06122514 -0.1686017 -0.16516055 -0.13090818 0.1756388 0.065879256
0.106955774 -0.06212676 0.11285961 0.06850038 0.04564181 -0.1914535 0.3263903 0.16643916
-0.064995795 0.2468475 -0.078753136 0.14642477 -0.040457644 -0.081526764 0.0320918 -0.051278003
0.07983326 -0.11025295 -0.14221157 0.12531741 0.14347894 0.15000837 0.10951518 0.24306773
-0.11324092 -0.009252256 0.0013069159 0.11670885 0.046603296 0.109450124 0.046913426 0.12651415

bias f4 [50]
00000000: 09ff 0b3d c14f e4bb e855 013c a3ac d83c
00000010: 33b6 d9bb faa6 5d3b 6d03 87bc e9c5 ff3b
00000020: 3fa7 a1bc dc22 dfbc 7f46 043d dea3 06bc
00000030: 13f5 1ebc 78d7 6ebd ad0c 55bc fd8e 4bbb
00000040: a760 133c c080 543c 5a08 b63c ffc0 28bd
00000050: e7aa 493d d0d1 9a3c e2ee 683c becd 89bb
00000060: 8566 bf3b 643a 37bd 2ed2 87bb 09b5 8c3c
00000070: 22bf 703c 4f2e 8d3c 4efd ba3c 1b3f 853c
00000080: 4958 0e3d 1c1b b2bb 88a3 d3ba dc9c 923b
00000090: f9aa 223c b171 073c 6f68 8d3c ff98 c43b
000000a0: 432c 6a3d db4c 2d3c ecfc 933d c453 653c
000000b0: 5e3d b7bc 7878 0fbd 9d44 703d 5fe5 a6bb
000000c0: 16bf c2bc 8dee d5bc
0.034178767 -0.006967515 0.007894017 0.026449507 -0.0066440343 0.003382145 -0.016481126 0.007805575
-0.01973307 -0.027238302 0.032293793 -0.00821778 -0.009701985 -0.058310956 -0.01300351 -0.003106057
0.008995212 0.0129701495 0.02222078 -0.04119968 0.04923525 0.018898875 0.01421711 -0.0042054346
0.0058410787 -0.04473342 -0.0041449284 0.017176168 0.014694007 0.017233996 0.022825863 0.016265443
0.034752164 -0.0054353606 -0.0016146759 0.0044742655 0.009928458 0.008266852 0.017261712 0.005999684
0.057171118 0.010577406 0.072259754 0.013997022 -0.02236813 -0.035026997 0.058659185 -0.005093261
-0.023772758 -0.026114726

weight f4 [50, 50]
00000000: 883a 853d 851a f6bd 5a8e 2a3e 9d02 653e
00000010: 8eb0 a3bd 15e8 23be 5f24 7ebc 0ea8 023e
00000020: e49c c13e a2a5 0e3e bd33 94bd 8b50 b43d
00000030: 4f98 fcbd 2486 89be e1ed d0be f5a0 b03d
00000040: 0765 773e e519 cd3d 3eb7 8fbd 4f65 aebd
00000050: e02e dc3c 55d8 b23e c175 673e 6364 25be
00000060: df8d 8bbd 6eaa 58be 4be0 7bbd 7bdf d73c
00000070: 1b3f 1ebe 8670 113b 0a8a 863e 24f4 393e
00000080: 95e4 0e3e 0aa5 053d df35 053e 0a6a 583e
00000090: 7bfb 393e cf55 8bbb eaf1 d23e 31dc e23d
000000a0: 7e20 8b3d 9fae cf3c 8f32 903e 4b8a 143e
000000b0: e815 e5bd 57a8 f9bd 5874 1c3e c47b 8ebc
000000c0: da50 d3bc 2657 d4bd 0398 a4bd 70fc 0d3e
000000d0: 58fb 9c3d bffe 66bd 6c9b 603d 8ee3 163d
000000e0: 58bd 4abb 17e4 1cbe 490e 8dbd a65a 5b3e
000000f0: 6a1d 8c3d f57e 073e 53b1 57be 5e7d eebd
00000100: 3440 f53d 4783 d53c 4192 fdbc 8608 b5bc
00000110: 0d91 f6bd 8994 c43d d8d5 613d dd5c ef3c
00000120: 1b01 fc3e 12fa 03be c6f3 e4bd 4726 99bd
00000130: 7037 343d b2c4 083e 7432 18bd dcb0 6b3e
00000140: b8c0 4f3e af9e b63d e94d 7abd a971 24bd
00000150: d81e 003d 4787 d23c b8ef 23be f0aa 823d
00000160: 3914 843e 6346 01be 82c1 87be be26 10be
00000170: afc2 a7ba 5842 c33e 875a 543c c24e 563e
00000180: 4e18 b5bd f581 0cbe a672 e43c ad78 85be
00000190: 5386 713d 3875 153d 075e fd3d bcfb 153e
000001a0: 0106 b0bd a134 c33d 5b90 423e 0735 703d
000001b0: e9fe 21bd fd46 f03c c136 babe 9ceb 443e
000001c0: 75ae 24be 6d5d 3f3e affb 473e 58a6 4d3c
000001d0: 1ff2 573e ea8e f63d 01a2 153e 4a64 a53e
000001e0: 89a7 02be 6eac 3a3e 7a10 003c a388 29be
000001f0: 2183 cf3c 14ea 3dbd 828c fd3d 2f8a 203d
00000200: 5794 003e ff59 923d cd0f 923c 1f20 6dbe
00000210: fe4f ae3b f345 c3bd fc31 c63d 3311 a63d
00000220: c878 96be 06b7 c3bd f9aa 8c3d d3ec 47be
00000230: a9e1 d3bd 8c68 1fbe 1475 f73b 89b4 5ebd
00000240: f12d 993d b590 52bd ee41 90be d422 20be
00000250: 5618 e6bc ad41 41bd fda5 8f3d 4265 f8bc
00000260: 9ac4 413e 2733 7d3d 3fa8 94bc 6358 2c3d
00000270: c1e7 35bd a07c 44be aa56 6dbd 8c53 983d
00000280: 6e49 443e 0108 ffbd bd4a 9cbc b157 adbd
00000290: 47d9 f83d e0d3 01bd 75e6 b23e 2196 65be
000002a0: 591d e9be 1ec6 76bd de57 79bc 73e2 9b3d
000002b0: be45 4e3d e0cb 1fbe 8736 1f3e bff7 dfbd
000002c0: afea a6bd 379f a0be 70ba 0cbd f9b4 0b3d
000002d0: 12c8 903e 2a7f 07bd 22f3 853c de7c 19bc
000002e0: b063 3a3e f849 673e 173f 14bc a7a3 e63d
000002f0: e0fc 40be 55c4 50bd dec1 4c3e b92e 023d
00000300: d097 b43d cc97 97bc 1be6 72bd 9b42 be3d
00000310: 5398 07bd ec01 043d f515 89be caa0 3fbd
00000320: c9c0 d7bd f560 80be 4cd7 9fbd 1938 9e3d
00000330: 6d2a 8c3c 3759 3dbc a6e4 0cbe a099 ee3d
00000340: 1dd6 9fbe bfeb 43be 3b27 ddba 5c12 403d
00000350: fdbd d13d 3f88 d33b 9b55 793c e1d6 f1bd
00000360: 661f 04be 8a94 9cbb 5c61 9ebd 809a 0a3e
00000370: 1f82 66bc c848 3dbe c4f3 563e 660f a13e
00000380: 582e 0cbe aab6 99bd af72 eb3d 7578 da3d
00000390: 7669 013e 96b1 2b3e 1214 bebd 8a93 e33c
000003a0: 4ec2 0f3e e89c 2b3e ce74 bc3d e029 beb9
000003b0: 589e 71be 4189 363e 0d18 963e 0bf8 74bd
000003c0: 1f66 84be 30a8 a8bd 26e3 6e3d 9128 01be
000003d0: 0620 0fbe 5d50 9dbd 4128 cc3d 6d80 26be
000003e0: c1e1 8e3e 9c43 71be 3a52 e7bd a3a4 a7bd
000003f0: aa71 22bd 8fb6 b13c a973 84be b908 8b3d
0.065053046 -0.12016777 0.16655865 0.22364278 -0.079926595 -0.16006501 -0.015511601 0.1275942
0.3781501 0.13930371 -0.07236431 0.08804425 -0.12333738 -0.26860154 -0.40806487 0.0862445
0.24159633 0.100147046 -0.070173725 -0.08515417 0.02687782 0.34930673 0.22603513 -0.16151576
-0.06814169 -0.21158764 -0.0614932 0.026351681 -0.1545376 0.0022192313 0.2627719 0.18159539
0.13954385 0.032628097 0.13008831 0.211342 0.18162338 -0.0042521725 0.4120019 0.110771544
0.06793307 0.02535182 0.28163573 0.1450588 -0.11185819 -0.121903114 0.15278757 -0.017393
-0.025795389 -0.10368185 -0.080368064 0.13865829 0.076651275 -0.05639529 0.05483572 0.036838107
-0.0030935612 -0.15321384 -0.0688749 0.21421298 0.06841548 0.13232024 -0.21063738 -0.11645006
0.119751364 0.026063574 -0.030953528 -0.02209879 -0.12039385 0.09598643 0.055135578 0.029219085
0.49219593 -0.12888363 -0.111793086 -0.07478004 0.04399818 0.13356283 -0.03715749 0.23016685
0.2028836 0.08916985 -0.061109457 -0.040147457 0.031279415 0.02569927 -0.16009414 0.0638026
0.2579668 -0.12624507 -0.26514822 -0.14077279 -0.0012799109 0.38136554 0.0129610365 0.20928481
-0.088425264 -0.1372145 0.0278867 -0.2606863 0.058965992 0.03648874 0.1237145 0.1464681
-0.08594895 0.095315225 0.1900038 0.05864432 -0.039549742 0.029330725 -0.363699 0.19230503
-0.16082175 0.18687983 0.19529603 0.0125518665 0.21088456 0.120389774 0.14612581 0.32303077
-0.12759222 0.18229839 0.007816428 -0.16556029 0.025331082 -0.046365812 0.12380315 0.039194282
0.12556587 0.07146072 0.0178298 -0.23156784 0.0053195944 -0.09534826 0.096775025 0.08108749
-0.29389024 -0.09556393 0.06868548 -0.19523935 -0.10345776 -0.15567225 0.0075517986 -0.05437139
0.07479466 -0.051407535 -0.281753 -0.15638286 -0.028087776 -0.047181774 0.070140816 -0.030321721
0.18922654 0.06181636 -0.018146632 0.04207648 -0.04441047 -0.19188166 -0.057943977 0.0743781
0.19168636 -0.124526985 -0.019078607 -0.084639914 0.12150817 -0.0316962 0.3494145 -0.22420551
-0.45530203 -0.060247533 -0.015218703 0.07611551 0.05035948 -0.15605116 0.15548144 -0.10935926
-0.08150231 -0.3137147 -0.03435749 0.034108136 0.28277642 -0.033080257 0.016351286 -0.00936815
0.1820209 0.2258681 -0.009048245 0.11261683 -0.18846464 -0.050968487 0.1999583 0.03178284
0.088180184 -0.018505 -0.059301477 0.09290048 -0.033104252 0.032228395 -0.26774564 -0.0467842
-0.10534818 -0.25073972 -0.078047365 0.077255435 0.017110074 -0.011556915 -0.13759097 0.116503954
-0.31218043 -0.19132899 -0.0016872654 0.04689251 0.102413155 0.006455451 0.015218164 -0.11808563
-0.12902603 -0.0047784494 -0.077334136 0.135355 -0.014069109 -0.18484795 0.20991427 0.3145706
-0.13689554 -0.075055435 0.114964835 0.106675066 0.12637886 0.16766962 -0.09281172 0.027780313
0.14038965 0.16759074 0.09201966 -0.00036270823 -0.2359556 0.17825796 0.29315224 -0.059806865
-0.25859162 -0.08235204 0.058322094 -0.12613131 -0.1397706 -0.07681344 0.09968615 -0.16259928
0.27906612 -0.23560947 -0.1129498 -0.08185699 -0.03965918 0.021693496 -0.25869492 0.06788773

bias f4 [50]
00000000: 7ab8 1d3d d500 edba 8377 2fbc 067f 85bc
00000010: 074c 573c 0f44 4e3c 1e0c c3b9 d255 98bb
00000020: a201 b6bb 77d4 8e3c 3233 14bc 1383 7f3c
00000030: 06d1 6b3b 0afd e13b 5dff 0c3c 9709 1dbb
00000040: dca9 06bc 4345 263c 5735 3a3c 7660 0c39
00000050: a26e 9bbc f4b1 22bd 5102 b5ba 7875 843b
00000060: 06b9 6fbc 98db df3b 6326 623b 14f6 94b9
00000070: 1426 783b 2f63 6dbc 4dd8 d9bc e35e 5bbc
00000080: 5ad8 8ebc 293a 923b 14cd 693b 75e1 8ebc
00000090: 3477 acba e98a bebc a116 6abc be35 00bd
000000a0: 3a46 a43b 32d7 9c3c c7b3 193c 7f17 353c
000000b0: 5215 dbbc c9cd 30bc 152d bdbc 86a2 6b3c
000000c0: c0d4 b5bc 8fa8 4dbb
0.03850601 -0.0018081913 -0.010709646 -0.016295921 0.013140685 0.012589469 -0.00037202326 -0.0046489025
-0.005554394 0.017435296 -0.009045409 0.015595215 0.0035982742 0.0068966197 0.008605805 -0.0023962015
-0.008219209 0.010148349 0.011365256 0.00013387375 -0.018973652 -0.03972049 -0.0013809894 0.0040423237
-0.014631515 0.0068315975 0.0034507744 -0.00028412102 0.0037864493 -0.014488979 -0.026592398 -0.013389322
-0.017437149 0.0044624996 0.0035675215 -0.01744149 -0.0013158084 -0.023259597 -0.014287622 -0.031301253
0.0050132545 0.019145582 0.009381241 0.011052965 -0.026743565 -0.0107912505 -0.023092786 0.01438201
-0.022196174 -0.0031380986

weight f4 [50, 50]
00000000: c498 b73d bee8 3c3d 2985 303d 5d67 fb3c
00000010: 12bb cd3d 6c84 da3e 00e0 203d 7da9 8b3e
00000020: 15c9 9cbe 3550 853e 0b86 0d3d fd3c 0f3e
00000030: 762f ffbd e8d9 743d f121 5fbd 5616 91bd
00000040: ab52 51bc 9f2c 37be c743 19be 8023 993c
00000050: 83f4 3abe 09e5 763d 7938 3e3d 5d44 543d
00000060: 53d2 ee3b a6de 9f3d 83ed 7fbe 2efc 253e
00000070: 6f6c 123e b8f0 143e 5d15 e83d d5c6 963e
00000080: 3f2f 94bd 091e ae3d b39f 01be 8ccc de3d
00000090: 7801 21be d08b f6bd 7a08 dc3d 6a54 3bbe
000000a0: d3e4 09be 0a43 c8bc c6be 2b3d 1a1c aabd
000000b0: 6109 f1bc 7de5 ed3a 428d ee3b a5cd a1be
000000c0: 6f2a 793e 89d1 1ebe 0636 d7bc d34a 3e3d
000000d0: 92f4 233e 329a bd3d a5fd d83d ab54 4bbe
000000e0: 18f2 eebd 62c3 7a3c 18e8 21bd ba27 883d
000000f0: a2cb 6a3e f14b bdbd e849 573e a9e0 f93a
00000100: e3a9 a9bc aca8 58bd 5e4f 00be a984 5ebe
00000110: 6a38 7e3e 690e ee3d f6b1 0fbe 5e47 5e3e
00000120: e9c6 b6bc 1b82 d2bd adc0 40bd 5e40 393d
00000130: 8505 60bd 62e2 2dbe 4dce 213d cbf8 943c
00000140: 0a67 0bbd a139 dabd 843a 34bd 3366 db3c
00000150: 47b6 373e 979f 1f3c 8655 14be eaab 1b3d
00000160: 9624 483e 5744 20be f4b3 69be 88d1 1a3d
00000170: 6fac 8abd 4f92 a63e 4306 e5bd 99d2 c0bd
00000180: ba0a 66bd 2d1d 3bbe 4d96 0b3e c433 ff3d
00000190: 03c3 153e 6eae a4bd d3a5 54bc 412e 24be
000001a0: a2de d1bc 70fa 82be 4e54 733d f6e7 37bc
000001b0: 0f17 a3bc 41b7 88be 4dce 94be 1136 253d
000001c0: f0e9 003e 046c 693c 3e4a 913e 5434 4b3e
000001d0: 9644 b93d 3d9a e73d 0e3a 41be ee6e 98be
000001e0: 8016 ee3a e26d 58bd 9b58 f13d a4c0 723d
000001f0: 9f74 3b3e 4715 d9bd 1813 723d 0410 bdbd
00000200: 41d8 babd f88b b83d c9ea 6ebe 3c7a 20bd
00000210: a3e0 053e d737 21be e3a8 333b 67ed 1f3e
00000220: 56fd d43d 94cc 75be ab5e 363e 2678 00be
00000230: 4412 233e 90cb 993e 6e04 b53a b666 5e3e
00000240: abea 503e 273e 91be 955b 1e3d 7cbb 8cbe
00000250: 9a31 213d 3678 29bd 8bcf d0bd f8af 2c3d
00000260: d9ad 453d 0a5e 503e 3b21 89bc da4e b23e
00000270: cedf 51be 7cea b33c f5f4 3f3d e398 8a3e
00000280: fc24 d03d b9ed eabc e982 953d 3d18 ef3c
00000290: 6f81 b2bd 5f39 f23d 7b6d c6bd 734d 1f3e
000002a0: 6296 89be 9bec 2b3c 8f9f bbbd 13bb eebb
000002b0: aa67 2a3e 0f98 e3bc cf03 a2be 1880 163e
000002c0: 2919 0a3e ee12 5fbe 15e3 423e 11a9 2c3e
000002d0: 133a 963d 583b 32bc 86cc 813e 264b 4a3d
000002e0: 24e2 923d 7d8a 603c ac62 573d 377f f6be
000002f0: 7965 1bbd f02e 06bd ebe7 34bd 98e9 6c3e
00000300: 20f1 143d 8ce5 0cbe d547 a8bd 02d8 3abe
00000310: e97b 983e a476 0b3e 67ea d3bc 8e5e 593e
00000320: 4497 edbd bf85 aabd 3902 2f3e 192d 76be
00000330: e3c0 343d 1d23 8bbd 7cdb 173c 94de d5bc
00000340: d085 9bbe fbee c2bd d75d 453c 0014 dabd
00000350: 86a6 123e e675 ab3e e04b 2e3b 3185 71be
00000360: 3a10 df3d e608 91be eb13 fa3d d6be 7ebc
00000370: 82e2 aabd 6127 5c3e d187 163e 2819 223e
00000380: 5e5a 543d a7d8 51bd 6945 16be ee46 103e
00000390: c5b8 a93d 92d1 1cbd 99ef 80be a052 44be
000003a0: 80ac afbc e26c b83c 699a 83bd 70b5 463d
000003b0: 246d 89be b541 28be 4bed 35be b09f 153e
000003c0: b5ed 6e3e 4580 7b3a 3131 3d3e 433e 23bd
000003d0: 5009 513e b892 983e de38 76bd 5534 393d
000003e0: 2268 89be 05e5 933d 4882 c6bd a0ef b53e
000003f0: d0d5 183e 22a3 a6bd 4959 6abd 5ce2 9bbe
0.089646846 0.046120398 0.04309574 0.030688936 0.100454465 0.42679155 0.039276123 0.27277747
-0.30622163 0.26037756 0.03455166 0.13988109 -0.12460224 0.059778124 -0.05447573 -0.07084338
-0.012776057 -0.17888115 -0.14967261 0.018693686 -0.18257336 0.06027702 0.046440575 0.05182301
0.007288256 0.07806139 -0.24992947 0.1620948 0.14299177 0.14544952 0.113322 0.29448572
-0.07235574 0.085018225 -0.12658577 0.10878858 -0.15723217 -0.12038386 0.10743804 -0.1829392
-0.13466196 -0.02444603 0.041929983 -0.08306141 -0.029423418 0.0018150058 0.007280023 -0.31602207
0.24332593 -0.15509619 -0.026270878 0.046458077 0.16011265 0.09257926 0.10595254 -0.19856517
-0.116672695 0.015305372 -0.039527982 0.06648202 0.22929242 -0.09243 0.21024287 0.0019064146
-0.020710891 -0.052895233 -0.12530276 -0.21730293 0.24826208 0.11623842 -0.1403273 0.21706912
-0.022311645 -0.10278722 -0.04705875 0.0452274 -0.054692764 -0.1698089 0.039503384 0.01818504
-0.034033813 -0.10655523 -0.044001117 0.02678213 0.17940627 0.009742639 -0.1448575 0.038005747
0.19545206 -0.1565107 -0.22822553 0.03779748 -0.0677117 0.325335 -0.11182835 -0.09415168
-0.056162573 -0.18272848 0.13631554 0.124610454 0.14625172 -0.08041082 -0.012978989 -0.1603327
-0.025618855 -0.25581694 0.05940657 -0.011224737 -0.019908456 -0.26702312 -0.29063645 0.040334765
0.1258924 0.014246944 0.28376955 0.1984418 0.09046285 0.113087155 -0.18869802 -0.29772133
0.0018164665 -0.052839167 0.11784478 0.059265748 0.18306206 -0.105997615 0.05910024 -0.0923157
-0.091232784 0.09011072 -0.23331751 -0.03917907 0.13073973 -0.15743957 0.0027413897 0.15617906
0.103998825 -0.24003822 0.1780955 -0.12545833 0.15924937 0.30038118 0.0013810524 0.21718869
0.20402019 -0.2836773 0.03866156 -0.2748679 0.039353944 -0.041374408 -0.10195836 0.042160004
0.048261497 0.20348373 -0.016739478 0.34825784 -0.20495531 0.021962397 0.04686447 0.27069768
0.10163304 -0.028677808 0.0730036 0.029186362 -0.08716094 0.11827349 -0.096888505 0.15556888
-0.26872545 0.010493423 -0.09161293 -0.0072854846 0.16641107 -0.027782468 -0.3164353 0.14697301
0.1348616 -0.21784565 0.19031937 0.16861369 0.073352955 -0.010878406 0.25351351 0.049388073
0.07172039 0.013704893 0.052584335 -0.48143932 -0.03793857 -0.032759607 -0.044166487 0.23135984
0.036362767 -0.1375944 -0.08216826 -0.18246463 0.29782036 0.13619477 -0.025868608 0.21227476
-0.11601117 -0.08326291 0.17090692 -0.24040641 0.044129264 -0.06793807 0.009268638 -0.02610711
-0.30375528 -0.09518238 0.012046299 -0.10648346 0.14321336 0.33488387 0.0026595518 -0.23585965
0.10891767 -0.283271 0.1221083 -0.0155484285 -0.08343984 0.21499397 0.14700247 0.15829909
0.051843993 -0.051232006 -0.14674915 0.14089558 0.08287195 -0.0382858 -0.25182799 -0.19172144
-0.02144456 0.022512857 -0.06425936 0.048512876 -0.2684108 -0.16431315 -0.17766301 0.14611697
0.23332866 0.0009594004 0.18475796 -0.0398543 0.20413709 0.29799438 -0.060112827 0.045215923
-0.2683726 0.072214164 -0.09692818 0.35534382 0.14925313 -0.08136584 -0.057214055 -0.30446136

bias f4 [50]
00000000: 3efe 77bb eaea cc3a c9ad ffbc 3e48 6a3d
00000010: 559a 0e3d 4d26 d4bc 25a6 8abb 68e7 e93b
00000020: fab7 3f3c 241e 5dbd 8f7d f7bc 146b ad3c
00000030: eeb4 0cbc 914f a03c 2e4d 433a 0b28 273d
00000040: 518f 4cbb 51d2 34bc 64ed c5bb 6643 023c
00000050: 5fe8 303c c751 843c 399b c8bb ac9c 9e3a
00000060: 6f06 8a3b 0c2c 9ebc f90d 47bb 04e3 06bc
00000070: 378f eebb 6eb3 c3bb cc42 9b3c b22e 5fbb
00000080: 434d e1b8 2482 413b 552c 93bb 6678 293c
00000090: a123 91ba 0a85 83bc 25e6 b63b 2278 66bc
000000a0: 6781 833b f07e babc 5c7f 55b9 d481 0cba
000000b0: a4ef 3cbb 23fe 1fbb a5b5 04bb 2e7d 7f3b
000000c0: 0366 72bc cba4 8cbc
-0.003784075 0.0015633975 -0.031210797 0.0571978 0.03481515 -0.02589717 -0.0042312318 0.0071381815
0.011701578 -0.053983822 -0.030211238 0.021169223 -0.008588059 0.01956919 0.00074501603 0.040809672
-0.0031213353 -0.011036471 -0.006040262 0.007950639 0.010797589 0.016152276 -0.0061220196 0.0012101135
0.0042121927 -0.019308113 -0.0030373319 -0.008232836 -0.007280256 -0.0059723174 0.01895275 -0.0034054932
-0.00010743227 0.0029527033 -0.004491369 0.010343647 -0.001107324 -0.016054649 0.0055816346 -0.014066728
0.0040132287 -0.022765607 -0.00020360708 -0.0005359922 -0.002882936 -0.0024412952 -0.002024987 0.0038984525
-0.014794829 -0.017168423
