pbc_examples/saved_models/convection_beta-1.0_layers-50,50,1_L-2.0_WD-0_init-normal_batch_size256.pt (torch, 48977 bytes, 24 tensors)

x_u f4 [256, 1]
0.0 0.024543693 0.049087387 0.07363108 0.09817477 0.12271846 0.14726216 0.17180584
0.19634955 0.22089323 0.24543692 0.2699806 0.2945243 0.319068 0.3436117 0.3681554
0.3926991 0.41724277 0.44178647 0.46633017 0.49087384 0.5154175 0.5399612 0.5645049
0.5890486 0.6135923 0.638136 0.6626797 0.6872234 0.7117671 0.7363108 0.7608545
0.7853982 0.8099418 0.83448553 0.85902923 0.88357294 0.90811664 0.93266034 0.957204
0.9817477 1.0062914 1.030835 1.0553788 1.0799224 1.1044662 1.1290098 1.1535536
1.1780972 1.2026409 1.2271847 1.2517283 1.276272 1.3008157 1.3253593 1.3499031
1.3744467 1.3989905 1.4235342 1.4480779 1.4726216 1.4971652 1.521709 1.5462526
1.5707964 1.59534 1.6198837 1.6444274 1.6689711 1.6935148 1.7180585 1.7426022
1.7671459 1.7916895 1.8162333 1.8407769 1.8653207 1.8898643 1.914408 1.9389517
1.9634954 1.9880391 2.0125828 2.0371265 2.06167 2.0862138 2.1107576 2.1353014
2.1598449 2.1843886 2.2089324 2.233476 2.2580197 2.2825634 2.3071072 2.3316507
2.3561945 2.3807383 2.4052818 2.4298255 2.4543693 2.478913 2.5034566 2.5280004
2.552544 2.5770876 2.6016314 2.6261752 2.6507187 2.6752625 2.6998062 2.72435
2.7488935 2.7734373 2.797981 2.8225245 2.8470683 2.871612 2.8961558 2.9206994
2.9452431 2.969787 2.9943304 3.0188742 3.043418 3.0679617 3.0925052 3.117049
3.1415927 3.1661363 3.19068 3.2152238 3.2397673 3.264311 3.2888548 3.3133986
3.3379421 3.362486 3.3870296 3.4115732 3.436117 3.4606607 3.4852045 3.509748
3.5342917 3.5588355 3.583379 3.6079228 3.6324666 3.6570103 3.6815538 3.7060976
3.7306414 3.755185 3.7797287 3.8042724 3.828816 3.8533597 3.8779035 3.9024472
3.9269907 3.9515345 3.9760783 4.000622 4.0251656 4.0497093 4.074253 4.098797
4.12334 4.147884 4.1724277 4.1969714 4.221515 4.246059 4.2706027 4.295146
4.3196898 4.3442335 4.3687773 4.393321 4.417865 4.4424086 4.466952 4.4914956
4.5160394 4.540583 4.565127 4.5896707 4.6142144 4.6387577 4.6633015 4.687845
4.712389 4.7369328 4.7614765 4.7860203 4.8105636 4.8351073 4.859651 4.884195
4.9087386 4.9332824 4.957826 4.9823694 5.006913 5.031457 5.0560007 5.0805445
5.105088 5.1296315 5.1541753 5.178719 5.203263 5.2278066 5.2523503 5.276894
5.3014374 5.325981 5.350525 5.3750687 5.3996124 5.424156 5.4487 5.473243
5.497787 5.5223308 5.5468745 5.5714183 5.595962 5.620506 5.645049 5.669593
5.6941366 5.7186804 5.743224 5.767768 5.7923117 5.816855 5.8413987 5.8659425
5.8904862 5.91503 5.939574 5.9641175 5.988661 6.0132046 6.0377483 6.062292
6.086836 6.1113796 6.1359234 6.1604667 6.1850104 6.209554 6.234098 6.2586417
00000000: 0000 0000 db0f c93c db0f 493d e4cb 963d
00000010: db0f c93d d153 fb3d e4cb 163e dfed 2f3e
00000020: db0f 493e d631 623e d153 7b3e e63a 8a3e
00000030: e4cb 963e e25c a33e dfed af3e dd7e bc3e
00000040: db0f c93e d8a0 d53e d631 e23e d4c2 ee3e
00000050: d153 fb3e 67f2 033f e63a 0a3f 6583 103f
00000060: e4cb 163f 6314 1d3f e25c 233f 60a5 293f
00000070: dfed 2f3f 5e36 363f dd7e 3c3f 5cc7 423f
00000080: db0f 493f 5958 4f3f d8a0 553f 57e9 5b3f
00000090: d631 623f 557a 683f d4c2 6e3f 520b 753f
000000a0: d153 7b3f 28ce 803f 67f2 833f a716 873f
000000b0: e63a 8a3f 265f 8d3f 6583 903f a5a7 933f
000000c0: e4cb 963f 23f0 993f 6314 9d3f a238 a03f
000000d0: e25c a33f 2181 a63f 60a5 a93f a0c9 ac3f
000000e0: dfed af3f 1f12 b33f 5e36 b63f 9e5a b93f
000000f0: dd7e bc3f 1ca3 bf3f 5cc7 c23f 9beb c53f
00000100: db0f c93f 1a34 cc3f 5958 cf3f 997c d23f
00000110: d8a0 d53f 18c5 d83f 57e9 db3f 970d df3f
00000120: d631 e23f 1556 e53f 557a e83f 949e eb3f
00000130: d4c2 ee3f 13e7 f13f 520b f53f 922f f83f
00000140: d153 fb3f 1178 fe3f 28ce 0040 4860 0240
00000150: 67f2 0340 8784 0540 a716 0740 c7a8 0840
00000160: e63a 0a40 06cd 0b40 265f 0d40 45f1 0e40
00000170: 6583 1040 8515 1240 a5a7 1340 c439 1540
00000180: e4cb 1640 045e 1840 23f0 1940 4382 1b40
00000190: 6314 1d40 83a6 1e40 a238 2040 c2ca 2140
000001a0: e25c 2340 01ef 2440 2181 2640 4113 2840
000001b0: 60a5 2940 8037 2b40 a0c9 2c40 c05b 2e40
000001c0: dfed 2f40 ff7f 3140 1f12 3340 3ea4 3440
000001d0: 5e36 3640 7ec8 3740 9e5a 3940 bdec 3a40
000001e0: dd7e 3c40 fd10 3e40 1ca3 3f40 3c35 4140
000001f0: 5cc7 4240 7c59 4440 9beb 4540 bb7d 4740
00000200: db0f 4940 faa1 4a40 1a34 4c40 3ac6 4d40
00000210: 5958 4f40 79ea 5040 997c 5240 b90e 5440
00000220: d8a0 5540 f832 5740 18c5 5840 3757 5a40
00000230: 57e9 5b40 777b 5d40 970d 5f40 b69f 6040
00000240: d631 6240 f6c3 6340 1556 6540 35e8 6640
00000250: 557a 6840 750c 6a40 949e 6b40 b430 6d40
00000260: d4c2 6e40 f354 7040 13e7 7140 3379 7340
00000270: 520b 7540 729d 7640 922f 7840 b2c1 7940
00000280: d153 7b40 f1e5 7c40 1178 7e40 1805 8040
00000290: 28ce 8040 3897 8140 4860 8240 5829 8340
000002a0: 67f2 8340 77bb 8440 8784 8540 974d 8640
000002b0: a716 8740 b7df 8740 c7a8 8840 d671 8940
000002c0: e63a 8a40 f603 8b40 06cd 8b40 1696 8c40
000002d0: 265f 8d40 3628 8e40 45f1 8e40 55ba 8f40
000002e0: 6583 9040 754c 9140 8515 9240 95de 9240
000002f0: a5a7 9340 b470 9440 c439 9540 d402 9640
00000300: e4cb 9640 f494 9740 045e 9840 1427 9940
00000310: 23f0 9940 33b9 9a40 4382 9b40 534b 9c40
00000320: 6314 9d40 73dd 9d40 83a6 9e40 926f 9f40
00000330: a238 a040 b201 a140 c2ca a140 d293 a240
00000340: e25c a340 f125 a440 01ef a440 11b8 a540
00000350: 2181 a640 314a a740 4113 a840 51dc a840
00000360: 60a5 a940 706e aa40 8037 ab40 9000 ac40
00000370: a0c9 ac40 b092 ad40 c05b ae40 cf24 af40
00000380: dfed af40 efb6 b040 ff7f b140 0f49 b240
00000390: 1f12 b340 2fdb b340 3ea4 b440 4e6d b540
000003a0: 5e36 b640 6eff b640 7ec8 b740 8e91 b840
000003b0: 9e5a b940 ad23 ba40 bdec ba40 cdb5 bb40
000003c0: dd7e bc40 ed47 bd40 fd10 be40 0dda be40
000003d0: 1ca3 bf40 2c6c c040 3c35 c140 4cfe c140
000003e0: 5cc7 c240 6c90 c340 7c59 c440 8b22 c540
000003f0: 9beb c540 abb4 c640 bb7d c740 cb46 c840

t_u f4 [256, 1]
0.0 0.0 0.0 0.0 0.0 0.0 0.0 0.0
0.0 0.0 0.0 0.0 0.0 0.0 0.0 0.0
0.0 0.0 0.0 0.0 0.0 0.0 0.0 0.0
0.0 0.0 0.0 0.0 0.0 0.0 0.0 0.0
0.0 0.0 0.0 0.0 0.0 0.0 0.0 0.0
0.0 0.0 0.0 0.0 0.0 0.0 0.0 0.0
0.0 0.0 0.0 0.0 0.0 0.0 0.0 0.0
0.0 0.0 0.0 0.0 0.0 0.0 0.0 0.0
0.0 0.0 0.0 0.0 0.0 0.0 0.0 0.0
0.0 0.0 0.0 0.0 0.0 0.0 0.0 0.0
0.0 0.0 0.0 0.0 0.0 0.0 0.0 0.0
0.0 0.0 0.0 0.0 0.0 0.0 0.0 0.0
0.0 0.0 0.0 0.0 0.0 0.0 0.0 0.0
0.0 0.0 0.0 0.0 0.0 0.0 0.0 0.0
0.0 0.0 0.0 0.0 0.0 0.0 0.0 0.0
0.0 0.0 0.0 0.0 0.0 0.0 0.0 0.0
0.0 0.0 0.0 0.0 0.0 0.0 0.0 0.0
0.0 0.0 0.0 0.0 0.0 0.0 0.0 0.0
0.0 0.0 0.0 0.0 0.0 0.0 0.0 0.0
0.0 0.0 0.0 0.0 0.0 0.0 0.0 0.0
0.0 0.0 0.0 0.0 0.0 0.0 0.0 0.0
0.0 0.0 0.0 0.0 0.0 0.0 0.0 0.0
0.0 0.0 0.0 0.0 0.0 0.0 0.0 0.0
0.0 0.0 0.0 0.0 0.0 0.0 0.0 0.0
0.0 0.0 0.0 0.0 0.0 0.0 0.0 0.0
0.0 0.0 0.0 0.0 0.0 0.0 0.0 0.0
0.0 0.0 0.0 0.0 0.0 0.0 0.0 0.0
0.0 0.0 0.0 0.0 0.0 0.0 0.0 0.0
0.0 0.0 0.0 0.0 0.0 0.0 0.0 0.0
0.0 0.0 0.0 0.0 0.0 0.0 0.0 0.0
0.0 0.0 0.0 0.0 0.0 0.0 0.0 0.0
0.0 0.0 0.0 0.0 0.0 0.0 0.0 0.0
00000000: 0000 0000 0000 0000 0000 0000 0000 0000
00000010: 0000 0000 0000 0000 0000 0000 0000 0000
00000020: 0000 0000 0000 0000 0000 0000 0000 0000
00000030: 0000 0000 0000 0000 0000 0000 0000 0000
00000040: 0000 0000 0000 0000 0000 0000 0000 0000
00000050: 0000 0000 0000 0000 0000 0000 0000 0000
00000060: 0000 0000 0000 0000 0000 0000 0000 0000
00000070: 0000 0000 0000 0000 0000 0000 0000 0000
00000080: 0000 0000 0000 0000 0000 0000 0000 0000
00000090: 0000 0000 0000 0000 0000 0000 0000 0000
000000a0: 0000 0000 0000 0000 0000 0000 0000 0000
000000b0: 0000 0000 0000 0000 0000 0000 0000 0000
000000c0: 0000 0000 0000 0000 0000 0000 0000 0000
000000d0: 0000 0000 0000 0000 0000 0000 0000 0000
000000e0: 0000 0000 0000 0000 0000 0000 0000 0000
000000f0: 0000 0000 0000 0000 0000 0000 0000 0000
00000100: 0000 0000 0000 0000 0000 0000 0000 0000
00000110: 0000 0000 0000 0000 0000 0000 0000 0000
00000120: 0000 0000 0000 0000 0000 0000 0000 0000
00000130: 0000 0000 0000 0000 0000 0000 0000 0000
00000140: 0000 0000 0000 0000 0000 0000 0000 0000
00000150: 0000 0000 0000 0000 0000 0000 0000 0000
00000160: 0000 0000 0000 0000 0000 0000 0000 0000
00000170: 0000 0000 0000 0000 0000 0000 0000 0000
00000180: 0000 0000 0000 0000 0000 0000 0000 0000
00000190: 0000 0000 0000 0000 0000 0000 0000 0000
000001a0: 0000 0000 0000 0000 0000 0000 0000 0000
000001b0: 0000 0000 0000 0000 0000 0000 0000 0000
000001c0: 0000 0000 0000 0000 0000 0000 0000 0000
000001d0: 0000 0000 0000 0000 0000 0000 0000 0000
000001e0: 0000 0000 0000 0000 0000 0000 0000 0000
000001f0: 0000 0000 0000 0000 0000 0000 0000 0000
00000200: 0000 0000 0000 0000 0000 0000 0000 0000
00000210: 0000 0000 0000 0000 0000 0000 0000 0000
00000220: 0000 0000 0000 0000 0000 0000 0000 0000
00000230: 0000 0000 0000 0000 0000 0000 0000 0000
00000240: 0000 0000 0000 0000 0000 0000 0000 0000
00000250: 0000 0000 0000 0000 0000 0000 0000 0000
00000260: 0000 0000 0000 0000 0000 0000 0000 0000
00000270: 0000 0000 0000 0000 0000 0000 0000 0000
00000280: 0000 0000 0000 0000 0000 0000 0000 0000
00000290: 0000 0000 0000 0000 0000 0000 0000 0000
000002a0: 0000 0000 0000 0000 0000 0000 0000 0000
000002b0: 0000 0000 0000 0000 0000 0000 0000 0000
000002c0: 0000 0000 0000 0000 0000 0000 0000 0000
000002d0: 0000 0000 0000 0000 0000 0000 0000 0000
000002e0: 0000 0000 0000 0000 0000 0000 0000 0000
000002f0: 0000 0000 0000 0000 0000 0000 0000 0000
00000300: 0000 0000 0000 0000 0000 0000 0000 0000
00000310: 0000 0000 0000 0000 0000 0000 0000 0000
00000320: 0000 0000 0000 0000 0000 0000 0000 0000
00000330: 0000 0000 0000 0000 0000 0000 0000 0000
00000340: 0000 0000 0000 0000 0000 0000 0000 0000
00000350: 0000 0000 0000 0000 0000 0000 0000 0000
00000360: 0000 0000 0000 0000 0000 0000 0000 0000
00000370: 0000 0000 0000 0000 0000 0000 0000 0000
00000380: 0000 0000 0000 0000 0000 0000 0000 0000
00000390: 0000 0000 0000 0000 0000 0000 0000 0000
000003a0: 0000 0000 0000 0000 0000 0000 0000 0000
000003b0: 0000 0000 0000 0000 0000 0000 0000 0000
000003c0: 0000 0000 0000 0000 0000 0000 0000 0000
000003d0: 0000 0000 0000 0000 0000 0000 0000 0000
000003e0: 0000 0000 0000 0000 0000 0000 0000 0000
000003f0: 0000 0000 0000 0000 0000 0000 0000 0000

x_f f4 [100, 1]
4.6142144 1.7426022 3.3379421 4.884195 3.0679617 5.5223308 5.816855 6.1850104
4.565127 1.2026409 4.7860203 0.5645049 1.8407769 0.12271846 4.9823694 6.086836
5.7186804 2.6998062 2.5280004 6.1113796 2.72435 5.473243 1.0553788 6.062292
0.44178647 0.7117671 4.1969714 6.2586417 6.1359234 4.540583 6.1850104 4.2706027
5.473243 2.6016314 4.417865 4.9087386 6.0132046 0.3681554 0.49087384 5.203263
3.4606607 0.44178647 1.6198837 4.147884 1.8162333 4.957826 3.4852045 3.3870296
0.957204 2.3071072 0.6626797 5.2278066 0.024543693 6.062292 2.3316507 1.9634954
2.3316507 0.6872234 1.59534 3.4115732 5.595962 5.7923117 1.1044662 3.6815538
0.88357294 1.7180585 2.4298255 3.6079228 1.7916895 1.6198837 4.295146 1.9880391
2.2580197 2.72435 0.7853982 2.06167 4.957826 5.1296315 2.4298255 4.540583
3.6570103 0.83448553 3.7060976 1.7916895 6.086836 4.9823694 4.884195 1.0062914
5.497787 5.8413987 4.1969714 4.712389 0.88357294 0.93266034 1.2271847 5.743224
5.5714183 6.0377483 3.436117 1.3499031
00000000: a5a7 9340 970d df3f d8a0 5540 534b 9c40
00000010: 7c59 4440 efb6 b040 ad23 ba40 9beb c540
00000020: 8515 9240 23f0 993f 1427 9940 6583 103f
00000030: 949e eb3f d153 fb3d 926f 9f40 5cc7 c240
00000040: 6eff b640 a0c9 2c40 c2ca 2140 6c90 c340
00000050: c05b 2e40 cf24 af40 a716 873f 4cfe c140
00000060: d631 e23e 5e36 363f 974d 8640 cb46 c840
00000070: 7c59 c440 754c 9140 9beb c540 c7a8 8840
00000080: cf24 af40 2181 2640 265f 8d40 6314 9d40
00000090: 2c6c c040 dd7e bc3e d153 fb3e 2181 a640
000000a0: 777b 5d40 d631 e23e 5958 cf3f 77bb 8440
000000b0: 557a e83f 83a6 9e40 970d 5f40 18c5 5840
000000c0: 520b 753f a5a7 1340 60a5 293f 314a a740
000000d0: db0f c93c 4cfe c140 c439 1540 d153 fb3f
000000e0: c439 1540 dfed 2f3f 1a34 cc3f 3757 5a40
000000f0: 1f12 b340 9e5a b940 265f 8d3f 949e 6b40
00000100: d631 623f 57e9 db3f 4382 1b40 35e8 6640
00000110: 1556 e53f 5958 cf3f d671 8940 1178 fe3f
00000120: 6583 1040 c05b 2e40 db0f 493f 67f2 0340
00000130: 83a6 9e40 f125 a440 4382 1b40 754c 9140
00000140: 750c 6a40 d8a0 553f b430 6d40 1556 e53f
00000150: 5cc7 c240 926f 9f40 534b 9c40 28ce 803f
00000160: dfed af40 bdec ba40 974d 8640 e4cb 9640
00000170: d631 623f d4c2 6e3f 6314 9d3f 7ec8 b740
00000180: 0f49 b240 3c35 c140 57e9 5b40 a0c9 ac3f

t_f f4 [100, 1]
0.3838384 0.8181818 0.53535354 0.7979798 0.14141414 0.7070707 0.68686867 0.7777778
0.54545456 0.01010101 0.5555556 0.7878788 0.43434343 0.43434343 0.97979796 1.0
0.67676765 0.5252525 0.3030303 0.82828283 0.97979796 0.6363636 0.34343433 0.32323232
0.47474748 0.9191919 0.5555556 0.7777778 0.36363637 0.22222222 0.28282827 0.8888889
0.90909094 0.15151516 0.6262626 0.04040404 0.15151516 0.8787879 0.5858586 0.25252524
0.7979798 0.3838384 0.42424244 0.01010101 0.24242425 0.8989899 0.36363637 0.93939394
0.75757575 0.3131313 0.04040404 0.34343433 0.45454547 0.959596 0.959596 0.45454547
0.45454547 0.8080808 0.5252525 0.56565654 0.8787879 0.7373737 0.04040404 0.47474748
0.57575756 0.56565654 0.67676765 0.989899 0.68686867 0.21212122 0.05050505 0.28282827
0.25252524 0.8080808 0.01010101 0.41414142 0.969697 0.97979796 0.2929293 0.5151515
0.83838385 0.94949496 0.47474748 0.5959596 0.3939394 0.68686867 0.8484849 0.02020202
0.9191919 0.4848485 0.13131313 0.6060606 0.25252524 0.969697 0.34343433 0.83838385
0.4848485 0.7979798 0.7171717 0.3030303
00000000: 7786 c43e 5d74 513f ee0c 093f 6748 4c3f
00000010: dece 103e 9602 353f a0d6 2f3f 721c 473f
00000020: e9a2 0b3f b57e 253c e438 0e3f 6db2 493f
00000030: 4362 de3e 4362 de3e 0ad4 7a3f 0000 803f
00000040: a540 2d3f f376 063f ca26 9b3e 580a 543f
00000050: 0ad4 7a3f bae8 223f a0d6 af3e b57e a53e
00000060: 1a12 f33e 2950 6b3f e438 0e3f 721c 473f
00000070: 8c2e ba3e 398e 633e dece 903e 398e 633f
00000080: 2fba 683f ca26 1b3e bf52 203f b57e 253d
00000090: ca26 1b3e 3ef8 603f d4fa 153f fd4a 813e
000000a0: 6748 4c3f 7786 c43e 4e36 d93e b57e 253c
000000b0: 103e 783e 3424 663f 8c2e ba3e 1f7c 703f
000000c0: 7cf0 413f bf52 a03e b57e 253d a0d6 af3e
000000d0: 2fba e83e 15a8 753f 15a8 753f 2fba e83e
000000e0: 2fba e83e 62de 4e3f f376 063f dece 103f
000000f0: 3ef8 603f 86c4 3c3f b57e 253d 1a12 f33e
00000100: d964 133f dece 103f a540 2d3f 056a 7d3f
00000110: a0d6 2f3f 4e36 593e 62de 4e3d dece 903e
00000120: fd4a 813e 62de 4e3f b57e 253c 580a d43e
00000130: 103e 783f 0ad4 7a3f d4fa 953e f8e0 033f
00000140: 53a0 563f 1a12 733f 1a12 f33e cf90 183f
00000150: 6db2 c93e a0d6 2f3f 4e36 593f b57e a53c
00000160: 2950 6b3f 103e f83e f376 063e ca26 1b3f
00000170: fd4a 813e 103e 783f a0d6 af3e 53a0 563f
00000180: 103e f83e 6748 4c3f 9198 373f ca26 9b3e

x_bc_lb f4 [100, 1]
0.0 0.0 0.0 0.0 0.0 0.0 0.0 0.0
0.0 0.0 0.0 0.0 0.0 0.0 0.0 0.0
0.0 0.0 0.0 0.0 0.0 0.0 0.0 0.0
0.0 0.0 0.0 0.0 0.0 0.0 0.0 0.0
0.0 0.0 0.0 0.0 0.0 0.0 0.0 0.0
0.0 0.0 0.0 0.0 0.0 0.0 0.0 0.0
0.0 0.0 0.0 0.0 0.0 0.0 0.0 0.0
0.0 0.0 0.0 0.0 0.0 0.0 0.0 0.0
0.0 0.0 0.0 0.0 0.0 0.0 0.0 0.0
0.0 0.0 0.0 0.0 0.0 0.0 0.0 0.0
0.0 0.0 0.0 0.0 0.0 0.0 0.0 0.0
0.0 0.0 0.0 0.0 0.0 0.0 0.0 0.0
0.0 0.0 0.0 0.0
00000000: 0000 0000 0000 0000 0000 0000 0000 0000
00000010: 0000 0000 0000 0000 0000 0000 0000 0000
00000020: 0000 0000 0000 0000 0000 0000 0000 0000
00000030: 0000 0000 0000 0000 0000 0000 0000 0000
00000040: 0000 0000 0000 0000 0000 0000 0000 0000
00000050: 0000 0000 0000 0000 0000 0000 0000 0000
00000060: 0000 0000 0000 0000 0000 0000 0000 0000
00000070: 0000 0000 0000 0000 0000 0000 0000 0000
00000080: 0000 0000 0000 0000 0000 0000 0000 0000
00000090: 0000 0000 0000 0000 0000 0000 0000 0000
000000a0: 0000 0000 0000 0000 0000 0000 0000 0000
000000b0: 0000 0000 0000 0000 0000 0000 0000 0000
000000c0: 0000 0000 0000 0000 0000 0000 0000 0000
000000d0: 0000 0000 0000 0000 0000 0000 0000 0000
000000e0: 0000 0000 0000 0000 0000 0000 0000 0000
000000f0: 0000 0000 0000 0000 0000 0000 0000 0000
00000100: 0000 0000 0000 0000 0000 0000 0000 0000
00000110: 0000 0000 0000 0000 0000 0000 0000 0000
00000120: 0000 0000 0000 0000 0000 0000 0000 0000
00000130: 0000 0000 0000 0000 0000 0000 0000 0000
00000140: 0000 0000 0000 0000 0000 0000 0000 0000
00000150: 0000 0000 0000 0000 0000 0000 0000 0000
00000160: 0000 0000 0000 0000 0000 0000 0000 0000
00000170: 0000 0000 0000 0000 0000 0000 0000 0000
00000180: 0000 0000 0000 0000 0000 0000 0000 0000

t_bc_lb f4 [100, 1]
0.0 0.01010101 0.02020202 0.030303031 0.04040404 0.05050505 0.060606062 0.07070707
0.08080808 0.09090909 0.1010101 0.11111111 0.121212125 0.13131313 0.14141414 0.15151516
0.16161616 0.17171717 0.18181819 0.1919192 0.2020202 0.21212122 0.22222222 0.23232323
0.24242425 0.25252524 0.26262626 0.27272728 0.28282827 0.2929293 0.3030303 0.3131313
0.32323232 0.33333334 0.34343433 0.35353535 0.36363637 0.37373737 0.3838384 0.3939394
0.4040404 0.41414142 0.42424244 0.43434343 0.44444445 0.45454547 0.46464646 0.47474748
0.4848485 0.4949495 0.5050505 0.5151515 0.5252525 0.53535354 0.54545456 0.5555556
0.56565654 0.57575756 0.5858586 0.5959596 0.6060606 0.61616164 0.6262626 0.6363636
0.64646465 0.65656567 0.6666667 0.67676765 0.68686867 0.6969697 0.7070707 0.7171717
0.72727275 0.7373737 0.74747473 0.75757575 0.7676768 0.7777778 0.7878788 0.7979798
0.8080808 0.8181818 0.82828283 0.83838385 0.8484849 0.85858583 0.86868685 0.8787879
0.8888889 0.8989899 0.90909094 0.9191919 0.9292929 0.93939394 0.94949496 0.959596
0.969697 0.97979796 0.989899 1.0
00000000: 0000 0000 b57e 253c b57e a53c 103e f83c
00000010: b57e 253d 62de 4e3d 103e 783d dece 903d
00000020: b57e a53d 8c2e ba3d 62de ce3d 398e e33d
00000030: 103e f83d f376 063e dece 103e ca26 1b3e
00000040: b57e 253e a0d6 2f3e 8c2e 3a3e 7786 443e
00000050: 62de 4e3e 4e36 593e 398e 633e 24e6 6d3e
00000060: 103e 783e fd4a 813e f376 863e e9a2 8b3e
00000070: dece 903e d4fa 953e ca26 9b3e bf52 a03e
00000080: b57e a53e abaa aa3e a0d6 af3e 9602 b53e
00000090: 8c2e ba3e 815a bf3e 7786 c43e 6db2 c93e
000000a0: 62de ce3e 580a d43e 4e36 d93e 4362 de3e
000000b0: 398e e33e 2fba e83e 24e6 ed3e 1a12 f33e
000000c0: 103e f83e 056a fd3e fd4a 013f f8e0 033f
000000d0: f376 063f ee0c 093f e9a2 0b3f e438 0e3f
000000e0: dece 103f d964 133f d4fa 153f cf90 183f
000000f0: ca26 1b3f c5bc 1d3f bf52 203f bae8 223f
00000100: b57e 253f b014 283f abaa 2a3f a540 2d3f
00000110: a0d6 2f3f 9b6c 323f 9602 353f 9198 373f
00000120: 8c2e 3a3f 86c4 3c3f 815a 3f3f 7cf0 413f
00000130: 7786 443f 721c 473f 6db2 493f 6748 4c3f
00000140: 62de 4e3f 5d74 513f 580a 543f 53a0 563f
00000150: 4e36 593f 48cc 5b3f 4362 5e3f 3ef8 603f
00000160: 398e 633f 3424 663f 2fba 683f 2950 6b3f
00000170: 24e6 6d3f 1f7c 703f 1a12 733f 15a8 753f
00000180: 103e 783f 0ad4 7a3f 056a 7d3f 0000 803f

x_bc_ub f4 [100, 1]
6.2831855 6.2831855 6.2831855 6.2831855 6.2831855 6.2831855 6.2831855 6.2831855
6.2831855 6.2831855 6.2831855 6.2831855 6.2831855 6.2831855 6.2831855 6.2831855
6.2831855 6.2831855 6.2831855 6.2831855 6.2831855 6.2831855 6.2831855 6.2831855
6.2831855 6.2831855 6.2831855 6.2831855 6.2831855 6.2831855 6.2831855 6.2831855
6.2831855 6.2831855 6.2831855 6.2831855 6.2831855 6.2831855 6.2831855 6.2831855
6.2831855 6.2831855 6.2831855 6.2831855 6.2831855 6.2831855 6.2831855 6.2831855
6.2831855 6.2831855 6.2831855 6.2831855 6.2831855 6.2831855 6.2831855 6.2831855
6.2831855 6.2831855 6.2831855 6.2831855 6.2831855 6.2831855 6.2831855 6.2831855
6.2831855 6.2831855 6.2831855 6.2831855 6.2831855 6.2831855 6.2831855 6.2831855
6.2831855 6.2831855 6.2831855 6.2831855 6.2831855 6.2831855 6.2831855 6.2831855
6.2831855 6.2831855 6.2831855 6.2831855 6.2831855 6.2831855 6.2831855 6.2831855
6.2831855 6.2831855 6.2831855 6.2831855 6.2831855 6.2831855 6.2831855 6.2831855
6.2831855 6.2831855 6.2831855 6.2831855
00000000: db0f c940 db0f c940 db0f c940 db0f c940
00000010: db0f c940 db0f c940 db0f c940 db0f c940
00000020: db0f c940 db0f c940 db0f c940 db0f c940
00000030: db0f c940 db0f c940 db0f c940 db0f c940
00000040: db0f c940 db0f c940 db0f c940 db0f c940
00000050: db0f c940 db0f c940 db0f c940 db0f c940
00000060: db0f c940 db0f c940 db0f c940 db0f c940
00000070: db0f c940 db0f c940 db0f c940 db0f c940
00000080: db0f c940 db0f c940 db0f c940 db0f c940
00000090: db0f c940 db0f c940 db0f c940 db0f c940
000000a0: db0f c940 db0f c940 db0f c940 db0f c940
000000b0: db0f c940 db0f c940 db0f c940 db0f c940
000000c0: db0f c940 db0f c940 db0f c940 db0f c940
000000d0: db0f c940 db0f c940 db0f c940 db0f c940
000000e0: db0f c940 db0f c940 db0f c940 db0f c940
000000f0: db0f c940 db0f c940 db0f c940 db0f c940
00000100: db0f c940 db0f c940 db0f c940 db0f c940
00000110: db0f c940 db0f c940 db0f c940 db0f c940
00000120: db0f c940 db0f c940 db0f c940 db0f c940
00000130: db0f c940 db0f c940 db0f c940 db0f c940
00000140: db0f c940 db0f c940 db0f c940 db0f c940
00000150: db0f c940 db0f c940 db0f c940 db0f c940
00000160: db0f c940 db0f c940 db0f c940 db0f c940
00000170: db0f c940 db0f c940 db0f c940 db0f c940
00000180: db0f c940 db0f c940 db0f c940 db0f c940

t_bc_ub f4 [100, 1]
0.0 0.01010101 0.02020202 0.030303031 0.04040404 0.05050505 0.060606062 0.07070707
0.08080808 0.09090909 0.1010101 0.11111111 0.121212125 0.13131313 0.14141414 0.15151516
0.16161616 0.17171717 0.18181819 0.1919192 0.2020202 0.21212122 0.22222222 0.23232323
0.24242425 0.25252524 0.26262626 0.27272728 0.28282827 0.2929293 0.3030303 0.3131313
0.32323232 0.33333334 0.34343433 0.35353535 0.36363637 0.37373737 0.3838384 0.3939394
0.4040404 0.41414142 0.42424244 0.43434343 0.44444445 0.45454547 0.46464646 0.47474748
0.4848485 0.4949495 0.5050505 0.5151515 0.5252525 0.53535354 0.54545456 0.5555556
0.56565654 0.57575756 0.5858586 0.5959596 0.6060606 0.61616164 0.6262626 0.6363636
0.64646465 0.65656567 0.6666667 0.67676765 0.68686867 0.6969697 0.7070707 0.7171717
0.72727275 0.7373737 0.74747473 0.75757575 0.7676768 0.7777778 0.7878788 0.7979798
0.8080808 0.8181818 0.82828283 0.83838385 0.8484849 0.85858583 0.86868685 0.8787879
0.8888889 0.8989899 0.90909094 0.9191919 0.9292929 0.93939394 0.94949496 0.959596
0.969697 0.97979796 0.989899 1.0
00000000: 0000 0000 b57e 253c b57e a53c 103e f83c
00000010: b57e 253d 62de 4e3d 103e 783d dece 903d
00000020: b57e a53d 8c2e ba3d 62de ce3d 398e e33d
00000030: 103e f83d f376 063e dece 103e ca26 1b3e
00000040: b57e 253e a0d6 2f3e 8c2e 3a3e 7786 443e
00000050: 62de 4e3e 4e36 593e 398e 633e 24e6 6d3e
00000060: 103e 783e fd4a 813e f376 863e e9a2 8b3e
00000070: dece 903e d4fa 953e ca26 9b3e bf52 a03e
00000080: b57e a53e abaa aa3e a0d6 af3e 9602 b53e
00000090: 8c2e ba3e 815a bf3e 7786 c43e 6db2 c93e
000000a0: 62de ce3e 580a d43e 4e36 d93e 4362 de3e
000000b0: 398e e33e 2fba e83e 24e6 ed3e 1a12 f33e
000000c0: 103e f83e 056a fd3e fd4a 013f f8e0 033f
000000d0: f376 063f ee0c 093f e9a2 0b3f e438 0e3f
000000e0: dece 103f d964 133f d4fa 153f cf90 183f
000000f0: ca26 1b3f c5bc 1d3f bf52 203f bae8 223f
00000100: b57e 253f b014 283f abaa 2a3f a540 2d3f
00000110: a0d6 2f3f 9b6c 323f 9602 353f 9198 373f
00000120: 8c2e 3a3f 86c4 3c3f 815a 3f3f 7cf0 413f
00000130: 7786 443f 721c 473f 6db2 493f 6748 4c3f
00000140: 62de 4e3f 5d74 513f 580a 543f 53a0 563f
00000150: 4e36 593f 48cc 5b3f 4362 5e3f 3ef8 603f
00000160: 398e 633f 3424 663f 2fba 683f 2950 6b3f
00000170: 24e6 6d3f 1f7c 703f 1a12 733f 15a8 753f
00000180: 103e 783f 0ad4 7a3f 056a 7d3f 0000 803f

weight f4 [50, 2]
-0.28678685 -0.036475226 0.19821577 -0.07540162 0.52661145 -0.23364566 -0.22916937 -0.020633733
0.00061191997 -0.25992757 0.05437317 -0.086155 0.47250435 -0.15288427 0.19950992 -0.07180013
0.2891991 0.2426265 0.11591388 -0.22412597 -0.04137981 0.20259182 0.29294646 -0.17897321
-0.40921792 -0.23225197 -0.22914106 0.060178746 -0.33767527 0.1234983 -0.18347396 0.18121327
-0.23911688 0.12604979 0.15673801 0.045036543 0.40169537 0.00445093 0.024287187 0.25927073
-0.12881675 0.17741223 0.008317718 0.14503345 -0.1109977 0.17394039 -0.21437281 -0.32156926
-0.10885736 -0.09782622 -0.11280866 -0.19204384 -0.17252135 -0.13121681 0.24229455 -0.25831783
0.19077075 -0.11266217 -0.098858245 0.080944784 -0.1173826 0.16542494 -0.15847278 0.07828936
-0.11169714 0.10158623 -0.031036725 0.06660006 -0.20975427 -0.123477824 -0.014655412 -0.25311792
-0.18282332 -0.08421049 0.11999043 0.18430413 0.15345165 -0.021063358 0.40216777 0.08354322
-0.19091323 -0.09749346 0.50346816 0.290399 0.27454507 -0.1928579 0.002079345 -0.060767397
-0.22908033 -0.13653253 -0.028880136 0.17706211 -0.21444665 -0.0012747045 -0.31160027 0.2964616
-0.19100422 -0.29917362 0.12155974 -0.3295501
00000000: bad5 92be 0c67 15bd 13f9 4a3e 2a6c 9abd
00000010: 02d0 063f cf40 6fbe 60ab 6abe 1308 a9bc
00000020: 4169 203a 3a15 85be 67b6 5e3d 0872 b0bd
00000030: 17ec f13e b28d 1cbe 544c 4c3e f20b 93bd
00000040: e811 943e 1573 783e 4264 ed3d 4781 65be
00000050: e07d 29bd 3b74 4f3e 14fd 953e c144 37be
00000060: 0385 d1be 76d3 6dbe f4a3 6abe fd7d 763d
00000070: c6e3 acbe adec fc3d 99e0 3bbe f98f 393e
00000080: 0edb 74be 3213 013e ee7f 203e 3d78 383d
00000090: 04ab cd3e 1bd9 913b ecf5 c63c 22bf 843e
000000a0: 8ae8 03be 8dab 353e 0a47 083c a683 143e
000000b0: c352 e3bd 6e1d 323e 8c84 5bbe baa4 a4be
000000c0: 9cf0 debd 1d59 c8bd 3a08 e7bd 24a7 44be
000000d0: 70a9 30be b35d 06be 101c 783e 3c42 84be
000000e0: 6859 433e 6cbb e6bd 3176 cabd 61c6 a53d
000000f0: 4a66 f0bd 2865 293e b046 22be 2c56 a03d
00000100: 78c1 e4bd 710c d03d bb40 febc 9d65 883d
00000110: d3c9 56be f1e1 fcbd 411d 70bc ac98 81be
00000120: 0936 3bbe 8d76 acbd 8bbd f53d 39ba 3c3e
00000130: 6e22 1d3e 108d acbc efe8 cd3e b518 ab3d
00000140: c27e 43be a7aa c7bd 4ae3 003f 2daf 943e
00000150: 2c91 8c3e 8b7c 45be 9f45 083b 3ce7 78bd
00000160: 0994 6abe 2fcf 0bbe 0996 ecbc c54f 353e
00000170: e797 5bbe fc13 a7ba 128a 9fbe d1c9 973e
00000180: 9c96 43be 492d 99be 50f4 f83d caba a8be

bias f4 [50]
0.0012232183 -0.03620797 -0.00042692604 0.03416109 0.021935599 -0.017502561 0.008134622 -0.017138992
0.03027714 0.002765569 0.0012929344 0.016851543 0.017236177 -0.012572851 0.04798386 0.008515713
0.020631278 -0.065159544 -0.042273864 -0.03925779 0.0036880798 0.02298339 -0.035668463 0.0073940177
-0.020707276 -0.016221887 0.012479954 -0.039493028 -0.015208764 -0.00036147653 0.014024709 0.03595001
-0.039226644 -0.0074643902 0.087442204 0.02125857 0.016180232 0.016785234 0.024866052 0.011258516
0.007924168 0.0017396422 -0.03924755 -0.00830048 -0.010707314 -0.009850605 0.07821698 -0.008121277
0.0031407261 0.0373437
00000000: 6554 a03a cf4e 14bd 0bd5 dfb9 80ec 0b3d
00000010: 49b2 b33c 8861 8fbc 1447 053c 1267 8cbc
00000020: c407 f83c 8c3e 353b ae77 a93a 3f0c 8a3c
00000030: e232 8d3c 5cfe 4dbc b98a 443d 7d85 0b3c
00000040: ed02 a93c 5e72 85bd 5c27 2dbd c7cc 20bd
00000050: b6b3 713b aa47 bc3c 1819 12bd 8449 f23b
00000060: 4ea2 a9bc c3e3 84bc b978 4c3c 71c3 21bd
00000070: 2e2e 79bc 8f84 bdb9 e5c7 653c 5140 133d
00000080: 1eac 20bd d897 f4bb e614 b33d 7426 ae3c
00000090: 688c 843c 3081 893c e4b3 cb3c a475 383c
000000a0: 5fd4 013c b504 e43a 0ac2 20bd bdfe 07bc
000000b0: bb6d 2fbc 6f64 21bc 3930 a03d 1b0f 05bc
000000c0: a4d4 4d3b b5f5 183d

weight f4 [50, 50]
0.019143805 -0.11334582 -0.0875177 -0.03473471 0.10441534 -0.012581989 -0.14989384 -0.025185786
0.027040716 0.011315099 0.0321171 -0.0850502 0.05271276 0.017303467 -0.119341366 -0.1480463
0.029248137 -0.16841325 0.10092403 -0.1298957 0.18844147 -0.3433417 0.010674783 0.13104878
-0.17963676 0.087842 -0.58870643 -0.006885131 -0.1751561 -0.030313913 0.03463876 -0.14395271
0.10946626 -0.33074296 -0.115994185 -0.19123918 0.19541979 0.07162937 0.14446166 -0.035750065
0.1562392 -0.027681114 0.17556812 -0.018798914 0.14631066 -0.20132688 0.023531973 -0.19274622
-0.060515374 -0.027332418 0.15396068 -0.0015148356 0.13884152 0.16301611 -0.10232877 -0.32282478
0.26083443 0.023431709 0.3172795 0.08186319 -0.022988481 -0.16283861 -0.03424769 -0.09411706
-0.057621922 0.14753062 -0.046875644 -0.10284339 -0.02825048 -0.22386216 -0.027707623 0.20151757
-0.025464904 0.23544098 -0.14884527 -0.04677898 -0.06476561 0.22384837 0.23740996 -0.14163984
0.10136751 -0.1254822 -0.05703414 -0.12006547 0.06774204 0.14798212 -0.0016321669 -0.28203946
-0.1725015 0.005204253 0.16206415 -0.078864455 0.14234255 -0.19483162 0.05666562 -0.21636951
-0.0040525165 0.2107333 -0.2647397 -0.13054354 -0.006246293 0.14218885 -0.18181892 -0.23167916
-0.039928507 0.0820403 -0.083970785 0.24781525 0.1684826 -0.21135944 0.10303304 -0.12879919
0.10663011 -0.047421813 0.23352452 0.041214556 -0.039073512 -0.032259423 0.08517679 -0.011906667
0.24450177 -0.2512682 -0.062144548 -0.1321023 0.026061948 -0.0065267156 0.19492649 -0.16729166
0.036414593 0.06862887 0.11155204 -0.108056754 -0.022214292 0.1441103 -0.10544162 0.004254815
-0.047529023 -0.27179536 0.034108974 0.033807315 -0.043290667 -0.01796933 0.101712964 -0.12861094
0.167537 -0.052749317 -0.07916288 -0.01787081 -0.08031778 -0.39972466 0.024216661 0.18672319
0.002968267 -0.0893885 -0.27026117 -0.052983023 0.3041761 -0.38768804 0.12229616 -0.108629815
-0.025174895 0.031394202 0.11841824 -0.072847225 0.059119698 -0.08354504 -0.08791477 -0.10317821
-0.11407637 0.19505553 0.08112584 -0.20563379 0.17068724 0.23863144 0.10361976 -0.0136709
-0.05704283 -0.13071547 0.02622639 0.25095028 -0.11401928 -0.046540227 0.03031664 -0.06893559
-0.095095046 -0.03093947 -0.12195141 -0.14027645 -0.1729965 -0.1015828 -0.06864361 0.14217058
0.015477259 -0.1461358 -0.051444322 -0.033436492 0.029385742 0.07400303 0.18701541 0.26930052
0.220667 -0.31788412 -0.1468558 -0.13359801 -0.20309512 -0.04982107 -0.21822713 0.08083675
0.056668866 -0.27151942 0.0700084 -0.14521836 -0.020279758 0.15011674 0.2710475 -0.08389012
-0.050869234 0.064277016 -0.14385425 -0.077614844 0.13916783 0.22889031 -0.02024769 0.16179731
0.21572417 0.2158765 -0.092352 -0.09804585 -0.20591275 0.123701274 -0.07027597 0.1297533
-0.15658845 0.13195246 0.13548708 -0.10867139 -0.030552663 -0.03950883 0.14060178 0.029434733
0.08113229 -0.2391862 -0.27330497 0.03701269 -0.0211148 0.18641044 0.090205655 -0.008079691
0.25081572 0.013314815 0.12779224 -0.017382128 0.0792823 -0.019850219 0.19529904 0.21135868
00000000: 78d3 9c3c da21 e8bd 7b3c b3bd fc45 0ebd
00000010: b6d7 d53d b024 4ebc c57d 19be 6c52 cebc
00000020: 7e84 dd3c f762 393c 388d 033d cd2e aebd
00000030: 56e9 573d 00c0 8d3c 3f69 f4bd 7399 17be
00000040: ca99 ef3c 8674 2cbe 42b1 ce3d 6103 05be
00000050: cdf6 403e 7cca afbe 49e5 2e3c a731 063e
00000060: b3f2 37be 82e6 b33d 77b5 16bf aa9c e1bb
00000070: 1f5c 33be e254 f8bc 5fe1 0d3d 5768 13be
00000080: d92f e03d 2457 a9be 5c8e edbd 34d4 43be
00000090: 201c 483e 6bb2 923d c2ed 133e a96e 12bd
000000a0: 2bfd 1f3e 81c3 e2bc 21c8 333e 2e00 9abc
000000b0: 76d2 153e a228 4ebe 20c6 c03c 445f 45be
000000c0: f8de 77bd 3ce8 dfbc dea7 1d3e 738d c6ba
000000d0: 792c 0e3e b2ed 263e bf91 d1bd 4a49 a5be
000000e0: 178c 853e dbf3 bf3c 7572 a23e e3a7 a73d
000000f0: 5752 bcbc 2abf 26be 4e47 0cbd 72c0 c0bd
00000100: f704 6cbd 4412 173e ad00 40bd 8e9f d2bd
00000110: 8d6d e7bc 1f3c 65be 19fb e2bc 9f5a 4e3e
00000120: c69b d0bc 7117 713e e56a 18be 519b 3fbd
00000130: d5a3 84bd 8238 653e 991b 733e 090a 11be
00000140: c599 cf3d 687e 00be a19c 69bd e3e4 f5bd
00000150: 57bc 8a3d a088 173e 6fee d5ba 7a67 90be
00000160: 3ca4 30be 7088 aa3b 25f4 253e b083 a1bd
00000170: 3fc2 113e f181 47be 361a 683d f88f 5dbe
00000180: f9ca 84bb 78ca 573e f68b 87be 35ad 05be
00000190: b4ad ccbb f499 113e bd2e 3abe 4d3d 6dbe
000001a0: 138c 23bd bf04 a83d e0f8 abbd 48c3 7d3e
000001b0: b486 2c3e 9c6e 58be fd02 d33d efe3 03be
000001c0: e360 da3d 603d 42bd 0d21 6f3e 98d0 283d
000001d0: 8c0b 20bd 7522 04bd 2b71 ae3d 2e14 43bc
000001e0: ac5e 7a3e 3aa6 80be 488b 7ebd d345 07be
000001f0: de7f d53c 0fde d5bb cf9a 473e 814e 2bbe
00000200: 7827 153d 4b8d 8c3d 6575 e43d dc4c ddbd
00000210: bffa b5bc a791 133e c7f1 d7bd fa6b 8b3b
00000220: cbad 42bd c328 8bbe dab5 0b3d 8a79 0a3d
00000230: 8e51 31bd 6b34 93bc e34e d03d 96b2 03be
00000240: d28e 2b3e ab0f 58bd 2620 a2bd ce65 92bc
00000250: a67d a4bd b6a8 ccbe 0562 c63c 5d34 3f3e
00000260: 4287 423b 5111 b7bd ac5f 8abe ba04 59bd
00000270: f8bc 9b3e 0c7f c6be 6976 fa3d 4f79 debd
00000280: 953b cebc 3597 003d 4385 f23d ed30 95bd
00000290: 7f27 723d a919 abbd a90c b4bd 194f d3bd
000002a0: dfa0 e9bd a3bc 473e 4e25 a63d aa91 52be
000002b0: a3c8 2e3e cd5b 743e 9936 d43d e9fb 5fbc
000002c0: bea5 69bd 47da 05be bad8 d63c 8e7c 803e
000002d0: f182 e9bd f7a0 3ebd 9a5a f83c 1a2e 8dbd
000002e0: 31c1 c2bd c574 fdbc a9c1 f9bd a1a4 0fbe
000002f0: ff25 31be a50a d0bd 0595 8cbd 2a95 113e
00000300: 5494 7d3c a0a4 15be 48b7 52bd b4f4 08bd
00000310: 5eba f03c e78e 973d f880 3f3e c2e1 893e
00000320: 88f6 613e b5c1 a2be 5e61 16be ebcd 08be
00000330: 2bf8 4fbe 2e11 4cbd ef76 5fbe bd8d a53d
00000340: 9d1d 683d 9804 8bbe 9060 8f3d 1fb4 14be
00000350: bc21 a6bc 34b8 193e bdc6 8a3e 95ce abbd
00000360: 425c 50bd aba3 833d 874e 13be 88f4 9ebd
00000370: 0382 0e3e 3962 6a3e 7cde a5bc 32ae 253e
00000380: cce6 5c3e bb0e 5d3e 0c23 bdbd 43cc c8bd
00000390: cbda 52be 1857 fd3d d9ec 8fbd 0dde 043e
000003a0: b958 20be 8c1e 073e 20bd 0a3e 1b8f debd
000003b0: 9449 fabc 03d4 21bd eaf9 0f3e 1c21 f13c
000003c0: b028 a63d 3aed 74be a1ee 8bbe 9e9a 173d
000003d0: f2f8 acbc 61e2 3e3e bebd b83d ae60 04bc
000003e0: eb6a 803e 6226 5a3c f8db 023e f764 8ebc
000003f0: c25e a23d ed9c a2bc 79fc 473e 696e 583e

bias f4 [50]
0.021482628 0.015870009 -0.012598412 -0.019920614 0.008207631 0.028836448 -0.0040968554 0.018467033
0.015069076 -0.02038612 -0.013689827 0.005124954 -0.014708234 0.044712856 -0.030420078 -0.0025023096
0.011030941 -0.011877808 0.03270162 -0.018450154 0.02025773 -0.02531397 0.011639366 0.019762194
5.6580655e-05 0.008341472 0.005099259 0.008670135 0.023797773 0.022337595 0.061649136 0.035162885
0.021374537 -0.021619871 -0.017469164 0.021159299 -0.014768095 0.031007757 -0.02489868 0.032533135
-0.041065376 -0.022844221 -0.02496789 -0.0070839725 0.016326379 0.021888101 -0.0155548025 0.012965602
0.02141089 -0.020092754
00000000: 56fc af3c d201 823c 9269 4ebc 8e30 a3bc
00000010: 4d79 063c 6a3a ec3c ea3e 86bb 2d48 973c
00000020: 49e4 763c cb00 a7bc 4c4b 60bc 3bef a73b
00000030: cefa 70bc d424 373d 8733 f9bc cafd 23bb
00000040: 1fbb 343c 239b 42bc 22f2 053d c724 97bc
00000050: 8af3 a53c 3e5f cfbc 0ab3 3e3c 53e4 a13c
00000060: 0451 6d38 abaa 083c af17 a73b 2f0d 0e3c
00000070: 8cf3 c23c 55fd b63c ce83 7c3d f506 103d
00000080: a719 af3c 281c b1bc 7e1b 8fbc 4456 ad3c
00000090: e1f5 71bc fb03 fe3c 51f8 cbbc 7741 053d
000000a0: 2b34 28bd ce23 bbbc 7689 ccbc ab20 e8bb
000000b0: e6be 853c ad4e b33c 92d9 7ebc ad6d 543c
000000c0: e465 af3c 8f99 a4bc

weight f4 [1, 50]
-0.0749004 -0.18104061 0.08280055 0.36505452 -0.315122 -0.14343108 -0.35453883 -0.20760852
0.2267689 0.13330872 0.3503884 -0.12224701 0.16288729 -0.19787681 0.06936048 0.008864589
0.14945261 -0.1915072 -0.018381853 0.09098841 -0.34549648 0.038866956 -0.27291322 -0.14162412
-0.019672023 -0.1384856 -0.061054718 -0.11962851 -0.22472401 -0.047746565 -0.038157437 -0.23528104
-0.20886587 0.10354814 -0.019994002 0.33602706 -0.09772501 -0.07772935 0.14230281 -0.008977336
0.14562204 0.13456137 0.088995114 0.0060279816 0.45097232 -0.24177502 0.055610526 -0.1452579
-0.07760249 0.13125835
00000000: 6265 99bd b662 39be 5693 a93d 6de8 ba3e
00000010: ac57 a1be 99df 12be 1d86 b5be 5497 54be
00000020: 1b36 683e 1582 083e 1c66 b33e a45c fabd
00000030: edcb 263e 38a0 4abe de0c 8e3d c83c 113c
00000040: 1b0a 193e 771a 44be 8a95 96bc 2258 ba3d
00000050: eae4 b0be f532 1f3d 48bb 8bbe ea05 11be
00000060: 3927 a1bc 2bcf 0dbe 8314 7abd cbff f4bd
00000070: 0d1e 66be e791 43bd f94a 1cbd 83ed 70be
00000080: efe0 55be 0c11 d43d 76ca a3bc bd0b ac3e
00000090: 0d24 c8bd 9130 9fbd d4b7 113e ad15 13bc
000000a0: f21d 153e 75ca 093e 1243 b63d 6086 c53b
000000b0: d8e5 e63e df93 77be ddc7 633d 7dbe 14be
000000c0: 0eee 9ebd 9768 063e

G f4 [100, 1]
0.0 0.0 0.0 0.0 0.0 0.0 0.0 0.0
0.0 0.0 0.0 0.0 0.0 0.0 0.0 0.0
0.0 0.0 0.0 0.0 0.0 0.0 0.0 0.0
0.0 0.0 0.0 0.0 0.0 0.0 0.0 0.0
0.0 0.0 0.0 0.0 0.0 0.0 0.0 0.0
0.0 0.0 0.0 0.0 0.0 0.0 0.0 0.0
0.0 0.0 0.0 0.0 0.0 0.0 0.0 0.0
0.0 0.0 0.0 0.0 0.0 0.0 0.0 0.0
0.0 0.0 0.0 0.0 0.0 0.0 0.0 0.0
0.0 0.0 0.0 0.0 0.0 0.0 0.0 0.0
0.0 0.0 0.0 0.0 0.0 0.0 0.0 0.0
0.0 0.0 0.0 0.0 0.0 0.0 0.0 0.0
0.0 0.0 0.0 0.0
00000000: 0000 0000 0000 0000 0000 0000 0000 0000
00000010: 0000 0000 0000 0000 0000 0000 0000 0000
00000020: 0000 0000 0000 0000 0000 0000 0000 0000
00000030: 0000 0000 0000 0000 0000 0000 0000 0000
00000040: 0000 0000 0000 0000 0000 0000 0000 0000
00000050: 0000 0000 0000 0000 0000 0000 0000 0000
00000060: 0000 0000 0000 0000 0000 0000 0000 0000
00000070: 0000 0000 0000 0000 0000 0000 0000 0000
00000080: 0000 0000 0000 0000 0000 0000 0000 0000
00000090: 0000 0000 0000 0000 0000 0000 0000 0000
000000a0: 0000 0000 0000 0000 0000 0000 0000 0000
000000b0: 0000 0000 0000 0000 0000 0000 0000 0000
000000c0: 0000 0000 0000 0000 0000 0000 0000 0000
000000d0: 0000 0000 0000 0000 0000 0000 0000 0000
000000e0: 0000 0000 0000 0000 0000 0000 0000 0000
000000f0: 0000 0000 0000 0000 0000 0000 0000 0000
00000100: 0000 0000 0000 0000 0000 0000 0000 0000
00000110: 0000 0000 0000 0000 0000 0000 0000 0000
00000120: 0000 0000 0000 0000 0000 0000 0000 0000
00000130: 0000 0000 0000 0000 0000 0000 0000 0000
00000140: 0000 0000 0000 0000 0000 0000 0000 0000
00000150: 0000 0000 0000 0000 0000 0000 0000 0000
00000160: 0000 0000 0000 0000 0000 0000 0000 0000
00000170: 0000 0000 0000 0000 0000 0000 0000 0000
00000180: 0000 0000 0000 0000 0000 0000 0000 0000

exp_avg f4 [50, 2]
0.009757387 -0.007443141 0.015000667 0.0014296249 -0.040503364 0.019372594 -0.0006649242 -0.0014487731
-0.001847104 0.002458616 -0.010272166 0.0077251596 -0.03348714 0.013015833 -0.0016095891 -0.0011044429
-9.445485e-05 -0.00022405072 -0.046476893 0.013727159 0.0120117515 -0.0037900694 -0.037487682 0.0101986015
-0.010657292 0.0015887143 0.019714782 -0.008008299 0.0018799108 -0.008751975 0.006142865 -0.0034332944
-0.0066215387 -0.00022056824 0.0046634064 -0.0004813086 -0.0016802609 0.008196579 -0.00035170224 -0.006356199
0.029093131 -0.0102008125 0.0028838217 -0.0053439294 0.0130341 -0.0017449259 0.011787234 0.0017696467
0.024272537 -0.008061257 0.008017227 -0.004392345 0.0079972865 -0.00014483879 0.013658742 0.007434967
-0.018165506 0.012331263 0.01791744 -0.007541299 0.0025136496 0.0021297461 -0.007208314 -8.736941e-05
0.014755475 -0.0022533266 0.029894276 -0.010544423 0.011984197 -0.007797486 -0.0022156832 0.0033111752
0.002555158 -0.00047119186 -0.0060728444 0.0015009975 -0.012436679 0.003115206 -0.007999748 0.003797643
-0.01120678 -0.00055930275 -0.02453586 0.011722857 -0.0034037642 0.008715369 -0.0049801697 0.00045648313
0.0007270124 -0.00054234377 0.017457286 -0.0071377656 0.013300624 -0.008115055 0.018691903 -0.0089950925
0.017745247 -0.0021021564 -0.0030656233 0.00810475
00000000: 73dd 1f3c 98e5 f3bb 5cc5 753c 4062 bb3a
00000010: dbe6 25bd 46b3 9e3c 4f4e 2eba c2e4 bdba
00000020: 871a f2ba bb20 213b 964c 28bc 5623 fd3b
00000030: d029 09bd 5c40 553c d9f8 d2ba f4c2 90ba
00000040: 1016 c6b8 28ef 6ab9 8e5e 3ebd e1e7 603c
00000050: f0cc 443c d062 78bb af8c 19bd 0918 273c
00000060: ec9b 2ebc 683c d03a e580 a13c 3e35 03bc
00000070: 5767 f63a 7264 0fbc 164a c93b 1f01 61bb
00000080: 7ef9 d8bb 5648 67b9 7dcf 983b 2658 fcb9
00000090: 333c dcba f24a 063c ad64 b8b9 a947 d0bb
000000a0: b854 ee3c 4f21 27bc 80fe 3c3b 211c afbb
000000b0: fa8c 553c ffb5 e4ba 3e1f 413c 7df3 e73a
000000c0: 33d7 c63c 5d13 04bc b05a 033c a9ed 8fbb
000000d0: 0d07 033c dedf 17b9 ebc8 5f3c 06a1 f33b
000000e0: d4cf 94bc 1109 4a3c 98c7 923c 001d f7bb
000000f0: 0bbc 243b 3693 0b3b b833 ecbb 183a b7b8
00000100: f3c0 713c 8cac 13bb d7e4 f43c 84c2 2cbc
00000110: 5e59 443c 0e82 ffbb ff34 11bb 4d00 593b
00000120: 7074 273b 4d0a f7b9 b6fe c6bb 1ebd c43a
00000130: 36c3 4bbc 7c28 4c3b 6011 03bc e0e1 783b
00000140: a49c 37bc 2c9e 12ba 6eff c8bc 3a11 403c
00000150: b011 5fbb e8ca 0e3c b130 a3bb 2154 ef39
00000160: fa94 3e3a 132c 0eba 9502 8f3c ebe3 e9bb
00000170: dcea 593c 02f5 04bc c31f 993c 2760 13bc
00000180: 7b5e 913c 55c4 09bb a0e8 48bb c9c9 043c

exp_avg_sq f4 [50, 2]
0.00043592308 7.8474826e-05 0.0028447022 1.20884515e-05 0.0018342474 0.0003707726 0.00017426492 2.3997685e-05
0.005444378 1.9006387e-05 0.111714356 0.0001904304 0.0011395665 0.00019256392 0.008848 0.00014301814
8.451698e-05 2.9261955e-07 0.004333446 0.00028743985 0.028261147 0.00010678555 0.0051182397 0.00033677416
0.0006548988 0.00014352109 0.0043524597 0.00023509265 6.507866e-05 3.764791e-05 0.0006559041 7.417609e-06
0.00078244536 9.7397846e-05 0.0032823207 3.0645908e-06 4.563626e-05 3.6229234e-05 0.097688965 0.00010853701
0.0017722439 8.911613e-05 0.106941916 0.0001058914 0.0012122837 6.54653e-06 0.0013868875 0.00012732383
0.02094196 8.224833e-05 0.0010005364 5.2962547e-05 0.0033544449 9.4809475e-05 0.0071894065 8.3132516e-05
0.00069466414 0.00012982906 0.0012011481 2.7658294e-05 0.0036959662 2.6656675e-05 0.00236523 1.0472493e-06
0.004502759 1.5654967e-05 0.012853651 0.00011832012 0.0003823405 1.6701035e-05 0.00018877057 2.5989108e-05
0.000800407 5.945136e-05 0.00051861315 3.938628e-06 0.0008805465 1.0646758e-05 0.000146952 2.4548293e-05
0.004629321 4.785362e-05 0.0014600919 0.00041442443 4.2030926e-05 4.799399e-05 0.006800701 2.2325768e-05
0.003184053 5.9290734e-05 0.011763879 0.00013986792 0.0023256426 1.908202e-05 0.0006646602 7.276437e-05
0.0145788975 9.229391e-05 0.061396103 6.0910654e-05
00000000: 9b8c e439 da92 a438 2f6e 3a3b 81cf 4a37
00000010: 216b f03a 4264 c239 e2ba 3639 a34e c937
00000020: c166 b23b e86f 9f37 7fca e43d 45ae 4739
00000030: 825d 953a fcea 4939 34f7 103c 24f7 1539
00000040: b53e b138 5319 9d34 94ff 8d3b 86b3 9639
00000050: ec83 e73c 0ef2 df38 e8b6 a73b 1091 b039
00000060: 84ad 2b3a 267e 1639 149f 8e3b 3483 7639
00000070: d77a 8838 23e8 1d38 fbf0 2b3a c7e4 f836
00000080: 051d 4d3a 1242 cc38 341c 573b 45a9 4d36
00000090: 9069 3f38 d8f4 1738 2711 c83d 5d9e e338
000000a0: a34a e83a dce3 ba38 5d04 db3d 0312 de38
000000b0: 7ee5 9e3a 44aa db36 39c8 b53a 3b82 0539
000000c0: 798e ab3c bc7c ac38 6e24 833a 1a24 5e38
000000d0: 3fd6 5b3b 73d4 c638 1d95 eb3b 6e57 ae38
000000e0: 1f1a 363a b922 0839 d86f 9d3a bc03 e837
000000f0: 0638 723b c69c df37 f901 1b3b 368f 8c35
00000100: e18b 933b c952 8337 1f98 523c a122 f838
00000110: e074 c839 3319 8c37 b7f0 4539 2f03 da37
00000120: 68d2 513a 695b 7938 8af3 073a 8f28 8436
00000130: 7ad4 663a 7a9f 3237 2117 1a39 0fed cd37
00000140: 8fb1 973b 6fb6 4838 8e60 bf3a 1b47 d939
00000150: 5d4a 3038 284d 4938 6ad8 de3b 3948 bb37
00000160: 8cab 503b f1ae 7838 49bd 403c 82a9 1239
00000170: cf69 183b 5312 a037 973c 2e3a 1399 9838
00000180: 54dc 6e3c ea8d c138 7b7a 7b3d 517a 7f38

exp_avg f4 [50]
-0.005759845 0.0048703966 0.005590245 -0.0043033804 -4.1662915e-05 0.005016315 0.0011572149 0.0027511455
-0.000916391 0.0054830955 -0.0023029484 -0.0030290869 -0.0044042296 0.00024970205 -0.009696441 -0.001301627
-0.0044693556 0.001589288 0.008846985 0.0004951904 -0.004826027 -0.0052556912 0.0013125234 1.3922185e-05
-0.0006210506 4.5111556e-05 -0.0008018546 0.016381117 0.009478796 -0.0035056155 0.0004931187 -0.0013208686
0.0028081466 -0.00328316 -0.008451319 -0.0005210603 -0.0022663402 -0.00069096085 -0.0003477383 0.0012045826
-0.002687135 0.0048315623 0.009027294 0.00019767371 0.001006369 -0.0017793726 -0.0074965064 -0.0038630334
-0.0007119656 0.0012134841
00000000: 15bd bcbb d997 9f3b 602e b73b 5f03 8dbb
00000010: 37bf 2eb8 e65f a43b b0ad 973a 904c 343b
00000020: f639 70ba 8aab b33b 10ed 16bb a583 46bb
00000030: 5b51 90bb 71ea 8239 d2dd 1ebc 5b9b aaba
00000040: ac73 92bb a84f d03a f2f2 103c aacf 013a
00000050: a623 9ebb ef37 acbb fa08 ac3a 5493 6937
00000060: 00ce 22ba 2a36 3d38 8d33 52ba b131 863c
00000070: f44c 1b3c 78be 65bb a344 013a ff20 adba
00000080: e208 383b 492a 57bb 6777 0abc c497 08ba
00000090: e186 14bb 9921 35ba a550 b6b9 16e3 9d3a
000000a0: a51a 30bb 1552 9e3b 37e7 133c a246 4f39
000000b0: 24e8 833a d639 e9ba 41a5 f5bb f22a 7dbb
000000c0: 34a3 3aba c50d 9f3a

exp_avg_sq f4 [50]
0.00025231243 6.52686e-05 0.00033873896 5.353289e-05 6.7528017e-06 0.0003504803 0.00021766443 0.00052368303
6.1319533e-06 0.00036732736 7.535698e-05 0.001064999 0.0004520712 0.0007333185 6.557965e-05 3.6917636e-06
0.00035066906 6.025452e-06 7.2086536e-05 0.000103174956 7.509848e-05 0.00022874585 1.6954731e-05 0.00019017929
0.00023095967 0.00015511509 0.00021893163 0.0009816232 0.00017725822 4.236853e-05 0.00017897367 2.292198e-06
8.250133e-05 0.00011310176 3.55387e-05 1.0056791e-05 0.00017542923 2.1476812e-05 3.8775303e-05 9.441111e-05
0.00019694991 0.0011206426 7.7087585e-05 0.00011985358 0.0003004249 0.0001699272 2.3460625e-05 0.00014625526
0.0001488838 9.84286e-05
00000000: cd48 8439 d0e0 8838 c698 b139 8188 6038
00000010: 2096 e236 abc0 b739 da3c 6439 c647 093a
00000020: 14c1 cd36 d895 c039 f808 9e38 7097 8b3a
00000030: f803 ed39 2c3c 403a ce87 8938 04c0 7736
00000040: 01da b739 3d2e ca36 2a2d 9738 a25f d838
00000050: 307e 9d38 7fdb 6f39 023a 8e37 dd6a 4739
00000060: c42d 7239 64a6 2239 0391 6539 cfa9 803a
00000070: 64de 3939 ddb4 3138 e1aa 3b39 a9d3 1936
00000080: 9004 ad38 0c31 ed38 630f 1538 97b9 2837
00000090: 6df3 3739 1a29 b437 aaa2 2238 94fe c538
000000a0: 5784 4e39 87e2 923a 15aa a138 e759 fb38
000000b0: 5982 9d39 7c2e 3239 4fcd c437 195c 1939
000000c0: b11d 1c39 746b ce38
