pbc_examples/saved_models/convection_beta-1.0_layers-50,50,50,50,1_L-2.0_WD-0.8_init-normal_seed0.pt (torch, 114093 bytes, 36 tensors)

x_u f4 [256, 1]
0	0x00000000	0.0
1	0x3cc90fdb	0.024543693
2	0x3d490fdb	0.049087387
3	0x3d96cbe4	0.07363108
4	0x3dc90fdb	0.09817477
5	0x3dfb53d1	0.12271846
6	0x3e16cbe4	0.14726216
7	0x3e2feddf	0.17180584
8	0x3e490fdb	0.19634955
9	0x3e6231d6	0.22089323
10	0x3e7b53d1	0.24543692
11	0x3e8a3ae6	0.2699806
12	0x3e96cbe4	0.2945243
13	0x3ea35ce2	0.319068
14	0x3eafeddf	0.3436117
15	0x3ebc7edd	0.3681554
16	0x3ec90fdb	0.3926991
17	0x3ed5a0d8	0.41724277
18	0x3ee231d6	0.44178647
19	0x3eeec2d4	0.46633017
20	0x3efb53d1	0.49087384
21	0x3f03f267	0.5154175
22	0x3f0a3ae6	0.5399612
23	0x3f108365	0.5645049
24	0x3f16cbe4	0.5890486
25	0x3f1d1463	0.6135923
26	0x3f235ce2	0.638136
27	0x3f29a560	0.6626797
28	0x3f2feddf	0.6872234
29	0x3f36365e	0.7117671
30	0x3f3c7edd	0.7363108
31	0x3f42c75c	0.7608545
32	0x3f490fdb	0.7853982
33	0x3f4f5859	0.8099418
34	0x3f55a0d8	0.83448553
35	0x3f5be957	0.85902923
36	0x3f6231d6	0.88357294
37	0x3f687a55	0.90811664
38	0x3f6ec2d4	0.93266034
39	0x3f750b52	0.957204
40	0x3f7b53d1	0.9817477
41	0x3f80ce28	1.0062914
42	0x3f83f267	1.030835
43	0x3f8716a7	1.0553788
44	0x3f8a3ae6	1.0799224
45	0x3f8d5f26	1.1044662
46	0x3f908365	1.1290098
47	0x3f93a7a5	1.1535536
48	0x3f96cbe4	1.1780972
49	0x3f99f023	1.2026409
50	0x3f9d1463	1.2271847
51	0x3fa038a2	1.2517283
52	0x3fa35ce2	1.276272
53	0x3fa68121	1.3008157
54	0x3fa9a560	1.3253593
55	0x3facc9a0	1.3499031
56	0x3fafeddf	1.3744467
57	0x3fb3121f	1.3989905
58	0x3fb6365e	1.4235342
59	0x3fb95a9e	1.4480779
60	0x3fbc7edd	1.4726216
61	0x3fbfa31c	1.4971652
62	0x3fc2c75c	1.521709
63	0x3fc5eb9b	1.5462526
64	0x3fc90fdb	1.5707964
65	0x3fcc341a	1.59534
66	0x3fcf5859	1.6198837
67	0x3fd27c99	1.6444274
68	0x3fd5a0d8	1.6689711
69	0x3fd8c518	1.6935148
70	0x3fdbe957	1.7180585
71	0x3fdf0d97	1.7426022
72	0x3fe231d6	1.7671459
73	0x3fe55615	1.7916895
74	0x3fe87a55	1.8162333
75	0x3feb9e94	1.8407769
76	0x3feec2d4	1.8653207
77	0x3ff1e713	1.8898643
78	0x3ff50b52	1.914408
79	0x3ff82f92	1.9389517
80	0x3ffb53d1	1.9634954
81	0x3ffe7811	1.9880391
82	0x4000ce28	2.0125828
83	0x40026048	2.0371265
84	0x4003f267	2.06167
85	0x40058487	2.0862138
86	0x400716a7	2.1107576
87	0x4008a8c7	2.1353014
88	0x400a3ae6	2.1598449
89	0x400bcd06	2.1843886
90	0x400d5f26	2.2089324
91	0x400ef145	2.233476
92	0x40108365	2.2580197
93	0x40121585	2.2825634
94	0x4013a7a5	2.3071072
95	0x401539c4	2.3316507
96	0x4016cbe4	2.3561945
97	0x40185e04	2.3807383
98	0x4019f023	2.4052818
99	0x401b8243	2.4298255
100	0x401d1463	2.4543693
101	0x401ea683	2.478913
102	0x402038a2	2.5034566
103	0x4021cac2	2.5280004
104	0x40235ce2	2.552544
105	0x4024ef01	2.5770876
106	0x40268121	2.6016314
107	0x40281341	2.6261752
108	0x4029a560	2.6507187
109	0x402b3780	2.6752625
110	0x402cc9a0	2.6998062
111	0x402e5bc0	2.72435
112	0x402feddf	2.7488935
113	0x40317fff	2.7734373
114	0x4033121f	2.797981
115	0x4034a43e	2.8225245
116	0x4036365e	2.8470683
117	0x4037c87e	2.871612
118	0x40395a9e	2.8961558
119	0x403aecbd	2.9206994
120	0x403c7edd	2.9452431
121	0x403e10fd	2.969787
122	0x403fa31c	2.9943304
123	0x4041353c	3.0188742
124	0x4042c75c	3.043418
125	0x4044597c	3.0679617
126	0x4045eb9b	3.0925052
127	0x40477dbb	3.117049
128	0x40490fdb	3.1415927
129	0x404aa1fa	3.1661363
130	0x404c341a	3.19068
131	0x404dc63a	3.2152238
132	0x404f5859	3.2397673
133	0x4050ea79	3.264311
134	0x40527c99	3.2888548
135	0x40540eb9	3.3133986
136	0x4055a0d8	3.3379421
137	0x405732f8	3.362486
138	0x4058c518	3.3870296
139	0x405a5737	3.4115732
140	0x405be957	3.436117
141	0x405d7b77	3.4606607
142	0x405f0d97	3.4852045
143	0x40609fb6	3.509748
144	0x406231d6	3.5342917
145	0x4063c3f6	3.5588355
146	0x40655615	3.583379
147	0x4066e835	3.6079228
148	0x40687a55	3.6324666
149	0x406a0c75	3.6570103
150	0x406b9e94	3.6815538
151	0x406d30b4	3.7060976
152	0x406ec2d4	3.7306414
153	0x407054f3	3.755185
154	0x4071e713	3.7797287
155	0x40737933	3.8042724
156	0x40750b52	3.828816
157	0x40769d72	3.8533597
158	0x40782f92	3.8779035
159	0x4079c1b2	3.9024472
160	0x407b53d1	3.9269907
161	0x407ce5f1	3.9515345
162	0x407e7811	3.9760783
163	0x40800518	4.000622
164	0x4080ce28	4.0251656
165	0x40819738	4.0497093
166	0x40826048	4.074253
167	0x40832958	4.098797
168	0x4083f267	4.12334
169	0x4084bb77	4.147884
170	0x40858487	4.1724277
171	0x40864d97	4.1969714
172	0x408716a7	4.221515
173	0x4087dfb7	4.246059
174	0x4088a8c7	4.2706027
175	0x408971d6	4.295146
176	0x408a3ae6	4.3196898
177	0x408b03f6	4.3442335
178	0x408bcd06	4.3687773
179	0x408c9616	4.393321
180	0x408d5f26	4.417865
181	0x408e2836	4.4424086
182	0x408ef145	4.466952
183	0x408fba55	4.4914956
184	0x40908365	4.5160394
185	0x40914c75	4.540583
186	0x40921585	4.565127
187	0x4092de95	4.5896707
188	0x4093a7a5	4.6142144
189	0x409470b4	4.6387577
190	0x409539c4	4.6633015
191	0x409602d4	4.687845
192	0x4096cbe4	4.712389
193	0x409794f4	4.7369328
194	0x40985e04	4.7614765
195	0x40992714	4.7860203
196	0x4099f023	4.8105636
197	0x409ab933	4.8351073
198	0x409b8243	4.859651
199	0x409c4b53	4.884195
200	0x409d1463	4.9087386
201	0x409ddd73	4.9332824
202	0x409ea683	4.957826
203	0x409f6f92	4.9823694
204	0x40a038a2	5.006913
205	0x40a101b2	5.031457
206	0x40a1cac2	5.0560007
207	0x40a293d2	5.0805445
208	0x40a35ce2	5.105088
209	0x40a425f1	5.1296315
210	0x40a4ef01	5.1541753
211	0x40a5b811	5.178719
212	0x40a68121	5.203263
213	0x40a74a31	5.2278066
214	0x40a81341	5.2523503
215	0x40a8dc51	5.276894
216	0x40a9a560	5.3014374
217	0x40aa6e70	5.325981
218	0x40ab3780	5.350525
219	0x40ac0090	5.3750687
220	0x40acc9a0	5.3996124
221	0x40ad92b0	5.424156
222	0x40ae5bc0	5.4487
223	0x40af24cf	5.473243
224	0x40afeddf	5.497787
225	0x40b0b6ef	5.5223308
226	0x40b17fff	5.5468745
227	0x40b2490f	5.5714183
228	0x40b3121f	5.595962
229	0x40b3db2f	5.620506
230	0x40b4a43e	5.645049
231	0x40b56d4e	5.669593
232	0x40b6365e	5.6941366
233	0x40b6ff6e	5.7186804
234	0x40b7c87e	5.743224
235	0x40b8918e	5.767768
236	0x40b95a9e	5.7923117
237	0x40ba23ad	5.816855
238	0x40baecbd	5.8413987
239	0x40bbb5cd	5.8659425
240	0x40bc7edd	5.8904862
241	0x40bd47ed	5.91503
242	0x40be10fd	5.939574
243	0x40beda0d	5.9641175
244	0x40bfa31c	5.988661
245	0x40c06c2c	6.0132046
246	0x40c1353c	6.0377483
247	0x40c1fe4c	6.062292
248	0x40c2c75c	6.086836
249	0x40c3906c	6.1113796
250	0x40c4597c	6.1359234
251	0x40c5228b	6.1604667
252	0x40c5eb9b	6.1850104
253	0x40c6b4ab	6.209554
254	0x40c77dbb	6.234098
255	0x40c846cb	6.2586417

t_u f4 [256, 1]
0	0x00000000	0.0
1	0x00000000	0.0
2	0x00000000	0.0
3	0x00000000	0.0
4	0x00000000	0.0
5	0x00000000	0.0
6	0x00000000	0.0
7	0x00000000	0.0
8	0x00000000	0.0
9	0x00000000	0.0
10	0x00000000	0.0
11	0x00000000	0.0
12	0x00000000	0.0
13	0x00000000	0.0
14	0x00000000	0.0
15	0x00000000	0.0
16	0x00000000	0.0
17	0x00000000	0.0
18	0x00000000	0.0
19	0x00000000	0.0
20	0x00000000	0.0
21	0x00000000	0.0
22	0x00000000	0.0
23	0x00000000	0.0
24	0x00000000	0.0
25	0x00000000	0.0
26	0x00000000	0.0
27	0x00000000	0.0
28	0x00000000	0.0
29	0x00000000	0.0
30	0x00000000	0.0
31	0x00000000	0.0
32	0x00000000	0.0
33	0x00000000	0.0
34	0x00000000	0.0
35	0x00000000	0.0
36	0x00000000	0.0
37	0x00000000	0.0
38	0x00000000	0.0
39	0x00000000	0.0
40	0x00000000	0.0
41	0x00000000	0.0
42	0x00000000	0.0
43	0x00000000	0.0
44	0x00000000	0.0
45	0x00000000	0.0
46	0x00000000	0.0
47	0x00000000	0.0
48	0x00000000	0.0
49	0x00000000	0.0
50	0x00000000	0.0
51	0x00000000	0.0
52	0x00000000	0.0
53	0x00000000	0.0
54	0x00000000	0.0
55	0x00000000	0.0
56	0x00000000	0.0
57	0x00000000	0.0
58	0x00000000	0.0
59	0x00000000	0.0
60	0x00000000	0.0
61	0x00000000	0.0
62	0x00000000	0.0
63	0x00000000	0.0
64	0x00000000	0.0
65	0x00000000	0.0
66	0x00000000	0.0
67	0x00000000	0.0
68	0x00000000	0.0
69	0x00000000	0.0
70	0x00000000	0.0
71	0x00000000	0.0
72	0x00000000	0.0
73	0x00000000	0.0
74	0x00000000	0.0
75	0x00000000	0.0
76	0x00000000	0.0
77	0x00000000	0.0
78	0x00000000	0.0
79	0x00000000	0.0
80	0x00000000	0.0
81	0x00000000	0.0
82	0x00000000	0.0
83	0x00000000	0.0
84	0x00000000	0.0
85	0x00000000	0.0
86	0x00000000	0.0
87	0x00000000	0.0
88	0x00000000	0.0
89	0x00000000	0.0
90	0x00000000	0.0
91	0x00000000	0.0
92	0x00000000	0.0
93	0x00000000	0.0
94	0x00000000	0.0
95	0x00000000	0.0
96	0x00000000	0.0
97	0x00000000	0.0
98	0x00000000	0.0
99	0x00000000	0.0
100	0x00000000	0.0
101	0x00000000	0.0
102	0x00000000	0.0
103	0x00000000	0.0
104	0x00000000	0.0
105	0x00000000	0.0
106	0x00000000	0.0
107	0x00000000	0.0
108	0x00000000	0.0
109	0x00000000	0.0
110	0x00000000	0.0
111	0x00000000	0.0
112	0x00000000	0.0
113	0x00000000	0.0
114	0x00000000	0.0
115	0x00000000	0.0
116	0x00000000	0.0
117	0x00000000	0.0
118	0x00000000	0.0
119	0x00000000	0.0
120	0x00000000	0.0
121	0x00000000	0.0
122	0x00000000	0.0
123	0x00000000	0.0
124	0x00000000	0.0
125	0x00000000	0.0
126	0x00000000	0.0
127	0x00000000	0.0
128	0x00000000	0.0
129	0x00000000	0.0
130	0x00000000	0.0
131	0x00000000	0.0
132	0x00000000	0.0
133	0x00000000	0.0
134	0x00000000	0.0
135	0x00000000	0.0
136	0x00000000	0.0
137	0x00000000	0.0
138	0x00000000	0.0
139	0x00000000	0.0
140	0x00000000	0.0
141	0x00000000	0.0
142	0x00000000	0.0
143	0x00000000	0.0
144	0x00000000	0.0
145	0x00000000	0.0
146	0x00000000	0.0
147	0x00000000	0.0
148	0x00000000	0.0
149	0x00000000	0.0
150	0x00000000	0.0
151	0x00000000	0.0
152	0x00000000	0.0
153	0x00000000	0.0
154	0x00000000	0.0
155	0x00000000	0.0
156	0x00000000	0.0
157	0x00000000	0.0
158	0x00000000	0.0
159	0x00000000	0.0
160	0x00000000	0.0
161	0x00000000	0.0
162	0x00000000	0.0
163	0x00000000	0.0
164	0x00000000	0.0
165	0x00000000	0.0
166	0x00000000	0.0
167	0x00000000	0.0
168	0x00000000	0.0
169	0x00000000	0.0
170	0x00000000	0.0
171	0x00000000	0.0
172	0x00000000	0.0
173	0x00000000	0.0
174	0x00000000	0.0
175	0x00000000	0.0
176	0x00000000	0.0
177	0x00000000	0.0
178	0x00000000	0.0
179	0x00000000	0.0
180	0x00000000	0.0
181	0x00000000	0.0
182	0x00000000	0.0
183	0x00000000	0.0
184	0x00000000	0.0
185	0x00000000	0.0
186	0x00000000	0.0
187	0x00000000	0.0
188	0x00000000	0.0
189	0x00000000	0.0
190	0x00000000	0.0
191	0x00000000	0.0
192	0x00000000	0.0
193	0x00000000	0.0
194	0x00000000	0.0
195	0x00000000	0.0
196	0x00000000	0.0
197	0x00000000	0.0
198	0x00000000	0.0
199	0x00000000	0.0
200	0x00000000	0.0
201	0x00000000	0.0
202	0x00000000	0.0
203	0x00000000	0.0
204	0x00000000	0.0
205	0x00000000	0.0
206	0x00000000	0.0
207	0x00000000	0.0
208	0x00000000	0.0
209	0x00000000	0.0
210	0x00000000	0.0
211	0x00000000	0.0
212	0x00000000	0.0
213	0x00000000	0.0
214	0x00000000	0.0
215	0x00000000	0.0
216	0x00000000	0.0
217	0x00000000	0.0
218	0x00000000	0.0
219	0x00000000	0.0
220	0x00000000	0.0
221	0x00000000	0.0
222	0x00000000	0.0
223	0x00000000	0.0
224	0x00000000	0.0
225	0x00000000	0.0
226	0x00000000	0.0
227	0x00000000	0.0
228	0x00000000	0.0
229	0x00000000	0.0
230	0x00000000	0.0
231	0x00000000	0.0
232	0x00000000	0.0
233	0x00000000	0.0
234	0x00000000	0.0
235	0x00000000	0.0
236	0x00000000	0.0
237	0x00000000	0.0
238	0x00000000	0.0
239	0x00000000	0.0
240	0x00000000	0.0
241	0x00000000	0.0
242	0x00000000	0.0
243	0x00000000	0.0
244	0x00000000	0.0
245	0x00000000	0.0
246	0x00000000	0.0
247	0x00000000	0.0
248	0x00000000	0.0
249	0x00000000	0.0
250	0x00000000	0.0
251	0x00000000	0.0
252	0x00000000	0.0
253	0x00000000	0.0
254	0x00000000	0.0
255	0x00000000	0.0

x_f f4 [100, 1]
0	0x4093a7a5	4.6142144
1	0x3fdf0d97	1.7426022
2	0x4055a0d8	3.3379421
3	0x409c4b53	4.884195
4	0x4044597c	3.0679617
5	0x40b0b6ef	5.5223308
6	0x40ba23ad	5.816855
7	0x40c5eb9b	6.1850104
8	0x40921585	4.565127
9	0x3f99f023	1.2026409
10	0x40992714	4.7860203
11	0x3f108365	0.5645049
12	0x3feb9e94	1.8407769
13	0x3dfb53d1	0.12271846
14	0x409f6f92	4.9823694
15	0x40c2c75c	6.086836
16	0x40b6ff6e	5.7186804
17	0x402cc9a0	2.6998062
18	0x4021cac2	2.5280004
19	0x40c3906c	6.1113796
20	0x402e5bc0	2.72435
21	0x40af24cf	5.473243
22	0x3f8716a7	1.0553788
23	0x40c1fe4c	6.062292
24	0x3ee231d6	0.44178647
25	0x3f36365e	0.7117671
26	0x40864d97	4.1969714
27	0x40c846cb	6.2586417
28	0x40c4597c	6.1359234
29	0x40914c75	4.540583
30	0x40c5eb9b	6.1850104
31	0x4088a8c7	4.2706027
32	0x40af24cf	5.473243
33	0x40268121	2.6016314
34	0x408d5f26	4.417865
35	0x409d1463	4.9087386
36	0x40c06c2c	6.0132046
37	0x3ebc7edd	0.3681554
38	0x3efb53d1	0.49087384
39	0x40a68121	5.203263
40	0x405d7b77	3.4606607
41	0x3ee231d6	0.44178647
42	0x3fcf5859	1.6198837
43	0x4084bb77	4.147884
44	0x3fe87a55	1.8162333
45	0x409ea683	4.957826
46	0x405f0d97	3.4852045
47	0x4058c518	3.3870296
48	0x3f750b52	0.957204
49	0x4013a7a5	2.3071072
50	0x3f29a560	0.6626797
51	0x40a74a31	5.2278066
52	0x3cc90fdb	0.024543693
53	0x40c1fe4c	6.062292
54	0x401539c4	2.3316507
55	0x3ffb53d1	1.9634954
56	0x401539c4	2.3316507
57	0x3f2feddf	0.6872234
58	0x3fcc341a	1.59534
59	0x405a5737	3.4115732
60	0x40b3121f	5.595962
61	0x40b95a9e	5.7923117
62	0x3f8d5f26	1.1044662
63	0x406b9e94	3.6815538
64	0x3f6231d6	0.88357294
65	0x3fdbe957	1.7180585
66	0x401b8243	2.4298255
67	0x4066e835	3.6079228
68	0x3fe55615	1.7916895
69	0x3fcf5859	1.6198837
70	0x408971d6	4.295146
71	0x3ffe7811	1.9880391
72	0x40108365	2.2580197
73	0x402e5bc0	2.72435
74	0x3f490fdb	0.7853982
75	0x4003f267	2.06167
76	0x409ea683	4.957826
77	0x40a425f1	5.1296315
78	0x401b8243	2.4298255
79	0x40914c75	4.540583
80	0x406a0c75	3.6570103
81	0x3f55a0d8	0.83448553
82	0x406d30b4	3.7060976
83	0x3fe55615	1.7916895
84	0x40c2c75c	6.086836
85	0x409f6f92	4.9823694
86	0x409c4b53	4.884195
87	0x3f80ce28	1.0062914
88	0x40afeddf	5.497787
89	0x40baecbd	5.8413987
90	0x40864d97	4.1969714
91	0x4096cbe4	4.712389
92	0x3f6231d6	0.88357294
93	0x3f6ec2d4	0.93266034
94	0x3f9d1463	1.2271847
95	0x40b7c87e	5.743224
96	0x40b2490f	5.5714183
97	0x40c1353c	6.0377483
98	0x405be957	3.436117
99	0x3facc9a0	1.3499031

t_f f4 [100, 1]
0	0x3ec48677	0.3838384
1	0x3f51745d	0.8181818
2	0x3f090cee	0.53535354
3	0x3f4c4867	0.7979798
4	0x3e10cede	0.14141414
5	0x3f350296	0.7070707
6	0x3f2fd6a0	0.68686867
7	0x3f471c72	0.7777778
8	0x3f0ba2e9	0.54545456
9	0x3c257eb5	0.01010101
10	0x3f0e38e4	0.5555556
11	0x3f49b26d	0.7878788
12	0x3ede6243	0.43434343
13	0x3ede6243	0.43434343
14	0x3f7ad40a	0.97979796
15	0x3f800000	1.0
16	0x3f2d40a5	0.67676765
17	0x3f0676f3	0.5252525
18	0x3e9b26ca	0.3030303
19	0x3f540a58	0.82828283
20	0x3f7ad40a	0.97979796
21	0x3f22e8ba	0.6363636
22	0x3eafd6a0	0.34343433
23	0x3ea57eb5	0.32323232
24	0x3ef3121a	0.47474748
25	0x3f6b5029	0.9191919
26	0x3f0e38e4	0.5555556
27	0x3f471c72	0.7777778
28	0x3eba2e8c	0.36363637
29	0x3e638e39	0.22222222
30	0x3e90cede	0.28282827
31	0x3f638e39	0.8888889
32	0x3f68ba2f	0.90909094
33	0x3e1b26ca	0.15151516
34	0x3f2052bf	0.6262626
35	0x3d257eb5	0.04040404
36	0x3e1b26ca	0.15151516
37	0x3f60f83e	0.8787879
38	0x3f15fad4	0.5858586
39	0x3e814afd	0.25252524
40	0x3f4c4867	0.7979798
41	0x3ec48677	0.3838384
42	0x3ed9364e	0.42424244
43	0x3c257eb5	0.01010101
44	0x3e783e10	0.24242425
45	0x3f662434	0.8989899
46	0x3eba2e8c	0.36363637
47	0x3f707c1f	0.93939394
48	0x3f41f07c	0.75757575
49	0x3ea052bf	0.3131313
50	0x3d257eb5	0.04040404
51	0x3eafd6a0	0.34343433
52	0x3ee8ba2f	0.45454547
53	0x3f75a815	0.959596
54	0x3f75a815	0.959596
55	0x3ee8ba2f	0.45454547
56	0x3ee8ba2f	0.45454547
57	0x3f4ede62	0.8080808
58	0x3f0676f3	0.5252525
59	0x3f10cede	0.56565654
60	0x3f60f83e	0.8787879
61	0x3f3cc486	0.7373737
62	0x3d257eb5	0.04040404
63	0x3ef3121a	0.47474748
64	0x3f1364d9	0.57575756
65	0x3f10cede	0.56565654
66	0x3f2d40a5	0.67676765
67	0x3f7d6a05	0.989899
68	0x3f2fd6a0	0.68686867
69	0x3e59364e	0.21212122
70	0x3d4ede62	0.05050505
71	0x3e90cede	0.28282827
72	0x3e814afd	0.25252524
73	0x3f4ede62	0.8080808
74	0x3c257eb5	0.01010101
75	0x3ed40a58	0.41414142
76	0x3f783e10	0.969697
77	0x3f7ad40a	0.97979796
78	0x3e95fad4	0.2929293
79	0x3f03e0f8	0.5151515
80	0x3f56a053	0.83838385
81	0x3f73121a	0.94949496
82	0x3ef3121a	0.47474748
83	0x3f1890cf	0.5959596
84	0x3ec9b26d	0.3939394
85	0x3f2fd6a0	0.68686867
86	0x3f59364e	0.8484849
87	0x3ca57eb5	0.02020202
88	0x3f6b5029	0.9191919
89	0x3ef83e10	0.4848485
90	0x3e0676f3	0.13131313
91	0x3f1b26ca	0.6060606
92	0x3e814afd	0.25252524
93	0x3f783e10	0.969697
94	0x3eafd6a0	0.34343433
95	0x3f56a053	0.83838385
96	0x3ef83e10	0.4848485
97	0x3f4c4867	0.7979798
98	0x3f379891	0.7171717
99	0x3e9b26ca	0.3030303

x_bc_lb f4 [100, 1]
0	0x00000000	0.0
1	0x00000000	0.0
2	0x00000000	0.0
3	0x00000000	0.0
4	0x00000000	0.0
5	0x00000000	0.0
6	0x00000000	0.0
7	0x00000000	0.0
8	0x00000000	0.0
9	0x00000000	0.0
10	0x00000000	0.0
11	0x00000000	0.0
12	0x00000000	0.0
13	0x00000000	0.0
14	0x00000000	0.0
15	0x00000000	0.0
16	0x00000000	0.0
17	0x00000000	0.0
18	0x00000000	0.0
19	0x00000000	0.0
20	0x00000000	0.0
21	0x00000000	0.0
22	0x00000000	0.0
23	0x00000000	0.0
24	0x00000000	0.0
25	0x00000000	0.0
26	0x00000000	0.0
27	0x00000000	0.0
28	0x00000000	0.0
29	0x00000000	0.0
30	0x00000000	0.0
31	0x00000000	0.0
32	0x00000000	0.0
33	0x00000000	0.0
34	0x00000000	0.0
35	0x00000000	0.0
36	0x00000000	0.0
37	0x00000000	0.0
38	0x00000000	0.0
39	0x00000000	0.0
40	0x00000000	0.0
41	0x00000000	0.0
42	0x00000000	0.0
43	0x00000000	0.0
44	0x00000000	0.0
45	0x00000000	0.0
46	0x00000000	0.0
47	0x00000000	0.0
48	0x00000000	0.0
49	0x00000000	0.0
50	0x00000000	0.0
51	0x00000000	0.0
52	0x00000000	0.0
53	0x00000000	0.0
54	0x00000000	0.0
55	0x00000000	0.0
56	0x00000000	0.0
57	0x00000000	0.0
58	0x00000000	0.0
59	0x00000000	0.0
60	0x00000000	0.0
61	0x00000000	0.0
62	0x00000000	0.0
63	0x00000000	0.0
64	0x00000000	0.0
65	0x00000000	0.0
66	0x00000000	0.0
67	0x00000000	0.0
68	0x00000000	0.0
69	0x00000000	0.0
70	0x00000000	0.0
71	0x00000000	0.0
72	0x00000000	0.0
73	0x00000000	0.0
74	0x00000000	0.0
75	0x00000000	0.0
76	0x00000000	0.0
77	0x00000000	0.0
78	0x00000000	0.0
79	0x00000000	0.0
80	0x00000000	0.0
81	0x00000000	0.0
82	0x00000000	0.0
83	0x00000000	0.0
84	0x00000000	0.0
85	0x00000000	0.0
86	0x00000000	0.0
87	0x00000000	0.0
88	0x00000000	0.0
89	0x00000000	0.0
90	0x00000000	0.0
91	0x00000000	0.0
92	0x00000000	0.0
93	0x00000000	0.0
94	0x00000000	0.0
95	0x00000000	0.0
96	0x00000000	0.0
97	0x00000000	0.0
98	0x00000000	0.0
99	0x00000000	0.0

t_bc_lb f4 [100, 1]
0	0x00000000	0.0
1	0x3c257eb5	0.01010101
2	0x3ca57eb5	0.02020202
3	0x3cf83e10	0.030303031
4	0x3d257eb5	0.04040404
5	0x3d4ede62	0.05050505
6	0x3d783e10	0.060606062
7	0x3d90cede	0.07070707
8	0x3da57eb5	0.08080808
9	0x3dba2e8c	0.09090909
10	0x3dcede62	0.1010101
11	0x3de38e39	0.11111111
12	0x3df83e10	0.121212125
13	0x3e0676f3	0.13131313
14	0x3e10cede	0.14141414
15	0x3e1b26ca	0.15151516
16	0x3e257eb5	0.16161616
17	0x3e2fd6a0	0.17171717
18	0x3e3a2e8c	0.18181819
19	0x3e448677	0.1919192
20	0x3e4ede62	0.2020202
21	0x3e59364e	0.21212122
22	0x3e638e39	0.22222222
23	0x3e6de624	0.23232323
24	0x3e783e10	0.24242425
25	0x3e814afd	0.25252524
26	0x3e8676f3	0.26262626
27	0x3e8ba2e9	0.27272728
28	0x3e90cede	0.28282827
29	0x3e95fad4	0.2929293
30	0x3e9b26ca	0.3030303
31	0x3ea052bf	0.3131313
32	0x3ea57eb5	0.32323232
33	0x3eaaaaab	0.33333334
34	0x3eafd6a0	0.34343433
35	0x3eb50296	0.35353535
36	0x3eba2e8c	0.36363637
37	0x3ebf5a81	0.37373737
38	0x3ec48677	0.3838384
39	0x3ec9b26d	0.3939394
40	0x3ecede62	0.4040404
41	0x3ed40a58	0.41414142
42	0x3ed9364e	0.42424244
43	0x3ede6243	0.43434343
44	0x3ee38e39	0.44444445
45	0x3ee8ba2f	0.45454547
46	0x3eede624	0.46464646
47	0x3ef3121a	0.47474748
48	0x3ef83e10	0.4848485
49	0x3efd6a05	0.4949495
50	0x3f014afd	0.5050505
51	0x3f03e0f8	0.5151515
52	0x3f0676f3	0.5252525
53	0x3f090cee	0.53535354
54	0x3f0ba2e9	0.54545456
55	0x3f0e38e4	0.5555556
56	0x3f10cede	0.56565654
57	0x3f1364d9	0.57575756
58	0x3f15fad4	0.5858586
59	0x3f1890cf	0.5959596
60	0x3f1b26ca	0.6060606
61	0x3f1dbcc5	0.61616164
62	0x3f2052bf	0.6262626
63	0x3f22e8ba	0.6363636
64	0x3f257eb5	0.64646465
65	0x3f2814b0	0.65656567
66	0x3f2aaaab	0.6666667
67	0x3f2d40a5	0.67676765
68	0x3f2fd6a0	0.68686867
69	0x3f326c9b	0.6969697
70	0x3f350296	0.7070707
71	0x3f379891	0.7171717
72	0x3f3a2e8c	0.72727275
73	0x3f3cc486	0.7373737
74	0x3f3f5a81	0.74747473
75	0x3f41f07c	0.75757575
76	0x3f448677	0.7676768
77	0x3f471c72	0.7777778
78	0x3f49b26d	0.7878788
79	0x3f4c4867	0.7979798
80	0x3f4ede62	0.8080808
81	0x3f51745d	0.8181818
82	0x3f540a58	0.82828283
83	0x3f56a053	0.83838385
84	0x3f59364e	0.8484849
85	0x3f5bcc48	0.85858583
86	0x3f5e6243	0.86868685
87	0x3f60f83e	0.8787879
88	0x3f638e39	0.8888889
89	0x3f662434	0.8989899
90	0x3f68ba2f	0.90909094
91	0x3f6b5029	0.9191919
92	0x3f6de624	0.9292929
93	0x3f707c1f	0.93939394
94	0x3f73121a	0.94949496
95	0x3f75a815	0.959596
96	0x3f783e10	0.969697
97	0x3f7ad40a	0.97979796
98	0x3f7d6a05	0.989899
99	0x3f800000	1.0

x_bc_ub f4 [100, 1]
0	0x40c90fdb	6.2831855
1	0x40c90fdb	6.2831855
2	0x40c90fdb	6.2831855
3	0x40c90fdb	6.2831855
4	0x40c90fdb	6.2831855
5	0x40c90fdb	6.2831855
6	0x40c90fdb	6.2831855
7	0x40c90fdb	6.2831855
8	0x40c90fdb	6.2831855
9	0x40c90fdb	6.2831855
10	0x40c90fdb	6.2831855
11	0x40c90fdb	6.2831855
12	0x40c90fdb	6.2831855
13	0x40c90fdb	6.2831855
14	0x40c90fdb	6.2831855
15	0x40c90fdb	6.2831855
16	0x40c90fdb	6.2831855
17	0x40c90fdb	6.2831855
18	0x40c90fdb	6.2831855
19	0x40c90fdb	6.2831855
20	0x40c90fdb	6.2831855
21	0x40c90fdb	6.2831855
22	0x40c90fdb	6.2831855
23	0x40c90fdb	6.2831855
24	0x40c90fdb	6.2831855
25	0x40c90fdb	6.2831855
26	0x40c90fdb	6.2831855
27	0x40c90fdb	6.2831855
28	0x40c90fdb	6.2831855
29	0x40c90fdb	6.2831855
30	0x40c90fdb	6.2831855
31	0x40c90fdb	6.2831855
32	0x40c90fdb	6.2831855
33	0x40c90fdb	6.2831855
34	0x40c90fdb	6.2831855
35	0x40c90fdb	6.2831855
36	0x40c90fdb	6.2831855
37	0x40c90fdb	6.2831855
38	0x40c90fdb	6.2831855
39	0x40c90fdb	6.2831855
40	0x40c90fdb	6.2831855
41	0x40c90fdb	6.2831855
42	0x40c90fdb	6.2831855
43	0x40c90fdb	6.2831855
44	0x40c90fdb	6.2831855
45	0x40c90fdb	6.2831855
46	0x40c90fdb	6.2831855
47	0x40c90fdb	6.2831855
48	0x40c90fdb	6.2831855
49	0x40c90fdb	6.2831855
50	0x40c90fdb	6.2831855
51	0x40c90fdb	6.2831855
52	0x40c90fdb	6.2831855
53	0x40c90fdb	6.2831855
54	0x40c90fdb	6.2831855
55	0x40c90fdb	6.2831855
56	0x40c90fdb	6.2831855
57	0x40c90fdb	6.2831855
58	0x40c90fdb	6.2831855
59	0x40c90fdb	6.2831855
60	0x40c90fdb	6.2831855
61	0x40c90fdb	6.2831855
62	0x40c90fdb	6.2831855
63	0x40c90fdb	6.2831855
64	0x40c90fdb	6.2831855
65	0x40c90fdb	6.2831855
66	0x40c90fdb	6.2831855
67	0x40c90fdb	6.2831855
68	0x40c90fdb	6.2831855
69	0x40c90fdb	6.2831855
70	0x40c90fdb	6.2831855
71	0x40c90fdb	6.2831855
72	0x40c90fdb	6.2831855
73	0x40c90fdb	6.2831855
74	0x40c90fdb	6.2831855
75	0x40c90fdb	6.2831855
76	0x40c90fdb	6.2831855
77	0x40c90fdb	6.2831855
78	0x40c90fdb	6.2831855
79	0x40c90fdb	6.2831855
80	0x40c90fdb	6.2831855
81	0x40c90fdb	6.2831855
82	0x40c90fdb	6.2831855
83	0x40c90fdb	6.2831855
84	0x40c90fdb	6.2831855
85	0x40c90fdb	6.2831855
86	0x40c90fdb	6.2831855
87	0x40c90fdb	6.2831855
88	0x40c90fdb	6.2831855
89	0x40c90fdb	6.2831855
90	0x40c90fdb	6.2831855
91	0x40c90fdb	6.2831855
92	0x40c90fdb	6.2831855
93	0x40c90fdb	6.2831855
94	0x40c90fdb	6.2831855
95	0x40c90fdb	6.2831855
96	0x40c90fdb	6.2831855
97	0x40c90fdb	6.2831855
98	0x40c90fdb	6.2831855
99	0x40c90fdb	6.2831855

t_bc_ub f4 [100, 1]
0	0x00000000	0.0
1	0x3c257eb5	0.01010101
2	0x3ca57eb5	0.02020202
3	0x3cf83e10	0.030303031
4	0x3d257eb5	0.04040404
5	0x3d4ede62	0.05050505
6	0x3d783e10	0.060606062
7	0x3d90cede	0.07070707
8	0x3da57eb5	0.08080808
9	0x3dba2e8c	0.09090909
10	0x3dcede62	0.1010101
11	0x3de38e39	0.11111111
12	0x3df83e10	0.121212125
13	0x3e0676f3	0.13131313
14	0x3e10cede	0.14141414
15	0x3e1b26ca	0.15151516
16	0x3e257eb5	0.16161616
17	0x3e2fd6a0	0.17171717
18	0x3e3a2e8c	0.18181819
19	0x3e448677	0.1919192
20	0x3e4ede62	0.2020202
21	0x3e59364e	0.21212122
22	0x3e638e39	0.22222222
23	0x3e6de624	0.23232323
24	0x3e783e10	0.24242425
25	0x3e814afd	0.25252524
26	0x3e8676f3	0.26262626
27	0x3e8ba2e9	0.27272728
28	0x3e90cede	0.28282827
29	0x3e95fad4	0.2929293
30	0x3e9b26ca	0.3030303
31	0x3ea052bf	0.3131313
32	0x3ea57eb5	0.32323232
33	0x3eaaaaab	0.33333334
34	0x3eafd6a0	0.34343433
35	0x3eb50296	0.35353535
36	0x3eba2e8c	0.36363637
37	0x3ebf5a81	0.37373737
38	0x3ec48677	0.3838384
39	0x3ec9b26d	0.3939394
40	0x3ecede62	0.4040404
41	0x3ed40a58	0.41414142
42	0x3ed9364e	0.42424244
43	0x3ede6243	0.43434343
44	0x3ee38e39	0.44444445
45	0x3ee8ba2f	0.45454547
46	0x3eede624	0.46464646
47	0x3ef3121a	0.47474748
48	0x3ef83e10	0.4848485
49	0x3efd6a05	0.4949495
50	0x3f014afd	0.5050505
51	0x3f03e0f8	0.5151515
52	0x3f0676f3	0.5252525
53	0x3f090cee	0.53535354
54	0x3f0ba2e9	0.54545456
55	0x3f0e38e4	0.5555556
56	0x3f10cede	0.56565654
57	0x3f1364d9	0.57575756
58	0x3f15fad4	0.5858586
59	0x3f1890cf	0.5959596
60	0x3f1b26ca	0.6060606
61	0x3f1dbcc5	0.61616164
62	0x3f2052bf	0.6262626
63	0x3f22e8ba	0.6363636
64	0x3f257eb5	0.64646465
65	0x3f2814b0	0.65656567
66	0x3f2aaaab	0.6666667
67	0x3f2d40a5	0.67676765
68	0x3f2fd6a0	0.68686867
69	0x3f326c9b	0.6969697
70	0x3f350296	0.7070707
71	0x3f379891	0.7171717
72	0x3f3a2e8c	0.72727275
73	0x3f3cc486	0.7373737
74	0x3f3f5a81	0.74747473
75	0x3f41f07c	0.75757575
76	0x3f448677	0.7676768
77	0x3f471c72	0.7777778
78	0x3f49b26d	0.7878788
79	0x3f4c4867	0.7979798
80	0x3f4ede62	0.8080808
81	0x3f51745d	0.8181818
82	0x3f540a58	0.82828283
83	0x3f56a053	0.83838385
84	0x3f59364e	0.8484849
85	0x3f5bcc48	0.85858583
86	0x3f5e6243	0.86868685
87	0x3f60f83e	0.8787879
88	0x3f638e39	0.8888889
89	0x3f662434	0.8989899
90	0x3f68ba2f	0.90909094
91	0x3f6b5029	0.9191919
92	0x3f6de624	0.9292929
93	0x3f707c1f	0.93939394
94	0x3f73121a	0.94949496
95	0x3f75a815	0.959596
96	0x3f783e10	0.969697
97	0x3f7ad40a	0.97979796
98	0x3f7d6a05	0.989899
99	0x3f800000	1.0

weight f4 [50, 2]
0	0x3c54271c	0.0129487775
1	0x39b5b259	0.0003465589
2	0x3c08bdad	0.0083460035
3	0x3b22bc64	0.0024831528
4	0x3ea5bda6	0.32371253
5	0xbd3eeb25	-0.04661097
6	0xb8f4f38b	-0.0001168019
7	0x3bf20618	0.0073859803
8	0xbc3d1abd	-0.011542019
9	0x3a16be29	0.0005750382
10	0xbd683f0e	-0.05670076
11	0x3cbae625	0.02281482
12	0x3b2ff3f3	0.0026848286
13	0x3b47306f	0.003039386
14	0xbda48f7a	-0.080351785
15	0xbddf1f6c	-0.10894665
16	0x3d156b7e	0.036479466
17	0xb96f63fa	-0.0002283006
18	0x3ce11783	0.027477032
19	0xbdfad750	-0.12248099
20	0xbe99ee90	-0.3006482
21	0xbb02d773	-0.0019964844
22	0x3e6bf467	0.23042451
23	0xbb369822	-0.0027861674
24	0xbdfab95f	-0.12242388
25	0xbe86b8b9	-0.26312807
26	0xbd118f43	-0.035537016
27	0x3bc96ffb	0.0061473823
28	0x3bd442d9	0.0064776954
29	0x3c99073e	0.018680211
30	0xbbdc9dd7	-0.006732683
31	0x3a18fd4a	0.0005836083
32	0xbd555dcb	-0.0520914
33	0xbdb9585f	-0.090500586
34	0xbe484dd5	-0.1956094
35	0x3c53a0cb	0.012916754
36	0xba470cf5	-0.00075931783
37	0x3d85365e	0.0650451
38	0xbe18e9f9	-0.14933003
39	0x3d09da00	0.033655167
40	0x3d669cd8	0.05630192
41	0xbb9a1e06	-0.004703286
42	0x3c38bdda	0.011275733
43	0xbbb2bec6	-0.005454871
44	0x3c0630f0	0.008190379
45	0x39ef59f8	0.00045652664
46	0x38760b77	5.8661648e-05
47	0xbd9345ac	-0.07191023
48	0xbb6921a9	-0.0035573042
49	0x3b84c458	0.0040517263
50	0x3e826c6f	0.25473353
51	0xbd2f251f	-0.04276001
52	0xbd293cfe	-0.041317932
53	0x3df3adea	0.11898406
54	0xbb57a89c	-0.0032906896
55	0x3cef980c	0.029247306
56	0x3e365847	0.17807113
57	0x398cfc69	0.0002689094
58	0x3b86e9be	0.0041172197
59	0xba92c4b2	-0.0011197536
60	0xbc2d81e1	-0.010590048
61	0x3d80279c	0.06257555
62	0xbe02660b	-0.12734239
63	0x3931c7f8	0.0001695453
64	0x3d92b773	0.071638964
65	0x39a20af2	0.00030907203
66	0xbe3ef2e2	-0.1864734
67	0xbd8d3416	-0.068947
68	0x3bb5f830	0.005553268
69	0xbdb968a1	-0.090531595
70	0xbe75d0db	-0.24005453
71	0xbcb07bdd	-0.021543438
72	0xbcc28c01	-0.0237484
73	0xbd8a8502	-0.067636505
74	0x3cf336ad	0.029689157
75	0x38e645d0	0.00010980258
76	0xb9f2c8b7	-0.0004630738
77	0x3a4f27fa	0.00079023803
78	0xbd88b878	-0.066758096
79	0x39cd17c3	0.0003911835
80	0xbd11d267	-0.035601046
81	0xb9be7469	-0.00036326356
82	0x3c7174af	0.014737292
83	0x3b45223c	0.003008022
84	0x3d193b6a	0.037410177
85	0xbd70cba6	-0.058787964
86	0x3e9104ea	0.28324062
87	0x3a2a95d9	0.00065073144
88	0x3cbcdc68	0.023054317
89	0x3dfedec4	0.12444833
90	0xbca40ecf	-0.020026593
91	0xbebafdaa	-0.36521655
92	0xbb9d4aaf	-0.0048001627
93	0xbd9bdf74	-0.0761098
94	0x3d9a8d9b	0.0754654
95	0xbe57da68	-0.21079409
96	0xbcefc7aa	-0.029270012
97	0xbdd02ade	-0.10164426
98	0x3db13ed5	0.086545624
99	0xbd047cb8	-0.032345504

bias f4 [50]
0	0x3969cba9	0.00022296481
1	0x3916d114	0.00014383002
2	0xbb48d844	-0.0030646482
3	0xb8903c7a	-6.87772e-05
4	0x39f9cf45	0.0004764741
5	0x3a134c53	0.0005618978
6	0xb9bc669b	-0.000359346
7	0x3a82e63c	0.0009986828
8	0xb96b129a	-0.00022418276
9	0xb9f76797	-0.00047188692
10	0x3b322430	0.0027182214
11	0xbb7f680f	-0.0038971936
12	0xb9eff4dc	-0.00045768067
13	0xba43d705	-0.00074707
14	0x3982e0a4	0.00024962903
15	0x39a1cc75	0.00030860645
16	0x3a939e0f	0.0011262315
17	0x3b75f101	0.0037527683
18	0xba03c605	-0.00050267606
19	0x3a1d2a7f	0.0005995407
20	0xb9522969	-0.00020042587
21	0xb8f91344	-0.00011876834
22	0x3a0a8687	0.00052843284
23	0x39db6e4e	0.00041853118
24	0x3a5af25b	0.0008352154
25	0xbb8c8d11	-0.0042892774
26	0x3a9749f6	0.0011542428
27	0xb91095d7	-0.0001378873
28	0xba1b7caf	-0.000593136
29	0x3904f031	0.00012677979
30	0xb8cc3e37	-9.7390664e-05
31	0xbb23af31	-0.0024976248
32	0x3a0692da	0.0005133577
33	0x39ae02b6	0.00033189886
34	0xb9aa820a	-0.00032521813
35	0x394b8db3	0.00019412376
36	0x386fa624	5.713677e-05
37	0xb8a2750e	-7.746565e-05
38	0x3a42a3f9	0.00074249465
39	0x3a6e1881	0.0009082631
40	0xb9fb5454	-0.0004793728
41	0x398b2ae8	0.00026544114
42	0x3798d8cf	1.8220771e-05
43	0xbaa4c389	-0.0012570481
44	0x37fecfe3	3.0375964e-05
45	0x38cdb281	9.808411e-05
46	0xba18fb18	-0.0005835756
47	0x3a21a9e0	0.0006166976
48	0x3936e416	0.00017441841
49	0xb9a36e53	-0.0003117198

weight f4 [50, 50]
0	0x3d4882b7	0.048952784
1	0xb9fbdc7e	-0.0004803873
2	0xbe5c42c9	-0.21509852
3	0x3c21eea8	0.00988356
4	0xb9c71230	-0.00037969789
5	0x38d587a5	0.00010181897
6	0xbd254233	-0.040346336
7	0x3a8d2a6b	0.0010770088
8	0x3c552c9f	0.013011127
9	0x3c280103	0.010254147
10	0x3bb4d551	0.0055185934
11	0xbde93df0	-0.11388767
12	0xbdcc6719	-0.09980602
13	0xbc2c54c3	-0.010518256
14	0x3dc632aa	0.09677632
15	0xba6d86a6	-0.00090608967
16	0xbe0cac45	-0.1373759
17	0x3a17248d	0.00057656394
18	0x3d0eeff0	0.03489679
19	0xbd8decee	-0.069299564
20	0xb98acc9c	-0.00026473857
21	0x3a0867e1	0.00052034674
22	0x3d2a7608	0.04161647
23	0x3d198697	0.03748187
24	0x3e16e2a0	0.14734888
25	0x39d73c98	0.00041053141
26	0x3e338abb	0.1753339
27	0x38b8ad76	8.806113e-05
28	0x3dadbd57	0.08483379
29	0xbda67bd4	-0.08129087
30	0x3d8f9825	0.07011441
31	0xba9ccfed	-0.0011963822
32	0xba06a7a3	-0.0005136674
33	0xbdcc0285	-0.09961418
34	0x3cf85e32	0.030318353
35	0x3a2ac327	0.00065140653
36	0x3d9cb6d0	0.07652056
37	0xb96d764e	-0.00022646153
38	0xb840119c	-4.5792767e-05
39	0x3a5e5c6f	0.00084824016
40	0x3987eb8a	0.00025924697
41	0xbdb93715	-0.09043709
42	0xbc13f487	-0.009030468
43	0xb93e6f1a	-0.000181612
44	0x380b737c	3.3247736e-05
45	0x3ab5ba1d	0.001386467
46	0xb90606b7	-0.00012781737
47	0xbd10e2d2	-0.035372563
48	0x39b0c891	0.0003371877
49	0xbbc12a49	-0.0058949334
50	0xbcbb9d85	-0.02290226
51	0xbc944378	-0.018098578
52	0xbb06c85e	-0.0020566205
53	0xbb79147a	-0.003800659
54	0x382aad17	4.069236e-05
55	0x36f8e8b0	7.4180643e-06
56	0x3bc458a1	0.0059920107
57	0x388419ca	6.299054e-05
58	0xb8a39bd8	-7.801474e-05
59	0x3d75e002	0.060028084
60	0xbd199347	-0.03749397
61	0xbe4ad164	-0.19806439
62	0x3dab2d85	0.083582915
63	0x390280b8	0.00012445718
64	0xbbac0bc7	-0.0052504274
65	0x3ca00895	0.019535342
66	0x38c40904	9.3476876e-05
67	0x3dc826ea	0.09773047
68	0xbd5956f2	-0.053061433
69	0x394bc666	0.00019433498
70	0xb8b89e1f	-8.803256e-05
71	0x3d05c4a3	0.03265823
72	0xbd77020d	-0.06030469
73	0x3d401641	0.046896223
74	0x3d1bbb48	0.038020402
75	0x3a09223a	0.00052312354
76	0xbc9ddb42	-0.01926959
77	0x38077b81	3.230153e-05
78	0xb939960e	-0.00017698875
79	0x3b9a1d94	0.004703233
80	0x38ad1c02	8.2545e-05
81	0x391ad154	0.00014764565
82	0xb91bbdd6	-0.00014852671
83	0xbe0a8f34	-0.1353119
84	0xbda14ed1	-0.07876361
85	0xbd254c30	-0.04035586
86	0xbc5644fc	-0.013077971
87	0xbcb746b7	-0.022372587
88	0xbe237981	-0.15964319
89	0xbcabd421	-0.020975174
90	0x38b1a29c	8.470306e-05
91	0xb82f23ec	-4.1756706e-05
92	0xbddba972	-0.107256785
93	0xba5cf996	-0.0008429525
94	0xba969cd4	-0.001149083
95	0xbca8acc5	-0.020590195
96	0x3d96c3d1	0.07361568
97	0xbdcc24f7	-0.09967988
98	0x3be4314a	0.0069638835
99	0x3dd2a3f3	0.10285177
100	0xbbdf65e4	-0.006817566
101	0x37e2d732	2.7041508e-05
102	0xbb8dfc5e	-0.004333063
103	0xb728049a	-1.0014652e-05
104	0xb84c81a5	-4.875813e-05
105	0x39c4b575	0.0003751923
106	0x36ef672a	7.134765e-06
107	0x3da723d0	0.081611276
108	0xbb04860d	-0.0020221502
109	0x39b20f68	0.00033962284
110	0xbe0a0732	-0.13479307
111	0xbb388eee	-0.0028161365
112	0x3c52082a	0.012819329
113	0xb8e2c190	-0.000108125736
114	0x3b070cba	0.002060695
115	0x38526e45	5.0170598e-05
116	0xbcb1b8fc	-0.021694653
117	0x3c1c13a3	0.009526166
118	0x3d614cb5	0.055004794
119	0x3972483a	0.00023105825
120	0x3be8a978	0.0071002804
121	0x385c18e9	5.2475287e-05
122	0x37cd3e66	2.446696e-05
123	0xba6a7906	-0.00089444255
124	0xb7a356e4	-1.9471576e-05
125	0xba5c5968	-0.00084056566
126	0xbd123a49	-0.035700116
127	0x3d81615c	0.06317398
128	0x3e1a5cb0	0.1507442
129	0xb629828e	-2.5258955e-06
130	0xb8e0284e	-0.0001068866
131	0xbd79c78e	-0.060981326
132	0x39ef08e8	0.00045592268
133	0x3a10a5b4	0.0005517856
134	0x39361cc3	0.00017367587
135	0x3bd666fd	0.006543039
136	0x3bcf94e4	0.006334888
137	0x38d2e4ec	0.0001005622
138	0xb63e76bd	-2.838132e-06
139	0x3d971f16	0.07378976
140	0xbc0509f8	-0.0081200525
141	0x39b83db9	0.00035141202
142	0xba367f89	-0.0006961753
143	0xba8c7e1c	-0.0010718736
144	0x3b89e9e7	0.0042087915
145	0x3cec9a9b	0.028882315
146	0x385d2bc6	5.2731273e-05
147	0xbe4f96a4	-0.20272309
148	0x37b77d3d	2.1873619e-05
149	0x3d34cf52	0.04414303
150	0xbdc4d457	-0.09610813
151	0xb6aea06e	-5.2042806e-06
152	0x3c9a4c63	0.018835252
153	0x35810ec4	9.615546e-07
154	0x36e231dc	6.7411293e-06
155	0x3cbaf58b	0.022822162
156	0x3e2850c1	0.16437055
157	0x37c9bda6	2.404938e-05
158	0xbccce304	-0.025010593
159	0x37980065	1.8119996e-05
160	0xbc4f1318	-0.01263883
161	0x3a004d86	0.00048943644
162	0x3cb69a6a	0.022290427
163	0x37b78b16	2.1880067e-05
164	0xb5a78c25	-1.2483257e-06
165	0x3c66edbc	0.014094766
166	0x372bad15	1.0232693e-05
167	0xb9bcc7ef	-0.00036007116
168	0xbd2091e6	-0.03920164
169	0x3ce1657e	0.027514216
170	0xbd750620	-0.059820294
171	0x3d62816b	0.055299204
172	0xb6111cae	-2.1623378e-06
173	0x3dde90a1	0.108674295
174	0x3dff6b86	0.1247168
175	0xbbaa2236	-0.0051920665
176	0x3a0d8b66	0.0005399495
177	0x3c546ef2	0.012965905
178	0x3c5523de	0.01300904
179	0x3d86d06d	0.06582723
180	0x37504c15	1.241548e-05
181	0x3c004e88	0.007831223
182	0xbd6599f8	-0.05605504
183	0xbd863d1f	-0.06554627
184	0xbd92e8d5	-0.071733154
185	0xb9fbeae6	-0.00048049464
186	0xbdfb6fd9	-0.122771926
187	0xb58463bd	-9.863794e-07
188	0x3dcbe56b	0.099558674
189	0x3a50b813	0.00079619995
190	0xbbbf0f81	-0.0058307056
191	0xb6cee074	-6.165408e-06
192	0xbd0f818f	-0.035035666
193	0x3ab7c7be	0.001402132
194	0x3d0c5aa6	0.034266137
195	0xbd328158	-0.043580383
196	0xb7225749	-9.676275e-06
197	0x3bc2dc27	0.0059466544
198	0xbc524b7d	-0.012835381
199	0x3ce4a67d	0.027911419
200	0xb69b52fc	-4.6290206e-06
201	0xb83a2c30	-4.438701e-05
202	0x3bec75ac	0.007216176
203	0x37873191	1.6116335e-05
204	0x3dff9a48	0.12480599
205	0xbd9ca767	-0.07649117
206	0x3cd52421	0.026018204
207	0x3dea499b	0.114398204
208	0xb6f5b257	-7.3223305e-06
209	0xbd2e4a32	-0.042551227
210	0x3e0f7d3b	0.14012615
211	0xbdea23f1	-0.114326365
212	0x38f1a8ce	0.00011523218
213	0xbabb8960	-0.0014307909
214	0xb74967a2	-1.20046625e-05
215	0xb83add30	-4.4551853e-05
216	0xbcd5a292	-0.026078496
217	0x3c001374	0.007817138
218	0xbad03e0d	-0.0015887633
219	0xbbac0734	-0.005249882
220	0xba093d77	-0.0005235294
221	0x3a952583	0.0011378977
222	0xbc6c1784	-0.014409903
223	0xbd0e4826	-0.034736775
224	0x3c94d939	0.018169986
225	0x3b8344c6	0.004006001
226	0xbc1d69a3	-0.009607705
227	0x3cfbc86f	0.030735223
228	0x3a3b35c2	0.00071414944
229	0x3ca4859f	0.020083247
230	0x39571632	0.00020512266
231	0xbd858eb2	-0.065213576
232	0xbcdd336f	-0.027002065
233	0x3d602e75	0.054731805
234	0xbd97f617	-0.07419985
235	0x3cfb04dc	0.030641966
236	0xbb122377	-0.002229897
237	0xb90d450e	-0.00013472533
238	0x3b45f99f	0.00302086
239	0x35e5ac50	1.7111979e-06
240	0xbbc6432b	-0.0060504875
241	0xbdf7729d	-0.120824076
242	0xba0ff99b	-0.0005492211
243	0x3cae77bc	0.021297328
244	0xbd849dea	-0.06475432
245	0x3c8a4706	0.01687957
246	0xb8c934cc	-9.594261e-05
247	0x3ba5e2bc	0.0050624292
248	0x3c7074a1	0.014676244
249	0xb8067ef5	-3.2066328e-05
250	0xbc7c4dff	-0.015399455
251	0xbd48058b	-0.04883341
252	0xbd169d2f	-0.036770996
253	0x3d4bc910	0.049752295
254	0x3891f877	6.960419e-05
255	0x39991483	0.00029197717

bias f4 [50]
0	0x3aa53879	0.0012605331
1	0x3a43012c	0.0007438834
2	0xba338b1d	-0.00068490376
3	0x397fe1ef	0.00024402862
4	0x3acb1ac0	0.0015495643
5	0x3a4e7a1a	0.0007876471
6	0xbaece806	-0.001807452
7	0x3b5ac87b	0.0033383656
8	0xba91139e	-0.0011068468
9	0x39c45fc7	0.00037455393
10	0xbae7dcd0	-0.0017689709
11	0x395f274f	0.00021281581
12	0x3ad781c4	0.0016441871
13	0xb9eea0ac	-0.00045514607
14	0xb94d495d	-0.00019577653
15	0xba6c6711	-0.00090180436
16	0x3ac2df75	0.0014867621
17	0x3b01be63	0.0019797317
18	0x3ad2efe1	0.0016093218
19	0x3a3f9c6f	0.0007309382
20	0x3ae3b6eb	0.0017373239
21	0xbaa4ff6e	-0.0012588331
22	0xba526bfa	-0.0008026954
23	0x3a1828ee	0.0005804439
24	0x39ae04c9	0.0003319143
25	0x3a067764	0.0005129485
26	0xb9f03fda	-0.0004582394
27	0xba57336b	-0.0008209261
28	0x3ae5230b	0.0017481757
29	0xbaac8acc	-0.0013163923
30	0x39c3635e	0.00037267333
31	0xba836fe8	-0.0010027857
32	0xbb0dffc5	-0.0021667343
33	0x3a0e797d	0.0005434973
34	0xba319cf4	-0.0006775402
35	0xb9f3f1a2	-0.00046528602
36	0x37ff44b1	3.0430356e-05
37	0xba9c45d5	-0.0011922667
38	0x3a0530aa	0.0005080799
39	0x3a38dddf	0.00070521043
40	0xba5102b2	-0.0007973119
41	0x39999bf9	0.00029298643
42	0xb9a22ebb	-0.00030933865
43	0xb980154b	-0.00024429927
44	0xb901fd7e	-0.00012396832
45	0x373c3268	1.1217409e-05
46	0xba9db0dd	-0.0012030859
47	0xb9dcc888	-0.00042111077
48	0xba3c5859	-0.00071847957
49	0x3a99c3c2	0.0011731314

weight f4 [50, 50]
0	0xbe418524	-0.18898445
1	0x3c00497d	0.007830021
2	0xbc111c2c	-0.008856814
3	0xbb1ad94c	-0.0023628054
4	0xbb7b373f	-0.003833249
5	0x3e2ed94c	0.1707508
6	0x3c54017d	0.012939808
7	0xb751e29f	-1.2510135e-05
8	0xbd1ac15c	-0.037782058
9	0xbdca94d0	-0.09891665
10	0x3e37c984	0.17947966
11	0xbdd8f70f	-0.10593998
12	0xb82e2b52	-4.1525178e-05
13	0x3dc48f67	0.09597664
14	0xbbd9a93b	-0.0066424883
15	0x3e5eb442	0.2174845
16	0xbb0d038a	-0.0021517002
17	0xbe0965a7	-0.13417684
18	0xb8f1bee6	-0.00011527333
19	0x3d529a26	0.05141654
20	0x3c4fe90b	0.012689839
21	0xbbd58590	-0.006516166
22	0x38473cd3	4.7501944e-05
23	0x37b9fd6b	2.2171726e-05
24	0x381d7abc	3.7546022e-05
25	0x3d05e516	0.032689176
26	0x389dc3b7	7.522798e-05
27	0xbca154f7	-0.019693835
28	0x3e1c49dc	0.1526255
29	0x3c30b7bc	0.010785993
30	0xb6646d90	-3.4038421e-06
31	0x3777ef12	1.477801e-05
32	0x3e026a1a	0.12735787
33	0xba6429a0	-0.00087037124
34	0xbc5d93ed	-0.013524038
35	0xbad1e6b5	-0.0016014191
36	0xb8906adc	-6.886359e-05
37	0x3bc30b72	0.005952292
38	0x3d34f245	0.04417636
39	0x3e203de6	0.15648612
40	0x3c3e600d	0.01161958
41	0x3be59425	0.0070061856
42	0x3c9e84a9	0.019350367
43	0xbccafeed	-0.024779761
44	0xb8111e62	-3.459899e-05
45	0x3e88a7b5	0.2669045
46	0xbc0cd4e8	-0.008595683
47	0xbdd30922	-0.10304476
48	0xbe5ce847	-0.21572982
49	0x3a533648	0.00080571
50	0xbdccaa50	-0.09993422
51	0x399d74d7	0.00030032426
52	0xbc4a816a	-0.012359956
53	0x38e21ad7	0.00010781519
54	0x38af93fb	8.372214e-05
55	0x3c47656f	0.01217018
56	0xbe47bb87	-0.1950513
57	0x3dea7efa	0.1145
58	0x3c8b3faf	0.01699814
59	0x3b80217e	0.0039102426
60	0x3c80d53e	0.015726682
61	0x3c9a4243	0.018830424
62	0x3d4768cb	0.048683923
63	0x3d00e528	0.03146854
64	0xbb6cbb03	-0.003612221
65	0x3c54bbfd	0.012984273
66	0x39f8e6db	0.00047474247
67	0x39cc0468	0.00038913195
68	0x3cfee3e7	0.031114532
69	0x3acb5f4e	0.0015516074
70	0x3e139efd	0.14416118
71	0xbd475b54	-0.04867108
72	0xb98885b1	-0.0002603955
73	0xbc1b5c07	-0.00948239
74	0xb8ffb9d3	-0.0001219396
75	0xba24a8c6	-0.0006281253
76	0xbdec6a76	-0.11543743
77	0x3a7269dc	0.00092473417
78	0xb77832f0	-1.4793812e-05
79	0x3983374e	0.00025027472
80	0xbcc0ca6a	-0.023534019
81	0xb91c9ef3	-0.00014936533
82	0xbb0ef876	-0.0021815575
83	0x3cc30800	0.023807526
84	0x3d6832ed	0.05668919
85	0xba4b9b13	-0.00077669433
86	0x3b8c1595	0.0042750337
87	0xb81ed51b	-3.7868605e-05
88	0xb84cdc72	-4.8842696e-05
89	0xba5d15de	-0.00084337394
90	0xbe0bf8fc	-0.13669199
91	0xbb0a44e0	-0.0021098182
92	0x3d9db6cc	0.07700881
93	0xba7b6da3	-0.0009591227
94	0xbafcf9d6	-0.0019300531
95	0x3da8e077	0.08245938
96	0xb9d00e14	-0.0003968334
97	0xbe0b636b	-0.13612144
98	0x39a6cbbd	0.00031813784
99	0x3ab8d26c	0.0014100797
100	0x36fce97a	7.5373655e-06
101	0x3d466964	0.048440352
102	0xb7918009	-1.7344968e-05
103	0x376eea30	1.42404315e-05
104	0xbb18d2a7	-0.0023318918
105	0xbe53d429	-0.20686401
106	0x3748619c	1.1943655e-05
107	0x378a3bdd	1.6478758e-05
108	0xb724484f	-9.791997e-06
109	0x3c111c6c	0.008856874
110	0x3d83d53d	0.06437156
111	0x37abcc57	2.0479942e-05
112	0x3da9afe1	0.08285499
113	0x3804f940	3.1703385e-05
114	0x3c7674b0	0.015042469
115	0x3d125102	0.035721786
116	0x3823d8fe	3.9064318e-05
117	0x3bf5c0c4	0.007499786
118	0x385160a0	4.9919472e-05
119	0x3c4ac630	0.012376353
120	0x3c4bb0f3	0.012432325
121	0x3cec9362	0.028878871
122	0xb7a77805	-1.996384e-05
123	0x3e224911	0.15848185
124	0xbd70eb6b	-0.058818262
125	0xbd0d43d4	-0.034488514
126	0xbb79cea5	-0.0038117555
127	0xba7df4e3	-0.0009687675
128	0xbded2d40	-0.115808964
129	0x3c22f1aa	0.0099453125
130	0xbd28df72	-0.04122872
131	0x3b466b24	0.0030276263
132	0xb85f97e4	-5.3308802e-05
133	0xbcc2173e	-0.023692723
134	0xbccdd2bb	-0.025124898
135	0xb6992a59	-4.5646852e-06
136	0x3dae1a4d	0.0850111
137	0xbdb68ce6	-0.08913593
138	0xb52874e6	-6.2754987e-07
139	0xbc15b3ec	-0.009137135
140	0xb7786a8a	-1.48067575e-05
141	0xbd94e8ac	-0.07270941
142	0x37940d18	1.7649072e-05
143	0xbd7c6454	-0.061619118
144	0x37d11ad3	2.4927233e-05
145	0xbdb58519	-0.08863277
146	0x3e23ff99	0.16015472
147	0xbd70d4b6	-0.058796607
148	0x3d0dc922	0.034615643
149	0xbd0e3cb7	-0.03472587
150	0xbe334acf	-0.17509006
151	0x3d7855cf	0.06062871
152	0x3b53b415	0.0032303382
153	0x3d61c516	0.055119596
154	0xb90d760f	-0.00013490788
155	0xb8968705	-7.177707e-05
156	0xb9e9bb38	-0.00044580712
157	0xbcbcba68	-0.023038104
158	0xbc97cf3e	-0.018531438
159	0xb97c6549	-0.00024070324
160	0xba1dafeb	-0.00060152885
161	0xbce04a33	-0.027379131
162	0x3cb1a661	0.021685781
163	0xbc634f3c	-0.013873871
164	0xbaa6ba4a	-0.0012720313
165	0x3c4681ff	0.012115954
166	0x396d7a8b	0.00022647732
167	0x3d0ab86d	0.03386729
168	0xbcb3f4d6	-0.021967333
169	0xbc4f3e2d	-0.012649101
170	0xbc7b5e65	-0.01534233
171	0xb887afda	-6.4700565e-05
172	0xbb856b5d	-0.0040716366
173	0x3a343f9f	0.00068759354
174	0xbbe29bc3	-0.006915541
175	0xbc7d4aee	-0.015459759
176	0x3c5bb9c1	0.013410986
177	0xbbe3706c	-0.006940892
178	0x38cef53d	9.868525e-05
179	0xb9a6dc82	-0.00031826278
180	0xb80bee80	-3.3362303e-05
181	0xbe03d559	-0.12874354
182	0x3b497fe6	0.00307464
183	0x3e10ba1e	0.14133498
184	0xbd87b41d	-0.06626151
185	0x3914520a	0.00014144942
186	0xbd494fa3	-0.049148213
187	0x3a06cc0e	0.0005142101
188	0xb7769d7c	-1.469941e-05
189	0x3cd3de65	0.025862882
190	0x3dcae4f9	0.09906954
191	0xb8cec6a8	-9.859848e-05
192	0xb9489f46	-0.0001913282
193	0xbe4e98de	-0.20175502
194	0xb89c7a34	-7.461422e-05
195	0xbd702402	-0.05862809
196	0x3d75e061	0.060028438
197	0xba020eb7	-0.0004961299
198	0x38d8ea7e	0.0001034336
199	0xbdaf8219	-0.08569736
200	0xb91080b2	-0.00013780853
201	0xbced5b39	-0.028974162
202	0xbcc238ba	-0.02370869
203	0x3811d440	3.4768367e-05
204	0xbe1427e1	-0.14468338
205	0x3c395524	0.011311803
206	0xbc6ccdee	-0.014453394
207	0xb9832319	-0.00025012417
208	0xb8906684	-6.88555e-05
209	0x3c33b5c6	0.010968631
210	0xbd3fa0d6	-0.046784244
211	0xbae6c791	-0.0017607083
212	0xbd93c1f0	-0.07214725
213	0x3bdecf4f	0.0067996155
214	0x399c16c1	0.00029771592
215	0xb8ffdd4c	-0.00012200567
216	0x3a32900d	0.00068116264
217	0xbc17bbe2	-0.009261103
218	0x3cf9f5a3	0.030512637
219	0xb91efcdd	-0.00015162253
220	0x3df97e56	0.121823
221	0xb828f2b0	-4.028034e-05
222	0xbdd533db	-0.10410281
223	0x3d6636ec	0.05620472
224	0x3d7246c8	0.059149534
225	0xba8556b0	-0.001017293
226	0xbde62696	-0.112378284
227	0x3d9af069	0.07565386
228	0x3d9a3fd3	0.07531705
229	0x38cfb52c	9.904275e-05
230	0x3ba6487e	0.0050745597
231	0xb86760e4	-5.516493e-05
232	0xbd63b2d1	-0.055590454
233	0xbdb396b3	-0.08768978
234	0xb8aa21d1	-8.1125305e-05
235	0x38fbc83c	0.00012005909
236	0x393755be	0.00017484181
237	0xb6b4aef5	-5.3847857e-06
238	0xbcadfc0a	-0.021238346
239	0xbc289186	-0.010288602
240	0xb806a9b3	-3.2106134e-05
241	0x387f76e6	6.090747e-05
242	0xbd1a40c9	-0.03765944
243	0xbcb293d2	-0.021799002
244	0x38cba2d0	9.7101205e-05
245	0x3a699ed2	0.00089119107
246	0x3d1ed6ac	0.038778946
247	0xbda5fdaf	-0.08105027
248	0x397dac6d	0.00024192194
249	0xb7a57365	-1.9723268e-05
250	0x3e12135a	0.14265195
251	0x3d7d1b56	0.061793648
252	0x3ba803c7	0.0051274034
253	0x3ca582c6	0.02020396
254	0xbd93d48d	-0.07218275
255	0xbc4d1e72	-0.012519466

bias f4 [50]
0	0xb9c8d172	-0.00038303022
1	0x3aeacbbd	0.0017913502
2	0x390c394a	0.00013372782
3	0xbb3b1f54	-0.0028552609
4	0x3a26dc8d	0.0006365262
5	0x3b53f91f	0.0032344533
6	0x3ab12d59	0.0013517543
7	0xbb02e8a9	-0.0019975102
8	0x3a2ba816	0.0006548179
9	0xba38702d	-0.00070357585
10	0xbb51b9da	-0.0032001645
11	0x3b07aa8f	0.0020701026
12	0xba68f560	-0.00088866614
13	0xbb307e83	-0.0026930876
14	0x3ae4ae25	0.0017446919
15	0x3b1d6cc5	0.002402113
16	0xba555007	-0.000813723
17	0x3ae7524e	0.001764843
18	0x3ae29d64	0.0017289338
19	0xba74dd3c	-0.0009340828
20	0x3b728c24	0.00370098
21	0xbb0906d0	-0.0020908602
22	0x39daa9a6	0.00041706598
23	0xbabed895	-0.0014560396
24	0x3a5a026f	0.00083164027
25	0xbb463293	-0.0030242547
26	0xbaaeb8a9	-0.001333018
27	0x397cccf4	0.00024108944
28	0xba6a4f45	-0.00089382037
29	0xbbb018d3	-0.005374053
30	0x3b267d24	0.002540418
31	0x39cb4648	0.0003877154
32	0xbaf75096	-0.0018868621
33	0xbb0248b4	-0.001987976
34	0x3b24bf3d	0.00251384
35	0xbac2b325	-0.0014854415
36	0xbbad055f	-0.0052801813
37	0x390df085	0.00013536408
38	0x3b301f04	0.0026873956
39	0x381c75d9	3.7303053e-05
40	0x3a43de43	0.0007471779
41	0x39f280aa	0.000462537
42	0x391f58ab	0.00015196453
43	0xb9d96c42	-0.00041470124
44	0xb9eea228	-0.00045515713
45	0xba022bbd	-0.0004965624
46	0x38f0721b	0.000114653456
47	0x3b83b594	0.0040194485
48	0x3adad314	0.0016694986
49	0x39deedef	0.00042520414
