pbc_examples/saved_models/convection_beta-1.0_layers-50,50,50,50,50,50,1_L-2.0_WD-0_init-normal_seed0.pt (torch, 179145 bytes, 48 tensors)

x_u f4 [256, 1]
000000 00 00 00 00 db 0f c9 3c db 0f 49 3d e4 cb 96 3d
       0.0 0.024543693 0.049087387 0.07363108
000010 db 0f c9 3d d1 53 fb 3d e4 cb 16 3e df ed 2f 3e
       0.09817477 0.12271846 0.14726216 0.17180584
000020 db 0f 49 3e d6 31 62 3e d1 53 7b 3e e6 3a 8a 3e
       0.19634955 0.22089323 0.24543692 0.2699806
000030 e4 cb 96 3e e2 5c a3 3e df ed af 3e dd 7e bc 3e
       0.2945243 0.319068 0.3436117 0.3681554
000040 db 0f c9 3e d8 a0 d5 3e d6 31 e2 3e d4 c2 ee 3e
       0.3926991 0.41724277 0.44178647 0.46633017
000050 d1 53 fb 3e 67 f2 03 3f e6 3a 0a 3f 65 83 10 3f
       0.49087384 0.5154175 0.5399612 0.5645049
000060 e4 cb 16 3f 63 14 1d 3f e2 5c 23 3f 60 a5 29 3f
       0.5890486 0.6135923 0.638136 0.6626797
000070 df ed 2f 3f 5e 36 36 3f dd 7e 3c 3f 5c c7 42 3f
       0.6872234 0.7117671 0.7363108 0.7608545
000080 db 0f 49 3f 59 58 4f 3f d8 a0 55 3f 57 e9 5b 3f
       0.7853982 0.8099418 0.83448553 0.85902923
000090 d6 31 62 3f 55 7a 68 3f d4 c2 6e 3f 52 0b 75 3f
       0.88357294 0.90811664 0.93266034 0.957204
0000a0 d1 53 7b 3f 28 ce 80 3f 67 f2 83 3f a7 16 87 3f
       0.9817477 1.0062914 1.030835 1.0553788
0000b0 e6 3a 8a 3f 26 5f 8d 3f 65 83 90 3f a5 a7 93 3f
       1.0799224 1.1044662 1.1290098 1.1535536
0000c0 e4 cb 96 3f 23 f0 99 3f 63 14 9d 3f a2 38 a0 3f
       1.1780972 1.2026409 1.2271847 1.2517283
0000d0 e2 5c a3 3f 21 81 a6 3f 60 a5 a9 3f a0 c9 ac 3f
       1.276272 1.3008157 1.3253593 1.3499031
0000e0 df ed af 3f 1f 12 b3 3f 5e 36 b6 3f 9e 5a b9 3f
       1.3744467 1.3989905 1.4235342 1.4480779
0000f0 dd 7e bc 3f 1c a3 bf 3f 5c c7 c2 3f 9b eb c5 3f
       1.4726216 1.4971652 1.521709 1.5462526
000100 db 0f c9 3f 1a 34 cc 3f 59 58 cf 3f 99 7c d2 3f
       1.5707964 1.59534 1.6198837 1.6444274
000110 d8 a0 d5 3f 18 c5 d8 3f 57 e9 db 3f 97 0d df 3f
       1.6689711 1.6935148 1.7180585 1.7426022
000120 d6 31 e2 3f 15 56 e5 3f 55 7a e8 3f 94 9e eb 3f
       1.7671459 1.7916895 1.8162333 1.8407769
000130 d4 c2 ee 3f 13 e7 f1 3f 52 0b f5 3f 92 2f f8 3f
       1.8653207 1.8898643 1.914408 1.9389517
000140 d1 53 fb 3f 11 78 fe 3f 28 ce 00 40 48 60 02 40
       1.9634954 1.9880391 2.0125828 2.0371265
000150 67 f2 03 40 87 84 05 40 a7 16 07 40 c7 a8 08 40
       2.06167 2.0862138 2.1107576 2.1353014
000160 e6 3a 0a 40 06 cd 0b 40 26 5f 0d 40 45 f1 0e 40
       2.1598449 2.1843886 2.2089324 2.233476
000170 65 83 10 40 85 15 12 40 a5 a7 13 40 c4 39 15 40
       2.2580197 2.2825634 2.3071072 2.3316507
000180 e4 cb 16 40 04 5e 18 40 23 f0 19 40 43 82 1b 40
       2.3561945 2.3807383 2.4052818 2.4298255
000190 63 14 1d 40 83 a6 1e 40 a2 38 20 40 c2 ca 21 40
       2.4543693 2.478913 2.5034566 2.5280004
0001a0 e2 5c 23 40 01 ef 24 40 21 81 26 40 41 13 28 40
       2.552544 2.5770876 2.6016314 2.6261752
0001b0 60 a5 29 40 80 37 2b 40 a0 c9 2c 40 c0 5b 2e 40
       2.6507187 2.6752625 2.6998062 2.72435
0001c0 df ed 2f 40 ff 7f 31 40 1f 12 33 40 3e a4 34 40
       2.7488935 2.7734373 2.797981 2.8225245
0001d0 5e 36 36 40 7e c8 37 40 9e 5a 39 40 bd ec 3a 40
       2.8470683 2.871612 2.8961558 2.9206994
0001e0 dd 7e 3c 40 fd 10 3e 40 1c a3 3f 40 3c 35 41 40
       2.9452431 2.969787 2.9943304 3.0188742
0001f0 5c c7 42 40 7c 59 44 40 9b eb 45 40 bb 7d 47 40
       3.043418 3.0679617 3.0925052 3.117049
000200 db 0f 49 40 fa a1 4a 40 1a 34 4c 40 3a c6 4d 40
       3.1415927 3.1661363 3.19068 3.2152238
000210 59 58 4f 40 79 ea 50 40 99 7c 52 40 b9 0e 54 40
       3.2397673 3.264311 3.2888548 3.3133986
000220 d8 a0 55 40 f8 32 57 40 18 c5 58 40 37 57 5a 40
       3.3379421 3.362486 3.3870296 3.4115732
000230 57 e9 5b 40 77 7b 5d 40 97 0d 5f 40 b6 9f 60 40
       3.436117 3.4606607 3.4852045 3.509748
000240 d6 31 62 40 f6 c3 63 40 15 56 65 40 35 e8 66 40
       3.5342917 3.5588355 3.583379 3.6079228
000250 55 7a 68 40 75 0c 6a 40 94 9e 6b 40 b4 30 6d 40
       3.6324666 3.6570103 3.6815538 3.7060976
000260 d4 c2 6e 40 f3 54 70 40 13 e7 71 40 33 79 73 40
       3.7306414 3.755185 3.7797287 3.8042724
000270 52 0b 75 40 72 9d 76 40 92 2f 78 40 b2 c1 79 40
       3.828816 3.8533597 3.8779035 3.9024472
000280 d1 53 7b 40 f1 e5 7c 40 11 78 7e 40 18 05 80 40
       3.9269907 3.9515345 3.9760783 4.000622
000290 28 ce 80 40 38 97 81 40 48 60 82 40 58 29 83 40
       4.0251656 4.0497093 4.074253 4.098797
0002a0 67 f2 83 40 77 bb 84 40 87 84 85 40 97 4d 86 40
       4.12334 4.147884 4.1724277 4.1969714
0002b0 a7 16 87 40 b7 df 87 40 c7 a8 88 40 d6 71 89 40
       4.221515 4.246059 4.2706027 4.295146
0002c0 e6 3a 8a 40 f6 03 8b 40 06 cd 8b 40 16 96 8c 40
       4.3196898 4.3442335 4.3687773 4.393321
0002d0 26 5f 8d 40 36 28 8e 40 45 f1 8e 40 55 ba 8f 40
       4.417865 4.4424086 4.466952 4.4914956
0002e0 65 83 90 40 75 4c 91 40 85 15 92 40 95 de 92 40
       4.5160394 4.540583 4.565127 4.5896707
0002f0 a5 a7 93 40 b4 70 94 40 c4 39 95 40 d4 02 96 40
       4.6142144 4.6387577 4.6633015 4.687845
000300 e4 cb 96 40 f4 94 97 40 04 5e 98 40 14 27 99 40
       4.712389 4.7369328 4.7614765 4.7860203
000310 23 f0 99 40 33 b9 9a 40 43 82 9b 40 53 4b 9c 40
       4.8105636 4.8351073 4.859651 4.884195
000320 63 14 9d 40 73 dd 9d 40 83 a6 9e 40 92 6f 9f 40
       4.9087386 4.9332824 4.957826 4.9823694
000330 a2 38 a0 40 b2 01 a1 40 c2 ca a1 40 d2 93 a2 40
       5.006913 5.031457 5.0560007 5.0805445
000340 e2 5c a3 40 f1 25 a4 40 01 ef a4 40 11 b8 a5 40
       5.105088 5.1296315 5.1541753 5.178719
000350 21 81 a6 40 31 4a a7 40 41 13 a8 40 51 dc a8 40
       5.203263 5.2278066 5.2523503 5.276894
000360 60 a5 a9 40 70 6e aa 40 80 37 ab 40 90 00 ac 40
       5.3014374 5.325981 5.350525 5.3750687
000370 a0 c9 ac 40 b0 92 ad 40 c0 5b ae 40 cf 24 af 40
       5.3996124 5.424156 5.4487 5.473243
000380 df ed af 40 ef b6 b0 40 ff 7f b1 40 0f 49 b2 40
       5.497787 5.5223308 5.5468745 5.5714183
000390 1f 12 b3 40 2f db b3 40 3e a4 b4 40 4e 6d b5 40
       5.595962 5.620506 5.645049 5.669593
0003a0 5e 36 b6 40 6e ff b6 40 7e c8 b7 40 8e 91 b8 40
       5.6941366 5.7186804 5.743224 5.767768
0003b0 9e 5a b9 40 ad 23 ba 40 bd ec ba 40 cd b5 bb 40
       5.7923117 5.816855 5.8413987 5.8659425
0003c0 dd 7e bc 40 ed 47 bd 40 fd 10 be 40 0d da be 40
       5.8904862 5.91503 5.939574 5.9641175
0003d0 1c a3 bf 40 2c 6c c0 40 3c 35 c1 40 4c fe c1 40
       5.988661 6.0132046 6.0377483 6.062292
0003e0 5c c7 c2 40 6c 90 c3 40 7c 59 c4 40 8b 22 c5 40
       6.086836 6.1113796 6.1359234 6.1604667
0003f0 9b eb c5 40 ab b4 c6 40 bb 7d c7 40 cb 46 c8 40
       6.1850104 6.209554 6.234098 6.2586417

t_u f4 [256, 1]
000000 00 00 00 00 00 00 00 00 00 00 00 00 00 00 00 00
       0.0 0.0 0.0 0.0
000010 00 00 00 00 00 00 00 00 00 00 00 00 00 00 00 00
       0.0 0.0 0.0 0.0
000020 00 00 00 00 00 00 00 00 00 00 00 00 00 00 00 00
       0.0 0.0 0.0 0.0
000030 00 00 00 00 00 00 00 00 00 00 00 00 00 00 00 00
       0.0 0.0 0.0 0.0
000040 00 00 00 00 00 00 00 00 00 00 00 00 00 00 00 00
       0.0 0.0 0.0 0.0
000050 00 00 00 00 00 00 00 00 00 00 00 00 00 00 00 00
       0.0 0.0 0.0 0.0
000060 00 00 00 00 00 00 00 00 00 00 00 00 00 00 00 00
       0.0 0.0 0.0 0.0
000070 00 00 00 00 00 00 00 00 00 00 00 00 00 00 00 00
       0.0 0.0 0.0 0.0
000080 00 00 00 00 00 00 00 00 00 00 00 00 00 00 00 00
       0.0 0.0 0.0 0.0
000090 00 00 00 00 00 00 00 00 00 00 00 00 00 00 00 00
       0.0 0.0 0.0 0.0
0000a0 00 00 00 00 00 00 00 00 00 00 00 00 00 00 00 00
       0.0 0.0 0.0 0.0
0000b0 00 00 00 00 00 00 00 00 00 00 00 00 00 00 00 00
       0.0 0.0 0.0 0.0
0000c0 00 00 00 00 00 00 00 00 00 00 00 00 00 00 00 00
       0.0 0.0 0.0 0.0
0000d0 00 00 00 00 00 00 00 00 00 00 00 00 00 00 00 00
       0.0 0.0 0.0 0.0
0000e0 00 00 00 00 00 00 00 00 00 00 00 00 00 00 00 00
       0.0 0.0 0.0 0.0
0000f0 00 00 00 00 00 00 00 00 00 00 00 00 00 00 00 00
       0.0 0.0 0.0 0.0
000100 00 00 00 00 00 00 00 00 00 00 00 00 00 00 00 00
       0.0 0.0 0.0 0.0
000110 00 00 00 00 00 00 00 00 00 00 00 00 00 00 00 00
       0.0 0.0 0.0 0.0
000120 00 00 00 00 00 00 00 00 00 00 00 00 00 00 00 00
       0.0 0.0 0.0 0.0
000130 00 00 00 00 00 00 00 00 00 00 00 00 00 00 00 00
       0.0 0.0 0.0 0.0
000140 00 00 00 00 00 00 00 00 00 00 00 00 00 00 00 00
       0.0 0.0 0.0 0.0
000150 00 00 00 00 00 00 00 00 00 00 00 00 00 00 00 00
       0.0 0.0 0.0 0.0
000160 00 00 00 00 00 00 00 00 00 00 00 00 00 00 00 00
       0.0 0.0 0.0 0.0
000170 00 00 00 00 00 00 00 00 00 00 00 00 00 00 00 00
       0.0 0.0 0.0 0.0
000180 00 00 00 00 00 00 00 00 00 00 00 00 00 00 00 00
       0.0 0.0 0.0 0.0
000190 00 00 00 00 00 00 00 00 00 00 00 00 00 00 00 00
       0.0 0.0 0.0 0.0
0001a0 00 00 00 00 00 00 00 00 00 00 00 00 00 00 00 00
       0.0 0.0 0.0 0.0
0001b0 00 00 00 00 00 00 00 00 00 00 00 00 00 00 00 00
       0.0 0.0 0.0 0.0
0001c0 00 00 00 00 00 00 00 00 00 00 00 00 00 00 00 00
       0.0 0.0 0.0 0.0
0001d0 00 00 00 00 00 00 00 00 00 00 00 00 00 00 00 00
       0.0 0.0 0.0 0.0
0001e0 00 00 00 00 00 00 00 00 00 00 00 00 00 00 00 00
       0.0 0.0 0.0 0.0
0001f0 00 00 00 00 00 00 00 00 00 00 00 00 00 00 00 00
       0.0 0.0 0.0 0.0
000200 00 00 00 00 00 00 00 00 00 00 00 00 00 00 00 00
       0.0 0.0 0.0 0.0
000210 00 00 00 00 00 00 00 00 00 00 00 00 00 00 00 00
       0.0 0.0 0.0 0.0
000220 00 00 00 00 00 00 00 00 00 00 00 00 00 00 00 00
       0.0 0.0 0.0 0.0
000230 00 00 00 00 00 00 00 00 00 00 00 00 00 00 00 00
       0.0 0.0 0.0 0.0
000240 00 00 00 00 00 00 00 00 00 00 00 00 00 00 00 00
       0.0 0.0 0.0 0.0
000250 00 00 00 00 00 00 00 00 00 00 00 00 00 00 00 00
       0.0 0.0 0.0 0.0
000260 00 00 00 00 00 00 00 00 00 00 00 00 00 00 00 00
       0.0 0.0 0.0 0.0
000270 00 00 00 00 00 00 00 00 00 00 00 00 00 00 00 00
       0.0 0.0 0.0 0.0
000280 00 00 00 00 00 00 00 00 00 00 00 00 00 00 00 00
       0.0 0.0 0.0 0.0
000290 00 00 00 00 00 00 00 00 00 00 00 00 00 00 00 00
       0.0 0.0 0.0 0.0
0002a0 00 00 00 00 00 00 00 00 00 00 00 00 00 00 00 00
       0.0 0.0 0.0 0.0
0002b0 00 00 00 00 00 00 00 00 00 00 00 00 00 00 00 00
       0.0 0.0 0.0 0.0
0002c0 00 00 00 00 00 00 00 00 00 00 00 00 00 00 00 00
       0.0 0.0 0.0 0.0
0002d0 00 00 00 00 00 00 00 00 00 00 00 00 00 00 00 00
       0.0 0.0 0.0 0.0
0002e0 00 00 00 00 00 00 00 00 00 00 00 00 00 00 00 00
       0.0 0.0 0.0 0.0
0002f0 00 00 00 00 00 00 00 00 00 00 00 00 00 00 00 00
       0.0 0.0 0.0 0.0
000300 00 00 00 00 00 00 00 00 00 00 00 00 00 00 00 00
       0.0 0.0 0.0 0.0
000310 00 00 00 00 00 00 00 00 00 00 00 00 00 00 00 00
       0.0 0.0 0.0 0.0
000320 00 00 00 00 00 00 00 00 00 00 00 00 00 00 00 00
       0.0 0.0 0.0 0.0
000330 00 00 00 00 00 00 00 00 00 00 00 00 00 00 00 00
       0.0 0.0 0.0 0.0
000340 00 00 00 00 00 00 00 00 00 00 00 00 00 00 00 00
       0.0 0.0 0.0 0.0
000350 00 00 00 00 00 00 00 00 00 00 00 00 00 00 00 00
       0.0 0.0 0.0 0.0
000360 00 00 00 00 00 00 00 00 00 00 00 00 00 00 00 00
       0.0 0.0 0.0 0.0
000370 00 00 00 00 00 00 00 00 00 00 00 00 00 00 00 00
       0.0 0.0 0.0 0.0
000380 00 00 00 00 00 00 00 00 00 00 00 00 00 00 00 00
       0.0 0.0 0.0 0.0
000390 00 00 00 00 00 00 00 00 00 00 00 00 00 00 00 00
       0.0 0.0 0.0 0.0
0003a0 00 00 00 00 00 00 00 00 00 00 00 00 00 00 00 00
       0.0 0.0 0.0 0.0
0003b0 00 00 00 00 00 00 00 00 00 00 00 00 00 00 00 00
       0.0 0.0 0.0 0.0
0003c0 00 00 00 00 00 00 00 00 00 00 00 00 00 00 00 00
       0.0 0.0 0.0 0.0
0003d0 00 00 00 00 00 00 00 00 00 00 00 00 00 00 00 00
       0.0 0.0 0.0 0.0
0003e0 00 00 00 00 00 00 00 00 00 00 00 00 00 00 00 00
       0.0 0.0 0.0 0.0
0003f0 00 00 00 00 00 00 00 00 00 00 00 00 00 00 00 00
       0.0 0.0 0.0 0.0

x_f f4 [100, 1]
000000 a5 a7 93 40 97 0d df 3f d8 a0 55 40 53 4b 9c 40
       4.6142144 1.7426022 3.3379421 4.884195
000010 7c 59 44 40 ef b6 b0 40 ad 23 ba 40 9b eb c5 40
       3.0679617 5.5223308 5.816855 6.1850104
000020 85 15 92 40 23 f0 99 3f 14 27 99 40 65 83 10 3f
       4.565127 1.2026409 4.7860203 0.5645049
000030 94 9e eb 3f d1 53 fb 3d 92 6f 9f 40 5c c7 c2 40
       1.8407769 0.12271846 4.9823694 6.086836
000040 6e ff b6 40 a0 c9 2c 40 c2 ca 21 40 6c 90 c3 40
       5.7186804 2.6998062 2.5280004 6.1113796
000050 c0 5b 2e 40 cf 24 af 40 a7 16 87 3f 4c fe c1 40
       2.72435 5.473243 1.0553788 6.062292
000060 d6 31 e2 3e 5e 36 36 3f 97 4d 86 40 cb 46 c8 40
       0.44178647 0.7117671 4.1969714 6.2586417
000070 7c 59 c4 40 75 4c 91 40 9b eb c5 40 c7 a8 88 40
       6.1359234 4.540583 6.1850104 4.2706027
000080 cf 24 af 40 21 81 26 40 26 5f 8d 40 63 14 9d 40
       5.473243 2.6016314 4.417865 4.9087386
000090 2c 6c c0 40 dd 7e bc 3e d1 53 fb 3e 21 81 a6 40
       6.0132046 0.3681554 0.49087384 5.203263
0000a0 77 7b 5d 40 d6 31 e2 3e 59 58 cf 3f 77 bb 84 40
       3.4606607 0.44178647 1.6198837 4.147884
0000b0 55 7a e8 3f 83 a6 9e 40 97 0d 5f 40 18 c5 58 40
       1.8162333 4.957826 3.4852045 3.3870296
0000c0 52 0b 75 3f a5 a7 13 40 60 a5 29 3f 31 4a a7 40
       0.957204 2.3071072 0.6626797 5.2278066
0000d0 db 0f c9 3c 4c fe c1 40 c4 39 15 40 d1 53 fb 3f
       0.024543693 6.062292 2.3316507 1.9634954
0000e0 c4 39 15 40 df ed 2f 3f 1a 34 cc 3f 37 57 5a 40
       2.3316507 0.6872234 1.59534 3.4115732
0000f0 1f 12 b3 40 9e 5a b9 40 26 5f 8d 3f 94 9e 6b 40
       5.595962 5.7923117 1.1044662 3.6815538
000100 d6 31 62 3f 57 e9 db 3f 43 82 1b 40 35 e8 66 40
       0.88357294 1.7180585 2.4298255 3.6079228
000110 15 56 e5 3f 59 58 cf 3f d6 71 89 40 11 78 fe 3f
       1.7916895 1.6198837 4.295146 1.9880391
000120 65 83 10 40 c0 5b 2e 40 db 0f 49 3f 67 f2 03 40
       2.2580197 2.72435 0.7853982 2.06167
000130 83 a6 9e 40 f1 25 a4 40 43 82 1b 40 75 4c 91 40
       4.957826 5.1296315 2.4298255 4.540583
000140 75 0c 6a 40 d8 a0 55 3f b4 30 6d 40 15 56 e5 3f
       3.6570103 0.83448553 3.7060976 1.7916895
000150 5c c7 c2 40 92 6f 9f 40 53 4b 9c 40 28 ce 80 3f
       6.086836 4.9823694 4.884195 1.0062914
000160 df ed af 40 bd ec ba 40 97 4d 86 40 e4 cb 96 40
       5.497787 5.8413987 4.1969714 4.712389
000170 d6 31 62 3f d4 c2 6e 3f 63 14 9d 3f 7e c8 b7 40
       0.88357294 0.93266034 1.2271847 5.743224
000180 0f 49 b2 40 3c 35 c1 40 57 e9 5b 40 a0 c9 ac 3f
       5.5714183 6.0377483 3.436117 1.3499031

t_f f4 [100, 1]
000000 77 86 c4 3e 5d 74 51 3f ee 0c 09 3f 67 48 4c 3f
       0.3838384 0.8181818 0.53535354 0.7979798
000010 de ce 10 3e 96 02 35 3f a0 d6 2f 3f 72 1c 47 3f
       0.14141414 0.7070707 0.68686867 0.7777778
000020 e9 a2 0b 3f b5 7e 25 3c e4 38 0e 3f 6d b2 49 3f
       0.54545456 0.01010101 0.5555556 0.7878788
000030 43 62 de 3e 43 62 de 3e 0a d4 7a 3f 00 00 80 3f
       0.43434343 0.43434343 0.97979796 1.0
000040 a5 40 2d 3f f3 76 06 3f ca 26 9b 3e 58 0a 54 3f
       0.67676765 0.5252525 0.3030303 0.82828283
000050 0a d4 7a 3f ba e8 22 3f a0 d6 af 3e b5 7e a5 3e
       0.97979796 0.6363636 0.34343433 0.32323232
000060 1a 12 f3 3e 29 50 6b 3f e4 38 0e 3f 72 1c 47 3f
       0.47474748 0.9191919 0.5555556 0.7777778
000070 8c 2e ba 3e 39 8e 63 3e de ce 90 3e 39 8e 63 3f
       0.36363637 0.22222222 0.28282827 0.8888889
000080 2f ba 68 3f ca 26 1b 3e bf 52 20 3f b5 7e 25 3d
       0.90909094 0.15151516 0.6262626 0.04040404
000090 ca 26 1b 3e 3e f8 60 3f d4 fa 15 3f fd 4a 81 3e
       0.15151516 0.8787879 0.5858586 0.25252524
0000a0 67 48 4c 3f 77 86 c4 3e 4e 36 d9 3e b5 7e 25 3c
       0.7979798 0.3838384 0.42424244 0.01010101
0000b0 10 3e 78 3e 34 24 66 3f 8c 2e ba 3e 1f 7c 70 3f
       0.24242425 0.8989899 0.36363637 0.93939394
0000c0 7c f0 41 3f bf 52 a0 3e b5 7e 25 3d a0 d6 af 3e
       0.75757575 0.3131313 0.04040404 0.34343433
0000d0 2f ba e8 3e 15 a8 75 3f 15 a8 75 3f 2f ba e8 3e
       0.45454547 0.959596 0.959596 0.45454547
0000e0 2f ba e8 3e 62 de 4e 3f f3 76 06 3f de ce 10 3f
       0.45454547 0.8080808 0.5252525 0.56565654
0000f0 3e f8 60 3f 86 c4 3c 3f b5 7e 25 3d 1a 12 f3 3e
       0.8787879 0.7373737 0.04040404 0.47474748
000100 d9 64 13 3f de ce 10 3f a5 40 2d 3f 05 6a 7d 3f
       0.57575756 0.56565654 0.67676765 0.989899
000110 a0 d6 2f 3f 4e 36 59 3e 62 de 4e 3d de ce 90 3e
       0.68686867 0.21212122 0.05050505 0.28282827
000120 fd 4a 81 3e 62 de 4e 3f b5 7e 25 3c 58 0a d4 3e
       0.25252524 0.8080808 0.01010101 0.41414142
000130 10 3e 78 3f 0a d4 7a 3f d4 fa 95 3e f8 e0 03 3f
       0.969697 0.97979796 0.2929293 0.5151515
000140 53 a0 56 3f 1a 12 73 3f 1a 12 f3 3e cf 90 18 3f
       0.83838385 0.94949496 0.47474748 0.5959596
000150 6d b2 c9 3e a0 d6 2f 3f 4e 36 59 3f b5 7e a5 3c
       0.3939394 0.68686867 0.8484849 0.02020202
000160 29 50 6b 3f 10 3e f8 3e f3 76 06 3e ca 26 1b 3f
       0.9191919 0.4848485 0.13131313 0.6060606
000170 fd 4a 81 3e 10 3e 78 3f a0 d6 af 3e 53 a0 56 3f
       0.25252524 0.969697 0.34343433 0.83838385
000180 10 3e f8 3e 67 48 4c 3f 91 98 37 3f ca 26 9b 3e
       0.4848485 0.7979798 0.7171717 0.3030303

x_bc_lb f4 [100, 1]
000000 00 00 00 00 00 00 00 00 00 00 00 00 00 00 00 00
       0.0 0.0 0.0 0.0
000010 00 00 00 00 00 00 00 00 00 00 00 00 00 00 00 00
       0.0 0.0 0.0 0.0
000020 00 00 00 00 00 00 00 00 00 00 00 00 00 00 00 00
       0.0 0.0 0.0 0.0
000030 00 00 00 00 00 00 00 00 00 00 00 00 00 00 00 00
       0.0 0.0 0.0 0.0
000040 00 00 00 00 00 00 00 00 00 00 00 00 00 00 00 00
       0.0 0.0 0.0 0.0
000050 00 00 00 00 00 00 00 00 00 00 00 00 00 00 00 00
       0.0 0.0 0.0 0.0
000060 00 00 00 00 00 00 00 00 00 00 00 00 00 00 00 00
       0.0 0.0 0.0 0.0
000070 00 00 00 00 00 00 00 00 00 00 00 00 00 00 00 00
       0.0 0.0 0.0 0.0
000080 00 00 00 00 00 00 00 00 00 00 00 00 00 00 00 00
       0.0 0.0 0.0 0.0
000090 00 00 00 00 00 00 00 00 00 00 00 00 00 00 00 00
       0.0 0.0 0.0 0.0
0000a0 00 00 00 00 00 00 00 00 00 00 00 00 00 00 00 00
       0.0 0.0 0.0 0.0
0000b0 00 00 00 00 00 00 00 00 00 00 00 00 00 00 00 00
       0.0 0.0 0.0 0.0
0000c0 00 00 00 00 00 00 00 00 00 00 00 00 00 00 00 00
       0.0 0.0 0.0 0.0
0000d0 00 00 00 00 00 00 00 00 00 00 00 00 00 00 00 00
       0.0 0.0 0.0 0.0
0000e0 00 00 00 00 00 00 00 00 00 00 00 00 00 00 00 00
       0.0 0.0 0.0 0.0
0000f0 00 00 00 00 00 00 00 00 00 00 00 00 00 00 00 00
       0.0 0.0 0.0 0.0
000100 00 00 00 00 00 00 00 00 00 00 00 00 00 00 00 00
       0.0 0.0 0.0 0.0
000110 00 00 00 00 00 00 00 00 00 00 00 00 00 00 00 00
       0.0 0.0 0.0 0.0
000120 00 00 00 00 00 00 00 00 00 00 00 00 00 00 00 00
       0.0 0.0 0.0 0.0
000130 00 00 00 00 00 00 00 00 00 00 00 00 00 00 00 00
       0.0 0.0 0.0 0.0
000140 00 00 00 00 00 00 00 00 00 00 00 00 00 00 00 00
       0.0 0.0 0.0 0.0
000150 00 00 00 00 00 00 00 00 00 00 00 00 00 00 00 00
       0.0 0.0 0.0 0.0
000160 00 00 00 00 00 00 00 00 00 00 00 00 00 00 00 00
       0.0 0.0 0.0 0.0
000170 00 00 00 00 00 00 00 00 00 00 00 00 00 00 00 00
       0.0 0.0 0.0 0.0
000180 00 00 00 00 00 00 00 00 00 00 00 00 00 00 00 00
       0.0 0.0 0.0 0.0

t_bc_lb f4 [100, 1]
000000 00 00 00 00 b5 7e 25 3c b5 7e a5 3c 10 3e f8 3c
       0.0 0.01010101 0.02020202 0.030303031
000010 b5 7e 25 3d 62 de 4e 3d 10 3e 78 3d de ce 90 3d
       0.04040404 0.05050505 0.060606062 0.07070707
000020 b5 7e a5 3d 8c 2e ba 3d 62 de ce 3d 39 8e e3 3d
       0.08080808 0.09090909 0.1010101 0.11111111
000030 10 3e f8 3d f3 76 06 3e de ce 10 3e ca 26 1b 3e
       0.121212125 0.13131313 0.14141414 0.15151516
000040 b5 7e 25 3e a0 d6 2f 3e 8c 2e 3a 3e 77 86 44 3e
       0.16161616 0.17171717 0.18181819 0.1919192
000050 62 de 4e 3e 4e 36 59 3e 39 8e 63 3e 24 e6 6d 3e
       0.2020202 0.21212122 0.22222222 0.23232323
000060 10 3e 78 3e fd 4a 81 3e f3 76 86 3e e9 a2 8b 3e
       0.24242425 0.25252524 0.26262626 0.27272728
000070 de ce 90 3e d4 fa 95 3e ca 26 9b 3e bf 52 a0 3e
       0.28282827 0.2929293 0.3030303 0.3131313
000080 b5 7e a5 3e ab aa aa 3e a0 d6 af 3e 96 02 b5 3e
       0.32323232 0.33333334 0.34343433 0.35353535
000090 8c 2e ba 3e 81 5a bf 3e 77 86 c4 3e 6d b2 c9 3e
       0.36363637 0.37373737 0.3838384 0.3939394
0000a0 62 de ce 3e 58 0a d4 3e 4e 36 d9 3e 43 62 de 3e
       0.4040404 0.41414142 0.42424244 0.43434343
0000b0 39 8e e3 3e 2f ba e8 3e 24 e6 ed 3e 1a 12 f3 3e
       0.44444445 0.45454547 0.46464646 0.47474748
0000c0 10 3e f8 3e 05 6a fd 3e fd 4a 01 3f f8 e0 03 3f
       0.4848485 0.4949495 0.5050505 0.5151515
0000d0 f3 76 06 3f ee 0c 09 3f e9 a2 0b 3f e4 38 0e 3f
       0.5252525 0.53535354 0.54545456 0.5555556
0000e0 de ce 10 3f d9 64 13 3f d4 fa 15 3f cf 90 18 3f
       0.56565654 0.57575756 0.5858586 0.5959596
0000f0 ca 26 1b 3f c5 bc 1d 3f bf 52 20 3f ba e8 22 3f
       0.6060606 0.61616164 0.6262626 0.6363636
000100 b5 7e 25 3f b0 14 28 3f ab aa 2a 3f a5 40 2d 3f
       0.64646465 0.65656567 0.6666667 0.67676765
000110 a0 d6 2f 3f 9b 6c 32 3f 96 02 35 3f 91 98 37 3f
       0.68686867 0.6969697 0.7070707 0.7171717
000120 8c 2e 3a 3f 86 c4 3c 3f 81 5a 3f 3f 7c f0 41 3f
       0.72727275 0.7373737 0.74747473 0.75757575
000130 77 86 44 3f 72 1c 47 3f 6d b2 49 3f 67 48 4c 3f
       0.7676768 0.7777778 0.7878788 0.7979798
000140 62 de 4e 3f 5d 74 51 3f 58 0a 54 3f 53 a0 56 3f
       0.8080808 0.8181818 0.82828283 0.83838385
000150 4e 36 59 3f 48 cc 5b 3f 43 62 5e 3f 3e f8 60 3f
       0.8484849 0.85858583 0.86868685 0.8787879
000160 39 8e 63 3f 34 24 66 3f 2f ba 68 3f 29 50 6b 3f
       0.8888889 0.8989899 0.90909094 0.9191919
000170 24 e6 6d 3f 1f 7c 70 3f 1a 12 73 3f 15 a8 75 3f
       0.9292929 0.93939394 0.94949496 0.959596
000180 10 3e 78 3f 0a d4 7a 3f 05 6a 7d 3f 00 00 80 3f
       0.969697 0.97979796 0.989899 1.0

x_bc_ub f4 [100, 1]
000000 db 0f c9 40 db 0f c9 40 db 0f c9 40 db 0f c9 40
       6.2831855 6.2831855 6.2831855 6.2831855
000010 db 0f c9 40 db 0f c9 40 db 0f c9 40 db 0f c9 40
       6.2831855 6.2831855 6.2831855 6.2831855
000020 db 0f c9 40 db 0f c9 40 db 0f c9 40 db 0f c9 40
       6.2831855 6.2831855 6.2831855 6.2831855
000030 db 0f c9 40 db 0f c9 40 db 0f c9 40 db 0f c9 40
       6.2831855 6.2831855 6.2831855 6.2831855
000040 db 0f c9 40 db 0f c9 40 db 0f c9 40 db 0f c9 40
       6.2831855 6.2831855 6.2831855 6.2831855
000050 db 0f c9 40 db 0f c9 40 db 0f c9 40 db 0f c9 40
       6.2831855 6.2831855 6.2831855 6.2831855
000060 db 0f c9 40 db 0f c9 40 db 0f c9 40 db 0f c9 40
       6.2831855 6.2831855 6.2831855 6.2831855
000070 db 0f c9 40 db 0f c9 40 db 0f c9 40 db 0f c9 40
       6.2831855 6.2831855 6.2831855 6.2831855
000080 db 0f c9 40 db 0f c9 40 db 0f c9 40 db 0f c9 40
       6.2831855 6.2831855 6.2831855 6.2831855
000090 db 0f c9 40 db 0f c9 40 db 0f c9 40 db 0f c9 40
       6.2831855 6.2831855 6.2831855 6.2831855
0000a0 db 0f c9 40 db 0f c9 40 db 0f c9 40 db 0f c9 40
       6.2831855 6.2831855 6.2831855 6.2831855
0000b0 db 0f c9 40 db 0f c9 40 db 0f c9 40 db 0f c9 40
       6.2831855 6.2831855 6.2831855 6.2831855
0000c0 db 0f c9 40 db 0f c9 40 db 0f c9 40 db 0f c9 40
       6.2831855 6.2831855 6.2831855 6.2831855
0000d0 db 0f c9 40 db 0f c9 40 db 0f c9 40 db 0f c9 40
       6.2831855 6.2831855 6.2831855 6.2831855
0000e0 db 0f c9 40 db 0f c9 40 db 0f c9 40 db 0f c9 40
       6.2831855 6.2831855 6.2831855 6.2831855
0000f0 db 0f c9 40 db 0f c9 40 db 0f c9 40 db 0f c9 40
       6.2831855 6.2831855 6.2831855 6.2831855
000100 db 0f c9 40 db 0f c9 40 db 0f c9 40 db 0f c9 40
       6.2831855 6.2831855 6.2831855 6.2831855
000110 db 0f c9 40 db 0f c9 40 db 0f c9 40 db 0f c9 40
       6.2831855 6.2831855 6.2831855 6.2831855
000120 db 0f c9 40 db 0f c9 40 db 0f c9 40 db 0f c9 40
       6.2831855 6.2831855 6.2831855 6.2831855
000130 db 0f c9 40 db 0f c9 40 db 0f c9 40 db 0f c9 40
       6.2831855 6.2831855 6.2831855 6.2831855
000140 db 0f c9 40 db 0f c9 40 db 0f c9 40 db 0f c9 40
       6.2831855 6.2831855 6.2831855 6.2831855
000150 db 0f c9 40 db 0f c9 40 db 0f c9 40 db 0f c9 40
       6.2831855 6.2831855 6.2831855 6.2831855
000160 db 0f c9 40 db 0f c9 40 db 0f c9 40 db 0f c9 40
       6.2831855 6.2831855 6.2831855 6.2831855
000170 db 0f c9 40 db 0f c9 40 db 0f c9 40 db 0f c9 40
       6.2831855 6.2831855 6.2831855 6.2831855
000180 db 0f c9 40 db 0f c9 40 db 0f c9 40 db 0f c9 40
       6.2831855 6.2831855 6.2831855 6.2831855

t_bc_ub f4 [100, 1]
000000 00 00 00 00 b5 7e 25 3c b5 7e a5 3c 10 3e f8 3c
       0.0 0.01010101 0.02020202 0.030303031
000010 b5 7e 25 3d 62 de 4e 3d 10 3e 78 3d de ce 90 3d
       0.04040404 0.05050505 0.060606062 0.07070707
000020 b5 7e a5 3d 8c 2e ba 3d 62 de ce 3d 39 8e e3 3d
       0.08080808 0.09090909 0.1010101 0.11111111
000030 10 3e f8 3d f3 76 06 3e de ce 10 3e ca 26 1b 3e
       0.121212125 0.13131313 0.14141414 0.15151516
000040 b5 7e 25 3e a0 d6 2f 3e 8c 2e 3a 3e 77 86 44 3e
       0.16161616 0.17171717 0.18181819 0.1919192
000050 62 de 4e 3e 4e 36 59 3e 39 8e 63 3e 24 e6 6d 3e
       0.2020202 0.21212122 0.22222222 0.23232323
000060 10 3e 78 3e fd 4a 81 3e f3 76 86 3e e9 a2 8b 3e
       0.24242425 0.25252524 0.26262626 0.27272728
000070 de ce 90 3e d4 fa 95 3e ca 26 9b 3e bf 52 a0 3e
       0.28282827 0.2929293 0.3030303 0.3131313
000080 b5 7e a5 3e ab aa aa 3e a0 d6 af 3e 96 02 b5 3e
       0.32323232 0.33333334 0.34343433 0.35353535
000090 8c 2e ba 3e 81 5a bf 3e 77 86 c4 3e 6d b2 c9 3e
       0.36363637 0.37373737 0.3838384 0.3939394
0000a0 62 de ce 3e 58 0a d4 3e 4e 36 d9 3e 43 62 de 3e
       0.4040404 0.41414142 0.42424244 0.43434343
0000b0 39 8e e3 3e 2f ba e8 3e 24 e6 ed 3e 1a 12 f3 3e
       0.44444445 0.45454547 0.46464646 0.47474748
0000c0 10 3e f8 3e 05 6a fd 3e fd 4a 01 3f f8 e0 03 3f
       0.4848485 0.4949495 0.5050505 0.5151515
0000d0 f3 76 06 3f ee 0c 09 3f e9 a2 0b 3f e4 38 0e 3f
       0.5252525 0.53535354 0.54545456 0.5555556
0000e0 de ce 10 3f d9 64 13 3f d4 fa 15 3f cf 90 18 3f
       0.56565654 0.57575756 0.5858586 0.5959596
0000f0 ca 26 1b 3f c5 bc 1d 3f bf 52 20 3f ba e8 22 3f
       0.6060606 0.61616164 0.6262626 0.6363636
000100 b5 7e 25 3f b0 14 28 3f ab aa 2a 3f a5 40 2d 3f
       0.64646465 0.65656567 0.6666667 0.67676765
000110 a0 d6 2f 3f 9b 6c 32 3f 96 02 35 3f 91 98 37 3f
       0.68686867 0.6969697 0.7070707 0.7171717
000120 8c 2e 3a 3f 86 c4 3c 3f 81 5a 3f 3f 7c f0 41 3f
       0.72727275 0.7373737 0.74747473 0.75757575
000130 77 86 44 3f 72 1c 47 3f 6d b2 49 3f 67 48 4c 3f
       0.7676768 0.7777778 0.7878788 0.7979798
000140 62 de 4e 3f 5d 74 51 3f 58 0a 54 3f 53 a0 56 3f
       0.8080808 0.8181818 0.82828283 0.83838385
000150 4e 36 59 3f 48 cc 5b 3f 43 62 5e 3f 3e f8 60 3f
       0.8484849 0.85858583 0.86868685 0.8787879
000160 39 8e 63 3f 34 24 66 3f 2f ba 68 3f 29 50 6b 3f
       0.8888889 0.8989899 0.90909094 0.9191919
000170 24 e6 6d 3f 1f 7c 70 3f 1a 12 73 3f 15 a8 75 3f
       0.9292929 0.93939394 0.94949496 0.959596
000180 10 3e 78 3f 0a d4 7a 3f 05 6a 7d 3f 00 00 80 3f
       0.969697 0.97979796 0.989899 1.0

weight f4 [50, 2]
000000 12 c2 da 3e 46 57 df 3e 15 d0 c9 3e 78 f9 49 be
       0.4272619 0.43621272 0.39416566 -0.19724071
000010 e6 09 b8 bd 2d 87 9e 3d f0 b9 f8 bd 88 5a ee 3d
       -0.08986263 0.077406265 -0.1214484 0.11638361
000020 9e 1f 42 3e 63 e7 79 be 65 56 c6 3d 38 9a fe 3d
       0.18957373 -0.24404673 0.09684447 0.12431759
000030 79 61 f0 bd 87 66 78 3e e5 7f 08 3e 93 f6 da 3d
       -0.117373414 0.24257861 0.13330038 0.106915615
000040 0a af bc bd 92 c4 98 be f1 8a 34 be be e6 1c 3e
       -0.092130736 -0.2983747 -0.17631127 0.15322396
000050 17 bc ed bd 3b f8 86 3e 58 f4 fa bd 10 03 a5 bd
       -0.11608141 0.2636126 -0.12253636 -0.08057225
000060 8f fc 7f be a3 89 ac be d5 a7 5f be 09 12 1a be
       -0.24998687 -0.33698758 -0.21841367 -0.15045942
000070 cd 09 ac 3e bc cd af 3e 43 80 e6 be db 0b 9c bd
       0.33601227 0.3433665 -0.4501973 -0.07619449
000080 02 b0 23 be 22 d4 89 be c2 dc 17 3e 97 f2 d5 3e
       -0.1598511 -0.26919657 0.14830306 0.41786644
000090 32 f1 a8 3d 22 fe 07 3e 5b 1c a4 be 0b 61 07 be
       0.08249129 0.13280538 -0.32052884 -0.13220613
0000a0 ce be aa 3b ff 8e 7f 3e 8d 52 2e be d7 2d 0d 3e
       0.005210734 0.24956892 -0.17023678 0.13787018
0000b0 db 66 ba 3d 3a 9e 2a 3d ed d6 1b be 43 63 90 3d
       0.091016494 0.041654803 -0.15218706 0.07050183
0000c0 fb 83 06 be da 95 e5 3c 29 1b b9 be 97 e3 15 3e
       -0.13136284 0.028025556 -0.36153534 0.146376
0000d0 42 3a c7 bd d4 d0 91 bd 14 4a 4b 3d c7 27 38 be
       -0.09727909 -0.07119909 0.049631193 -0.17983924
0000e0 3a 7e 65 bd f2 ab aa bd 50 dc 02 bd 74 be 99 bc
       -0.056028582 -0.08333577 -0.031948388 -0.018767573
0000f0 6d ad c3 3d b0 2c 45 be 12 8c de ba d7 32 4c 3d
       0.09554563 -0.19255328 -0.0016979 0.049853172
000100 23 e7 c5 be ef bc b9 3d f7 e8 37 3e 37 cc 9d bd
       -0.38652906 0.09069239 0.17959963 -0.077049665
000110 cd 21 11 be 3d 35 8e 3d ba f5 91 3e 72 e7 ed be
       -0.1417305 0.06943748 0.28507787 -0.4646564
000120 d4 81 06 3e 76 53 c9 3e 90 53 5f bd 82 5e 24 3e
       0.13135463 0.39321488 -0.05452305 0.16051677
000130 c3 a9 f2 3d e8 e8 05 3d 4a b4 36 be a9 f9 72 be
       0.11848786 0.03269282 -0.17842212 -0.2372805
000140 ae 91 0b bd f3 4b e6 3d 46 a0 17 3e 37 55 08 3d
       -0.034074478 0.11244955 0.14807233 0.033284392
000150 d9 5d a4 3c 91 34 8d bd 99 4c 00 be 0d f6 6b be
       0.020064281 -0.06894792 -0.1252922 -0.2304308
000160 ef 8f eb 3d 12 a0 a1 bc 58 12 01 3e a8 de 70 be
       0.115020625 -0.019729648 0.12604654 -0.23522437
000170 9e 9c 09 3e fa 3c 13 be 78 80 8f 3e 1a b4 9b 3e
       0.13438651 -0.1437873 0.280277 0.30410844
000180 34 61 99 bd 6f 3b 25 3e b7 0d 7e 3d 2d fb b0 bd
       -0.07489243 0.16135953 0.0620248 -0.08641658

bias f4 [50]
000000 6f 0c 2f 3d f2 87 58 39 53 9a 32 3c 70 6e 6e 3d
       0.042736467 0.00020650009 0.010901052 0.05821079
000010 9f 69 00 bd bc 7d 7b bd b8 3f 88 3c 71 42 3d 3c
       -0.031350728 -0.061399207 0.016631946 0.011551485
000020 90 68 2e 3d 3d 03 2f 3d ec 0e e2 3b 15 d8 5f 3d
       0.042580187 0.042727698 0.0068987515 0.05464943
000030 f6 23 79 bb 20 85 c2 bc 8a b5 88 bc d8 ff c2 3a
       -0.003801582 -0.02374512 -0.016688127 0.0014877273
000040 db c3 87 3c d7 6e 60 bc 93 62 e8 3b ea f1 c0 bc
       0.016572883 -0.013698301 0.007091829 -0.023552854
000050 87 52 b1 3c eb 95 a7 3b 96 89 ca bc b0 a4 84 3c
       0.021645797 0.005114307 -0.02472381 0.01619181
000060 c4 38 95 3d ca 38 82 bc 53 c1 88 3b 92 ae 7e bd
       0.07286218 -0.01589622 0.0041734367 -0.062178202
000070 8c fe 1c 39 be ac 55 3c d7 35 45 bd 40 ea 9d 3c
       0.00014972145 0.013041673 -0.04814705 0.019276738
000080 0f a8 a1 bb 63 bc 1a bd a3 40 18 3c 1d 9d b1 bc
       -0.004933364 -0.037777316 0.009292754 -0.021681363
000090 9e 00 13 bd 82 c8 fe 3c 90 73 c4 bc 33 72 38 3c
       -0.03588926 0.031101469 -0.023980886 0.011257696
0000a0 b7 38 0e 3c 97 4c 4e bd 82 08 71 bd 69 28 09 3d
       0.008680514 -0.05036601 -0.058846004 0.033485804
0000b0 d9 57 12 bd 61 a6 b1 bc 36 0b 05 bd 2e 31 66 bc
       -0.03572831 -0.021685781 -0.032481395 -0.014049811
0000c0 ad 52 87 3d ff 99 e5 bb
       0.06607566 -0.007006883

weight f4 [50, 50]
000000 28 08 90 3d 35 77 f2 bd 48 5b 44 3c 91 08 3d bd
       0.07032806 -0.11839143 0.011984654 -0.046150748
000010 fb 29 37 bd f6 ed 45 be c2 c4 0a 3e 18 07 36 bc
       -0.04471777 -0.19329056 0.1355162 -0.01111009
000020 d9 ff 34 3d 0f 41 fb 3c 92 82 67 bd 77 53 85 3d
       0.044189308 0.03067067 -0.056521006 0.0651006
000030 ed 6c 32 be c2 eb 09 be 86 f5 37 bd 63 38 1b bd
       -0.17424364 -0.1346884 -0.044911884 -0.03789557
000040 1b a9 0b 3d 54 2f cb bd 2d 61 aa bd 9b 85 b4 bd
       0.03409682 -0.099211365 -0.08319316 -0.08814546
000050 07 c7 32 be b2 59 a3 bd c4 2f 9c 3d c6 66 6e be
       -0.17458735 -0.079760924 0.07626298 -0.23281392
000060 aa 5c 46 3e 1c 5d f4 bc 4b 1b 02 be 99 20 ab be
       0.19371286 -0.029829554 -0.12705724 -0.33423308
000070 f4 cc d9 3d fd 28 07 3d 47 2a 9b be e1 23 14 bc
       0.10634795 0.032998074 -0.30305693 -0.009041757
000080 81 b0 c0 3d b2 f7 46 3e f6 dd 17 be ac 58 dd bd
       0.094086654 0.19430426 -0.14830765 -0.108079284
000090 13 64 27 bd f6 a4 61 bd 23 c2 5f bd 31 e0 c7 3d
       -0.040866923 -0.05508896 -0.054628503 0.09759558
0000a0 a2 fd ae 3d 27 97 4a 3e 5c 05 74 be fa 0b 40 3d
       0.0854447 0.19784223 -0.2383017 0.04688642
0000b0 d9 59 fe 3b 5b 2b 76 bd 22 3b 97 bd c4 c1 e2 bd
       0.0077621755 -0.06009994 -0.073843256 -0.11072114
0000c0 d8 2b 14 3d d6 48 1f be 7e 01 f2 3c af 02 bf 3c
       0.036174625 -0.15555128 0.029541727 0.02331671
0000d0 fd 4b b2 bd 33 d3 63 be 39 08 d0 3d 4a e2 1d 3e
       -0.087059 -0.22248535 0.10157818 0.15418354
0000e0 64 d9 28 be 4c a5 c5 3d dc e9 74 bc 5c c0 0a bd
       -0.16489178 0.096506685 -0.014948335 -0.033874854
0000f0 a5 75 25 3d b1 d2 c6 3d e0 37 4f 3e 22 64 47 be
       0.040395398 0.09708155 0.20236158 -0.19471791
000100 98 36 3a bd 0f 56 3f 3d cb df 4e 3e d4 ad 05 3e
       -0.04546222 0.04671293 0.20202558 0.13054591
000110 17 6a 12 be 7a 5a d2 3d 4f 57 87 3d 2e 74 c4 3d
       -0.14298283 0.10271163 0.0660845 0.09592472
000120 5f 68 7c be 4d 94 9d 3d 44 11 7f be 63 44 80 be
       -0.2464919 0.07694302 -0.2490893 -0.25052175
000130 dd 02 2c bd f8 03 72 3c 3d 9c c3 3b b6 b7 4a be
       -0.04199492 0.014771454 0.005969553 -0.19796643
000140 9b 07 86 3d 03 21 0e bd 32 48 3a bd 79 15 c5 3d
       0.065444194 -0.03469945 -0.045479007 0.09623236
000150 cd e8 8c 3e 6a b2 db 3d af 59 ed bd f1 6c 54 3e
       0.27521363 0.10727389 -0.115893714 0.20744683
000160 e2 7b 4e 3e 2c d0 d5 3d 47 27 d0 bd 87 08 c4 3d
       0.20164445 0.10440096 -0.101637416 0.09571939
000170 b9 16 18 be be 1b 7e be e0 c0 83 bd 37 69 46 3e
       -0.14852418 -0.2481527 -0.06433272 0.19376074
000180 f5 8a 4d be 36 5e 06 3e 1f 61 f7 3c 91 92 d7 ba
       -0.20072539 0.13121876 0.030197678 -0.0016446878
000190 60 7e dc bd 03 10 c9 3e 9f 2a ec bd 80 1b 73 bc
       -0.107662916 0.39270028 -0.11531567 -0.0148380995
0001a0 8c b4 69 3e 43 bb c9 3c 5e 27 3d be 86 a5 98 be
       0.2282278 0.024625426 -0.18472049 -0.29813784
0001b0 6d a2 7a bd 1a 1e e1 3d eb 4b 35 be e5 13 dc bd
       -0.061190058 0.109920695 -0.17704742 -0.10745982
0001c0 88 36 50 be 78 79 7f bd 8a 82 4f be e6 b5 0f be
       -0.20333302 -0.0623717 -0.2026464 -0.14034232
0001d0 72 06 14 be ae 15 ca 3c 8e c9 7e 3e 5a 9e 13 be
       -0.14455584 0.02466854 0.24881575 -0.14415875
0001e0 9a d9 4e 3e f0 5c 13 be 89 ff d3 bc 1e c7 28 3e
       0.20200196 -0.14390922 -0.025878685 0.16482207
0001f0 69 59 9c 3c ee 46 56 be e8 c0 cb bc 96 0f 46 3e
       0.019085603 -0.20925495 -0.024872258 0.19341883
000200 13 e6 84 be 17 e6 ad 3e 23 9e 91 3e fb 40 36 3e
       -0.25956783 0.33964607 0.2844096 0.17798226
000210 b8 16 6f 3b 19 3d 89 3d 4d 5b 99 bc 05 e6 aa 3e
       0.0036482047 0.067011066 -0.018720293 0.33378616
000220 e7 41 1c be e8 a1 e9 3d 63 d7 e1 3d 8d 14 bf 3d
       -0.15259515 0.11407834 0.1102741 0.093300916
000230 22 9a ce bc 56 0b 04 3e de 3e 12 3e 35 5b 97 be
       -0.02521998 0.1289495 0.14281794 -0.29561773
000240 fb d0 bb bd 00 e7 a2 3e 77 95 44 bd 7d 9e fc bc
       -0.09170719 0.31816864 -0.047994103 -0.030837292
000250 e1 10 aa bc 52 dd 95 bd 8f 2c 07 3e 3a c6 2c bb
       -0.020760002 -0.07317604 0.13200592 -0.002636327
000260 06 35 6c bc 42 16 6e 3e 6e 3e cc 3d f4 a9 ec 3d
       -0.014416939 0.23250678 0.09972845 0.115558535
000270 46 d4 03 3e c9 5f 9a 3d 68 ef 9d 3b 5e 8f 0e 3d
       0.12873945 0.07537801 0.004819799 0.034804694
000280 db ab 87 be 4f 7c e7 3d 39 ac c6 3d 1a 00 b6 3d
       -0.26498303 0.11303007 0.097008176 0.08886738
000290 b8 9f 8b be a4 90 8e 3e 30 25 0a be 7b ef 08 3e
       -0.27270293 0.27844727 -0.13490748 0.13372605
0002a0 c4 ff 81 3e af 59 7a 3e 06 ff 13 bd 4b 31 f6 bd
       0.25390446 0.24448274 -0.03613188 -0.12021121
0002b0 64 91 a4 3c 7a 34 5d be 8f 28 c3 bd 9b 9c 38 be
       0.020088859 -0.2160205 -0.0952922 -0.1802849
0002c0 ed 56 1a 3e 48 1b 3d 3e 52 9b f6 3b 51 94 cf bd
       0.15072222 0.18467438 0.00752584 -0.10135711
0002d0 a5 f3 a6 3e 5d 33 1b be 4c 58 85 bc 7c 6c 55 be
       0.3260776 -0.15156312 -0.016277455 -0.20842165
0002e0 1e 96 2a bc 3c d0 06 be 1e 9c 12 be 8c 39 6d 3e
       -0.010411767 -0.13165373 -0.14317366 0.23166484
0002f0 b4 ce 65 3d fb b4 42 be 22 46 d5 3d 58 f5 8d 3d
       0.05610533 -0.19014351 0.104137674 0.06931561
000300 fd 69 3b 3e f9 01 be bd be 11 9b bd c7 81 4f be
       0.1830215 -0.0927772 -0.075717434 -0.2026435
000310 49 5b 0b be d6 f9 86 3d fa f8 02 be 19 fc 25 3e
       -0.13609041 0.06590621 -0.1279029 0.16209449
000320 eb a5 3f 3e f4 06 c0 3c 03 37 0f be a8 fb 80 be
       0.18715636 0.023440816 -0.13985829 -0.25191998
000330 cd df 50 3d e9 e6 e2 bd ba 80 83 bc a2 58 d4 bd
       0.050994683 -0.11079199 -0.016052593 -0.10368468
000340 7a 65 04 be d1 30 d6 bd 3d e9 ae 3d a6 76 95 be
       -0.12929335 -0.1045853 0.085405804 -0.29192084
000350 17 07 51 3c c4 b1 8a 3d 61 c9 b1 3d 1c 2e 7c 3d
       0.012758038 0.06772187 0.08680988 0.06156741
000360 73 78 63 3e 43 46 54 bd 15 46 85 bd e4 31 23 be
       0.22213916 -0.05182482 -0.06507508 -0.15937
000370 92 c4 27 be 84 7c 01 be ea 54 2e 3e 78 bf 90 3d
       -0.1638358 -0.12645155 0.1702458 0.0706777
000380 e5 f4 e3 3d c0 0c 66 bd a5 45 f1 3d cc f2 85 3d
       0.11130694 -0.056164503 0.11780862 0.065404505
000390 bc 1b 4d 3d 5b a9 3d be 15 5b a5 3e 58 0d 2b 3e
       0.050075278 -0.18521635 0.32296053 0.16704309
0003a0 da da 6e bd 66 74 78 3e d5 c8 97 bd 0e d2 11 3e
       -0.058314182 0.24263152 -0.074113525 0.14240286
0003b0 2d 04 24 bd c4 6c a0 bd fa ef d8 3c 22 e8 3d bd
       -0.040043045 -0.078332454 0.026481617 -0.046363957
0003c0 53 ec a9 3d ad 2d ec bd 4b 5d 14 be 85 5f 03 3e
       0.082970284 -0.115321495 -0.14488713 0.12829407
0003d0 31 3b 0e 3e c1 19 16 3e 2d f2 d7 3d 88 23 70 3e
       0.13889767 0.14658262 0.10544238 0.23451054
0003e0 bc 1c e0 bd 14 c7 58 bc 29 d9 e3 3b 47 63 f7 3d
       -0.10942981 -0.013231058 0.0069533777 0.120794825
0003f0 e5 2e 37 3d 4a d1 dc 3d c9 d7 46 3d 08 f9 03 3e
       0.044722456 0.10782106 0.048545633 0.12887967

bias f4 [50]
000000 e1 71 21 3d ed 65 b2 3a 80 6f f9 3b 7d e6 cd 3c
       0.039415244 0.0013610699 0.007612169 0.02513432
000010 98 fd bc bb 55 7f 47 3b 8b 62 92 bc 8b 57 2b 3c
       -0.0057675354 0.0030440886 -0.017869255 0.010457884
000020 49 07 7b bc 89 c2 99 bc 51 2b 08 3d ca fe 05 bc
       -0.015321561 -0.01876952 0.033244435 -0.008178422
000030 9d 59 ca bb 60 43 85 bd 78 6a 3b bc ea 85 6c bb
       -0.0061752335 -0.065069914 -0.011438958 -0.0036090561
000040 95 21 d7 3b 27 f0 07 3c 35 bc b2 3c bf 6d 34 bd
       0.0065652826 0.008297003 0.02181826 -0.044049975
000050 da 8d 72 3d 5c 13 8d 3c 68 08 3c 3c 86 ff 0b bc
       0.05921731 0.017221145 0.011476614 -0.008544808
000060 44 1d 6f 3c d1 a9 2f bd 7c 49 91 bb b6 41 b7 3c
       0.01459438 -0.04288656 -0.004433809 0.0223702
000070 04 17 1c 3c 63 81 81 3c 05 f2 7b 3c f5 dc c3 3c
       0.009526972 0.015808767 0.015377526 0.023909071
000080 ed f7 f8 3c e9 42 96 bb 1f 55 89 bb a4 02 8f 3b
       0.030391658 -0.004585613 -0.0041910554 0.0043643285
000090 63 67 0e 3c e7 67 34 3c dd 6a 54 3c 35 81 57 3b
       0.0086916415 0.0110111 0.012964931 0.003288341
0000a0 61 e3 7e 3d 1a 7c 5b 3c 6b e5 97 3d b5 b7 90 3c
       0.062228564 0.013396287 0.07416805 0.017665723
0000b0 fb cd b2 bc 6b 54 f5 bc 1c 33 60 3d 00 0e 03 bb
       -0.021826735 -0.02994748 0.05473624 -0.0019997358
0000c0 a7 da de bc 39 0c af bc
       -0.027203871 -0.021368133

weight f4 [50, 50]
000000 b8 8a 65 3d 89 65 f5 bd cb ea 2c 3e e1 93 65 3e
       0.056040496 -0.11982257 0.16886441 0.22419693
000010 01 b2 a0 bd de 49 23 be c3 de 4f bc 1a 4c 04 3e
       -0.078464516 -0.15946147 -0.012687388 0.12919655
000020 bf 20 c2 3e ed 3d 0d 3e ab 1b 96 bd f3 fb b8 3d
       0.37915608 0.13793154 -0.07329496 0.090324305
000030 e7 6a fc bd 1e 66 89 be 7e 9e d0 be 75 18 b6 3d
       -0.123250775 -0.26835722 -0.4074592 0.088913836
000040 b9 14 78 3e d5 b9 cb 3d 47 dd 8f bd 5a ac ac bd
       0.24226655 0.09947554 -0.07024627 -0.08431311
000050 8c ff d6 3c df 7e b2 3e 10 1e 69 3e ce 32 29 be
       0.026244901 0.3486242 0.22765374 -0.16523287
000060 c9 f0 8a bd 16 50 58 be 76 d9 7c bd 3a 95 df 3c
       -0.067842074 -0.211243 -0.061730824 0.027292836
000070 92 e4 1e be 41 b3 1c 3b 58 bb 86 3e 8d 2a 41 3e
       -0.1551688 0.0023910555 0.26314807 0.18863888
000080 09 16 0f 3e c9 ea eb 3c b3 1d 05 3e e7 51 56 3e
       0.1397325 0.028798478 0.1299961 0.20929681
000090 5a ad 3d 3e 2b 4a 90 bb f2 a4 d2 3e be 18 e7 3d
       0.1852316 -0.0044033728 0.41141468 0.11284016
0000a0 13 d5 89 3d b2 a0 c3 3c 90 c0 8f 3e 3d cb 15 3e
       0.06730094 0.023880336 0.280766 0.1462831
0000b0 50 6e eb bd 81 af f8 bd be eb 1d 3e 78 83 76 bc
       -0.1149565 -0.1214285 0.1542196 -0.015045993
0000c0 d6 0e ec bc 79 13 d3 bd a8 d1 a4 bd b1 66 0d 3e
       -0.028815668 -0.103064485 -0.08047801 0.13808705
0000d0 49 94 9d 3d b0 03 68 bd 88 00 5f 3d 14 c2 17 3d
       0.07694299 -0.05664414 0.054443866 0.03705032
0000e0 bf 8e 3a bb 3d 67 1d be 21 0d 8d bd a7 4d 5b 3e
       -0.002846643 -0.15371414 -0.0688727 0.21416341
0000f0 62 40 8c 3d a7 d0 06 3e 21 f1 56 be fe 89 ec bd
       0.068482175 0.13165532 -0.20990421 -0.115497574
000100 b9 2c f3 3d 29 4a d5 3c 43 0e fa bc fb 18 b4 bc
       0.118737645 0.026036339 -0.030524379 -0.021984568
000110 f0 d4 f6 bd 12 e0 c8 3d ad b2 60 3d cc d3 ea 3c
       -0.12052333 0.09808363 0.0548579 0.028665446
000120 7b fd fb 3e 49 e1 03 be aa 86 e5 bd 20 11 97 bd
       0.49216828 -0.12878908 -0.11207326 -0.07376313
000130 4e 30 33 3d 56 84 08 3e 72 4b 18 bd f8 af 6b 3e
       0.04374724 0.13331732 -0.037181325 0.23016346
000140 60 af 4f 3e 5a 2b b5 3d 11 ba 79 bd d7 dc 20 bd
       0.20281744 0.08846159 -0.060968462 -0.03927311
000150 b6 29 02 3d 6a fb dd 3c bd 2a 24 be 2f 2d 82 3d
       0.03177806 0.027097423 -0.16031928 0.06356274
000160 48 39 84 3e cc 9a 01 be 88 31 88 be 92 6f 10 be
       0.25824952 -0.12656707 -0.2660029 -0.1410506
000170 f0 c9 03 bb f2 6e c3 3e 31 16 58 3c f5 2f 56 3e
       -0.0020109378 0.38170582 0.013188885 0.20916732
000180 2e d0 b6 bd 5e 53 0c be f9 27 e6 3c 95 87 85 be
       -0.08926426 -0.13703677 0.028095232 -0.26080003
000190 f5 5b 57 3d 58 28 22 3d 02 46 01 3e 6b e0 16 3e
       0.05257793 0.039589256 0.12624362 0.14734046
0001a0 5c 7d aa bd c1 ec bf 3d a3 75 4b 3e c6 ee 77 3d
       -0.08324692 0.09371329 0.19869094 0.060530446
0001b0 a1 01 1e bd ea 2c fb 3c 42 2a bb be 26 ef 47 3e
       -0.038575772 0.030661065 -0.36555678 0.19524822
0001c0 b5 e0 20 be c5 e7 44 3e 95 77 44 3e 1f d6 3b 3c
       -0.15710719 0.19229038 0.19186242 0.011464625
0001d0 78 fc 55 3e 7f c2 f3 3d af 37 15 3e 52 f2 a8 3e
       0.2089709 0.119023316 0.14572023 0.32997376
0001e0 fd 3c 03 be 9f da 37 3e be 44 02 3c 2c 36 27 be
       -0.12816234 0.17954491 0.00795096 -0.16329259
0001f0 a4 05 da 3c 1a 5c 37 bd 49 40 00 3e db db 1d 3d
       0.026614018 -0.04476557 0.12524523 0.03853975
000200 ad e3 fd 3d 26 c1 8b 3d 4c ae 80 3c 9a 68 72 be
       0.12396941 0.068239495 0.015708111 -0.23672715
000210 45 0f 81 3b d9 ca b8 bd 9f 30 bf 3d 21 c3 9b 3d
       0.003938588 -0.09023065 0.093354456 0.07605577
000220 91 30 97 be 0f d2 bf bd 66 2b 8a 3d 28 b9 44 be
       -0.2952924 -0.09366237 0.06746559 -0.19211257
000230 4b 0d dc bd 0c 1c 1f be 16 3b 6a 3b f7 b1 5f bd
       -0.10744723 -0.15538043 0.0035740784 -0.05461308
000240 54 12 a6 3d 4a 0a 4a bd 15 e2 93 be d9 3a 20 be
       0.081089646 -0.04932622 -0.28883424 -0.15647449
000250 42 2c d5 bc 25 f9 3a bd 53 f8 99 3d db 17 00 bd
       -0.02602208 -0.04564776 0.07518067 -0.03127275
000260 f9 9b 40 3e 35 60 75 3d 9e 25 a1 bc ca 2e 2c 3d
       0.18809499 0.059906203 -0.019671258 0.04203681
000270 e7 b8 5e bd 32 d9 45 be 50 40 6c bd 13 26 97 3d
       -0.054375555 -0.19321135 -0.05767852 0.07380309
000280 9c 10 45 3e 2b a9 01 be 3f 16 c7 bc 0b bf bc bd
       0.19244617 -0.12662189 -0.0243026 -0.09216126
000290 e1 48 ff 3d 11 2f ff bc 3f 47 b3 3e af 40 66 be
       0.124650724 -0.031150373 0.35015294 -0.22485612
0002a0 9b 98 e9 be b8 c0 8d bd 84 ad 6c bc 5a 50 a0 3d
       -0.4562424 -0.06921524 -0.014445666 0.07827826
0002b0 f1 11 43 3d 22 18 24 be 5d 20 1e 3e 07 62 e2 bd
       0.047624532 -0.16024831 0.15442033 -0.110538535
0002c0 2d 25 a8 bd 2f aa a1 be b0 99 00 bd 1b 9a 20 3d
       -0.08210216 -0.31575152 -0.031396568 0.039209466
0002d0 fc 97 91 3e f8 6e eb bc 32 29 8b 3c e8 ff 60 bc
       0.28436267 -0.028739437 0.016987417 -0.013732888
0002e0 4c aa 39 3e d7 50 6b 3e bd 11 f7 bb 54 16 e5 3d
       0.1813137 0.22980057 -0.0075399564 0.111858994
0002f0 ca 9d 40 be e9 80 53 bd 4f 17 52 3e 00 61 06 3d
       -0.18810192 -0.05163661 0.20516704 0.03280735
000300 ac b8 be 3d 2f b1 a5 bc 06 8b 89 bd ed b0 b9 3d
       0.09312567 -0.02022609 -0.0671597 0.09066949
000310 25 2b ce bc 19 44 0d 3d 93 4e 8a be c8 fe 41 bd
       -0.025167057 0.03448877 -0.27013072 -0.04736212
000320 f1 50 d4 bd 18 a9 80 be d2 31 9d bd 96 53 9c 3d
       -0.10367001 -0.25129008 -0.07675518 0.0763313
000330 7c 83 8d 3c 53 0b 42 bc 9d a9 0f be 1f 56 ee 3d
       0.01727461 -0.01184352 -0.14029546 0.1163752
000340 68 bc 9f be 30 e9 43 be 29 2f 02 bb a4 7d 3c 3d
       -0.3119843 -0.19131923 -0.0019864535 0.046018258
000350 7a b8 cf 3d ed b5 97 3b 0f 37 7f 3c 7b ac f1 bd
       0.10142608 0.0046298415 0.015577092 -0.11800476
000360 ec 83 03 be de 9a 92 bb 96 37 9e bd 48 8e 08 3e
       -0.12843293 -0.004474028 -0.07725446 0.13335526
000370 00 f6 63 bc c5 c2 3c be 4d a2 56 3e da 42 a0 3e
       -0.013913631 -0.18433674 0.2096035 0.31301004
000380 6a e6 0b be 4b a3 9c bd d9 c0 eb 3d 51 f9 d7 3d
       -0.13662115 -0.07648333 0.11511392 0.105456
000390 25 c7 02 3e 9e 77 2d 3e 5b 47 bc bd 57 c3 e7 3c
       0.1277128 0.16940162 -0.091932975 0.028291387
0003a0 ee 3b 10 3e e6 cd 29 3e 3c b9 b9 3d e2 29 8c 3b
       0.14085361 0.1658245 0.09068534 0.0042774538
0003b0 a8 63 70 be 59 a4 36 3e d7 29 96 3e a4 5c 71 bd
       -0.23475516 0.17836131 0.29328796 -0.05892624
0003c0 34 00 84 be fd ef a7 bd 33 dd 75 3d ba 2d 02 be
       -0.25781405 -0.08200071 0.060025405 -0.12712756
0003d0 40 98 12 be 14 43 a0 bd c9 b6 d4 3d 19 27 24 be
       -0.14315891 -0.07825294 0.10386426 -0.1603054
0003e0 b1 69 8e 3e 2e 6e 71 be 36 ca e7 bd 0b f2 a2 bd
       0.2781501 -0.23577186 -0.113178656 -0.07956322
0003f0 ee 6a 1b bd 4b 0b a1 3c 1c 27 83 be fa c0 83 3d
       -0.037943773 0.019658705 -0.25615776 0.06433292

bias f4 [50]
000000 b4 8c 14 3d 52 dd d0 bb 10 5d 87 bc 2f 0f 42 bc
       0.036266997 -0.0063740397 -0.016523868 -0.01184444
000010 e3 32 3f 3c fc d4 5a 3c 37 17 0d ba 49 28 2b bc
       0.011669847 0.0133564435 -0.00053821824 -0.010446616
000020 e2 91 07 3b 05 f5 83 3c e6 4e 3a bc cc b5 8a 3c
       0.0020686318 0.016108045 -0.01137135 0.01693239
000030 d6 a2 2a 3b a8 41 15 3a 65 04 3a 3b cb d8 c3 bb
       0.0026037 0.00056936825 0.0028383967 -0.0059767715
000040 d2 d1 4e bc d8 9f 80 3c f3 49 4e 3c 08 a4 62 3b
       -0.012623267 0.01570122 0.012590873 0.0034582634
000050 a2 04 5d bc b3 bf 26 bd 9b 0b 6d bc 14 33 36 bc
       -0.013489874 -0.040710162 -0.014468099 -0.011120576
000060 34 27 a4 bc 1a 55 81 3c 90 3e fc 3b 0f ff 9e bb
       -0.020038225 0.01578765 0.0076978877 -0.0048521827
000070 6a f2 25 3b 11 4b 91 bc 8d c9 c2 bc 26 f8 b3 bc
       0.0025321492 -0.01773599 -0.023777748 -0.021968912
000080 b9 6b 53 bc 9e 9f c5 3b 7f 05 97 3b 2f 74 06 bd
       -0.012904101 0.0060309907 0.0046088095 -0.032825645
000090 25 9c 77 3b 68 17 a1 bc 9c 6d dd bc 0d 24 f1 bc
       0.0037782278 -0.019664481 -0.027029805 -0.029436136
0000a0 d1 94 14 ba ef 3e aa 3c 88 42 06 3c 8d 14 d9 3b
       -0.00056679273 0.020781962 0.008194573 0.0066247643
0000b0 61 f7 21 bd 79 5a 80 bc c0 6b a6 bc 80 43 8e 3c
       -0.03954256 -0.01566814 -0.020315051 0.01736617
0000c0 c3 da 02 bd 9b 66 5e 3a
       -0.03194691 0.00084839173
