pbc_examples/saved_models/convection_beta-20.0_layers-50,50,50,50,1_L-2.0_WD-0_init-normal_seed0.pt (torch, 114029 bytes, 36 tensors)

x_u f4 [256, 1]
00000000: 0000 0000 db0f c93c db0f 493d e4cb 963d
00000010: db0f c93d d153 fb3d e4cb 163e dfed 2f3e
00000020: db0f 493e d631 623e d153 7b3e e63a 8a3e
00000030: e4cb 963e e25c a33e dfed af3e dd7e bc3e
00000040: db0f c93e d8a0 d53e d631 e23e d4c2 ee3e
00000050: d153 fb3e 67f2 033f e63a 0a3f 6583 103f
00000060: e4cb 163f 6314 1d3f e25c 233f 60a5 293f
00000070: dfed 2f3f 5e36 363f dd7e 3c3f 5cc7 423f
00000080: db0f 493f 5958 4f3f d8a0 553f 57e9 5b3f
00000090: d631 623f 557a 683f d4c2 6e3f 520b 753f
000000a0: d153 7b3f 28ce 803f 67f2 833f a716 873f
000000b0: e63a 8a3f 265f 8d3f 6583 903f a5a7 933f
000000c0: e4cb 963f 23f0 993f 6314 9d3f a238 a03f
000000d0: e25c a33f 2181 a63f 60a5 a93f a0c9 ac3f
000000e0: dfed af3f 1f12 b33f 5e36 b63f 9e5a b93f
000000f0: dd7e bc3f 1ca3 bf3f 5cc7 c23f 9beb c53f
00000100: db0f c93f 1a34 cc3f 5958 cf3f 997c d23f
00000110: d8a0 d53f 18c5 d83f 57e9 db3f 970d df3f
00000120: d631 e23f 1556 e53f 557a e83f 949e eb3f
00000130: d4c2 ee3f 13e7 f13f 520b f53f 922f f83f
00000140: d153 fb3f 1178 fe3f 28ce 0040 4860 0240
00000150: 67f2 0340 8784 0540 a716 0740 c7a8 0840
00000160: e63a 0a40 06cd 0b40 265f 0d40 45f1 0e40
00000170: 6583 1040 8515 1240 a5a7 1340 c439 1540
00000180: e4cb 1640 045e 1840 23f0 1940 4382 1b40
00000190: 6314 1d40 83a6 1e40 a238 2040 c2ca 2140
000001a0: e25c 2340 01ef 2440 2181 2640 4113 2840
000001b0: 60a5 2940 8037 2b40 a0c9 2c40 c05b 2e40
000001c0: dfed 2f40 ff7f 3140 1f12 3340 3ea4 3440
000001d0: 5e36 3640 7ec8 3740 9e5a 3940 bdec 3a40
000001e0: dd7e 3c40 fd10 3e40 1ca3 3f40 3c35 4140
000001f0: 5cc7 4240 7c59 4440 9beb 4540 bb7d 4740
00000200: db0f 4940 faa1 4a40 1a34 4c40 3ac6 4d40
00000210: 5958 4f40 79ea 5040 997c 5240 b90e 5440
00000220: d8a0 5540 f832 5740 18c5 5840 3757 5a40
00000230: 57e9 5b40 777b 5d40 970d 5f40 b69f 6040
00000240: d631 6240 f6c3 6340 1556 6540 35e8 6640
00000250: 557a 6840 750c 6a40 949e 6b40 b430 6d40
00000260: d4c2 6e40 f354 7040 13e7 7140 3379 7340
00000270: 520b 7540 729d 7640 922f 7840 b2c1 7940
00000280: d153 7b40 f1e5 7c40 1178 7e40 1805 8040
00000290: 28ce 8040 3897 8140 4860 8240 5829 8340
000002a0: 67f2 8340 77bb 8440 8784 8540 974d 8640
000002b0: a716 8740 b7df 8740 c7a8 8840 d671 8940
000002c0: e63a 8a40 f603 8b40 06cd 8b40 1696 8c40
000002d0: 265f 8d40 3628 8e40 45f1 8e40 55ba 8f40
000002e0: 6583 9040 754c 9140 8515 9240 95de 9240
000002f0: a5a7 9340 b470 9440 c439 9540 d402 9640
00000300: e4cb 9640 f494 9740 045e 9840 1427 9940
00000310: 23f0 9940 33b9 9a40 4382 9b40 534b 9c40
00000320: 6314 9d40 73dd 9d40 83a6 9e40 926f 9f40
00000330: a238 a040 b201 a140 c2ca a140 d293 a240
00000340: e25c a340 f125 a440 01ef a440 11b8 a540
00000350: 2181 a640 314a a740 4113 a840 51dc a840
00000360: 60a5 a940 706e aa40 8037 ab40 9000 ac40
00000370: a0c9 ac40 b092 ad40 c05b ae40 cf24 af40
00000380: dfed af40 efb6 b040 ff7f b140 0f49 b240
00000390: 1f12 b340 2fdb b340 3ea4 b440 4e6d b540
000003a0: 5e36 b640 6eff b640 7ec8 b740 8e91 b840
000003b0: 9e5a b940 ad23 ba40 bdec ba40 cdb5 bb40
000003c0: dd7e bc40 ed47 bd40 fd10 be40 0dda be40
000003d0: 1ca3 bf40 2c6c c040 3c35 c140 4cfe c140
000003e0: 5cc7 c240 6c90 c340 7c59 c440 8b22 c540
000003f0: 9beb c540 abb4 c640 bb7d c740 cb46 c840
0.0 0.024543693 0.049087387 0.07363108 0.09817477 0.12271846 0.14726216 0.17180584
0.19634955 0.22089323 0.24543692 0.2699806 0.2945243 0.319068 0.3436117 0.3681554
0.3926991 0.41724277 0.44178647 0.46633017 0.49087384 0.5154175 0.5399612 0.5645049
0.5890486 0.6135923 0.638136 0.6626797 0.6872234 0.7117671 0.7363108 0.7608545
0.7853982 0.8099418 0.83448553 0.85902923 0.88357294 0.90811664 0.93266034 0.957204
0.9817477 1.0062914 1.030835 1.0553788 1.0799224 1.1044662 1.1290098 1.1535536
1.1780972 1.2026409 1.2271847 1.2517283 1.276272 1.3008157 1.3253593 1.3499031
1.3744467 1.3989905 1.4235342 1.4480779 1.4726216 1.4971652 1.521709 1.5462526
1.5707964 1.59534 1.6198837 1.6444274 1.6689711 1.6935148 1.7180585 1.7426022
1.7671459 1.7916895 1.8162333 1.8407769 1.8653207 1.8898643 1.914408 1.9389517
1.9634954 1.9880391 2.0125828 2.0371265 2.06167 2.0862138 2.1107576 2.1353014
2.1598449 2.1843886 2.2089324 2.233476 2.2580197 2.2825634 2.3071072 2.3316507
2.3561945 2.3807383 2.4052818 2.4298255 2.4543693 2.478913 2.5034566 2.5280004
2.552544 2.5770876 2.6016314 2.6261752 2.6507187 2.6752625 2.6998062 2.72435
2.7488935 2.7734373 2.797981 2.8225245 2.8470683 2.871612 2.8961558 2.9206994
2.9452431 2.969787 2.9943304 3.0188742 3.043418 3.0679617 3.0925052 3.117049
3.1415927 3.1661363 3.19068 3.2152238 3.2397673 3.264311 3.2888548 3.3133986
3.3379421 3.362486 3.3870296 3.4115732 3.436117 3.4606607 3.4852045 3.509748
3.5342917 3.5588355 3.583379 3.6079228 3.6324666 3.6570103 3.6815538 3.7060976
3.7306414 3.755185 3.7797287 3.8042724 3.828816 3.8533597 3.8779035 3.9024472
3.9269907 3.9515345 3.9760783 4.000622 4.0251656 4.0497093 4.074253 4.098797
4.12334 4.147884 4.1724277 4.1969714 4.221515 4.246059 4.2706027 4.295146
4.3196898 4.3442335 4.3687773 4.393321 4.417865 4.4424086 4.466952 4.4914956
4.5160394 4.540583 4.565127 4.5896707 4.6142144 4.6387577 4.6633015 4.687845
4.712389 4.7369328 4.7614765 4.7860203 4.8105636 4.8351073 4.859651 4.884195
4.9087386 4.9332824 4.957826 4.9823694 5.006913 5.031457 5.0560007 5.0805445
5.105088 5.1296315 5.1541753 5.178719 5.203263 5.2278066 5.2523503 5.276894
5.3014374 5.325981 5.350525 5.3750687 5.3996124 5.424156 5.4487 5.473243
5.497787 5.5223308 5.5468745 5.5714183 5.595962 5.620506 5.645049 5.669593
5.6941366 5.7186804 5.743224 5.767768 5.7923117 5.816855 5.8413987 5.8659425
5.8904862 5.91503 5.939574 5.9641175 5.988661 6.0132046 6.0377483 6.062292
6.086836 6.1113796 6.1359234 6.1604667 6.1850104 6.209554 6.234098 6.2586417

t_u f4 [256, 1]
00000000: 0000 0000 0000 0000 0000 0000 0000 0000
00000010: 0000 0000 0000 0000 0000 0000 0000 0000
00000020: 0000 0000 0000 0000 0000 0000 0000 0000
00000030: 0000 0000 0000 0000 0000 0000 0000 0000
00000040: 0000 0000 0000 0000 0000 0000 0000 0000
00000050: 0000 0000 0000 0000 0000 0000 0000 0000
00000060: 0000 0000 0000 0000 0000 0000 0000 0000
00000070: 0000 0000 0000 0000 0000 0000 0000 0000
00000080: 0000 0000 0000 0000 0000 0000 0000 0000
00000090: 0000 0000 0000 0000 0000 0000 0000 0000
000000a0: 0000 0000 0000 0000 0000 0000 0000 0000
000000b0: 0000 0000 0000 0000 0000 0000 0000 0000
000000c0: 0000 0000 0000 0000 0000 0000 0000 0000
000000d0: 0000 0000 0000 0000 0000 0000 0000 0000
000000e0: 0000 0000 0000 0000 0000 0000 0000 0000
000000f0: 0000 0000 0000 0000 0000 0000 0000 0000
00000100: 0000 0000 0000 0000 0000 0000 0000 0000
00000110: 0000 0000 0000 0000 0000 0000 0000 0000
00000120: 0000 0000 0000 0000 0000 0000 0000 0000
00000130: 0000 0000 0000 0000 0000 0000 0000 0000
00000140: 0000 0000 0000 0000 0000 0000 0000 0000
00000150: 0000 0000 0000 0000 0000 0000 0000 0000
00000160: 0000 0000 0000 0000 0000 0000 0000 0000
00000170: 0000 0000 0000 0000 0000 0000 0000 0000
00000180: 0000 0000 0000 0000 0000 0000 0000 0000
00000190: 0000 0000 0000 0000 0000 0000 0000 0000
000001a0: 0000 0000 0000 0000 0000 0000 0000 0000
000001b0: 0000 0000 0000 0000 0000 0000 0000 0000
000001c0: 0000 0000 0000 0000 0000 0000 0000 0000
000001d0: 0000 0000 0000 0000 0000 0000 0000 0000
000001e0: 0000 0000 0000 0000 0000 0000 0000 0000
000001f0: 0000 0000 0000 0000 0000 0000 0000 0000
00000200: 0000 0000 0000 0000 0000 0000 0000 0000
00000210: 0000 0000 0000 0000 0000 0000 0000 0000
00000220: 0000 0000 0000 0000 0000 0000 0000 0000
00000230: 0000 0000 0000 0000 0000 0000 0000 0000
00000240: 0000 0000 0000 0000 0000 0000 0000 0000
00000250: 0000 0000 0000 0000 0000 0000 0000 0000
00000260: 0000 0000 0000 0000 0000 0000 0000 0000
00000270: 0000 0000 0000 0000 0000 0000 0000 0000
00000280: 0000 0000 0000 0000 0000 0000 0000 0000
00000290: 0000 0000 0000 0000 0000 0000 0000 0000
000002a0: 0000 0000 0000 0000 0000 0000 0000 0000
000002b0: 0000 0000 0000 0000 0000 0000 0000 0000
000002c0: 0000 0000 0000 0000 0000 0000 0000 0000
000002d0: 0000 0000 0000 0000 0000 0000 0000 0000
000002e0: 0000 0000 0000 0000 0000 0000 0000 0000
000002f0: 0000 0000 0000 0000 0000 0000 0000 0000
00000300: 0000 0000 0000 0000 0000 0000 0000 0000
00000310: 0000 0000 0000 0000 0000 0000 0000 0000
00000320: 0000 0000 0000 0000 0000 0000 0000 0000
00000330: 0000 0000 0000 0000 0000 0000 0000 0000
00000340: 0000 0000 0000 0000 0000 0000 0000 0000
00000350: 0000 0000 0000 0000 0000 0000 0000 0000
00000360: 0000 0000 0000 0000 0000 0000 0000 0000
00000370: 0000 0000 0000 0000 0000 0000 0000 0000
00000380: 0000 0000 0000 0000 0000 0000 0000 0000
00000390: 0000 0000 0000 0000 0000 0000 0000 0000
000003a0: 0000 0000 0000 0000 0000 0000 0000 0000
000003b0: 0000 0000 0000 0000 0000 0000 0000 0000
000003c0: 0000 0000 0000 0000 0000 0000 0000 0000
000003d0: 0000 0000 0000 0000 0000 0000 0000 0000
000003e0: 0000 0000 0000 0000 0000 0000 0000 0000
000003f0: 0000 0000 0000 0000 0000 0000 0000 0000
0.0 0.0 0.0 0.0 0.0 0.0 0.0 0.0
0.0 0.0 0.0 0.0 0.0 0.0 0.0 0.0
0.0 0.0 0.0 0.0 0.0 0.0 0.0 0.0
0.0 0.0 0.0 0.0 0.0 0.0 0.0 0.0
0.0 0.0 0.0 0.0 0.0 0.0 0.0 0.0
0.0 0.0 0.0 0.0 0.0 0.0 0.0 0.0
0.0 0.0 0.0 0.0 0.0 0.0 0.0 0.0
0.0 0.0 0.0 0.0 0.0 0.0 0.0 0.0
0.0 0.0 0.0 0.0 0.0 0.0 0.0 0.0
0.0 0.0 0.0 0.0 0.0 0.0 0.0 0.0
0.0 0.0 0.0 0.0 0.0 0.0 0.0 0.0
0.0 0.0 0.0 0.0 0.0 0.0 0.0 0.0
0.0 0.0 0.0 0.0 0.0 0.0 0.0 0.0
0.0 0.0 0.0 0.0 0.0 0.0 0.0 0.0
0.0 0.0 0.0 0.0 0.0 0.0 0.0 0.0
0.0 0.0 0.0 0.0 0.0 0.0 0.0 0.0
0.0 0.0 0.0 0.0 0.0 0.0 0.0 0.0
0.0 0.0 0.0 0.0 0.0 0.0 0.0 0.0
0.0 0.0 0.0 0.0 0.0 0.0 0.0 0.0
0.0 0.0 0.0 0.0 0.0 0.0 0.0 0.0
0.0 0.0 0.0 0.0 0.0 0.0 0.0 0.0
0.0 0.0 0.0 0.0 0.0 0.0 0.0 0.0
0.0 0.0 0.0 0.0 0.0 0.0 0.0 0.0
0.0 0.0 0.0 0.0 0.0 0.0 0.0 0.0
0.0 0.0 0.0 0.0 0.0 0.0 0.0 0.0
0.0 0.0 0.0 0.0 0.0 0.0 0.0 0.0
0.0 0.0 0.0 0.0 0.0 0.0 0.0 0.0
0.0 0.0 0.0 0.0 0.0 0.0 0.0 0.0
0.0 0.0 0.0 0.0 0.0 0.0 0.0 0.0
0.0 0.0 0.0 0.0 0.0 0.0 0.0 0.0
0.0 0.0 0.0 0.0 0.0 0.0 0.0 0.0
0.0 0.0 0.0 0.0 0.0 0.0 0.0 0.0

x_f f4 [100, 1]
00000000: a5a7 9340 970d df3f d8a0 5540 534b 9c40
00000010: 7c59 4440 efb6 b040 ad23 ba40 9beb c540
00000020: 8515 9240 23f0 993f 1427 9940 6583 103f
00000030: 949e eb3f d153 fb3d 926f 9f40 5cc7 c240
00000040: 6eff b640 a0c9 2c40 c2ca 2140 6c90 c340
00000050: c05b 2e40 cf24 af40 a716 873f 4cfe c140
00000060: d631 e23e 5e36 363f 974d 8640 cb46 c840
00000070: 7c59 c440 754c 9140 9beb c540 c7a8 8840
00000080: cf24 af40 2181 2640 265f 8d40 6314 9d40
00000090: 2c6c c040 dd7e bc3e d153 fb3e 2181 a640
000000a0: 777b 5d40 d631 e23e 5958 cf3f 77bb 8440
000000b0: 557a e83f 83a6 9e40 970d 5f40 18c5 5840
000000c0: 520b 753f a5a7 1340 60a5 293f 314a a740
000000d0: db0f c93c 4cfe c140 c439 1540 d153 fb3f
000000e0: c439 1540 dfed 2f3f 1a34 cc3f 3757 5a40
000000f0: 1f12 b340 9e5a b940 265f 8d3f 949e 6b40
00000100: d631 623f 57e9 db3f 4382 1b40 35e8 6640
00000110: 1556 e53f 5958 cf3f d671 8940 1178 fe3f
00000120: 6583 1040 c05b 2e40 db0f 493f 67f2 0340
00000130: 83a6 9e40 f125 a440 4382 1b40 754c 9140
00000140: 750c 6a40 d8a0 553f b430 6d40 1556 e53f
00000150: 5cc7 c240 926f 9f40 534b 9c40 28ce 803f
00000160: dfed af40 bdec ba40 974d 8640 e4cb 9640
00000170: d631 623f d4c2 6e3f 6314 9d3f 7ec8 b740
00000180: 0f49 b240 3c35 c140 57e9 5b40 a0c9 ac3f
4.6142144 1.7426022 3.3379421 4.884195 3.0679617 5.5223308 5.816855 6.1850104
4.565127 1.2026409 4.7860203 0.5645049 1.8407769 0.12271846 4.9823694 6.086836
5.7186804 2.6998062 2.5280004 6.1113796 2.72435 5.473243 1.0553788 6.062292
0.44178647 0.7117671 4.1969714 6.2586417 6.1359234 4.540583 6.1850104 4.2706027
5.473243 2.6016314 4.417865 4.9087386 6.0132046 0.3681554 0.49087384 5.203263
3.4606607 0.44178647 1.6198837 4.147884 1.8162333 4.957826 3.4852045 3.3870296
0.957204 2.3071072 0.6626797 5.2278066 0.024543693 6.062292 2.3316507 1.9634954
2.3316507 0.6872234 1.59534 3.4115732 5.595962 5.7923117 1.1044662 3.6815538
0.88357294 1.7180585 2.4298255 3.6079228 1.7916895 1.6198837 4.295146 1.9880391
2.2580197 2.72435 0.7853982 2.06167 4.957826 5.1296315 2.4298255 4.540583
3.6570103 0.83448553 3.7060976 1.7916895 6.086836 4.9823694 4.884195 1.0062914
5.497787 5.8413987 4.1969714 4.712389 0.88357294 0.93266034 1.2271847 5.743224
5.5714183 6.0377483 3.436117 1.3499031

t_f f4 [100, 1]
00000000: 7786 c43e 5d74 513f ee0c 093f 6748 4c3f
00000010: dece 103e 9602 353f a0d6 2f3f 721c 473f
00000020: e9a2 0b3f b57e 253c e438 0e3f 6db2 493f
00000030: 4362 de3e 4362 de3e 0ad4 7a3f 0000 803f
00000040: a540 2d3f f376 063f ca26 9b3e 580a 543f
00000050: 0ad4 7a3f bae8 223f a0d6 af3e b57e a53e
00000060: 1a12 f33e 2950 6b3f e438 0e3f 721c 473f
00000070: 8c2e ba3e 398e 633e dece 903e 398e 633f
00000080: 2fba 683f ca26 1b3e bf52 203f b57e 253d
00000090: ca26 1b3e 3ef8 603f d4fa 153f fd4a 813e
000000a0: 6748 4c3f 7786 c43e 4e36 d93e b57e 253c
000000b0: 103e 783e 3424 663f 8c2e ba3e 1f7c 703f
000000c0: 7cf0 413f bf52 a03e b57e 253d a0d6 af3e
000000d0: 2fba e83e 15a8 753f 15a8 753f 2fba e83e
000000e0: 2fba e83e 62de 4e3f f376 063f dece 103f
000000f0: 3ef8 603f 86c4 3c3f b57e 253d 1a12 f33e
00000100: d964 133f dece 103f a540 2d3f 056a 7d3f
00000110: a0d6 2f3f 4e36 593e 62de 4e3d dece 903e
00000120: fd4a 813e 62de 4e3f b57e 253c 580a d43e
00000130: 103e 783f 0ad4 7a3f d4fa 953e f8e0 033f
00000140: 53a0 563f 1a12 733f 1a12 f33e cf90 183f
00000150: 6db2 c93e a0d6 2f3f 4e36 593f b57e a53c
00000160: 2950 6b3f 103e f83e f376 063e ca26 1b3f
00000170: fd4a 813e 103e 783f a0d6 af3e 53a0 563f
00000180: 103e f83e 6748 4c3f 9198 373f ca26 9b3e
0.3838384 0.8181818 0.53535354 0.7979798 0.14141414 0.7070707 0.68686867 0.7777778
0.54545456 0.01010101 0.5555556 0.7878788 0.43434343 0.43434343 0.97979796 1.0
0.67676765 0.5252525 0.3030303 0.82828283 0.97979796 0.6363636 0.34343433 0.32323232
0.47474748 0.9191919 0.5555556 0.7777778 0.36363637 0.22222222 0.28282827 0.8888889
0.90909094 0.15151516 0.6262626 0.04040404 0.15151516 0.8787879 0.5858586 0.25252524
0.7979798 0.3838384 0.42424244 0.01010101 0.24242425 0.8989899 0.36363637 0.93939394
0.75757575 0.3131313 0.04040404 0.34343433 0.45454547 0.959596 0.959596 0.45454547
0.45454547 0.8080808 0.5252525 0.56565654 0.8787879 0.7373737 0.04040404 0.47474748
0.57575756 0.56565654 0.67676765 0.989899 0.68686867 0.21212122 0.05050505 0.28282827
0.25252524 0.8080808 0.01010101 0.41414142 0.969697 0.97979796 0.2929293 0.5151515
0.83838385 0.94949496 0.47474748 0.5959596 0.3939394 0.68686867 0.8484849 0.02020202
0.9191919 0.4848485 0.13131313 0.6060606 0.25252524 0.969697 0.34343433 0.83838385
0.4848485 0.7979798 0.7171717 0.3030303

x_bc_lb f4 [100, 1]
00000000: 0000 0000 0000 0000 0000 0000 0000 0000
00000010: 0000 0000 0000 0000 0000 0000 0000 0000
00000020: 0000 0000 0000 0000 0000 0000 0000 0000
00000030: 0000 0000 0000 0000 0000 0000 0000 0000
00000040: 0000 0000 0000 0000 0000 0000 0000 0000
00000050: 0000 0000 0000 0000 0000 0000 0000 0000
00000060: 0000 0000 0000 0000 0000 0000 0000 0000
00000070: 0000 0000 0000 0000 0000 0000 0000 0000
00000080: 0000 0000 0000 0000 0000 0000 0000 0000
00000090: 0000 0000 0000 0000 0000 0000 0000 0000
000000a0: 0000 0000 0000 0000 0000 0000 0000 0000
000000b0: 0000 0000 0000 0000 0000 0000 0000 0000
000000c0: 0000 0000 0000 0000 0000 0000 0000 0000
000000d0: 0000 0000 0000 0000 0000 0000 0000 0000
000000e0: 0000 0000 0000 0000 0000 0000 0000 0000
000000f0: 0000 0000 0000 0000 0000 0000 0000 0000
00000100: 0000 0000 0000 0000 0000 0000 0000 0000
00000110: 0000 0000 0000 0000 0000 0000 0000 0000
00000120: 0000 0000 0000 0000 0000 0000 0000 0000
00000130: 0000 0000 0000 0000 0000 0000 0000 0000
00000140: 0000 0000 0000 0000 0000 0000 0000 0000
00000150: 0000 0000 0000 0000 0000 0000 0000 0000
00000160: 0000 0000 0000 0000 0000 0000 0000 0000
00000170: 0000 0000 0000 0000 0000 0000 0000 0000
00000180: 0000 0000 0000 0000 0000 0000 0000 0000
0.0 0.0 0.0 0.0 0.0 0.0 0.0 0.0
0.0 0.0 0.0 0.0 0.0 0.0 0.0 0.0
0.0 0.0 0.0 0.0 0.0 0.0 0.0 0.0
0.0 0.0 0.0 0.0 0.0 0.0 0.0 0.0
0.0 0.0 0.0 0.0 0.0 0.0 0.0 0.0
0.0 0.0 0.0 0.0 0.0 0.0 0.0 0.0
0.0 0.0 0.0 0.0 0.0 0.0 0.0 0.0
0.0 0.0 0.0 0.0 0.0 0.0 0.0 0.0
0.0 0.0 0.0 0.0 0.0 0.0 0.0 0.0
0.0 0.0 0.0 0.0 0.0 0.0 0.0 0.0
0.0 0.0 0.0 0.0 0.0 0.0 0.0 0.0
0.0 0.0 0.0 0.0 0.0 0.0 0.0 0.0
0.0 0.0 0.0 0.0

t_bc_lb f4 [100, 1]
00000000: 0000 0000 b57e 253c b57e a53c 103e f83c
00000010: b57e 253d 62de 4e3d 103e 783d dece 903d
00000020: b57e a53d 8c2e ba3d 62de ce3d 398e e33d
00000030: 103e f83d f376 063e dece 103e ca26 1b3e
00000040: b57e 253e a0d6 2f3e 8c2e 3a3e 7786 443e
00000050: 62de 4e3e 4e36 593e 398e 633e 24e6 6d3e
00000060: 103e 783e fd4a 813e f376 863e e9a2 8b3e
00000070: dece 903e d4fa 953e ca26 9b3e bf52 a03e
00000080: b57e a53e abaa aa3e a0d6 af3e 9602 b53e
00000090: 8c2e ba3e 815a bf3e 7786 c43e 6db2 c93e
000000a0: 62de ce3e 580a d43e 4e36 d93e 4362 de3e
000000b0: 398e e33e 2fba e83e 24e6 ed3e 1a12 f33e
000000c0: 103e f83e 056a fd3e fd4a 013f f8e0 033f
000000d0: f376 063f ee0c 093f e9a2 0b3f e438 0e3f
000000e0: dece 103f d964 133f d4fa 153f cf90 183f
000000f0: ca26 1b3f c5bc 1d3f bf52 203f bae8 223f
00000100: b57e 253f b014 283f abaa 2a3f a540 2d3f
00000110: a0d6 2f3f 9b6c 323f 9602 353f 9198 373f
00000120: 8c2e 3a3f 86c4 3c3f 815a 3f3f 7cf0 413f
00000130: 7786 443f 721c 473f 6db2 493f 6748 4c3f
00000140: 62de 4e3f 5d74 513f 580a 543f 53a0 563f
00000150: 4e36 593f 48cc 5b3f 4362 5e3f 3ef8 603f
00000160: 398e 633f 3424 663f 2fba 683f 2950 6b3f
00000170: 24e6 6d3f 1f7c 703f 1a12 733f 15a8 753f
00000180: 103e 783f 0ad4 7a3f 056a 7d3f 0000 803f
0.0 0.01010101 0.02020202 0.030303031 0.04040404 0.05050505 0.060606062 0.07070707
0.08080808 0.09090909 0.1010101 0.11111111 0.121212125 0.13131313 0.14141414 0.15151516
0.16161616 0.17171717 0.18181819 0.1919192 0.2020202 0.21212122 0.22222222 0.23232323
0.24242425 0.25252524 0.26262626 0.27272728 0.28282827 0.2929293 0.3030303 0.3131313
0.32323232 0.33333334 0.34343433 0.35353535 0.36363637 0.37373737 0.3838384 0.3939394
0.4040404 0.41414142 0.42424244 0.43434343 0.44444445 0.45454547 0.46464646 0.47474748
0.4848485 0.4949495 0.5050505 0.5151515 0.5252525 0.53535354 0.54545456 0.5555556
0.56565654 0.57575756 0.5858586 0.5959596 0.6060606 0.61616164 0.6262626 0.6363636
0.64646465 0.65656567 0.6666667 0.67676765 0.68686867 0.6969697 0.7070707 0.7171717
0.72727275 0.7373737 0.74747473 0.75757575 0.7676768 0.7777778 0.7878788 0.7979798
0.8080808 0.8181818 0.82828283 0.83838385 0.8484849 0.85858583 0.86868685 0.8787879
0.8888889 0.8989899 0.90909094 0.9191919 0.9292929 0.93939394 0.94949496 0.959596
0.969697 0.97979796 0.989899 1.0

x_bc_ub f4 [100, 1]
00000000: db0f c940 db0f c940 db0f c940 db0f c940
00000010: db0f c940 db0f c940 db0f c940 db0f c940
00000020: db0f c940 db0f c940 db0f c940 db0f c940
00000030: db0f c940 db0f c940 db0f c940 db0f c940
00000040: db0f c940 db0f c940 db0f c940 db0f c940
00000050: db0f c940 db0f c940 db0f c940 db0f c940
00000060: db0f c940 db0f c940 db0f c940 db0f c940
00000070: db0f c940 db0f c940 db0f c940 db0f c940
00000080: db0f c940 db0f c940 db0f c940 db0f c940
00000090: db0f c940 db0f c940 db0f c940 db0f c940
000000a0: db0f c940 db0f c940 db0f c940 db0f c940
000000b0: db0f c940 db0f c940 db0f c940 db0f c940
000000c0: db0f c940 db0f c940 db0f c940 db0f c940
000000d0: db0f c940 db0f c940 db0f c940 db0f c940
000000e0: db0f c940 db0f c940 db0f c940 db0f c940
000000f0: db0f c940 db0f c940 db0f c940 db0f c940
00000100: db0f c940 db0f c940 db0f c940 db0f c940
00000110: db0f c940 db0f c940 db0f c940 db0f c940
00000120: db0f c940 db0f c940 db0f c940 db0f c940
00000130: db0f c940 db0f c940 db0f c940 db0f c940
00000140: db0f c940 db0f c940 db0f c940 db0f c940
00000150: db0f c940 db0f c940 db0f c940 db0f c940
00000160: db0f c940 db0f c940 db0f c940 db0f c940
00000170: db0f c940 db0f c940 db0f c940 db0f c940
00000180: db0f c940 db0f c940 db0f c940 db0f c940
6.2831855 6.2831855 6.2831855 6.2831855 6.2831855 6.2831855 6.2831855 6.2831855
6.2831855 6.2831855 6.2831855 6.2831855 6.2831855 6.2831855 6.2831855 6.2831855
6.2831855 6.2831855 6.2831855 6.2831855 6.2831855 6.2831855 6.2831855 6.2831855
6.2831855 6.2831855 6.2831855 6.2831855 6.2831855 6.2831855 6.2831855 6.2831855
6.2831855 6.2831855 6.2831855 6.2831855 6.2831855 6.2831855 6.2831855 6.2831855
6.2831855 6.2831855 6.2831855 6.2831855 6.2831855 6.2831855 6.2831855 6.2831855
6.2831855 6.2831855 6.2831855 6.2831855 6.2831855 6.2831855 6.2831855 6.2831855
6.2831855 6.2831855 6.2831855 6.2831855 6.2831855 6.2831855 6.2831855 6.2831855
6.2831855 6.2831855 6.2831855 6.2831855 6.2831855 6.2831855 6.2831855 6.2831855
6.2831855 6.2831855 6.2831855 6.2831855 6.2831855 6.2831855 6.2831855 6.2831855
6.2831855 6.2831855 6.2831855 6.2831855 6.2831855 6.2831855 6.2831855 6.2831855
6.2831855 6.2831855 6.2831855 6.2831855 6.2831855 6.2831855 6.2831855 6.2831855
6.2831855 6.2831855 6.2831855 6.2831855

t_bc_ub f4 [100, 1]
00000000: 0000 0000 b57e 253c b57e a53c 103e f83c
00000010: b57e 253d 62de 4e3d 103e 783d dece 903d
00000020: b57e a53d 8c2e ba3d 62de ce3d 398e e33d
00000030: 103e f83d f376 063e dece 103e ca26 1b3e
00000040: b57e 253e a0d6 2f3e 8c2e 3a3e 7786 443e
00000050: 62de 4e3e 4e36 593e 398e 633e 24e6 6d3e
00000060: 103e 783e fd4a 813e f376 863e e9a2 8b3e
00000070: dece 903e d4fa 953e ca26 9b3e bf52 a03e
00000080: b57e a53e abaa aa3e a0d6 af3e 9602 b53e
00000090: 8c2e ba3e 815a bf3e 7786 c43e 6db2 c93e
000000a0: 62de ce3e 580a d43e 4e36 d93e 4362 de3e
000000b0: 398e e33e 2fba e83e 24e6 ed3e 1a12 f33e
000000c0: 103e f83e 056a fd3e fd4a 013f f8e0 033f
000000d0: f376 063f ee0c 093f e9a2 0b3f e438 0e3f
000000e0: dece 103f d964 133f d4fa 153f cf90 183f
000000f0: ca26 1b3f c5bc 1d3f bf52 203f bae8 223f
00000100: b57e 253f b014 283f abaa 2a3f a540 2d3f
00000110: a0d6 2f3f 9b6c 323f 9602 353f 9198 373f
00000120: 8c2e 3a3f 86c4 3c3f 815a 3f3f 7cf0 413f
00000130: 7786 443f 721c 473f 6db2 493f 6748 4c3f
00000140: 62de 4e3f 5d74 513f 580a 543f 53a0 563f
00000150: 4e36 593f 48cc 5b3f 4362 5e3f 3ef8 603f
00000160: 398e 633f 3424 663f 2fba 683f 2950 6b3f
00000170: 24e6 6d3f 1f7c 703f 1a12 733f 15a8 753f
00000180: 103e 783f 0ad4 7a3f 056a 7d3f 0000 803f
0.0 0.01010101 0.02020202 0.030303031 0.04040404 0.05050505 0.060606062 0.07070707
0.08080808 0.09090909 0.1010101 0.11111111 0.121212125 0.13131313 0.14141414 0.15151516
0.16161616 0.17171717 0.18181819 0.1919192 0.2020202 0.21212122 0.22222222 0.23232323
0.24242425 0.25252524 0.26262626 0.27272728 0.28282827 0.2929293 0.3030303 0.3131313
0.32323232 0.33333334 0.34343433 0.35353535 0.36363637 0.37373737 0.3838384 0.3939394
0.4040404 0.41414142 0.42424244 0.43434343 0.44444445 0.45454547 0.46464646 0.47474748
0.4848485 0.4949495 0.5050505 0.5151515 0.5252525 0.53535354 0.54545456 0.5555556
0.56565654 0.57575756 0.5858586 0.5959596 0.6060606 0.61616164 0.6262626 0.6363636
0.64646465 0.65656567 0.6666667 0.67676765 0.68686867 0.6969697 0.7070707 0.7171717
0.72727275 0.7373737 0.74747473 0.75757575 0.7676768 0.7777778 0.7878788 0.7979798
0.8080808 0.8181818 0.82828283 0.83838385 0.8484849 0.85858583 0.86868685 0.8787879
0.8888889 0.8989899 0.90909094 0.9191919 0.9292929 0.93939394 0.94949496 0.959596
0.969697 0.97979796 0.989899 1.0

weight f4 [50, 2]
00000000: 2722 ce3d 11bb 96bd 0ca0 843c ee3b c83d
00000010: 271c f63e 09b9 30be 2da6 fabc 8d38 c83d
00000020: 4f2e 78bd ac6c aa3c e051 34be 379c 003e
00000030: 21da 873d 2cd6 d23d e81a 53be 2970 78be
00000040: 3d79 0b3e bdab e43c 1a3a f63d ce32 82be
00000050: 2e5e d9be b291 153d 7e71 b73e 8771 acbd
00000060: 6047 89be f07f cdbe 2d47 5dbd eddc 903d
00000070: 742f a23d a2e0 f43d 43e8 cebd 3cb0 293c
00000080: db4a 00be cc29 64be 72ef a1be 7d54 dd3d
00000090: f3fc cb3c 1b12 493e 34e5 94be 429e 173e
000000a0: 59ee 0b3e b243 c5bd 1cc6 a63d f3ee c1bd
000000b0: 24f7 b53d a8b6 b6bc 2494 baba 9269 4ebe
000000c0: cec0 d9bc 64fc db3d c7d2 c43e 91bf 1ebe
000000d0: a8ed e7bd 6c73 853e 5eb3 48bd 3308 173e
000000e0: 97e3 983e ad76 0fbd e68d 083b ba5f 9ebd
000000f0: 4293 2cbc 81f0 3b3e d005 86be 3f33 4a3d
00000100: 06dd 4d3e 3e22 1b3d dae4 a4be 32c3 4abe
00000110: 159f 2d3d 0a83 64be 0d2b c5be 46e0 0cbe
00000120: 0189 d8bd 9055 5bbe 5747 f83d 0e6e c83c
00000130: 012d d8bc 8a02 fcbb 2b78 2cbe 15bb 13bd
00000140: 7adb 67bd 0f84 02bc 176e d73d 93c0 a23d
00000150: 31bb 0b3e 6391 35be ae67 dd3e 4bc6 cebc
00000160: 30f6 f13d 42c3 833e fec6 d6bd c7d0 02bf
00000170: ec95 853b cef4 90be 37a7 2a3e 9490 b3be
00000180: f319 33be 71dc 67be 7c49 3d3e 6273 12be
0.10065108 -0.07359899 0.016189598 0.09777056 0.48068354 -0.17258085 -0.030596817 0.09776411
-0.06059104 0.020803772 -0.17609358 0.12559591 0.06633402 0.10294756 -0.20615733 -0.24261536
0.13620467 0.027913922 0.12022801 -0.25429386 -0.42454666 0.0365159 0.35828775 -0.08420091
-0.26812267 -0.4013667 -0.054022957 0.07073388 0.07919207 0.11956908 -0.10102894 0.010356959
-0.12528555 -0.22281569 -0.31627995 0.108071305 0.024900889 0.19635813 -0.29081118 0.14806464
0.13665141 -0.096320525 0.08143255 -0.09469404 0.08885029 -0.022303894 -0.0014234823 -0.2015746
-0.026581194 0.10741499 0.3844206 -0.15502764 -0.11324626 0.26064622 -0.048999183 0.14749222
0.29861137 -0.035025287 0.0020836531 -0.07733102 -0.010533156 0.18353464 -0.2617631 0.04936528
0.20103845 0.037874453 -0.3220585 -0.19801024 0.04238804 -0.22315612 -0.38509408 -0.13757429
-0.105730064 -0.21419358 0.12122982 0.02446654 -0.026388647 -0.0076907324 -0.16842715 -0.036067087
-0.056605794 -0.007966056 0.10519045 0.07946887 0.13645627 -0.17731242 0.43243164 -0.025241038
0.11814535 0.25734907 -0.104871735 -0.5109982 0.00407671 -0.2831177 0.1666535 -0.35071242
-0.17490368 -0.22642685 0.18485063 -0.14301828

bias f4 [50]
00000000: 3c75 a7bb 7c08 02b9 50e9 87bb a9d9 293b
00000010: d2e0 a7ba fa6b 063b d3e6 90bb e733 60bb
00000020: 5210 933b d164 9a3b eb97 05bb 1031 d63a
00000030: 6d59 d5bb e577 2ebc 1f10 26bb 6ddc 3dbb
00000040: fa0d 04bb 2043 c1ba 6461 4c3b fa50 fdba
00000050: 1ccd 72bb 3085 403b cb1b 94ba 9b9f 42bb
00000060: fd0d e2ba 7d5c 2a3b 99b0 e938 ecb9 d5ba
00000070: efe8 763a 4d24 38bb 8a92 053b 457d c73a
00000080: 4651 c0bb ea36 7fbb e45c c13a 1c43 83bb
00000090: 8d35 b63b 491f fa3a 61f7 21bb ac4a ffba
000000a0: b1ec c83a 067d 49bb 062d 21bb 7d25 633b
000000b0: 39b5 b8bb 9520 e4ba 8f22 fb3b 4b9d 9cba
000000c0: 2c37 b7ba fefb 033b
-0.005110411 -0.00012400927 -0.004147686 0.002591709 -0.001280809 0.0020511136 -0.0044220476 -0.0034210624
0.0044880295 0.0047117253 -0.002038474 0.0016341526 -0.0065109045 -0.010648702 -0.0025339199 -0.0028970495
-0.0020149932 -0.0014744736 0.003118598 -0.0019326501 -0.0037048524 0.002937626 -0.0011299787 -0.0029697183
-0.00172466 0.0025995069 0.000111432 -0.0016306019 0.0009418865 -0.0028097809 0.0020381534 0.0015219828
-0.0058690635 -0.0038942643 0.0014752415 -0.004005803 0.005560583 0.001908281 -0.00247141 -0.001947721
0.0015329329 -0.0030744686 -0.0024593486 0.0034659796 -0.005636838 -0.001740473 0.007664032 -0.0011948732
-0.0013978234 0.0020139213

weight f4 [50, 50]
00000000: 38fa 293e 0949 93bd abfd b7be fce8 dc3d
00000010: 6f1d 81bd d054 49bd 0b77 24be 6243 a83d
00000020: cb59 df3d ffb4 d53d bae1 de3d 26dd 80be
00000030: aea4 65be b98d dbbd 52c2 643e 70f6 8abd
00000040: 9c05 89be d075 bbbc b872 163e d9fc 3fbe
00000050: 4c66 223d 0f99 843d e42e 203e f2fb 213e
00000060: 01d3 8f3e 63ef 363d e436 a03e 4f4b bc3c
00000070: f5cd 523e 74c0 4ebe 2a8b 3c3e 1f0f 86bd
00000080: 61f0 02bd 8f4b 64be a266 133e 0060 113d
00000090: 7dc2 523e 5446 693c 1161 59bd 9224 a13d
000000a0: 9266 1f3d b69e 62be a176 e3bd 8606 c53b
000000b0: a337 8fbb 150c b53d 24e5 3c3d 388a 1fbe
000000c0: 9b61 9a3d d9a4 d6bd a9b8 0ebe 0454 04be
000000d0: 02a4 afbd 2cb7 b5bd d0f8 6b3d c857 05bd
000000e0: 9d64 b53d 2fbb cbbc 0a7d 793c 61bb 343e
000000f0: e003 0bbe 973e b0be a3d4 5f3e 3b62 d33c
00000100: 2841 d3bd 3a49 093e 46e1 0f3c 18b5 713e
00000110: 9a14 38be 58c0 ce3c 33a9 d93c 8468 103e
00000120: ba97 41be 2e35 303e ffe0 1e3e 9aff f53c
00000130: 24d0 f1bd ce41 d9bc 16bc 4fbc fabf cb3d
00000140: 0f7e 11bd 2d4d 46bc 134f 74ba f38d 84be
00000150: 3025 51be ef0a 11be 71a6 d4bd 9c24 0ebe
00000160: c94c 95be 99cc efbd 23a8 513d 071e edbc
00000170: 3e60 79be f218 96bd b352 a8bd de9e f0bd
00000180: 59b6 533e 0cef 71be ee88 da3d 7d32 663e
00000190: 3d0a ddbd 4871 293d 245d a2bd 75b0 443d
000001a0: 5554 1b3c 00ae 873d 495b 76bc 2136 5f3e
000001b0: 1e1e b4bd f4c8 1c3d a850 81be 24a2 a2bd
000001c0: 41aa f83d 4d7e 2cbd 9b18 8d3d 3d08 773d
000001d0: 79b4 f0bd 52cc e23d d39b 2b3e 6c97 423d
000001e0: c6a4 ac3d bd0f a7bc 57b7 6e3c 4002 5bbd
000001f0: 0c49 dd3c 1200 d3bc 8db8 10be b74d 433e
00000200: 3ec2 8b3e 4c9c cfbc 028a d83c 93f0 2cbe
00000210: 5800 233d 5bf4 743d 2842 403d 2385 ce3d
00000220: 96d9 dc3d dc74 c2bc e519 9e3c ab98 553e
00000230: 2dd7 c1bd b742 433d 7d1f 9cbd b9f7 dcbb
00000240: 50cc 9b3d 51f2 1b3e a85e 5c3d 2ee3 b1be
00000250: 632d 093d 989c 183e 68bd 5fbe 00a0 063c
00000260: 4bed 043e ff7d e0bc 92d1 8aba 9b9b ef3d
00000270: be94 9c3e dbd4 cd3c 8dbd fbbd 7b38 4a3d
00000280: dce7 eebd 27d1 eabb 87b4 e93d 649c 3dbc
00000290: ffc4 053c 2f69 d73d 9507 e83c ff6c bcbc
000002a0: 6a9f 03be 741c f53d 2f09 31be 72d9 3b3e
000002b0: 3352 11bc 3b02 573e 5f8a 833e 5efe 83bd
000002c0: a325 4f3d 51e3 e03d 9216 f33d 60f1 353e
000002d0: 7753 13bd 52bf a13d c886 29be 48f2 4bbe
000002e0: cb6c 49be df59 f7bc 0f96 86be ecf0 07bc
000002f0: 771c 663e 0d3d 463d 1262 d9bd a714 5d3c
00000300: 0d9f 0ebe a53d 643d 9efa 223e 733c 34be
00000310: c981 65bd e895 cf3d 1dd0 f8bd 8a79 163e
00000320: 56d4 543d 772c efbc 441e 4a3d b9ec 663c
00000330: 7a07 803e 2685 59be ef31 173e 77de 6d3e
00000340: 979f b9bc b85e 16be e35b 823e ccad 67be
00000350: 84c0 8d3b 9b07 b3bd 8fca f93c 34b4 65bd
00000360: 64ec 16be a864 8f3d 5580 87bd 8ee2 b0bd
00000370: d656 27bd 1a27 a93d 9eb6 d2bd f0ab 68be
00000380: cdc5 f43d 8a20 293d c94f eabd a61a 0c3e
00000390: 40a6 aebc dfde f73d 33d3 d1bc fd71 4cbe
000003a0: a78a f1bd 6e6a 1e3e a321 48be 0c6e ef3d
000003b0: c6b0 b8bd 25d6 e63c 4c76 a13d 5158 8b3b
000003c0: 8f5d ddbd fb1c 79be fe1e 23bd 01f8 033e
000003d0: 16d9 34be ff1f da3d 43ba 8f3c 4503 c93d
000003e0: fb66 cb3d 7674 823c aed0 debd 1db9 f4bd
000003f0: 0899 07be 7998 2a3e 6c45 2abb 2996 10bd
0.16599357 -0.07191665 -0.3593572 0.10786626 -0.06304442 -0.04915315 -0.16061036 0.08215977
0.109057985 0.10434913 0.10882898 -0.25168723 -0.22426102 -0.10720391 0.22339752 -0.067852855
-0.26762092 -0.022883326 0.14692199 -0.18748797 0.03964834 0.06474506 0.15642887 0.15818766
0.2809067 0.04466189 0.31291878 0.022985129 0.20586379 -0.20190603 0.18412462 -0.06545853
-0.031967524 -0.22294448 0.1439462 0.035491943 0.20582004 0.014237959 -0.053071085 0.07868303
0.038916178 -0.22130856 -0.11106611 0.0060127405 -0.004370646 0.08840195 0.046116963 -0.1558007
0.07538148 -0.10480661 -0.1393763 -0.12922674 -0.08576204 -0.08872828 0.057610333 -0.032554418
0.08857081 -0.02486953 0.015227566 0.17649604 -0.13575697 -0.34422752 0.21858458 0.025803676
-0.10315162 0.1340684 0.008781737 0.23604238 -0.17976609 0.025238201 0.026569938 0.1410237
-0.18905535 0.17207786 0.15515517 0.030029107 -0.11807278 -0.026520636 -0.0126791205 0.09948726
-0.03552061 -0.012103361 -0.00093196443 -0.2588955 -0.20424342 -0.14164327 -0.10383309 -0.13881153
-0.29160145 -0.11708946 0.05118574 -0.028944982 -0.2435312 -0.07328977 -0.082188986 -0.117490515
0.20675029 -0.23626345 0.106706485 0.22480197 -0.107929684 0.0413678 -0.079279214 0.048019845
0.009480556 0.06624985 -0.0150364125 0.21797992 -0.08794807 0.03827758 -0.25256848 -0.07941082
0.12141848 -0.042112637 0.06889459 0.06031059 -0.117531724 0.11074127 0.16758661 0.04750769
0.084298655 -0.020393247 0.014570079 -0.053468943 0.02701237 -0.02575687 -0.141329 0.19072615
0.27296633 -0.025343083 0.026432995 -0.16888647 0.03979525 0.059803348 0.04693809 0.100839876
0.10783689 -0.023737364 0.019299457 0.2085902 -0.0946487 0.047671046 -0.076231934 -0.006743398
0.07607329 0.15229155 0.05380121 -0.34743637 0.03349055 0.14903486 -0.21849597 0.008216858
0.12981145 -0.02740383 -0.0010591021 0.11699601 0.3058223 0.025125911 -0.12292013 0.04937027
-0.116653174 -0.007166046 0.11411386 -0.011572931 0.008164643 0.10518109 0.028323928 -0.023001192
-0.1285378 0.11968318 -0.1728866 0.18344668 -0.0088696955 0.20996945 0.25691506 -0.06445001
0.050573003 0.10980857 0.11869539 0.17767859 -0.03596827 0.078978196 -0.16555321 -0.19916642
-0.19670407 -0.030194221 -0.2628636 -0.008297186 0.22471796 0.048398066 -0.106144086 0.013493693
-0.1392786 0.05572285 0.15915915 -0.17601185 -0.056031976 0.10136014 -0.121490695 0.14694801
0.05196031 -0.029196007 0.04934527 0.014094525 0.25005704 -0.21242198 0.14765142 0.23229395
-0.022659106 -0.1468457 0.2546073 -0.22624892 0.004325928 -0.08741685 0.030492095 -0.05608006
-0.14738613 0.070016205 -0.06616274 -0.08636962 -0.040854298 0.08259411 -0.10288738 -0.22721839
0.1195179 0.041290797 -0.11440999 0.1368204 -0.021319509 0.12103056 -0.025613403 -0.19965358
-0.11794024 0.15470287 -0.19544081 0.11690912 -0.09018092 0.028178284 0.078838915 0.0042524715
-0.108088605 -0.24327461 -0.03982448 0.12887575 -0.17660937 0.10650634 0.017544871 0.09815077
0.09931751 0.015924674 -0.10879646 -0.1194937 -0.1324197 0.16659726 -0.002598132 -0.035299454

bias f4 [50]
00000000: 44d8 bd3a 6374 10bb 13b8 aab9 550e e7ba
00000010: 0dd2 42ba 48cd 03bb a09a de3a f9f9 e3ba
00000020: c206 6f3a 19e2 54bb 0326 1d3b 1355 8eba
00000030: 343d 07bb 79a7 91bb f024 4bbb 71c0 353b
00000040: 1797 1fbb ee1a 07bb 9996 02bb f4d0 543b
00000050: 4e02 7dba fc95 013b 37f7 39bc f5bc 69bb
00000060: 0405 a93a fe3e 05b7 13bb 083a cdb5 aa3a
00000070: 333d ecba 510c 4ebb d3a3 1b3b 6849 c13a
00000080: 30ac 2f3b a683 27bb ce38 403b 4a9c fc3a
00000090: 4fc4 a33c 9d84 2d3b 08f0 5cba 20e6 3a3b
000000a0: 67b9 313c b566 b2ba 7641 12bb 828c 09bb
000000b0: 7b50 013b eb4f 7b3b ad82 043b 7c87 da3a
000000c0: a014 833b 2a8c 613b
0.0014484008 -0.0022042028 -0.00032562073 -0.0017628173 -0.00074318127 -0.002011137 0.0016983338 -0.0017393223
0.00091181335 -0.0032483398 0.0023978956 -0.0010859094 -0.0020635845 -0.004445013 -0.0030997358 0.0027733112
-0.0024351531 -0.0020615417 -0.001992619 0.0032473179 -0.00096515275 0.0019773236 -0.0113504445 -0.0035665606
0.0012895172 -7.942084e-06 0.00052158645 0.0013024152 -0.001802361 -0.0031440447 0.002374877 0.0014746608
0.0026805513 -0.0025560646 0.0029330733 0.0019272652 0.019991068 0.0026476749 -0.00084281014 0.0028518513
0.010847426 -0.0013610931 -0.002231685 -0.002098829 0.0019731808 0.0038347195 0.002021949 0.0016672458
0.0040002614 0.003441582

weight f4 [50, 50]
00000000: d725 b1be ebac c33d ac94 dbbd 37b5 9bbd
00000010: f55c c5bd 4e05 9a3e 2e01 033e 940b 463d
00000020: 6809 14be 4733 70be 7fc9 a43e 425a 77be
00000030: e87a 9cbb cec7 693e 7c33 bbbd 0841 b53e
00000040: 3345 b7bd 38fd 8dbe 293f 953c d836 273e
00000050: db46 dc3d 4f65 c6bd 793c ed3c 75c9 5dbd
00000060: 6134 953c 05c3 0b3e 1408 ecbc 3b02 eebd
00000070: 7ad1 953e a580 d93d eccf 843c 12b7 3fbd
00000080: f275 893e 5e3e a8bd 4c00 d0bd 07fb b3bd
00000090: fdb9 14bd 1294 c63d 804b 263e 7289 923e
000000a0: 1268 ef3d 7c5a b73d 6781 f53d 03a4 09be
000000b0: 2270 fa3c 6d47 d43e 2c22 c7bd 524a 75be
000000c0: f1d9 b9be 6f22 8c3d 7dea 71be cd2a 5bbc
000000d0: bb50 fbbd 3197 7d3d 7a71 053c 8a76 cd3d
000000e0: f52b a1be cc2a 783e 4d95 083e 4441 aa3d
000000f0: fd8f 053e 865f e93d 246c 1b3e 1d97 123e
00000100: cb79 8cbd 66dd f63d c30c 263d 86d8 acbb
00000110: ba67 0b3e 2b78 6f3d d086 883e 128e 32be
00000120: 03dc 1b3d d389 dabd 888e 1f3d 5824 0bbd
00000130: cf88 71be 619e 2dbd 6b54 7d3d d265 e3bc
00000140: 264d 11be fc67 593c 9e22 71bd e97c e93d
00000150: cee0 3e3e a406 a7bd 6a8e 9f3d 59d2 fcbc
00000160: 05db 83bd f35b a0bd bdca 85be 8f9f b5bd
00000170: e41b 483e 4786 85bd 7d06 babd 7461 603e
00000180: dffc 0b3d 5741 8dbe 140b 00bd c56e 8e3d
00000190: 9929 563d 0742 2c3e b3c2 51bd 0d32 473d
000001a0: baef adbd 3640 b0be ee47 9ebc 1639 e23b
000001b0: fccb 7e3c e694 d93d 7a55 423e 36f0 903c
000001c0: 370b 553e 5e02 773d f1d0 f63d 8e16 173e
000001d0: 76fb e73c dbb7 cd3d 0d26 3f3d 7d1e e23d
000001e0: fbfd e43d 3e41 143e 4d0c 4abb 93c4 913e
000001f0: b81d 39be 2313 1cbe 1df4 b6bd 723d 8fbd
00000200: 4082 7dbe 5f0f e03d 3140 24be 8165 af3d
00000210: d190 b13c 4298 0abe b539 09be 6255 b2bc
00000220: ac1a 5c3e fbb4 5fbe 67e4 c2bc afe0 efbd
00000230: e3f7 b9bc 2f9a 4cbe f2f0 103d 401f 42be
00000240: c597 09bb 0edc 5abe a114 973e ba98 39be
00000250: 256a 183e 58ce 1bbe 24e2 9bbe 4fd2 463e
00000260: 0c85 c43d 643c 2b3e ee9c 923c baf0 8e3c
00000270: 2c99 883c 2c6a 04be c1a8 09be a9b1 27bd
00000280: 7f3e 4abd d4ff 02be f6b8 0c3e 3f90 f1bd
00000290: 1ef1 a0bd 713a d13d 03be 413d 5e14 213e
000002a0: fe5f f8bd a890 b9bd c00d c4bd a392 463d
000002b0: d547 cebd 9879 7c3d ac51 e2bd d43f b8bd
000002c0: dd13 c03d 99c9 a5bd 2d6e b5bc 222d 84bb
000002d0: 5363 1c3d 385a 81be 3ca6 7d3d 92c5 923e
000002e0: 9253 4abe 3352 3d3d 43e1 24be d7ce 713d
000002f0: abda c83c 4f79 173e b499 5f3e cd02 72bd
00000300: c324 29bd c6ca adbe 83d2 833d d7b6 44be
00000310: 4779 343e 05f8 a3bc ecd0 07bd 3dd7 53be
00000320: 2776 263d f347 14be 5360 07be 9074 b2bc
00000330: a0ac 8fbe 0e6b dd3d 75cd b7bd c2b1 82bd
00000340: b991 a93c b943 e13d b450 25be 4cd6 a9bd
00000350: 9b89 4fbe 4037 d93d 21d7 913d f2df fcbc
00000360: 74b5 883d 85ac dfbd d231 123e f4aa 213d
00000370: 4546 803e d3bb 913b ecd5 6dbe 77a7 323e
00000380: e960 3e3e 0692 aabd 2a0c 77be 3d34 543e
00000390: 0b58 523e 9d36 513d a89a bc3d 7620 2d3d
000003a0: 3aad 31be 1509 62be 766b 85bc 2810 6f3d
000003b0: 74e9 5f3d 7795 d33c 67cf 07be 1a8c eebd
000003c0: 6d45 3ebd 5115 84bc e0cb 20be bb9f 08be
000003d0: ae77 bf3c 5c9a a63d 3a15 213e 625a 56be
000003e0: 6a91 8b3b 04da 223d a079 8a3e afca 333e
000003f0: f925 ac3d c5d4 0c3e 0bc6 52be 60fc f8bd
-0.34599182 0.09554466 -0.10721716 -0.07602923 -0.09636871 0.30082172 0.12793419 0.048350886
-0.14456713 -0.23457061 0.3218498 -0.24155524 -0.0047753938 0.22830126 -0.09140679 0.35401177
-0.089487456 -0.27732253 0.018218594 0.16329515 0.10755702 -0.09687292 0.0289595 -0.054147203
0.018213453 0.13648613 -0.028812446 -0.11621519 0.2926138 0.1062024 0.016212426 -0.04680545
0.26847798 -0.082150206 -0.101563066 -0.08788114 -0.036310185 0.09696211 0.16239738 0.28620487
0.11689772 0.089528054 0.11987572 -0.13441472 0.030571047 0.41460744 -0.09723315 -0.23954132
-0.3629909 0.06842505 -0.23624606 -0.013376904 -0.122712575 0.061911765 0.008144731 0.10032375
-0.3147885 0.24235076 0.13338204 0.0831323 0.13043208 0.11395173 0.15177971 0.14315458
-0.06859168 0.12053947 0.040539514 -0.005274835 0.13613787 0.05846421 0.26665354 -0.17437008
0.038051616 -0.10670819 0.038954288 -0.033970207 -0.23587345 -0.04238737 0.061848085 -0.027758513
-0.14189586 0.013269421 -0.058870904 0.11400778 0.18640444 -0.081555635 0.07790835 -0.03086202
-0.06438259 -0.07830038 -0.2613124 -0.08868324 0.1954189 -0.06519752 -0.09083269 0.21912175
0.034176704 -0.27588913 -0.031260565 0.06954721 0.052285764 0.16822062 -0.05121107 0.048631717
-0.0849299 -0.3442399 -0.019321408 0.006903778 0.015551563 0.10624103 0.18977919 0.017692667
0.2080506 0.060304992 0.12051571 0.14754698 0.028318148 0.10044833 0.046667147 0.110409714
0.111812554 0.14478013 -0.0030830086 0.28470287 -0.18077743 -0.15241675 -0.0893328 -0.06994142
-0.24756718 0.10940432 -0.16040112 0.08564282 0.0216755 -0.13534644 -0.1340092 -0.02176923
0.2149455 -0.21846382 -0.023790551 -0.11712777 -0.02270121 -0.19980691 0.035386033 -0.18957233
-0.0020995003 -0.21373007 0.29507926 -0.18124667 0.14884241 -0.15215433 -0.3044597 0.19416164
0.09595689 0.16722256 0.017897096 0.017448772 0.0166746 -0.12931126 -0.13443281 -0.040940914
-0.049376007 -0.12792903 0.13742432 -0.11795091 -0.078584895 0.10216225 0.04730035 0.15730426
-0.12127684 -0.09060794 -0.09572935 0.048479687 -0.100722946 0.0616394 -0.11050734 -0.08996549
0.093787886 -0.08095092 -0.022147262 -0.0040337006 0.03818066 -0.25264144 0.06192611 0.2866636
-0.19758442 0.04622097 -0.16101556 0.05903515 0.024518332 0.1479237 0.21835977 -0.059084702
-0.041294824 -0.33943766 0.06436636 -0.19210373 0.17624389 -0.020015726 -0.033158228 -0.20687576
0.040640023 -0.14480571 -0.13220339 -0.021784097 -0.2806139 0.10811435 -0.08974735 -0.06381561
0.020699369 0.10999245 -0.16144067 -0.08292827 -0.20267336 0.10606241 0.07121111 -0.030868504
0.066752344 -0.10921577 0.14276817 0.039469674 0.2505361 0.004447439 -0.23226136 0.17446695
0.18591656 -0.08328633 -0.24125734 0.20723052 0.20541398 0.051077474 0.09209186 0.042267285
-0.17351237 -0.22073777 -0.016286593 0.058365017 0.054665998 0.025828106 -0.13262711 -0.11647816
-0.04645293 -0.016123446 -0.15702772 -0.13342182 0.023372497 0.081349105 0.15730754 -0.20932916
0.004259278 0.039758697 0.27045918 0.17557786 0.0840568 0.1375304 -0.2058336 -0.12157512

bias f4 [50]
00000000: 7b76 9d3b a6a7 9fba 1b3e 91bb 56f7 1b3b
00000010: 8b2c 3dbb 3f34 06bb cc61 07bb 4d61 91bb
00000020: bede 963b a5f7 82ba effe 3f3b b598 17bb
00000030: 8805 2e3b 10f6 323b 74aa 9d3a bdb5 01bb
00000040: 549b 56ba 613a 9dba cb3f 31bb 8b3e 8c3a
00000050: adf0 963b b22f c03b 379d 4fbb cd7a 1fbc
00000060: 5aad 3b3b 0a13 fe3a 1597 013b 5f76 333b
00000070: d300 03bb e2f9 f53a 600f 80bb 8a71 583b
00000080: 5134 a53a 4910 0c3b 361e 30bb 5116 ccb9
00000090: 5d12 4c3b 15bf 1bbb 742f b1ba 0840 9d3a
000000a0: 9f8c 5539 e25b c9ba 63a3 6eba f3a3 a63a
000000b0: 61f7 163b 17cc 11bb d385 203b 2e86 0bbb
000000c0: 369c 21bb ca10 143b
0.0048053837 -0.00121807 -0.0044324524 0.0023798547 -0.002886566 -0.0020477918 -0.0020657657 -0.004436648
0.0046041897 -0.0009992017 0.002929624 -0.0023131792 0.002655359 0.002730731 0.0012028948 -0.0019792162
-0.0008186598 -0.0011995548 -0.002704608 0.0010699792 0.0046063275 0.0058650607 -0.00316794 -0.009733868
0.002863726 0.0019384336 0.001977389 0.0027383787 -0.0019989505 0.0018766487 -0.003908083 0.003302666
0.0012604092 0.0021372011 -0.0026873476 -0.0003892654 0.0031138875 -0.0023765017 -0.001351817 0.0011997232
0.00020365648 -0.0015362466 -0.0009103326 0.0012713656 0.0023035633 -0.0022246891 0.0024493828 -0.0021289694
-0.002465976 0.0022593015

weight f4 [50, 50]
00000000: e062 ddbd 5c25 673c 9d47 72be e4d0 c53d
00000010: f07e 9fbd 3e25 49bd 4d94 5a3b 6bc7 ffbd
00000020: 9ac3 2dbd 08a5 99bd 3592 79bc cdba 2e3c
00000030: be1a 513d 3f0c 0cbe f9b9 133c 3689 563d
00000040: 2a34 90be 6217 953d 120b 233e 4d75 2cbd
00000050: 3b3e d8bd cbd5 f23c 1466 3e3e 7048 9fbe
00000060: 1439 f43d ed95 833e e3bd bebb fdac c13d
00000070: e482 933d 8c59 543d 58a0 08be 126e 3bbe
00000080: 3b03 3dbc bee3 7c3d d3a3 f93d 485a 163d
00000090: 6210 c23e 1ca1 1dbe c547 a73d b5db a03c
000000a0: aa3f 52bc 4805 bc3e bdec 75be 11b1 533e
000000b0: 988a 7ebe 3dc9 f03d baab 94bd 2946 ed3d
000000c0: d681 153d a0c1 1dbc 51e5 893d 86cf 14be
000000d0: 660e 8abc a339 22bd 2705 b3bd a6bc 52be
000000e0: ad2d 4a3e 8f53 8b3e faee 3a3e 831b 09bd
000000f0: aa71 b53d 4bcb 9cbd 44d3 503e 4c99 713e
00000100: 3500 aabe 3236 4dbc f7a6 17bd 092d 3d3e
00000110: f138 853d c81d 05be 3249 05bb 1300 74bd
00000120: 8b2d d1bd 3117 c6bd 99c9 273d 935d 9d3c
00000130: f63c 153d 7800 b63c 6e65 8bbd 3c86 543d
00000140: 8f28 bfbd c71b c43d bed2 833e f035 c13c
00000150: 39a2 0a3d 5298 d6bd 8e1c a0bd 57a8 a5bd
00000160: 3519 4fbe b6b8 283e 3270 4ebe 5e5e 68be
00000170: fcb3 2d3e 635d ddbc b042 0ebe 6976 98be
00000180: fc2a 153e a0a9 53bc c516 253e a972 13be
00000190: c632 d63d 153e 4a3e 8641 23be e23f fcbd
000001a0: c00c 443d 663a 233e fc53 493e a672 b23d
000001b0: 45f9 2c3d 415b 533e 3887 6bbe 138b 883c
000001c0: d253 9e3d 5a4a 663c 99db 793b 313d 06be
000001d0: 9b8d 983c a628 14be cbd4 723c 7c8d a43c
000001e0: bc9b 043e 288a 39be 2a8d 4abe ed2c 84be
000001f0: e210 1cbe eafe 993d 19d1 0c3d c8be 7fbc
00000200: 83c0 b0bd e2b9 07bc 24e4 4c3d f28c 7cbe
00000210: 5790 27bd 6e2f 5d3d f4bb 6b3e 6523 ca3d
00000220: b458 d3bd 4297 113e 3505 9b3d 1c61 e9bd
00000230: d2c1 91be 89a8 ca3d 5387 5cbe 6b9f 75be
00000240: eb0f 183e 8e43 babb cfef 8cbd e2f2 533e
00000250: 8e14 463d 1344 99bd c7f5 0ebd 85f9 9e3d
00000260: 8e03 b3bd 38ea 96bc 4bf6 34bc 3d69 44be
00000270: 0410 343e 5bce 063e 422c a5bd 8cc8 9a3d
00000280: 5d9d 83be f159 813e 6de2 39be c8ac 853c
00000290: 3338 5cbe 78f2 f03d e8ef 523d c227 e8bc
000002a0: cdfd 563e 8eb6 15bd a934 803d e59d 893d
000002b0: 2220 473e b253 c33c ab53 12be 673b 9fbe
000002c0: 3463 2ebe 529a 48bd 931a b03d d82f 71be
000002d0: 5f5a 43be 59fa 31bd eb80 56be c1e3 e1bd
000002e0: d1a8 8d3d 301f 01bc 5d0b 40be 38a3 8bbd
000002f0: 34ca 833e cdc8 d8bd 7157 2cbd 5654 503e
00000300: b8ca 133e 5ea7 d0bc 431a f5bd de30 f43d
00000310: 51a6 86be f1ce b73e a60e 743e 27c4 543e
00000320: 8336 903d c12e 803e e066 e13e 0c23 163b
00000330: 98e6 14be 4b33 3e3e b02d ac3d 7a27 c03d
00000340: fbf9 02bd 4895 8abc eda0 603d a7f4 9c3e
00000350: 12c4 eabd 96c4 8d3e dab3 b7bd 09f4 25bd
00000360: 4225 903d 5523 c23d e275 b93d 71f4 693d
00000370: cf9e 6fbc 55d0 693e 4ec7 cb3d eccd 663d
00000380: 57fc bf3d df45 223e bfef 0ebc 7f5a f4bd
00000390: c2b3 8dbe 9fe9 493e bdde 253e 95a9 213e
000003a0: 47c6 3fbd dd54 bbbc 26b2 933d 5199 82bd
000003b0: b3fd 443e 7c5d 9c3e b174 6fbd 0e10 f8bd
000003c0: f4d5 203e 6381 dabd fd14 8c3d 4546 e4bd
000003d0: de8a 623e 6d75 513e cbec b33d 207c babd
000003e0: 5c9a 88bd 23f1 94be bd88 3c3e c381 7bbe
000003f0: a69d 5bbb e0c5 05be 7d23 44be 1f07 5d3e
-0.108098745 0.014108028 -0.23660131 0.09658983 -0.07787883 -0.049107783 0.0033352554 -0.12489208
-0.04242287 -0.0750218 -0.015232612 0.010664654 0.051050894 -0.13676547 0.009016507 0.05237695
-0.28164798 0.072798505 0.15922192 -0.042104054 -0.105587445 0.02964296 0.18593627 -0.31109953
0.11924949 0.25700322 -0.005820976 0.09456823 0.072027 0.05184321 -0.13342416 -0.18303707
-0.011536415 0.06174063 0.1218945 0.036707193 0.37903124 -0.1539349 0.08167986 0.019636014
-0.0128325615 0.3672278 -0.2401609 0.20673014 -0.24857557 0.11757133 -0.07259317 0.115856476
0.036500774 -0.009628683 0.06733192 -0.14532289 -0.016852569 -0.039605748 -0.08741217 -0.20579776
0.19743986 0.27212188 0.18255225 -0.033473503 0.0885957 -0.076559626 0.20393091 0.23593634
-0.33203283 -0.012525128 -0.037024464 0.18474211 0.06505001 -0.12999642 -0.0020337817 -0.059570383
-0.10213765 -0.09672392 0.040963743 0.019209659 0.03643509 0.02221702 -0.068064556 0.05188583
-0.09333908 0.095756106 0.2574672 0.02358529 0.033846114 -0.104782715 -0.078179464 -0.08088749
-0.2022446 0.16476712 -0.20159987 -0.22692248 0.1696319 -0.02702207 -0.13892627 -0.2977784
0.14567178 -0.01291886 0.16121967 -0.14399208 0.10458903 0.19750245 -0.15942964 -0.12316872
0.04786372 0.15940246 0.19660944 0.08713274 0.04222991 0.2064028 -0.230008 0.016667878
0.07730831 0.014055813 0.0038125275 -0.1310928 0.01862221 -0.14468631 0.014821242 0.020086996
0.12950033 -0.18119109 -0.19780412 -0.25815526 -0.15240815 0.07519324 0.0343791 -0.015609451
-0.08630469 -0.008284064 0.05002226 -0.24663141 -0.040909138 0.05400031 0.23020917 0.09870032
-0.10319653 0.14217857 0.075693525 -0.11395475 -0.28468186 0.09895427 -0.21535997 -0.23986594
0.14849822 -0.0056843227 -0.06881677 0.20698121 0.048359446 -0.07483687 -0.03490236 0.07762436
-0.087409124 -0.018422231 -0.011045049 -0.1918077 0.17584234 0.13164656 -0.08065082 0.075577825
-0.25705996 0.25263932 -0.18152781 0.01631774 -0.21505813 0.11764997 0.051498324 -0.02833927
0.20995255 -0.03655105 0.06260044 0.06719569 0.19445851 0.02384362 -0.1428973 -0.31100008
-0.1703003 -0.048975296 0.08598819 -0.23553407 -0.19077443 -0.04345164 -0.20947616 -0.11029769
0.06916965 -0.007880971 -0.18754335 -0.06818241 0.25740206 -0.10585175 -0.042075578 0.20344672
0.144328 -0.025470432 -0.119679 0.11923383 -0.26298764 0.3590007 0.23833713 0.20777951
0.07041647 0.2503567 0.440238 0.0022909073 -0.1454109 0.18574254 0.08407152 0.093825296
-0.03197668 -0.016916886 0.05484097 0.30655405 -0.11463179 0.27689046 -0.08969851 -0.040515933
0.07038356 0.09479395 0.090556875 0.057117883 -0.014625265 0.22833379 0.09950124 0.056348726
0.09374302 0.15846966 -0.008724152 -0.11931323 -0.27676207 0.19718026 0.16198249 0.15787347
-0.04681995 -0.022867614 0.072117135 -0.06376899 0.19237404 0.30540073 -0.058460895 -0.12112437
0.15706617 -0.1066921 0.06839941 -0.11146215 0.22123286 0.2045495 0.08785399 -0.09105706
-0.06670067 -0.29090223 0.18411537 -0.24561219 -0.0033510714 -0.13063765 -0.19154163 0.21584748

bias f4 [50]
00000000: e69d babc 7e98 93bd 16dd 053c 0036 0abb
00000010: c1df 43bc 64d4 503b 5342 b3bc a43c 35bb
00000020: 7167 84bc d800 57bc 7c98 153b 562e 7f3b
00000030: 16d4 18bb 55e0 d13b 6b6a 65bb a05e 25bb
00000040: 573e 043b 079b dfbb 6d0f e23c d3e5 d3bb
00000050: 3408 b4bb b550 a0ba f5e2 953b 8a92 82ba
00000060: 30a2 1e3b 17d1 513b 009f 5d3c 1a2b a9bb
00000070: 2dda a5bc 0dac 18bb 8bee 10bb 15b6 a53c
00000080: d833 313c eb6c 073c dab0 d53b a86a 55b8
00000090: c750 a4ba 2997 37ba 8bca 90bb c813 823c
000000a0: 53e7 9dba 2338 c93a 16f2 b03b 9032 4a3c
000000b0: 41cf 4abb 594b cbba a9c5 17bb 13c3 a13b
000000c0: 7aea ae3a c883 903c
-0.02278037 -0.0720682 0.008170387 -0.0021089315 -0.011955203 0.0031864876 -0.021882212 -0.0027654553
-0.016162606 -0.01312276 0.0022826483 0.003893753 -0.0023319772 0.0064049163 -0.0035006057 -0.0025233403
0.002017876 -0.0068239006 0.027595246 -0.006466606 -0.005494142 -0.0012231084 0.0045741745 -0.0009961885
0.0024205558 0.0032015496 0.013526678 -0.005162609 -0.020245636 -0.002329591 -0.002211484 0.020228425
0.010815583 0.008265714 0.0065213265 -5.088249e-05 -0.001253628 -0.00070034206 -0.0044186763 0.015878573
-0.0012047089 0.0015351813 0.0053999526 0.012341157 -0.0030946287 -0.0015510126 -0.0023158586 0.0049365847
0.0013345026 0.017640963
