pbc_examples/saved_models/pretrained_convection_u0sin(x)_nu0.0_beta30.0_rho0.0_Nf100_50,50,50,50,1_L2.0_source0_seed0.pt (torch, 114029 bytes, 36 tensors)

x_u f4 [256, 1]
000000 00 00 00 00 db 0f c9 3c db 0f 49 3d e4 cb 96 3d
       0.0 0.024543693 0.049087387 0.07363108
000010 db 0f c9 3d d1 53 fb 3d e4 cb 16 3e df ed 2f 3e
       0.09817477 0.12271846 0.14726216 0.17180584
000020 db 0f 49 3e d6 31 62 3e d1 53 7b 3e e6 3a 8a 3e
       0.19634955 0.22089323 0.24543692 0.2699806
000030 e4 cb 96 3e e2 5c a3 3e df ed af 3e dd 7e bc 3e
       0.2945243 0.319068 0.3436117 0.3681554
000040 db 0f c9 3e d8 a0 d5 3e d6 31 e2 3e d4 c2 ee 3e
       0.3926991 0.41724277 0.44178647 0.46633017
000050 d1 53 fb 3e 67 f2 03 3f e6 3a 0a 3f 65 83 10 3f
       0.49087384 0.5154175 0.5399612 0.5645049
000060 e4 cb 16 3f 63 14 1d 3f e2 5c 23 3f 60 a5 29 3f
       0.5890486 0.6135923 0.638136 0.6626797
000070 df ed 2f 3f 5e 36 36 3f dd 7e 3c 3f 5c c7 42 3f
       0.6872234 0.7117671 0.7363108 0.7608545
000080 db 0f 49 3f 59 58 4f 3f d8 a0 55 3f 57 e9 5b 3f
       0.7853982 0.8099418 0.83448553 0.85902923
000090 d6 31 62 3f 55 7a 68 3f d4 c2 6e 3f 52 0b 75 3f
       0.88357294 0.90811664 0.93266034 0.957204
0000a0 d1 53 7b 3f 28 ce 80 3f 67 f2 83 3f a7 16 87 3f
       0.9817477 1.0062914 1.030835 1.0553788
0000b0 e6 3a 8a 3f 26 5f 8d 3f 65 83 90 3f a5 a7 93 3f
       1.0799224 1.1044662 1.1290098 1.1535536
0000c0 e4 cb 96 3f 23 f0 99 3f 63 14 9d 3f a2 38 a0 3f
       1.1780972 1.2026409 1.2271847 1.2517283
0000d0 e2 5c a3 3f 21 81 a6 3f 60 a5 a9 3f a0 c9 ac 3f
       1.276272 1.3008157 1.3253593 1.3499031
0000e0 df ed af 3f 1f 12 b3 3f 5e 36 b6 3f 9e 5a b9 3f
       1.3744467 1.3989905 1.4235342 1.4480779
0000f0 dd 7e bc 3f 1c a3 bf 3f 5c c7 c2 3f 9b eb c5 3f
       1.4726216 1.4971652 1.521709 1.5462526
000100 db 0f c9 3f 1a 34 cc 3f 59 58 cf 3f 99 7c d2 3f
       1.5707964 1.59534 1.6198837 1.6444274
000110 d8 a0 d5 3f 18 c5 d8 3f 57 e9 db 3f 97 0d df 3f
       1.6689711 1.6935148 1.7180585 1.7426022
000120 d6 31 e2 3f 15 56 e5 3f 55 7a e8 3f 94 9e eb 3f
       1.7671459 1.7916895 1.8162333 1.8407769
000130 d4 c2 ee 3f 13 e7 f1 3f 52 0b f5 3f 92 2f f8 3f
       1.8653207 1.8898643 1.914408 1.9389517
000140 d1 53 fb 3f 11 78 fe 3f 28 ce 00 40 48 60 02 40
       1.9634954 1.9880391 2.0125828 2.0371265
000150 67 f2 03 40 87 84 05 40 a7 16 07 40 c7 a8 08 40
       2.06167 2.0862138 2.1107576 2.1353014
000160 e6 3a 0a 40 06 cd 0b 40 26 5f 0d 40 45 f1 0e 40
       2.1598449 2.1843886 2.2089324 2.233476
000170 65 83 10 40 85 15 12 40 a5 a7 13 40 c4 39 15 40
       2.2580197 2.2825634 2.3071072 2.3316507
000180 e4 cb 16 40 04 5e 18 40 23 f0 19 40 43 82 1b 40
       2.3561945 2.3807383 2.4052818 2.4298255
000190 63 14 1d 40 83 a6 1e 40 a2 38 20 40 c2 ca 21 40
       2.4543693 2.478913 2.5034566 2.5280004
0001a0 e2 5c 23 40 01 ef 24 40 21 81 26 40 41 13 28 40
       2.552544 2.5770876 2.6016314 2.6261752
0001b0 60 a5 29 40 80 37 2b 40 a0 c9 2c 40 c0 5b 2e 40
       2.6507187 2.6752625 2.6998062 2.72435
0001c0 df ed 2f 40 ff 7f 31 40 1f 12 33 40 3e a4 34 40
       2.7488935 2.7734373 2.797981 2.8225245
0001d0 5e 36 36 40 7e c8 37 40 9e 5a 39 40 bd ec 3a 40
       2.8470683 2.871612 2.8961558 2.9206994
0001e0 dd 7e 3c 40 fd 10 3e 40 1c a3 3f 40 3c 35 41 40
       2.9452431 2.969787 2.9943304 3.0188742
0001f0 5c c7 42 40 7c 59 44 40 9b eb 45 40 bb 7d 47 40
       3.043418 3.0679617 3.0925052 3.117049
000200 db 0f 49 40 fa a1 4a 40 1a 34 4c 40 3a c6 4d 40
       3.1415927 3.1661363 3.19068 3.2152238
000210 59 58 4f 40 79 ea 50 40 99 7c 52 40 b9 0e 54 40
       3.2397673 3.264311 3.2888548 3.3133986
000220 d8 a0 55 40 f8 32 57 40 18 c5 58 40 37 57 5a 40
       3.3379421 3.362486 3.3870296 3.4115732
000230 57 e9 5b 40 77 7b 5d 40 97 0d 5f 40 b6 9f 60 40
       3.436117 3.4606607 3.4852045 3.509748
000240 d6 31 62 40 f6 c3 63 40 15 56 65 40 35 e8 66 40
       3.5342917 3.5588355 3.583379 3.6079228
000250 55 7a 68 40 75 0c 6a 40 94 9e 6b 40 b4 30 6d 40
       3.6324666 3.6570103 3.6815538 3.7060976
000260 d4 c2 6e 40 f3 54 70 40 13 e7 71 40 33 79 73 40
       3.7306414 3.755185 3.7797287 3.8042724
000270 52 0b 75 40 72 9d 76 40 92 2f 78 40 b2 c1 79 40
       3.828816 3.8533597 3.8779035 3.9024472
000280 d1 53 7b 40 f1 e5 7c 40 11 78 7e 40 18 05 80 40
       3.9269907 3.9515345 3.9760783 4.000622
000290 28 ce 80 40 38 97 81 40 48 60 82 40 58 29 83 40
       4.0251656 4.0497093 4.074253 4.098797
0002a0 67 f2 83 40 77 bb 84 40 87 84 85 40 97 4d 86 40
       4.12334 4.147884 4.1724277 4.1969714
0002b0 a7 16 87 40 b7 df 87 40 c7 a8 88 40 d6 71 89 40
       4.221515 4.246059 4.2706027 4.295146
0002c0 e6 3a 8a 40 f6 03 8b 40 06 cd 8b 40 16 96 8c 40
       4.3196898 4.3442335 4.3687773 4.393321
0002d0 26 5f 8d 40 36 28 8e 40 45 f1 8e 40 55 ba 8f 40
       4.417865 4.4424086 4.466952 4.4914956
0002e0 65 83 90 40 75 4c 91 40 85 15 92 40 95 de 92 40
       4.5160394 4.540583 4.565127 4.5896707
0002f0 a5 a7 93 40 b4 70 94 40 c4 39 95 40 d4 02 96 40
       4.6142144 4.6387577 4.6633015 4.687845
000300 e4 cb 96 40 f4 94 97 40 04 5e 98 40 14 27 99 40
       4.712389 4.7369328 4.7614765 4.7860203
000310 23 f0 99 40 33 b9 9a 40 43 82 9b 40 53 4b 9c 40
       4.8105636 4.8351073 4.859651 4.884195
000320 63 14 9d 40 73 dd 9d 40 83 a6 9e 40 92 6f 9f 40
       4.9087386 4.9332824 4.957826 4.9823694
000330 a2 38 a0 40 b2 01 a1 40 c2 ca a1 40 d2 93 a2 40
       5.006913 5.031457 5.0560007 5.0805445
000340 e2 5c a3 40 f1 25 a4 40 01 ef a4 40 11 b8 a5 40
       5.105088 5.1296315 5.1541753 5.178719
000350 21 81 a6 40 31 4a a7 40 41 13 a8 40 51 dc a8 40
       5.203263 5.2278066 5.2523503 5.276894
000360 60 a5 a9 40 70 6e aa 40 80 37 ab 40 90 00 ac 40
       5.3014374 5.325981 5.350525 5.3750687
000370 a0 c9 ac 40 b0 92 ad 40 c0 5b ae 40 cf 24 af 40
       5.3996124 5.424156 5.4487 5.473243
000380 df ed af 40 ef b6 b0 40 ff 7f b1 40 0f 49 b2 40
       5.497787 5.5223308 5.5468745 5.5714183
000390 1f 12 b3 40 2f db b3 40 3e a4 b4 40 4e 6d b5 40
       5.595962 5.620506 5.645049 5.669593
0003a0 5e 36 b6 40 6e ff b6 40 7e c8 b7 40 8e 91 b8 40
       5.6941366 5.7186804 5.743224 5.767768
0003b0 9e 5a b9 40 ad 23 ba 40 bd ec ba 40 cd b5 bb 40
       5.7923117 5.816855 5.8413987 5.8659425
0003c0 dd 7e bc 40 ed 47 bd 40 fd 10 be 40 0d da be 40
       5.8904862 5.91503 5.939574 5.9641175
0003d0 1c a3 bf 40 2c 6c c0 40 3c 35 c1 40 4c fe c1 40
       5.988661 6.0132046 6.0377483 6.062292
0003e0 5c c7 c2 40 6c 90 c3 40 7c 59 c4 40 8b 22 c5 40
       6.086836 6.1113796 6.1359234 6.1604667
0003f0 9b eb c5 40 ab b4 c6 40 bb 7d c7 40 cb 46 c8 40
       6.1850104 6.209554 6.234098 6.2586417

t_u f4 [256, 1]
000000 00 00 00 00 00 00 00 00 00 00 00 00 00 00 00 00
       0.0 0.0 0.0 0.0
000010 00 00 00 00 00 00 00 00 00 00 00 00 00 00 00 00
       0.0 0.0 0.0 0.0
000020 00 00 00 00 00 00 00 00 00 00 00 00 00 00 00 00
       0.0 0.0 0.0 0.0
000030 00 00 00 00 00 00 00 00 00 00 00 00 00 00 00 00
       0.0 0.0 0.0 0.0
000040 00 00 00 00 00 00 00 00 00 00 00 00 00 00 00 00
       0.0 0.0 0.0 0.0
000050 00 00 00 00 00 00 00 00 00 00 00 00 00 00 00 00
       0.0 0.0 0.0 0.0
000060 00 00 00 00 00 00 00 00 00 00 00 00 00 00 00 00
       0.0 0.0 0.0 0.0
000070 00 00 00 00 00 00 00 00 00 00 00 00 00 00 00 00
       0.0 0.0 0.0 0.0
000080 00 00 00 00 00 00 00 00 00 00 00 00 00 00 00 00
       0.0 0.0 0.0 0.0
000090 00 00 00 00 00 00 00 00 00 00 00 00 00 00 00 00
       0.0 0.0 0.0 0.0
0000a0 00 00 00 00 00 00 00 00 00 00 00 00 00 00 00 00
       0.0 0.0 0.0 0.0
0000b0 00 00 00 00 00 00 00 00 00 00 00 00 00 00 00 00
       0.0 0.0 0.0 0.0
0000c0 00 00 00 00 00 00 00 00 00 00 00 00 00 00 00 00
       0.0 0.0 0.0 0.0
0000d0 00 00 00 00 00 00 00 00 00 00 00 00 00 00 00 00
       0.0 0.0 0.0 0.0
0000e0 00 00 00 00 00 00 00 00 00 00 00 00 00 00 00 00
       0.0 0.0 0.0 0.0
0000f0 00 00 00 00 00 00 00 00 00 00 00 00 00 00 00 00
       0.0 0.0 0.0 0.0
000100 00 00 00 00 00 00 00 00 00 00 00 00 00 00 00 00
       0.0 0.0 0.0 0.0
000110 00 00 00 00 00 00 00 00 00 00 00 00 00 00 00 00
       0.0 0.0 0.0 0.0
000120 00 00 00 00 00 00 00 00 00 00 00 00 00 00 00 00
       0.0 0.0 0.0 0.0
000130 00 00 00 00 00 00 00 00 00 00 00 00 00 00 00 00
       0.0 0.0 0.0 0.0
000140 00 00 00 00 00 00 00 00 00 00 00 00 00 00 00 00
       0.0 0.0 0.0 0.0
000150 00 00 00 00 00 00 00 00 00 00 00 00 00 00 00 00
       0.0 0.0 0.0 0.0
000160 00 00 00 00 00 00 00 00 00 00 00 00 00 00 00 00
       0.0 0.0 0.0 0.0
000170 00 00 00 00 00 00 00 00 00 00 00 00 00 00 00 00
       0.0 0.0 0.0 0.0
000180 00 00 00 00 00 00 00 00 00 00 00 00 00 00 00 00
       0.0 0.0 0.0 0.0
000190 00 00 00 00 00 00 00 00 00 00 00 00 00 00 00 00
       0.0 0.0 0.0 0.0
0001a0 00 00 00 00 00 00 00 00 00 00 00 00 00 00 00 00
       0.0 0.0 0.0 0.0
0001b0 00 00 00 00 00 00 00 00 00 00 00 00 00 00 00 00
       0.0 0.0 0.0 0.0
0001c0 00 00 00 00 00 00 00 00 00 00 00 00 00 00 00 00
       0.0 0.0 0.0 0.0
0001d0 00 00 00 00 00 00 00 00 00 00 00 00 00 00 00 00
       0.0 0.0 0.0 0.0
0001e0 00 00 00 00 00 00 00 00 00 00 00 00 00 00 00 00
       0.0 0.0 0.0 0.0
0001f0 00 00 00 00 00 00 00 00 00 00 00 00 00 00 00 00
       0.0 0.0 0.0 0.0
000200 00 00 00 00 00 00 00 00 00 00 00 00 00 00 00 00
       0.0 0.0 0.0 0.0
000210 00 00 00 00 00 00 00 00 00 00 00 00 00 00 00 00
       0.0 0.0 0.0 0.0
000220 00 00 00 00 00 00 00 00 00 00 00 00 00 00 00 00
       0.0 0.0 0.0 0.0
000230 00 00 00 00 00 00 00 00 00 00 00 00 00 00 00 00
       0.0 0.0 0.0 0.0
000240 00 00 00 00 00 00 00 00 00 00 00 00 00 00 00 00
       0.0 0.0 0.0 0.0
000250 00 00 00 00 00 00 00 00 00 00 00 00 00 00 00 00
       0.0 0.0 0.0 0.0
000260 00 00 00 00 00 00 00 00 00 00 00 00 00 00 00 00
       0.0 0.0 0.0 0.0
000270 00 00 00 00 00 00 00 00 00 00 00 00 00 00 00 00
       0.0 0.0 0.0 0.0
000280 00 00 00 00 00 00 00 00 00 00 00 00 00 00 00 00
       0.0 0.0 0.0 0.0
000290 00 00 00 00 00 00 00 00 00 00 00 00 00 00 00 00
       0.0 0.0 0.0 0.0
0002a0 00 00 00 00 00 00 00 00 00 00 00 00 00 00 00 00
       0.0 0.0 0.0 0.0
0002b0 00 00 00 00 00 00 00 00 00 00 00 00 00 00 00 00
       0.0 0.0 0.0 0.0
0002c0 00 00 00 00 00 00 00 00 00 00 00 00 00 00 00 00
       0.0 0.0 0.0 0.0
0002d0 00 00 00 00 00 00 00 00 00 00 00 00 00 00 00 00
       0.0 0.0 0.0 0.0
0002e0 00 00 00 00 00 00 00 00 00 00 00 00 00 00 00 00
       0.0 0.0 0.0 0.0
0002f0 00 00 00 00 00 00 00 00 00 00 00 00 00 00 00 00
       0.0 0.0 0.0 0.0
000300 00 00 00 00 00 00 00 00 00 00 00 00 00 00 00 00
       0.0 0.0 0.0 0.0
000310 00 00 00 00 00 00 00 00 00 00 00 00 00 00 00 00
       0.0 0.0 0.0 0.0
000320 00 00 00 00 00 00 00 00 00 00 00 00 00 00 00 00
       0.0 0.0 0.0 0.0
000330 00 00 00 00 00 00 00 00 00 00 00 00 00 00 00 00
       0.0 0.0 0.0 0.0
000340 00 00 00 00 00 00 00 00 00 00 00 00 00 00 00 00
       0.0 0.0 0.0 0.0
000350 00 00 00 00 00 00 00 00 00 00 00 00 00 00 00 00
       0.0 0.0 0.0 0.0
000360 00 00 00 00 00 00 00 00 00 00 00 00 00 00 00 00
       0.0 0.0 0.0 0.0
000370 00 00 00 00 00 00 00 00 00 00 00 00 00 00 00 00
       0.0 0.0 0.0 0.0
000380 00 00 00 00 00 00 00 00 00 00 00 00 00 00 00 00
       0.0 0.0 0.0 0.0
000390 00 00 00 00 00 00 00 00 00 00 00 00 00 00 00 00
       0.0 0.0 0.0 0.0
0003a0 00 00 00 00 00 00 00 00 00 00 00 00 00 00 00 00
       0.0 0.0 0.0 0.0
0003b0 00 00 00 00 00 00 00 00 00 00 00 00 00 00 00 00
       0.0 0.0 0.0 0.0
0003c0 00 00 00 00 00 00 00 00 00 00 00 00 00 00 00 00
       0.0 0.0 0.0 0.0
0003d0 00 00 00 00 00 00 00 00 00 00 00 00 00 00 00 00
       0.0 0.0 0.0 0.0
0003e0 00 00 00 00 00 00 00 00 00 00 00 00 00 00 00 00
       0.0 0.0 0.0 0.0
0003f0 00 00 00 00 00 00 00 00 00 00 00 00 00 00 00 00
       0.0 0.0 0.0 0.0

x_f f4 [100, 1]
000000 a5 a7 93 40 97 0d df 3f d8 a0 55 40 53 4b 9c 40
       4.6142144 1.7426022 3.3379421 4.884195
000010 7c 59 44 40 ef b6 b0 40 ad 23 ba 40 9b eb c5 40
       3.0679617 5.5223308 5.816855 6.1850104
000020 85 15 92 40 23 f0 99 3f 14 27 99 40 65 83 10 3f
       4.565127 1.2026409 4.7860203 0.5645049
000030 94 9e eb 3f d1 53 fb 3d 92 6f 9f 40 5c c7 c2 40
       1.8407769 0.12271846 4.9823694 6.086836
000040 6e ff b6 40 a0 c9 2c 40 c2 ca 21 40 6c 90 c3 40
       5.7186804 2.6998062 2.5280004 6.1113796
000050 c0 5b 2e 40 cf 24 af 40 a7 16 87 3f 4c fe c1 40
       2.72435 5.473243 1.0553788 6.062292
000060 d6 31 e2 3e 5e 36 36 3f 97 4d 86 40 cb 46 c8 40
       0.44178647 0.7117671 4.1969714 6.2586417
000070 7c 59 c4 40 75 4c 91 40 9b eb c5 40 c7 a8 88 40
       6.1359234 4.540583 6.1850104 4.2706027
000080 cf 24 af 40 21 81 26 40 26 5f 8d 40 63 14 9d 40
       5.473243 2.6016314 4.417865 4.9087386
000090 2c 6c c0 40 dd 7e bc 3e d1 53 fb 3e 21 81 a6 40
       6.0132046 0.3681554 0.49087384 5.203263
0000a0 77 7b 5d 40 d6 31 e2 3e 59 58 cf 3f 77 bb 84 40
       3.4606607 0.44178647 1.6198837 4.147884
0000b0 55 7a e8 3f 83 a6 9e 40 97 0d 5f 40 18 c5 58 40
       1.8162333 4.957826 3.4852045 3.3870296
0000c0 52 0b 75 3f a5 a7 13 40 60 a5 29 3f 31 4a a7 40
       0.957204 2.3071072 0.6626797 5.2278066
0000d0 db 0f c9 3c 4c fe c1 40 c4 39 15 40 d1 53 fb 3f
       0.024543693 6.062292 2.3316507 1.9634954
0000e0 c4 39 15 40 df ed 2f 3f 1a 34 cc 3f 37 57 5a 40
       2.3316507 0.6872234 1.59534 3.4115732
0000f0 1f 12 b3 40 9e 5a b9 40 26 5f 8d 3f 94 9e 6b 40
       5.595962 5.7923117 1.1044662 3.6815538
000100 d6 31 62 3f 57 e9 db 3f 43 82 1b 40 35 e8 66 40
       0.88357294 1.7180585 2.4298255 3.6079228
000110 15 56 e5 3f 59 58 cf 3f d6 71 89 40 11 78 fe 3f
       1.7916895 1.6198837 4.295146 1.9880391
000120 65 83 10 40 c0 5b 2e 40 db 0f 49 3f 67 f2 03 40
       2.2580197 2.72435 0.7853982 2.06167
000130 83 a6 9e 40 f1 25 a4 40 43 82 1b 40 75 4c 91 40
       4.957826 5.1296315 2.4298255 4.540583
000140 75 0c 6a 40 d8 a0 55 3f b4 30 6d 40 15 56 e5 3f
       3.6570103 0.83448553 3.7060976 1.7916895
000150 5c c7 c2 40 92 6f 9f 40 53 4b 9c 40 28 ce 80 3f
       6.086836 4.9823694 4.884195 1.0062914
000160 df ed af 40 bd ec ba 40 97 4d 86 40 e4 cb 96 40
       5.497787 5.8413987 4.1969714 4.712389
000170 d6 31 62 3f d4 c2 6e 3f 63 14 9d 3f 7e c8 b7 40
       0.88357294 0.93266034 1.2271847 5.743224
000180 0f 49 b2 40 3c 35 c1 40 57 e9 5b 40 a0 c9 ac 3f
       5.5714183 6.0377483 3.436117 1.3499031

t_f f4 [100, 1]
000000 77 86 c4 3e 5d 74 51 3f ee 0c 09 3f 67 48 4c 3f
       0.3838384 0.8181818 0.53535354 0.7979798
000010 de ce 10 3e 96 02 35 3f a0 d6 2f 3f 72 1c 47 3f
       0.14141414 0.7070707 0.68686867 0.7777778
000020 e9 a2 0b 3f b5 7e 25 3c e4 38 0e 3f 6d b2 49 3f
       0.54545456 0.01010101 0.5555556 0.7878788
000030 43 62 de 3e 43 62 de 3e 0a d4 7a 3f 00 00 80 3f
       0.43434343 0.43434343 0.97979796 1.0
000040 a5 40 2d 3f f3 76 06 3f ca 26 9b 3e 58 0a 54 3f
       0.67676765 0.5252525 0.3030303 0.82828283
000050 0a d4 7a 3f ba e8 22 3f a0 d6 af 3e b5 7e a5 3e
       0.97979796 0.6363636 0.34343433 0.32323232
000060 1a 12 f3 3e 29 50 6b 3f e4 38 0e 3f 72 1c 47 3f
       0.47474748 0.9191919 0.5555556 0.7777778
000070 8c 2e ba 3e 39 8e 63 3e de ce 90 3e 39 8e 63 3f
       0.36363637 0.22222222 0.28282827 0.8888889
000080 2f ba 68 3f ca 26 1b 3e bf 52 20 3f b5 7e 25 3d
       0.90909094 0.15151516 0.6262626 0.04040404
000090 ca 26 1b 3e 3e f8 60 3f d4 fa 15 3f fd 4a 81 3e
       0.15151516 0.8787879 0.5858586 0.25252524
0000a0 67 48 4c 3f 77 86 c4 3e 4e 36 d9 3e b5 7e 25 3c
       0.7979798 0.3838384 0.42424244 0.01010101
0000b0 10 3e 78 3e 34 24 66 3f 8c 2e ba 3e 1f 7c 70 3f
       0.24242425 0.8989899 0.36363637 0.93939394
0000c0 7c f0 41 3f bf 52 a0 3e b5 7e 25 3d a0 d6 af 3e
       0.75757575 0.3131313 0.04040404 0.34343433
0000d0 2f ba e8 3e 15 a8 75 3f 15 a8 75 3f 2f ba e8 3e
       0.45454547 0.959596 0.959596 0.45454547
0000e0 2f ba e8 3e 62 de 4e 3f f3 76 06 3f de ce 10 3f
       0.45454547 0.8080808 0.5252525 0.56565654
0000f0 3e f8 60 3f 86 c4 3c 3f b5 7e 25 3d 1a 12 f3 3e
       0.8787879 0.7373737 0.04040404 0.47474748
000100 d9 64 13 3f de ce 10 3f a5 40 2d 3f 05 6a 7d 3f
       0.57575756 0.56565654 0.67676765 0.989899
000110 a0 d6 2f 3f 4e 36 59 3e 62 de 4e 3d de ce 90 3e
       0.68686867 0.21212122 0.05050505 0.28282827
000120 fd 4a 81 3e 62 de 4e 3f b5 7e 25 3c 58 0a d4 3e
       0.25252524 0.8080808 0.01010101 0.41414142
000130 10 3e 78 3f 0a d4 7a 3f d4 fa 95 3e f8 e0 03 3f
       0.969697 0.97979796 0.2929293 0.5151515
000140 53 a0 56 3f 1a 12 73 3f 1a 12 f3 3e cf 90 18 3f
       0.83838385 0.94949496 0.47474748 0.5959596
000150 6d b2 c9 3e a0 d6 2f 3f 4e 36 59 3f b5 7e a5 3c
       0.3939394 0.68686867 0.8484849 0.02020202
000160 29 50 6b 3f 10 3e f8 3e f3 76 06 3e ca 26 1b 3f
       0.9191919 0.4848485 0.13131313 0.6060606
000170 fd 4a 81 3e 10 3e 78 3f a0 d6 af 3e 53 a0 56 3f
       0.25252524 0.969697 0.34343433 0.83838385
000180 10 3e f8 3e 67 48 4c 3f 91 98 37 3f ca 26 9b 3e
       0.4848485 0.7979798 0.7171717 0.3030303

x_bc_lb f4 [100, 1]
000000 00 00 00 00 00 00 00 00 00 00 00 00 00 00 00 00
       0.0 0.0 0.0 0.0
000010 00 00 00 00 00 00 00 00 00 00 00 00 00 00 00 00
       0.0 0.0 0.0 0.0
000020 00 00 00 00 00 00 00 00 00 00 00 00 00 00 00 00
       0.0 0.0 0.0 0.0
000030 00 00 00 00 00 00 00 00 00 00 00 00 00 00 00 00
       0.0 0.0 0.0 0.0
000040 00 00 00 00 00 00 00 00 00 00 00 00 00 00 00 00
       0.0 0.0 0.0 0.0
000050 00 00 00 00 00 00 00 00 00 00 00 00 00 00 00 00
       0.0 0.0 0.0 0.0
000060 00 00 00 00 00 00 00 00 00 00 00 00 00 00 00 00
       0.0 0.0 0.0 0.0
000070 00 00 00 00 00 00 00 00 00 00 00 00 00 00 00 00
       0.0 0.0 0.0 0.0
000080 00 00 00 00 00 00 00 00 00 00 00 00 00 00 00 00
       0.0 0.0 0.0 0.0
000090 00 00 00 00 00 00 00 00 00 00 00 00 00 00 00 00
       0.0 0.0 0.0 0.0
0000a0 00 00 00 00 00 00 00 00 00 00 00 00 00 00 00 00
       0.0 0.0 0.0 0.0
0000b0 00 00 00 00 00 00 00 00 00 00 00 00 00 00 00 00
       0.0 0.0 0.0 0.0
0000c0 00 00 00 00 00 00 00 00 00 00 00 00 00 00 00 00
       0.0 0.0 0.0 0.0
0000d0 00 00 00 00 00 00 00 00 00 00 00 00 00 00 00 00
       0.0 0.0 0.0 0.0
0000e0 00 00 00 00 00 00 00 00 00 00 00 00 00 00 00 00
       0.0 0.0 0.0 0.0
0000f0 00 00 00 00 00 00 00 00 00 00 00 00 00 00 00 00
       0.0 0.0 0.0 0.0
000100 00 00 00 00 00 00 00 00 00 00 00 00 00 00 00 00
       0.0 0.0 0.0 0.0
000110 00 00 00 00 00 00 00 00 00 00 00 00 00 00 00 00
       0.0 0.0 0.0 0.0
000120 00 00 00 00 00 00 00 00 00 00 00 00 00 00 00 00
       0.0 0.0 0.0 0.0
000130 00 00 00 00 00 00 00 00 00 00 00 00 00 00 00 00
       0.0 0.0 0.0 0.0
000140 00 00 00 00 00 00 00 00 00 00 00 00 00 00 00 00
       0.0 0.0 0.0 0.0
000150 00 00 00 00 00 00 00 00 00 00 00 00 00 00 00 00
       0.0 0.0 0.0 0.0
000160 00 00 00 00 00 00 00 00 00 00 00 00 00 00 00 00
       0.0 0.0 0.0 0.0
000170 00 00 00 00 00 00 00 00 00 00 00 00 00 00 00 00
       0.0 0.0 0.0 0.0
000180 00 00 00 00 00 00 00 00 00 00 00 00 00 00 00 00
       0.0 0.0 0.0 0.0

t_bc_lb f4 [100, 1]
000000 00 00 00 00 b5 7e 25 3c b5 7e a5 3c 10 3e f8 3c
       0.0 0.01010101 0.02020202 0.030303031
000010 b5 7e 25 3d 62 de 4e 3d 10 3e 78 3d de ce 90 3d
       0.04040404 0.05050505 0.060606062 0.07070707
000020 b5 7e a5 3d 8c 2e ba 3d 62 de ce 3d 39 8e e3 3d
       0.08080808 0.09090909 0.1010101 0.11111111
000030 10 3e f8 3d f3 76 06 3e de ce 10 3e ca 26 1b 3e
       0.121212125 0.13131313 0.14141414 0.15151516
000040 b5 7e 25 3e a0 d6 2f 3e 8c 2e 3a 3e 77 86 44 3e
       0.16161616 0.17171717 0.18181819 0.1919192
000050 62 de 4e 3e 4e 36 59 3e 39 8e 63 3e 24 e6 6d 3e
       0.2020202 0.21212122 0.22222222 0.23232323
000060 10 3e 78 3e fd 4a 81 3e f3 76 86 3e e9 a2 8b 3e
       0.24242425 0.25252524 0.26262626 0.27272728
000070 de ce 90 3e d4 fa 95 3e ca 26 9b 3e bf 52 a0 3e
       0.28282827 0.2929293 0.3030303 0.3131313
000080 b5 7e a5 3e ab aa aa 3e a0 d6 af 3e 96 02 b5 3e
       0.32323232 0.33333334 0.34343433 0.35353535
000090 8c 2e ba 3e 81 5a bf 3e 77 86 c4 3e 6d b2 c9 3e
       0.36363637 0.37373737 0.3838384 0.3939394
0000a0 62 de ce 3e 58 0a d4 3e 4e 36 d9 3e 43 62 de 3e
       0.4040404 0.41414142 0.42424244 0.43434343
0000b0 39 8e e3 3e 2f ba e8 3e 24 e6 ed 3e 1a 12 f3 3e
       0.44444445 0.45454547 0.46464646 0.47474748
0000c0 10 3e f8 3e 05 6a fd 3e fd 4a 01 3f f8 e0 03 3f
       0.4848485 0.4949495 0.5050505 0.5151515
0000d0 f3 76 06 3f ee 0c 09 3f e9 a2 0b 3f e4 38 0e 3f
       0.5252525 0.53535354 0.54545456 0.5555556
0000e0 de ce 10 3f d9 64 13 3f d4 fa 15 3f cf 90 18 3f
       0.56565654 0.57575756 0.5858586 0.5959596
0000f0 ca 26 1b 3f c5 bc 1d 3f bf 52 20 3f ba e8 22 3f
       0.6060606 0.61616164 0.6262626 0.6363636
000100 b5 7e 25 3f b0 14 28 3f ab aa 2a 3f a5 40 2d 3f
       0.64646465 0.65656567 0.6666667 0.67676765
000110 a0 d6 2f 3f 9b 6c 32 3f 96 02 35 3f 91 98 37 3f
       0.68686867 0.6969697 0.7070707 0.7171717
000120 8c 2e 3a 3f 86 c4 3c 3f 81 5a 3f 3f 7c f0 41 3f
       0.72727275 0.7373737 0.74747473 0.75757575
000130 77 86 44 3f 72 1c 47 3f 6d b2 49 3f 67 48 4c 3f
       0.7676768 0.7777778 0.7878788 0.7979798
000140 62 de 4e 3f 5d 74 51 3f 58 0a 54 3f 53 a0 56 3f
       0.8080808 0.8181818 0.82828283 0.83838385
000150 4e 36 59 3f 48 cc 5b 3f 43 62 5e 3f 3e f8 60 3f
       0.8484849 0.85858583 0.86868685 0.8787879
000160 39 8e 63 3f 34 24 66 3f 2f ba 68 3f 29 50 6b 3f
       0.8888889 0.8989899 0.90909094 0.9191919
000170 24 e6 6d 3f 1f 7c 70 3f 1a 12 73 3f 15 a8 75 3f
       0.9292929 0.93939394 0.94949496 0.959596
000180 10 3e 78 3f 0a d4 7a 3f 05 6a 7d 3f 00 00 80 3f
       0.969697 0.97979796 0.989899 1.0

x_bc_ub f4 [100, 1]
000000 db 0f c9 40 db 0f c9 40 db 0f c9 40 db 0f c9 40
       6.2831855 6.2831855 6.2831855 6.2831855
000010 db 0f c9 40 db 0f c9 40 db 0f c9 40 db 0f c9 40
       6.2831855 6.2831855 6.2831855 6.2831855
000020 db 0f c9 40 db 0f c9 40 db 0f c9 40 db 0f c9 40
       6.2831855 6.2831855 6.2831855 6.2831855
000030 db 0f c9 40 db 0f c9 40 db 0f c9 40 db 0f c9 40
       6.2831855 6.2831855 6.2831855 6.2831855
000040 db 0f c9 40 db 0f c9 40 db 0f c9 40 db 0f c9 40
       6.2831855 6.2831855 6.2831855 6.2831855
000050 db 0f c9 40 db 0f c9 40 db 0f c9 40 db 0f c9 40
       6.2831855 6.2831855 6.2831855 6.2831855
000060 db 0f c9 40 db 0f c9 40 db 0f c9 40 db 0f c9 40
       6.2831855 6.2831855 6.2831855 6.2831855
000070 db 0f c9 40 db 0f c9 40 db 0f c9 40 db 0f c9 40
       6.2831855 6.2831855 6.2831855 6.2831855
000080 db 0f c9 40 db 0f c9 40 db 0f c9 40 db 0f c9 40
       6.2831855 6.2831855 6.2831855 6.2831855
000090 db 0f c9 40 db 0f c9 40 db 0f c9 40 db 0f c9 40
       6.2831855 6.2831855 6.2831855 6.2831855
0000a0 db 0f c9 40 db 0f c9 40 db 0f c9 40 db 0f c9 40
       6.2831855 6.2831855 6.2831855 6.2831855
0000b0 db 0f c9 40 db 0f c9 40 db 0f c9 40 db 0f c9 40
       6.2831855 6.2831855 6.2831855 6.2831855
0000c0 db 0f c9 40 db 0f c9 40 db 0f c9 40 db 0f c9 40
       6.2831855 6.2831855 6.2831855 6.2831855
0000d0 db 0f c9 40 db 0f c9 40 db 0f c9 40 db 0f c9 40
       6.2831855 6.2831855 6.2831855 6.2831855
0000e0 db 0f c9 40 db 0f c9 40 db 0f c9 40 db 0f c9 40
       6.2831855 6.2831855 6.2831855 6.2831855
0000f0 db 0f c9 40 db 0f c9 40 db 0f c9 40 db 0f c9 40
       6.2831855 6.2831855 6.2831855 6.2831855
000100 db 0f c9 40 db 0f c9 40 db 0f c9 40 db 0f c9 40
       6.2831855 6.2831855 6.2831855 6.2831855
000110 db 0f c9 40 db 0f c9 40 db 0f c9 40 db 0f c9 40
       6.2831855 6.2831855 6.2831855 6.2831855
000120 db 0f c9 40 db 0f c9 40 db 0f c9 40 db 0f c9 40
       6.2831855 6.2831855 6.2831855 6.2831855
000130 db 0f c9 40 db 0f c9 40 db 0f c9 40 db 0f c9 40
       6.2831855 6.2831855 6.2831855 6.2831855
000140 db 0f c9 40 db 0f c9 40 db 0f c9 40 db 0f c9 40
       6.2831855 6.2831855 6.2831855 6.2831855
000150 db 0f c9 40 db 0f c9 40 db 0f c9 40 db 0f c9 40
       6.2831855 6.2831855 6.2831855 6.2831855
000160 db 0f c9 40 db 0f c9 40 db 0f c9 40 db 0f c9 40
       6.2831855 6.2831855 6.2831855 6.2831855
000170 db 0f c9 40 db 0f c9 40 db 0f c9 40 db 0f c9 40
       6.2831855 6.2831855 6.2831855 6.2831855
000180 db 0f c9 40 db 0f c9 40 db 0f c9 40 db 0f c9 40
       6.2831855 6.2831855 6.2831855 6.2831855

t_bc_ub f4 [100, 1]
000000 00 00 00 00 b5 7e 25 3c b5 7e a5 3c 10 3e f8 3c
       0.0 0.01010101 0.02020202 0.030303031
000010 b5 7e 25 3d 62 de 4e 3d 10 3e 78 3d de ce 90 3d
       0.04040404 0.05050505 0.060606062 0.07070707
000020 b5 7e a5 3d 8c 2e ba 3d 62 de ce 3d 39 8e e3 3d
       0.08080808 0.09090909 0.1010101 0.11111111
000030 10 3e f8 3d f3 76 06 3e de ce 10 3e ca 26 1b 3e
       0.121212125 0.13131313 0.14141414 0.15151516
000040 b5 7e 25 3e a0 d6 2f 3e 8c 2e 3a 3e 77 86 44 3e
       0.16161616 0.17171717 0.18181819 0.1919192
000050 62 de 4e 3e 4e 36 59 3e 39 8e 63 3e 24 e6 6d 3e
       0.2020202 0.21212122 0.22222222 0.23232323
000060 10 3e 78 3e fd 4a 81 3e f3 76 86 3e e9 a2 8b 3e
       0.24242425 0.25252524 0.26262626 0.27272728
000070 de ce 90 3e d4 fa 95 3e ca 26 9b 3e bf 52 a0 3e
       0.28282827 0.2929293 0.3030303 0.3131313
000080 b5 7e a5 3e ab aa aa 3e a0 d6 af 3e 96 02 b5 3e
       0.32323232 0.33333334 0.34343433 0.35353535
000090 8c 2e ba 3e 81 5a bf 3e 77 86 c4 3e 6d b2 c9 3e
       0.36363637 0.37373737 0.3838384 0.3939394
0000a0 62 de ce 3e 58 0a d4 3e 4e 36 d9 3e 43 62 de 3e
       0.4040404 0.41414142 0.42424244 0.43434343
0000b0 39 8e e3 3e 2f ba e8 3e 24 e6 ed 3e 1a 12 f3 3e
       0.44444445 0.45454547 0.46464646 0.47474748
0000c0 10 3e f8 3e 05 6a fd 3e fd 4a 01 3f f8 e0 03 3f
       0.4848485 0.4949495 0.5050505 0.5151515
0000d0 f3 76 06 3f ee 0c 09 3f e9 a2 0b 3f e4 38 0e 3f
       0.5252525 0.53535354 0.54545456 0.5555556
0000e0 de ce 10 3f d9 64 13 3f d4 fa 15 3f cf 90 18 3f
       0.56565654 0.57575756 0.5858586 0.5959596
0000f0 ca 26 1b 3f c5 bc 1d 3f bf 52 20 3f ba e8 22 3f
       0.6060606 0.61616164 0.6262626 0.6363636
000100 b5 7e 25 3f b0 14 28 3f ab aa 2a 3f a5 40 2d 3f
       0.64646465 0.65656567 0.6666667 0.67676765
000110 a0 d6 2f 3f 9b 6c 32 3f 96 02 35 3f 91 98 37 3f
       0.68686867 0.6969697 0.7070707 0.7171717
000120 8c 2e 3a 3f 86 c4 3c 3f 81 5a 3f 3f 7c f0 41 3f
       0.72727275 0.7373737 0.74747473 0.75757575
000130 77 86 44 3f 72 1c 47 3f 6d b2 49 3f 67 48 4c 3f
       0.7676768 0.7777778 0.7878788 0.7979798
000140 62 de 4e 3f 5d 74 51 3f 58 0a 54 3f 53 a0 56 3f
       0.8080808 0.8181818 0.82828283 0.83838385
000150 4e 36 59 3f 48 cc 5b 3f 43 62 5e 3f 3e f8 60 3f
       0.8484849 0.85858583 0.86868685 0.8787879
000160 39 8e 63 3f 34 24 66 3f 2f ba 68 3f 29 50 6b 3f
       0.8888889 0.8989899 0.90909094 0.9191919
000170 24 e6 6d 3f 1f 7c 70 3f 1a 12 73 3f 15 a8 75 3f
       0.9292929 0.93939394 0.94949496 0.959596
000180 10 3e 78 3f 0a d4 7a 3f 05 6a 7d 3f 00 00 80 3f
       0.969697 0.97979796 0.989899 1.0

weight f4 [50, 2]
000000 83 4d bf bd 0c 81 06 3f 84 f7 0c bf ac 9d 11 bf
       -0.09340956 0.5254066 -0.5506518 -0.56881213
000010 4b 74 9b be fb 8c 25 3e 90 eb 2d 3c 26 30 3e 3f
       -0.30362162 0.16167061 0.0106152445 0.7429222
000020 ac ef 38 bd ac 84 8c 3e 05 d3 26 be b8 95 34 be
       -0.045150444 0.2744497 -0.16291435 -0.17635238
000030 64 d0 31 bf 01 81 03 bf 9f 90 79 be 83 d3 a1 bc
       -0.69458604 -0.5136872 -0.24371575 -0.019754177
000040 b2 fd ca 3e 24 10 f4 3e fc 0b fa be 1b 12 9d be
       0.3964668 0.47668564 -0.48837268 -0.30677876
000050 24 d8 3b 3e ce 73 39 3f f0 94 f6 bd a9 a4 2f 3f
       0.1834417 0.7244233 -0.12040126 0.68610626
000060 f6 1d 89 bd 92 24 f4 3d d7 83 31 3f f9 79 2c bf
       -0.06695168 0.11921038 0.69341797 -0.67373616
000070 f1 04 f5 be 4f 06 3d be 1a 2a 94 be ef d8 23 3f
       -0.47855332 -0.18459438 -0.2893837 0.6400289
000080 6b 2e ef be 8b c5 98 be 4e 38 f9 be ff 5e 29 bf
       -0.46715102 -0.29838213 -0.4867577 -0.6616058
000090 6d e0 f6 be ab d3 28 3f e3 3b 99 3e ba 2a d6 3e
       -0.48218098 0.6594798 0.29928502 0.41829473
0000a0 95 93 0d bd 7d 9e 14 bf 29 a3 26 3d ca 66 5e bf
       -0.034564573 -0.58054334 0.040682945 -0.86875594
0000b0 4d 97 07 bf 54 70 b3 be 45 4b f3 3e ae 42 e0 3e
       -0.5296524 -0.35046637 0.47518364 0.43800873
0000c0 1a f4 93 be fc 80 0c bd 2a ff 04 3f 09 34 40 3f
       -0.28897172 -0.034302697 0.5195185 0.750794
0000d0 24 75 8b 3e 0b 42 10 3e 67 8b ee 3e 22 f2 db be
       0.2723781 0.14087693 0.4659073 -0.4295817
0000e0 91 8a b5 3d 47 c0 3c bf e0 be 04 bf 1a b3 c4 be
       0.0886432 -0.7373089 -0.5185375 -0.38417894
0000f0 45 70 bf 3e f0 4e 81 3e d0 36 d9 be 5e 06 5d 3e
       0.37390342 0.25255537 -0.4242463 0.2158446
000100 39 96 d2 3e b3 8f cb bd 99 bd 9e 3c 25 17 b3 3e
       0.41130236 -0.09939518 0.019377517 0.34978595
000110 b1 be e8 3e 42 72 32 3f c6 07 f3 be 16 ca ad be
       0.45457986 0.69705594 -0.47466868 -0.33943242
000120 af de 53 3e 27 14 1f 3f d5 83 11 3f 7a 6d 1d 3f
       0.20690416 0.62140125 0.56841785 0.6149517
000130 6f e1 6f 3d dc 70 46 bf cf e8 40 bd 38 40 29 bf
       0.0585646 -0.7751596 -0.047097024 -0.66113615
000140 35 5a 35 bf 2f c8 2a 3f fe 31 0e 3f d9 85 3b bf
       -0.7084077 0.66711706 0.5554503 -0.7325111
000150 ba f7 bc 3d 5d 01 85 be 58 d1 01 bd 40 ba 02 bf
       0.092269376 -0.25977603 -0.031693786 -0.51065445
000160 7d eb 1b 3e 8f fd 1d bf b7 a1 77 3e b6 bc f1 3e
       0.1522655 -0.61715025 0.24182783 0.47214288
000170 07 7a 03 3f 4d 50 81 3e 14 40 43 bf 3e c5 ed be
       0.51358074 0.25256577 -0.7626965 -0.46439546
000180 eb 27 d5 3e e8 d8 89 3d 98 1b 0e bf 16 47 df be
       0.41632017 0.06730825 -0.55510855 -0.43608922

bias f4 [50]
000000 62 ec 0d 3f 68 5c 0c 3f 3c be c5 be b3 70 7a bd
       0.55438817 0.548285 -0.386217 -0.061142635
000010 df d3 20 bf 2a dd 34 bb ae 50 0b bf ca 04 19 bf
       -0.6282329 -0.0027597644 -0.5441998 -0.5977293
000020 d9 1e ba bd bd 0a c7 3d bf 8a bd be f6 e2 00 3f
       -0.09087915 0.09718845 -0.37019917 0.50346315
000030 3f b7 cc be 5a 83 27 3f 96 61 03 3f dd ca 19 bf
       -0.39983556 0.654348 0.5132078 -0.6007517
000040 4a aa 3d be 90 2d 8a 3d e4 ed b7 3d a8 c0 42 3e
       -0.18521991 0.067469716 0.08980921 0.19018805
000050 60 f8 01 3e a8 8b a9 bd 2b 46 b0 be 1a 4f b9 3e
       0.12692404 -0.082785904 -0.34428534 0.36193162
000060 ad f1 2e bf 05 24 fc be 89 f4 59 be 3e 52 bc be
       -0.6833752 -0.4924623 -0.21284689 -0.36781496
000070 67 e6 ba be fb c3 14 bf 72 a3 19 be 47 79 23 3e
       -0.36503908 -0.5811154 -0.15003756 0.15964232
000080 c7 70 f0 be ac d0 8d ba da 82 0c 3f 27 b7 9f 3c
       -0.46961042 -0.0010819635 0.54887164 0.019496514
000090 91 23 98 3d 8a f8 c3 bd 9b cf e5 b9 75 83 8a 3e
       0.07428659 -0.095688894 -0.00043832962 0.2705342
0000a0 cf 30 28 3f a4 3b dc 3e de 9c 1d 3f de de 0c 3c
       0.65699476 0.43014252 0.61567485 0.008598058
0000b0 d1 9e 3f bf 28 9c cd be 93 eb f7 3e 56 da a9 bb
       -0.7485171 -0.401582 0.48421916 -0.0051834984
0000c0 3f 35 c0 be 7f 9b 0e bf
       -0.37540624 -0.5570602

weight f4 [50, 50]
000000 59 4b a0 bd b8 02 05 be 46 1c 8c bb c5 ef 6e 3e
       -0.078268714 -0.12989318 -0.0042758314 0.23333652
000010 89 bb 09 3e 32 94 f2 bd 74 46 e7 3d 2b cb 8c bd
       0.13450445 -0.11844672 0.11292735 -0.06874689
000020 57 2e 16 bd 14 4c 80 bd 89 68 26 bd 63 82 98 3c
       -0.036665287 -0.06264511 -0.040627036 0.01861686
000030 1b eb cf bd 03 9a 14 be 98 a5 b6 bc f7 02 17 3d
       -0.10152265 -0.14511876 -0.022295758 0.036868062
000040 40 9a 80 bd 92 dd 3c 3d e0 e8 02 be 77 56 e3 bc
       -0.06279421 0.046109743 -0.12784147 -0.02775119
000050 51 ed ed bc cf 72 13 be 8f c0 08 3e d9 55 36 3d
       -0.029043825 -0.14399265 0.13354705 0.044515464
000060 f5 b9 9c bd bb 92 ca 3d f6 3c 25 bd cc bd 77 bd
       -0.07652656 0.09891268 -0.04034134 -0.06048374
000070 26 68 53 3d 03 bd b2 bd 3f 72 45 3b 40 1f db bc
       0.051612996 -0.087274574 0.003012791 -0.0267483
000080 1c 05 b0 3d 12 4a 20 3e 18 a4 53 3d 46 e4 40 3d
       0.085947245 0.15653256 0.051670164 0.0470927
000090 67 51 58 bd 89 7c 9d bc 53 4d 43 be d3 59 98 bd
       -0.052812006 -0.019224422 -0.19072466 -0.074390076
0000a0 b2 70 c9 3d c4 dd a6 3d 43 b0 1f be a7 6a 8f bd
       0.09835948 0.08147767 -0.15594582 -0.07002764
0000b0 cf 71 d7 bd f1 70 c4 bd b5 06 ce bd f8 98 f5 3c
       -0.10519754 -0.09591854 -0.10059873 0.029980168
0000c0 ca c1 c2 bd a3 47 a3 3c e7 79 03 3e 58 a8 ce 3d
       -0.095096186 0.01993162 0.12839471 0.10090703
0000d0 64 7b c2 bd 02 39 ab 3d 90 70 5b bd 27 cb c3 3d
       -0.09496191 0.08360483 -0.053574145 0.095602326
0000e0 4b a4 3d bd 2c 05 01 3e 52 21 39 3d 1d 35 cf 3c
       -0.04629926 0.12599629 0.045197792 0.025293881
0000f0 b9 51 25 3d b7 74 ac 3d 93 b4 bb 3c 58 15 34 bd
       0.04036114 0.08420699 0.022913253 -0.043965667
000100 9e ba 4f 3c 28 95 09 3d 86 8d d5 bd 50 3d 89 bd
       0.01267877 0.033589512 -0.10427384 -0.067011476
000110 23 11 00 3e 1e ac f2 bd c7 d4 24 be c5 bc ea 3c
       0.12506537 -0.11849235 -0.16096793 0.028654465
000120 b8 ca 65 3d a0 8d 81 ba fc 38 f0 bd 72 ab 6a 3d
       0.05610153 -0.0009884126 -0.11729619 0.05729241
000130 02 84 e6 bd fc f8 48 bd d2 94 28 be 98 e7 88 bc
       -0.11255647 -0.049065575 -0.1646302 -0.016711995
000140 45 bb 0b bc a4 96 03 3e d5 2c 1e bb c2 89 80 3e
       -0.008528535 0.12850434 -0.0024135609 0.251051
000150 3d eb ab 3d 0f 5c ac bd e6 ef 95 3d b5 16 d6 bd
       0.083944775 -0.08415996 0.073211476 -0.1045355
000160 d0 3a 14 be a4 6e af bd f6 b1 17 3d 3c e7 b8 3d
       -0.1447556 -0.08566025 0.03703495 0.090284795
000170 f1 0e 69 bd 66 f3 ac bd 9e ce 9c 3c e5 f4 e4 bd
       -0.056899015 -0.08444862 0.019141492 -0.111795224
000180 f4 d4 c6 3d 81 24 f0 bd 05 06 68 bc 5c e3 a4 bc
       0.09708586 -0.117257126 -0.014161591 -0.020127945
000190 93 d4 3d 3d d4 bb 19 3d f3 aa 05 3e 3f b4 cc 3d
       0.046345305 0.037532642 0.13053493 0.09995317
0001a0 e6 4d 9b bc 68 35 42 bd 2c 17 f8 bd 50 60 a3 3d
       -0.018958043 -0.047414213 -0.12113795 0.079773545
0001b0 49 b2 ac bd 33 f4 a2 bd 7a af 54 bd e3 79 23 3e
       -0.08432443 -0.079567336 -0.05192516 0.15964465
0001c0 5c 9c d5 3d 28 b0 dc 3d b8 bc 8b 3d a6 e6 09 bd
       0.10430214 0.10775787 0.068231046 -0.03366723
0001d0 67 83 c0 bc c2 85 82 3d b5 33 04 3e 81 25 cc 3c
       -0.023500158 0.063731685 0.1291035 0.024920227
0001e0 96 6d 47 be 71 db 18 be 0b 3c ee bd 61 4b 2a 3c
       -0.19475397 -0.1492746 -0.11632546 0.010393948
0001f0 f5 57 75 bd e8 1e 1a be d6 25 ed 3d 44 bd d7 bd
       -0.059898335 -0.15050852 0.11579482 -0.105341464
000200 1b 7d c9 bd dc 9f 80 3d 12 ab 08 bc 6a 87 a8 bd
       -0.09838315 0.06280491 -0.008341568 -0.08228953
000210 3f 29 04 be b9 51 56 3e c6 f7 0b bc 80 b5 06 3e
       -0.12906359 0.20929612 -0.0085429605 0.13155174
000220 df 2b 4e bd d9 e9 c7 3c cf d5 bd bd 46 33 ee bd
       -0.050334807 0.0244035 -0.092692964 -0.116308734
000230 5f be 9f bd d0 7c 24 3d 1f 56 00 3c ab c4 79 bd
       -0.07799982 0.040158093 0.007833033 -0.060978573
000240 55 29 9a bd cd 4a 8f bd 7e f6 a5 3d fa 25 c0 bd
       -0.07527415 -0.06996689 0.08103655 -0.093822435
000250 0d d9 30 3d 1e 00 dc bc ff 0d 24 be 4e 8b b8 3c
       0.043175746 -0.026855525 -0.16020964 0.022527363
000260 a4 36 85 bd 22 8b 35 bd 52 20 49 3d bf aa bd bd
       -0.065045625 -0.04432214 0.04910309 -0.09261083
000270 68 b5 10 3d 40 cf 95 3d a2 7e 4d 3d 80 db 7d bc
       0.035329252 0.073149204 0.050169595 -0.015494227
000280 31 62 11 be 02 9f 85 bd cd c3 83 3d b5 a5 76 bd
       -0.14197613 -0.06524469 0.064338304 -0.060216624
000290 4c 70 57 3d e4 5a d7 3d 55 da 8b bd 76 fe a2 3b
       0.05259733 0.10515383 -0.06828753 0.0049741818
0002a0 39 f2 79 3d e7 27 f5 3a 6f 9d b6 3d 3a 62 8b 3d
       0.061022017 0.0018703908 0.08916747 0.068058446
0002b0 12 5c d3 bd 0d 5b 28 3b 13 b5 e7 3d 39 33 05 3e
       -0.103202954 0.0025689036 0.11313834 0.13007821
0002c0 8d 1e 9d 3d 3a e0 8d 3c b0 52 ed 3d fc 30 66 bd
       0.07671843 0.017318834 0.11588037 -0.05619906
0002d0 8a c9 f8 bd 18 57 f4 bd f5 a1 0f 3e 91 eb f6 3c
       -0.121478155 -0.11930674 0.14026625 0.030141624
0002e0 2d 42 e6 bd 34 5f 6f 3d 43 25 bb 3d e2 e1 0c 3e
       -0.11243091 0.058440402 0.091379665 0.13758042
0002f0 d1 48 1e 3e 13 44 32 3e 3d f1 e4 bc 32 80 63 bd
       0.15457465 0.17408781 -0.027947063 -0.05554218
000300 1c 79 c7 3d b7 87 f5 3d 12 98 86 bd d5 99 df 3d
       0.09739897 0.11988776 -0.06571974 0.10918013
000310 0b 03 70 3d c7 79 a8 3d 78 51 b8 bd ba b0 56 3d
       0.058596652 0.08226352 -0.08999914 0.052414633
000320 f9 9a 67 bd 91 ee e3 3d 83 c1 bb bc e8 79 7f 3d
       -0.056544278 0.11129487 -0.022919422 0.06237212
000330 29 bf 5a 3d a8 a9 82 3d d7 8e 35 bd 06 f6 94 3d
       0.05340496 0.063800156 -0.044325676 0.07273488
000340 c6 e9 ce bd 0c b0 07 3d e6 70 bb bd fe 7f 10 be
       -0.101031825 0.033126876 -0.09152393 -0.14111325
000350 4d 65 c8 bd 06 ef e4 3d 0a fc a0 3d cc 1c 0f 3e
       -0.097849466 0.111784026 0.07860573 0.13975829
000360 e0 3d ec 3d 45 d8 f9 bd f9 9f bc bd 6f 14 cf bc
       0.11535239 -0.12199453 -0.092102 -0.025278298
000370 82 65 95 bd 60 15 f7 3d 03 05 d5 bd 93 14 96 bd
       -0.07294752 0.12064624 -0.104013465 -0.07328143
000380 1c 91 06 be a9 35 ab bd 3a f9 ed 3d bc 5d e4 3d
       -0.13141292 -0.08359844 0.11619802 0.11150691
000390 54 a6 e1 3d 1c aa e9 3d de 9f ff 3d 3c 41 09 bd
       0.11018053 0.11409399 0.12481664 -0.033509478
0003a0 72 f3 76 3d 14 a6 d6 3d 8c a9 10 3d 23 16 12 3e
       0.06029076 0.10480896 0.035317943 0.14266257
0003b0 fb 3f 91 3d 86 87 ae 3d aa f0 1d bd ba 72 c3 3d
       0.070922814 0.08521943 -0.038559593 0.09543367
0003c0 e3 0d 97 3c 42 94 18 bd fb bc c7 bd 80 b2 87 bd
       0.018439239 -0.037250765 -0.09752842 -0.06625843
0003d0 15 b9 ea bd 55 17 c6 3d ff f4 c8 3d f2 fa 4f bc
       -0.11461083 0.09672419 0.09812354 -0.012694107
0003e0 4b fd aa bd 5c fc e8 3d 23 5a d3 3d 35 5a 30 3c
       -0.08349093 0.11376259 0.103199266 0.0107636945
0003f0 1e ee 86 bd 66 2c 1a 3e 95 86 87 3d e8 3b e0 bd
       -0.06588386 0.15055999 0.06617466 -0.10948926

bias f4 [50]
000000 8e 78 2a 3d 23 67 b6 3d 59 ac bf 3d 4e 8a 40 be
       0.041618876 0.089063905 0.093590446 -0.18802759
000010 46 05 9b 3b d2 98 cb ba d0 c6 af bc e9 1a ed bd
       0.0047308533 -0.0015533215 -0.021457106 -0.11577398
000020 76 44 db 3c 6d 4d 0b 3e ff 82 e3 bd e4 8a 09 3d
       0.026766043 0.13603754 -0.1110897 0.033579722
000030 7f 30 1f 3e fc 40 ff 3b af 1b 3e 3b d8 23 ff 3d
       0.15545844 0.007789729 0.00290082 0.124580085
000040 2a d5 b7 3b 2f 77 96 bd 6e d2 b7 bd 08 93 1b 3b
       0.005610128 -0.07346951 -0.08975683 0.002373876
000050 45 9d 77 3c c1 05 86 bd d4 c4 1b 3d 67 f3 01 3a
       0.01511318 -0.06544066 0.038029507 0.0004957229
000060 a3 cb fe bd a4 d6 4c 3c b6 6a f7 3d c1 ee 6c bd
       -0.12441184 0.012502346 0.120809 -0.05784488
000070 bb a4 8a 3d d1 82 89 3d 5e d6 05 be 16 16 0b be
       0.06769701 0.067144044 -0.13070056 -0.13582644
000080 de da cd bd fb da 20 3e bb 76 4b be 8a 31 7a 3d
       -0.10051511 0.15708534 -0.19869511 0.0610824
000090 12 5b fa bd 7c ae ae bc 36 fa 16 3d b3 e4 0c bd
       -0.122244015 -0.021323435 0.036859713 -0.034397792
0000a0 45 4a 0b 3e 53 e3 52 3c b3 5f f2 bd 2d 8b f7 3c
       0.1360255 0.012871581 -0.118346594 0.030217731
0000b0 a4 ec f2 3d 34 f0 bf 3d dc 81 94 3d 3e b1 65 bb
       0.11861542 0.09371987 0.07251331 -0.0035048272
0000c0 f5 3e 3b 3d a4 9d bc 3d
       0.045714337 0.09209755

weight f4 [50, 50]
000000 ae a7 6e 3d 48 15 0d bc d8 d5 27 3d 60 89 e4 bd
       0.05826538 -0.008611031 0.04097542 -0.11159015
000010 12 0d e1 bd cc 82 9f b9 5e a4 6f bc 72 9e e8 3d
       -0.10988821 -0.00030424295 -0.014626591 0.11358346
000020 9e 01 63 3d 05 1d d3 3d db e0 a8 bd 88 fe ed bd
       0.055421464 0.103082694 -0.08246013 -0.116208136
000030 c2 3b 03 be 23 aa 6d 3d bf 76 0a be db d6 0b be
       -0.12815765 0.058023583 -0.1352186 -0.1365618
000040 6c c2 a1 bd c0 4c 0f be b1 88 67 bd 86 13 d4 bd
       -0.07898411 -0.13994122 -0.056526843 -0.10355286
000050 ce 6d 9c bd b9 29 fa 3d 23 e2 c0 bc ec 1d eb 3d
       -0.07638131 0.12214989 -0.02354533 0.114803165
000060 2e 07 85 3b 3c 34 a0 bc 9b a4 39 bd fb 6f e1 bd
       0.004059694 -0.019556157 -0.045322996 -0.11007687
000070 92 47 e5 bd c0 aa bb 3d 8b 9d 19 bd 31 81 10 be
       -0.111952916 0.09163427 -0.03750376 -0.14111783
000080 d9 54 01 3e 60 40 b7 bc 6d 41 a8 bd 4f c0 e2 bd
       0.12630023 -0.022369564 -0.08215604 -0.11071836
000090 c6 ce ee bd 52 9a f6 bd 79 c3 0a 3e ae 6b c6 3d
       -0.11660533 -0.12041153 0.1355113 0.09688507
0000a0 0e 35 42 3c 71 44 ed bd 2c 94 15 bd 64 22 06 be
       0.01185347 -0.1158532 -0.03651826 -0.13099056
0000b0 db 5f 65 3d 24 46 4d 3c 94 ae ba bc 32 c5 17 bd
       0.055999618 0.01252893 -0.022788323 -0.037053294
0000c0 09 40 84 3d 7f 08 8d 3d 14 f9 3b 3d 5a 5f 22 bc
       0.06457526 0.06886386 0.045891836 -0.009910429
0000d0 4e 61 2c bc 7f b3 1a bb 66 c1 cf bd cf ec 09 3e
       -0.010521246 -0.0023605523 -0.1014431 0.13469242
0000e0 c8 0d 7c bd 59 be 9f 3d 4b 2a 1b bd 4e bb 92 bb
       -0.06153658 0.07799978 -0.03788213 -0.004477895
0000f0 82 1c 72 3d ba 7a 00 be f0 58 84 3d 57 53 e3 bd
       0.05910922 -0.12546816 0.06462276 -0.1109988
000100 cc 1a c3 3c aa 32 f8 bc c3 d0 ae 3d 72 66 1c 3e
       0.023816489 -0.030297596 0.08535912 0.15273455
000110 11 94 09 3d 62 7b e7 3b 57 f2 8a bd 69 b9 7e 3d
       0.033588473 0.007064269 -0.06784504 0.06218854
000120 86 6d 8e bd f9 21 77 3d aa 02 72 bd ec 21 c6 3d
       -0.06954484 0.060335133 -0.059084572 0.09674439
000130 3f 33 e7 3d 04 34 b7 3d 25 c0 8e 3a 35 7d 90 3d
       0.11289071 0.08945468 0.0010891004 0.07055131
000140 c2 03 08 be 59 b8 ea 3d c8 98 08 bd 92 9e 81 3d
       -0.13282683 0.11460943 -0.03334883 0.06329073
000150 89 39 11 bd 21 90 47 bd 9f 01 8b bd dc fb b8 3d
       -0.03545526 -0.048721436 -0.067874186 0.09032413
000160 42 d1 a4 bd 4a 46 cf bc fa f4 91 3d 5f 3a 33 3c
       -0.08047725 -0.025302071 0.07126804 0.01093921
000170 0e f9 f2 bd cb 8e 10 be ac b8 95 bd da 8b ad 3d
       -0.1186391 -0.14116971 -0.07310614 0.0847394
000180 40 e1 d4 bd a7 a6 95 3d f5 bc d0 3d c8 e6 66 bd
       -0.103945255 0.07307177 0.10192291 -0.056372434
000190 8a 69 c6 bc 04 92 5e bd e7 31 8c 3d 56 0f 02 bd
       -0.024220247 -0.05433847 0.068454556 -0.031752907
0001a0 6e c0 15 bc 20 04 75 3d ab c4 66 3d 7a ca 71 bd
       -0.009140117 0.059818387 0.0563399 -0.059030987
0001b0 ab 06 35 bc e9 4f 81 3c ff c4 5a bc a3 8d fe 3b
       -0.011048953 0.015785174 -0.013352632 0.0077683493
0001c0 ca 4b 0e bd 7a 33 d3 3d 4d 23 02 bc 99 43 00 3c
       -0.034740247 0.10312553 -0.007942987 0.007828617
0001d0 ee 46 f8 bd 28 2f 15 be bb 34 65 bc 08 0e 68 bb
       -0.12122904 -0.1456877 -0.013989623 -0.0035408754
0001e0 6d 40 91 bd 38 04 98 3d 2c 17 73 bc f1 8c 1f 3d
       -0.07092366 0.0742268 -0.014837068 0.03895277
0001f0 f6 0e 07 3e 0a 1d 86 bd ee e6 9d bd b2 a7 73 bd
       0.13189301 -0.065485075 -0.07710062 -0.0594861
000200 e9 74 ef 3c ea 44 ad bd 4c b2 44 bd a1 9c 37 bd
       0.029230552 -0.0846041 -0.0480216 -0.044827107
000210 bf 92 4c 3d 3c 70 27 3e 7f d1 8b 3d 3e 78 39 3d
       0.049944635 0.16351408 0.068270676 0.045280688
000220 8a ec 06 bc c1 cc 00 3d 86 a7 2a bc c3 19 b7 bc
       -0.008235106 0.03144527 -0.010415917 -0.022351151
000230 f0 3f 68 3d f2 bd 0d be 98 8b 17 be 19 39 10 3c
       0.0567016 -0.1384199 -0.14799345 0.008802676
000240 94 8c 44 bd 48 1a 85 bd bd 68 05 be e9 0a ec 3d
       -0.04798563 -0.064991534 -0.13028236 0.115255184
000250 06 16 9a bc 85 7a 86 bd 5a f8 33 be be a8 64 bd
       -0.01880933 -0.065663375 -0.17575207 -0.055824988
000260 16 3c 73 be 61 c4 af 3d fc 34 95 3d e9 15 37 bd
       -0.2375339 0.08582378 0.072854966 -0.04469863
000270 7b 88 f7 3c e4 ec 8a bd 05 a9 60 3e 9a 40 2d 3e
       0.030216446 -0.067834646 0.21939476 0.16919175
000280 f2 ea 17 3e 20 62 40 3e 99 b3 1f be 42 d4 34 3d
       0.14835718 0.18787432 -0.15595855 0.044147737
000290 6e 09 66 3d 09 0a 34 be 58 b2 d3 3d a6 38 66 bc
       0.056161337 -0.17581953 0.10336751 -0.014051592
0002a0 ef d8 4a 3d 41 e1 6c bd aa fe e6 bc 30 9b 2d 3c
       0.04952329 -0.057832006 -0.028197605 0.010596082
0002b0 c0 88 13 be e4 21 dd 3d 0c 77 f4 bd 8e f4 bf bd
       -0.14407635 0.1079748 -0.11936769 -0.09372817
0002c0 b9 b8 bc 3d 1b e8 f4 3d 4c d6 b7 bd 8d cd d4 bb
       0.092149206 0.11958333 -0.08976421 -0.00649423
0002d0 d8 1e 05 3d 40 08 51 3e c8 4d 28 3e f0 7d 93 3d
       0.032500118 0.20413303 0.16435921 0.07201755
0002e0 7e 58 18 3e 3e d3 be 3b df d4 f4 bd 5b 1d d4 3d
       0.14877507 0.005823522 -0.119546644 0.103571616
0002f0 d7 9e 8e 3d a9 8e 9b bd fb 26 18 bd 5e c7 40 3e
       0.0696389 -0.0759557 -0.03714655 0.18826053
000300 fa 87 d3 3d f7 d6 d6 bb d8 fd b5 bc 2e b3 21 bd
       0.1032867 -0.0065563875 -0.022215769 -0.03947752
000310 be fe ad bd ce 66 60 be 38 d6 56 3e 5f 0b 8d 3d
       -0.08495854 -0.21914217 0.20980155 0.068869345
000320 df e9 20 3e b1 f7 86 3d 1a d4 cc 3d 35 ff a8 3d
       0.15714215 0.06590212 0.10001393 0.08251802
000330 90 2d 0f 3c 8b fa fc bc 25 22 e7 3c c9 03 da bd
       0.00873889 -0.030881187 0.028214524 -0.10645253
000340 51 64 b5 3c f4 07 6d bd 13 d4 fd 3b 58 be fb bd
       0.022142561 -0.057868913 0.0077462285 -0.122921646
000350 d4 be c2 3d 3c 8a 0b be f9 a6 7e 3d aa 1b d3 3d
       0.09509054 -0.13626951 0.062170956 0.10308011
000360 f1 4b 00 be 57 46 e4 3d e4 66 ea bd a0 9b 68 bc
       -0.1252897 0.11146229 -0.11445406 -0.01419726
000370 90 59 92 3d 83 37 24 bd 55 96 fe 3d fb b0 8d bd
       0.07145989 -0.040092003 0.12431017 -0.06918522
000380 a5 fc 32 bc 9d a3 c0 bd 26 3f 92 bd 4a b6 f9 3d
       -0.010924493 -0.09406207 -0.07140951 0.12192972
000390 fa 7a 06 3e d3 bc ac 3b 1e 17 7a 3a 0f 66 17 be
       0.1313285 0.005271533 0.0009540188 -0.14785026
0003a0 ac 7a ca 3d 62 32 5e bc dc e1 b3 bd a1 c5 b7 bd
       0.09886679 -0.013561817 -0.08783314 -0.089732416
0003b0 ae 75 ec 3d 20 eb 81 3d 81 84 ac 3d cd 08 28 3c
       0.11545883 0.06343675 0.084237106 0.0102560045
0003c0 35 5f bc bd a1 42 3d 3d cd fb 53 ba 4b 1e 55 3d
       -0.09197847 0.04620612 -0.00080865325 0.052030843
0003d0 3a 9f 17 bd f9 fa c8 bd c6 d3 f0 3d 21 e0 72 3d
       -0.037017085 -0.09813494 0.117591426 0.059295777
0003e0 e8 f8 86 bd 95 7e 83 3c 55 94 a5 bb 8d e7 68 3c
       -0.06590444 0.01605157 -0.005053083 0.014215362
0003f0 f5 ab f3 3d 6d 50 ff bd 43 a4 df 3d 01 53 da 3d
       0.118980326 -0.12466512 0.10920002 0.10660363

bias f4 [50]
000000 15 05 93 bd 98 3b 2e 3e ea 25 64 3e b4 dd 48 3d
       -0.07178704 0.1701492 0.22280088 0.049039558
000010 24 40 27 3e 24 5d 81 3d e7 42 b1 3d 89 ac 1a bc
       0.16333061 0.06316593 0.08655339 -0.00944055
000020 c0 ae f0 bb c4 6b 88 bb f9 12 82 39 75 7b 98 3d
       -0.0073450506 -0.0041632373 0.00024809668 0.074454226
000030 f3 96 8c bc b5 65 5a 3c 8b 7f f4 3d 37 96 57 bd
       -0.017161822 0.013329913 0.119383894 -0.05263349
000040 44 74 dd bd f3 fb ac 3d ed 08 a6 bd fa 0f 15 bd
       -0.108131915 0.08446493 -0.08107171 -0.03639219
000050 87 08 06 be dc 01 72 3d 1d ca 10 3e 86 6b 12 be
       -0.1308919 0.059083804 0.141396 -0.1429883
000060 0a a6 09 be d1 4e 95 bd e5 ca 74 bc 6e 63 97 bd
       -0.13442245 -0.07290424 -0.014940952 -0.073920116
000070 e5 48 79 bd 58 56 5f bd 8e 24 18 ba e7 8e 1b bd
       -0.060860533 -0.054525703 -0.0005803787 -0.03797808
000080 af 9d a5 bd 73 8d d1 bd fa 55 83 bd 3c 4d 87 3d
       -0.080867164 -0.102320574 -0.06412883 0.06606528
000090 66 89 b7 bd 12 63 06 3e f0 1a 6d bd b0 d0 18 3d
       -0.089617535 0.1312373 -0.057887018 0.037308395
0000a0 9d ee a4 3d 7d b0 b5 bd 50 14 c7 bc e8 d1 6e 3d
       0.08053324 -0.08871553 -0.024301678 0.05830565
0000b0 73 2f a3 3d 42 64 17 be 8a f8 a7 bd 50 2e 6a bd
       0.079680346 -0.14784339 -0.08201702 -0.057173073
0000c0 a8 06 fc bd 5a 5e 02 3b
       -0.12305957 0.0019892664
